Archive/temp/best_model_t7jul_lat_ext_9jul1_2_3_4_5_6_tr.3.48.pth (torch, 525038 bytes, 29 tensors)

norm.weight f4 [6]
1.0 1.0 1.0 1.0 1.0 1.0
00000000: 0000 803f 0000 803f 0000 803f 0000 803f
00000010: 0000 803f 0000 803f

norm.bias f4 [6]
0.0 0.0 0.0 0.0 0.0 0.0
00000000: 0000 0000 0000 0000 0000 0000 0000 0000
00000010: 0000 0000 0000 0000

transformer_encoder.layers.0.self_attn.in_proj_weight f4 [18, 6]
-0.33936533 -0.37635347 -0.14269568 0.25071 0.09131035 0.025928238 0.55475026 0.036070347
-0.52716166 -0.18063167 0.23960024 -0.021433031 0.35967973 -0.08702368 -0.078104675 0.13173266
0.10137437 -0.23986053 0.16776067 -0.13344508 -0.28089616 0.44705647 0.33197743 0.016935926
-0.4836333 0.045813475 0.40752393 0.25483653 0.2955974 0.30230984 -0.28804308 -0.4654379
0.15983215 -0.124634236 0.23898332 0.17679392 0.34115902 -0.018561767 0.1321626 0.3816957
-0.4215896 0.55505145 0.34002626 -0.20462774 0.21382034 -0.1443815 -0.31919795 -0.24566129
0.2574715 -0.16417614 0.43300894 -0.075062186 0.101941235 -0.33081317 0.5826647 0.08848165
0.50031847 -0.047816657 0.48560837 -0.40941545 0.36678207 0.118813775 -0.41652757 -0.48905957
-0.47329384 -0.46858436 0.57103366 0.21989575 -0.46895766 -0.021108422 0.4369072 0.422526
2.9672065 0.708524 0.88439757 -0.53295857 -2.4029071 0.77548337 0.7677717 0.8442446
0.4843182 -0.48454428 0.15178894 1.9947786 1.6785754 0.0153269265 0.4711884 0.23602091
-0.18560521 -0.8260744 -1.4304031 -0.80658764 -1.216901 0.13890691 0.23723486 0.4648327
0.4669824 -0.012323656 -0.35692614 -0.34107113 -0.7083196 1.0383819 -0.16288505 1.0412806
0.65340215 -0.14884663 0.20140444 0.16878448
00000000: 4bc1 adbe 67b1 c0be d11e 12be 105d 803e
00000010: ec00 bb3d 7567 d43c 1d04 0e3f 80be 133d
00000020: 11f4 06bf 82f7 38be c459 753e 5394 afbc
00000030: f127 b83e 7939 b2bd 58f5 9fbd ede4 063e
00000040: 5e9d cf3d 009e 75be 74c9 2b3e d4a5 08be
00000050: 9fd1 8fbe 96e4 e43e f2f8 a93e 36bd 8a3c
00000060: c99e f7be e9a6 3b3d faa6 d03e ef79 823e
00000070: 8b58 973e 5bc8 9a3e 627a 93be e04d eebe
00000080: 0aab 233e 3c40 ffbd 0bb8 743e 7709 353e
00000090: 65ac ae3e d90e 98bc a255 073e 9e6d c33e
000000a0: 98da d7be da17 0e3f ec17 ae3e ef89 51be
000000b0: b8f3 5a3e bed8 13be ea6d a3be a28e 7bbe
000000c0: 4ed3 833e ca1d 28be 59b3 dd3e 34ba 99bd
000000d0: 91c6 d03d 5860 a9be 8429 153f de35 b53d
000000e0: df14 003f 66db 43bd a9a1 f83e e79e d1be
000000f0: dcca bb3e a354 f33d 1a43 d5be 0466 fabe
00000100: 9253 f2be 4aea efbe 432f 123f 5a2c 613e
00000110: 381b f0be 92eb acbc 4db2 df3e 5455 d83e
00000120: b6e6 3d40 d461 353f e167 623f f96f 08bf
00000130: 3bc9 19c0 1486 463f b08c 443f 6a20 583f
00000140: 8ef8 f73e 3016 f8be 8f6e 1b3e e854 ff3f
00000150: 8fdb d63f ca1d 7b3c 9b3f f13e 77af 713e
00000160: 4b0f 3ebe 9d79 53bf 7317 b7bf 877c 4ebf
00000170: 69c3 9bbf 9d3d 0e3e b2ed 723e 8dfe ed3e
00000180: 5118 ef3e 29e9 49bc 06bf b6be e0a0 aebe
00000190: 6f54 35bf b3e9 843f 57cb 26be af48 853f
000001a0: 5d45 273f 406b 18be f73c 4e3e d7d5 2c3e

transformer_encoder.layers.0.self_attn.in_proj_bias f4 [18]
0.06163143 -0.099175155 0.01915016 0.036654245 -0.029438991 0.015041335 -0.15564406 0.16339664
0.014832517 0.029386623 0.018791076 -0.015761862 0.92787826 0.6690392 0.42855102 -1.3664452
-0.277085 0.84701514
00000000: 3d71 7c3d 581c cbbd cce0 9c3c c322 163d
00000010: 0a2a f1bc ee6f 763c 2861 1fbe 7351 273e
00000020: 1604 733c 37bc f03c beef 993c 051f 81bc
00000030: 6e89 6d3f 2746 2b3f 0a6b db3e ade7 aebf
00000040: 16de 8dbe fcd5 583f

transformer_encoder.layers.0.self_attn.out_proj.weight f4 [6, 6]
0.3410961 0.025334671 0.36243218 -0.3204935 -0.18606731 0.0631189 0.11155358 -0.047839947
0.10018087 0.20794535 -0.4556307 -0.66019493 -0.12002861 -0.49225363 0.08180121 -0.051084194
-0.14975822 0.0028540718 -0.050829727 0.055435084 -0.059829284 0.024151782 -0.0009665591 -0.0022227992
0.20920618 -0.26160643 0.10671333 0.39372385 0.32527736 0.325758 -0.3980701 -0.19585724
-0.08104813 0.25401625 0.22056006 -0.1890278
00000000: 26a4 ae3e a88a cf3c b690 b93e b917 a4be
00000010: 6e88 3ebe 7b44 813d 3476 e43d d2f3 43bd
00000020: a12b cd3d a0ef 543e 6d48 e9be 8902 29bf
00000030: 8fd1 f5bd ab08 fcbe 6587 a73d a93d 51bd
00000040: 385a 19be 610b 3b3b d532 50bd e60f 633d
00000050: 8d0f 75bd f5d9 c53c af60 7dba 62ac 11bb
00000060: 253a 563e 47f1 85be 858c da3d 2c96 c93e
00000070: c18a a63e c1c9 a63e d8cf cbbe cd8e 48be
00000080: 90fc a5bd 6b0e 823e 7fda 613e 8190 41be

transformer_encoder.layers.0.self_attn.out_proj.bias f4 [6]
2.0571105 -1.160824 0.3950909 0.8402757 0.05487537 -1.9607162
00000000: b3a7 0340 e195 94bf 5b49 ca3e 4f1c 573f
00000010: ffc4 603d c0f8 fabf

transformer_encoder.layers.0.linear1.weight f4 [2048, 6]
-0.28585717 -0.038650885 0.27512318 -0.1925798 0.07146678 -0.24602686 -0.26000074 0.079341635
-0.2833143 -0.40743634 0.3967431 0.4680993 -0.16017723 0.05740947 0.013831364 0.14906597
0.15172207 -0.021369254 0.4456699 0.21429758 0.13486688 0.28564763 0.03764279 -0.084376134
0.18266225 0.6919789 0.013758082 -0.77027065 -0.32838655 0.41048723 0.0046690656 0.13027813
-0.3962464 -0.13059622 -0.017830985 0.6298291 0.045895852 0.11677409 -0.21805179 0.15606709
0.53673047 0.18980847 0.05075298 0.2120666 0.28043163 0.07124118 -0.3325256 -0.20618847
-0.22332457 0.20699686 -0.1518747 -0.14192663 -0.16667692 -0.13112482 0.11850625 -0.01808329
0.06397283 -0.30544168 -0.04312062 0.60759294 0.24294583 1.1034707 -0.31779474 -1.0758533
-0.5566455 -0.17541377 0.0052532973 0.17915659 -0.025902381 -0.42425516 0.10805285 0.18179743
-0.15729146 -0.009408317 -0.24598554 -0.057941604 0.7483057 0.06541913 0.12752137 0.6765738
0.13214245 -0.02324801 -0.49183366 0.33824152 -0.50275546 0.18363912 -0.027318085 -0.21740857
0.31201676 -0.02917553 -0.03708203 -0.060663246 -0.18233366 -0.4866847 0.07444722 0.21022606
0.38210866 0.79170567 0.06087051 0.051258523 -0.4290926 -0.040212534 -0.117740944 -0.07403783
0.04132116 0.13328174 0.24992551 0.13307905 -0.27368525 0.30852035 0.4711707 -0.34063983
-0.4627845 -0.41555065 -0.038070817 0.3745148 0.23956725 0.07542089 0.16932474 -0.114662245
0.03733697 0.3034193 0.15702976 0.03262872 -0.29300565 -0.07837713 -0.13571341 -0.22041263
-0.21080558 -0.3034811 -0.2547231 -0.04627603 0.20242798 0.07854207 0.087169915 0.27411893
0.17291793 -0.10093558 -0.30874225 0.32625633 0.1933292 -0.1427211 0.12208033 -0.21393697
-0.29700372 0.32627583 0.112382375 -0.24514243 -0.02845826 0.15555692 0.19366434 -0.39982048
0.27505395 -0.18045424 0.49272907 0.29342765 0.23421413 0.2005243 0.18607877 0.02969267
0.029558117 -0.06577558 0.041001868 -0.17207658 0.37979048 0.10748085 -0.010910684 -0.23148584
0.3402972 -0.19400883 0.0867431 -0.00987841 -0.044719085 -0.14399204 -0.07510085 0.5252396
0.51096964 -0.12182907 -0.15028143 -0.4691281 -0.11464031 -0.24356492 -0.43424386 0.19278853
-0.23195723 -0.3317427 -0.15550223 -0.15462846 0.20624213 -0.030072246 0.10942884 0.15695933
-0.32866085 -0.04805182 -0.31280223 -0.19516385 0.41123813 0.116935566 0.23670965 -0.28937817
-0.19011174 0.083784536 0.052426185 0.0909064 0.023688618 0.43096837 0.045674186 -0.013224656
0.31008872 0.12882988 0.0032185726 -0.0714496 0.59288734 -0.4562153 -0.021991642 -0.048993528
-0.26219934 -0.1793059 -0.1620211 -0.10959676 0.14839649 0.14270943 0.16263252 -0.06228659
0.16117063 0.111180335 0.54135245 0.13069333 0.25958055 0.32854936 -0.585021 0.35864973
0.41911176 -0.09866943 0.4776886 -0.062836796 -0.32417968 0.24734575 -0.3147582 -0.2658659
0.18414119 -0.061550327 0.064259805 -0.050112937 -0.49619985 -0.2781503 0.0036591548 -0.14387219
-0.54015976 -0.1875242 -0.20350142 0.45555758 0.2070033 0.40477288 -0.41255143 -0.27378312
00000000: df5b 92be 6450 1ebd f2dc 8c3e a433 45be
00000010: 2d5d 923d 77ee 7bbe d11e 85be de7d a23d
00000020: 920e 91be 7f9b d0be e921 cb3e b6aa ef3e
00000030: 8005 24be 3126 6b3d f29c 623c c0a4 183e
00000040: 085d 1b3e 930e afbc d82e e43e d370 5b3e
00000050: 8b1a 0a3e 6840 923e 532f 1a3d 65cd acbd
00000060: d00b 3b3e 8725 313f 9469 613c 7530 45bf
00000070: 4822 a8be 622b d23e f6fe 983b a167 053e
00000080: cfe0 cabe 04bb 05be 4912 92bc 7b3c 213f
00000090: 4afd 3b3d 4127 ef3d f848 5fbe 0dd0 1f3e
000000a0: 2b67 093f 275d 423e 5be2 4f3d fd27 593e
000000b0: bc94 8f3e e5e6 913d cc40 aabe 1223 53be
000000c0: 32af 64be fcf6 533e 0b85 1bbe 3755 11be
000000d0: 5bad 2abe 9645 06be 68b3 f23d 6823 94bc
000000e0: 3004 833d da62 9cbe 3f9f 30bd 368b 1b3f
000000f0: cbc6 783e 873e 8d3f feb5 a2be 90b5 89bf
00000100: 5280 0ebf ab9f 33be da23 ac3b d374 373e
00000110: 3b31 d4bc f937 d9be d04a dd3d 1b29 3a3e
00000120: 0311 21be 5725 1abc a2e3 7bbe 2d54 6dbd
00000130: f690 3f3f 77fa 853d f694 023e f133 2d3f
00000140: 5a50 073e 9c72 bebc 9fd1 fbbe fe2d ad3e
00000150: 95b4 00bf e50b 3c3e 2dca dfbc 5aa0 5ebe
00000160: a9c0 9f3e 8501 efbc 54e3 17bd 067a 78bd
00000170: adb5 3abe bd2e f9be c977 983d 8045 573e
00000180: bfa3 c33e 39ad 4a3f 5b53 793d 75f4 513d
00000190: 06b2 dbbe e6b5 24bd 2a22 f1bd 25a1 97bd
000001a0: 6040 293d 027b 083e 79ec 7f3e e045 083e
000001b0: 7920 8cbe 61f6 9d3e 493d f13e 5868 aebe
000001c0: 17f2 ecbe 0ec3 d4be 25f0 1bbd 67c0 bf3e
000001d0: 1e51 753e 4476 9a3d 7763 2d3e 0ad4 eabd
000001e0: a7ee 183d c659 9b3e 69cc 203e b1a5 053d
000001f0: d604 96be 3084 a0bd 75f8 0abe d9b3 61be
00000200: 6bdd 57be e061 9bbe 116b 82be ef8b 3dbd
00000210: 4849 4f3e aada a03d 2486 b23d 5159 8c3e
00000220: 6611 313e 50b7 cebd 7713 9ebe 120b a73e
00000230: 17f8 453e 7b25 12be 4105 fa3d 4b12 5bbe
00000240: df10 98be a00d a73e bb28 e63d 9e06 7bbe
00000250: 4c21 e9bc 504a 1f3e f24f 463e 45b5 ccbe
00000260: dfd3 8c3e ffc8 38be fc46 fc3e 263c 963e
00000270: d4d5 6f3e 3e56 4d3e 6f8b 3e3e 0b3e f33c
00000280: dd23 f23c 59b5 86bd 93f1 273d d834 30be
00000290: e673 c23e eb1e dc3d bac2 32bc a00a 6dbe
000002a0: 6f3b ae3e 40aa 46be 5ea6 b13d 0ed9 21bc
000002b0: 5c2b 37bd a672 13be 79ce 99bd 1a76 063f
000002c0: e8ce 023f 8581 f9bd 60e3 19be 8f31 f0be
000002d0: 8ac8 eabd 1569 79be 3655 debe 5b6a 453e
000002e0: 3286 6dbe 2eda a9be fa3b 1fbe ec56 1ebe
000002f0: 2331 533e 125a f6bc 3a1c e03d f2b9 203e
00000300: 3c46 a8be fcd1 44bd 9d27 a0be 08d9 47be
00000310: ce8d d23e ea7b ef3d 0464 723e 6029 94be
00000320: a7ac 42be 3a97 ab3d d7bc 563d 222d ba3d
00000330: a20e c23c e3a7 dc3e db14 3b3d 3aac 58bc
00000340: f3c3 9e3e fbeb 033e b0ee 523b 2b54 92bd
00000350: 77c7 173f 0d95 e9be d127 b4bc 70ad 48bd
00000360: fe3e 86be f79b 37be dce8 25be 4474 e0bd
00000370: 40f5 173e 6c22 123e 2489 263e 3920 7fbd
00000380: ea09 253e 84b2 e33d 1396 0a3f 79d4 053e
00000390: bee7 843e 9f37 a83e f0c3 15bf f0a0 b73e
000003a0: d195 d63e 3313 cabd 9a93 f43e 94b0 80bd
000003b0: e1fa a5be 3448 7d3e fd27 a1be 931f 88be
000003c0: 828f 3c3e 321c 7cbd a59a 833d 3943 4dbd
000003d0: e80d febe b769 8ebe 6ece 6f3b 3b53 13be
000003e0: e947 0abf 5806 40be ad62 50be d83e e93e
000003f0: acf8 533e 643e cf3e f139 d3be 4d2d 8cbe

transformer_encoder.layers.0.linear1.bias f4 [2048]
-0.1481317 0.16888049 -0.308065 0.08725179 0.049838543 -0.27132443 0.06558637 -0.13589567
0.0761434 -0.14768937 -0.16376153 0.33447692 0.17465453 -0.16600893 0.06574157 0.28424773
-0.16040416 -0.38034156 -0.34478518 -0.025831291 -0.027058855 0.11394112 -0.07072822 0.05776453
0.08914494 -0.026413402 0.043433383 -0.27998954 0.16289522 -0.10672141 -0.34746873 -0.27732754
0.2008566 0.15907596 0.21014123 -0.2740011 -0.19906352 0.03574368 -0.42571342 -0.39133948
-0.19802195 0.21215247 -0.12398214 0.103143 0.081443265 0.16401196 0.17460224 0.08462237
-0.24801789 0.06845787 0.074783765 -0.2650724 -0.22013347 -0.25104406 0.030930728 0.19452496
0.15498668 -0.113854565 -0.064751424 0.48383343 -0.06522457 -0.38440597 0.4759487 -0.30411136
0.010237562 -0.13621871 -0.17234272 -0.1242484 0.11663878 0.020492459 -0.13933031 -0.18062055
-0.23644088 -0.110189915 -0.36603224 -0.41277522 0.13095039 0.046694487 -0.23204207 -0.36007196
-0.27754402 -0.16940427 -0.022029208 -0.2887664 0.16923502 -0.25439066 -0.3726292 0.28613037
0.31252787 -0.10688324 -0.16013125 -0.28989717 0.19779351 -0.08245698 0.044151906 0.020723037
0.28722918 -0.20372526 -0.13895752 0.106973454 0.27444765 0.29889482 0.17818063 0.028427688
-0.28402555 -0.026733791 0.08801357 -0.10054611 -0.1570464 -0.16453385 -0.030761657 0.19071499
-0.28968725 0.21894164 0.012335794 -0.07967977 0.1778703 -0.31974742 -0.048638225 0.06834543
0.5098301 -0.1314836 -0.009987327 0.0308674 0.25787327 -0.14419699 0.027687933 -0.023346443
-0.13540325 -0.34213677 0.28216654 -0.21812734 -0.058504026 -0.37374687 0.3482736 -0.0043372274
0.06908744 0.28875846 0.2551068 0.19618952 -0.22259255 0.09539931 -0.34489703 -0.3606456
0.11764609 -0.03638466 0.45956218 0.42499337 -0.05796871 -0.34862685 0.16047244 -0.27750292
0.24841537 -0.004728646 -0.18892746 -0.08300796 -0.3115376 -0.1943686 -0.14769429 -0.39045313
0.05659929 -0.28960165 -0.09950088 -0.24381171 -0.1253084 0.10546408 0.06477056 -0.17582527
0.04319554 0.05446741 0.19593376 0.10312555 0.06087154 -0.2946837 -0.36347565 0.13501728
0.023981225 0.1628837 0.21538381 -0.2861863 0.033188533 0.10087715 -0.093752496 0.07737697
0.16758397 -0.055128366 -0.34860736 -0.32839853 -0.29601032 -0.07256459 -0.41788548 -0.21063893
0.08942165 0.32109517 -0.15206453 -0.31475404 -0.15286551 0.21864721 -0.05309877 -0.22417001
-0.2860577 -0.1176263 0.2919147 -0.3206391 0.09845033 0.24981408 0.3261014 0.21771197
-0.03473009 -0.28512305 -0.4813148 -0.17312343 0.17539342 -0.11302508 -0.08704227 0.1564738
-0.014596802 -0.08421222 0.07719538 0.10599803 0.060318246 0.1434508 0.1558288 -0.058188163
0.2833558 -0.3318206 -0.29752347 -0.36244744 0.26318997 -0.2812884 0.21449716 0.1202113
-0.17963958 -0.24456531 0.06424045 -0.109553084 -0.05900627 -0.106417306 -0.41665494 -0.13409944
0.37888405 0.1581925 -0.2657259 0.29426327 -0.36689627 -0.16477881 -0.061989933 0.25920203
0.36284703 -0.30268705 -0.52233243 -0.02522822 0.25642192 -0.33363798 -0.22717634 0.31311336
00000000: d6af 17be 02ef 2c3e b2ba 9dbe 11b1 b23d
00000010: 8023 4c3d 09eb 8abe 2652 863d 3c28 0bbe
00000020: 12f1 9b3d e23b 17be 1ab1 27be 8f40 ab3e
00000030: a3d8 323e 3ffe 29be 84a3 863d eb88 913e
00000040: fd40 24be 21bc c2be af87 b0be 259c d3bc
00000050: 88aa ddbc f659 e93d f5d9 90bd 809a 6c3d
00000060: 9f91 b63d eb60 d8bc 34e7 313d ca5a 8fbe
00000070: 01ce 263e c190 dabd 6ce7 b1be e0fd 8dbe
00000080: 5aad 4d3e cfe4 223e 432f 573e df49 8cbe
00000090: 4fd7 4bbe f767 123d 1cf7 d9be a65d c8be
000000a0: 44c6 4abe 7f3e 593e 59ea fdbd a33c d33d
000000b0: bacb a63d c0f2 273e eeca 323e 7e4e ad3d
000000c0: 67f8 7dbe a433 8c3d 3b28 993d 92b7 87be
000000d0: ab6a 61be d988 80be 7062 fd3c 8d31 473e
000000e0: d4b4 1e3e 952c e9bd 659c 84bd 04b9 f73e
000000f0: 7694 85bd dcd0 c4be 8caf f33e 7cb4 9bbe
00000100: 72bb 273c eb7c 0bbe 9c7a 30be f275 febd
00000110: 50e0 ee3d cddf a73c 9bac 0ebe 98f4 38be
00000120: 8f1d 72be 40ab e1bd 9468 bbbe 4657 d3be
00000130: dc17 063e b842 3f3d 709c 6dbe 5a5b b8be
00000140: 401a 8ebe 5078 2dbe 9976 b4bc 31d9 93be
00000150: f24b 2d3e 7e3f 82be 41c9 bebe ae7f 923e
00000160: a703 a03e 9ae5 dabd 72f9 23be 676d 94be
00000170: 628a 4a3e 35df a8bd a1d8 343d 5cc3 a93c
00000180: b40f 933e 5b9d 50be e14a 0ebe e614 db3d
00000190: 6784 8c3e be08 993e fc74 363e 2fe1 e83c
000001a0: cc6b 91be d300 dbbc 7540 b43d 1eeb cdbd
000001b0: c5d0 20be 907b 28be dfff fbbc ca4a 433e
000001c0: e351 94be 3d32 603e 121c 4a3c 262f a3bd
000001d0: a223 363e efb5 a3be e038 47bd b0f8 8b3d
000001e0: 3a84 023f a3a3 06be e3a1 23bc a1dd fc3c
000001f0: f707 843e 60a8 13be ced1 e23c 0a41 bfbc
00000200: 26a7 0abe 8d2c afbe 2278 903e c65c 5fbe
00000210: eba1 6fbd c05b bfbe eb50 b23e 4d1f 8ebb
00000220: b77d 8d3d 26d8 933e 5c9d 823e e8e5 483e
00000230: 4def 63be b760 c33d 5896 b0be 8aa6 b8be
00000240: 6ff0 f03d 1508 15bd bc4b eb3e bb98 d93e
00000250: 9970 6dbd 387f b2be e352 243e dd14 8ebe
00000260: 9960 7e3e c2f2 9abb 3376 41be 1400 aabd
00000270: db81 9fbe 9008 47be 2c3d 17be 79e9 c7be
00000280: a8d4 673d ab46 94be 1ec7 cbbd c7a9 79be
00000290: d850 00be 8dfd d73d 6da6 843d 8a0b 34be
000002a0: ceed 303d 3819 5f3d dca2 483e 7d33 d33d
000002b0: 7054 793d c8e0 96be 7b19 babe f841 0a3e
000002c0: 4674 c43c fcca 263e 938d 5c3e 0387 92be
000002d0: b3f0 073d ae98 ce3d 4f01 c0bd d177 9e3d
000002e0: 229b 2b3e 48ce 61bd aa7c b2be da23 a8be
000002f0: aa8e 97be be9c 94bd 16f5 d5be bbb1 57be
00000300: b322 b73d 9666 a43e ceb6 1bbe 7127 a1be
00000310: c788 1cbe 0ee5 5f3e 197e 59bd d38c 65be
00000320: 2876 92be 0fe6 f0bd d875 953e cf2a a4be
00000330: 54a0 c93d 43cf 7f3e c3f6 a63e e3ef 5e3e
00000340: 2441 0ebd a6fb 91be e56e f6be 4547 31be
00000350: 559a 333e b179 e7bd 3843 b2bd ab3a 203e
00000360: 6d27 6fbc 7577 acbd 9d18 9e3d 7f15 d93d
00000370: 4410 773d c4e4 123e 9691 1f3e b656 6ebd
00000380: 0314 913e 64e4 a9be ff54 98be b692 b9be
00000390: d6c0 863e 0805 90be 25a5 5b3e 5831 f63d
000003a0: 70f3 37be 546f 7abe 7f90 833d 5e5d e0bd
000003b0: 8fb0 71bd 51f1 d9bd cc53 d5be 5d51 09be
000003c0: 17fd c13e 37fd 213e 3a0d 88be ada9 963e
000003d0: d4d9 bbbe c7bb 28be 28e9 7dbd 21b6 843e
000003e0: 16c7 b93e ccf9 9abe 94b7 05bf 69ab cebc
000003f0: bc49 833e 99d2 aabe eaa0 68be 6550 a03e

transformer_encoder.layers.0.linear2.weight f4 [6, 2048]
0.00837801 -0.028373843 -0.004033523 0.017442355 -0.6699718 0.3813329 -0.020307742 0.12051893
-0.018376831 0.050050564 0.18793915 0.012100498 0.29509372 -0.27073845 0.020649794 0.022215012
-0.1967077 -0.0020407818 0.25246266 -0.0057398262 0.03637887 0.0036020705 -0.03037165 0.04442471
-0.030587768 0.041114084 -0.0068601915 0.060859185 -0.0059618438 -0.2765326 -0.021286318 0.013960853
-0.0435796 -0.039218407 -0.010819604 0.27098346 -0.028747002 0.0070750825 -0.10166571 0.09953134
0.1412461 -0.115620025 0.19041422 -0.0283929 -0.03720133 0.0073943688 -0.21663797 0.03052774
0.029597498 -0.0042541362 -0.046944622 0.016737599 0.088859975 0.021444857 -0.07634078 0.042073756
-0.04922228 0.059001483 -0.046184134 0.067994885 -0.028357608 0.018140042 0.094534114 -0.011050318
0.056140497 0.003356785 0.048061613 -0.012350355 -0.02014601 0.008559644 0.16487469 0.3218473
-0.014751797 0.00042493345 0.004059002 -0.0054392056 0.09733791 -0.6995265 0.14820306 -0.008379295
-0.13183881 -0.0041768197 0.08214728 -0.052917134 -0.005913962 -0.010964491 -0.095064335 -0.04951903
-0.01004946 0.29209352 -0.03296485 -0.14259331 -0.002684631 -0.05803396 -0.022234345 -0.012004026
-0.0014747067 0.3963994 0.00197245 0.19166014 -0.6916002 0.2557793 0.06430852 -0.026035774
-0.061789498 0.22247942 0.031924553 0.0058292067 -0.010443376 0.04324845 0.12060931 0.2819912
0.078861445 0.0074445526 0.045255795 -0.006212909 0.050726082 -0.040601946 -0.041202106 0.028771603
0.24261673 -0.014162934 -0.02003954 0.06866866 -0.007716603 -0.058927145 -0.011020889 0.04852882
0.023368606 0.0499638 0.054652065 0.005273243 0.4036869 0.47943708 0.15152663 -0.025662718
0.004241723 0.04165637 -0.15769987 0.06696103 0.014134214 -0.002658432 0.019440282 0.049365465
0.04121193 0.010742106 -0.64516884 0.116491355 -0.011122748 0.009869758 -0.021744229 -0.14692605
0.0030084022 0.0045222295 -0.028207012 0.04732565 0.75610983 0.03726132 -0.062106036 0.36585248
0.0019278092 -0.16943648 -0.010292465 0.19265357 -0.008221795 -0.017404776 0.018526943 -0.04671392
-0.027605044 0.0053233937 0.023278272 -0.020480093 -0.044470105 0.487849 0.048522145 -0.0050380956
0.06611 0.1219488 -0.113762 0.27793247 -0.22177082 -0.0051239966 0.0050080935 0.0055736746
-0.0575121 -0.030608648 0.37535453 0.1447765 0.4961177 0.054997295 -0.007839816 -0.20447946
-0.7087425 0.005371075 -0.14297888 0.031990077 1.5234067 -0.06451814 -0.1251065 -0.068070225
0.5843629 0.0035773786 -0.017792411 0.02282843 -0.0037891897 0.0757576 0.0016227086 0.19108403
-0.049642544 0.038677983 0.012977738 0.0068060374 0.005036573 0.05986887 0.070549525 0.02067103
0.004832424 -0.03873219 0.09298514 0.0040727737 -0.05613249 0.0077402834 -0.22272237 0.025430892
-0.020843131 -0.21093507 0.4063001 -0.1689156 -0.037372433 0.05855122 0.048999313 0.002754643
0.016296307 -0.068618074 -0.022319162 -0.006980198 0.020903416 0.039557688 0.016908078 0.007296363
0.033388246 -0.11901814 0.08586332 -0.08372126 -0.052108664 0.411061 -0.005384822 0.055049945
-0.005632173 0.14075159 -0.019211996 0.0026783857 -0.08126481 0.32275283 0.07422399 -0.05110568
00000000: ec43 093c 4370 e8bc a52b 84bb 45e3 8e3c
00000010: 4683 2bbf 113e c33e 6c5c a6bc a1d2 f63d
00000020: 028b 96bc d201 4d3d 1f73 403e 2b41 463c
00000030: 8616 973e 3b9e 8abe c229 a93c 42fc b53c
00000040: be6d 49be a3be 05bb c942 813e 2715 bcbb
00000050: 0302 153d b710 6c3b f7cd f8bc aff6 353d
00000060: 3393 fabc 3e67 283d 75cb e0bb 7b47 793d
00000070: 925b c3bb ae95 8dbe a560 aebc 10bc 643c
00000080: 8680 32bd 7ba3 20bd b544 31bc 58be 8a3e
00000090: d57e ebbc 18d6 e73b 1d36 d0bd 16d7 cb3d
000000a0: d1a2 103e 31ca ecbd f2fb 423e 3a98 e8bc
000000b0: 6c60 18bd 764c f23b 58d6 5dbe 5015 fa3c
000000c0: 7476 f23c 4866 8bbb 0149 40bd 4a1d 893c
000000d0: 38fc b53d 20ad af3c 8e58 9cbd 8855 2c3d
000000e0: 4d9d 49bd 8aab 713d 932b 3dbd e740 8b3d
000000f0: 374e e8bc 6d9a 943c 1a9b c13d 650c 35bc
00000100: 94f3 653d 82fd 5b3b 41dc 443d 2559 4abc
00000110: 3f09 a5bc c03d 0c3c e9d4 283e 2bc9 a43e
00000120: 85b1 71bc 9ac9 de39 6001 853b 5d3b b2bb
00000130: 1959 c73d 2b14 33bf 8bc2 173e 4f49 09bc
00000140: c100 07be b4dd 88bb d53c a83d a3bf 58bd
00000150: e9c9 c1bb 69a4 33bc 17b1 c2bd 77d4 4abd
00000160: 7ea6 24bc 488d 953e 2706 07bd fb03 12be
00000170: a2f0 2fbb 05b5 6dbd cd24 b6bc 89ac 44bc
00000180: f24a c1ba ddf4 ca3e 3844 013b 8e42 443e
00000190: b60c 31bf 81f5 823e 2fb4 833d fa48 d5bc
000001a0: fc16 7dbd a5d1 633e 52c3 023d ee02 bf3b
000001b0: b21a 2bbc 4925 313d 0402 f73d 2761 903e
000001c0: 1c82 a13d 6ff1 f33b 245e 393d a895 cbbb
000001d0: 27c6 4f3d 3a4e 26bd 8ac3 28bd 6db2 eb3c
000001e0: 8570 783e a70b 68bc f629 a4bc 28a2 8c3d
000001f0: 8fdb fcbb 975d 71bd f590 34bc 28c6 463d
00000200: 856f bf3c d7a6 4c3d d8da 5f3d 2bcb ac3b
00000210: 0db0 ce3e c778 f53e cc29 1b3e 9f3a d2bc
00000220: 27fe 8a3b df9f 2a3d 137c 21be dd22 893d
00000230: 3193 673c 1639 2ebb 3a41 9f3c 7133 4a3d
00000240: d7cd 283d a8ff 2f3c c929 25bf 0593 ee3d
00000250: 303c 36bc c4b4 213c f420 b2bc c873 16be
00000260: 9d28 453b 362f 943b 6412 e7bc 8ad8 413d
00000270: 6a90 413f 539f 183d e662 7ebd 0451 bb3e
00000280: 8bae fc3a c280 2dbe baa1 28bc fa46 453e
00000290: b5b4 06bc 7694 8ebc d1c5 973c 1857 3fbd
000002a0: f923 e2bc dd6f ae3b 13b2 be3c dec5 a7bc
000002b0: 4926 36bd 58c7 f93e 28bf 463d 9c16 a5bb
000002c0: ae64 873d 4bc0 f93d 0dfc e8bd 2a4d 8e3e
000002d0: e417 63be 33e7 a7bb ef1a a43b 5fa3 b63b
000002e0: cf91 6bbd fdbe fabc 782e c03e 4a40 143e
000002f0: 2403 fe3e d844 613d 9272 00bc 1063 51be
00000300: 2670 35bf d8ff af3b 0e69 12be 0708 033d
00000310: fefe c23f 1622 84bd eb1b 00be 6768 8bbd
00000320: cf98 153f 7472 6a3b 64c1 91bc b002 bb3c
00000330: 0e54 78bb cd26 9b3d 11b1 d43a 88ab 433e
00000340: fb55 4bbd ce6c 1e3d 94a0 543c 2e05 df3b
00000350: d609 a53b 0f39 753d 457c 903d 4b56 a93c
00000360: 5059 9e3b a5a5 1ebd fe6e be3d e774 853b
00000370: 2feb 65bd 34a2 fd3b 5511 64be 7254 d03c
00000380: 37bf aabc 5dff 57be 9106 d03e 36f8 2cbe
00000390: d613 19bd 67d3 6f3d 81b3 483d 3e87 343b
000003a0: d57f 853c a287 8cbd add6 b6bc 25ba e4bb
000003b0: a43d ab3c 3e07 223d cf82 8a3c 5416 ef3b
000003c0: 1dc2 083d c8bf f3bd 1cd9 af3d 0d76 abbd
000003d0: e56f 55bd 9676 d23e 2973 b0bb 0d7c 613d
000003e0: 178e b8bb 2f21 103e 7a62 9dbc db87 2f3b
000003f0: 2a6e a6bd dc3f a53e bf02 983d 3154 51bd

transformer_encoder.layers.0.linear2.bias f4 [6]
0.042893037 0.035139803 -0.019962126 -0.01334782 0.039411925 -0.0441135
00000000: 9cb0 2f3d c1ee 0f3d 9d87 a3bc d1b0 5abc
00000010: 666e 213d 5bb0 34bd

transformer_encoder.layers.0.norm1.weight f4 [6]
0.9568001 1.0872222 1.1900051 0.9060461 1.0571927 1.2933898
00000000: daf0 743f 192a 8b3f 1652 983f a3f2 673f
00000010: 1752 873f cc8d a53f

transformer_encoder.layers.0.norm1.bias f4 [6]
0.111245126 0.054274 -0.013307335 -0.20501666 0.30670476 -0.044215437
00000000: 7cd4 e33d 6a4e 5e3d 0207 5abc e3ef 51be
00000010: 6808 9d3e 3f1b 35bd

transformer_encoder.layers.0.norm2.weight f4 [6]
0.9446886 1.0330452 0.7514028 1.0986305 1.0824584 1.1523025
00000000: 1dd7 713f d33a 843f ef5b 403f ed9f 8c3f
00000010: ff8d 8a3f a67e 933f

transformer_encoder.layers.0.norm2.bias f4 [6]
0.16827846 -0.025301753 0.04422021 -0.35754198 0.1363387 -0.15704681
00000000: 3051 2c3e 9f45 cfbc 4020 353d be0f b7be
00000010: 5f9c 0b3e e1d0 20be

transformer_encoder.layers.1.self_attn.in_proj_weight f4 [18, 6]
-0.22120845 -0.25407884 0.08095077 0.30756044 0.0053190845 -0.22658157 0.48234588 0.17725766
-0.70729923 -0.03407607 0.41339648 -0.35247496 0.15195392 0.12922183 -0.14392531 0.05219487
0.61678237 -0.8429673 -0.3422158 -0.37367675 -0.08361938 0.48192665 0.22489916 0.17901483
-0.5016082 0.29310757 0.6713011 0.08047555 0.2583744 0.30852273 -0.2202002 -0.41483
0.4452491 -0.2912675 -0.08394071 0.26785165 0.4413226 0.13594759 0.23254623 0.43198058
-0.6043048 0.4624549 0.1237354 -0.5033678 0.41559154 0.124145225 -0.04974945 -0.35131422
0.0989883 0.7915192 -0.24563628 -0.5702117 -0.16692218 -0.045064162 0.583467 0.11421174
0.22367427 -0.11030459 0.70345277 -0.53824204 0.6693178 0.32821184 -0.6537291 -0.77552783
-0.6233107 -0.13907298 0.62827075 0.14584488 -0.48895305 -0.06762294 1.1379213 0.15566128
0.71108145 -0.4049932 0.5944599 -0.61985785 0.041047983 -0.12259405 0.38137487 0.6939378
-0.54382426 -0.4863636 0.22331513 0.22620218 -0.28454792 -0.28885773 0.49130878 0.34990555
0.5740712 0.10633198 -0.06747102 0.2889974 -0.18540321 0.5111956 -0.16006587 -0.187652
0.21138954 0.13172236 -0.13713907 -0.51619273 -0.28950593 -0.660134 -0.5815525 0.110363
0.017954677 -0.1605515 0.26812088 0.770056
00000000: 7884 62be 9f16 82be 84c9 a53d 9078 9d3e
00000010: b74b ae3b 0005 68be 0af6 f63e 0883 353e
00000020: 9011 35bf 5993 0bbd b4a8 d33e 9977 b4be
00000030: cf99 1b3e ba52 043e 2861 13be 4aca 553d
00000040: 73e5 1d3f b4cc 57bf e936 afbe 8f52 bfbe
00000050: a340 abbd 17bf f63e f74b 663e aa4f 373e
00000060: 6569 00bf 3212 963e 64da 2b3f 5dd0 a43d
00000070: a649 843e b1f6 9d3e 297c 61be 9964 d4be
00000080: b1f7 e33e 0421 95be 1be9 abbd da23 893e
00000090: 09f5 e13e d835 0b3e 9920 6e3e 8f2c dd3e
000000a0: b8b3 1abf e3c6 ec3e fc68 fd3d b6dc 00bf
000000b0: 6ac8 d43e da3f fe3d 14c6 4bbd 75df b3be
000000c0: 61ba ca3d 01a1 4a3f 1488 7bbe 65f9 11bf
000000d0: a6ed 2abe 3395 38bd 185e 153f d8e7 e93d
000000e0: de0a 653e 5fe7 e1bd 7b15 343f 3bca 09bf
000000f0: 6958 2b3f 620b a83e ca5a 27bf fe88 46bf
00000100: 4a91 1fbf 2669 0ebe 5ad6 203f 5c58 153e
00000110: 0e58 fabe e57d 8abd 68a7 913f ac65 1f3e
00000120: 6f09 363f 455b cfbe 862e 183f 01af 1ebf
00000130: ee21 283d 9712 fbbd 9143 c33e e8a5 313f
00000140: 1138 0bbf a604 f9be b9ac 643e 8ba1 673e
00000150: 44b0 91be 29e5 93be d38c fb3e d226 b33e
00000160: 55f6 123f 95c4 d93d 3f2e 8abd 78f7 933e
00000170: 57da 3dbe b7dd 023f 4fe8 23be d927 40be
00000180: 8076 583e 3ae2 063e 2f6e 0cbe 3525 04bf
00000190: 1f3a 94be 8bfe 28bf a0e0 14bf ff05 e23d
000001a0: b015 933c 9d67 24be 2447 893e 6422 453f

transformer_encoder.layers.1.self_attn.in_proj_bias f4 [18]
0.35124025 0.058517363 -0.08072377 -0.5691694 -0.07428103 -0.30750507 -0.008485548 0.0018015773
0.004218169 -0.00039288448 0.00016741302 0.0024307328 0.20503655 0.16484778 -0.13434106 -0.11529172
0.06579333 -0.03905408
00000000: c3d5 b33e e7af 6f3d 8152 a5bd 16b5 11bf
00000010: a720 98bd 4e71 9dbe f806 0bbc e722 ec3a
00000020: 9138 8a3b 10fc cdb9 978b 2f39 ee4c 1f3b
00000030: 1af5 513e dbcd 283e b490 09be 111e ecbd
00000040: a7be 863d 2cf7 1fbd

transformer_encoder.layers.1.self_attn.out_proj.weight f4 [6, 6]
0.42455128 0.2031507 0.019820515 -0.7538349 -0.18348071 0.22888613 -0.56137836 0.17275225
0.019399364 0.2606203 -0.66877365 -0.33318675 0.16303022 -0.63817286 0.29216856 0.06522857
0.10842669 -0.45480168 0.2718798 0.30296212 -0.41851744 0.22548226 0.6466578 -0.06054529
0.37827563 -0.029411044 0.18313362 0.7063174 -0.23092428 0.4208022 -0.3779325 -0.075641006
-0.12350691 -0.08656639 0.3470946 0.22622854
00000000: c95e d93e bd06 503e a25e a23c 53fb 40bf
00000010: 5ee2 3bbe 2061 6a3e 7eb6 0fbf f7e5 303e
00000020: 6aeb 9e3c 0670 853e c034 2bbf 7497 aabe
00000030: 65f1 263e 4c5f 23bf 1e97 953e 8e96 853d
00000040: d00e de3d c4db e8be d433 8b3e da1d 9b3e
00000050: eb47 d6be d2e4 663e 5e8b 253f 57fe 77bd
00000060: 58ad c13e 6eef f0bc 6187 3b3e 38d1 343f
00000070: 6a77 6cbe 6373 d73e 5e80 c1be ace9 9abd
00000080: 31f1 fcbd b849 b1bd 62b6 b13e 74a8 673e

transformer_encoder.layers.1.self_attn.out_proj.bias f4 [6]
0.0814773 -0.04123889 -0.096871935 0.18720905 -0.057569355 -0.16700986
00000000: 92dd a63d 1cea 28bd cb64 c6bd bbb3 3f3e
00000010: d8cd 6bbd a204 2bbe

transformer_encoder.layers.1.linear1.weight f4 [2048, 6]
-0.27811024 0.10383795 0.124998376 -0.22339989 0.1570227 -0.16720186 -0.18026696 0.0049943863
-0.28373525 -0.17991292 0.21084265 0.14032732 -0.1452043 0.029839238 -0.0927714 0.13742383
0.0098027615 0.19607139 0.43601948 0.15859693 0.110749006 0.23449749 0.1393607 0.092900366
0.20380598 0.17957003 -0.10611903 -0.20963776 -0.038704377 0.14546676 0.07815973 0.12270996
-0.48407203 -0.019809669 -0.0032770103 0.35788912 0.08240108 0.07807557 -0.16775224 0.1140803
0.25294098 0.35759977 -0.030645182 0.09572807 0.124743104 0.13732831 -0.14697713 -0.14252749
-0.18066105 0.09194758 -0.2999084 -0.027142936 -0.33477426 -0.12957157 0.25186634 -0.025898261
0.13026726 -0.00043235472 -0.18384522 0.27107462 0.534029 0.14552969 -0.21629421 -0.1805893
-0.39648864 -0.4348286 0.10250622 0.109531835 -0.09099468 -0.24425942 0.16471678 0.16382198
0.08726157 -0.08858293 -0.19248329 -0.053483453 0.38272163 -0.031464096 0.27659994 0.07509141
0.15940477 -0.013023308 -0.34383348 0.30063385 -0.39869082 0.19496307 -0.019524146 -0.18710884
0.09601484 -0.124615446 0.2238134 -0.1874495 -0.3254085 -0.19211802 -0.014967689 -0.04321583
0.34413567 0.36421958 0.0140051665 0.12350999 -0.38677466 -0.12279151 -0.051709518 -0.26089647
0.10717605 0.06585427 0.343682 0.17059019 -0.18051945 -0.14275306 0.31066865 -0.3809956
-0.16152741 -0.43534085 0.055723015 0.213073 0.19315074 0.05604099 0.14471048 -0.08462602
0.04826055 0.16278459 0.21536294 0.020471971 -0.16365579 0.029267065 -0.15132523 -0.34805682
-0.11638727 -0.25874746 -0.34360617 0.07189197 0.28530172 0.22341701 -0.008982336 0.24592611
0.08007186 0.091188945 -0.23935544 0.2012123 0.104352444 -0.0648144 -0.0048851054 -0.15888429
-0.22994672 0.14637668 0.27296025 -0.31720528 -0.13399523 0.10262443 0.17592055 -0.29349327
0.27560547 -0.10840733 0.40479645 0.2524265 0.23110881 0.09309701 0.05623519 0.12237755
-0.06327384 0.033170626 0.032289002 -0.055439908 0.2884983 0.035214983 -0.13726568 -0.118072495
0.21391582 -0.20453884 0.14785403 0.08635146 -0.25464424 -0.09191086 -0.16167066 0.29443672
0.32384703 -0.06842829 -0.09013845 -0.29658097 -0.15577762 -0.22982337 -0.45151928 0.22670014
-0.24412669 -0.17507531 -0.17827499 0.00010132108 0.2083609 -0.107370146 -0.124988005 0.12370456
-0.26590708 -0.10208062 -0.25183198 -0.238268 0.40545902 -0.06360163 0.48760843 -0.18190517
-0.3581368 0.059494257 -0.15184951 0.066133045 0.057159197 0.20625414 0.037034605 0.0491753
0.16109705 0.17494051 0.024878973 0.03878077 0.41466713 -0.39187002 0.26688653 -0.20657466
-0.27121294 -0.28419468 -0.16781826 -0.06756711 0.13792874 0.27461347 0.1496701 -0.11294698
0.099060945 0.1666125 0.31924173 0.2997674 0.05791754 0.18274073 -0.3243178 0.46656308
0.53043026 -0.0625254 0.42021677 -0.088562116 -0.40358993 0.2572315 -0.16418095 -0.3452163
0.2808987 -0.3155511 0.039143395 -0.08048644 -0.09392012 -0.33679453 -0.072688416 -0.3956309
-0.33384296 -0.017137226 -0.22492328 0.14737555 0.17320724 0.23042634 -0.3725934 -0.07814979
00000000: 7764 8ebe fea8 d43d 26ff ff3d f1c2 64be
00000010: 8fca 203e f736 2bbe e797 38be f3a7 a33b
00000020: bf45 91be 183b 38be 23e7 573e f7b1 0f3e
00000030: 70b0 14be 6b71 f43c effe bdbd d5b8 0c3e
00000040: c39b 203c f0c6 483e f23d df3e 3c67 223e
00000050: 60d0 e23d 1c20 703e 92b4 0e3e 8c42 be3d
00000060: 84b2 503e 35e1 373e ef54 d9bd 48ab 56be
00000070: 7b88 1ebd 3df5 143e 3512 a03d 5c4f fb3d
00000080: 4ad8 f7be e347 a2bc 1cc3 56bb 3e3d b73e
00000090: e6c1 a83d 16e6 9f3d 3ec7 2bbe efa2 e93d
000000a0: 7b81 813e 5117 b73e 9b0b fbbc 140d c43d
000000b0: 5079 ff3d cb9f 0c3e 2c81 16be baf2 11be
000000c0: 36ff 38be 034f bc3d 988d 99be dd5a debc
000000d0: 8867 abbe 69ae 04be a0f4 803e 9728 d4bc
000000e0: c864 053e abad e2b9 ec41 3cbe 4bca 8a3e
000000f0: 20b6 083f bc05 153e 3b7c 5dbe 67ec 38be
00000100: 8f00 cbbe dba1 debe c8ee d13d 3a52 e03d
00000110: 6b5b babd 241f 7abe 84ab 283e f3c0 273e
00000120: 32b6 b23d f86a b5bd 571a 45be 7711 5bbd
00000130: 17f4 c33e 7fe0 00bd 829e 8d3e 86c9 993d
00000140: 013b 233e b65f 55bc f10a b0be aeec 993e
00000150: 3421 ccbe 66a4 473e 1af1 9fbc 7699 3fbe
00000160: 6ea3 c43d 6236 ffbd 572f 653e c3f2 3fbe
00000170: f19b a6be 96ba 44be 0a3b 75bc 1503 31bd
00000180: 8d32 b03e fd7a ba3e ed75 653c cef2 fc3d
00000190: 5407 c6be 1d7a fbbd 5ccd 53bd 3994 85be
000001a0: 1e7f db3d 9ade 863d 16f7 af3e 32af 2e3e
000001b0: 17da 38be dc2d 12be f60f 9f3e db11 c3be
000001c0: 7167 25be ffe4 debe d13d 643d cf2f 5a3e
000001d0: 4fc9 453e 3d8b 653d fc2e 143e 6850 adbd
000001e0: dbac 453d 01b1 263e 1a88 5c3e d6b4 a73c
000001f0: 6295 27be 7cc1 ef3c 00f5 1abe 8134 b2be
00000200: 735c eebd 8c7a 84be 26ed afbe 193c 933d
00000210: 1113 923e 6ec7 643e a62a 13bc 0ed4 7b3e
00000220: b7fc a33d 45c1 ba3d 9819 75be 990a 4e3e
00000230: bcb6 d53d 6abd 84bd 3c13 a0bb 90b2 22be
00000240: 2777 6bbe c5e3 153e 72c1 8b3e bb68 a2be
00000250: 0c36 09be c22c d23d 8424 343e c044 96be
00000260: 291c 8d3e aa04 debd 7b41 cf3e 0c3e 813e
00000270: caa7 6c3e a5a9 be3d df56 663d 15a1 fa3d
00000280: b795 81bd ecdd 073d 7941 043d f514 63bd
00000290: 0db6 933e 963d 103d 608f 0cbe fecf f1bd
000002a0: c00c 5b3e a172 51be 0c67 173e 09d9 b03d
000002b0: bb60 82be c33b bcbd fe8c 25be 69c0 963e
000002c0: 47cf a53e 2224 8cbd 829a b8bd 76d9 97be
000002d0: 2b84 1fbe d156 6bbe 892d e7be 1524 683e
000002e0: 59fc 79be f146 33be b88d 36be 577c d438
000002f0: 8f5c 553e e1e4 dbbd b6f9 ffbd d158 fd3d
00000300: f924 88be a50f d1bd 1ff0 80be 87fc 73be
00000310: 5398 cf3e 9241 82bd d0a7 f93e 5945 3abe
00000320: b55d b7be 40b0 733d 707e 1bbe c370 873d
00000330: c31f 6a3d 4934 533e 99b1 173d 0a6c 493d
00000340: a0f6 243e 9b23 333e fdce cb3c 96d8 1e3d
00000350: 404f d43e 30a3 c8be 5aa5 883e 4f88 53be
00000360: 6cdc 8abe f781 91be 8dd8 2bbe a060 8abd
00000370: 313d 0d3e 239a 8c3e 1e43 193e bf50 e7bd
00000380: 77e0 ca3d 789c 2a3e a773 a33e 1d7b 993e
00000390: f13a 6d3d 6320 3b3e fc0c a6be 5be1 ee3e
000003a0: 47ca 073f 510d 80bd a726 d73e 0e60 b5bd
000003b0: 57a3 cebe d9b3 833e 0d1f 28be 31c0 b0be
000003c0: f4d1 8f3e ea8f a1be d354 203d 13d6 a4bd
000003d0: 3159 c0bd 5570 acbe aadd 94bd 2290 cabe
000003e0: 77ed aabe 5e63 8cbc 4a52 66be 9ee9 163e
000003f0: 3d5d 313e e2f4 6b3e 90c4 bebe ff0c a0bd

transformer_encoder.layers.1.linear1.bias f4 [2048]
-0.18683626 -0.047981802 -0.28234744 -0.16272268 -0.28948775 -0.2965771 -0.021462362 -0.27668238
0.08133551 -0.23759796 -0.59692997 0.026795704 -0.0448054 -0.39210704 -0.13858946 -0.16595598
-0.3449533 -0.36797786 -0.44063878 -0.11800769 -0.14155859 0.039464958 -0.1569623 -0.005534236
-0.017402584 -0.11576638 -0.011292178 -0.3655767 0.15067202 -0.19423443 -0.32704082 -0.36119077
0.08404253 0.109889075 0.15626392 -0.4530186 -0.16506931 0.012667737 -0.48085812 -0.5833687
-0.3257608 0.19206537 -0.33648413 -0.014019261 0.02501962 -0.14386386 0.12435975 0.011002293
-0.24217516 0.07838512 -0.08482405 -0.30479407 -0.29055512 -0.28286526 -0.01708974 0.10546704
0.07492879 -0.11178157 -0.106962025 0.21576111 -0.1431796 -0.33110967 0.074346334 -0.49336824
-0.39392054 -0.017895367 -0.3095172 -0.3391953 0.1705301 -0.06693599 -0.18759742 -0.3157778
-0.29934373 -0.24151458 -0.30425233 -0.38814467 0.04537903 -0.34307906 -0.41101214 -0.3365056
-0.33088368 -0.14318198 -0.19719101 -0.34860736 0.15429018 -0.35641342 -0.35258517 0.16551131
0.2640503 -0.12756619 -0.1917699 -0.28392482 -0.1744692 -0.14972463 0.04498588 0.03373133
0.09870871 -0.26728186 -0.1031638 -0.38132545 -0.1094315 -0.059119985 0.054749154 -0.112493046
-0.3427104 -0.32943928 -0.00096269214 -0.26487353 -0.2138149 -0.2978345 -0.251967 -0.20451163
-0.44613397 0.09729729 -0.10136808 -0.0419765 0.04761151 -0.38151914 -0.11591396 -0.10069447
-0.0032478278 -0.15545212 0.103068285 -0.20337503 -0.11938419 -0.19664684 -0.076610446 -0.12809391
-0.18871301 -0.50614077 0.026496666 -0.1822396 -0.19826901 -0.44972315 0.17833115 0.028491713
0.051394492 0.0100838 0.21378227 0.06907091 -0.2902345 0.15382262 -0.45754 -0.39793557
0.030667437 -0.13045111 0.031955406 0.11433123 -0.04934804 -0.3490332 0.19829954 -0.2549475
0.15148783 -0.10834565 -0.17155327 -0.18001373 -0.39151812 -0.3826741 -0.20323503 -0.4818643
0.09903126 -0.37682495 -0.20568569 -0.34009317 -0.36096412 0.16436057 0.060164705 -0.3043661
-0.058884222 -0.08268615 -0.0095974635 0.11933747 -0.2397025 -0.37330833 -0.337412 0.10920645
-0.05889762 -0.18176603 -0.06322071 -0.4798963 -0.31242478 0.04219371 0.045164313 -0.004539046
0.11493684 -0.08545977 -0.47791284 -0.4021258 -0.49256608 -0.15886939 -0.4161848 -0.27643484
-0.23716503 0.25580546 -0.2170325 -0.38521117 -0.13353156 0.02622139 -0.47068655 -0.34910423
-0.17011094 -0.18171692 0.12112959 -0.39367604 0.142554 0.093460105 0.25759435 -0.11350166
-0.307364 -0.3011328 -0.45746866 -0.2541142 0.0009572506 -0.122591205 -0.30303535 -0.065405264
-0.15281375 -0.16587959 -0.11317553 0.036950856 -0.015057827 -0.014051838 -0.22008222 -0.18552928
0.2346539 -0.39604354 -0.42695722 -0.39279386 0.1694269 -0.37024033 0.1402751 -0.035090655
-0.27096245 -0.4021934 -0.11009895 -0.31179202 -0.101794206 -0.1522546 -0.23241054 -0.10778891
0.1372939 -0.046646975 -0.5219822 0.0592438 -0.43752867 -0.22120729 -0.081696905 0.17124526
0.2571935 -0.2876873 -0.4405055 -0.029447835 0.1901599 -0.5198189 -0.37308806 0.043763142
00000000: 0152 3fbe 9188 44bd d88f 90be c6a0 26be
00000010: bd37 94be f4d8 97be d6d1 afbc 50a9 8dbe
00000020: 3b93 a63d e14c 73be 67d0 18bf aa82 db3c
00000030: de85 37bd 41c2 c8be 65ea 0dbe 5df0 29be
00000040: b89d b0be 9867 bcbe 689b e1be 04ae f1bd
00000050: bcf4 10be 02a6 213d baba 20be 8958 b5bb
00000060: dd8f 8ebc ed16 edbd d402 39bc df2c bbbe
00000070: c449 1a3e 64e5 46be e571 a7be ffed b8be
00000080: 7d1e ac3d 860d e13d a603 203e 0ef2 e7be
00000090: ee07 29be 578c 4f3c 0933 f6be a757 15bf
000000a0: 1fca a6be c9ac 443e a647 acbe 0bb1 65bc
000000b0: f2f5 cc3c 0c51 13be 53b0 fe3d f642 343c
000000c0: c4fc 77be 6188 a03d 3bb8 adbd f80d 9cbe
000000d0: a4c3 94be b7d3 90be c8ff 8bbc 1aff d73d
000000e0: 4474 993d bced e4bd e80e dbbd 7bf0 5c3e
000000f0: ac9d 12be 3587 a9be e442 983d c39a fcbe
00000100: f4af c9be 4e99 92bc 0a79 9ebe 02ab adbe
00000110: 719f 2e3e bc15 89bd 8a19 40be a1ad a1be
00000120: 9543 99be 994f 77be f6c6 9bbe e6ba c6be
00000130: 5ddf 393d 0fa8 afbe 2f70 d2be 764a acbe
00000140: 9669 a9be 4c9e 12be 71ec 49be aa7c b2be
00000150: 3ffe 1d3e d27b b6be 0b86 b4be cc7b 293e
00000160: 9a31 873e b6a0 02be 545f 44be 985e 91be
00000170: 0ea8 32be 6a51 19be 1d43 383d dd29 0a3d
00000180: cb27 ca3d 2bd9 88be 8b47 d3bd 173d c3be
00000190: 9f1d e0bd cc27 72bd a640 603d c162 e6bd
000001a0: bd77 afbe 44ac a8be 2d5d 7cba 819d 87be
000001b0: 4bf2 5abe c37d 98be d201 81be 7f6b 51be
000001c0: ac6b e4be cd43 c73d 119a cfbd 8def 2bbd
000001d0: 4904 433d 7a56 c3be 4c64 edbd e738 cebd
000001e0: 82d9 54bb d72e 1fbe 7715 d33d 8b41 50be
000001f0: b37f f4bd ca5d 49be f0e5 9cbd 0d2b 03be
00000200: fc3d 41be 7192 01bf 890f d93c 059d 3abe
00000210: 0807 4bbe 1d42 e6be 719c 363e 7467 e93c
00000220: 0883 523d 8636 253c bde9 5a3e 0d75 8d3d
00000230: 9e99 94be ad83 1d3e af42 eabe 36be cbbe
00000240: 473a fb3c fa94 05be ace3 023d 7e26 ea3d
00000250: 2c21 4abd 7bb4 b2be 090f 4b3e 7b88 82be
00000260: a01f 1b3e 53e4 ddbd a9ab 2fbe 8555 38be
00000270: 1075 c8be dced c3be d81c 50be ebb6 f6be
00000280: e7d0 ca3d 33ef c0be 459f 52be b120 aebe
00000290: 4ad0 b8be 234e 283e 446f 763d e0d5 9bbe
000002a0: 9530 71bd 5b57 a9bd ae3e 1dbc 3467 f43d
000002b0: 9274 75be 4522 bfbe 44c1 acbe a2a7 df3d
000002c0: a13e 71bd e020 3abe dc79 81bd f8b4 f5be
000002d0: 24f6 9fbe 50d3 2c3d 37fe 383d 47bc 94bb
000002e0: 0264 eb3d 8805 afbd feb0 f4be 6fe3 cdbe
000002f0: 9f31 fcbe a8ae 22be 2d16 d5be de88 8dbe
00000300: 64db 72be eff8 823e c53d 5ebe 663a c5be
00000310: 7fbc 08be 3ece d63c d4fd f0be cabd b2be
00000320: 9031 2ebe 0014 3abe ca12 f83d e88f c9be
00000330: adf9 113e 0368 bf3d 68e3 833e 8f73 e8bd
00000340: d05e 9dbe 142e 9abe 5539 eabe 421b 82be
00000350: 00f0 7a3a 1911 fbbd 7327 9bbe 32f3 85bd
00000360: 357b 1cbe 57dc 29be 93c8 e7bd c859 173d
00000370: 1bb5 76bc ae39 66bc 3c5d 61be 63fb 3dbe
00000380: 1d49 703e 38c6 cabe 239a dabe 471c c9be
00000390: 3f7e 2d3e 2490 bdbe 47a4 0f3e 38bb 0fbd
000003a0: 97bb 8abe 4bec cdbe 8f7b e1bd 34a3 9fbe
000003b0: 7b79 d0bd a1e8 1bbe 07fd 6dbe 6fc0 dcbd
000003c0: c696 0c3e e610 3fbd a0a0 05bf a0a9 723d
000003d0: c203 e0be 2a84 62be b550 a7bd eb5a 2f3e
000003e0: deae 833e c04b 93be f089 e1be 963c f1bc
000003f0: 47b9 423e da12 05bf 6605 bfbe fb40 333d

transformer_encoder.layers.1.linear2.weight f4 [6, 2048]
-0.008697554 0.03145577 0.0069906795 0.0022731295 -0.049505193 0.0025224697 -0.022738056 0.016272707
-0.014595443 0.004442603 0.09792518 0.036461532 -0.027250191 0.0132316835 0.028635835 -0.012358432
0.046885632 0.034941185 -0.020754764 -0.0026728392 0.015628733 0.0032062512 -0.072762445 0.006914529
-0.04751046 -0.07181494 -0.014486775 -0.02877621 0.0019122895 0.0035376556 -0.15286735 -0.032931153
-0.039041676 0.06045523 -0.008519229 0.19456463 0.010569233 0.017758839 -0.21203373 0.2879556
-0.05005376 -0.040451758 -0.10182442 0.023113513 -0.0021073946 -0.0063815024 -0.011894444 -0.015010451
-0.14608096 0.017358918 -0.0055915774 0.055144116 -0.12610747 0.015837448 -0.17235927 0.02870301
-0.038463388 -0.06240753 0.0036347588 0.028029688 0.006244117 0.021486875 0.0185009 0.042594794
0.12235524 0.035132106 -0.007885865 -0.08603267 -0.012863532 -0.044985853 0.0020538962 0.017745519
0.081987664 0.009022937 -0.015344882 -0.09416841 -0.011759513 0.058368552 0.045010313 -0.014763947
0.008089394 0.032121755 0.004170441 -0.046579666 0.0024161448 -0.049986385 -0.02213623 0.007813278
0.010257018 -0.02633348 0.08513353 -0.020874524 -0.076654345 0.0955581 0.0547501 0.001753574
-0.01379524 0.20054117 0.013178398 0.07160055 0.009388637 0.023892198 0.028143195 -0.026429761
-0.029048594 -0.094542965 0.028333167 0.022686183 -0.006726888 0.031789694 -0.10200783 -0.1513329
0.059574746 0.005981403 0.038142376 0.047346298 0.003444849 0.043844897 -0.030944528 0.0126492875
-0.028744968 0.03187894 -0.0024634025 -0.015073633 0.010959976 0.05220777 -0.017583076 0.14564323
0.01032363 -0.010823587 0.003790648 -0.05454168 0.13757119 0.057263125 -0.018576542 0.017266368
-0.06623501 -0.019552426 -0.081475794 0.01973037 -0.09109143 0.021450678 0.050717678 0.037801407
0.02565651 -0.02455994 0.0036993376 0.019580593 -0.0057635754 0.060554426 -0.005012008 0.008476141
-0.07009235 -0.01254172 0.06363257 0.013505722 -0.14478225 0.26217026 0.013545058 0.23979509
-0.018015869 -0.29204163 0.0336781 -0.012349 -0.0320942 -0.0034419647 0.016440142 0.035382412
-0.07525196 0.011156502 -0.011255227 0.016769404 0.01027197 -0.14621158 -0.09017847 0.026605047
0.027529983 0.0483276 -0.09475438 0.05304244 -0.0357205 0.0023646536 0.042371552 -0.0023389254
0.147738 0.108861394 -0.038215365 -0.050167013 -0.074615374 -0.019231131 0.025436312 0.10047444
0.037422955 -0.04224994 -0.03847493 0.13495004 -0.026423007 -0.014798005 0.12466854 -0.09668687
-0.13506112 -0.0024420482 0.024927506 -0.023571836 -0.0024052984 0.016612023 -0.015396183 -0.023889828
-0.10365778 0.096970715 0.031494014 -0.001500931 0.01645483 0.012975872 0.00031218052 -0.0432902
-0.01248685 0.075088575 0.04650351 0.0006465069 -0.02676988 -0.006372616 0.0138442665 0.03117177
-0.029865518 -0.021799888 0.14520021 -0.07606224 0.006454633 0.166652 0.033942662 -0.012824622
-0.06266391 -0.06470368 -0.0055899485 -0.017138258 0.1328572 0.061940435 0.24144098 0.008472483
0.014665957 -0.034488946 -0.15332164 0.005478383 0.01183382 -0.15692778 -0.110127226 0.030019388
0.005967238 0.06402272 -0.063559495 -0.0034287842 -0.013657936 0.08538916 -0.123056225 -0.051397923
00000000: 2f80 0ebc c4d7 003d 1212 e53b c9f8 143b
00000010: f5c5 4abd 0550 253b 2945 babc 574e 853c
00000020: ba21 6fbc 4193 913b ff8c c83d b058 153d
00000030: cb3b dfbc b4c9 583c b395 ea3c 057b 4abc
00000040: 260b 403d 7d1e 0f3d e505 aabc cd2a 2fbb
00000050: d407 803c f81f 523b 7a04 95bd 4693 e23b
00000060: 549a 42bd b613 93bd f059 6dbc 16bc ebbc
00000070: caa5 fa3a 03d8 673b 4289 1cbe d1e2 06bd
00000080: 2aea 1fbd e79f 773d 3c94 0bbc f33b 473e
00000090: 942a 2d3c fc7a 913c 5f1f 59be eb6e 933e
000000a0: 2c05 4dbd beb0 25bd 5289 d0bd 8d58 bd3c
000000b0: 371c 0abb ec1b d1bb eae0 42bc 65ee 75bc
000000c0: 3f96 15be 4a34 8e3c 8d39 b7bb ccde 613d
000000d0: 5122 01be 89bd 813c f37e 30be 9322 eb3c
000000e0: c98b 1dbd 0a9f 7fbd 2235 6e3b 849e e53c
000000f0: 739b cc3b 3e05 b03c 338f 973c e177 2e3d
00000100: 6295 fa3d afe6 0f3d b733 01bc e631 b0bd
00000110: 90c1 52bc 1643 38bd a99a 063b 0d5f 913c
00000120: 26e9 a73d f1d4 133c 1a69 7bbc 5edb c0bd
00000130: f9aa 40bc dd13 6f3d bc5c 383d 7be4 71bc
00000140: 6189 043c 1a92 033d 32a8 883b 52ca 3ebd
00000150: 2f58 1e3b 86be 4cbd 0a57 b5bc 4303 003c
00000160: 0d0d 283c 4fb9 d7bc 7d5a ae3d 0d01 abbc
00000170: f4fc 9cbd f7b3 c33d a441 603d 2ed8 e53a
00000180: 6e05 62bc aa5a 4d3e 35ea 573c 4fa3 923d
00000190: ccd2 193c 92b9 c33c 8f8c e63c 3a83 d8bc
000001a0: 51f7 edbc be9f c1bd f51a e83c 60d8 b93c
000001b0: 3a6d dcbb e935 023d 7be9 d0bd 03f7 1abe
000001c0: a604 743d a5ff c33b 2e3b 1c3d 31ee 413d
000001d0: fac2 613b b596 333d 617f fdbc f53e 4f3c
000001e0: 917a ebbc 7e93 023d 0971 21bb 66f7 76bc
000001f0: 7991 333c d1d7 553d 620a 90bc 8023 153e
00000200: 7124 293c 6a55 31bc 856c 783b 1967 5fbd
00000210: 76df 0c3e bd8c 6a3d d52d 98bc 3372 8d3c
00000220: 39a6 87bd 692c a0bc c8dc a6bd 96a1 a13c
00000230: 258e babd 55b9 af3c 57bd 4f3d a6d5 1a3d
00000240: 9a2d d23c ed31 c9bc 9670 723b 7b67 a03c
00000250: 60dc bcbb eb07 783d c53b a4bb 83df 0a3c
00000260: 948c 8fbd c97b 4dbc cb51 823d 1b47 5d3c
00000270: cc41 14be 2e3b 863e 17ec 5d3c d88c 753e
00000280: 0496 93bc 7b86 95be 0cf2 093d 7653 4abc
00000290: 3575 03bd 9692 61bb 7aad 863c 26ed 103d
000002a0: b31d 9abd c3c9 363c d867 38bc fd5f 893c
000002b0: c44b 283c 7db8 15be 7daf b8bd d4f2 d93c
000002c0: 8f86 e13c 29f3 453d 960e c2bd 0843 593d
000002d0: a94f 12bd 4ef8 1a3b cb8d 2d3d a848 19bb
000002e0: a148 173e b9f2 de3d b787 1cbd ed7b 4dbd
000002f0: f2cf 98bd 9b8a 9dbc d05f d03c 8bc5 cd3d
00000300: d048 193d 460e 2dbd e397 1dbd 5830 0a3e
00000310: 1075 d8bc 5573 72bc 3852 ff3d c403 c6bd
00000320: 764d 0abe c50a 20bb c534 cc3c b919 c1bc
00000330: 36a2 1dbb f015 883c 4640 7cbc 9ab4 c3bc
00000340: 884a d4bd 9598 c63d deff 003d e3ba c4ba
00000350: 48cc 863c c098 543c 29ac a339 1151 31bd
00000360: a595 4cbc 0ac8 993d 777a 3e3d 587a 293a
00000370: 824c dbbc 61d1 d0bb 10d3 623c f15b ff3c
00000380: 88a8 f4bc ae95 b2bc 5daf 143e 85c6 9bbd
00000390: 6381 d33b d2a6 2a3e 7607 0b3d 5d1e 52bc
000003a0: f055 80bd 5d83 84bd e32b b7bb 8865 8cbc
000003b0: b80b 083e 41b5 7d3d 4e3c 773e 2bd0 0a3c
000003c0: 7b49 703c 4844 0dbd 5900 1dbe 0284 b33b
000003d0: a3e2 413c adb1 20be 628a e1bd 38eb f53c
000003e0: d288 c33b 581e 833d 7b2b 82bd 74b5 60bb
000003f0: 89c5 5fbc 83e0 ae3d e704 fcbd a186 52bd

transformer_encoder.layers.1.linear2.bias f4 [6]
0.019214654 -0.0069317156 -0.005395466 -0.023719318 0.019330846 -0.014581206
00000000: 0d68 9d3c 7223 e3bb 73cc b0bb 044f c2bc
00000010: b95b 9e3c 03e6 6ebc

transformer_encoder.layers.1.norm1.weight f4 [6]
0.89015895 0.8446291 0.8903051 1.0380255 1.0747617 1.0170127
00000000: 75e1 633f 9d39 583f 09eb 633f 05de 843f
00000010: cb91 893f 792d 823f

transformer_encoder.layers.1.norm1.bias f4 [6]
-0.054720886 -0.023497326 0.16208793 -0.055485733 -0.0098905675 0.061248366
00000000: 0223 60bd 777d c0bc 61fa 253e 0245 63bd
00000010: 0c0c 22bc 91df 7a3d

transformer_encoder.layers.1.norm2.weight f4 [6]
0.99046135 1.0867717 0.78983533 1.357234 0.5318221 1.0337408
00000000: e08e 7d3f 561b 8b3f a632 4a3f d8b9 ad3f
00000010: 7e25 083f 9e51 843f

transformer_encoder.layers.1.norm2.bias f4 [6]
-0.043085754 0.2578505 0.41340297 -0.4115772 0.2006364 -0.095354445
00000000: b07a 30bd fb04 843e 8ea9 d33e 3fba d2be
00000010: a173 4d3e 3149 c3bd
