DU_model/best_model1.8.pth (torch, 76094 bytes, 5 tensors)

lstm.weight_ih_l0 f4 [256, 6]
00000000: b9d8 463e 925b a03e b48a d83e f5cc ae3b
00000010: d2be 2e3e de03 9d3e 8184 da3f 88c3 c43e
00000020: c3a8 9b3e 4f83 023c 9ec0 12bf 0fa0 7d3f
00000030: f317 07be 01ff a7be 9d95 1fbe d515 87be
00000040: f922 97be c11e d6be 2f0e 3e3e f1b6 263e
00000050: b3a7 8f3e 3fa8 a13d b662 6cbd 69c4 06bd
00000060: 7d61 1bbf b231 c33e 7a8f 7b3e 00c8 8d3d
00000070: 32b0 4d3e d6ff 01bf 369c e140 cdad 8e3e
00000080: 21bb 823d a4b9 2cbf f7b5 7bbf 3aba 0f40
00000090: 1665 60be 9e72 ba3e a47a 373e a1e6 ec3d
000000a0: 3b01 313e 7266 343b 0340 fe3d dd48 cbbc
000000b0: 37f9 19be a330 dbbd c992 d83d f31c e8bc
000000c0: 3db6 edbd 7ddf 96bb ca46 603e 06f0 823d
000000d0: ad29 f63d 11a5 58be d4d7 9cbf b283 2ebe
000000e0: 4217 1fbd 5c0e 84be b089 8d3c e52d 94bf
000000f0: 8131 153f d321 d33b bf02 8b3e 2d40 343e
00000100: 9ae8 a93a 5b21 233f 8309 243d 1522 ec3d
00000110: 5e79 dcbd 1863 00be d66b 68be e319 f33c
00000120: 3f53 3040 a5de 253f 1148 5e3e f72d 593e
00000130: 98fb 1a3e 1ff8 6c3f 6f5d ffbe 1808 3fbe
00000140: 675a edbd e712 18bd f032 b9bc bdd0 07bf
00000150: d1b0 02be 61fa 4abe d1f5 c3be 334f 863d
00000160: 3c0b 9cbe 9d10 b8bc b238 88bc c367 6c3e
00000170: 9740 3e3e 19b0 813e 3f89 083e 2e21 c33d
00000180: 1231 83bd 7a8e f2bd 5f7f bfbd 288b f7bd
00000190: f4a8 6a3e 9458 073e 6fef df3f 2bb5 0dbf
000001a0: 1a0f 8abe cc93 003a 44f0 eabe f645 0e3f
000001b0: 1c8a b3bf 3c89 723e 4490 713e 1e2d 6f3d
000001c0: c5f3 773e e155 6cbf 6bc9 b33d 071a 2b3e
000001d0: 3d76 4a3e 64ba 3d3d f385 a73e d579 5e3e
000001e0: 4006 b9be f04b 62be 99c5 63be aabb 74be
000001f0: 5542 36be 00b4 63bc e8c4 d73e 29a7 933e
00000200: c21e 863e ea90 ab3c 4fd1 c73d 9d37 b83e
00000210: a967 3c3b 9d7a 02bd 72fe d53d 9d50 013d
00000220: 63e4 de3b 6b74 3f3d 2304 1b3e d1ac 5ebe
00000230: 6266 97be c30f f6bc b1bb 17be 4cbf 2abe
00000240: b299 4d40 618c 463f 200e 9b3e c325 e43b
00000250: 194d 44bf 04a8 f53f abad 6ebe 3bcb 833d
00000260: 536f 273e 5b39 623e 8560 d03e 3087 d0bd
00000270: 0b43 473f 2bc0 de3e 785c 833e f21d 173d
00000280: e1ce a53d f593 993e 1eb6 373d 97cb 753e
00000290: 0127 623e 2a63 3f3e a74a 8a3e 6490 32bd
000002a0: ea46 a43e ecb4 533e 6312 7b3e 914d 123e
000002b0: e29e 093e 50e9 d83d 6291 80be 1e37 953e
000002c0: 7d7f 213d fc31 353e e24a 2b3e f592 0b3e
000002d0: 5bd7 233e 07e3 7bbe 213c 91be 86be 76be
000002e0: 3650 d9be 8eb5 0b3e 2154 a5bd 85ca 19be
000002f0: a622 cb3d 46d6 6b3e 7469 b13e 1f36 153c
00000300: 2577 09be bbb4 a5be 7d45 26be ad2c 98be
00000310: b93e 9fbe 74a6 b2be be69 afbd 6b74 92bd
00000320: ddc5 bd3d f032 de3c 6a76 453d 67e0 be3d
00000330: d0f0 be3e f2cd ccbc aea8 96be d20d 78be
00000340: 9464 13bf c123 72bd 1fad 1c3e 3707 643e
00000350: 73db 853e b9d4 ab3d c914 c5bc 4c01 a73e
00000360: f8cf 853e 4b83 833c 722d 863d d4e5 523c
00000370: 4ed4 05be df05 973e c1c1 5ebe 7450 33bf
00000380: 5ce3 f7be 984d 0dbc 9761 7dbd f039 28bf
00000390: 5251 863c 5283 b43d 4cc2 6e3e d0fe 063e
000003a0: e2a9 a1bd 4474 6f3d 1b1e f93d bf45 1c3e
000003b0: 0a73 903e 0b5d d93e 98f3 50bd 2be1 f33e
000003c0: 3ad4 1dc0 d338 c3bd 637b b4be 9bbd 84bd
000003d0: fa72 313e d33b 00c0 2738 b6be ff21 7fbe
000003e0: 0958 8cbe 9a9e 93be 1644 cdba 0c92 d3be
000003f0: c56d ca3e 67eb 0d3e 2bc4 8e3e ec2a 103e
0.1941861 0.31319863 0.42293322 0.0053344914 0.1706498 0.30667013 1.7071687 0.38430429
0.30402192 0.007965877 -0.5732516 0.99072355 -0.1319273 -0.3281174 -0.15584417 -0.26383844
-0.2951887 -0.41820338 0.18560098 0.16280724 0.28057632 0.078934185 -0.057711326 -0.032902155
-0.6069563 0.38123852 0.2456645 0.069229126 0.20086744 -0.50781 7.0503187 0.27866974
0.06383348 -0.67470765 -0.9832453 2.2457414 -0.21913561 0.3641557 0.17917877 0.115674265
0.17285626 0.0027526882 0.12414553 -0.024815017 -0.15036474 -0.10702636 0.10574872 -0.028334117
-0.11607025 -0.0046042786 0.21902004 0.06393437 0.12019668 -0.21156718 -1.2253366 -0.17042425
-0.03884054 -0.25792205 0.017277569 -1.1576506 0.5827866 0.006443241 0.27150533 0.17602606
0.0012962997 0.6372277 0.040048134 0.11529938 -0.107653365 -0.12537801 -0.22697386 0.02967543
2.755081 0.64792854 0.21707179 0.2120894 0.15135038 0.925661 -0.49875972 -0.18655431
-0.115895085 -0.0371274 -0.022607297 -0.53052884 -0.12762763 -0.19822074 -0.3827348 0.06558075
-0.3047732 -0.02246886 -0.016628597 0.23086457 0.18579327 0.25329664 0.13333605 0.09527813
-0.06405844 -0.118435815 -0.09350466 -0.12087089 0.22916013 0.13217384 1.7494944 -0.55354565
-0.26964647 0.0004904836 -0.45886433 0.555755 -1.4026523 0.23685163 0.23590189 0.058392636
0.24214084 -0.9231854 0.08778652 0.16709147 0.19771667 0.046320334 0.32719383 0.21726163
-0.3613758 -0.2209928 -0.22243346 -0.23899713 -0.17798741 -0.013897896 0.42142415 0.2883847
0.2619534 0.020943124 0.09756719 0.3597993 0.002874831 -0.031855214 0.10448922 0.03157102
0.006802128 0.046741884 0.15138297 -0.21745612 -0.295703 -0.030036813 -0.14817692 -0.16674536
3.2125058 0.7755795 0.30284214 0.0069625094 -0.7668014 1.9191899 -0.23308437 0.064352475
0.1635106 0.22092192 0.4069864 -0.10182035 0.77836674 0.43505988 0.25656486 0.036893792
0.080961 0.29995695 0.044851415 0.24003445 0.22085191 0.18690172 0.2701008 -0.043594733
0.32085353 0.20674485 0.24518733 0.14287402 0.13439515 0.10591376 -0.25110918 0.29143614
0.039428223 0.17694849 0.16727784 0.13630278 0.1600012 -0.24598323 -0.28366187 -0.24096116
-0.4244401 0.13643476 -0.08072687 -0.15018661 0.09918718 0.23030958 0.34650767 0.009107142
-0.13424356 -0.3236445 -0.16237445 -0.29721585 -0.3110254 -0.3489262 -0.085650906 -0.07151111
0.09266255 0.027123898 0.04820863 0.09320145 0.372931 -0.025000546 -0.29425567 -0.24224022
-0.57575345 -0.05911613 0.15300415 0.22268377 0.2614399 0.08390183 -0.024057763 0.32618177
0.2613523 0.016053816 0.06551637 0.012872178 -0.13069269 0.29496667 -0.21753599 -0.70044637
-0.4841565 -0.008624457 -0.061860647 -0.65713406 0.016396198 0.0881411 0.23316306 0.13183141
-0.07893731 0.05846049 0.12163945 0.15260981 0.28212768 0.424538 -0.05101356 0.47632727
-2.4660783 -0.09532323 -0.35250387 -0.06481477 0.17329016 -2.0036514 -0.35589716 -0.24915312
-0.27410915 -0.2883194 -0.001566055 -0.41322362 0.39536873 0.1385933 0.2788404 0.14078873

lstm.weight_hh_l0 f4 [256, 64]
00000000: 5a2b 3fbe b394 f63d 7f47 2ebc 67db 433e
00000010: 592c 40be d929 333e 0451 94be 1fb0 d53d
00000020: d516 223d dcec 8db9 f025 e53c 770a fdbd
00000030: 0ade 063e ce75 09be d995 ae3e 43a9 81be
00000040: 158f 4fbd 4fc9 c2be cb0e 4c3e 4449 a03d
00000050: 436c 863d 4077 3abe 7f61 373d 59ab cd3d
00000060: 6bfd 013c a17d cabd 6989 983e 1674 dd3e
00000070: f7d3 243e 898b 70be 2255 62bc 8ff9 883d
00000080: bc98 a43c 47a6 3fbe be20 693d 32b0 c4bd
00000090: 47fe 4b3e d7e8 3b3d d7e0 0fbe c200 93be
000000a0: 6620 ad3d 3ebb 913e 7a04 8c3d fc50 dbbd
000000b0: df19 0dbd 94d1 c63d 801a edbd ec64 973d
000000c0: 5548 f6bd 221a 103c c5df 90be 1c1a 083e
000000d0: de36 573e 9043 983e 3b22 cdbd 3f6a babe
000000e0: 5081 1fbe 9757 8c3d d977 cfbb e8f8 7e3d
000000f0: 54b0 85be d41b 333e 08d3 2bbc 562f d93e
00000100: ad3e 2fbe c322 96bc 4f9c c5bd 10ad 87bb
00000110: 624b 83be 6dd7 31bd d605 5fbd 05a5 493d
00000120: ce80 373e 81f5 d73d 98b1 6fbe bebf 04bd
00000130: 8b57 3abe ae0e ccbd c311 48be 377f ffbd
00000140: 62c7 47bd d94f 4dbc 82ff 203e fb22 9f3d
00000150: fe09 1fbd 1196 04be 313e ffbd c354 b0bc
00000160: e281 e93d 6f9f b13d 3132 f5bc 32e1 613d
00000170: 93ba a33d f7bc 863e c4af 51be 0cca bd3d
00000180: c24d b1bd b3ce 95bc 376f 223d b803 313e
00000190: 8663 ddbc 19dc d63d f3fb 923d a169 49be
000001a0: 25c7 9a3d 7aaf 183e 21db 78bd 2f46 edbd
000001b0: a35c 443e 0cc2 fd3c 04d7 9cbd 889b b23c
000001c0: 5254 06bd bc78 2dbd 46dd 58be 4473 8cbd
000001d0: 7163 b03d 15c6 2bbe 4355 c1bd 4ce1 103c
000001e0: e997 f3bd 003a 7b3d 4d36 433e edff b4bd
000001f0: b93a a13d f5b1 2f3d a2df cdbc d83a d93d
00000200: 7856 023e 7f3a c9bd 1a0e 1e3e 252f c0ba
00000210: b2a5 5dbd e10c a23d 83af 78bd 647b c93b
00000220: f804 db3c 9b26 d6bd 7cd4 363d c10d 3f3d
00000230: f534 91be 4bb1 3d3e 10ab 323d 6672 44bd
00000240: 6d8e e9bd 2e1e d23d 738d 14be 0c53 8dbd
00000250: 8612 27bd cf2c 283d 37fe e23d ad60 6e3d
00000260: 9314 d4bb 323f 2cbe 6967 13be a8a5 39bd
00000270: b96c 303e 08c8 39be 07e0 c23d a10a d3bc
00000280: eb4e 30be c329 68be 191c 0a3e 4b97 aebc
00000290: 99bd 49bc 66ff 67bd 9ec1 6f3d 44d3 27bd
000002a0: ccbd 86be d920 0b3d 4ba8 1f3e 4301 bb3d
000002b0: 62fa debd e821 87bd a062 4f3c 34a7 7ebd
000002c0: b6bc 81bc 2e38 473c e6ee 463e 790e 9abc
000002d0: 57a1 c4bd 062a 99bc af4a 9b3c 1a60 723e
000002e0: c6a9 393c 9077 e23a c4c0 42bd 84da 91bd
000002f0: 92a8 c23c 3318 8ebe 0129 903e 11a4 36bd
00000300: efaf c0bd 7540 fa3c bb6b 143c a475 0b3e
00000310: 5391 993c 4926 f63c 7cd0 ce3d 66b9 4cbb
00000320: d1f7 933d 9eae 7a3e 164c 1cbe 9d30 c53b
00000330: 1d84 2bbe 4b69 27be c4ed b7bd 1a96 4bba
00000340: b71b 6dbc 1734 a13b d915 203e bab5 863d
00000350: 2b39 e13b 0b5d e33d b0bf 3fbc 2a81 0dbd
00000360: 624e 0f3c 8673 ab3c acee 0a3c 2ce0 fa3d
00000370: d1dd 393d 9f3a 20bd ee8f 2b3d e941 80bd
00000380: 8944 603c a2c3 413d c00f f9bd b680 093e
00000390: de9f e4bc c104 53bc b8be f1bd a73a 443d
000003a0: 3996 af3d 3834 623e 5623 723c fab9 fbbd
000003b0: 7bad c9bd fb55 913d 4829 e23d 7bcb 0f3e
000003c0: 0e7a 31be e2d5 2c3d 87ab 39bd d988 54bd
000003d0: cb71 1abd dbfc e0bd e506 debd 83e2 49bd
000003e0: 26d2 1dbd 2ea2 513b 5508 c13c 404e 32bd
000003f0: 4c4e a7bb 0099 853d b925 fd3d 16d7 2bbd
-0.18668881 0.12040081 -0.010637163 0.19126664 -0.18766917 0.17496432 -0.2896806 0.10433983
0.039572556 -0.0002707009 0.027972192 -0.12355512 0.13170639 -0.13423845 0.340987 -0.2532445
-0.050673563 -0.3804421 0.19927518 0.07826474 0.06563618 -0.18209553 0.044770714 0.100424476
0.007933955 -0.09887243 0.29792336 0.4325263 0.16096483 -0.23490728 -0.013814243 0.066882245
0.02009236 -0.18715774 0.05691599 -0.09603919 0.19921218 0.04587635 -0.14050613 -0.28711516
0.08453445 0.28463167 0.06836791 -0.10708806 -0.0344485 0.097079426 -0.1157732 0.07392296
-0.12025515 0.008795293 -0.28295723 0.1329121 0.21017024 0.29739046 -0.100162946 -0.36409184
-0.15576673 0.06852644 -0.0063314256 0.062249094 -0.2611109 0.17491084 -0.0104873255 0.42418927
-0.17113753 -0.018327123 -0.09648954 -0.0041405037 -0.2564345 -0.043418337 -0.054448925 0.04922964
0.17920229 0.10544873 -0.2340759 -0.032409422 -0.18197457 -0.099637374 -0.19538026 -0.12475436
-0.04877413 -0.012531244 0.15722468 0.07770344 -0.03882789 -0.12947871 -0.12463034 -0.021524793
0.11401726 0.08672988 -0.02993116 0.055146404 0.079945706 0.26316044 -0.20477206 0.09267053
-0.08657409 -0.018287038 0.039656844 0.17286575 -0.027024996 0.10491199 0.07176962 -0.196692
0.07557515 0.14910689 -0.060755853 -0.11585652 0.19175963 0.030976318 -0.076581985 0.021802679
-0.032795258 -0.04235147 -0.21178159 -0.06857923 0.08612717 -0.16774781 -0.094400905 0.008842777
-0.11894209 0.06133461 0.19063683 -0.088378765 0.078725286 0.042894322 -0.02513105 0.10606927
0.12728298 -0.0982561 0.15435067 -0.0014662488 -0.054113097 0.07912613 -0.060714256 0.0061487425
0.026735768 -0.10456582 0.044636235 0.046643976 -0.28360716 0.18524663 0.04362017 -0.04796066
-0.11404119 0.102596626 -0.14507084 -0.069006056 -0.04078915 0.041058358 0.11083644 0.058197666
-0.006472179 -0.16820982 -0.14394917 -0.045323998 0.17228974 -0.18142712 0.09515386 -0.025761904
-0.17217605 -0.22672181 0.13487281 -0.021312376 -0.01231327 -0.05664005 0.058534257 -0.040972963
-0.2631668 0.033966873 0.15591542 0.091311 -0.108876005 -0.06598264 0.012657791 -0.062171176
-0.015837055 0.01215939 0.1942707 -0.01880573 -0.09601086 -0.018696796 0.01895651 0.23669472
0.011331981 0.0017278064 -0.047547117 -0.07121757 0.023762021 -0.27752838 0.28156283 -0.04459006
-0.09408557 0.030548314 0.009058888 0.13619095 0.018746054 0.030047553 0.10098359 -0.0031238436
0.072250016 0.24480674 -0.152634 0.006017758 -0.16749616 -0.1634876 -0.08980897 -0.00077662023
-0.01447194 0.0049195397 0.15633334 0.0657763 0.00687327 0.11101731 -0.011703417 -0.03454701
0.008746715 0.02092911 0.008479755 0.12249789 0.045377556 -0.039118405 0.04188531 -0.06262571
0.013688215 0.04730571 -0.12161207 0.13428006 -0.027908262 -0.012879551 -0.11803955 0.047907498
0.085735746 0.22090232 0.014778933 -0.122913316 -0.09847542 0.070964776 0.1104303 0.14042465
-0.17331716 0.042196162 -0.045329597 -0.05188832 -0.037706178 -0.10985728 -0.10841159 -0.049288284
-0.03853049 0.0031987536 0.023563543 -0.043531656 -0.0051057693 0.06523323 0.12360711 -0.04195317

lstm.bias_ih_l0 f4 [256]
00000000: 1049 273e a47c 7dbd a6a0 77be 1163 ea3d
00000010: 25dc 703e 1adf 93be acc0 a43e 3939 88bd
00000020: cb22 533e 43d4 10be 9e2c e93d a61c 113d
00000030: c430 043e 858d acbe ff25 c4be 30d3 803e
00000040: 0ab5 c1bd 3d2f d4be c9bb ca3e 572b 413e
00000050: 3229 0ebe a190 2c3e 2555 84bc 4790 88be
00000060: 97f9 303e c564 393e 0378 963d 3790 263e
00000070: 4a36 613e 034a 613e 9e1c 73be fc22 afbd
00000080: 37a8 b4be 0cfb c63d 7c71 62be dabe 603e
00000090: ab9f 4a3e 30a8 e4be 68de 0a3d 22df a63c
000000a0: 7fc2 85bb d441 efbd 010b 3f3e 0317 16be
000000b0: 84da 10bd 4346 e4bd 1608 6ebe 3a2c 023e
000000c0: 5980 94be 0316 6dbe cd77 3e3d d633 98be
000000d0: a034 dd3d 7b0b 4bbc b845 2fbe 4edb ac3e
000000e0: 0ac7 d13d 9d8b 5dbe 440c d93e a6b5 4cbe
000000f0: 549f 67bd faaf 973e d8e7 3c3e a7d3 373e
00000100: e522 c33d 7114 24bc 8ea2 813c ddc5 41be
00000110: 08ec 5d3e c990 19be 488c 0bbe 177d 8dbc
00000120: a76a a4be 9cc5 263e 5a40 7bbe b5be a63d
00000130: 0935 2f3e e622 e43d 8d81 a53e fc7d da3d
00000140: 972c b33d d9ec 9bbd 299f 3e3d 1c66 12be
00000150: 6f27 e4bc 40e5 efbe 51b9 5abd 877a 88bd
00000160: a93f d83c f243 8e3d 3a4d 36be 495a 233e
00000170: a84b ca3d 569b cdbd 7b47 f9bb 507e d63d
00000180: 9a26 253d 5974 47bd f490 0d3e e506 68bd
00000190: 8be0 953d dc95 293e f73a 593e 6e92 92be
000001a0: d0a0 0d3d 75a6 253e 4bb3 34be bbce 3ebd
000001b0: 1d66 66be edab 6cbe 897e eb3b 7191 f1bd
000001c0: dac9 013e bcb8 113e 7909 053e 6509 61be
000001d0: d1fc 5dbd 3f27 2ebe 1d54 a9bc 260b 7b3e
000001e0: 7c00 51bd fa7f e2bc e205 6e3d 1b69 a0bd
000001f0: bb57 843e 829b 2fbd b983 f4bd 941d 45be
00000200: 7d39 f9bd e673 dc3e e249 a93c 9711 9f3a
00000210: cd7f 91bd b979 efbe 6bd0 6bbe 14f5 bc3d
00000220: 6651 41be 9631 01bd dd8b 463e cf04 8cbd
00000230: c5e5 3a3f f45c 17bd 0bb6 b23e b4ce 3dbe
00000240: 3f81 d13d c9d9 3fbe daeb b53d 789f f1bd
00000250: ab3c 8f3b df7f 2d3f 5d3c 0a3e 1945 5ebc
00000260: 4198 87bf 5cb6 17be 3696 8a3e 14a1 063e
00000270: 69df d0be 35be b63c 4e41 e73d 8f2d ccbd
00000280: 8449 d6bc 8f7a 773d 6e80 5dbd e0f6 4dbd
00000290: 4afb 57be 20d6 243c 28f2 05be ab4c d2be
000002a0: b94a 663e a396 343e bf34 313e 42a6 5bbb
000002b0: 8a83 66be 695f b93d fb75 883c e6f1 713e
000002c0: e056 0f3e be69 283e fd95 92bd 7521 023e
000002d0: b2db 213e e79e 0a3e c715 203b 4eb9 00be
000002e0: 56e5 8cbd 52c3 43bd 4c0f 6abc b402 c8bd
000002f0: fa7e e83b 8241 8fbe 309e d4bd c73d a63d
00000300: 5cee 0c3d 52de b1be c4e7 b6bc 09b7 b03d
00000310: c2c4 763f a6d7 ec3d 2d73 d63e 6cdb 3bbb
00000320: 34b2 14be 8cc2 e33d fb1a b3bd 6a80 2d3e
00000330: 98ee 2abe da13 ca3d 6f8c c5be 30d8 443e
00000340: 0644 f43d 289b c33c 56dd d7bd 4bba 2abe
00000350: 170a 9a3b 11da bebf 09fd a2bd 8db3 9abe
00000360: 916d a9bf 4a20 62be 52cd af3d 6741 95bd
00000370: 9e01 6ebe 9156 c7bd 85dc 82bd 363e b03d
00000380: cd62 c7bc 77ad 8ebe ecb4 7e3e a0e9 c73d
00000390: 8316 5fbe aa40 423e 7cf3 cb3e 44ba 403e
000003a0: f693 c0bc 9036 883d d99a 7cbe c934 333d
000003b0: a9f5 883d 4bc3 0ebe f88c 023e 700c 983e
000003c0: 6cf9 5e3d 3220 c5bd 4f2a ce3d cec2 5cbe
000003d0: 2fb1 7cbe 0b58 98be 76ba 2b3d 0c8e 573e
000003e0: 00fc 4fbe 46a6 aa3d 2892 aebd 2605 0bbd
000003f0: 39c6 f13e 1392 543e 5900 9f3b 060b 1cbc
0.16336465 -0.061886445 -0.24182376 0.11444677 0.23521478 -0.2888115 0.32178247 -0.06651539
0.20618741 -0.14143471 0.11385463 0.035427712 0.12909228 -0.3370172 -0.3831024 0.25161123
-0.094583586 -0.4144229 0.39596394 0.18864189 -0.13882902 0.16852047 -0.016153881 -0.26672575
0.17282711 0.18104847 0.07347109 0.16265951 0.21993366 0.2200089 -0.23741385 -0.085515946
-0.35284588 0.09715852 -0.22113603 0.21947804 0.19787471 -0.44659567 0.03390351 0.02037007
-0.0040820236 -0.116824776 0.18656541 -0.14657216 -0.035364643 -0.11146214 -0.23245272 0.12712184
-0.29004171 -0.23152928 0.04650097 -0.29727048 0.10801053 -0.012392874 -0.1711644 0.33761066
0.10243042 -0.2163529 0.4239217 -0.19991168 -0.05654843 0.29626447 0.18447816 0.17951833
0.0952814 -0.010014639 0.015824582 -0.18923135 0.2167207 -0.14996637 -0.13627732 -0.017271562
-0.3211262 0.1628632 -0.24536267 0.08141843 0.17110075 0.11139469 0.32325402 0.10668561
0.08748739 -0.076135345 0.046538506 -0.14296764 -0.027850835 -0.4685459 -0.053399388 -0.06663995
0.026397543 0.06946553 -0.17802897 0.1595241 0.098777115 -0.100393936 -0.007607398 0.10473311
0.040320016 -0.048694942 0.13824826 -0.0566472 0.07318219 0.16561073 0.212139 -0.28627342
0.03457719 0.1617678 -0.1764652 -0.046583872 -0.2249989 -0.2311246 0.007186715 -0.11795319
0.12674657 0.14230627 0.12991895 -0.2197624 -0.054196183 -0.17007159 -0.020669991 0.24515972
-0.051025853 -0.027648915 0.05811108 -0.07832547 0.25848183 -0.042872913 -0.119391866 -0.19249564
-0.12169168 0.43057173 0.020665113 0.001213598 -0.07104454 -0.46772555 -0.23028724 0.092264324
-0.18878707 -0.03154143 0.19389291 -0.06836855 0.7300685 -0.03695388 0.34904513 -0.18535882
0.1022973 -0.18735422 0.08882876 -0.117979944 0.004371246 0.6777324 0.1349959 -0.013566279
-1.0593339 -0.14815658 0.27067727 0.13147384 -0.40795448 0.022307495 0.11291753 -0.09969627
-0.026158102 0.060419615 -0.05407756 -0.050284266 -0.21091953 0.010060817 -0.13080657 -0.41074118
0.22489442 0.17635588 0.17305277 -0.0033515845 -0.22511116 0.09051401 0.01665782 0.23627433
0.13997984 0.16446587 -0.07157514 0.12708075 0.15806463 0.13537179 0.0024427043 -0.12570688
-0.0687968 -0.047793694 -0.014285874 -0.097661406 0.007095215 -0.27979666 -0.10381734 0.08117252
0.034407005 -0.3473993 -0.022327311 0.08628661 0.9639398 0.11564569 0.41884747 -0.0028664721
-0.14521104 0.11121091 -0.087453805 0.16943517 -0.16692579 0.09867068 -0.38583705 0.19223094
0.11927037 0.023877695 -0.10540263 -0.16672628 0.00470091 -1.4910299 -0.07958419 -0.3021511
-1.3236562 -0.2208263 0.085840836 -0.07287865 -0.23242804 -0.09733308 -0.06389717 0.08605616
-0.024339104 -0.27866718 0.24873704 0.09761357 -0.21785931 0.1896998 0.398342 0.18821055
-0.023508053 0.06651032 -0.24668445 0.04375151 0.06687481 -0.13941686 0.12749088 0.2969699
0.054437086 -0.096252814 0.100666635 -0.21558687 -0.24676965 -0.2975467 0.04192587 0.2105028
-0.20310974 0.083324954 -0.08523971 -0.033940457 0.47221544 0.20758848 0.0048523364 -0.009524113

lstm.bias_hh_l0 f4 [256]
00000000: 5e5e 9d3e e00a 183e df88 c0be a0d2 973d
00000010: ec70 d33e c7dc a5be 0b9b 963e 64a6 ffbd
00000020: cd9f e43c d2df 7d3d 7706 2a3e 0fa0 34bd
00000030: 8207 793e c552 90be 35d7 d1be c7ca 663d
00000040: 8a8c ddbd 7278 00bf ec9e a33e 7287 903e
00000050: 885a 0dbe 837c a13e b831 04bd d335 afbe
00000060: a4c8 113e 826e 503e 0dcb 693d aaca 763e
00000070: a116 b53d cf8b 4a3e e7a2 a1be 1cb9 94bd
00000080: 5ef6 8bbe fbb3 7c3d 6aa8 3dbe 1747 403e
00000090: 1e23 053e 6018 fbbe 378e 47bc a210 ed3d
000000a0: dcc1 2bbd 4683 8dbe 3b7b 173d cc73 803d
000000b0: 3c23 143d 9451 bcbd edff 62be 2dd5 103e
000000c0: 0d58 b8be 3599 96be 401b 063e 3d7d 9ebe
000000d0: bf5d 3c3e 672b 1b3e 4c66 5bbe 1438 453e
000000e0: 0fee 9c3d 10e9 61be 112d c33e 885b 4dbe
000000f0: ffbe 003e cec8 903e c505 a13d 4e0c 9a3a
00000100: 4a33 043e 0434 893d 4a24 ef3c e9b5 86bd
00000110: 34da 593e 4d40 413c 4626 43be 7d5b 52bd
00000120: b88e c8be ade5 933e 3540 b4be 8cd0 b9bd
00000130: 6291 f23d 9126 253e 9aeb 373e 85aa 193d
00000140: 5b53 81bd 5760 78bd 739e 723e 4a2e 94bc
00000150: badb 9abd 2a67 22bf bc61 f13b 50b4 593d
00000160: 9d36 78bd 214e 4a3e 5873 51be 74f5 8f3d
00000170: e51c 40bd 6c2b 9cbc 7a1f 903a 5c96 4bbc
00000180: 234a 4b3c e3f6 bebd 64dc 813e 955d 19be
00000190: 7451 7d3c 0860 493e 8628 783e a32e 08be
000001a0: 3d83 febd 9fbf 5c3d d45e 5ebe 7a23 f4bd
000001b0: 95eb b8bd d470 0abe fd10 ba3d fe7d 4dbd
000001c0: c22b 023e 49b4 5d3e e8e5 ce3d 8587 6dbe
000001d0: 972e f0bb 1560 8cbe fba3 053e 2a01 9e3e
000001e0: 409a 9fbc e3d3 a6bd 70e4 a93d 7187 cfbd
000001f0: a167 683e 7e44 02be a39b 10be abd8 22be
00000200: bccc b03c 43ec c93e d6a9 1f3e 7397 2a3d
00000210: a818 abbd 481d 27bf c4c7 42be 8c36 a4bb
00000220: cb1b 44be 2c45 b3bd 426f 333e 2199 36bd
00000230: b190 403f 0225 df3b 1e0c a43e 7fe9 35be
00000240: 8b96 f73d 5c68 53bd d04c e2bd b48e 25bd
00000250: 86af 293e 1f3a 193f 9b6a 34bc 076e 86bd
00000260: c97f 61bf 4c66 0dbe 3ae8 d33e 2d61 d73d
00000270: f173 c2be 8cc2 8f3d 403d 583e 5bee 9abd
00000280: d37e c33d 882b 143d f0f9 3e3d 41cd 43be
00000290: 358b 5abe 1e66 24bd 9ebe be3d 40f0 0ebf
000002a0: 76c5 293e 2e23 023d e54b 4e3e 0c7d dd3d
000002b0: 594a 71be bd59 dcbd 5fba 623d 4439 7d3e
000002c0: 25e6 be3d b98e 6c3e fd08 893b efdc 943d
000002d0: 2b20 3c3e 973d 693e 6b32 6fbd 422a ba3d
000002e0: 14ec f5bd dd6c b73c 0e8d 343e 0c7a c4bd
000002f0: eeb0 713d a5c2 9bbe 22ac 5e3d 3682 f8bc
00000300: a604 723d 4313 8abe 2e0e 763d 9780 103e
00000310: fc59 743f dfb0 a13d 5836 ca3e 1558 6a3d
00000320: 770b f3bd 1e67 4f3e bf5d 11be 5bfc 2f3d
00000330: 183d 28be d67d 3e3e 993d 09bf ad7e 453e
00000340: 5d69 bfbd 68d5 d9bd 07a7 13bd 9695 5dbe
00000350: d86e e93d 53c3 c8bf 7bde 86be 81a1 18be
00000360: 3f51 a3bf 7c41 54be ca57 8b3e 1c8e c2bd
00000370: 534d 13be 957a b0bd cfef 713d f9e2 763d
00000380: a74c f7bd 9b65 debe 8cda 4f3e cfe5 e03d
00000390: b8bb 98be ae95 253e d7b8 cd3e f6b1 af3e
000003a0: 66f2 f03d 6d6f 443e b1d4 f6bd 6e69 30be
000003b0: a635 453d 9462 68be eb6f dd3d bd95 9d3e
000003c0: ec05 45bd 6cbf f13d 50c9 7e3e 1fab 01be
000003d0: f1f5 65be b373 92be d085 3c3e 10ee 983e
000003e0: df37 c3be 2f99 1f3d e005 50be 58f4 a13d
000003f0: c1f9 b53e ffae 9a3e 4f0b 4fbe be78 213e
0.3073606 0.14847898 -0.37604424 0.074132204 0.4129709 -0.32395002 0.29415163 -0.12482908
0.02790823 0.06198103 0.16604029 -0.044097956 0.2431927 -0.28188148 -0.40984502 0.056345727
-0.10817821 -0.50183785 0.31957185 0.28228337 -0.13804066 0.31540307 -0.032273978 -0.34220752
0.14236695 0.20354655 0.05707841 0.24100748 0.08842207 0.19779895 -0.31569597 -0.07261869
-0.273364 0.06169508 -0.18521276 0.18777119 0.13001677 -0.49042034 -0.012179903 0.11575438
-0.041932926 -0.27639216 0.036982756 0.062720865 0.036166415 -0.09195247 -0.2216794 0.1414382
-0.36004677 -0.29413763 0.13096333 -0.30954924 0.18395136 0.15153275 -0.21425742 0.19259673
0.076625936 -0.22061563 0.3812032 -0.20054448 0.12572859 0.28278202 0.078624286 0.0011752935
0.1291019 0.06699374 0.029192109 -0.06577665 0.21274644 0.011795116 -0.19057569 -0.05135678
-0.39171386 0.28886166 -0.35205236 -0.0907298 0.11844136 0.16127993 0.17960969 0.037516136
-0.06314727 -0.06063875 0.23693256 -0.018088479 -0.07561441 -0.63438666 0.007366387 0.053150475
-0.06059896 0.19756366 -0.20454156 0.07029238 -0.046902556 -0.019063674 0.0010995709 -0.012425985
0.012407812 -0.09324434 0.25363457 -0.14977105 0.0154613145 0.1966554 0.24234208 -0.1329904
-0.124273755 0.05389368 -0.21715862 -0.11920829 -0.09029309 -0.13519603 0.090852715 -0.050168984
0.12712005 0.21650805 0.10102445 -0.23196228 -0.0073297727 -0.27417055 0.13050835 0.30860263
-0.019482732 -0.08145883 0.08295524 -0.10133255 0.22695781 -0.1272144 -0.1412187 -0.15902965
0.021582 0.39438066 0.15592131 0.04164834 -0.08354312 -0.65279055 -0.19021517 -0.0050113853
-0.19151227 -0.08753428 0.1752291 -0.04457963 0.7522078 0.0068098316 0.32040495 -0.17764853
0.12089261 -0.051613197 -0.11049807 -0.040419295 0.16570863 0.5985431 -0.011011745 -0.06563955
-0.8808561 -0.13808554 0.41388112 0.10516582 -0.3797908 0.07019529 0.21117115 -0.07564994
0.09545674 0.036174327 0.046625078 -0.19121267 -0.21342166 -0.04013645 0.09313701 -0.5583534
0.16579232 0.03177183 0.20146139 0.108148664 -0.23563518 -0.10759304 0.05535352 0.24728876
0.0932124 0.2310132 0.0041819797 0.07268702 0.18371646 0.22777401 -0.05839769 0.09090091
-0.12007919 0.022390777 0.17631933 -0.09593591 0.059006624 -0.3042194 0.054363377 -0.030335527
0.059086464 -0.2696782 0.060072117 0.14111553 0.95449805 0.078950636 0.39494586 0.057212908
-0.11867421 0.2025418 -0.14195918 0.042965274 -0.16429555 0.1860269 -0.53609616 0.19286604
-0.09346268 -0.10636407 -0.03604796 -0.21639094 0.11398095 -1.5684608 -0.26341614 -0.14905359
-1.2759169 -0.20728105 0.27215415 -0.094997615 -0.14384966 -0.08617131 0.05906659 0.06027505
-0.12075167 -0.43436894 0.20298213 0.109813325 -0.29830718 0.1617038 0.40180084 0.3431546
0.11764984 0.1918313 -0.120522864 -0.17227718 0.048146866 -0.22693855 0.10812362 0.30778304
-0.04810135 0.11804089 0.24881482 -0.12662934 -0.224571 -0.28603896 0.1841042 0.29869127
-0.38128564 0.038964447 -0.20314741 0.07907933 0.3554211 0.30211636 -0.20219158 0.15768716

fc.weight f4 [1, 64]
00000000: e701 22be 9a1b 71bf 6f71 8d3d 1e9b 113d
00000010: 4de2 063f ffb8 9340 ff6d 3f3c f933 7dbd
00000020: 890a b4be a766 db3c e15d d9bf 7023 ab3c
00000030: e181 59bf 4bd0 8bbe 7540 863e 9341 03be
00000040: 5d7e c63d cd2e 3dbe 5943 1dbd 6447 f1bd
00000050: 3548 91bc 43e2 eac0 f8c2 85be b4de 5e3e
00000060: cdf6 0941 f0ed 9a3e 9138 f13c 0eb0 0abd
00000070: 51b3 ff3e fde9 4dbd 19e4 c3be 57ba ac3d
00000080: 3edb 283e 0c21 863e 5000 b8bc 6886 6a40
00000090: 0e7d 0f3e 365c e23d 1d27 e63e dc37 863e
000000a0: 8b22 4abe 103d ba3c 2659 39bf f7d2 8b3c
000000b0: f9d1 78be c14c 403e 8848 5a3d d6fe 52bf
000000c0: cb50 c7be 23c5 0dbf d5f6 8dbe 5faf b53e
000000d0: c784 9b3d 7173 733d c74d bbbe 9768 9fbe
000000e0: a4fe 1d3e 0d6e 103c 7a5b 7bbc 6e1e 913d
000000f0: 0f8e 2bbd 1230 293e a5cd c1be 1bec 843e
-0.15821038 -0.9418274 0.06906401 0.035548322 0.5268906 4.6163325 0.01168394 -0.061817143
-0.35164288 0.026782347 -1.6981775 0.020890921 -0.84963804 -0.27307352 0.26221052 -0.12817983
0.09692071 -0.18474884 -0.038394306 -0.11781195 -0.017734626 -7.34012 -0.26125312 0.21764642
8.622754 0.30259657 0.029445918 -0.033859305 0.49941495 -0.050271977 -0.38259962 0.08433979
0.16489884 0.26197088 -0.022461087 3.6644535 0.14012548 0.11052744 0.44951716 0.26214492
-0.1973974 0.022734195 -0.72401655 0.01706837 -0.24298848 0.1877928 0.053291827 -0.824201
-0.38928828 -0.5537893 -0.2772738 0.3548536 0.07593685 0.059436265 -0.36582777 -0.31134483
0.15429169 0.008815301 -0.015341634 0.07085882 -0.041883525 0.16522244 -0.37852207 0.25961384
