DU_model/best_model1.7.pth (torch, 76094 bytes, 5 tensors)

lstm.weight_ih_l0 f4 [256, 6]
00000000: 007c 14be 305b a63d 8bd2 873e 2153 ab3d
00000010: 37f7 033e 1b1b 43be 5e07 d5bd adae 08bf
00000020: 4ec1 b7be 1ac1 89bc 0abd 3cbf 3a30 bebf
00000030: f5f9 3fbd 84b0 c53d 9423 923e 6041 a83d
00000040: 36f3 053e 013b 4a3e 3ca2 2ebf e162 2fbd
00000050: cd83 14be 1d74 10bf d69a e03d 48cd 15bf
00000060: 316a 0c3e e73c 81be 1ab4 99be e91d e6bc
00000070: 2381 b33e 66d1 413d c618 1ebe 1f30 073d
00000080: 0736 8bbd f66c 80be a0ae 7fbd 0509 10bc
00000090: 6258 06be 972b 8cbe de7b 89be d49e 26be
000000a0: 45fe d8bd 1c97 82be 00da ef3e a7d0 d23d
000000b0: 1420 3b3e fa5a 2bbd c357 083e b6e8 333e
000000c0: ae10 3d41 889c c33e 8429 3e3e 5186 99ba
000000d0: c4a3 a4c0 4b70 5340 60bc 02be 828e d2bd
000000e0: 5c54 85bd 8726 3bbd 6d4e a13e d5b3 fbbd
000000f0: 4faa 29be f555 bb3c aed5 9ebc 4123 213e
00000100: 8718 2abe f9f5 75be 7c86 20bf d999 2a3f
00000110: 8ac7 853e 9ff2 033d 0221 a6be c74d 23bf
00000120: b1d3 5c3f 23fb 04bf 1970 83be 8e3e 85be
00000130: 32b3 073e 4b1b e63e c16c f03d a74b 4e3f
00000140: 6559 153f cef8 1ebb de3f 663f 3ca7 703d
00000150: bc33 c0be 54be cfbe 9a89 79be 0246 96be
00000160: 67af e3bd f23d 72be 54f7 8c40 03c8 2a3f
00000170: 6b9e 8a3e 4308 9a3e 09b6 87bf 204b 1740
00000180: 63fa a83d 2044 b6bb 089c b0be 6c3e 6abe
00000190: c728 0abf c39b 5e3c a13d 1f3d 55e6 e5bd
000001a0: 12fc 733e be51 323e e9d7 523f b3c1 56bd
000001b0: cdc2 08be 19c5 f7bc e006 13be 631b 04be
000001c0: 9f4f 09be 4e56 fbbc 832d ba3e 3fcd 7ebd
000001d0: a4b7 91be 0457 12be 5f60 82be 6766 cc3d
000001e0: 62d5 013e bb7c 0b3e ebf5 8ebd 82fe d63c
000001f0: 33f3 cd3d e584 e33d 52fd 3e3e c007 7b3e
00000200: e8f7 553e 1f6a 753e 481d 503e 71e4 193e
00000210: 03b2 c5bc 35e6 15be 4522 8dbe 5557 70bd
00000220: acf7 c3bd f17b bbbd 9d96 7b3d a6b0 8f3d
00000230: d60b 203e 989d f03d c3ce 1abd 2b66 85bd
00000240: 4b53 86bd 08d8 c3bd 0bd6 32be f7a1 d7bd
00000250: a58a 0bbd 2ff5 00be 1c86 19bd f251 1a3e
00000260: 6012 913e aa69 193d 4091 093d 156e 0fbd
00000270: 98be f3bd 2401 ff3c 0f73 7a3d bba1 3f3d
00000280: e1ec 263e 17e1 603c 3deb 3bbf adb7 843e
00000290: 4d4c 4b3e 620f b83e b142 a63e 6cb7 f0be
000002a0: c3a8 d9bf 8394 19be b60a 2e3c df2f aabd
000002b0: 12a9 9dbe 08e4 bebf e62a e0be 107d 2a3e
000002c0: 2538 823e bfb8 2a3d 6378 2f3e 3a5c a1be
000002d0: 3c67 5c3e 4355 dc3e 4a9c 7f3e 1914 0d3d
000002e0: 24d9 4e3d c056 813e 44ea 67be 11d5 d03e
000002f0: c63c 6f3e 5591 d63d 65e9 803e 9b3f 21be
00000300: 431c b03e 9e53 423e 7ce3 24bd 1380 f43d
00000310: 18c8 85be 6d42 d33e 2594 803e 2458 b23e
00000320: 1de9 c03d c10c 003b 46fd 19bd c650 a83e
00000330: 5e23 be3e d485 a0bd ef95 923e a801 593e
00000340: 218d 49bd 289c 893e a363 a43e 905d 62be
00000350: 5d72 01be 128c 9bbe f707 02be fb2a adbd
00000360: 9618 543e 8159 cebd 0e34 303d 443b 333e
00000370: a9c1 5dbd b671 903e 77fd e5be e377 60be
00000380: 6bef 34bd 0391 8ebe e798 a93e 57c6 743d
00000390: 20e3 c440 31cd acbf 080e b33d 155c 0f3d
000003a0: bd89 2c3f 0ef6 7140 1619 70bd 0c95 c8bd
000003b0: c73c 1cbe dd18 46bd a72b 9e3c 36fc a7ba
000003c0: e133 48bf 82cd 87be 9908 16be e27a f0be
000003d0: 703d 6fbd 25f0 17bf 12ae c63d 7bae cebd
000003e0: da76 0bbe b910 2a3d 9b13 21be 8795 b43d
000003f0: 2ffb e43d ce40 16be 5290 4dbe 13cc 97be
-0.14500427 0.081228614 0.2652782 0.08365465 0.12887274 -0.19053309 -0.10401796 -0.53391534
-0.35889667 -0.01681571 -0.7372595 -1.4858468 -0.046869237 0.09652808 0.2854277 0.08215594
0.13081059 0.1974907 -0.682163 -0.042818908 -0.14503403 -0.56427175 0.109670326 -0.5851636
0.13712384 -0.25241777 -0.3002022 -0.028090434 0.3505946 0.04731884 -0.15439138 0.033004876
-0.06797414 -0.2508313 -0.062422395 -0.008791213 -0.13119653 -0.27377006 -0.26852316 -0.16271526
-0.10595373 -0.25505912 0.46846008 0.102937035 0.18273956 -0.04183481 0.13314728 0.17569241
11.816572 0.3820536 0.18570524 -0.0011713003 -5.144991 3.3037288 -0.12767172 -0.102810875
-0.06510231 -0.04569104 0.31505147 -0.122901596 -0.16568874 0.022868136 -0.019389 0.15736105
-0.16610919 -0.24019612 -0.62705207 0.66641 0.261288 0.032213803 -0.32447058 -0.63790554
0.86260515 -0.51945704 -0.2567146 -0.26024288 0.13251951 0.44942698 0.11739493 0.80584186
0.5833953 -0.0024257186 0.89941204 0.058753237 -0.3753947 -0.40574896 -0.24368897 -0.29350287
-0.1111744 -0.23656443 4.4051914 0.66711444 0.27073988 0.30084428 -1.0602428 2.3639603
0.082508825 -0.0055623204 -0.34494042 -0.22875375 -0.5396847 0.013586941 0.038877133 -0.11225573
0.23826626 0.17413995 0.823607 -0.05243082 -0.1335556 -0.03024535 -0.14358091 -0.12901072
-0.1340928 -0.030680802 0.36362848 -0.062207457 -0.2846042 -0.14291006 -0.2546415 0.09980469
0.12679055 0.136218 -0.06980499 0.026244406 0.10056152 0.11109332 0.18651322 0.24514675
0.2089535 0.23966263 0.2032367 0.1502855 -0.024132734 -0.14638598 -0.27565208 -0.058677036
-0.09568724 -0.09154499 0.061422933 0.07016115 0.15629515 0.117488086 -0.03779484 -0.065136276
-0.065588556 -0.09562689 -0.17464463 -0.10528939 -0.03406777 -0.1259353 -0.037481412 0.15070322
0.28334332 0.037454285 0.033585787 -0.03501709 -0.11901587 0.031128474 0.061144885 0.046785098
0.163013 0.013725541 -0.7340582 0.25921384 0.19853325 0.35949236 0.32472757 -0.4701494
-1.7004627 -0.14998059 0.010622671 -0.08309912 -0.30793053 -1.491334 -0.4378273 0.1664927
0.2543346 0.041680094 0.17135768 -0.31515676 0.21523756 0.430338 0.24961963 0.034442995
0.05050005 0.25261497 -0.22647959 0.40787557 0.23363027 0.10476939 0.25178066 -0.1574692
0.34396562 0.1897721 -0.04025601 0.11938491 -0.26129222 0.41261616 0.25113025 0.3483287
0.09419463 0.0019538852 -0.037595056 0.32874125 0.37136358 -0.07838026 0.28630015 0.21192038
-0.049206857 0.2687695 0.32107267 -0.22106004 -0.12641282 -0.30380303 -0.12698351 -0.084554635
0.20712504 -0.10075665 0.043018393 0.17503077 -0.054139767 0.28211755 -0.4491994 -0.21920733
-0.04417364 -0.2784501 0.33124468 0.059759464 6.152725 -1.350012 0.087429106 0.034999926
0.6739767 3.780643 -0.058617674 -0.097940534 -0.1525756 -0.048363555 0.019307924 -0.0012816254
-0.7820416 -0.26523978 -0.14651717 -0.46968752 -0.0584082 -0.59350806 0.0970117 -0.10091873
-0.13619557 0.041519854 -0.15730135 0.088175826 0.11180722 -0.14673159 -0.20074585 -0.29647884

lstm.weight_hh_l0 f4 [256, 64]
00000000: 382b 24bc 144d 5cbc 8a20 4e3a 4ef6 9a3d
00000010: 028c e4bd 6751 23be 651f f83c f477 853b
00000020: 8f54 8e3d 2136 5e3e 8c37 1a3e 734a 16be
00000030: 638d 653e 454d 1a3d 01f7 7b3d a9b9 233d
00000040: ad5d 513d 5f75 2ebe 178f cabd e104 9e3d
00000050: 10d2 af3d 3364 1f3e afba 84bc 3a9d 2e3d
00000060: 4397 0b3d 058d 71bc 4dde 22bd 2d21 08bd
00000070: 55d2 2fbe 5418 be3d 60dc 0cbd 7582 d5bd
00000080: 6ea6 c3bc fb21 ef3c d205 9d3d ea31 18be
00000090: 81db 9fbb 54f0 01bc 483c 09be bb4a 9d3d
000000a0: ee97 2fbd 88fe 07be 3318 a3bd 9e66 8d3d
000000b0: 1425 e23d e368 45bd 2284 e33d e044 5b3e
000000c0: 7147 a3bd b208 333d c6bd b03b 9128 0e3e
000000d0: 9dbf 533e 3fe3 b0bd e89b 09be 1f8a 8f3c
000000e0: 5622 7f3d 25c4 11bd 2329 64bd 2b9f b73b
000000f0: c2f2 ff3c cd26 0a3e 3c9d 51be 05dd c1bd
00000100: dfe6 e5be 25a5 93be 1672 90be fa48 463e
00000110: 1556 bc3c fbab 60bb 72a2 f7bc 62e0 253e
00000120: 7b6b 363e 423c 133e 5929 b73e 2de7 6cbe
00000130: 6e92 38be 6dee 37be 5ca1 be3d 7541 edbe
00000140: 0c38 c73d 4240 aebe 7de5 d4bc 971e 1cbd
00000150: 1776 d5bd f732 14be 335f 16be f305 aebb
00000160: e9e6 013e b68a c6be 2d1a 1abd 4b11 0fbf
00000170: f220 873d 5cbf 023f 3a2e d4be 1064 a63c
00000180: dd88 6e3e a7ac 9fbe 22b2 ddbe 553f fb3c
00000190: 016e 973d e726 9c3e 527c 803e 7e5e a33d
000001a0: 4751 0d3e 1926 c13d b613 383e 2e89 0e3e
000001b0: 68d5 c7bb b9db a13e 5b9c 07be 9aa1 2c3e
000001c0: 8aed a6bd 20c2 633d ad42 673e 94a5 2b3f
000001d0: c86f 443e 3b3d 8c3c dfd2 923e 7b15 8fbe
000001e0: ed02 763d cd89 80be 451f cbbd 8ee9 95be
000001f0: 04db 60bc c759 bbbd b33d 263e 0404 ce3e
00000200: 785c 41bd 20f7 bb3d d01f ac3c 1106 af3d
00000210: edc6 453c 0968 edbd 9cff a93c b033 193d
00000220: 3848 603b a6a1 eb3d 379e 783d d68f c63d
00000230: cbbb b53d ae5f bb3c 7ee5 123e dbf8 abbd
00000240: f930 b13d 268b e23b 129a d9bd 594f 03bd
00000250: 0f23 cd3a 07b9 253c 1f38 67bd c698 db3d
00000260: 28fe a4bd a439 0f3c 3f6a a33c ba5a e13d
00000270: 5c8f 1ebe 10cf 44bd e36d e33d d149 153e
00000280: de26 1abe 95bc 47bd 06b0 053e 8414 d53d
00000290: 5063 b03d 49d4 1abe dcfa 0c3d ebd3 4e3d
000002a0: 4db3 ed3c fb80 01be 9eff 793d af22 df3d
000002b0: 2e4b 16bd 03a1 a8bd 221b 8e3d 7699 da3d
000002c0: 7117 f5bc 9f91 623d 3850 81bc b705 343e
000002d0: 0ae0 173d 0004 cc3d b2d4 86bd 7f8e 9ebc
000002e0: 3326 353e d492 0dbe f1de 53bd 7adc d23d
000002f0: 3b9b 673d f084 093b 0252 45be 5f68 45bd
00000300: fcc0 5ebe dfea 613d b728 6fbe dce5 babe
00000310: 8e68 13be 5f37 a6bc ea10 aabc e4dc e83c
00000320: 1a23 a3be 9be5 de3d fd9f 163e 5537 8cbe
00000330: 64b7 393d 3129 043f 5bda 043d 17fa e23b
00000340: c80e 883c 0784 cfbe dfe0 a33d bf55 89bc
00000350: c5f9 f03c 9da6 ccbc a8ac 16be f6fe 003e
00000360: ceb2 883b 0b27 103f d9cf b13d 0959 7c3d
00000370: 7751 963d de42 90b9 0eff 54be b140 2b3e
00000380: c5af 7dbd f752 2c3f 14c4 a53e 3740 16bd
00000390: 761b 1b3e 0aab aebe 53f7 21bf 1dc4 5dbd
000003a0: 01b9 d9bc 0f39 a7bc 4c6e 1bbe 0258 8b3c
000003b0: ab59 be3d f28f 58be 2679 bf3e fd77 143e
000003c0: 43d1 78bd 26a2 7abe 837c e2bd a9d0 433e
000003d0: 71db ba3e b1bc f1bd 0f5c a6be 2bd0 33be
000003e0: 14ee c83d df87 b1bd eb99 fe3d f1da 4a3c
000003f0: c2a1 0bbe 7d0d b5be 1fdd fabc abba c7be
-0.01002007 -0.013446111 0.0007863125 0.0756651 -0.11159517 -0.15949021 0.030288408 0.0040731374
0.06949722 0.21700336 0.15060252 -0.14676838 0.22417216 0.037671346 0.06151486 0.03997198
0.051114727 -0.17036961 -0.098905735 0.07715774 0.08584988 0.15565567 -0.016202299 0.04263041
0.0340798 -0.014743094 -0.039762784 -0.033234764 -0.17170079 0.09281984 -0.034389853 -0.10425273
-0.02388307 0.029191008 0.07667126 -0.1486279 -0.004878462 -0.007930834 -0.13401902 0.07680269
-0.0428695 -0.1328069 -0.079636 0.06904338 0.11042228 -0.04819573 0.11109187 0.21412992
-0.07972611 0.043709464 0.0053937165 0.13882662 0.20678563 -0.08637094 -0.1343838 0.017521916
0.062288605 -0.03558745 -0.055703294 0.005603691 0.031243686 0.13491364 -0.20470136 -0.09465984
-0.44902703 -0.28836933 -0.2821204 0.19363776 0.022990266 -0.0034282196 -0.030228827 0.16198877
0.17814438 0.14378455 0.35773733 -0.23135062 -0.18024608 -0.17962046 0.093081206 -0.46339002
0.09727487 -0.340334 -0.025988335 -0.03811511 -0.104229145 -0.14472567 -0.14684753 -0.005310768
0.12685741 -0.38777703 -0.03762262 -0.5588576 0.06598081 0.5107324 -0.41441518 0.020311385
0.23294397 -0.3118641 -0.43299967 0.030669848 0.073940285 0.3049843 0.2509485 0.07977007
0.13800536 0.09431095 0.17976269 0.13919517 -0.006098438 0.31612948 -0.13243239 0.16858521
-0.08150776 0.055605054 0.22584029 0.6704953 0.19183266 0.01711904 0.28676507 -0.27946076
0.060061384 -0.25105134 -0.099180736 -0.2927975 -0.013724092 -0.09147983 0.16234474 0.4023744
-0.047207326 0.09177995 0.021011263 0.08546079 0.012071353 -0.11592109 0.020751767 0.03740281
0.0034222733 0.11505441 0.06069776 0.09695403 0.08873709 0.022872772 0.14345357 -0.08397075
0.08651919 0.0069135604 -0.1062509 -0.032058094 0.0015650707 0.010114915 -0.056450006 0.107224986
-0.08056289 0.00874177 0.019948123 0.11003633 -0.15484375 -0.048049033 0.111049436 0.1457894
-0.15053889 -0.04876383 0.13055429 0.10404304 0.08612692 -0.15120043 0.034418926 0.05049507
0.029016161 -0.12646858 0.06103479 0.10895287 -0.03669279 -0.082338355 0.06938769 0.106738016
-0.029918404 0.055314656 -0.015785322 0.17580305 0.037078895 0.099617004 -0.06583537 -0.019355057
0.17690353 -0.13825542 -0.051726285 0.10295959 0.056544524 0.0020983778 -0.19269565 -0.04819524
-0.21753305 0.05515563 -0.23355375 -0.36503494 -0.14395353 -0.020290075 -0.020760018 0.028425641
-0.31862718 0.108836375 0.14709468 -0.27385965 0.04534091 0.51625353 0.032434803 0.0069267857
0.01660861 -0.40530416 0.08001875 -0.01676452 0.029415974 -0.024981791 -0.147143 0.1259726
0.004171706 0.56309575 0.08682222 0.061608348 0.07339757 -0.0002751564 -0.2080042 0.16723897
-0.061935205 0.67314094 0.32376158 -0.036682334 0.15147194 -0.34114867 -0.6326801 -0.054142106
-0.026577475 -0.02041295 -0.15178794 0.017009739 0.092944466 -0.21148661 0.37397116 0.14498897
-0.060746443 -0.24475917 -0.11058905 0.19122566 0.36495546 -0.11803568 -0.3249211 -0.17559879
0.09811035 -0.086684935 0.12431701 0.012381301 -0.13635924 -0.35361853 -0.030623017 -0.39009604

lstm.bias_ih_l0 f4 [256]
00000000: 4758 d73d 4391 d5be 80b0 9f3d 1881 8a3d
00000010: 9689 89be 34af 33bd 1f39 94be 82ef 6a3e
00000020: 4db0 87bf 8a60 93bc a88d bfbd 70fe ad3e
00000030: 64a0 16be 14f4 0e3f 9e8e 84be 7ff9 abbe
00000040: 63c3 0cbe d522 b93e 4b45 9bbd ed19 6cbe
00000050: fd27 063d 01b3 2c3e 5873 ffbd 77d7 8dbc
00000060: 9595 6dbd 3128 a93d dbfa 21bd ea53 a83e
00000070: 7482 eabd 383b 603e f315 d23e 0a6e c53e
00000080: 2e41 823d da0b 033e ae2e 97bd 01e7 07be
00000090: 0d48 193d 4eb9 50bd 7f07 83be 5914 18be
000000a0: 8bbb 5cbe 0205 93bd c19f 33be 51c1 a3be
000000b0: e5c1 40be 5468 893e b51f cb3d 8a78 b1bd
000000c0: 5cb1 fe3c 9d36 c9bd 32c6 a93d b6d6 bfbe
000000d0: 8683 743e a90d 02be 1202 5dbe 73f4 5bbd
000000e0: fd9e 94bd 143d 9a3e 52d4 0dbe 6f44 8dbe
000000f0: 4193 3bbe 8d2a a63e fd2a db3d 742e a33e
00000100: 45a8 c6bb 57de 71be bab2 8f3d 6e3b 6a3e
00000110: e7d8 433c c1b9 5f3d 0920 6c3b 343f eabc
00000120: 1a42 4cbe c617 0e3e 9e20 cebd da47 f33d
00000130: 73f2 843e 3d7b 343e 020e 203d 010f c13d
00000140: 908e 533e bf4f cbbd d9ca 963d 3525 1ebe
00000150: eb7e e9bc fa44 823c 20f5 863a c122 09bd
00000160: 6ef7 b93d edea d13d 2356 b73d c609 b4bd
00000170: db4b 4238 394a 56be 72a3 55be 33f1 bebd
00000180: dc0f 4fbe 6015 15be 1b05 353e c993 183e
00000190: 3f0c 72bd 73a8 9b3d 8802 3fbe a733 5cbd
000001a0: 5b43 c73a c1a4 643d c20e 373e 1e7a 85bd
000001b0: a684 49be ebaf 3e3d 593b 20be e22b 083d
000001c0: 351a 543d cc22 613e 9e5f c83b b678 2f3e
000001d0: 90ed 5fbd a709 42bd 6e1f 883c 8b22 133e
000001e0: f204 69bd 97cd a83e c1e3 f23d 4dff 973d
000001f0: 3733 e43d 9d90 123e 3b72 763e 0799 c03d
00000200: a55e f8bd 4a48 93be 1f2b edbd a4db 7a3d
00000210: 75e9 683c dbd0 cfbd 0903 e23d bf6c 063e
00000220: f9f5 8a3f 4b75 393e 9ea0 153d 9815 d8bd
00000230: 7e7b e53c d503 f83d cb21 2a3d 0e35 32bf
00000240: d113 433d 6fe0 163e fd7a 52bc 1e92 62bc
00000250: 4b93 81bd f3b0 f93d 697b 333d daf4 b5bd
00000260: 9017 073c 8b33 b2bb 859c 6a3d 84de 3a3e
00000270: 3a71 0abe f539 8cbd 3901 f8bd 58d5 9a3d
00000280: 6715 c4bd 4318 7fbe a16a 6d3e 8b8f 033e
00000290: 1d5b 2c3d 4009 7bbd d91d c33d 1241 53bd
000002a0: d9c8 acbd e87e af3d b861 38bd af32 a9bd
000002b0: deba 13bd a759 c33c 4d59 a9bc e437 a93d
000002c0: ac5a 03bc 1794 93bd bb19 34bd ba0b 283e
000002d0: 12e5 253d 3301 00bc b2f0 90bd fa05 04be
000002e0: 56bf 623d 95b8 3b3c 9ab0 e6bd f8f5 d93d
000002f0: ad32 9cbd 7196 943f 8968 51bd 99dc aabd
00000300: 4967 043f e7db 4f3d cbcb 87be 4033 bb3e
00000310: a277 b63d 621a 6cbe 74d3 863d 8cef 59be
00000320: afe6 87be 338b 14be ec7b db39 fb15 bdbc
00000330: 7a24 dabd d876 2f3f d41d 663e 68e6 bbbd
00000340: 8480 a7bc 556a 163e ac2d 72be 41dd 6a3d
00000350: 44f3 e6bd 053d d73d a8e4 bbbd b940 82be
00000360: 5f6b dc3d 04e4 233e 4f8c 64bd ff2d 683e
00000370: 7add 88bd 8c7e 05bf de58 343e b66e 4f3e
00000380: 9f62 103e e238 82be d28d 9b3d f572 65be
00000390: 71a6 d3be b09f 98be 9024 17be fb36 10be
000003a0: 09b4 683e 0e19 a2bd b115 2d3e 411b 723d
000003b0: e62c 2a3d d823 1bbf d574 9dbd 51ed 5f3c
000003c0: 0f04 afbe 57ed 393e 3d5c 17be b07e 783d
000003d0: 8d59 6e3e 60e8 ecbd 5a8c a8bd 68fe 63bc
000003e0: c877 3dbe dde2 0dbc 2ca2 67be c331 963e
000003f0: 2259 b83c 40b1 763e 06aa d3bd c2e0 07be
0.105148844 -0.41712388 0.077973366 0.06762904 -0.26862782 -0.04386826 -0.2894983 0.22942927
-1.0600678 -0.01799037 -0.09353191 0.33983183 -0.14709622 0.55841184 -0.25890058 -0.33588788
-0.13746409 0.36159387 -0.07581576 -0.23056765 0.03275298 0.1686516 -0.12473172 -0.017314656
-0.05800398 0.08259619 -0.039545875 0.3287652 -0.11450663 0.2189759 0.4103237 0.38560516
0.06360088 0.1279749 -0.0738195 -0.13271715 0.03742223 -0.05095797 -0.25591657 -0.14851512
-0.21555917 -0.071786895 -0.1754141 -0.31983426 -0.18823965 0.2683741 0.09918157 -0.08665569
0.03109043 -0.0982487 0.08289756 -0.374685 0.23878297 -0.12700523 -0.21582821 -0.05369992
-0.07256887 0.30124724 -0.13850525 -0.27591273 -0.18317892 0.3245434 0.10701559 0.31871378
-0.0060625398 -0.23619972 0.07016511 0.22874233 0.011953569 0.054620508 0.0036029837 -0.02859459
-0.1994709 0.13876256 -0.10064815 0.11878939 0.25966224 0.17625137 0.03907586 0.0942669
0.20659852 -0.0992732 0.07362909 -0.15443881 -0.028502902 0.015902031 0.0010296442 -0.03348041
0.090803966 0.10249887 0.08951976 -0.08790927 4.632385e-05 -0.20926751 -0.2086313 -0.09323349
-0.20220894 -0.14558935 0.17677729 0.14900126 -0.05909371 0.076004885 -0.1865331 -0.053760197
0.0015202569 0.055821184 0.17876723 -0.06517433 -0.19679508 0.046554487 -0.1564764 0.033244975
0.051782805 0.2198593 0.006114914 0.17135891 -0.054669917 -0.047372486 0.01661655 0.14368646
-0.05688948 0.32969353 0.11859847 0.07421742 0.11142581 0.14312978 0.24067013 0.09404188
-0.12127427 -0.2876609 -0.1158049 0.061244622 0.014215817 -0.10147258 0.11035735 0.13127421
1.0856315 0.1811115 0.03653013 -0.10550994 0.028012987 0.12110106 0.041536134 -0.69612205
0.04762632 0.14734052 -0.0128467055 -0.013828782 -0.06326922 0.121919535 0.043818865 -0.08884592
0.008245364 -0.0054382733 0.057278175 0.18248945 -0.13519755 -0.06846992 -0.12109608 0.07560223
-0.09574395 -0.24911599 0.23185207 0.12847726 0.04207908 -0.06128812 0.09527177 -0.051575728
-0.08436746 0.08569127 -0.045015067 -0.0826162 -0.036066882 0.02384646 -0.020672465 0.082626134
-0.008017223 -0.0720598 -0.04396985 0.16410723 0.04050166 -0.007812786 -0.07077159 -0.12892905
0.055358253 0.011457582 -0.11264153 0.10642618 -0.07626853 1.1608411 -0.051125083 -0.08342857
0.517201 0.050746825 -0.2652267 0.36562538 0.08909537 -0.23056939 0.065833 -0.21282786
-0.26543185 -0.14506225 0.00041863264 -0.02308177 -0.106514886 0.68540716 0.22472316 -0.09174806
-0.020447023 0.14689 -0.23650235 0.05733991 -0.11276868 0.105096854 -0.09174472 -0.25440004
0.10762667 0.1600495 -0.05579787 0.22673796 -0.06682868 -0.5214622 0.17612025 0.20257077
0.14100121 -0.25434023 0.075954095 -0.22407134 -0.41337922 -0.29809332 -0.14760041 -0.14083473
0.22724928 -0.07914935 0.16902806 0.059108023 0.041546725 -0.6060157 -0.076882996 0.0136674205
-0.34182784 0.18156944 -0.1478128 0.060667694 0.23276348 -0.115677595 -0.08229895 -0.013915636
-0.18502724 -0.008660045 -0.22620457 0.2933484 0.02250344 0.24091053 -0.10335164 -0.13269332

lstm.bias_hh_l0 f4 [256]
00000000: 8b44 3e3e 2722 babe ca40 783d afac 15bd
00000010: 2048 b2bd b894 eabd f426 5ebd 39f0 073d
00000020: e3aa 8dbf 7098 0dbe e755 d1bd 6e44 a13e
00000030: b527 2abe 2d41 103f 9b6d ccbe 65a1 f2bd
00000040: 82d1 29be eac9 cf3e c1ab c3bd 198f 96bd
00000050: 47e9 b23d a81e ac3e 73d6 0fbe 84f6 1abd
00000060: 4a0f b0bd b6fd fe3d 7702 03bd f560 a93e
00000070: 4b27 a93d 7234 893d 9efa c53e 46bc db3e
00000080: f4ff 993d 8bec ef3d c0dc cf3c e74f a8be
00000090: e974 c53b 8e46 0ebe 768d a8be 64d6 fbbd
000000a0: 45af 83bd 76d1 03be 544f 73bd 7de8 3ebe
000000b0: 31b6 1cbe cbaf 863e 51fa 2f3e 1998 75bc
000000c0: d223 2f3e 7046 65bb 8224 0e3d 5655 99be
000000d0: 0a72 563e f281 48be c666 94be 4ff3 5dbd
000000e0: c61d 973d 0412 503e e53c 2cbe 3e71 c8be
000000f0: 5e58 a53c 716e 973e ae96 c6bc 6f57 b73e
00000100: 7898 1c3e 96db a1be ba4c 9abb 872f 993e
00000110: 040e 153e 40b5 a03c 5be5 1d3e 75a8 133e
00000120: 5306 29be 3417 223c ef53 6cbe c4a9 993d
00000130: 0bc3 263e 7996 a23e 7895 b33c ef98 4c3e
00000140: 23d0 213e 32c1 2b3d a6e5 58bd b1c1 4f3d
00000150: 2ca0 e53d d152 a2bd 7265 bbbd 73ce ec3d
00000160: 446c 2b3d 7601 253e 89af 823b e649 d63d
00000170: bc49 4dbe 6363 58be c9d9 42be 8a5e 3ebd
00000180: 3f9c 63be 6d11 64be ac2c eabc 194f e93d
00000190: 7966 1d3d d9a2 ea3c 3b12 73bd adb3 e7bd
000001a0: 404a b1bc 039a e63c 7730 01bc 6431 dbbc
000001b0: 846d 82be eb14 66bd 0a9a 27be 42ee dc3c
000001c0: fb71 163e 9fcd 7f3e e23b 9abc 92ba e43c
000001d0: 6cd2 0bbe 0b55 853d e88f 3ebd 73c7 573e
000001e0: 50a8 2f3d bd2e 6e3e ede4 53bd 1991 163e
000001f0: 6779 e13d 8c7e 903d e9aa 003e 7b96 123e
00000200: a6f4 143d 904e 2bbe 3f99 be3d 2a5d f5bd
00000210: 5e83 b63d 2e0b d1bd b126 b83d 9c58 b6bc
00000220: 0511 813f f5d2 babc 4043 ad3d 9e56 f7bc
00000230: 9b5a 0d3e de23 f53d a5aa 1cbc 5b46 38bf
00000240: 3aa8 5b3e 7587 0e3e a3b8 c0bd cc62 48be
00000250: 3141 ed3d 51de 243d 26a6 57bd ce06 84bd
00000260: f4a4 b53d 0ec7 5e3e 2858 0e3c 05a3 163e
00000270: aa5e d7bb a7c8 493a 911d c5bd d9d1 a5bd
00000280: 5a3d f9bd 0091 57be 8a58 563e 0a59 f03d
00000290: f220 253e e741 abbc 61b8 c63d a999 39bc
000002a0: 1168 ccbd f64b af3d 9c0e c2bd f16d c4bd
000002b0: 36f9 e2bd ff2b b43d d57d a9bd 8801 ee3b
000002c0: 1f88 31be 3817 99bd 5519 493d fb69 403d
000002d0: 33c0 37be c1cd 493d 5373 23be c896 2bbe
000002e0: 64a0 b2bd c15e c53d 0990 c53d c19a 8c3d
000002f0: 6f3e 1c3d 644b a23f 8b1d 25be 4675 303d
00000300: 9694 a63e 9ffc e83d dfcb 79be 68d9 b53e
00000310: 08f1 acbc 459b 5dbe abfb afba d22a 98be
00000320: 5850 89be 0355 94be 4203 b83d db6b be3d
00000330: a29b 1dbe 167c 2f3f 5f89 893e a946 47be
00000340: 69d8 c43c 8393 653e 9adb 13be 8e95 18be
00000350: 6de0 2fbe 3890 cebd 32ec ddbd 1400 aebe
00000360: c91d cb3c 17ae 933e f454 d0bd 1550 593e
00000370: 67eb d83b d80c 15bf 9412 143e c06c 1c3e
00000380: 3595 383e 1a4d e0be bc3d 493e 05c2 bbbe
00000390: 56ba 99be 8270 a3be 99b8 74be 7c6e fabd
000003a0: 2ce4 353c bc14 35bd 89ab 0b3e 5097 ae3a
000003b0: 009b 413e f1e5 ffbe ad31 90be 085a 293e
000003c0: ec0e 82be c4fd 8b3e ba66 0f3c 67e1 b13d
000003d0: 55c7 a23e 9a31 edbd 13fc dc3d 4a48 0a3e
000003e0: 9f06 18be 2621 863c 95a1 3bbe bbe0 103e
000003f0: 64af 493d c9a3 143e 3bbe 30be f776 27be
0.18580835 -0.3635418 0.060608663 -0.036541637 -0.08705163 -0.11454147 -0.054236367 0.03318808
-1.1067775 -0.13827682 -0.10221463 0.3149752 -0.1661671 0.5634945 -0.39927372 -0.1184719
-0.16583827 0.40583736 -0.09554244 -0.073515125 0.087359 0.3361714 -0.1404665 -0.037832752
-0.08596666 0.12450735 -0.031984773 0.33081785 0.08259448 0.06699456 0.38667768 0.4291708
0.07519522 0.11715039 0.025373816 -0.3287346 0.0060258997 -0.13894102 -0.32920426 -0.12296751
-0.064299144 -0.12872872 -0.059401825 -0.18643375 -0.15303876 0.26305994 0.17185332 -0.014989876
0.17103508 -0.003498461 0.034702785 -0.2994792 0.2094194 -0.1958082 -0.2898466 -0.054187115
0.07378726 0.20319372 -0.16820104 -0.39148897 0.020183738 0.29576448 -0.024241772 0.35808894
0.15292537 -0.31612843 -0.0047088536 0.29919073 0.14556128 0.019617677 0.15419523 0.1441973
-0.16506319 0.009893227 -0.23078893 0.07503083 0.1628534 0.31755427 0.021921858 0.19980215
0.15802054 0.041932292 -0.052953385 0.050721828 0.11212191 -0.07925952 -0.091502085 0.115628146
0.041851297 0.16113839 0.0039882106 0.10463314 -0.20047659 -0.21131663 -0.19028391 -0.04647688
-0.22227572 -0.22272272 -0.028585754 0.1139204 0.038427804 0.028642105 -0.059343558 -0.11313567
-0.02164185 0.02814961 -0.00788509 -0.02675695 -0.2547418 -0.056172293 -0.16367355 0.026969079
0.14691918 0.24980782 -0.018827382 0.027920995 -0.13654488 0.06510361 -0.04652396 0.21072178
0.042885125 0.23260017 -0.051731993 0.14703788 0.11009484 0.07055387 0.12565197 0.14315216
0.036366127 -0.16729188 0.09306573 -0.1198066 0.08911775 -0.102072105 0.08991755 -0.02225905
1.0083319 -0.02280567 0.084600925 -0.03019267 0.13804094 0.11969732 -0.009562169 -0.71982354
0.21450892 0.1391886 -0.09410217 -0.19568938 0.115847 0.04025108 -0.052648686 -0.064466104
0.08869353 0.21755621 0.00868801 0.14710625 -0.006572564 0.0007697441 -0.0962478 -0.08096666
-0.12169905 -0.21051407 0.20932212 0.11735733 0.16125849 -0.020905448 0.09703136 -0.011328139
-0.099807866 0.0855941 -0.09475443 -0.09591282 -0.110826895 0.08797454 -0.08275954 0.007263366
-0.17337082 -0.07475132 0.049096424 0.04697607 -0.17944412 0.049268488 -0.15961961 -0.16756737
-0.08721998 0.096372135 0.09646613 0.068654545 0.03814548 1.2679257 -0.16124551 0.04308059
0.32535237 0.11376309 -0.24394177 0.3551743 -0.021111026 -0.21641262 -0.0013426443 -0.2972017
-0.2681911 -0.2897111 0.089849964 0.092979155 -0.153914 0.68548715 0.26862618 -0.19460548
0.024028974 0.22419553 -0.1443924 -0.149008 -0.17175455 -0.10086101 -0.10836066 -0.33984435
0.024794476 0.28843758 -0.101724535 0.21221955 0.006619859 -0.58222723 0.14460212 0.1527586
0.18025668 -0.43808824 0.19652456 -0.36671463 -0.30024976 -0.31921774 -0.23898543 -0.122281045
0.011101764 -0.044209227 0.13639654 0.0013320241 0.18906784 -0.4998012 -0.281629 0.1653825
-0.2540201 0.27342045 0.008752519 0.0868557 0.31792703 -0.11581726 0.10790267 0.13504139
-0.14846276 0.016373228 -0.18323357 0.14148228 0.04923953 0.14515604 -0.17260067 -0.16353975

fc.weight f4 [1, 64]
00000000: 9698 a1bd 66a1 163f ec41 673f fab5 043f
00000010: b54b 42be efcf 5dbe 8e2a 943c f2e4 4d3e
00000020: 3749 ccc0 be85 e43d 4526 883e 2d86 20bd
00000030: b077 f13c ac19 58bf ef92 0c3d bb45 893f
00000040: 27cb c8be f52b 2d3e 4a57 91b9 3992 553b
00000050: ee39 853d c1c7 73be 6446 43be 6a16 9fbd
00000060: 2c78 093e ec79 d8bf 8c6e d8bc bec4 b73d
00000070: a24d 03bf cd17 77bc e56f c13c 8dd9 0dbf
00000080: de14 2cbd 2854 2740 e2a6 9dbf 7181 22bf
00000090: e52a 713d 6ee7 dcbe ebdf 5fbf 5409 69bd
000000a0: 9665 033e 10d0 363d 8455 823e 2bab ba3e
000000b0: 1895 aa3e 2600 df40 a2a8 f63f f55d 9e3e
000000c0: dc33 423d cdf8 623e 4735 0abf a25d 32be
000000d0: f2ac 603e 68a3 d43d 0bf2 86bb c4f7 26be
000000e0: 6d14 8e3d e116 0fbf a66d 463d 15c0 d23c
000000f0: c180 4d3e b2cc 45c0 11b4 f9be b81b 8d3f
-0.078904316 0.58840024 0.90334964 0.51840174 -0.18974192 -0.21661352 0.018086698 0.20106867
-6.3839374 0.11158322 0.26591697 -0.03919046 0.029476017 -0.8441417 0.034319814 1.0724405
-0.39217493 0.169113 -0.0002772159 0.0032588376 0.0650519 -0.23806669 -0.1906982 -0.07767947
0.13424748 -1.6912208 -0.0264199 0.089730725 -0.51290333 -0.015081358 0.023612926 -0.5541008
-0.042012088 2.6145115 -1.2316554 -0.6347876 0.058878798 -0.43145317 -0.87451047 -0.05689366
0.1283172 0.044632018 0.25455868 0.36458716 0.33316875 6.968768 1.9270213 0.3093106
0.04741274 0.22165222 -0.53987545 -0.1741853 0.21940973 0.1038273 -0.0041182092 -0.16305453
0.0693749 -0.55894285 0.048444413 0.025726357 0.20068647 -3.0906186 -0.48770192 1.1024084
