DU_model/best_model_prod1_tr.3.40.pth (torch, 474174 bytes, 29 tensors)

norm.weight f4 [6]
00000000: 0000 803f 0000 803f 0000 803f 0000 803f
00000010: 0000 803f 0000 803f
1.0 1.0 1.0 1.0 1.0 1.0

norm.bias f4 [6]
00000000: 0000 0000 0000 0000 0000 0000 0000 0000
00000010: 0000 0000 0000 0000
0.0 0.0 0.0 0.0 0.0 0.0

transformer_encoder.layers.0.self_attn.in_proj_weight f4 [18, 6]
00000000: 2abb 963e 654c 93bc eebd a93e 5fda d2bd
00000010: 6e1c acbe 90f3 93be 35fa 2a3e 7e25 303e
00000020: a555 19bf 24b2 b63e 3343 cbbe af96 fe3e
00000030: f788 ce3e c070 5f3e cddd 13be e009 373d
00000040: 0850 a0be 68ff b4be 4912 d73e bb4c 533e
00000050: 7bf0 73be 4537 71bd 6374 e8bd a3bb c43e
00000060: 6287 9b3e c9fb 233d bc66 d3bd 1816 89be
00000070: 65e8 6dbe 1461 91bc 0449 093e fd75 f6be
00000080: 057a cbbb 6780 9e3e 6bf3 2b3d 82e7 c2be
00000090: c137 75bd 2c24 5cbe 75d5 c83d 4fa6 4d3e
000000a0: 8af8 ac3d 01d2 edbd 61c4 c13c 97f3 5e3e
000000b0: e3f4 ecbe 930f ce3e b740 a93e b2db 243e
000000c0: 5ff7 073f 2ac3 103e 57a3 ed3e 46d9 1b3e
000000d0: 75fb 273d 2cfa 7f3e d83a f63e c26d 153f
000000e0: 3985 41be 804c b4bc 012a 22be 7584 843e
000000f0: 025d 853e c06d dc3e 89ed d83e 1f81 a93e
00000100: f308 ba3e c5e1 7c3e ed49 88be b50c 3f3e
00000110: 1d30 94be 2d68 afbe 7bc5 343e 16f0 fa3e
00000120: 702e 11c0 be7d 213e a5fd 9d3e 12e2 843e
00000130: c8a4 dc3f 2387 35c0 bb32 e4bf edb9 c5be
00000140: 2660 7ebe 8806 6c3e 7f95 d9be 0ce9 a3bf
00000150: c3e5 0c40 15b5 83bc ad6e e3be 7509 88bc
00000160: 0b9e 18bf 2fb6 143f a40c 6b40 2e6e 1bbf
00000170: d4ca 37bf 41d8 d13c 12e7 4fbf 6be8 b03f
00000180: a08d 9bbf 050a 43be 3974 273d f678 f5bd
00000190: a2c5 80bf a74b 1ebf 9b23 4440 a1e0 0cbf
000001a0: 3609 e0be 62a3 033e 055a 28be 90da 133f
0.2943967 -0.017980764 0.33152717 -0.10295557 -0.3361544 -0.2889676 0.16697009 0.17201802
-0.5989631 0.35682786 -0.39699706 0.49724337 0.4033887 0.21820354 -0.14440079 0.044687152
-0.3131106 -0.3535111 0.42006138 0.20634739 -0.23822205 -0.0588906 -0.11350324 0.38424405
0.30376726 0.040035043 -0.103223294 -0.2677467 -0.23233183 -0.017746486 0.1340676 -0.48136893
-0.006209614 0.30957338 0.04198019 -0.3806725 -0.059867624 -0.21498173 0.09806339 0.20082973
0.084458426 -0.11612321 0.023653211 0.2177261 -0.46280584 0.40246257 0.33057186 0.16099432
0.53111833 0.14136949 0.4641368 0.15219602 0.041011292 0.24997777 0.4809177 0.583706
-0.18898477 -0.022009134 -0.15836336 0.25882307 0.26047522 0.43052483 0.42368725 0.33106324
0.36334953 0.24695499 -0.266189 0.18657191 -0.28942958 -0.34259167 0.17653458 0.49011296
-2.2684593 0.15770623 0.30857578 0.25953728 1.7237787 -2.836373 -1.7827982 -0.38618413
-0.24841365 0.23049366 -0.4249687 -1.2805495 2.2015235 -0.016077558 -0.44420376 -0.016606072
-0.59616154 0.5809049 3.6726465 -0.60714996 -0.71793866 0.025615813 -0.8121196 1.3820928
-1.2152596 -0.19046791 0.040882323 -0.11985962 -1.0060313 -0.61834186 3.0646732 -0.55030257
-0.43757027 0.12855294 -0.1644059 0.57755375

transformer_encoder.layers.0.self_attn.in_proj_bias f4 [18]
00000000: 225d 1ebe eb66 06be 2361 c1bc 3e14 4f3e
00000010: b13a 06be ff5a 66be 6070 a3bc 35fd 5f3d
00000020: ffb1 14bc d2e7 d73d 3fc2 d23d 590c c8bd
00000030: cb70 a23e 9da4 fbbe c176 9abe 7df8 09bf
00000040: 5d22 d8be 8055 b3be
-0.15465215 -0.13125198 -0.023605889 0.20222566 -0.13108326 -0.2249565 -0.019951046 0.054684836
-0.009075641 0.10542263 0.10290956 -0.0976798 0.3172668 -0.49149027 -0.30168727 -0.5389479
-0.42213717 -0.3502617

transformer_encoder.layers.0.self_attn.out_proj.weight f4 [6, 6]
00000000: ea8c d03e 4def 9b3e d64c 913e d4f6 87be
00000010: ead1 b2bd be13 c3bb e9c3 bebe b9be b93b
00000020: 52e1 3d3c 7b01 e33e 1de4 063e 1abd 59bd
00000030: c634 0a3e afa5 2dbe 5a1a bdbe 6996 d1bd
00000040: 4ddc 85be 4cdb 31be b5cc 333d f516 453d
00000050: de7f ce3e dd49 14be b63d 463e 7b2d 97be
00000060: 9ff0 9fbe df7c d5be 55d8 84bc 2f88 1e3f
00000070: 5df0 0abe e6ec 743e 9a61 973d 4a48 663e
00000080: 624e cd3e d08d 433f f3e5 143d ff89 283e
0.4073251 0.3045601 0.28378934 -0.26555502 -0.08731444 -0.005953281 -0.37258843 0.005668488
0.011589365 0.44337067 0.13172956 -0.053158857 0.13496694 -0.16957735 -0.36934167 -0.102337666
-0.2614464 -0.17368811 0.043896396 0.048117597 0.4033193 -0.14481302 0.19359478 -0.29526886
-0.31238267 -0.41696832 -0.016216436 0.6192655 -0.13568254 0.23918495 0.07391663 0.22488514
0.40098864 0.76388264 0.03635211 0.16458891

transformer_encoder.layers.0.self_attn.out_proj.bias f4 [6]
00000000: d9a2 44bf bfb2 9fbe f858 073f 753f fc3c
00000010: 8627 af3d 88a9 61bf
-0.76810986 -0.3119106 0.5287013 0.030791977 0.0855246 -0.8814931

transformer_encoder.layers.0.linear1.weight f4 [2048, 6]
00000000: edcd 8ebe c522 aa3b 4ee2 42bd 02da 2ebc
00000010: cab7 003f 8eef 92be a651 c03e 898c d63e
00000020: 6458 87be 0513 2bbe d2a6 a3be f708 aebe
00000030: 14dd 513e 211e ccbb 4ca3 2dbf e442 59be
00000040: 626d 0dbe 455a 753f e198 32bf c2b2 773e
00000050: d814 b33e 50f9 4ebe 6074 a1bb 13ab 413e
00000060: b3f5 593e 4a6b e73e f15c e13e 2633 bdbe
00000070: bcd0 30be 582a 46be 5648 8ebe a092 8abe
00000080: 3a9f 8dbe e9bb cfbc 239f 82bd e1d2 a23c
00000090: 1ec4 bfbe b97e 593d 11f4 b83d 51ff d13c
000000a0: 14cd 47be 73bb acbe 02e1 54bf c12c 203e
000000b0: ce22 4f3e 6155 20be 34dc dc3c 1378 12be
000000c0: de1e d5be 92f7 8abe e577 fd3d 68e4 c03e
000000d0: 7ea6 a73e 5be7 833c 012c 1cbe a391 d93e
000000e0: ded6 203e 2d83 0c3e bd5f 993e 022d bbbe
000000f0: 7827 b23e 5716 b13d e6ef 35bf de35 49be
00000100: b28e 56bd 77a7 053d f0cb 30be a75b 72bc
00000110: a308 b4be ba94 713e 01ce 14be 9f57 b33d
00000120: 6949 99be cb91 a6be 7106 4e3e fa45 89be
00000130: f650 b4bd 2aa4 45be 7de5 e93e 36a6 38be
00000140: 6d82 ccbe a4d1 86be d151 123d d201 e13d
00000150: eade 813d 65f3 523e a5a9 29be 39d6 e93d
00000160: a68f 92be e176 e3be 1203 9f3e 066e d03e
00000170: 2bcb edbb c8b9 6cbe f568 503d 76b3 69bd
00000180: e8db c73d 3cc9 38be 75e6 b13e 5290 cbbe
00000190: 2026 99bd 8d30 de3e 8b2e 3dbd 75cb 28be
000001a0: 2f49 913d 1b9b ee3d 82e9 8b3e fbd1 5c3e
000001b0: 8333 8e3e a339 3ebe a9b5 a3be 444e 3b3e
000001c0: e09a e03e 58f4 89bb 77b4 1b3f 6224 893d
000001d0: 32cf 403e 02fd a3be 97fb 4abd f495 ce3e
000001e0: f877 9bbe 28bd 903e 4ea2 a1be cb54 b03d
000001f0: d323 a53e a710 8bbe 2503 733e 73da 58be
00000200: 236c 92bd bcd2 a03e 576e 88be ebf1 03be
00000210: 2162 b43e 7c56 9dbe ad17 b4bd 3db8 fb3d
00000220: 59b3 8bbe 0d50 7c3d 9dbf b73c 4a17 a63e
00000230: da81 0a3f fa34 a1be 28c5 b9ba 28fb 8e3e
00000240: e456 c33e 13f0 ebbd 1b6c 83be 99b7 663c
00000250: e719 6abe 161b e53e 4b95 ab3e 3e11 5b3c
00000260: 58fc a63e c69c 68be 8b09 483e 61ac 003e
00000270: e410 3d3e 9b20 ba3e 8bb5 b63e 5690 32be
00000280: cbb0 dbbe 0ec5 863e 5cd3 09bf 71a7 833e
00000290: cf3c 343e 70db e0be 132e 61be e115 30be
000002a0: e7a2 953e 768c f53d 43c5 9cbe 690e 63be
000002b0: afa6 95be 7027 16bf 95ae 473e 3df4 b9bd
000002c0: 3b12 85be 79b5 16bf 14c4 8c3e b4e8 8f3e
000002d0: b6c7 2cbd 5c2a 22be 09f9 c13e 64f9 82bf
000002e0: 99cf aebd 3a31 933d 2501 7e3c b991 92bd
000002f0: 1115 c23e fc48 0b3d a826 1bbe 80c0 92be
00000300: 4f85 953e 22cd aabe f728 41be d4ef 35bc
00000310: e967 803d aa57 943b de8a b5be 5993 c63e
00000320: e87c 6ebd a245 80bf f9d2 af3e d580 26be
00000330: bcc1 26bd a457 313e be97 a5be 4192 413e
00000340: 4b11 633d f381 ea3e f598 aabe 74b2 8abe
00000350: 8a2d b83e a289 4ebf 52d1 c13d 94f5 4d3e
00000360: b536 533e 8ad3 82be 5db5 f93c 57ec 9f3d
00000370: 710a cd3e 5a62 a53c df79 4b3d 406b c03e
00000380: 7610 083e 4bf9 40be 51b1 d7be 29b4 743d
00000390: 1c76 c0be 2129 23be 5b8e dd3e 26a9 643e
000003a0: cc4f 8bbe d758 9f3d 66c2 1c3e 14cb a0be
000003b0: e9a4 d43e 06fd 72bd 8259 8fbe 55f0 e9be
000003c0: ec5e 1fbf 22db 9b3e 045d ce3e d28e 383d
000003d0: 6ef9 a2bd 78ef cabd 6c9d 283d 24df 953d
000003e0: 8605 2e3e 9e1f 5b3e 308c 833d f898 873e
000003f0: 2d8c 143e 9082 7bbc 2cb5 7abe 1205 253e
-0.27891484 0.005192133 -0.047579102 -0.010672094 0.5028044 -0.2869839 0.37562293 0.41904095
-0.26434624 -0.16706474 -0.3196321 -0.33991215 0.20494491 -0.0062291776 -0.67827296 -0.21216923
-0.13811257 0.95840865 -0.69764525 0.24189284 0.3497684 -0.20212293 -0.004927203 0.18912916
0.21285133 0.45199043 0.4401622 -0.36953086 -0.17267126 -0.1935209 -0.27789563 -0.2706499
-0.27660543 -0.025358157 -0.06378009 0.019875946 -0.37454313 0.053099368 0.09030927 0.02563444
-0.19511825 -0.33736762 -0.83155835 0.15642072 0.2022812 -0.1565757 0.02696047 -0.14303617
-0.41625112 -0.27142006 0.12376384 0.3767426 0.3274421 0.01610153 -0.15251161 0.42493924
0.15706965 0.13721915 0.29955855 -0.36557776 0.34795737 0.08646839 -0.7106918 -0.19649455
-0.05238218 0.03263041 -0.17265296 -0.014792359 -0.3516284 0.23591891 -0.14531709 0.08756947
-0.2993882 -0.32533106 0.20119645 -0.268112 -0.088045046 -0.19300905 0.45682898 -0.18032154
-0.39943257 -0.26331818 0.035722557 0.10986675 0.063413456 0.2060066 -0.1656862 0.11417813
-0.2862522 -0.44426635 0.3105703 0.4070894 -0.0072568855 -0.23117745 0.050881345 -0.057055913
0.09758741 -0.18045515 0.34746137 -0.39758545 -0.07477975 0.43396416 -0.046186965 -0.16483863
0.07094037 0.11650678 0.2732659 0.21564476 0.27773675 -0.18576674 -0.31974533 0.18291575
0.4386816 -0.0042100362 0.6082224 0.066963926 0.18829039 -0.32028967 -0.04955634 0.4034878
-0.30364966 0.28269315 -0.3156914 0.08609923 0.32253894 -0.27161142 0.23731668 -0.21177082
-0.07149532 0.31410778 -0.26646683 -0.12885253 0.35231116 -0.30730045 -0.08793578 0.12291
-0.2728527 0.06159978 0.022430236 0.32439643 0.5410439 -0.3148573 -0.0014173137 0.27925992
0.3815223 -0.115204 -0.25668415 0.014081859 -0.22861443 0.44747227 0.3351234 0.01337081
0.32614398 -0.22716054 0.1953489 0.12565757 0.18463475 0.36353 0.3568538 -0.17437872
-0.4290832 0.26322216 -0.53838134 0.25713685 0.17601322 -0.43917418 -0.21990232 -0.17195846
0.29225847 0.119896814 -0.3061925 -0.22173466 -0.29228732 -0.58653927 0.19500192 -0.09079788
-0.2599047 -0.58870655 0.27493346 0.28107226 -0.042182647 -0.15836471 0.3788531 -1.0232358
-0.0853569 0.071871236 0.015503203 -0.07156701 0.37906697 0.03400515 -0.15151465 -0.2866249
0.2920327 -0.3335963 -0.18863283 -0.011104543 0.06269819 0.004527052 -0.3545751 0.38784292
-0.05822459 -1.002125 0.34340647 -0.16260083 -0.040712103 0.17318588 -0.32342333 0.18903448
0.055436414 0.45802268 -0.33319822 -0.27089274 0.35972244 -0.8067876 0.09463753 0.20113212
0.20626338 -0.25552016 0.030481989 0.0780875 0.4004703 0.0201885 0.049676772 0.37581825
0.1328753 -0.18845098 -0.4212747 0.059742127 -0.3759011 -0.15933658 0.4327267 0.2233015
-0.27209318 0.07780617 0.15308532 -0.31404936 0.41532066 -0.059323333 -0.27997977 -0.4569117
-0.62254214 0.30440623 0.4030534 0.04505808 -0.07957731 -0.09908956 0.041165754 0.07317951
0.16994295 0.2139878 0.06423223 0.26483893 0.14506598 -0.015350953 -0.24483174 0.16115215

transformer_encoder.layers.0.linear1.bias f4 [2048]
00000000: 1b3a 853e 303e 313e d2f9 633e c382 f03e
00000010: 901d 323e cae8 88be 30dc 06be 6083 be3e
00000020: 1e05 7f3e 31f6 673c 1a49 bdbd 02bf 7dbd
00000030: 0a84 d03e 23e7 8f3e a5ae 2abe c69b dbbd
00000040: c8d9 4ebe c955 a33d 54bd 29bd ee29 b1bd
00000050: 76f4 31bd 0a41 803d 57de 9f3d e977 ebbc
00000060: 5033 58be 9b46 afbc 35a3 d93e 6e76 e63d
00000070: 0783 9bbd f47c f6bd c27e 9fbe be67 52be
00000080: e1d7 a1be e823 e2bd d624 25be 77c0 a4bd
00000090: d949 cdbc 9f11 8e3e bf7f ce3d b89c e9bd
000000a0: 83ea 76be 4a95 62bc 094a 3c3e 7a1f 283d
000000b0: 1ed8 7cbe 7453 28be 9fcf 3dbe 24b3 4cbe
000000c0: 2c0e a63e fbb8 b1be 3f30 babe 497e 1b3d
000000d0: 1020 90bd b7c0 eebd 6307 bc3d a3d9 b7bd
000000e0: ed4f 3dbe 8409 173e 92a0 a43e 1c26 96be
000000f0: 705a 843e e4be ab3e e0ff 6dbe 3afe a13e
00000100: 12da f23d f953 c2be 26de 8c3e c0a5 c7bc
00000110: 4b4a 13be 5d9e ec3d 2581 1c3c d211 cf3e
00000120: 8683 2e3d c7f9 67bc e206 a33d fef1 933e
00000130: ea31 c2bd 5f40 6abe 618d aa3c cd99 ccbb
00000140: 304a 70be 7e49 69be 4cc7 45be 1a4f 493e
00000150: b81e 83be de3b 103e bb12 4dbc 012b bd3c
00000160: 329f a43d 3c73 5f3e 7a3d 703e a704 c3be
00000170: c906 a5be c011 423d 7de8 ca3e da84 d5bd
00000180: 834f 3a3e 8c8f 74bb 8077 2abe 3545 31be
00000190: 4e48 14be b0d9 f53d 68f9 adbe 33db 333d
000001a0: 39db 56be e331 35be f882 5abe 251a 853d
000001b0: f268 a43e 59fa 5bbe 5286 bbbe cab7 933e
000001c0: b626 83be 3fa3 d43d 608a 0b39 963b 88bd
000001d0: 0f85 89be 6f8e d73d fb6f b6bc 2d4d 833d
000001e0: 7530 2bbe fe26 14b9 057f f7bd 24f6 183e
000001f0: cf0e aebd 4d65 cdbe c24b 9c3e bdb0 dbbd
00000200: ba52 ab3c 45d3 d8bc 1a9e 2cbe 6f38 83be
00000210: e0a5 ba3d 1aed b53e 8e88 cebd 84e4 b33d
00000220: 7841 593e 3c8d 00be 9d9f 40be 5622 913e
00000230: 5d8a 8dbe 3818 4f3e 2997 75be 4713 babe
00000240: 1176 a73d a52f aebe b300 21bd 31eb 473e
00000250: 5664 adbe f931 ffbc 8df3 0dbe 69a8 a1bd
00000260: 3c5b 89be bcf4 cfbe 441c 8dbe c4bf 283e
00000270: 8051 b13d ab03 d83c 9ca6 00bf f285 943e
00000280: 8ff3 50be 68fb 2cbe bbb4 513d e376 b23e
00000290: 6551 78be c957 9a3d 1b56 813e be2d 3fbe
000002a0: abac 11be 4d84 81be f0ef 3f3e 54b9 f53d
000002b0: 9639 7bbb 5d9c 1d3e fdb2 d1bd 5f85 a03d
000002c0: 23fe b9bb 4841 343e fa78 81bc 51f6 db3b
000002d0: ccd4 3dbe 4721 65be 98ff 8b3e 6dc1 3d3e
000002e0: 9218 943e e041 a83e 76c1 15bd 1b43 903e
000002f0: 9f4c 84be bf8a b83e 381e a23d fed5 b1be
00000300: 9bf5 fa3d f45d b53d 8fdf 30be 9c4a b83e
00000310: 0082 bf3e 5fe9 863e ade2 c7be f088 c53d
00000320: c15c 863d 45b6 af3c 3de9 813e a891 3b3e
00000330: 6637 b63d d96f 9d3e 6e92 693e 09a7 68be
00000340: 7384 3b3e d88b 8ebe 039d 30be b718 53be
00000350: b4aa 953e 10d3 5c3d ce88 923d d66b ce3c
00000360: b216 abbd 6ee2 983d 6f6a 23bd 4cc0 ec3e
00000370: 11e0 68be a3d5 3cbe a64e e9bb a1c7 dabe
00000380: 0fc0 b13e 36a9 6cbe 5b3e 8ebc d06b 3b3d
00000390: 29f2 30be 0a3b c63e 3a6e 3a3d 9b3c 353e
000003a0: 3d99 05be 6406 6b3e 85c5 a33e a24e 993e
000003b0: d892 bb3d 84e1 923d 301b 85be 856b df3d
000003c0: 1431 cf3e ab82 243e 279e 95be 838c 60bc
000003d0: 137f adbe 942b f03d 3cff 383c 66a3 f6bc
000003e0: 5319 893e a3d8 44be 4056 cdbe 366d 98be
000003f0: 3b6d e1bd a83a 623e 675b 1b3e 3200 af3e
0.26020893 0.17308879 0.22263268 0.46974763 0.1739409 -0.26740104 -0.13169932 0.37209606
0.24904296 0.014157818 -0.09242459 -0.061949737 0.40725738 0.2810603 -0.16668184 -0.10723071
-0.20200264 0.079753466 -0.041440323 -0.086505756 -0.043446027 0.06262405 0.0780608 -0.028743701
-0.21113324 -0.021395972 0.4250733 0.112530574 -0.07593351 -0.12035552 -0.31151396 -0.20547387
-0.31610015 -0.11042005 -0.16127333 -0.08044522 -0.025059627 0.2774782 0.100829594 -0.11406845
-0.24112897 -0.013829539 0.18387617 0.041045643 -0.24691817 -0.16438085 -0.18536232 -0.19990212
0.32432687 -0.3471144 -0.36364934 0.03796223 -0.070373654 -0.11657851 0.091810964 -0.08977058
-0.1848752 0.14749724 0.32153755 -0.2932595 0.25850248 0.33544075 -0.2324214 0.31639272
0.11858 -0.3795469 0.27513236 -0.024371028 -0.1438381 0.11553643 0.009552275 0.40443283
0.0426059 -0.014158673 0.07960297 0.28895563 -0.094821766 -0.22876118 0.020819368 -0.0062439204
-0.234658 -0.22781941 -0.19314307 0.19659081 -0.25609374 0.14085338 -0.012516673 0.023091795
0.080381766 0.21821302 0.23460951 -0.38089487 -0.3223174 0.04738021 0.396305 -0.1042573
0.18194394 -0.0037317006 -0.16647148 -0.17311557 -0.14480707 0.12004411 -0.33979344 0.043910217
-0.20982064 -0.17694812 -0.21339023 0.06499127 0.32111317 -0.21482219 -0.36625916 0.28851157
-0.25615472 0.10382699 0.00013307622 -0.0665199 -0.26859328 0.10525214 -0.022270193 0.064112045
-0.16717704 -0.00014128906 -0.12084774 0.14937645 -0.08498918 -0.4011635 0.3052655 -0.107270695
0.02091347 -0.026467929 -0.16857186 -0.25628993 0.091136694 0.35532457 -0.100846395 0.0878382
0.2121638 -0.12553877 -0.18810888 0.2834651 -0.27644625 0.20224082 -0.23983444 -0.36342832
0.08176816 -0.34020725 -0.039307307 0.19523312 -0.33865613 -0.031151759 -0.13862438 -0.0789345
-0.2682742 -0.40616405 -0.27560627 0.16479403 0.08658123 0.026368937 -0.50254226 0.29008442
-0.2040541 -0.16892779 0.05119775 0.34856328 -0.242498 0.07536275 0.25261006 -0.18669793
-0.14226024 -0.2529625 0.18743873 0.11998239 -0.0038333884 0.15391679 -0.102392174 0.078379385
-0.0056760474 0.17603028 -0.015804756 0.006712713 -0.18538207 -0.22375976 0.2734344 0.18530817
0.28924996 0.3286276 -0.03656145 0.28176197 -0.25839707 0.36043355 0.0791592 -0.34733576
0.12253877 0.08855811 -0.17272781 0.35994422 0.3740387 0.26349923 -0.39040127 0.096452594
0.0656066 0.021449218 0.2537326 0.18317282 0.08897285 0.30749395 0.22809765 -0.22719969
0.18312244 -0.27841067 -0.17247395 -0.20614897 0.292318 0.053912222 0.07155 0.025197905
-0.08353938 0.07465063 -0.039896425 0.4624046 -0.22741725 -0.18440871 -0.0071199713 -0.4273043
0.34716842 -0.23111424 -0.017363718 0.045757115 -0.17279877 0.38716918 0.045515276 0.176989
-0.13046737 0.22951657 0.31986633 0.29942805 0.091588676 0.0717192 -0.25997305 0.109091796
0.4046713 0.16065471 -0.29222223 -0.013705376 -0.33886012 0.11727062 0.011291321 -0.030107211
0.26777133 -0.19223265 -0.40104866 -0.2977082 -0.11007162 0.22092688 0.15171586 0.34179837

transformer_encoder.layers.0.linear2.weight f4 [6, 2048]
00000000: 4e61 133d dfa6 b63d ed2d b33d 5e88 e73e
00000010: 1119 313d af0a 55bc 6954 02bd 88ed 163e
00000020: 1892 0cbd 66ce d63d 73dc e43d f5bc 763a
00000030: 444f 8ebd 064e 363d ad77 9fbc 6b51 a83b
00000040: 49bf 07be 6569 04bd e62d 25bc a00c e63e
00000050: e210 113e 130a 02bd 54bd 2ebc abb1 70be
00000060: b2ed bab8 d463 ddbd 7ea2 4e3d bd20 ddbe
00000070: 80b5 663e 4ee7 9ebd 4b76 d4bd 9052 4e3e
00000080: 48ad 543d ff82 153f 598e a6bc 27ea 39be
00000090: a79c 423e 3014 7fbc a2ef 9ebc 9a87 d43c
000000a0: 7d30 e13e 58df c2bc 3f06 dcba 30a4 7a3c
000000b0: 7561 dc3d 4a92 4e3a c98e 45bc e627 d2bc
000000c0: 35c2 a7bd 0b6e 09bd 4d58 ba3d 4567 42bd
000000d0: 8f5a 30bc 40ab cebb a07f c3bc cbeb 4fba
000000e0: d68c c3bc af31 84bd c4f7 3a3e f644 823d
000000f0: 9e36 943e 7ef8 4cbb 8959 b63d 2af4 033d
00000100: 2b75 9c3e 6028 95b9 fcf5 b03c eb71 a6bc
00000110: da3f 96bb 06f0 56bc 4c2e 59bd df5a c33e
00000120: a85f 91bc 853f f23c 9a74 14be fb5c 743e
00000130: 1dcb 8b3e b97e 8f3d b08c 1abd 388c 003e
00000140: b7e3 b9bd d927 ecbc 8dce 4dbc 9bbb 53be
00000150: 69b0 debe 6f8e 843e b634 f2bb 614f 6abc
00000160: e0ee 97bc a65a 22bc af55 163e 66b7 873e
00000170: 882a 12bc f827 cd3d 2075 32bd 75da 123e
00000180: 6553 99bc b5f8 36bd b76c 1bbd bc70 b23e
00000190: fdc0 d5bd 899d 003e 539a e33b a79f 463d
000001a0: c56a 35bb 4e89 523c b74a 853e f28a a6bd
000001b0: c5e2 a9bd b450 a2bc 7c6b 9abc 043b 8cbc
000001c0: 61fc e8bc eeae 11bd f303 c13d 98eb 05bd
000001d0: 81b4 333f a995 493e a89c 8abc b54e b93b
000001e0: 1419 003e ea93 043c 122d 13bc 5f58 7dbc
000001f0: b34e 3cbc 08d9 8ebc bdc7 21bc 30a1 80bd
00000200: add7 86be 7b5f 743d d623 e43b 11c4 f1ba
00000210: 5d43 1e3e b999 b3be 08ef f4bc b003 33bd
00000220: 10ff bfbc e893 953e 38e1 0e3f 19ad 61be
00000230: 8041 c4bd 876d 8ebc 1f5d cbbc f7d4 91bd
00000240: 21b1 943e 3133 b13b 5de0 01bd 5da1 da3e
00000250: a457 483b 161a c23d 469c a63d e82c b7bb
00000260: c2ee 073f cc1c 37bc c5ce c63e 7ce4 84be
00000270: 1bca 873c 1b36 3c3e faae 35bc 9800 1fbd
00000280: cb77 5bbd 81b2 3e3f d5b2 bebc c29c a6bc
00000290: 1474 af3e e696 4bbe 4c91 28bd ae90 07bd
000002a0: 9291 94bd bce3 043f c344 ddbc 7e61 bcbc
000002b0: ad65 d3bc a7f0 2bbe 0c07 50bd cd52 e03d
000002c0: e1be afbd 83b6 32bc c5fb 153d d1ca 9bbc
000002d0: 6f7e 13bd 82ec d1bc 4e14 71bb 24ee 533d
000002e0: 3bc1 36bc 9b97 f3bb 4459 fabc 86b7 553e
000002f0: 7d09 e8ba d70b a5bc eda5 883d 6460 dcbc
00000300: fb57 ec3d 6c2e a33c 34d7 9bbc e996 2f3e
00000310: cfe8 0a3f 9d8c 80bc 9da4 81bc 61d7 ec3b
00000320: 6b69 dcbc f40c 083e 13cc 99ba 4c9c 793d
00000330: ade9 1abe cd83 9e3e 192e 07bd 16ee 2b3a
00000340: 7c59 0ebd 7fd5 34bc d9bb 94bc d89f 2bbe
00000350: 7360 8abc 1c96 da3d 88ea bcbb a7b6 893e
00000360: 15da b9bc 3f3a dc3b 3e74 a83e b384 213c
00000370: 7031 d7bd 42a2 1f3d b938 c6bc 1768 02bd
00000380: 82fc 9abc 3ff1 f7bd e580 0a3e 759d 3d3e
00000390: f0d1 cbbb 80e9 c4bb e98f 2bbd cb5d 843b
000003a0: f742 c4bc b116 69bc 5146 45bc f353 c4bc
000003b0: 3473 633d 8c4c d03c 48a7 7e3a 291c 0ebd
000003c0: 617f 823d f0d6 1e3f 4890 40bd 6ad7 ebbb
000003d0: ce96 293e ef90 563e 31cf ffbc ea6a 9f3d
000003e0: d366 a6bb 8cdb 123e 7270 adbd 5ef3 94bc
000003f0: b4ce 3abd d3d8 f93e eefb 25bc 17bf 53bd
0.03598147 0.08918547 0.08748994 0.45221227 0.043236796 -0.013003035 -0.03181878 0.14739048
-0.034319013 0.10488586 0.1117486 0.0009412312 -0.069487125 0.044508003 -0.019466246 0.005136659
-0.13256563 -0.032327075 -0.010081744 0.44931507 0.14166597 -0.03174789 -0.0106652565 -0.23505275
-8.913445e-05 -0.10810056 0.050447933 -0.4318904 0.22530174 -0.077589616 -0.10374125 0.20148683
0.051923066 0.5840301 -0.020331549 -0.18155728 0.1900507 -0.015568778 -0.019401375 0.025943566
0.43982306 -0.02378814 -0.001678653 0.015297934 0.10760776 0.0007880075 -0.012057968 -0.02565379
-0.08191339 -0.03355221 0.09098873 -0.047461767 -0.010763778 -0.0063070357 -0.023864567 -0.0007931559
-0.023870867 -0.06454789 0.18258578 0.063608095 0.2894792 -0.0031276043 0.08903796 0.032215275
0.30558142 -0.00028449576 0.02160167 -0.020317992 -0.0045852484 -0.0131187495 -0.053022668 0.38155267
-0.017745808 0.029571304 -0.14497605 0.23863594 0.273034 0.07006592 -0.037731826 0.12553489
-0.09076636 -0.028827595 -0.012561453 -0.20677035 -0.43493965 0.25889918 -0.0073915375 -0.014301152
-0.018546522 -0.009909308 0.14681123 0.2650711 -0.008921273 0.10017389 -0.04356873 0.14341147
-0.018716523 -0.04467078 -0.037945475 0.34851635 -0.104372 0.12560095 0.006945887 0.0484921
-0.0027682048 0.012850119 0.26033565 -0.081319705 -0.08295206 -0.019813873 -0.01885008 -0.017117985
-0.028440656 -0.035567217 0.094245814 -0.032695383 0.701973 0.19685997 -0.016920403 0.0056551346
0.12509567 0.008091906 -0.008982914 -0.015462964 -0.011493373 -0.017437473 -0.0098742815 -0.06280744
-0.26336423 0.05966137 0.00696228 -0.0018445273 0.15455385 -0.3507822 -0.029899135 -0.04370469
-0.023437053 0.29214406 0.55812407 -0.22038688 -0.09582806 -0.017386211 -0.024824677 -0.07120698
0.2904139 0.005407714 -0.03170811 0.42701235 0.0030569816 0.09477632 0.081352755 -0.00559007
0.5309869 -0.011176299 0.38829628 -0.2595557 0.016575864 0.18380015 -0.011089081 -0.038818926
-0.05358104 0.74491125 -0.023278633 -0.02033842 0.34268248 -0.19881782 -0.04115419 -0.03309696
-0.07254328 0.51909995 -0.027010327 -0.022995707 -0.025805319 -0.1679102 -0.05078797 0.10953293
-0.08581329 -0.010907772 0.03661706 -0.019017609 -0.03600925 -0.025625471 -0.0036785784 0.05174078
-0.011154468 -0.0074338443 -0.030560143 0.2087079 -0.0017703023 -0.020147247 0.06672273 -0.026901431
0.115402184 0.019919597 -0.019023515 0.17147411 0.5426149 -0.01569205 -0.015825564 0.0072278236
-0.026905736 0.13286191 -0.0011733792 0.060940072 -0.15128203 0.3095993 -0.033002947 0.000655861
-0.034753308 -0.01103723 -0.018155979 -0.16760194 -0.016891694 0.10673162 -0.005765263 0.26897165
-0.022686997 0.0067208107 0.32901186 0.009858298 -0.10507476 0.0389731 -0.02419697 -0.03183755
-0.018919233 -0.12106561 0.13525732 0.18517096 -0.006220095 -0.0060092807 -0.04188529 0.0040395013
-0.023957713 -0.014226601 -0.0120406905 -0.023965811 0.055529788 0.025427125 0.0009714258 -0.034694824
0.06371952 0.6204672 -0.047012597 -0.00719731 0.16561434 0.20953725 -0.031226726 0.07784064
-0.0050781756 0.14341563 -0.08468713 -0.018182453 -0.045607284 0.48798236 -0.0101308655 -0.05169591

transformer_encoder.layers.0.linear2.bias f4 [6]
00000000: fe3e 80bc 4bfd c23c 93c3 b43c 2ef8 043d
00000010: 821d 65ba 6c55 02bb
-0.015655037 0.02380242 0.022065913 0.032463245 -0.0008740054 -0.0019887341

transformer_encoder.layers.0.norm1.weight f4 [6]
00000000: 6c64 903f bfac 7e3f 22e2 833f 546f 663f
00000010: b814 823f fc2f 973f
1.1280646 0.9948234 1.0303385 0.90013623 1.0162573 1.1811519

transformer_encoder.layers.0.norm1.bias f4 [6]
00000000: 836c e0bc f9c2 a83c 5d94 f63c ecf8 e6bd
00000010: 1c6b 363d 037d 84bc
-0.027395492 0.020600783 0.030100042 -0.11277947 0.04453574 -0.016172891

transformer_encoder.layers.0.norm2.weight f4 [6]
00000000: f70d 8b3f 0c3f 7c3f 9437 7b3f ad42 943f
00000010: d2e1 8b3f e6a4 833f
1.0863637 0.985337 0.9813168 1.1582848 1.092829 1.0284698

transformer_encoder.layers.0.norm2.bias f4 [6]
00000000: 7f72 1bbd 3782 cf3d 9206 6f3d 696a 5cbd
00000010: d77f c8bc 9f54 3ebd
-0.03795099 0.101322584 0.058355875 -0.053812418 -0.024475021 -0.04646742

transformer_encoder.layers.1.self_attn.in_proj_weight f4 [18, 6]
00000000: 12d7 8c3d 8f61 8d3e 1bf3 433f 6328 5bbd
00000010: fa90 e5be 62b3 5bbe 8cc7 64bd 1731 be3e
00000020: 1b69 afbe d079 f13e f3aa b7be 067d 103f
00000030: 5cd2 793e 3f14 983e 143c 31be 1768 b53d
00000040: 4ba1 79be 8c03 dcbe 3501 e53e f977 af3d
00000050: 46eb 2dbf 29b1 72be 0ef2 adbd 72c7 e43e
00000060: 4163 cc3d dbcc 903e 338a eb3e a664 90be
00000070: 29fe e4be ed0b 2e3e 6190 083d 7cc4 94be
00000080: c80a 123f 2f34 423e c62f 4cbe 415a cebd
00000090: 1088 98be e46c 3c3f 766d 043e d21d dd3e
000000a0: e200 8c3d 68de 16bf 2823 58be e366 d53e
000000b0: da87 15bf 7c53 af3e b13b 9e3e 62c5 923e
000000c0: 540f 103f 6fd4 773c 49b2 b83e ae41 0b3d
000000d0: 7842 77bd 4fae 533e a1af 083e d27d 473f
000000e0: d66a 22bd a940 233e ea5b c5bc 125c 69bc
000000f0: df4e 013e 2321 2b3f 35e4 f53e 0d0b c43e
00000100: f8ef 113f ad73 c43d c341 4ebf a187 f33e
00000110: 182b 15bd d3d5 acbd 17c7 a43e a5f2 08be
00000120: abd9 a3be d895 52be f3de 42be 4986 b23e
00000130: 4de2 483f fb9f b5be a61b 423d 78a5 00be
00000140: d6f6 893e 9bd8 763e aacb ff3d 7daf 953e
00000150: 0a92 883e 7ba4 58bd 1f66 86be 9d2d 3c3d
00000160: 3a4f afbe 5ade c93e 4613 163f 45a4 24be
00000170: ed28 a4bd 4edf 11bd 0361 b0be 62d5 ac3e
00000180: 5ada bd3e 1e3f b33c 00d9 d83e 4653 3bbe
00000190: f7d3 dbbe e057 af3e 7588 4e3d 7af6 4abe
000001a0: c89d 07be 06a1 823e 4d06 553e 877f b3bd
0.06876959 0.27613494 0.76542825 -0.053505313 -0.4483717 -0.21455148 -0.055854365 0.37146828
-0.34259877 0.47163248 -0.3587261 0.5644077 0.24396652 0.29702947 -0.17308074 0.08857744
-0.24377935 -0.42971456 0.44727483 0.08567805 -0.67937124 -0.23700394 -0.08493434 0.44683415
0.09979869 0.28281292 0.46003875 -0.2820179 -0.4472516 0.16996737 0.033340815 -0.29056156
0.570477 0.18965219 -0.19940099 -0.10075808 -0.29791307 0.73603654 0.12932381 0.43186814
0.06836106 -0.58933115 -0.21107161 0.4168006 -0.5841042 0.3424338 0.30904916 0.28666216
0.5627339 0.015126332 0.3607352 0.033998184 -0.060366124 0.20671962 0.13348247 0.7792636
-0.039652668 0.15942635 -0.02409168 -0.014243143 0.12627743 0.6684744 0.4802567 0.3828968
0.5700679 0.09592376 -0.80569094 0.47564414 -0.03641805 -0.08439221 0.32183143 -0.13373812
-0.32002005 -0.20564973 -0.19030361 0.34868076 0.7847031 -0.35473618 0.04738965 -0.12563121
0.26946133 0.24106066 0.12490018 0.2923545 0.2667392 -0.052891236 -0.26249787 0.045941938
-0.34240133 0.39427453 0.5862316 -0.16078289 -0.080156185 -0.03561335 -0.34449014 0.33756548
0.37080652 0.021880683 0.42353058 -0.18293485 -0.42935154 0.3424673 0.050423104 -0.19820586
-0.13243783 0.25513476 0.20803185 -0.08764558

transformer_encoder.layers.1.self_attn.in_proj_bias f4 [18]
00000000: c923 423c eae4 e2bb 1ec3 a23d 6e28 4f3d
00000010: 5648 a43e 3e21 f23d bcad 50bb 714d 213a
00000020: adf9 563b d8ea 16bb cef7 063b 61a1 b63a
00000030: 2347 c63c 814f ccbb 7964 1ebd 0d0a 8abc
00000040: 4f0d 9bbd 69a7 b2bc
0.011849352 -0.0069242613 0.07947372 0.050575666 0.32086438 0.11822747 -0.0031841835 0.0006153202
0.0032802627 -0.0023028161 0.002059448 0.0013933593 0.024203843 -0.0062350635 -0.038670037 -0.016850496
-0.07570898 -0.021808343

transformer_encoder.layers.1.self_attn.out_proj.weight f4 [6, 6]
00000000: 70cd aa3e f7fb 563e 001c 3b3d f0af 6bbe
00000010: 27f0 39be 724c 0e3d 9b8f 72bf cf13 43bd
00000020: 9689 38bd 4900 c13e eeff d33e 54e7 d7be
00000030: 2678 4b3e 2881 56be 7235 b3be 3af4 08bd
00000040: ef7d 82be 5263 82be 1699 853e 70d1 9c3e
00000050: a3c4 aa3e b660 a63e 9437 8e3e 3d99 03bf
00000060: 1dc1 f9be c73c c5be 3b32 a9be 8cfb 043e
00000070: 7fb1 853c 6c67 663e c478 4c3e 4040 9b3e
00000080: 9561 483e 1403 003f d4ef f4bd ec0f 9d3e
0.3335986 0.20994554 0.045681 -0.23016334 -0.18158017 0.034740873 -0.94750375 -0.047626313
-0.045053087 0.3769553 0.41406196 -0.42168677 0.19870052 -0.20947707 -0.35001713 -0.033436038
-0.25486705 -0.254664 0.26093358 0.30628538 0.33353147 0.3249566 0.27776778 -0.514057
-0.48780146 -0.38522932 -0.33046135 0.12986583 0.016319988 0.2250039 0.19967943 0.30322456
0.19568475 0.50004697 -0.11959806 0.3067621

transformer_encoder.layers.1.self_attn.out_proj.bias f4 [6]
00000000: f41a 0a3d 9ad2 8a3d d3ff 433d f9a3 fbbc
00000010: bd6f 0bbd b8f5 273b
0.03371711 0.0677845 0.047851395 -0.030717837 -0.03404211 0.0025628638

transformer_encoder.layers.1.linear1.weight f4 [2048, 6]
00000000: 8168 98bd 801a 1abd 7fbe 1ebe 7d67 0e3a
00000010: 9038 c03e e195 a7bd 15b3 ec3e bada 8b3e
00000020: ae54 64be 0ba8 5fbe 7d06 59be 2c27 16bd
00000030: 6ecc 273e fb64 d93d 505a 6d3d 314a f8be
00000040: 4e3f cd3d 0b40 c73e e378 b4be bd33 923e
00000050: d108 3e3e c079 abbe 3fd3 ee3d 66f8 593e
00000060: b6d5 7a3e a105 a23e b7db 833e 7a7c 4bbe
00000070: b2e5 0fbe 3aa0 febd ab79 a6be 19f2 9bbe
00000080: 358b bfbe 7a23 33bc 2921 86bd f21e 503b
00000090: c7f0 8dbe 9b25 21bd 32c9 4cbd 1011 02be
000000a0: f9dc 05be 9c35 f8bd 5d06 c4be 2ffd 5e3e
000000b0: de8c e23c bf26 89be 7fd6 873e 2fb4 703d
000000c0: da5f f3be d216 96be f369 b33d 5f80 cb3e
000000d0: f54f da3e d75c 753d 7b68 0f3e e3fb ab3e
000000e0: 1f7f ee3d 4f24 0b3e 8149 113e f05f 8ebe
000000f0: 440f 903e 25db 383e 59b8 89be c8f5 2cbe
00000100: 87bd 5a3d 8b54 19be df2e 59be 559b f7bd
00000110: b352 c1be 5bce 843e 6bf6 07be d431 4ebc
00000120: 4238 94be 95c4 cbbe 9a46 04bd a521 80be
00000130: 33bf 253e 5436 83bd a8ed e43e 9e2b 3ebe
00000140: 4e8b bebe 147a a7be 1375 9a3d 862a 8c3d
00000150: d9a3 4f3e 05e7 f5bd 431e a4be 5382 3f3e
00000160: b53b 7fbe 092a 8ebe 9328 b93e 32fc 883e
00000170: 6c50 a4bb 6e41 11be 270b 6a3d 3a4f 9739
00000180: 4da7 4b3e 5732 0fbf a4c6 af3e b2f8 ccbe
00000190: 9a29 abbc 7b17 cd3e 0b71 f73d dd78 c1be
000001a0: 6631 9ebc d7d7 123e 5dd3 7d3e 6845 5d3e
000001b0: 61b8 e53e a89b d6be 18fb 66be a58b 283e
000001c0: 0b11 b13e 785e 063d b899 e83e 14ee a53e
000001d0: 7ed1 493e e510 8fbe 49b5 c43d a842 b53d
000001e0: f094 52be ff25 9c3e e050 89be 702c a23b
000001f0: c1d8 bc3e 0261 4dbe 6180 2b3e c351 b7be
00000200: 6833 85be 5af6 c23e 2af7 65be a8f7 4dbc
00000210: eae5 4d3e 7148 52be 0a12 26be ff89 403e
00000220: 60b5 9abe f168 b53c 2a6e 6f3e a60f 363e
00000230: 8e3f 843e 46ac a4be c268 cc3d c8fa 053f
00000240: 8706 db3e cef0 9abe d5d1 93be 025e febc
00000250: 8c2f 63be 7b0b ee3e bcb4 493e a3c8 973d
00000260: 5c81 b83e 9051 d4bd d2cd 103e e642 fbbc
00000270: d6fc 983e bf09 9c3e 53de b23e f2be a9be
00000280: a312 9abe 166e c53e cda9 f7be 08e5 b23e
00000290: 8620 d93c 7f8d a3be 49bf 913d 40d7 52bd
000002a0: b756 883e f589 95bb b719 91be 77b8 62be
000002b0: ce8a 91be eae1 a3be 3d08 ccbd d851 13bd
000002c0: 3270 16bf 4746 7dbe 92e0 df3e 7dc2 8c3e
000002d0: 23ab 323e ad90 05bf b81b 713e f9cb 0fbf
000002e0: 1b0c b0bd 3239 923e eadf b33e 069b a23d
000002f0: 471f 103e 8ca1 06be b01a ebbd 9b22 64be
00000300: 1e12 c63e 79d6 78be e2c1 5abe c1d7 8abd
00000310: e939 8fbd ad57 e93e 4065 34be 2a0a 663e
00000320: ceae 6bbe e527 aabe 0eac 0f3e a7d2 3abe
00000330: 3736 243d 12e4 a13d 8034 93be 88e5 543e
00000340: 5950 5ebc 7f81 e43e 5b49 643c 7b9f e0bd
00000350: 9ba7 3d3e e084 29bf 431e 103e 4157 a33e
00000360: 20d9 893e 0c27 a8be b770 00bd d562 873d
00000370: df15 9a3e 5d62 1d3e 5a9a 413e 3645 8d3e
00000380: 8589 9dbc f21f 2fbe 69bc b6be 52a3 e03d
00000390: 747d 61be 7bb0 50be fb01 733e 0d9d 1f3e
000003a0: 91d7 68be 1957 6d3e affe 5bbd f9b7 563d
000003b0: 1a89 bf3e 3293 a0be 7ff4 f8bd a969 b7be
000003c0: 41a6 ccbe 6de3 423e 2c43 3c3e 1bb9 f5bb
000003d0: 1d2c 893d 2f9a 83bc 9f4e e33d 35c0 94bd
000003e0: fc2b 32bc 9064 ba3e bc34 46bc fd57 963e
000003f0: 23e5 2b3e e68f 91be 8f08 dcbe dc28 6f3e
-0.074418075 -0.03762293 -0.15502356 0.0005432291 0.37543154 -0.08182884 0.4623038 0.27315313
-0.22297928 -0.21841447 -0.21193881 -0.03665845 0.16386577 0.106149636 0.057947457 -0.48494104
0.1002184 0.38916048 -0.3524848 0.28555098 0.1855805 -0.33491325 0.11661386 0.21286163
0.24495587 0.3164492 0.25753567 -0.19871703 -0.14052466 -0.124329045 -0.325147 -0.30458143
-0.37410894 -0.010933751 -0.065492935 0.0031756726 -0.2772276 -0.039342504 -0.049996562 -0.12701821
-0.13072576 -0.121196 -0.38286105 0.2177627 0.027655061 -0.26787373 0.26530835 0.058765586
-0.47534066 -0.29314286 0.087604426 0.39746377 0.42639127 0.059902992 0.140047 0.33590612
0.1164534 0.1358807 0.14188196 -0.2780757 0.28136647 0.18052347 -0.2689846 -0.16890633
0.053403404 -0.14973657 -0.21209286 -0.12090174 -0.37758407 0.25938687 -0.13277595 -0.012585122
-0.2894917 -0.39798418 -0.032293893 -0.2502567 0.16186218 -0.06406847 0.44712567 -0.18571326
-0.37215656 -0.32710326 0.075418614 0.06844048 0.20277347 -0.12006954 -0.32054338 0.18702058
-0.2492512 -0.27766445 0.36163768 0.2675491 -0.00501447 -0.14185116 0.057139542 0.00028859993
0.19888039 -0.5593619 0.34331238 -0.4003349 -0.02089386 0.40056977 0.12082108 -0.37787524
-0.019310664 0.14340149 0.2478766 0.21608508 0.44867232 -0.4191563 -0.22556722 0.1645952
0.34583315 0.032804936 0.45429778 0.32408202 0.19708821 -0.27942577 0.0960489 0.08850604
-0.20564628 0.3049774 -0.26819515 0.004949145 0.3688412 -0.20056537 0.16748191 -0.35804567
-0.26015782 0.38078576 -0.22457567 -0.012571253 0.20107237 -0.20535447 -0.16217819 0.18802641
-0.30216503 0.022144767 0.23381868 0.17779407 0.25829738 -0.32162684 0.099809185 0.52335787
0.42778417 -0.30261844 -0.28871027 -0.031050686 -0.22186106 0.46493134 0.19697851 0.07411315
0.36036193 -0.10367119 0.14141014 -0.030671548 0.298804 0.30476186 0.34935245 -0.33153492
-0.30092344 0.3856055 -0.48371735 0.34940362 0.026504766 -0.3194389 0.07116563 -0.05147481
0.26628658 -0.004563565 -0.2833993 -0.2214068 -0.28426212 -0.32008296 -0.09962509 -0.035966724
-0.58764946 -0.2473384 0.4372602 0.27492133 0.17448096 -0.5217388 0.2354573 -0.5617061
-0.08596059 0.28559262 0.3513177 0.079397246 0.14074431 -0.13147563 -0.114796996 -0.22278826
0.38685697 -0.24300565 -0.21363023 -0.06779433 -0.06993467 0.45574704 -0.17616749 0.22464815
-0.23015901 -0.33233562 0.14030477 -0.1824442 0.040090766 0.07904829 -0.28750992 0.20790684
-0.013568961 0.44630048 0.013933505 -0.109679185 0.18520968 -0.66218376 0.14074044 0.31902507
0.26923466 -0.3284229 -0.031357493 0.066106476 0.3009481 0.15369554 0.18906537 0.27591866
-0.019230613 -0.1710203 -0.3569062 0.10968651 -0.22020513 -0.20379822 0.23731224 0.15587254
-0.22738482 0.23177756 -0.053709682 0.052421544 0.37409288 -0.313623 -0.12156009 -0.358228
-0.39970592 0.19032069 0.18384999 -0.007498873 0.06697867 -0.016064731 0.1109898 -0.07263223
-0.0108747445 0.36404848 -0.012097534 0.29364005 0.16786627 -0.28430098 -0.4297528 0.2335543

transformer_encoder.layers.1.linear1.bias f4 [2048]
00000000: f97a 8a3e a009 943d f0c2 98bc d4b4 5d3e
00000010: 2f02 273e d6e4 84be 939d 47be 671d c03d
00000020: 97e7 743e 66bb 303c 2da1 6abe 5d90 61bd
00000030: e0d1 9e3e 8ddb 853e 5678 48be 17f6 2dbd
00000040: 2571 a4be 1296 ca3d 3e87 65bd 89ce 6dbe
00000050: 76c1 d9bd 3b1d 83bb ff68 a23d 5246 56be
00000060: 5345 69be 0093 9a3d feb6 8e3e b558 e2bd
00000070: 8e31 fabd ba9e a3be 308f dcbe 1c9d bfbe
00000080: 1705 96be d473 68be 6766 f7bd ef2f afbd
00000090: 5bba 44bd 4798 843e e4e6 003d bbe1 b6be
000000a0: c301 96be 1e36 163d 5c79 3a3e 2e5e 803d
000000b0: 3003 96be b5e3 57be 2f59 40be aab6 44be
000000c0: 5e56 903e 5131 8ebe 4264 98be 0b71 6f3c
000000d0: 9940 00be 2424 38bd a8be 923d fdca b0bd
000000e0: d8b7 54be a24b 083e 427a 4b3e 87dd 90be
000000f0: eeb8 7c3e bee2 b03e 49ff 39be 9a97 8c3e
00000100: 3933 4e3d 31e2 c4be 3eef 903e 8731 bebd
00000110: 54ed 26be 2364 ba3d af4a 163d fd53 9f3e
00000120: 4774 3a3d 1502 e4bd 1845 b93c 6681 d53d
00000130: 87ed bbbe 02c9 72be 1765 6bbb a271 2fbd
00000140: 1e31 66be 7afa 63be 73b7 57be 39c4 0e3e
00000150: 5c7a ebbe 2cf1 46bc 1126 483d 2821 7c3c
00000160: 311b 9e3d ad83 893e 4e4a 843e f8bd d8be
00000170: 16b8 a3be b874 ea3d c91b a23e d61d a2be
00000180: ffed 4b3e 342c ccbd f9cc 44be 0c7a bdbe
00000190: 5551 7bbe b2dd 143e fdb5 86be 27da 91bc
000001a0: ac84 7ebe d5c1 4bbe 054a 7ebe f89f df3c
000001b0: 7d93 653e 5099 7cbe 4b10 8dbe 6349 803e
000001c0: 4850 93be e74f 033e 51ee 7dbd 72c8 ecbd
000001d0: c985 d7be 914d f53c eb58 70bd 35f0 bb3c
000001e0: 9a4c 6fbe 8b17 313d a32b 24be 60c8 c73d
000001f0: dc84 acbd edeb c1be 68ae 9a3e 4fbd 03be
00000200: 0daa 04bd cd32 403d ceda 75be fe61 23be
00000210: 0a57 de3c 013d 373e 07e0 2cbe edac 91bd
00000220: 4674 4a3e 4179 b7be 3e00 6ebe bcf4 953e
00000230: c7a7 6cbe ad93 493e 53c2 74be 5199 6dbe
00000240: cf0d f5bc 0b5a bcbe 9de5 d2bc 76c0 ae3d
00000250: 42ec 80be f6a9 a7bd 3649 33be 0bb0 323d
00000260: e7df a8be 67f5 a4be 993a c8be 69f3 e83a
00000270: 64d0 f93d 39f3 febc fe85 f1be 0814 6a3e
00000280: d25e 21be 4f97 64be 665e 86bb 85f2 ae3e
00000290: feb3 a4be ad6a 763d b346 303e eb09 39be
000002a0: a1e3 e2bd 35db a1be ec2c 203e f9a4 f53c
000002b0: 3b68 7d3d bad1 353e a8a0 a6bd 095d 723d
000002c0: 7599 0ebd c763 363e 051e 90bd b21b 343e
000002d0: fb14 acbd c10c 46be db16 8d3e e12b 393d
000002e0: 4953 703e cf9f 9c3e 4842 8dbd ac37 a63e
000002f0: fdef 51be a4c6 a63e d75f acbc 1151 c6be
00000300: 7722 d63d 357f 8c3c 3727 3bbe e1da ae3e
00000310: 2ee3 b43d af20 723e 775d 9cbe 6692 073d
00000320: 608e a93d 59cd 903c 0111 8b3e 32fb fd3d
00000330: 3a20 29bd 169a c73d 5e0b 923e 9a3f 62be
00000340: 6514 453e bfd9 76be 58db 54be 94fe a0be
00000350: f779 983e 2a8b 29bd 963a 833d 3930 3cbe
00000360: bcb8 d9bd 8f2d 923c 66ca 8bbd d75b 8f3e
00000370: eddd 8ebe f587 2ebe 4575 3abc 9b4f e4be
00000380: ccf5 a93e c225 83be ae6f e3bd bd50 82bd
00000390: 69ed 8abe 09d8 be3e 8e61 3d3b 01da bc3d
000003a0: fb6c 03be eddb 423e 8074 993e 4199 923e
000003b0: cc5f 153e 7c06 da3d f8de 9ebe 318c c83d
000003c0: c4be a93e a9ce f7bd 7157 9cbe e5fb 34bd
000003d0: 41d2 bebe 84c3 ef3d 0257 c63d 8878 04bc
000003e0: e899 633e 03a9 35be afdc dfbe e582 a3be
000003f0: 715f 4abe f238 a5bd c83a 193e cd76 793e
0.27046946 0.07228398 -0.018647641 0.21651012 0.16309427 -0.25955838 -0.19493704 0.09380608
0.2391647 0.010786867 -0.22913046 -0.055069316 0.31019497 0.26144066 -0.19577155 -0.042471018
-0.32117572 0.09891905 -0.05603718 -0.23223318 -0.10632603 -0.0040012873 0.07930183 -0.20925263
-0.22780351 0.07547569 0.27873987 -0.11052076 -0.12216483 -0.31957036 -0.43077993 -0.37424552
-0.29300758 -0.22700435 -0.120800786 -0.085540645 -0.048029285 0.25897428 0.031470194 -0.35719094
-0.2929822 0.036672704 0.18210357 0.06267963 -0.29299307 -0.21082957 -0.18784021 -0.19210306
0.28190893 -0.27772 -0.2976399 0.014614354 -0.12524642 -0.04495634 0.07165271 -0.08632467
-0.20773256 0.13310102 0.19870856 -0.28294012 0.2467992 0.3454799 -0.1816379 0.27459413
0.05034182 -0.3845382 0.28307527 -0.0928679 -0.16301471 0.09101131 0.036692318 0.31118765
0.045521047 -0.111332096 0.022615954 0.104250714 -0.36704656 -0.23709491 -0.0035918409 -0.042832978
-0.22479674 -0.22263518 -0.21066074 0.1394204 -0.4599179 -0.012142461 0.048864428 0.015388764
0.0772003 0.26858273 0.2583794 -0.42332435 -0.31976384 0.114480436 0.31661823 -0.31663388
0.19915007 -0.099693686 -0.19218816 -0.37007177 -0.24542744 0.14537695 -0.2631072 -0.017804218
-0.24855298 -0.1989816 -0.24832924 0.027297959 0.22419544 -0.24667859 -0.27551493 0.2505599
-0.28772187 0.12823449 -0.061994854 -0.115616694 -0.42094257 0.029944213 -0.05867855 0.022941688
-0.23369065 0.043235343 -0.16032271 0.097550154 -0.084237784 -0.3787531 0.30211186 -0.12865184
-0.032388736 0.046923447 -0.24009249 -0.1595535 0.027141113 0.17894365 -0.16882335 -0.07113061
0.19770917 -0.35834697 -0.2324228 0.2928828 -0.23110877 0.1968524 -0.23902254 -0.23203017
-0.029913811 -0.36787447 -0.025744254 0.08532803 -0.2518025 -0.08186714 -0.17508397 0.04362492
-0.32983324 -0.32218477 -0.39107206 0.0017772737 0.121979505 -0.031121837 -0.4717254 0.22859204
-0.15758827 -0.22323345 -0.0041006086 0.34169403 -0.32168573 0.060160328 0.1721447 -0.1807019
-0.11078573 -0.31612554 0.15642136 0.029985892 0.06186698 0.17755786 -0.081361115 0.059170756
-0.034814317 0.178115 -0.07036976 0.1758869 -0.08402439 -0.19340803 0.275565 0.04520786
0.23469271 0.30590674 -0.06897408 0.3246435 -0.20501705 0.32573426 -0.021041794 -0.38733724
0.104557924 0.0171505 -0.18276678 0.34151366 0.088323936 0.2364528 -0.30540058 0.0330986
0.08279109 0.017676042 0.2716141 0.12401427 -0.0412905 0.097461864 0.28524297 -0.22094575
0.19246061 -0.24106501 -0.20786798 -0.31444228 0.29780552 -0.041392483 0.06407659 -0.1837777
-0.106309384 0.01784399 -0.06825714 0.27999756 -0.2790369 -0.17044051 -0.011380498 -0.44591984
0.3319534 -0.25614744 -0.111052856 -0.06363056 -0.27134255 0.37274197 0.0028897258 0.092212684
-0.12834541 0.19029208 0.29971695 0.28632548 0.14587325 0.10645768 -0.31029487 0.097923644
0.33153355 -0.12099964 -0.30535462 -0.044185538 -0.37269786 0.117072135 0.09684564 -0.0080853775
0.2222668 -0.17740254 -0.43723056 -0.31935802 -0.1976297 -0.08067502 0.1496383 0.24361725

transformer_encoder.layers.1.linear2.weight f4 [6, 2048]
00000000: fdb3 0ebb 4633 fb3c bbb9 e43b e091 62bd
00000010: 0592 29bd b527 343d 6b32 d7bb 5396 48bd
00000020: 19a5 8bbc 4a6f fcbc 3196 c73d ad1c 963c
00000030: 0dd0 18bd 6dfc 063d 094b 1abc a642 043e
00000040: 61f9 c63c faa5 3dbd 8506 73bc 34b1 9f3d
00000050: 2b6c 6a3b 1a93 b0bc b35c d53a ac91 dc3c
00000060: 0618 2e3c 0c5d c43d 82b4 d53c 4d42 8bbd
00000070: eace cc3c f30a a8bd 5874 f7be 8be7 853e
00000080: 400b 13bc 572d 78bd 4d8e 57b9 e0b0 02bd
00000090: 6ec1 13bc e0e0 d5bc 1e7b ae3b ffbe 92bd
000000a0: ac0e dcbc 1db8 fcbc 5849 d53b 130b d03b
000000b0: 1df8 61be f411 003c 3365 503b 185d 0fbc
000000c0: f5a1 dfbc de81 9d3d 1c43 403e e311 80bc
000000d0: b6f7 95bc f12f 013c f2fa d1bb b30a 21bc
000000e0: 37c5 79bc ec15 18bb 3497 883d b1d1 563d
000000f0: 9bd0 eb3c 919d 2d3d 3bdf f03d 072b b63b
00000100: 9174 13bd f971 2cbc cf02 f03d 536e fdbc
00000110: f1f4 303d 5753 1c3c ba8f fa3d 6782 663d
00000120: 9c4e c5bb ce20 e13c d731 8e3d 58e5 bb3d
00000130: 1c09 c63d 1705 a13e 3d01 b2bc a5c2 923d
00000140: 8582 92bd a774 5cbc b488 56bc 178f 8339
00000150: a497 0a3e 0d55 b0bc 3811 3c3e ca66 69bc
00000160: 0dc9 21bb d11f c739 6c69 42bd 4ab2 493d
00000170: 5394 9b3c 2f69 2fbe d9dc fdbc 5e86 8d3c
00000180: 89b7 8f3c 269c 70bd 11eb 96bc ad7b d33e
00000190: 885d 35bd f9db b33d cf1c 83bd 0e92 353d
000001a0: 9590 03ba 5a7e cc3c ed1b 133c c239 a8bc
000001b0: 9897 b9bb 8b7d 20bc 3086 86bd c3c4 523c
000001c0: 2941 5ebc 7d4d db3c 91ae 98bc e78c eebc
000001d0: 594b 4bbc f5f2 d8bc 933c 313a 2c88 ad3c
000001e0: b3a6 41bd e72c 393d 22ba e53d d93e 87bc
000001f0: c53b 483c 7b29 4abd 099a ac3a 2acc 713d
00000200: 7d77 58bd 4a92 723d b665 7a3d 4064 6e3c
00000210: d6a3 fe3c e6a4 f6bc d313 49bd 1bff 0d3a
00000220: ce24 35bc e683 c03c c4a0 343e f749 e0bc
00000230: d0f4 bbbc 0b3e 7cbc a66e 753c 8674 ed3d
00000240: 0455 b43c 8a55 dc3c dce5 e4bd b341 eabb
00000250: 5cee dfbc 33c3 0d3d bbe7 3cbd fb7d 9f3d
00000260: 1d53 06bd af9d 1e3c c80f fdbc 3ecb 9e3c
00000270: 962f de3c 1a6d 5fbd 4749 68bd e588 05bd
00000280: ea4e cabd 0573 693e 58ff c2bc 1f4f d3b9
00000290: 8af1 da3d 1d9c 193d b0a3 4dbb f2f5 dcbd
000002a0: 17b3 273d b5cb ab3d 0a66 2bbd 18e2 ef3b
000002b0: 8260 373e f7e5 09bd f7b0 ef3b ede1 c1bc
000002c0: 0e9e 833a 7ead 643b 1aa8 0f3e a443 b5ba
000002d0: b750 bdbc 1d16 4cbc 17d4 963b b3a1 63bc
000002e0: a940 753a 2f0a 3c3a 9e0d 89bd 5169 eebc
000002f0: 8738 073d 4c42 2cba b79a a9bc 526e 1dbc
00000300: de73 e2bd 0332 dabb c8d9 963b e72a e83d
00000310: c023 59bc d9d9 90bc 74e7 b3bd 37df 12bd
00000320: dcef eabb afc1 a53d 6512 2b3c 556d f6bb
00000330: 2a4c 123d e737 a83d 5396 bc3c d2f9 f83b
00000340: 9d0d eebc 2aa3 99bd 198f fcba f079 933e
00000350: 0d40 bbbb 8379 7cbb 5bf5 8f3c bebd 84bc
00000360: 0f8b 50bb 7161 9a3c 70ad cfbc cdfa dcbc
00000370: ac99 c7bc 61ce 0b3b 09f2 58bd e4a6 47bd
00000380: 97e5 9abc 200b eebd dcfb b83d e83e 2e3b
00000390: fe6e 8c3d 4e7a 0dbc f77d fbbc f72e bfbb
000003a0: 5954 843d 8718 4abb 7766 e63a 3a9a fbbc
000003b0: c6ee e33d 6dae 51bc 2417 16be f9ef b7bc
000003c0: b9e9 db3a b50c 37bd e3a1 7c3d 5edc d3bc
000003d0: a484 9f3e 3032 a6bb 78b5 533b bc66 0d3c
000003e0: bf3e 10bd 5253 113d 7b2d bd3e 6bbc 6abc
000003f0: acee 94bc 80f3 953d c195 383d 0821 0cbc
-0.0021774762 0.030664098 0.0069801486 -0.0553149 -0.04139902 0.04398318 -0.0065672896 -0.048971485
-0.017046498 -0.030814786 0.097454436 0.01832422 -0.037307788 0.032955576 -0.009417304 0.1291605
0.024288835 -0.046300866 -0.014833097 0.07797471 0.003577004 -0.021554518 0.0016278237 0.02692493
0.010625845 0.0958806 0.02608705 -0.06799755 0.025001008 -0.082052134 -0.4833095 0.26153216
-0.00897485 -0.060590114 -0.00020557009 -0.031906962 -0.009018285 -0.026108205 0.0053247353 -0.07165336
-0.026862465 -0.03084951 0.0065089874 0.0063489764 -0.22067304 0.00781678 0.00317986 -0.008750223
-0.027298907 0.07690786 0.187756 -0.015633529 -0.018306594 0.007884965 -0.006408089 -0.009829211
-0.015244774 -0.0023206426 0.06669465 0.05244607 0.028785994 0.042386595 0.11761328 0.0055593285
-0.03599984 -0.01052522 0.11719286 -0.030936396 0.043202344 0.009541354 0.12234445 0.056276705
-0.006021334 0.027481463 0.069431 0.09174603 0.09669706 0.31449196 -0.021729106 0.07166032
-0.07153801 -0.013455546 -0.013094116 0.00025092877 0.13534409 -0.02152493 0.18365943 -0.014245698
-0.0024686486 0.00037979943 -0.04746382 0.049242295 0.018991625 -0.17129968 -0.030989097 0.017275985
0.017543571 -0.058742665 -0.018422635 0.41305295 -0.04427865 0.08782191 -0.06401979 0.04432874
-0.0005018798 0.024962593 0.008978826 -0.020535354 -0.0056638233 -0.009795557 -0.06568563 0.012864294
-0.01356534 0.026770348 -0.018637927 -0.029119922 -0.012408101 -0.026483038 0.00067610404 0.021183096
-0.047278117 0.045208838 0.11217143 -0.01650946 0.012221281 -0.049355965 0.0013168465 0.059032597
-0.052848328 0.059221543 0.061132155 0.014550269 0.031083982 -0.030107927 -0.04909117 0.0005416737
-0.011056138 0.023500394 0.17639452 -0.02737902 -0.022943884 -0.015395652 0.014979994 0.11594491
0.022013195 0.026896257 -0.11176655 -0.0071489452 -0.027335338 0.034609985 -0.046119433 0.07787701
-0.032794107 0.009681149 -0.030891314 0.019384023 0.0271223 -0.054547407 -0.056710508 -0.032601256
-0.09878333 0.22797783 -0.023803398 -0.00040304006 0.10690601 0.037502397 -0.0031378083 -0.10789098
0.040942278 0.083884634 -0.04184536 0.0073206536 0.17907909 -0.033666577 0.007314797 -0.0236673
0.0010041611 0.0034893448 0.1402897 -0.0013829363 -0.023109777 -0.012456444 0.00460292 -0.013893533
0.00093556434 0.00071731483 -0.066920504 -0.029102953 0.033012893 -0.00065711583 -0.020703657 -0.009608822
-0.11057256 -0.006658794 0.0046035983 0.11336308 -0.013253152 -0.017682003 -0.087843806 -0.035857406
-0.0071697067 0.08093583 0.010441397 -0.0075203576 0.035717167 0.082137875 0.023020899 0.0075981403
-0.029059226 -0.07501824 -0.0019268721 0.28803968 -0.0057144226 -0.0038524575 0.01757305 -0.016203757
-0.0031821167 0.018845292 -0.025351256 -0.02697506 -0.024365269 0.0021332728 -0.052965198 -0.048743144
-0.018908305 -0.11623216 0.09032413 0.0026587788 0.068571076 -0.008635117 -0.030699713 -0.005834456
0.064614005 -0.0030837373 0.0017578144 -0.03071319 0.11129527 -0.012797934 -0.14657265 -0.022453295
0.0016778029 -0.044689853 0.061677825 -0.025861915 0.31155884 -0.005071901 0.0032304209 0.008630451
-0.03521609 0.03547985 0.3694876 -0.014327149 -0.018180214 0.073218346 0.04506469 -0.008552797

transformer_encoder.layers.1.linear2.bias f4 [6]
00000000: d7b5 c8bb ebb5 d93c d911 ae3c 2600 5e3c
00000010: 35d3 99bc b583 993b
-0.0061251926 0.026576003 0.021248745 0.01354984 -0.01877747 0.00468489

transformer_encoder.layers.1.norm1.weight f4 [6]
00000000: f741 943f c6dc 703f 575a 813f 93e3 7e3f
00000010: b5a4 803f 339d 843f
1.1582631 0.94086874 1.0105695 0.99566 1.0050265 1.0360473

transformer_encoder.layers.1.norm1.bias f4 [6]
00000000: c297 31bd 84e4 aa3d 657d d43c 73f9 2cbd
00000010: f082 f6bb f913 9fbc
-0.04335762 0.08344367 0.025938699 -0.04223008 -0.007522933 -0.019418703

transformer_encoder.layers.1.norm2.weight f4 [6]
00000000: 4c33 933f d3a5 9c3f 9f3b 873f d703 943f
00000010: 57c4 8f3f 418e a83f
1.150003 1.2238106 1.056507 1.1563672 1.1231793 1.3168412

transformer_encoder.layers.1.norm2.bias f4 [6]
00000000: 48c0 ec3d c7c6 0fbe c5a8 123d 966d e7bc
00000010: 853b 09be 591d 1fbd
0.11560112 -0.14040671 0.035805482 -0.028250497 -0.13401611 -0.038846347
