Production_Environment/models_tested/best_model_extended_heuristicjul_tr.3.32.pth (torch, 425566 bytes, 29 tensors)

norm.weight f4 [6]
0	0x3f800000	1.0
1	0x3f800000	1.0
2	0x3f800000	1.0
3	0x3f800000	1.0
4	0x3f800000	1.0
5	0x3f800000	1.0

norm.bias f4 [6]
0	0x00000000	0.0
1	0x00000000	0.0
2	0x00000000	0.0
3	0x00000000	0.0
4	0x00000000	0.0
5	0x00000000	0.0

transformer_encoder.layers.0.self_attn.in_proj_weight f4 [18, 6]
0	0x3eda7331	0.4266601
1	0x3e87e13f	0.26539037
2	0x3d820bc3	0.063498996
3	0xbe2b45c2	-0.16725829
4	0xbeea5d8b	-0.45774493
5	0xbe8850fb	-0.26624283
6	0x3e187cc4	0.14891344
7	0xbe812631	-0.2522445
8	0xbec35664	-0.38151848
9	0x3eaaec80	0.3338356
10	0xbe8e9eae	-0.27855438
11	0x3ea8a6df	0.32939813
12	0xbeed1239	-0.46302965
13	0x3efd0e16	0.4942481
14	0x3eb4ca4a	0.35310584
15	0xbdc9c270	-0.09851539
16	0x3eba68cf	0.36408088
17	0xbd9bc75a	-0.07606383
18	0xbebad5ea	-0.36491328
19	0x3ef6127a	0.48060971
20	0xbeb83d0f	-0.35984084
21	0x3ca84cd6	0.02054445
22	0x3e370a6d	0.17875071
23	0x3d8fc2d8	0.07019585
24	0xbd5aed22	-0.053448804
25	0xbe859a9c	-0.2609452
26	0xbe3ace69	-0.18242802
27	0x3ec9401f	0.39306733
28	0xbe2e222b	-0.17005222
29	0xbedecf12	-0.43517357
30	0x3d3373df	0.043811675
31	0xbec560ba	-0.3855036
32	0x3d6a5cd1	0.057217423
33	0xbebacd25	-0.36484638
34	0x3e9081f8	0.28224158
35	0x3e4e0f52	0.20123032
36	0xbe58c5f3	-0.21169262
37	0x3e7675cc	0.24068373
38	0xbed79eaf	-0.42113253
39	0x3dac4c24	0.0841296
40	0xbe4b0093	-0.19824438
41	0xbf088484	-0.533272
42	0x3e7eb45f	0.24873494
43	0xbef6b38d	-0.4818386
44	0xbeecd31f	-0.46254823
45	0xbd715320	-0.058917165
46	0xbeb140b5	-0.3461968
47	0xbea31fe3	-0.31860265
48	0xbd992890	-0.0747844
49	0x3e5c1a69	0.2149445
50	0x3daf535f	0.08560824
51	0x3e459db2	0.19298437
52	0x3e8a93a7	0.27065775
53	0x3a85999f	0.0010192877
54	0x3eafb4da	0.34317666
55	0xbdd6bbc3	-0.104850315
56	0x3e257b1c	0.16160244
57	0x3c79df7d	0.015251038
58	0x3ee6961f	0.45036408
59	0xbc25ae13	-0.010112303
60	0x3e873d15	0.2641379
61	0x3f406fbf	0.7517051
62	0x3edd281a	0.43194658
63	0xbd8299f3	-0.0637702
64	0xbd2cc5be	-0.04218077
65	0x3e23d460	0.15998983
66	0xbf1b3edf	-0.6064281
67	0xbf39cb6b	-0.72576016
68	0xbe8a3084	-0.2699014
69	0x3e1598f6	0.14609131
70	0x3d6e4dcb	0.058179658
71	0x3e3f68c1	0.18692304
72	0x3f119398	0.56865835
73	0x3e608399	0.219252
74	0xbee8120b	-0.45326266
75	0xbd06d22b	-0.032915276
76	0xbe22b0c3	-0.15887742
77	0x3e84ed0e	0.25962108
78	0x3f9f5aaf	1.244955
79	0xbec18d1b	-0.37802967
80	0xbf580d0e	-0.8439492
81	0x3ebc2b88	0.36751962
82	0xbebeab5e	-0.37240118
83	0x3ee5609f	0.4480028
84	0xbf81a4a1	-1.0128366
85	0xbda2974b	-0.07939013
86	0xbf2847f5	-0.657348
87	0x3e8e9ac3	0.2785245
88	0xbf14468c	-0.57920146
89	0x3c8b8e54	0.01703564
90	0x3fc463de	1.5342977
91	0xbb176a33	-0.002310407
92	0xbeb896b4	-0.36052477
93	0xbee873c4	-0.45400822
94	0x3dbf975a	0.0935504
95	0x3d8dab11	0.06917394
96	0x3f7a910c	0.97877574
97	0xbf340f67	-0.70336
98	0x3e212445	0.15736492
99	0x3e20273d	0.15639968
100	0xbf8c3855	-1.0954691
101	0x3f371fd0	0.7153292
102	0xbf99a8f0	-1.2004681
103	0x3e72ffdc	0.23730415
104	0x3ed5eb26	0.41780967
105	0xbed0978f	-0.4074063
106	0x3ef25d54	0.4733683
107	0xbfa3da31	-1.2800962

transformer_encoder.layers.0.self_attn.in_proj_bias f4 [18]
0	0xbcef9970	-0.02924797
1	0x3d2a6b44	0.041606203
2	0x3cbe6cba	0.023245204
3	0x3cf5f996	0.030026238
4	0x3bad9cce	0.0052982336
5	0xbcbc2bf8	-0.022970185
6	0x3c8e37ef	0.017360656
7	0xbc0b2624	-0.00849298
8	0xbde1fcad	-0.11034522
9	0x3c9d66d6	0.019214075
10	0x3e7b88fc	0.24563974
11	0xbe834806	-0.25640887
12	0xbeee9a05	-0.46601883
13	0xbecd0f27	-0.40050623
14	0xbe34174c	-0.17587012
15	0xbe5e9366	-0.21735916
16	0x3e0a05f0	0.13478827
17	0xbe5c2972	-0.21500185

transformer_encoder.layers.0.self_attn.out_proj.weight f4 [6, 6]
0	0x3ebe1763	0.37127218
1	0xbe660a47	-0.22464858
2	0x3e93fecd	0.28905335
3	0xbe578bf0	-0.21049476
4	0xbe6f4021	-0.23364307
5	0x3e4424ee	0.19154713
6	0xbf2bd9f7	-0.6712946
7	0x3e4989de	0.19681498
8	0x3e60b503	0.2194405
9	0xbe02cfe9	-0.12774624
10	0x3e971f99	0.29516295
11	0x3e52ef15	0.20599015
12	0xbe403c55	-0.18773015
13	0xbe81f248	-0.25380158
14	0xbe9148cf	-0.2837586
15	0x3c51680c	0.012781154
16	0x3ea94384	0.33059323
17	0xbe10ce15	-0.14141114
18	0xbf09e203	-0.5386049
19	0xbebb2801	-0.36553958
20	0xbea98a99	-0.33113554
21	0x3ebcad24	0.36850846
22	0xbdb5b13d	-0.08871696
23	0x3ebe54f4	0.3717419
24	0x3cae41fc	0.021271698
25	0x3d2b91d5	0.041887123
26	0xbcbb91fe	-0.022896763
27	0x3ebaf7e8	0.36517262
28	0xbe419632	-0.18904951
29	0x3e851428	0.2599194
30	0x3e807419	0.25088575
31	0x3e95c7f9	0.2925413
32	0xbe03edbb	-0.12883656
33	0x3ea49007	0.32141134
34	0x3ec0fe40	0.37693977
35	0xbda4ac10	-0.08040631

transformer_encoder.layers.0.self_attn.out_proj.bias f4 [6]
0	0xbf0b3c2f	-0.5438871
1	0x3ec81641	0.39079478
2	0x3f1fb49a	0.6238495
3	0x3c420bf7	0.011843673
4	0xbe622a64	-0.22086483
5	0xbf43772a	-0.76353705

transformer_encoder.layers.0.linear1.weight f4 [2048, 6]
0	0x3f006989	0.50161034
1	0x3e3336ee	0.17501423
2	0xbc8ca530	-0.017168611
3	0xbeac31eb	-0.33631834
4	0xbeac4fa0	-0.336545
5	0xbcd419a7	-0.025891138
6	0x3ec00681	0.37504962
7	0x3bc0788b	0.005873745
8	0x3e997158	0.29969287
9	0xbee0253b	-0.43778405
10	0xbef4a4c6	-0.47781962
11	0x3d616480	0.055027485
12	0xbdaec1a4	-0.08533028
13	0xbdc5f0ec	-0.09665093
14	0xbe2ccfe4	-0.16876179
15	0x3e16689a	0.1468834
16	0xbd8acbf4	-0.06777182
17	0x3ee0bd11	0.43894246
18	0x3e526d36	0.20549473
19	0x3e71d640	0.23616886
20	0xbe450194	-0.19238883
21	0x3e582d6c	0.21111077
22	0x3d8cafeb	0.06869491
23	0x3f0b8d62	0.5451261
24	0xbe814df2	-0.2525478
25	0x3eb39059	0.35071066
26	0x3f1e0aee	0.6173543
27	0xbed4f526	-0.41593283
28	0xbe97c8e2	-0.2964545
29	0xbe439a4f	-0.19101833
30	0xbcb0d36d	-0.02158519
31	0xbe9d388b	-0.307072
32	0x3f1c8275	0.6113656
33	0xbe5ecf95	-0.21758874
34	0x3cdf6a51	0.027272375
35	0xbec2fc96	-0.38083333
36	0x3dca822b	0.09888109
37	0x3e5356c3	0.20638566
38	0xbeb7c259	-0.35890463
39	0x3d6bc306	0.057559036
40	0x3d806814	0.06269851
41	0x3f1473ff	0.57989496
42	0x3de09480	0.10965824
43	0xbe810ccd	-0.2520508
44	0x3dabc0e7	0.083864026
45	0xbea41042	-0.32043654
46	0x3dc20166	0.09472923
47	0x3f15932b	0.58427685
48	0xbe0c74e6	-0.13716468
49	0x3e17ee4a	0.14836994
50	0x3f07fa25	0.53116065
51	0xbe6b7418	-0.22993505
52	0x3e955080	0.2916298
53	0x3ee17e0f	0.44041488
54	0xbf33cb5a	-0.70232165
55	0x3f065c95	0.5248502
56	0xbea0cb6e	-0.31405205
57	0xbe935937	-0.28779003
58	0x3e950aa1	0.29109672
59	0xbedb30ce	-0.42810673
60	0x3c3d8e69	0.011569598
61	0x3e934cc3	0.28769502
62	0x3ed5fc7c	0.41794193
63	0xbf00bde4	-0.5028975
64	0x3d8b6f2d	0.068083145
65	0x3e93025b	0.28712735
66	0xbda27da5	-0.07934121
67	0x3e343a91	0.17600466
68	0xbe853f4e	-0.2602486
69	0xbd2b84bb	-0.04187463
70	0xbdfbebee	-0.123008594
71	0xbe85ee70	-0.26158476
72	0x3e645744	0.22298914
73	0xbd9ba868	-0.0760048
74	0xbcde9915	-0.027172605
75	0x3e860ff8	0.26184058
76	0xbe304b8b	-0.17216317
77	0x3e9409e3	0.28913793
78	0xbea2cc13	-0.3179632
79	0xbdb2de52	-0.087338105
80	0xbeca7501	-0.39542392
81	0xbec2098f	-0.37897918
82	0xbe966bdf	-0.29379174
83	0x3e2929f0	0.16519904
84	0x3e6f1873	0.2334917
85	0xbe277c8c	-0.16356105
86	0x3eadef13	0.33971462
87	0xbe928309	-0.28615597
88	0xbdb27da7	-0.087153725
89	0xbef55a66	-0.4792053
90	0x3e143119	0.14471854
91	0xbe9f7b50	-0.31148767
92	0x3e2a68c8	0.16641533
93	0x3e0c625b	0.13709395
94	0x3eb075dd	0.34464923
95	0x3e4aad39	0.19792642
96	0x3e4115a4	0.18855911
97	0x3d8c8d30	0.06862867
98	0x3d6be9bd	0.057595957
99	0xbec6ad31	-0.3880401
100	0x3d57658e	0.052587084
101	0x3dd2eb64	0.102988034
102	0x3ead8e01	0.33897403
103	0x3ebce9d9	0.36897162
104	0xbe808b67	-0.25106356
105	0xbeb93cb6	-0.3617913
106	0x3bd0fbdb	0.0063776798
107	0xbedfc4a3	-0.4370471
108	0xbeb7c62b	-0.35893378
109	0x3e806ab9	0.25081423
110	0x3eb82b78	0.35970664
111	0xbe0e33ec	-0.13886994
112	0xbd4c57ca	-0.04988841
113	0xbdf5c2d9	-0.12000055
114	0x3eb9d89d	0.36298075
115	0xbe7d5eb2	-0.24743155
116	0xbead87d8	-0.33892703
117	0x3dfc5f18	0.12322825
118	0xbe1ceacd	-0.15323944
119	0x3e865040	0.262331
120	0xbd4a5100	-0.049393654
121	0xbe2eaa98	-0.17057264
122	0xbbfbb03f	-0.0076809223
123	0xbecc532c	-0.39907205
124	0x3affa6d7	0.0019504678
125	0x3ec89f10	0.39183855
126	0xbeb12141	-0.34595683
127	0xbe8c9b00	-0.27462006
128	0xbe84d25d	-0.25941744
129	0x3c488028	0.012237586
130	0x3f12cdc8	0.5734525
131	0xbec3c916	-0.38239354
132	0xbe0d0a0b	-0.13773362
133	0x3eb93b25	0.36177936
134	0x3d7087db	0.058723312
135	0x3e8f3a2e	0.27974075
136	0x3ec9d356	0.3941905
137	0xbe00baed	-0.12571307
138	0xbb8e594f	-0.0043441425
139	0x3eab7938	0.3349092
140	0xbe905ee7	-0.28197405
141	0x3d920e0c	0.071315855
142	0xbea9b068	-0.331424
143	0xbe05434e	-0.13013956
144	0x3eff542d	0.4986891
145	0xbdd1facf	-0.10252916
146	0xbc646de2	-0.013942214
147	0x3e15ee53	0.14641695
148	0x3e617d07	0.2202035
149	0xbd77beba	-0.060484625
150	0xbe5bb10f	-0.21454261
151	0x3db6e0f9	0.08929629
152	0xbeb3f3a6	-0.35146827
153	0xbca13474	-0.019678332
154	0xbe8acffb	-0.27111802
155	0x3ebb8739	0.36626604
156	0x3da90a1f	0.082538836
157	0xbe25c1e6	-0.16187248
158	0xbe1f68d4	-0.15567333
159	0x3e3725d9	0.17885531
160	0x3efc6f96	0.49303883
161	0x3d840fd0	0.064483285
162	0x3d03c374	0.03216882
163	0x3edf4da3	0.4361392
164	0xbd4d511e	-0.050126188
165	0xbe6885bd	-0.22707267
166	0xbdb9eafb	-0.09078022
167	0xbea0332d	-0.31289044
168	0x3ebbad58	0.36655688
169	0xbe7f98da	-0.24960652
170	0x3df20df9	0.11819071
171	0xbe31fa01	-0.17380525
172	0xbe7a0e6a	-0.24419561
173	0xbe383fca	-0.17993084
174	0xbe0f7439	-0.14009179
175	0x3ec13a5b	0.37739834
176	0x3e06ee2f	0.13176797
177	0xbdb7284e	-0.089432344
178	0xbe81d67a	-0.25358945
179	0x3ef82ac0	0.48470116
180	0x3e44f8ef	0.19235586
181	0xbe077419	-0.13227881
182	0xbe936ed4	-0.28795493
183	0x3cbcc125	0.023041317
184	0xbe2c63bd	-0.16834922
185	0x3ef41ec4	0.47679722
186	0x3d039906	0.032128356
187	0x3e1ef0be	0.15521523
188	0xbe8ed683	-0.27898034
189	0xbe55c797	-0.20876919
190	0xbe9633a4	-0.29336274
191	0xbd6073c9	-0.05479792
192	0xbdf15eea	-0.117856815
193	0x3ebb9389	0.36635998
194	0xbe059739	-0.13045968
195	0xbeeb6d24	-0.45981705
196	0xbe494f3e	-0.19659135
197	0xbe98a0ef	-0.29810283
198	0x3e9f658a	0.31132156
199	0x3dbddb99	0.092704006
200	0xbe99e5f3	-0.3005825
201	0x3c04719d	0.008083728
202	0x3e8bf008	0.27331567
203	0x3e01d95f	0.12680577
204	0xbe824038	-0.2543962
205	0x3e5bf9f4	0.21482068
206	0x3cfa7c7d	0.030576939
207	0x3e496f47	0.19671355
208	0x3d9178ba	0.07103105
209	0xbddb87c3	-0.10719254
210	0xbe77814b	-0.24170415
211	0x3dbeef83	0.09323027
212	0xbf1ed537	-0.6204409
213	0xbec765ec	-0.38944948
214	0x3ca40822	0.02002341
215	0x3f04ecef	0.5192403
216	0x3e247fa6	0.16064319
217	0xbe7c78d3	-0.24655466
218	0xbd9a5f88	-0.075377524
219	0xbcb4a11b	-0.022049477
220	0xbe84159f	-0.25797746
221	0x3eaf57a3	0.3424655
222	0xbd65f73a	-0.056143977
223	0x3dd3ceac	0.10342154
224	0x3ef776ef	0.48332927
225	0x3e98305e	0.297244
226	0x3e568504	0.20949179
227	0xbe7ecbd4	-0.24882442
228	0x3e6a2c0d	0.22868367
229	0x3ed02380	0.40652084
230	0xbc062367	-0.0081871515
231	0x3e0727a3	0.13198714
232	0xbdeab4c4	-0.114602596
233	0x3e73246c	0.23744363
234	0x3eda969f	0.4269304
235	0xbd7085d5	-0.058721382
236	0x3eec4419	0.46145704
237	0xbec9ff90	-0.3945279
238	0xbeef963b	-0.46794304
239	0x3e06fba6	0.13181934
240	0xbe01d001	-0.12677003
241	0x3c533295	0.012890478
242	0x3ed71497	0.42007896
243	0x3e7c33a0	0.24629068
244	0xbd9c98e7	-0.07646351
245	0xbca4a6e5	-0.020099113
246	0xbe4c0005	-0.19921882
247	0xbe918868	-0.28424382
248	0x3dc455bb	0.09586664
249	0x3e282924	0.16421944
250	0x3e2ac14e	0.16675302
251	0xbeb1ac68	-0.34701848
252	0xbe19cff9	-0.15020742
253	0xbd987972	-0.07445039
254	0x3eb811c9	0.3595107
255	0xbe8fc3cd	-0.28079072

transformer_encoder.layers.0.linear1.bias f4 [2048]
0	0x3cb7240e	0.02235606
1	0xbe935363	-0.28774557
2	0xbe3379da	-0.17526951
3	0xbe8a6a4e	-0.2703423
4	0xbe9c68d4	-0.30548728
5	0x3e0b7f30	0.13622737
6	0xbe2e0899	-0.16995467
7	0x3e5bad6c	0.21452874
8	0xbd681ca5	-0.056667943
9	0xbe9663bc	-0.29372966
10	0x3ec8dce0	0.39231014
11	0xbe4671b7	-0.19379316
12	0xbeb1e885	-0.3474771
13	0xbe51b774	-0.20480138
14	0xbe3fac73	-0.18718128
15	0xbed6730a	-0.41884643
16	0x3f05f2cd	0.5232361
17	0x3e32d74e	0.17464945
18	0xbd0d929f	-0.034563657
19	0xbe840c6c	-0.25790727
20	0x3da7b885	0.08189491
21	0xbe5e4a77	-0.21708094
22	0xbe18b0b3	-0.14911155
23	0xbea09f6a	-0.31371623
24	0x3e052fbd	0.13006492
25	0xbdacc1a6	-0.08435373
26	0x3e84ae5c	0.25914276
27	0xbe4fc3ef	-0.20289586
28	0x3e948722	0.29009348
29	0xbdb88193	-0.09009089
30	0x3dbaa6af	0.091138236
31	0x3e2efe4f	0.17089199
32	0x3e7326b9	0.2374524
33	0x3e91d487	0.28482458
34	0xbe89fce8	-0.26950765
35	0xbea6187d	-0.32440558
36	0x3c858d4f	0.016302733
37	0xbda14bfc	-0.07875821
38	0x3cd8ab90	0.026448995
39	0xbea6bf7d	-0.3256797
40	0xbe95d66a	-0.29265147
41	0xbea30140	-0.3183689
42	0x3e4048bf	0.1877775
43	0xbcf5e759	-0.030017542
44	0xbe43e115	-0.1912883
45	0xbe9d6fce	-0.30749363
46	0xbdb0eb84	-0.08638671
47	0x3e6ec3b2	0.2331684
48	0x3e8fca68	0.2808411
49	0xbe601c30	-0.21885753
50	0xbe38455b	-0.17995207
51	0x3e787c7f	0.24266241
52	0x3e012b2a	0.12614122
53	0x3cb9cc98	0.022680566
54	0xbe9c3a2f	-0.3051314
55	0xbd365a48	-0.044519693
56	0xbd478dac	-0.048719093
57	0x3de82a26	0.11336164
58	0xbd9b860e	-0.07593928
59	0xbe420aa9	-0.18949379
60	0xbe2ed692	-0.1707404
61	0xbe717ed8	-0.23583543
62	0xbe57e528	-0.2108351
63	0xbe98ffef	-0.29882762
64	0xbeb2c62c	-0.34916818
65	0xbe385f7d	-0.18005176
66	0x3e236dab	0.15959804
67	0xbedbb6f0	-0.42913008
68	0xbca0545d	-0.019571478
69	0x3dfdd1d4	0.12393537
70	0x3e41a358	0.18909967
71	0xbe72dbc4	-0.23716646
72	0x3e2be110	0.16785073
73	0x3c8e3a11	0.017361673
74	0xbe6a2cf0	-0.22868705
75	0xbe8574e8	-0.26065755
76	0xbdcb20a0	-0.09918332
77	0xbeb365cb	-0.350386
78	0xbeb77cd9	-0.3583744
79	0xbda07d1d	-0.078363635
80	0x3e6fd9d9	0.23422946
81	0x3e74598b	0.23862283
82	0x3e14d32d	0.14533682
83	0xbe7d0020	-0.24707079
84	0xbe098f59	-0.13433589
85	0xbe0f9958	-0.1402334
86	0xbddd4e84	-0.10805991
87	0x3e9bc07d	0.30420294
88	0xbc7eb387	-0.015545732
89	0x3c84a529	0.016192036
90	0xbe14c17f	-0.14526938
91	0xbd59d661	-0.053182963
92	0x3d2ac90f	0.04169565
93	0xbde8be04	-0.113643676
94	0xbe7c4bf3	-0.24638347
95	0xb6c53c7a	-5.878098e-06
96	0xbc9d50f5	-0.019203642
97	0x3e79e11f	0.24402283
98	0xbea55b79	-0.3229635
99	0xbe7e8ba6	-0.24857959
100	0x3dce1c1d	0.10063956
101	0xbd2eca99	-0.04267368
102	0xbe93d3a4	-0.28872406
103	0xbd8c18be	-0.06840657
104	0xbd3ca1f4	-0.046052888
105	0x3d740ef1	0.05958456
106	0xbe987b92	-0.29781777
107	0x3e88226d	0.26588765
108	0x3c5f7764	0.013639305
109	0xbea297e9	-0.31756523
110	0x3c1a9f68	0.0094374195
111	0xbe683a41	-0.22678472
112	0x3da02fd4	0.078216225
113	0xbe92c8df	-0.28668877
114	0x3d25e8a0	0.04050505
115	0xbec4f982	-0.3847161
116	0xbe687f0b	-0.22704713
117	0x3eb9c3b6	0.36282128
118	0xbd42a243	-0.047518026
119	0x3da7fdd5	0.082027115
120	0xbc9b2fef	-0.018943755
121	0x3e36edba	0.17864123
122	0xbe744332	-0.23853758
123	0x3ed5f731	0.41790155
124	0xbe36b42f	-0.17842172
125	0x3ca0ba3b	0.019620052
126	0xbc937013	-0.017997777
127	0xbe7decb4	-0.24797326
128	0xbccb3d9c	-0.024809651
129	0xbd1d1251	-0.038347546
130	0xbe1ce334	-0.15321046
131	0x3d2d5f68	0.042327315
132	0xbe52813b	-0.2055711
133	0x3e71e815	0.23623689
134	0x3dc322dd	0.09528134
135	0xbdf26278	-0.11835188
136	0xbdde14c7	-0.10843807
137	0xbe2500d0	-0.16113591
138	0xbe171cfe	-0.14757153
139	0xbeb91a26	-0.36152762
140	0xbdf2195e	-0.11821245
141	0x3e34ed4a	0.17668644
142	0xbe8e6fb1	-0.2781959
143	0xbad80f2a	-0.0016484011
144	0xbe107035	-0.14105304
145	0x3e1362ad	0.1439311
146	0xbe76db85	-0.24107178
147	0x3e979d04	0.2961198
148	0x3ea2b5fa	0.31779462
149	0xbdfede1d	-0.124447085
150	0x3e7b639e	0.2454972
151	0x3d626f52	0.055281945
152	0x3e7243f2	0.23658732
153	0x3defd2a9	0.11710102
154	0x3e710d3c	0.23540205
155	0xbee99184	-0.45618832
156	0xbe832768	-0.25616002
157	0x3e2f01c2	0.17090514
158	0x3e9fd1a8	0.31214643
159	0xbe3eb687	-0.18624316
160	0xbd73c1ef	-0.05951112
161	0x3dda8355	0.10669581
162	0xbe6f3756	-0.23360953
163	0xbc9f4b74	-0.019445159
164	0xbe29878a	-0.1655561
165	0xbdd4ef79	-0.10397238
166	0xbebd14be	-0.36929888
167	0xbec257e6	-0.37957686
168	0x3e2e184e	0.17001459
169	0xbe0eaf94	-0.13934165
170	0xbd617b21	-0.055049066
171	0xbe71f853	-0.23629884
172	0x3e873148	0.26404786
173	0xbde2bfd6	-0.11071746
174	0xbee991e4	-0.45619118
175	0x3e0d63ac	0.13807553
176	0xbeaad9d0	-0.33369303
177	0xbd812729	-0.06306297
178	0xbea61f08	-0.3244555
179	0xbe1aa40d	-0.15101643
180	0x3ebb86b9	0.36626223
181	0xbe6eccb9	-0.23320283
182	0x3e354e10	0.1770556
183	0xbe97cd80	-0.29648972
184	0x3e76b7ba	0.24093524
185	0xbc9413fd	-0.018075937
186	0xbd546c3b	-0.05186103
187	0xbe95fa91	-0.2929273
188	0xbd7d1cff	-0.06179523
189	0xbe6a2ca4	-0.22868592
190	0x3c97d3fb	0.018533697
191	0x3eb4e222	0.35328776
192	0xbd8625fb	-0.06550213
193	0x399da741	0.00030069987
194	0xbe651ee3	-0.22375064
195	0x3da3a373	0.0799016
196	0x3e25a72e	0.16177055
197	0x3e014f1d	0.12627836
198	0xbe8bf6f5	-0.2733685
199	0xbda5517c	-0.080721825
200	0xbe39fe07	-0.1816331
201	0x3b6f73a1	0.0036537426
202	0x3e9b5146	0.30335444
203	0x3d339e1a	0.04385195
204	0x3e15619b	0.14588015
205	0xbd76c553	-0.060246777
206	0xbd8c86df	-0.06861662
207	0x3d3d719c	0.046250924
208	0x3b1501cb	0.0022736664
209	0xbe63dd0b	-0.2225229
210	0x3ec7db54	0.39034522
211	0xbc5119c0	-0.012762487
212	0x3b85a435	0.004078413
213	0x3e2456db	0.16048758
214	0xbea3c50a	-0.31986266
215	0x3d9b78e2	0.07591416
216	0x3e406510	0.18788552
217	0x3ec02c79	0.3753393
218	0xbe46a0aa	-0.19397226
219	0x3d9f4b7e	0.07778071
220	0x3c40adaf	0.011760159
221	0x3eb3060f	0.3496556
222	0x3e6917e0	0.22763014
223	0xbe247761	-0.16061164
224	0xbf01f838	-0.50769377
225	0x3e827de2	0.25486666
226	0xbe8263d9	-0.25466803
227	0xbe901680	-0.28142166
228	0xbe7e52ea	-0.24836317
229	0x3e74d719	0.23910178
230	0x3e89badd	0.26900378
231	0x3d531c81	0.051540855
232	0x3e7dbabe	0.24778268
233	0x3e571db9	0.21007432
234	0xbdfc6c80	-0.12325382
235	0xbdfc46ed	-0.123182155
236	0x3e861797	0.26189873
237	0x3ed17123	0.4090663
238	0xbe8970d5	-0.26843897
239	0x3dbe2cb1	0.09285868
240	0x3ea20f9e	0.3165254
241	0x3de22f7f	0.110442154
242	0xbec58e8a	-0.3858531
243	0xbe4e5a48	-0.20151627
244	0xbecc948c	-0.39957082
245	0x3ebe2ad9	0.37142065
246	0xbec97691	-0.3934827
247	0xbe2fae51	-0.1715634
248	0x3e34073e	0.17580888
249	0x3dacf2fc	0.08444783
250	0x3e698da4	0.22807938
251	0xbd832bb1	-0.06404818
252	0x3d9698c1	0.07353354
253	0x3dd269a5	0.10274056
254	0x3de48ded	0.11159883
255	0xbe35fccf	-0.1777222

transformer_encoder.layers.0.linear2.weight f4 [6, 2048]
0	0x3b92651a	0.0044676187
1	0x3c50772d	0.012723726
2	0xbc2577cb	-0.010099362
3	0xbd22d376	-0.039752446
4	0xbe5e3ce9	-0.21702923
5	0xbc583917	-0.013197205
6	0xbd840483	-0.06446173
7	0x3df46611	0.1193353
8	0x3e2f730c	0.1713373
9	0xbe12f821	-0.14352466
10	0x3dd5d644	0.104412585
11	0x3cb13d72	0.021635745
12	0x3d08a384	0.033359066
13	0xbebfc86c	-0.37457597
14	0xbe710394	-0.23536521
15	0x3cda8b27	0.026677681
16	0xbd53e0f8	-0.05172822
17	0x3b97103f	0.004610091
18	0x3d151d83	0.036405098
19	0x3d6b1574	0.057393506
20	0x3ded3ef2	0.115842715
21	0x3c72f9d2	0.01483007
22	0x3a581522	0.0008242895
23	0x3cadf100	0.021233082
24	0x3c1b56b6	0.009481123
25	0x3d1d96f8	0.038474053
26	0xbc80abd1	-0.015706928
27	0xbc00f1d2	-0.007870154
28	0x3b9db409	0.0048127216
29	0xbd5302f3	-0.051516484
30	0x3c09e12d	0.0084155025
31	0x3cf83b58	0.030301735
32	0x3b85e573	0.0040861904
33	0xbbc0d710	-0.0058850124
34	0xbcae754f	-0.021296171
35	0xbdd4e24e	-0.10394727
36	0x3c3bccba	0.011462385
37	0xbc1cbedc	-0.009566989
38	0x3c9ba725	0.0190006
39	0x3e066bff	0.13127135
40	0x3ba14fb5	0.004922832
41	0xbcc8e90c	-0.024525188
42	0x3e39f616	0.1816028
43	0x3c760846	0.015016621
44	0x3dbe50db	0.09292766
45	0xbce7ef8b	-0.028312465
46	0x3e5274b3	0.2055233
47	0x3c9e8914	0.019352473
48	0x3c0f45e0	0.008744687
49	0xbe3b7ab7	-0.18308531
50	0x3e066505	0.13124473
51	0xbab7221d	-0.0013971959
52	0x3c4d3897	0.012525699
53	0xbd1e37dd	-0.038627494
54	0xbe2e22cf	-0.17005466
55	0x3b915ff1	0.004436486
56	0xbdfa626e	-0.12225805
57	0xbe1430ca	-0.14471737
58	0xbe44ce7b	-0.19219391
59	0xbe5f7a01	-0.21823885
60	0x3e94b533	0.29044494
61	0x3de8943e	0.113564
62	0xbc1371d2	-0.008999305
63	0x3bfb3ab4	0.00766691
64	0xbe250e3f	-0.16118716
65	0xbcbe99b1	-0.023266645
66	0x3aa82665	0.0012828825
67	0xbdf3ebb0	-0.11910188
68	0xbe9d9e9a	-0.30785066
69	0xbcb9d575	-0.022684792
70	0xbbe12ce0	-0.0068718046
71	0xbd9dd9cf	-0.07707559
72	0xbbb710a8	-0.0055867024
73	0xbab39557	-0.0013701123
74	0x3e85304d	0.26013413
75	0xbe80d469	-0.25162056
76	0xbe15b4a8	-0.14619696
77	0xbc61aad9	-0.013773643
78	0x3c5e28d7	0.013559542
79	0x3c4ad525	0.012379919
80	0xbc34cf28	-0.011035718
81	0x3b56c371	0.00327703
82	0x3c077166	0.008266782
83	0x3c3a16d1	0.011357979
84	0x3e27479c	0.1633591
85	0x3e22d011	0.15899684
86	0x3dd58cf9	0.10427279
87	0xbab68841	-0.0013926105
88	0xbe343853	-0.17599611
89	0x3c940327	0.01806791
90	0xbdc35daa	-0.095393494
91	0xbaa8f18b	-0.0012889368
92	0xbc760d1c	-0.015017774
93	0xbde9a417	-0.11408251
94	0x3e88e9a2	0.26740748
95	0x3c566980	0.013086677
96	0x3c063a5a	0.008192623
97	0xbdd03675	-0.10166637
98	0x3e3b46b4	0.1828869
99	0x39d09496	0.00039783557
100	0x3c84a49e	0.016191777
101	0x3bf965bc	0.0076110046
102	0xbd45a631	-0.048254196
103	0x3cd430a1	0.025902094
104	0x3dbda171	0.09259308
105	0x3db19a68	0.08672029
106	0x3dd51ef8	0.104062974
107	0x3a28599e	0.00064220454
108	0xbc801a9d	-0.01563769
109	0xbb9c4100	-0.004768491
110	0x3b8217f4	0.0039701406
111	0x3f2cd1db	0.67507714
112	0x3c5cf3a1	0.01348582
113	0x3d1cd666	0.038290404
114	0xbdaa5901	-0.083177574
115	0x3d9c532b	0.076330505
116	0x3e8a4280	0.2700386
117	0xbcf8d9ce	-0.030377295
118	0x3ddc2d81	0.10750867
119	0xbbe46729	-0.0069703055
120	0x3dcf9fff	0.10137939
121	0xbd422347	-0.047396924
122	0x3dde3f89	0.10851962
123	0xbd8ba49c	-0.06818506
124	0xbd208782	-0.03919173
125	0x3d85dbc5	0.06536058
126	0xbb8a19d5	-0.004214505
127	0xbcd93d40	-0.026518464
128	0x3cbf3fad	0.023345793
129	0x3e2b8777	0.16750894
130	0xbe808cef	-0.25107524
131	0x3b00cf55	0.001965483
132	0x3f3cd1c5	0.7375758
133	0x3bc3f887	0.0059805545
134	0xbd1b1e36	-0.03787061
135	0xbe0e5f3d	-0.13903518
136	0xb4cb606b	-3.788185e-07
137	0xba3a6135	-0.0007109822
138	0xbcaf6ac3	-0.021413213
139	0xbcdab500	-0.026697636
140	0x3d0ce079	0.03439376
141	0xbe4e5754	-0.201505
142	0xbe5209a2	-0.20511487
143	0x3dbb3ebb	0.09142824
144	0x3dd32f97	0.103118114
145	0xbc6d708e	-0.014492167
146	0x3bc2ae4d	0.0059411884
147	0x3ca2d0d6	0.019874971
148	0x3d3851df	0.044999953
149	0xbe10e77e	-0.14150807
150	0x3b982b01	0.0046437983
151	0x3c82e8fe	0.01598024
152	0x3b92b31b	0.0044769174
153	0xbda91fda	-0.08258028
154	0xbc4ea7e0	-0.012613267
155	0x3dcb5ad9	0.09929437
156	0x3c80702d	0.01567849
157	0x3b2d81b7	0.002647502
158	0x3db9191f	0.090379946
159	0x3d783120	0.060593724
160	0x3cc1fb98	0.02367954
161	0xbc2c5a1c	-0.010519531
162	0x3c3c5df7	0.011497012
163	0x3e498c6d	0.19682474
164	0xbd714339	-0.058902
165	0x3c4f1d1d	0.0126412185
166	0x3e7d86a5	0.24758394
167	0x3cd28694	0.025698937
168	0x3c1b203c	0.0094681345
169	0x3de887ea	0.113540486
170	0xbb647158	-0.0034857597
171	0x3b82d260	0.003992364
172	0xbe0357d2	-0.1282647
173	0x3ccf9e51	0.025344046
174	0x3e40c186	0.18823823
175	0x3f0f284f	0.5592088
176	0xbe7606bf	-0.24026011
177	0x3e463fd6	0.19360289
178	0xbe2f50ca	-0.17120662
179	0xbd8a2ab8	-0.06746429
180	0xbd99e638	-0.07514614
181	0xbe20ecd5	-0.15715344
182	0xbc17e85b	-0.009271706
183	0x3e582751	0.21108748
184	0x3dd92c51	0.10604156
185	0x3c2b3785	0.010450249
186	0xbbf4fcea	-0.007476439
187	0x3da5a180	0.08087444
188	0xbc459ce5	-0.012061332
189	0x3e56bd44	0.20970637
190	0xbabec27a	-0.0014553808
191	0xba56ba4d	-0.0008191213
192	0x3d92567e	0.07145403
193	0xbca5123e	-0.0201503
194	0xba699314	-0.0008910161
195	0xbcdf3e1e	-0.0272513
196	0xbbb79dd1	-0.00560353
197	0xbc341f19	-0.010993742
198	0x3e312db5	0.17302592
199	0x3d576f4a	0.052596368
200	0xbe223786	-0.15841493
201	0xbd1caee7	-0.038252737
202	0xbd8f3682	-0.069928184
203	0x3c960d16	0.018316787
204	0x3b367a26	0.0027843802
205	0xbbdc938b	-0.0067314557
206	0xbc0d9619	-0.008641743
207	0x3c00f5cc	0.007871103
208	0x3ad6ad67	0.0016378582
209	0x3e85f310	0.26162004
210	0xbda42d95	-0.080165066
211	0xbca3007b	-0.01989769
212	0x3d9d9d89	0.07696063
213	0x3a3ee4cf	0.000728202
214	0x3ee2b3a7	0.4427769
215	0xbe0e74aa	-0.13911691
216	0xbc25f939	-0.01013022
217	0xbd874c87	-0.06606393
218	0xbdf02788	-0.1172629
219	0x3c75fc83	0.015013817
220	0x3e50e7c9	0.20400919
221	0x3d759879	0.059959862
222	0x3db1ce47	0.086819224
223	0x3eb95430	0.36197042
224	0xbb928d00	-0.004472375
225	0x3d17ad65	0.037030596
226	0xbc557c5a	-0.013030136
227	0xbc807838	-0.015682325
228	0x3c71dcfb	0.0147621585
229	0xbe768185	-0.24072845
230	0xbdf0847f	-0.117440216
231	0xbdc9f74f	-0.098616235
232	0x39e46bd8	0.000435679
233	0x3c82e286	0.015977155
234	0x3e00b897	0.12570415
235	0x3c83498b	0.016026279
236	0xbd022fca	-0.031783856
237	0x3de77256	0.11301105
238	0xbe302c06	-0.17204294
239	0xbc82187c	-0.015880816
240	0xbdff126f	-0.12454688
241	0xbd94f021	-0.072723635
242	0x3de7b3cd	0.11313591
243	0x3b9dd359	0.0048164544
244	0x3ea89469	0.32925728
245	0xbbdc3565	-0.0067202323
246	0x3b9cb6a3	0.004782514
247	0x3df0e416	0.11762254
248	0x3a9139ef	0.0011079888
249	0xbc2db854	-0.010603029
250	0xbcbbccb0	-0.022924751
251	0x3c85d28b	0.016335746
252	0x3bfcb953	0.007712522
253	0xbcaf6798	-0.021411702
254	0x3e0fa698	0.14028394
255	0xbdf1d79c	-0.11808702

transformer_encoder.layers.0.linear2.bias f4 [6]
0	0xbc240e5e	-0.010013191
1	0x3c692326	0.014229571
2	0xbc59a237	-0.013283304
3	0x3c2ab818	0.010419868
4	0xbbe06253	-0.0068476587
5	0xbc08f2b3	-0.008358645

transformer_encoder.layers.0.norm1.weight f4 [6]
0	0x3f89850b	1.0743726
1	0x3f835da2	1.026295
2	0x3f908e10	1.1293354
3	0x3f5b9401	0.8577271
4	0x3f7a7559	0.9783531
5	0x3f9404ed	1.1564003

transformer_encoder.layers.0.norm1.bias f4 [6]
0	0x3d8ca8c4	0.06868127
1	0x3b3e51d4	0.0029040473
2	0xba07d4d4	-0.0005181555
3	0xbe52fda9	-0.20604576
4	0x3d414e74	0.04719396
5	0x3d9a25e1	0.07526756

transformer_encoder.layers.0.norm2.weight f4 [6]
0	0x3f7b5b8b	0.9818656
1	0x3f4e9ebe	0.8071097
2	0x3f813430	1.0094051
3	0x3f98964a	1.1920865
4	0x3f87b5b2	1.0602324
5	0x3f7b9b81	0.98284155

transformer_encoder.layers.0.norm2.bias f4 [6]
0	0x3d31821c	0.043336973
1	0x3d8f56e0	0.06998992
2	0xbc8be424	-0.01707656
3	0xbe3fcc80	-0.18730354
4	0x3ca54a5d	0.02017706
5	0x3c42f6fa	0.011899704

transformer_encoder.layers.1.self_attn.in_proj_weight f4 [18, 6]
0	0x3f1a071c	0.601671
1	0x3dda6ae3	0.10664918
2	0x3e1d3a9d	0.1535439
3	0xbe5a7d2f	-0.21336816
4	0xbf10b3cf	-0.56524366
5	0xbe912d96	-0.28355092
6	0x3e449521	0.19197513
7	0xbeb75371	-0.35805848
8	0xbeba61b0	-0.36402655
9	0x3e993c8e	0.29929012
10	0xbe81869c	-0.2529801
11	0x3e8be9d6	0.2732684
12	0xbf06ce50	-0.5265856
13	0x3e6248e8	0.22098124
14	0x3edc5681	0.43034747
15	0xbdd51b42	-0.1040559
16	0x3f1484f7	0.5801539
17	0x3e0dd076	0.13849053
18	0xbed7788b	-0.42084154
19	0x3eb35b85	0.3503076
20	0xbf03ebd5	-0.51531726
21	0x3db9db3e	0.0907502
22	0x3eb20397	0.34768364
23	0x3dc013cf	0.09378778
24	0x3cca4354	0.024690308
25	0xbec81368	-0.39077306
26	0xbec71f40	-0.3889103
27	0x3f37de30	0.71823406
28	0x3e592ce2	0.21208528
29	0xbeef5c74	-0.46750224
30	0xbe903a41	-0.28169444
31	0xbd28d6ca	-0.041220464
32	0x3d732963	0.05936564
33	0xbed6e925	-0.4197475
34	0x3d190b21	0.03736413
35	0xbe0d6360	-0.1380744
36	0xbe695c0c	-0.2278902
37	0x3eca7f48	0.39550233
38	0xbf0d3a4a	-0.5516707
39	0x3db681f2	0.08911504
40	0xbe6b52ef	-0.22980855
41	0xbef506de	-0.47856802
42	0x3deb3a12	0.114856854
43	0xbedc4442	-0.43020827
44	0xbea52393	-0.32253703
45	0xbcb6b2a0	-0.022301972
46	0xbeb7b4e2	-0.3588019
47	0xbf2faca3	-0.686228
48	0xbe18f487	-0.1493703
49	0x3e9a2b3b	0.30111107
50	0x3d2cbed9	0.042174194
51	0x3e8c14a4	0.27359498
52	0x3d935e8b	0.07195767
53	0xbe379e94	-0.17931587
54	0x3efda47e	0.4953956
55	0xbe8701db	-0.26368603
56	0x3e01cdf0	0.12676215
57	0x3de24f3d	0.1105027
58	0x3e735ffb	0.23767082
59	0xbe532250	-0.20618558
60	0xbdfbb59a	-0.12290497
61	0x3f8be2bf	1.0928572
62	0xbe2acc6f	-0.16679548
63	0x3cb6c040	0.022308469
64	0x3e8e191c	0.27753532
65	0x3e49e500	0.19716263
66	0xbe9efc55	-0.3105189
67	0xbf6871de	-0.9079875
68	0x3e4135c7	0.1886817
69	0x3ca876a4	0.020564385
70	0xbd22d6ab	-0.039755505
71	0x3e2f977f	0.17147635
72	0x3d61ccc1	0.05512691
73	0x3e66a344	0.22523218
74	0xbcbe0130	-0.023193926
75	0x3d227e94	0.039671496
76	0x3e954daa	0.29160815
77	0xbe8d05ff	-0.27543637
78	0xbcd143d5	-0.02554504
79	0x3eaee349	0.3415778
80	0xbec5473b	-0.38530907
81	0x3ef40c15	0.47665468
82	0x3edc674b	0.43047556
83	0x3e8efb7a	0.27926236
84	0xbe4bca9f	-0.19901513
85	0x3c6f68a3	0.01461235
86	0xbeee1a6f	-0.46504542
87	0x3ec7c7c0	0.39019585
88	0xbf1ab5f0	-0.60433865
89	0x3e437fc0	0.19091702
90	0x3e8e76e2	0.27825075
91	0xbd429be3	-0.047511946
92	0xbeaa8489	-0.3330424
93	0xbef98130	-0.48731375
94	0x3d8c03b3	0.06836643
95	0x3edd76b5	0.4325463
96	0xbef8c022	-0.48584086
97	0xbe2c0da6	-0.16802081
98	0x3e7c6949	0.24649538
99	0x3e5c0086	0.21484575
100	0xbe3f192c	-0.18661946
101	0xbe94687e	-0.2898597
102	0x3eb1c052	0.3471704
103	0xbeaf532d	-0.34243146
104	0x3ecf310d	0.4046711
105	0xbec3eb78	-0.38265586
106	0xbf09aff6	-0.5378412
107	0xbe8ddea5	-0.27708927

transformer_encoder.layers.1.self_attn.in_proj_bias f4 [18]
0	0x3c08a1f2	0.008339392
1	0x3c92a834	0.017902471
2	0xbd8b11c1	-0.06790496
3	0x3e58c36a	0.21168295
4	0x3ebf1197	0.37318107
5	0xbeb9a051	-0.36255124
6	0x3a4942d1	0.0007677498
7	0x3a43b863	0.00074661354
8	0xb9c6c22d	-0.00037910175
9	0x3aa331c2	0.0012450742
10	0x3a6fde56	0.0009150257
11	0xb987816d	-0.00025845636
12	0x3d4719b2	0.04860849
13	0x3ba843da	0.0051350417
14	0xbd7f4067	-0.06231728
15	0x3dbd7300	0.0925045
16	0xbd780549	-0.060551915
17	0x3db6332f	0.08896481

transformer_encoder.layers.1.self_attn.out_proj.weight f4 [6, 6]
0	0x3da49af8	0.080373704
1	0xbe7a4e0c	-0.24443835
2	0x3edcb9a2	0.43110377
3	0xbe9ee985	-0.31037536
4	0xbed90d45	-0.42392936
5	0x3db591a0	0.088656664
6	0xbea707f2	-0.3262325
7	0x3dd2cddb	0.1029317
8	0x3ebbf54d	0.36710587
9	0xbeb0d9b3	-0.3454109
10	0x3ec394eb	0.38199553
11	0x3e83edfc	0.25767505
12	0xbe67eae2	-0.22648194
13	0xbe940eec	-0.28917634
14	0xbe9d5b01	-0.30733493
15	0x3d33ad5f	0.04386651
16	0x3e981b27	0.29708216
17	0xbeb6d273	-0.35707435
18	0xbe813199	-0.25233153
19	0xbe4ea460	-0.20179892
20	0xbe95cf58	-0.29259753
21	0x3ebd7167	0.37000582
22	0xbde49243	-0.1116071
23	0x3e9f469b	0.31108555
24	0xbe2b0673	-0.16701679
25	0xbe05552b	-0.1302077
26	0x3e1ac12c	0.15112752
27	0x3e6abb81	0.2292309
28	0xbd689493	-0.056782316
29	0x3e9a21e2	0.30103976
30	0x3e6e5238	0.23273551
31	0x3eec1de5	0.46116558
32	0xbe30ffcb	-0.17285077
33	0x3eb87e20	0.36033726
34	0x3ea111bc	0.31458843
35	0xbdef8074	-0.11694422

transformer_encoder.layers.1.self_attn.out_proj.bias f4 [6]
0	0xbb2cd609	-0.0026372692
1	0xbdcca6e1	-0.09992767
2	0x3d16df3b	0.036833983
3	0xbd17bf6c	-0.03704779
4	0x3e1b1e4e	0.15148279
5	0x3d3ccf7f	0.04609632

transformer_encoder.layers.1.linear1.weight f4 [2048, 6]
0	0x3e18ee28	0.149346
1	0x3e44e023	0.19226126
2	0xbd621cb1	-0.055203144
3	0xbe5fc3ca	-0.21852031
4	0xbeeb6a51	-0.4597955
5	0x3d48d8a4	0.04903473
6	0x3e774fec	0.24151582
7	0xbe1929aa	-0.149573
8	0x3d959ec9	0.073056765
9	0xbeee4037	-0.46533367
10	0xbe6a9a63	-0.22910456
11	0x3e791614	0.24324828
12	0xbe1143b1	-0.14185978
13	0xbe27fe0d	-0.16405506
14	0xbe4c4095	-0.19946511
15	0x3e368a55	0.17826207
16	0xbdcdd589	-0.10050494
17	0x3ebb913b	0.3663424
18	0x3ec9959c	0.39371955
19	0x3e1e498b	0.15457742
20	0xbd537939	-0.05162928
21	0x3de407cb	0.11134299
22	0x3e07d565	0.13264997
23	0x3e6a9473	0.22908191
24	0xbe3682d8	-0.1782335
25	0x3eeb876b	0.46001753
26	0x3eaed7d1	0.3414903
27	0xbe849454	-0.25894415
28	0xbf04cf4f	-0.5187883
29	0xbe26c67a	-0.1628665
30	0xbd9a8c9b	-0.075463496
31	0xbec76f51	-0.38952115
32	0x3ecd69ea	0.4011987
33	0xbe1a080b	-0.1504213
34	0x3a9c1073	0.0011906758
35	0xbeb991d1	-0.36244062
36	0xbc890171	-0.01672432
37	0x3e8bc7b8	0.2730081
38	0xbe79d355	-0.24397023
39	0x3c7e6e68	0.015529253
40	0x3d8c0339	0.06836552
41	0x3e103587	0.14082919
42	0x3e7f125f	0.24909352
43	0xbeaa69cb	-0.3328384
44	0xbda9aa2f	-0.08284413
45	0xbe41dc62	-0.18931726
46	0x3d9b27cc	0.0757595
47	0x3e91fd22	0.28513438
48	0x3d8aec82	0.067833915
49	0x3e83cf30	0.2574401
50	0x3e8632c8	0.26210618
51	0xbe937633	-0.28801116
52	0x3ea7d3c7	0.3277876
53	0x3ee6c121	0.4506922
54	0xbeb984d0	-0.3623414
55	0x3e6569fb	0.2240371
56	0xbebbe78e	-0.367001
57	0xbea83e48	-0.32860017
58	0x3e6150a0	0.22003412
59	0xbead8d60	-0.33896923
60	0xbc9333f5	-0.017969111
61	0x3d94f93d	0.07274101
62	0x3ed28cee	0.41123146
63	0xbf18ad5d	-0.5963953
64	0x3ec3daf8	0.38252997
65	0x3e87677e	0.26446146
66	0xbdeaf3d2	-0.11472286
67	0x3e4c347b	0.19941895
68	0xbe840299	-0.25783232
69	0xbd27b44b	-0.040943425
70	0xbe384018	-0.179932
71	0xbe614339	-0.219983
72	0x3e58d1ea	0.21173826
73	0xbd39a90c	-0.04532723
74	0x3e343cf5	0.17601378
75	0x3e3c87dc	0.18411201
76	0xbe814e5f	-0.25255105
77	0x3ede3e19	0.43406752
78	0xbead36f6	-0.33830994
79	0xbe2d47fa	-0.16921988
80	0xbe8bc6a4	-0.27299988
81	0xbee4ae5e	-0.44664282
82	0xbe5768c1	-0.21036054
83	0xbce18c5a	-0.027532745
84	0x3dbf30df	0.09335493
85	0xbda7dd25	-0.08196477
86	0x3e89fca6	0.26950568
87	0xbec1d6f1	-0.378593
88	0xbe592e44	-0.21209055
89	0xbe58a50e	-0.21156713
90	0x3e166485	0.14686783
91	0xbebfff8e	-0.3749966
92	0x3e7aa865	0.244783
93	0x3d5674eb	0.052357595
94	0x3f299f7d	0.66258985
95	0xbc7dee0e	-0.015498651
96	0x3dd8fe9e	0.105954394
97	0xbbcd842a	-0.0062718587
98	0x3dff2ab2	0.12459315
99	0xbef6246c	-0.48074663
100	0x3ea844dc	0.32865036
101	0x3a809ff6	0.0009813297
102	0x3e431fcc	0.19055098
103	0x3e914a1c	0.28376853
104	0xbe5b86e1	-0.21438171
105	0xbed07cba	-0.4072016
106	0x3e0ca4b6	0.13734707
107	0xbe93c93e	-0.28864473
108	0xbe6e24d6	-0.2325624
109	0x3e261908	0.16220486
110	0x3e47dcfe	0.19517896
111	0xbc11001c	-0.008850124
112	0xbd897c6b	-0.06713184
113	0xbe5f5e04	-0.21813208
114	0x3eb0efd5	0.34557977
115	0xbe3c9b8a	-0.18418708
116	0xbe7f3b20	-0.24924898
117	0x3d65cb6a	0.056102194
118	0xbe036dbe	-0.12834832
119	0x3e3dd728	0.18539107
120	0xbd56bd4b	-0.052426618
121	0xbe9df2b2	-0.30849224
122	0x3d99f8e6	0.07518177
123	0xbeb33efb	-0.35008988
124	0x3dc9c958	0.098528564
125	0x3e6f256e	0.23354122
126	0xbd9b2052	-0.07574524
127	0xbead6cab	-0.3387197
128	0xbeb59a7c	-0.35469425
129	0xbdae593a	-0.08513112
130	0x3ec6137f	0.3868675
131	0x3d206788	0.039161235
132	0xbeccf2b0	-0.40028906
133	0x3e4e1d2d	0.20128317
134	0xbc5577c9	-0.013029047
135	0x3ea1593b	0.3151339
136	0x3ef0dfb1	0.47045663
137	0xbd873d60	-0.06603503
138	0x3dd11a84	0.102101356
139	0x3e5e41fe	0.21704862
140	0xbe779233	-0.24176864
141	0x3d12b738	0.035819262
142	0xbed9b9a6	-0.4252445
143	0xbddf0816	-0.10890214
144	0x3e33bf22	0.1755338
145	0xbe087c05	-0.1332856
146	0xbb8e24e9	-0.004337896
147	0x3e3fd201	0.18732454
148	0x3e814875	0.25250593
149	0xbe0cb8a4	-0.1374231
150	0xbd896f18	-0.067106426
151	0x3e5ed67d	0.21761508
152	0xbeacede1	-0.33775237
153	0xbdaf8d07	-0.08571821
154	0xbedcc040	-0.43115425
155	0x3e9e9e8a	0.3098033
156	0x3cb9de2e	0.022688951
157	0xbe00525d	-0.12531419
158	0xbd952019	-0.07281513
159	0x3e1a5ae8	0.1507374
160	0x3ed4b7f5	0.41546598
161	0x3dd380c3	0.10327294
162	0x3e19e2c3	0.15027909
163	0x3e88cc9e	0.2671861
164	0xbd68c276	-0.056826077
165	0xbe169adf	-0.14707516
166	0xbdf71003	-0.12063601
167	0xbe856df6	-0.26060456
168	0x3e8c40e1	0.2739325
169	0xbe4d09b8	-0.20023239
170	0x3d9dceb8	0.07705444
171	0xbe52e8dd	-0.20596643
172	0xbe9dcb17	-0.30819008
173	0xbe3c6987	-0.1839963
174	0xbe1e212a	-0.15442339
175	0x3eb6d2a8	0.35707593
176	0xbd9502ff	-0.07275962
177	0xbd79d8d8	-0.060997814
178	0xbe3d5db5	-0.18492778
179	0x3ea9d11c	0.3316735
180	0xbc99ea73	-0.018788552
181	0xbe254d1e	-0.16142699
182	0xbe987c95	-0.2978255
183	0x3d3ac4f6	0.045597993
184	0xbe15c6cc	-0.14626616
185	0x3ef0f4b5	0.47061697
186	0x3cc4aac5	0.02400721
187	0x3e28230d	0.16419621
188	0xbe6c4585	-0.23073395
189	0xbe5f87b6	-0.21829113
190	0xbead7830	-0.33880758
191	0xbd4a0eb7	-0.04933044
192	0xbdf1d2d9	-0.11807794
193	0x3e524c6d	0.20536967
194	0xbe48d6ac	-0.19613141
195	0xbec05f0e	-0.3757252
196	0xbe19ffa5	-0.15038927
197	0xbebbd9dd	-0.36689654
198	0x3dfb01d5	0.12256209
199	0x3d0c2613	0.034215998
200	0xbe81d9d4	-0.25361502
201	0x3bff46c4	0.0077904183
202	0x3ec87ff1	0.39160112
203	0x3e5b28b1	0.21402241
204	0xbea2892a	-0.31745273
205	0x3da9058e	0.082530126
206	0xbdbfabbb	-0.09358927
207	0x3e549c69	0.2076279
208	0x3e61f0b0	0.22064471
209	0xbd5b8e23	-0.05360235
210	0xbe907d3c	-0.28220546
211	0xbbb4d545	-0.005518588
212	0xbe3bb6f8	-0.18331516
213	0xbeda33f6	-0.42617768
214	0xbd98fec7	-0.0747047
215	0x3eb1b5a7	0.34708902
216	0x3d4de63a	0.05026839
217	0xbea24122	-0.31690317
218	0xbd22fcd9	-0.039791916
219	0xbc8eca39	-0.017430412
220	0xbe9fbabd	-0.31197158
221	0x3eaf5825	0.34246936
222	0xbe4089a3	-0.18802504
223	0x3daf86ee	0.08570658
224	0x3ecb9908	0.3976519
225	0x3eb0cd8e	0.34531826
226	0x3e07b75b	0.13253538
227	0xbe8cfc6c	-0.27536333
228	0x3decbd2e	0.11559521
229	0x3eca9536	0.39566964
230	0xbd62cde6	-0.05537214
231	0x3e42f90a	0.19040313
232	0xbe4813c7	-0.19538794
233	0x3e3991ad	0.18121977
234	0x3df71c7d	0.120659806
235	0xbe758b15	-0.23978837
236	0x3f07c7c1	0.53039175
237	0xbe868821	-0.26275733
238	0xbe8fd3e3	-0.28091344
239	0x3e5aec39	0.21379174
240	0x3c997a65	0.01873512
241	0x3dc0468d	0.093884565
242	0x3ed8cbe2	0.4234305
243	0x3e6e211f	0.23254822
244	0xbe28b03a	-0.16473475
245	0xbc3d510b	-0.011554967
246	0xbea9d84b	-0.3317283
247	0xbe750b1c	-0.23930019
248	0x3d839981	0.06425763
249	0x3e1c4cd3	0.15263681
250	0x3e796d4f	0.24358104
251	0xbe7c7ab1	-0.24656178
252	0x3ca08285	0.019593487
253	0xbda6f55a	-0.08152266
254	0x3e7a2945	0.24429806
255	0xbece16e8	-0.4025185

transformer_encoder.layers.1.linear1.bias f4 [2048]
0	0x3dbc9922	0.09208895
1	0xbf089756	-0.5335592
2	0xbe1d2ddf	-0.1534953
3	0xbeb825d3	-0.35966358
4	0xbe5864b4	-0.21132165
5	0x3e31109e	0.17291495
6	0xbe538009	-0.2065431
7	0x3e2d5d57	0.16930138
8	0xbe08055e	-0.13283297
9	0xbe9d4cd6	-0.30722684
10	0x3ec795dd	0.38981524
11	0xbe3b16c1	-0.18270399
12	0xbec8f9d6	-0.3925311
13	0xbe99a6b9	-0.30010012
14	0xbe1a2261	-0.15052177
15	0xbec24f3a	-0.3795107
16	0x3eb31eae	0.34984344
17	0x3dc912a6	0.0981801
18	0xbbe9ba30	-0.007132791
19	0xbe9e3a88	-0.3090403
20	0x3cc7ca32	0.024388406
21	0xbeb4c96e	-0.3530993
22	0xbe11462a	-0.14186922
23	0xbea112cf	-0.31459662
24	0x3e119ff7	0.14221178
25	0xbdd29995	-0.102832
26	0x3e59b85a	0.21261731
27	0xbe3a6929	-0.18204178
28	0x3e92addf	0.28648278
29	0xbd941559	-0.07230634
30	0x3de4277d	0.11140344
31	0x3e23c46c	0.15992898
32	0x3e759e8a	0.23986259
33	0x3e81c05b	0.25342068
34	0xbe86802c	-0.26269662
35	0xbf084b15	-0.53239566
36	0x3cb5d7d1	0.022197636
37	0xbcb947db	-0.022617271
38	0x3daab580	0.083354
39	0xbef8404c	-0.48486555
40	0xbe8b67c9	-0.2722762
41	0xbeafbcdb	-0.34323773
42	0x3e459096	0.19293436
43	0xbd8008b8	-0.06251663
44	0xbe4ecd08	-0.201954
45	0xbec742c2	-0.3891812
46	0xbdb84fb2	-0.08999576
47	0x3e35cfc6	0.1775504
48	0x3e09999e	0.13437507
49	0xbdf4fd22	-0.11962344
50	0xbe932dce	-0.28745884
51	0x3e81f2bb	0.253805
52	0x3e0be140	0.13660145
53	0xbd432c19	-0.047649477
54	0xbe6f0672	-0.23342302
55	0xbd3afe4a	-0.045652665
56	0xbe637e0d	-0.22216053
57	0xbaf567a0	-0.0018722899
58	0xbe4f1762	-0.20223764
59	0xbe78073f	-0.24221514
60	0xbe1fbd6d	-0.15599604
61	0xbe9d00d4	-0.30664694
62	0xbe1e53b8	-0.15461624
63	0xbe94a7de	-0.29034323
64	0xbeec7659	-0.46184042
65	0xbe29f9d6	-0.16599211
66	0x3e170767	0.14748918
67	0xbecb1ddd	-0.3967122
68	0xbdec1c03	-0.1152878
69	0x3d9659a6	0.07341318
70	0x3e5e1b87	0.21690188
71	0xbea46ce0	-0.32114315
72	0x3dd3d01c	0.10342428
73	0x3d414899	0.047188375
74	0xbe9c4bec	-0.30526674
75	0xbecf8830	-0.4053359
76	0xbe321a14	-0.1739276
77	0xbece9fe2	-0.40356356
78	0xbef7d2c5	-0.48402992
79	0xbd293bf1	-0.04131693
80	0x3e95aa9f	0.29231736
81	0x3e8899a6	0.26679724
82	0x3df0841b	0.11743947
83	0xbe8d95a9	-0.27653244
84	0xbe71c92c	-0.23611897
85	0xbe1a2ab7	-0.15055357
86	0xbe194f96	-0.14971766
87	0x3e8c5fa3	0.27416715
88	0xbda9aa30	-0.08284414
89	0x3c6c3d05	0.014418845
90	0xbe879146	-0.26478022
91	0xbd6888b6	-0.056771003
92	0x3d19bc3f	0.03753304
93	0xbdfb50f4	-0.122713
94	0xbeb07dc1	-0.34470943
95	0x3d02d4a9	0.03194109
96	0xbd7f3d3b	-0.062314253
97	0x3e55b0dc	0.20868248
98	0xbeb873a6	-0.36025733
99	0xbe8f808e	-0.28027767
100	0x3dc22159	0.09479017
101	0xbd0e4c3a	-0.034740664
102	0xbeb007a0	-0.34380817
103	0xbe2546b5	-0.16140254
104	0xbe3f666d	-0.18691416
105	0xbcced66c	-0.025248729
106	0xbed26ffe	-0.41101068
107	0x3e9f08f9	0.31061533
108	0xbca75cc2	-0.020429973
109	0xbe79553f	-0.24348925
110	0x3cdca922	0.026936118
111	0xbe8a60d6	-0.27027005
112	0x3ddb3da8	0.10705119
113	0xbe94ed71	-0.29087403
114	0x3d05dbd3	0.032680344
115	0xbe7fa83d	-0.24966522
116	0xbeb3fdfe	-0.35154718
117	0x3ece924b	0.40345988
118	0xbe7296fc	-0.23690408
119	0x3e198b79	0.14994611
120	0xbe1a28b8	-0.15054595
121	0x3ddd38b6	0.108018324
122	0xbe696d60	-0.2279563
123	0x3ea30864	0.3184234
124	0xbe2d4f27	-0.16924725
125	0xbdd50dc7	-0.104030184
126	0xbd3de219	-0.0463582
127	0xbe7c42fe	-0.2463493
128	0xbcdc6d3c	-0.026907556
129	0xbdd1c32f	-0.102423064
130	0xbead4a59	-0.33845785
131	0x3d41fbf1	0.04735941
132	0xbebad1bb	-0.36488137
133	0x3e338942	0.17532828
134	0x3d729594	0.05922468
135	0xbe4f3af5	-0.20237334
136	0xbdc92a1a	-0.09822483
137	0xbe4ee29b	-0.2020363
138	0xbe615f81	-0.22009088
139	0xbeda7fd4	-0.4267565
140	0xbdcc1d7e	-0.09966563
141	0x3d7f92c2	0.06239582
142	0xbec3739c	-0.3817414
143	0xbd0159e7	-0.03157988
144	0xbe4171cf	-0.18891071
145	0x3d80dee8	0.06292516
146	0xbe54f849	-0.20797838
147	0x3e71eb00	0.23624802
148	0x3ea41d4d	0.32053605
149	0xbddedc48	-0.10881859
150	0x3e969b30	0.29415274
151	0x3d6bcb75	0.05756708
152	0x3e64809b	0.22314684
153	0x3dd9f009	0.10641486
154	0x3e743a3f	0.23850344
155	0xbec0c7e8	-0.37652516
156	0xbe9bb0ea	-0.30408412
157	0x3d3a4491	0.045475546
158	0x3e8066c4	0.25078404
159	0xbe4918c3	-0.19638352
160	0x3cf1d4bb	0.029520383
161	0x3e2167a1	0.15762188
162	0xbe8a1041	-0.26965526
163	0xbe03c69f	-0.12868737
164	0xbe52fbbf	-0.20603846
165	0xbdd1699e	-0.10225223
166	0xbe902e73	-0.28160438
167	0xbec74404	-0.3891908
168	0x3e0d92a7	0.13825475
169	0xbe2d1c88	-0.16905415
170	0xbdbffae4	-0.093740255
171	0xbe584b45	-0.21122463
172	0x3e4641bc	0.19361013
173	0xbdbd7bc6	-0.092521235
174	0xbea4884d	-0.3213524
175	0x3cdad66b	0.02671357
176	0xbeafa167	-0.34302828
177	0xbe246098	-0.16052473
178	0xbecfd0e6	-0.40589064
179	0xbe4f8c0f	-0.20268272
180	0x3e9a366c	0.30119646
181	0xbe8657cb	-0.26238856
182	0x3dfcae04	0.12337878
183	0xbecb39f4	-0.39692652
184	0x3e7bac8f	0.24577545
185	0xbd63d0b0	-0.05561894
186	0xbd4e908c	-0.05043082
187	0xbeba5a65	-0.3639709
188	0x3c76f85d	0.015073863
189	0xbe8986a2	-0.2686053
190	0x3c0f308a	0.0087396
191	0x3ea41678	0.32048392
192	0xbd32a212	-0.043611594
193	0xbd3b44d1	-0.045719925
194	0xbe612751	-0.21987654
195	0x3d370544	0.044682756
196	0x3dff9852	0.12480225
197	0x3e187ca4	0.14891297
198	0xbeae6c52	-0.34067017
199	0xbdc9a077	-0.09845059
200	0xbe708cbb	-0.23491184
201	0x3c865f2a	0.0164028
202	0x3e7b4ad2	0.2454026
203	0x3dbfee48	0.093716204
204	0x3e5a4199	0.21314086
205	0xbd96eff5	-0.07369987
206	0xbd2de38d	-0.042453337
207	0x3c337092	0.010952132
208	0x3d3373c8	0.04381159
209	0xbe9dc682	-0.30815512
210	0x3e9cb552	0.30607086
211	0xbc1fb268	-0.009747125
212	0xbc524951	-0.012834863
213	0x3e0f6163	0.14001994
214	0xbe4f14fa	-0.20222846
215	0xbd4706bf	-0.048590418
216	0x3df1bd62	0.118037
217	0x3eaf754a	0.34269172
218	0xbec10e97	-0.37706444
219	0x3e16629b	0.14686053
220	0xbd6e2333	-0.058139037
221	0x3e886b5c	0.2664441
222	0x3e551b35	0.2081116
223	0xbe2a7455	-0.1664594
224	0xbed99653	-0.424975
225	0x3e94f594	0.2909361
226	0xbe7285a4	-0.23683792
227	0xbede69f5	-0.43440214
228	0xbeb8fe0a	-0.36131316
229	0x3e3c2a1a	0.18375435
230	0x3e7196e8	0.23592722
231	0x3cf9343d	0.030420417
232	0x3e8492eb	0.2589334
233	0x3e291191	0.16510607
234	0xbe6bc96a	-0.23026052
235	0xbe19cc35	-0.15019305
236	0x3e895b16	0.26827306
237	0x3e9e8723	0.30962476
238	0xbeddd13b	-0.43323693
239	0x3d1c4c08	0.038158447
240	0x3eb4ee8c	0.35338247
241	0xbad5ceca	-0.0016312238
242	0xbee8f280	-0.45497513
243	0xbe4685bc	-0.19386953
244	0xbef089ac	-0.46980035
245	0x3eb8e3e9	0.36111382
246	0xbeb9046b	-0.36136183
247	0xbe6ff3d0	-0.23432851
248	0x3e256e7b	0.16155426
249	0x3df39a15	0.11894623
250	0x3ea86eb6	0.32896966
251	0xbd1cfd7b	-0.038327675
252	0x3dd81f2a	0.10552819
253	0x3e06a435	0.13148578
254	0x3da46d7e	0.080286965
255	0xbe8657d1	-0.26238874

transformer_encoder.layers.1.linear2.weight f4 [6, 2048]
0	0xbcccad81	-0.024985077
1	0xbe04028e	-0.128916
2	0xbc1fd74f	-0.009755923
3	0x3e754f1f	0.23955964
4	0x3e7ec363	0.24879222
5	0xbdb3c7c5	-0.087783374
6	0xbdb231dc	-0.08700916
7	0x3c74141c	0.014897373
8	0x3cffd251	0.031228216
9	0xbc87613c	-0.016525857
10	0xbd8f3079	-0.06991667
11	0xbd1a0882	-0.03760577
12	0x3dbeffdc	0.09326145
13	0xbe0aa47a	-0.13539305
14	0x3d3347b0	0.04376954
15	0xbe1ab6aa	-0.15108743
16	0xbc3578e5	-0.011076187
17	0x39d6ef9c	0.00040995784
18	0x3ce1f31e	0.027581748
19	0x3d3ec6b5	0.04657622
20	0xbdd92848	-0.10603386
21	0xbe13f62d	-0.14449377
22	0xbc68ed2d	-0.014216703
23	0xbce2facd	-0.027707482
24	0xbc732437	-0.014840177
25	0xbd11824f	-0.035524663
26	0x3a4c283c	0.0007787978
27	0xbd7a3bf1	-0.06109232
28	0x3cb65a90	0.02225998
29	0xbdc8c6b4	-0.098035246
30	0x3cc8c1ce	0.024506476
31	0xbc4baf56	-0.01243194
32	0xbcfbcef7	-0.030738337
33	0x3cbb04af	0.022829382
34	0xbd15c4b9	-0.036564562
35	0xbe146cfe	-0.14494702
36	0x3cd78763	0.026309675
37	0x3caac6fa	0.020846833
38	0xbcb87f6a	-0.022521693
39	0xbcd0f21b	-0.02550607
40	0x3beaa16a	0.0071603553
41	0xbc9c0ea8	-0.019049957
42	0xbd6b2f22	-0.057417996
43	0xbce92df2	-0.028464291
44	0xbc54f1f8	-0.012997143
45	0x3e81d9dd	0.2536153
46	0xbdde99d9	-0.10869188
47	0x3ddeda88	0.10881525
48	0x3b3114d4	0.0027020471
49	0x3e719009	0.23590101
50	0xbe1c40a2	-0.1525903
51	0xbc845585	-0.01615406
52	0xbca17b1c	-0.019712023
53	0xbbe1f449	-0.006895576
54	0x3c783f2e	0.015151782
55	0xbccd9a52	-0.025098
56	0x3d22aa63	0.039713275
57	0xbb577b17	-0.0032879764
58	0xbd0ab459	-0.0338634
59	0x3e83f938	0.25776076
60	0xbca47687	-0.02007605
61	0xbc3aa690	-0.011392251
62	0x3ba7b919	0.005118501
63	0xbc47889b	-0.012178565
64	0xbc5e2a0c	-0.013559829
65	0x3ab4913a	0.0013776191
66	0x3c5a7ce0	0.013335437
67	0x3e9e75fe	0.30949396
68	0x3e255897	0.16147076
69	0x3c556d89	0.0130266035
70	0xbc54d977	-0.012991301
71	0x3da1e2ad	0.07904563
72	0x3c8acd73	0.016943669
73	0xbaad751f	-0.0013233757
74	0xbd440009	-0.047851596
75	0x3e5819e3	0.21103625
76	0x3e43d64b	0.19124715
77	0xbd034e0e	-0.03205686
78	0xbd1fe5ed	-0.039037634
79	0xbb95f0c3	-0.00457582
80	0x3c49856f	0.012299879
81	0x3c7143e7	0.014725662
82	0x3c0ad7e4	0.008474324
83	0x3ce4ae1a	0.02791505
84	0xbded7feb	-0.11596664
85	0xbd238d78	-0.039929837
86	0x3e185b60	0.14878607
87	0xbc7a1c7b	-0.015265579
88	0xbd9b8951	-0.075945504
89	0x3d849246	0.06473212
90	0xbd84ad63	-0.064783834
91	0xbc12c621	-0.00895837
92	0x3d0f68aa	0.035011925
93	0xbc89ca85	-0.016820202
94	0x3e2c7b26	0.16843852
95	0xbcb9ae4c	-0.022666119
96	0xbd2c257c	-0.042027935
97	0x39b6af82	0.0003484451
98	0x3e41c725	0.18923624
99	0xbd615e63	-0.055021655
100	0x3bbf4dc2	0.005838127
101	0x3c58a328	0.013222493
102	0xbd5f1a9f	-0.054468747
103	0x3d0454ad	0.032307316
104	0xbd530012	-0.05151374
105	0xbbf57282	-0.007490457
106	0x3e212485	0.15736587
107	0xbb12edc7	-0.0022419558
108	0x3ceb9de9	0.02876182
109	0xbd10ba2e	-0.035333805
110	0x3bd30bfc	0.0064406376
111	0x3d653d49	0.05596665
112	0xbce475fa	-0.027888287
113	0x3cd977b5	0.026546339
114	0xbd29bda6	-0.04144063
115	0x3c7585cb	0.014985512
116	0xbcf2d323	-0.029641693
117	0xbcd2bcbf	-0.025724767
118	0x3d612b9b	0.054973226
119	0xbc1bcf40	-0.0095098615
120	0x3e5b1e42	0.21398261
121	0xbc8879b2	-0.016659591
122	0x3ca78e0f	0.020453481
123	0x3cbb5ca6	0.022871327
124	0xbd2427d7	-0.040077057
125	0x3b6b06d1	0.0035862217
126	0x3c44df8c	0.012016188
127	0xbbe3f2b3	-0.0069564222
128	0x3cce60db	0.025192669
129	0x3dc79ca1	0.097466715
130	0xbba9e843	-0.0051851585
131	0xbd3a33ed	-0.045459677
132	0x3e27608d	0.16345425
133	0x3c173810	0.009229675
134	0x3c291b34	0.010321427
135	0xbd261747	-0.040549543
136	0x3cbdf503	0.02318812
137	0x3c1cc5bb	0.009568627
138	0x3c85f477	0.016351921
139	0xbc8465a1	-0.016161742
140	0xbd39a265	-0.045320887
141	0x3d3c1150	0.045914948
142	0x3da4fb91	0.08055795
143	0xbc72d81a	-0.01482203
144	0x3d36f7bb	0.044669848
145	0xbc99fe1f	-0.018797932
146	0xbd48b84d	-0.049003888
147	0x3da996c9	0.08280713
148	0x3cfaa881	0.030597927
149	0x3e1ecda7	0.15508138
150	0x3b001604	0.0019544372
151	0x3bd7e352	0.006588378
152	0xbb21a1a7	-0.0024663003
153	0xbce947f6	-0.028476696
154	0xbd0128d8	-0.031533092
155	0x3ea11b04	0.31465924
156	0xbc401e1e	-0.0117259305
157	0x3c475a7d	0.01216757
158	0x3c005ef7	0.007835141
159	0xbd150371	-0.036380235
160	0x3d0cf23c	0.0344107
161	0xbc354dc8	-0.011065908
162	0xbccaaf17	-0.024741692
163	0xbd98faf0	-0.074697375
164	0xbc93a67f	-0.018023727
165	0xbbbb76bb	-0.005720941
166	0x3db40b05	0.08791164
167	0xbb241025	-0.0025034037
168	0x3cc95d6f	0.024580685
169	0xbd27231a	-0.04080496
170	0x3d012775	0.03153177
171	0xbd394b3a	-0.045237757
172	0xbd352e8e	-0.04423385
173	0x3d53c91a	0.051705457
174	0x3da16b69	0.07881815
175	0x3c44b3da	0.012005771
176	0x3d136f7b	0.035994988
177	0xbd2b8e26	-0.04188361
178	0x3e380ca5	0.17973574
179	0xbd8de6d0	-0.069287896
180	0xbcba385f	-0.022731958
181	0x3e258eed	0.16167803
182	0x3c938b4b	0.018010756
183	0xbe175d57	-0.147817
184	0x3d0e1b92	0.03469426
185	0x3d5af206	0.053453468
186	0x3d11c908	0.03559211
187	0x3e059971	0.13046815
188	0xbbdeb780	-0.0067967772
189	0xbd1e15b3	-0.038594913
190	0x3ab337da	0.0013673261
191	0x3c4b9c62	0.012427421
192	0x3d618220	0.055055737
193	0xbc2b3959	-0.010450684
194	0x3aa84af3	0.001283972
195	0xbca78661	-0.020449819
196	0xbbbbc341	-0.005730063
197	0x3c6ef478	0.014584653
198	0xbd1a53bf	-0.037677523
199	0x3d0bca7a	0.034128644
200	0xbdc5a4d6	-0.096505806
201	0x3d20dc41	0.03927255
202	0xbcc0fffe	-0.023559567
203	0x3d06b0ac	0.03288333
204	0xbc9d8afb	-0.01923131
205	0x3b2f937f	0.0026790795
206	0x392049dc	0.00015286304
207	0x3b255bd3	0.0025231733
208	0x3c572c34	0.013133097
209	0xbd1cc62f	-0.03827494
210	0x3cf79872	0.030224059
211	0x3bb2163a	0.0054347785
212	0x3e1f9628	0.15584624
213	0xbc95b8a3	-0.018276518
214	0x3db7a59a	0.08967133
215	0xbd59c3af	-0.053165134
216	0x3d3e3df4	0.0464458
217	0xbc079925	-0.008276259
218	0x3e20a7de	0.15689036
219	0xbd9feaa3	-0.07808425
220	0xbdc2c41c	-0.09510061
221	0x3d7fbc8c	0.06243567
222	0x3b9a7339	0.0047134426
223	0x3dba490e	0.09095965
224	0xbd76aa2d	-0.060220886
225	0x3bc9162d	0.0061366768
226	0x3e7eef17	0.24895893
227	0xbda119a7	-0.07866221
228	0x3e23839a	0.15968171
229	0xbcff7b38	-0.031186685
230	0xbc327f8c	-0.010894667
231	0x3ddbb3b7	0.10727637
232	0x3d03f26a	0.032213606
233	0xbb669e77	-0.0035189667
234	0xbcead963	-0.028668111
235	0xbcf73daa	-0.03018077
236	0xbb8e0517	-0.004334103
237	0xbcdd6159	-0.027023958
238	0xbe289377	-0.16462503
239	0xbc8467b8	-0.016162738
240	0xbd44231e	-0.047885053
241	0xbc242733	-0.010019111
242	0x3c92c48c	0.017915986
243	0xbc99534d	-0.018716479
244	0xbd699c1a	-0.057033636
245	0x3d26208d	0.040558387
246	0x3cb92878	0.022602305
247	0x3dd57c04	0.10424045
248	0x3d10e94c	0.03537874
249	0xbbfa837b	-0.007645068
250	0xbcd3dafe	-0.02586126
251	0xbcc96b3d	-0.024587268
252	0x3c3393ba	0.010960514
253	0xbbe5a5dd	-0.007008298
254	0x3d48cf95	0.04902609
255	0x3e18678c	0.1488325
