Production_Environment/models_tested/best_model_t7jul_lat_ext_tr.3.40.pth (torch, 474446 bytes, 29 tensors)

norm.weight f4 [6]
0	0x3f800000	1.0
1	0x3f800000	1.0
2	0x3f800000	1.0
3	0x3f800000	1.0
4	0x3f800000	1.0
5	0x3f800000	1.0

norm.bias f4 [6]
0	0x00000000	0.0
1	0x00000000	0.0
2	0x00000000	0.0
3	0x00000000	0.0
4	0x00000000	0.0
5	0x00000000	0.0

transformer_encoder.layers.0.self_attn.in_proj_weight f4 [18, 6]
0	0x3f0d8550	0.55281544
1	0x3e3f009f	0.1865258
2	0xbb736082	-0.003713638
3	0x3eb40ef4	0.35167658
4	0x3e5d6179	0.21619214
5	0xbefdda10	-0.4958043
6	0x3e83b791	0.25725988
7	0xbc056846	-0.0081425365
8	0xbd438bc6	-0.04774072
9	0x3ee68d19	0.45029524
10	0xbe7476ce	-0.23873445
11	0xbe83095c	-0.25593078
12	0xbe4d9576	-0.20076546
13	0xbd9e5399	-0.07730789
14	0x3b13f41b	0.0022575918
15	0x3ea5c640	0.32377815
16	0x3be086e8	0.0068520196
17	0xbea5fb76	-0.32418412
18	0xbe9ab3fe	-0.30215448
19	0xbed3d6fe	-0.41374964
20	0x3e8cbe93	0.27489147
21	0x3ee4884d	0.4463524
22	0xbe798d5b	-0.24370329
23	0x3de584e8	0.112069905
24	0x3f0adb15	0.5424054
25	0xbea4ced5	-0.3218905
26	0x3e7172a2	0.23578885
27	0xbe1a27dd	-0.15054269
28	0x3e4a61e8	0.19763911
29	0x3edd2bda	0.4319752
30	0xbd67b6e3	-0.0565709
31	0xbe1ab3e2	-0.15107682
32	0xbefa15cb	-0.48844752
33	0xbc24267a	-0.010018939
34	0xbec09109	-0.37610653
35	0xbedb22bc	-0.42799938
36	0x3f0181bb	0.5058858
37	0xbe8f49d2	-0.27986008
38	0x3ec3800b	0.38183627
39	0x3ee148e1	0.44000915
40	0xbe18e90c	-0.1493265
41	0x3d3819bd	0.04494642
42	0x3ec8be3a	0.3920763
43	0xbe8e2529	-0.27762726
44	0xbe6cc23f	-0.23120974
45	0xb970abe9	-0.00022952225
46	0x3eb1844e	0.34671253
47	0x3e957619	0.29191664
48	0xbe98b149	-0.29822758
49	0xbf0a43e0	-0.5400982
50	0xbcb97c27	-0.022642208
51	0x3d6e13b3	0.058124255
52	0xbe7ffdad	-0.24999113
53	0x3e93503f	0.2877216
54	0x3ee55db8	0.44798064
55	0xbf0cbbc5	-0.54974014
56	0x3d8a6e54	0.06759325
57	0x3edf1bb9	0.43575838
58	0x3e8b9e13	0.2726904
59	0x3e23c873	0.15994434
60	0x3da76525	0.08173589
61	0x3da151bd	0.078769185
62	0xbd8c0a51	-0.06837905
63	0xbed134e6	-0.4086067
64	0x3ed8dd28	0.4235623
65	0x3e8e0603	0.27738962
66	0xbefe6329	-0.49685028
67	0xbec6ce24	-0.38829148
68	0x3ea12862	0.31476122
69	0xbee01d41	-0.4377232
70	0xbe474252	-0.19458893
71	0x3dfa2443	0.122139476
72	0x40075de8	2.1151066
73	0xbea043dc	-0.31301773
74	0xbe82cd2b	-0.25547156
75	0xbd76e341	-0.06027532
76	0x3ec017c5	0.37518135
77	0x3e081260	0.1328826
78	0xbefd608b	-0.4948772
79	0x3e140936	0.14456639
80	0x3f7524f2	0.957595
81	0xbd06ff5a	-0.032958366
82	0xbcc418db	-0.023937633
83	0xbec3ec45	-0.38266197
84	0x3f880f55	1.0629679
85	0x3fa31f49	1.2743922
86	0x3f8de1b3	1.1084503
87	0xbeed294a	-0.46320564
88	0x3f97885b	1.1838487
89	0x3f6933f8	0.91094923
90	0xc0269eed	-2.60345
91	0xbe194638	-0.14968193
92	0xbf0d45d6	-0.55184686
93	0xbe0e77f2	-0.13912943
94	0x3e66603a	0.22497645
95	0xbecbd56f	-0.39811274
96	0x3fcab114	1.583529
97	0x3f00aedd	0.5026682
98	0x3f86e315	1.053805
99	0xbef821cc	-0.48463285
100	0xbe9b4cd2	-0.30332047
101	0x3edabb44	0.42720997
102	0x3f6ae909	0.91761833
103	0x3da5e5b9	0.08100457
104	0x3dcfa7be	0.10139416
105	0x3e2b990c	0.16757601
106	0x3dbff684	0.09373191
107	0x3ebad690	0.36491823

transformer_encoder.layers.0.self_attn.in_proj_bias f4 [18]
0	0x3d0e7690	0.03478104
1	0x3dce3208	0.100681365
2	0x3c918488	0.017763391
3	0xbcde2352	-0.027116451
4	0x3d92b2ad	0.07162986
5	0xbd84028f	-0.064458005
6	0x3c93ddc0	0.018050075
7	0x3cd83ec6	0.02639712
8	0xbd1d9790	-0.03847462
9	0xbd76d2bd	-0.06025957
10	0xbcca112b	-0.02466639
11	0xba9b4493	-0.0011845998
12	0xbe1f48f7	-0.15555178
13	0x3f8a744e	1.0816743
14	0x3fa1cab8	1.263999
15	0xbf7bbbfe	-0.9833373
16	0x3f2f93a9	0.68584687
17	0x3ed7f694	0.42180312

transformer_encoder.layers.0.self_attn.out_proj.weight f4 [6, 6]
0	0x3ecb32ab	0.39687094
1	0xbeec7719	-0.46184614
2	0xbeb78447	-0.35843107
3	0xbcbbd792	-0.02292994
4	0xbe5e607d	-0.21716495
5	0xbe998651	-0.29985288
6	0xbd5f1afb	-0.05446909
7	0x3db61198	0.088900745
8	0xbea68bec	-0.32528627
9	0x3dc692fa	0.09696002
10	0x3e8179f5	0.25288358
11	0xbdd8f589	-0.10593707
12	0x3e328750	0.1743443
13	0x3d0c222d	0.03421228
14	0x3da21f00	0.07916069
15	0xbe6c3275	-0.23066123
16	0xbe1f7f24	-0.15575844
17	0xbeb0a86f	-0.34503505
18	0x3ed35b7f	0.41280743
19	0xbe1b0c46	-0.151414
20	0x3dfe92b2	0.12430324
21	0xbebad4c4	-0.36490452
22	0x3dba802b	0.09106477
23	0x3ec40fae	0.38293213
24	0x3e2dab4b	0.16959874
25	0xbd882d7a	-0.06649299
26	0x3e803222	0.25038248
27	0xbe9c42d4	-0.30519736
28	0x3f03e1d3	0.51516455
29	0x3d70d695	0.05879839
30	0xbdb041f6	-0.08606331
31	0xbe87f2af	-0.2655234
32	0x3eea73eb	0.45791563
33	0xbdfa5e10	-0.12224972
34	0xbde5b974	-0.11217013
35	0x3c45b613	0.012067336

transformer_encoder.layers.0.self_attn.out_proj.bias f4 [6]
0	0xbfce54e3	-1.6119655
1	0xbdb45e75	-0.08807079
2	0x3eb20752	0.3477121
3	0x3f1fee57	0.6247305
4	0x3f1be2c8	0.60892916
5	0x3f0995c2	0.5374414

transformer_encoder.layers.0.linear1.weight f4 [2048, 6]
0	0x3d9c711a	0.0763876
1	0xbd313087	-0.04325917
2	0x3e84d7a6	0.25945777
3	0xbdae0a63	-0.08498075
4	0xbde25f4e	-0.11053334
5	0x3eb06822	0.34454447
6	0xbcff09eb	-0.031132659
7	0x3f048d53	0.51778144
8	0xbcc94ef1	-0.024573775
9	0x3c3c6836	0.011499455
10	0xbe99715e	-0.29969305
11	0x3e165bdd	0.1468348
12	0xbc3c1d76	-0.011481633
13	0xbd642297	-0.05569705
14	0x3ece170d	0.4025196
15	0x3e392dbe	0.18083856
16	0x3e2fb6a5	0.17159517
17	0x3dbecd2f	0.093164794
18	0x3e5e3948	0.21701539
19	0xbea6c52b	-0.32572302
20	0x3cb4449c	0.022005372
21	0xbe079ee3	-0.13244204
22	0x3e957337	0.29189464
23	0xbeb2767d	-0.34856024
24	0xbecdcdf3	-0.4019619
25	0x3e5e41d9	0.21704806
26	0x3dbde3d4	0.092719704
27	0x3e7aae02	0.24480441
28	0x3e7bc5c5	0.24587162
29	0x3ecd6eb5	0.40123525
30	0x3e067aa7	0.13132726
31	0x3e96835f	0.29397103
32	0xbe9f5514	-0.31119597
33	0x3e2bae6f	0.1676576
34	0xbd7bfd8c	-0.061521098
35	0x3eadc0cb	0.33936152
36	0xbcfe21b3	-0.031021928
37	0xbe7edaa3	-0.24888091
38	0x3ef68d24	0.48154557
39	0x3e05cdcc	0.13066787
40	0xbe3beb4e	-0.1835148
41	0x3da08a9f	0.0783894
42	0xbeb48811	-0.3526006
43	0xbd3c60d2	-0.045990773
44	0xbe88807a	-0.2666052
45	0xbe53b8eb	-0.2067601
46	0x3eace73b	0.33770165
47	0xbd72f03e	-0.059311144
48	0xbd13fbbe	-0.036128752
49	0xbdefc344	-0.11707166
50	0x3e663648	0.22481644
51	0xbe242246	-0.160287
52	0xbe999bfd	-0.30001822
53	0x3e4ba6d1	0.19887854
54	0xbeb3370d	-0.35002938
55	0xbe7cd447	-0.24690352
56	0x3e2e3405	0.17012031
57	0xbe3b8e95	-0.1831611
58	0xbe8defc9	-0.27722004
59	0xbe7fa162	-0.24963906
60	0xbc9ecd84	-0.019385107
61	0x3ea0ff0b	0.31444582
62	0xbe0ff7fc	-0.14059442
63	0xbd41a3ae	-0.047275238
64	0xbe467e3f	-0.19384097
65	0x3dabfc06	0.08397679
66	0x3f256ed9	0.64622265
67	0x3e270fe5	0.16314657
68	0xbd4a65e3	-0.049413573
69	0xbed18c30	-0.40927267
70	0x3d5c1ed5	0.05374034
71	0xbe9668d8	-0.29376864
72	0x3e4b0c97	0.19829021
73	0x3e57963e	0.21053407
74	0x3d8de704	0.06928828
75	0xbf22ca65	-0.6359008
76	0x3f223d16	0.6337446
77	0xbebaceb9	-0.36485842
78	0xbda9c89c	-0.08290216
79	0xbe6314f2	-0.22175959
80	0xbdadf68e	-0.08494292
81	0xbbcdf12f	-0.006284855
82	0x3dfe710b	0.12423905
83	0x3e55274f	0.20815776
84	0x3f0b8479	0.5449901
85	0xbf1786ac	-0.5918987
86	0x3c807274	0.015679576
87	0xbe0e9aba	-0.13926211
88	0xbb6feb0d	-0.0036608607
89	0x3e949841	0.2902241
90	0xbf38927d	-0.72098523
91	0x3dce2331	0.10065306
92	0xbe0eba47	-0.13938247
93	0x3e5c0baa	0.21488824
94	0x3efb7daa	0.49119312
95	0x3cd7f21e	0.026360568
96	0x3f067a8b	0.52530736
97	0x3eef4360	0.4673109
98	0x3ea85f36	0.3288514
99	0xbf15894e	-0.58412635
100	0x3e275648	0.16341507
101	0x3e6bf231	0.23041607
102	0x3e70f3c3	0.23530488
103	0xbdf29847	-0.11845451
104	0xbeaf7100	-0.342659
105	0x3d47f711	0.048819605
106	0x3da66675	0.08125011
107	0x3ec58e94	0.3858534
108	0x3ec600eb	0.38672575
109	0x3d40880a	0.047004737
110	0xbf07f870	-0.5311346
111	0xbe51115c	-0.20416778
112	0xbea29c8c	-0.3176006
113	0x3d0cba9d	0.034357656
114	0x3e1bcab1	0.1521404
115	0xbe4477b5	-0.1918629
116	0xbe571806	-0.21005258
117	0x3d84b9be	0.0648074
118	0x3ea7bd51	0.32761624
119	0x3e9d4f5f	0.30724618
120	0x3dd303f6	0.1030349
121	0xbeac2ac8	-0.3362639
122	0xbe3466a5	-0.17617281
123	0xbecf8437	-0.4053056
124	0xbebe2752	-0.37139374
125	0xbe29ccc5	-0.1658202
126	0xbe80fe59	-0.25194052
127	0xbecacc76	-0.39609116
128	0x3dfc1915	0.123094715
129	0xbeabfa95	-0.33589616
130	0x3f04abb3	0.5182449
131	0xbed51a11	-0.4162145
132	0x3e16130d	0.14655705
133	0xbde01f60	-0.10943484
134	0x3f3e4d10	0.7433634
135	0xbf4fab96	-0.81121194
136	0x3d5e913e	0.054337732
137	0xbc8d3f74	-0.01724217
138	0xbe09a200	-0.13440704
139	0x3e957f92	0.2919889
140	0xbe878c34	-0.26474154
141	0x3e1aca70	0.15116286
142	0xbdef5944	-0.11686948
143	0x3d93c7a5	0.072158135
144	0x3dfc8ffe	0.12332152
145	0x3ea3e478	0.32010245
146	0x3e26ec52	0.16301087
147	0x3e9de245	0.30836692
148	0x3ea88f4e	0.32921833
149	0x3ec76823	0.38946638
150	0xbd8e8767	-0.0695942
151	0x3e3f4816	0.18679842
152	0xbe0565e8	-0.13027155
153	0x3ddc5bac	0.107596725
154	0x3e915e9b	0.2839249
155	0x3e813fbc	0.25243938
156	0xbe1a956e	-0.15096065
157	0x3e4c2c5a	0.19938794
158	0x3ec15e1e	0.37767118
159	0x3e0ccff6	0.13751206
160	0x3d878220	0.06616616
161	0xbe72cb73	-0.23710422
162	0xbefce514	-0.49393523
163	0xbea2d7b4	-0.31805193
164	0x3ef85f05	0.48509994
165	0xbf72e71b	-0.9488389
166	0x3f19128d	0.5979393
167	0x3e53659f	0.20644234
168	0x3e774022	0.24145558
169	0x3eeaad89	0.45835522
170	0x3f3689df	0.71304125
171	0xbf26978f	-0.6507501
172	0x3b42f1ae	0.0029746103
173	0x3ef4a5df	0.477828
174	0x3e884e32	0.26622158
175	0xbf41f9bb	-0.75771683
176	0x3eb43098	0.35193324
177	0xbec2bf40	-0.38036537
178	0x3e631b3c	0.22178358
179	0xbe8feec5	-0.28111854
180	0x3ec2bb0f	0.3803334
181	0xbee410f9	-0.445442
182	0x3e58aaa7	0.21158849
183	0xbee3daa7	-0.44502756
184	0xbb4cf7de	-0.003127567
185	0x3ddb3208	0.10702902
186	0xbee15b14	-0.440148
187	0xbe569eaf	-0.2095897
188	0xbe9674cc	-0.29385984
189	0xbda496f6	-0.08036606
190	0xbe0ad424	-0.13557488
191	0x3dbc2ed8	0.09188622
192	0xbea1b5a2	-0.31583887
193	0xbe02de1f	-0.12780045
194	0x3e5baecd	0.214534
195	0x3e545f8a	0.2073957
196	0x3dc525bd	0.09626339
197	0xbd36ac8a	-0.04459814
198	0xbedb95fa	-0.4288786
199	0x3ea488d3	0.3213564
200	0xbe06e446	-0.13173017
201	0x3e35d53c	0.17757124
202	0x3df168f1	0.11787594
203	0xbe011940	-0.12607288
204	0xbe669c1d	-0.2252049
205	0xbecf90bd	-0.40540114
206	0x3d845a56	0.06462543
207	0x3e1440df	0.14477871
208	0x3e9c6588	0.30546212
209	0x3e98cac8	0.2984221
210	0x3e0deb9f	0.13859414
211	0xbed96272	-0.4245792
212	0x3e62c247	0.22144423
213	0xbed41f09	-0.41429928
214	0xbe3df7b6	-0.18551525
215	0xbeee6856	-0.46563977
216	0x3df7f93c	0.121080846
217	0x3f075610	0.52865696
218	0x3e8ee422	0.27908427
219	0x3dde153a	0.108438924
220	0xbe57bf87	-0.21069156
221	0x3b603c9b	0.0034215811
222	0x3d29724e	0.041368775
223	0x3ed632b9	0.41835573
224	0x3e883222	0.26600748
225	0x3e498fa9	0.19683708
226	0x3ed57b7e	0.4169578
227	0xbea44a38	-0.32087874
228	0xbc9255d0	-0.017863184
229	0x3f422523	0.75837916
230	0x3f258f0b	0.6467139
231	0xbeebb28a	-0.46034652
232	0xbeb4c581	-0.35306934
233	0xbc0bcf9c	-0.008533385
234	0x3eb78491	0.35843328
235	0x3e938f3c	0.28820217
236	0x3d85d155	0.065340675
237	0xbe9c4d30	-0.3052764
238	0xbe23edda	-0.16008702
239	0xbea00055	-0.31250253
240	0xbe8f81bb	-0.28028664
241	0x3e89d936	0.2692353
242	0xbe68af11	-0.22723033
243	0xbdeeeb82	-0.11666013
244	0xbe10f38f	-0.1415541
245	0x3e292e4b	0.16521566
246	0x3f0652ae	0.5246991
247	0xbf052a01	-0.5201722
248	0x3ebaa667	0.3645508
249	0xbe57ddc8	-0.21080697
250	0xbd331b70	-0.04372734
251	0x3dbbfe9f	0.091794245
252	0x3ef06179	0.46949366
253	0xba00201d	-0.0004887598
254	0xbf18b3e6	-0.59649503
255	0xbe8c2b09	-0.27376583

transformer_encoder.layers.0.linear1.bias f4 [2048]
0	0x3e9781ea	0.29591304
1	0xbd8e5254	-0.069492966
2	0x3da4af7a	0.08041282
3	0x3de9f9a5	0.11424569
4	0xbe484eeb	-0.19561355
5	0xbd97b937	-0.07408374
6	0xbea0ec4a	-0.31430274
7	0x3ee2027a	0.44142514
8	0x3e12344b	0.1427776
9	0x3d72a0a1	0.05923522
10	0x3dccf582	0.100077644
11	0x3ea76a12	0.32698113
12	0xbd1451c4	-0.03621079
13	0x3db78d10	0.089624524
14	0xbe7185b6	-0.23586163
15	0x3c57684c	0.013147425
16	0x3e522899	0.205233
17	0x3cb7be24	0.022429533
18	0xbe42dca8	-0.19029486
19	0xbe8af0fe	-0.27136987
20	0x3ca49082	0.020088438
21	0x3eb20b7c	0.34774387
22	0x3e971645	0.29509178
23	0xbed392b2	-0.41322857
24	0xbc24e42d	-0.010064167
25	0x3e424756	0.18972525
26	0xbc665f65	-0.01406083
27	0xbe1d1101	-0.15338518
28	0xbe6c5837	-0.23080526
29	0xbd145dea	-0.036222376
30	0x3ec5a599	0.38602903
31	0x3e4461af	0.19177888
32	0x3b056573	0.0020354658
33	0x3c179c08	0.009253509
34	0xbce61e94	-0.028090753
35	0xbcca7ff1	-0.02471921
36	0xbe4c6aca	-0.19962612
37	0xbd72b625	-0.059255738
38	0x3e69d4a7	0.22835027
39	0x3e2ff3f9	0.17182912
40	0x3e39c537	0.18141638
41	0xbe024d74	-0.12724859
42	0x3cf9c4b6	0.030489307
43	0x3e50a19e	0.20374152
44	0x3e44cee3	0.19219546
45	0xbe8d142f	-0.2755446
46	0xbea9c081	-0.3315468
47	0xbe0c4351	-0.13697554
48	0xbe60c12d	-0.2194869
49	0xbec89480	-0.39175797
50	0x3e6ca579	0.23109998
51	0x3ecc1d56	0.39866132
52	0xbdf9a299	-0.12189216
53	0x3d61769c	0.055044755
54	0x3e3be9a4	0.18350846
55	0xbd1845f7	-0.0371761
56	0xbdbb852d	-0.09156261
57	0xbe4b2b61	-0.19840766
58	0x3eaabf97	0.33349296
59	0x3e0b7914	0.13620406
60	0x3e5b4cf6	0.21416077
61	0x3eaf8b8b	0.3428615
62	0x3e806781	0.25078967
63	0xbe64ed1b	-0.22356074
64	0x3e894346	0.26809138
65	0x3e95c22f	0.29249713
66	0x3e93e14a	0.2888282
67	0xbebc1d00	-0.36740875
68	0xbec5186a	-0.3849519
69	0x3e0be4b2	0.13661459
70	0xbe132762	-0.14370492
71	0x3e19bc42	0.15013221
72	0x3e9368be	0.2879085
73	0x3e4e64aa	0.20155588
74	0x3de3fa54	0.11131731
75	0x3e7a1773	0.24423008
76	0xbe553d70	-0.20824218
77	0xbe1b32e6	-0.15156135
78	0x3e2f60a2	0.17126706
79	0x3e84bc1a	0.2592476
80	0x3d05703b	0.032577734
81	0x3dc0ed23	0.0942023
82	0xbe05c628	-0.13063872
83	0xbe254b3a	-0.16141978
84	0xbe92370b	-0.2855762
85	0xbed0fd4c	-0.4081825
86	0x3e5d91cd	0.2163765
87	0x3e140a8e	0.14457151
88	0x3dd81fc2	0.10552932
89	0x3e0544be	0.13014504
90	0xbda726d9	-0.081617065
91	0xbe6db2a7	-0.23212682
92	0x3ec02c05	0.37533584
93	0x3dedf6e7	0.116193585
94	0x3d97bc89	0.07409007
95	0xbcd05e75	-0.025435666
96	0xbea0405a	-0.31299096
97	0xbebb68aa	-0.3660329
98	0x3e44fd5a	0.19237271
99	0x3c90526d	0.017617429
100	0x3e9661ad	0.29371396
101	0x3edc2aca	0.43001395
102	0xbe8f2553	-0.27958164
103	0xbe365b57	-0.17808281
104	0xbe0bcd4a	-0.1365253
105	0xbe32433a	-0.17408457
106	0x3e0df5cd	0.13863297
107	0x3d55b569	0.05217496
108	0xbe31e659	-0.17373027
109	0xbe879db3	-0.26487502
110	0xbdb1a311	-0.086736806
111	0x3e79b470	0.24385238
112	0x3e1079c9	0.14108957
113	0xbe873694	-0.26408827
114	0x3e89b05e	0.2689237
115	0xbd11f5c0	-0.035634756
116	0x3e3bc33d	0.18336196
117	0xbd9ff9de	-0.0781133
118	0x3e8e89b3	0.2783943
119	0xbe0c02c3	-0.13672929
120	0xbe4fd41a	-0.20295754
121	0xbe97dbb8	-0.2965982
122	0x3e0c67a4	0.13711411
123	0x3de33151	0.11093391
124	0x3d0aaeea	0.033858217
125	0x3ec94fee	0.39318794
126	0xbe30b8dc	-0.17258018
127	0xbecd770f	-0.40129897
128	0xbd38fbeb	-0.045162123
129	0x3e1f180a	0.15536514
130	0x3d830ca6	0.06398897
131	0xbda2a4a2	-0.079415575
132	0xbe1ec797	-0.15505825
133	0xbdf9ca13	-0.12196746
134	0xbe9a95a7	-0.301923
135	0x3d2acf9d	0.0417019
136	0xbdd5da4e	-0.10442029
137	0x3e2a42ff	0.1662712
138	0x3e9680b1	0.2939506
139	0xbeae1dc1	-0.34007075
140	0xbe51aeba	-0.20476809
141	0xbe79d63d	-0.24398132
142	0xbe8bf3b9	-0.27334383
143	0xbdf9e9dd	-0.12202809
144	0xbd9c4128	-0.07629615
145	0xbe175afc	-0.14780802
146	0x3ca39b50	0.01997152
147	0x3ea98b21	0.3311396
148	0xbcbd8c97	-0.023138328
149	0x3c40b9ec	0.011763077
150	0xbe116a5e	-0.14200732
151	0x3ebd4476	0.36966294
152	0xbe0ddcfd	-0.13853832
153	0x3e99d9d8	0.30049014
154	0x3eb8c434	0.3608719
155	0xbe0454e7	-0.12923013
156	0xbe31ea1f	-0.17374466
157	0x3e86844d	0.26272812
158	0xbc0a614a	-0.008446047
159	0xbdea2fd2	-0.11434902
160	0xbd50c558	-0.05096945
161	0x3ddf2810	0.10896313
162	0x3e44af9e	0.19207618
163	0x3e22f14b	0.15912358
164	0x3eb27f28	0.34862638
165	0x3dbbbf3c	0.091673344
166	0xbe3e910b	-0.18610017
167	0x3e908de4	0.28233254
168	0xbd230688	-0.03980115
169	0xbe359781	-0.17733575
170	0x3e4b3c0a	0.19847122
171	0x3e238abc	0.15970892
172	0x3dbf8d6a	0.093531445
173	0x3e4fcacb	0.20292203
174	0x3cc8a72e	0.02449378
175	0xbd3a2cf4	-0.045453027
176	0x3b8550b2	0.0040684575
177	0x3d98922b	0.07449754
178	0x3d0e886b	0.034798067
179	0x3e25229f	0.16126488
180	0x3ea209ab	0.31648
181	0x3e201aba	0.15635195
182	0x3ea78b4e	0.3272347
183	0x3df0f44c	0.11765346
184	0x3e895214	0.26820433
185	0x3e8cc869	0.2749665
186	0xbdd680db	-0.10473796
187	0x3eb793d7	0.3585498
188	0x3e0a186a	0.13485876
189	0xbe8ba74a	-0.2727607
190	0xbe32a65c	-0.17446274
191	0xbcaa8704	-0.020816334
192	0x3e83b5a0	0.25724506
193	0xbe4ab0c9	-0.19794
194	0xbea4122a	-0.32045108
195	0xbe6f2416	-0.2335361
196	0x3eb80f4a	0.35949165
197	0xbe26d2c3	-0.16291337
198	0x3ddd7652	0.108135834
199	0x3e1e79b0	0.15476108
200	0xbde2eeef	-0.11080729
201	0x3e504ba2	0.20341352
202	0x3e569cc2	0.20958236
203	0x3ccfec6b	0.025381288
204	0xbdeb2fe7	-0.11483746
205	0x3a9330a1	0.0011229703
206	0x3e18c798	0.14919889
207	0x3deecbe0	0.1165998
208	0x3e50b9a1	0.20383312
209	0xbd777466	-0.06041374
210	0x3e529a52	0.20566681
211	0xbd3f4093	-0.046692442
212	0x3e00330e	0.12519476
213	0xbe504e4c	-0.20342368
214	0xbe5ca9f4	-0.21549207
215	0x3b7f379a	0.0038943053
216	0x3e83cf46	0.25744075
217	0xbd5b16a7	-0.0534884
218	0x3ea274fe	0.31729883
219	0x3d64b4bc	0.055836424
220	0x3e1d759a	0.15376893
221	0x3e7f1bc9	0.24912943
222	0xbe94df47	-0.29076597
223	0xbebc5b7d	-0.3678855
224	0xbe2358fe	-0.15951917
225	0xbe1b6ed4	-0.15178996
226	0x3e784200	0.24243927
227	0x3e846bdc	0.2586354
228	0xbea18709	-0.31548336
229	0x3dd9af75	0.10629169
230	0xbe4bacfc	-0.19890207
231	0xb906a2ad	-0.00012839837
232	0xbeaa0cdf	-0.33212945
233	0x3dfeb4eb	0.12436851
234	0xbe48fbb4	-0.19627267
235	0x3d4bd69e	0.04976522
236	0xbe9a47e6	-0.3013298
237	0x3c9b0c1f	0.018926678
238	0x3e51b60d	0.20479603
239	0xbabff497	-0.0014645037
240	0xbea4e714	-0.3220755
241	0x3d7b08da	0.06128774
242	0xbe71a070	-0.23596358
243	0xbe3eb599	-0.18623962
244	0xbe00cc3e	-0.12577912
245	0x3e2d9a37	0.1695336
246	0x3e88aa64	0.26692498
247	0x3e3e9324	0.18610817
248	0x3d21a185	0.039460678
249	0x3e779fe0	0.24182081
250	0xbecfc8cb	-0.4058288
251	0x3e38f93f	0.1806383
252	0x3e98b2ab	0.29823813
253	0x3ea177f4	0.3153683
254	0xbe1fb619	-0.15596808
255	0xbe6e5f9e	-0.23278663

transformer_encoder.layers.0.linear2.weight f4 [6, 2048]
0	0x3d310e4a	0.043226518
1	0x3da37750	0.079817414
2	0xbb43ed16	-0.0029895953
3	0x3cd9e0bc	0.02659642
4	0x3e77a8eb	0.24185531
5	0xbc9920ce	-0.0186924
6	0x3bdd662b	0.006756564
7	0xbbdb2970	-0.0066882893
8	0x3d2c5388	0.04207185
9	0xbc6b3f07	-0.014358289
10	0xbbfa1eb5	-0.007633055
11	0xbe21f2e5	-0.15815313
12	0x3e82f1fc	0.25575244
13	0x3dc2dce3	0.09514787
14	0x3d3e15ca	0.0464075
15	0xbe17a85d	-0.14810319
16	0x3dc9b70f	0.09849369
17	0xbb16a9a2	-0.0022989293
18	0x3df227c0	0.11823988
19	0x3d69f399	0.05711708
20	0x3cfdda79	0.030987965
21	0x3eb7f816	0.35931462
22	0xbeae6c78	-0.3406713
23	0xbc231355	-0.00995334
24	0xbab0069b	-0.0013429703
25	0xbc29f6e2	-0.010373803
26	0x39a99624	0.00032346055
27	0xbf66f7de	-0.90221965
28	0xbf3b9d03	-0.73286456
29	0xbf011114	-0.50416684
30	0xbe6cf223	-0.23139243
31	0xbd056fc5	-0.032577295
32	0xbd740c3c	-0.05958198
33	0xbc563edb	-0.013076509
34	0x3de5ceea	0.11221106
35	0xbe10c21e	-0.1413655
36	0x3d1efd53	0.038815808
37	0xbce942e9	-0.028474288
38	0xbe2ccc1c	-0.16874737
39	0x3d97239a	0.07379837
40	0x3ce04cda	0.027380396
41	0xbe56aa4b	-0.20963399
42	0x3de62dd5	0.112392105
43	0x3db372ae	0.08762108
44	0xbe04c7ce	-0.12966844
45	0x3c501af3	0.012701738
46	0x3df69e53	0.12041917
47	0x3ddbbd11	0.10729421
48	0xbe9c17d9	-0.30486944
49	0xbb8ec158	-0.0043565445
50	0xbbef1931	-0.007296704
51	0xbf9a3e1a	-1.2050202
52	0xbd650375	-0.0559115
53	0x3ba633f2	0.0050721103
54	0xba8f17bb	-0.0010917106
55	0xbc538da4	-0.012912188
56	0x3ee3d0b0	0.44495153
57	0xbc4f4c08	-0.012652405
58	0x3d9d4a31	0.076801665
59	0x3c1abb50	0.009444073
60	0xbbd2d10e	-0.0064336127
61	0x3dfa9f4f	0.12237417
62	0x3dc32d51	0.09530128
63	0xbe2e5287	-0.17023669
64	0x3d9b8177	0.07593053
65	0xbe932366	-0.28737944
66	0xbcdcd030	-0.02695474
67	0x3d442baa	0.047893204
68	0xbc170c46	-0.009219235
69	0xbc460a9f	-0.012087493
70	0xbd111433	-0.035419654
71	0x3e1bc1cf	0.15210651
72	0x3d8d3527	0.06894904
73	0x3b53cffb	0.003232001
74	0x3dae398b	0.08507069
75	0xbc1b91d1	-0.009495215
76	0xbae96b97	-0.0017808554
77	0xbe4c7b01	-0.19968797
78	0xbd8bb593	-0.06821742
79	0x3e72c50b	0.23707978
80	0x3e71ddf7	0.23619829
81	0x3d33c90c	0.043892905
82	0xbe845819	-0.25848463
83	0x3d035fd3	0.032073807
84	0xbd6e60b2	-0.058197685
85	0xbca6a24a	-0.020341057
86	0xba35ccdb	-0.0006935128
87	0x3caf5351	0.021402033
88	0xbcceabd4	-0.025228418
89	0x3eba93c8	0.36440873
90	0x3d63c323	0.05560602
91	0x3d9b7c7c	0.07592103
92	0xbe02da73	-0.12778644
93	0xbe849912	-0.25898033
94	0x3e656550	0.22401929
95	0x3d168589	0.036748443
96	0x3ee031ac	0.43787897
97	0xbc650878	-0.01397907
98	0xbc0fba46	-0.008772438
99	0x3e58dac0	0.21177197
100	0x3bdbbdfd	0.006705998
101	0xbc9bc10b	-0.019012948
102	0x3e4ecfc3	0.20196442
103	0xbd928910	-0.07155049
104	0xbe4c140a	-0.1992952
105	0x3c1c9df4	0.009559143
106	0xbd267bb8	-0.04064533
107	0x3c81f8a8	0.015865639
108	0x3df97fa1	0.121825464
109	0xbddf0b58	-0.108908355
110	0xbc944135	-0.0180975
111	0x3e7662c5	0.24061115
112	0x3c0c6138	0.008568101
113	0xbbe60e59	-0.0070207533
114	0x3e238567	0.15968858
115	0xbeba2dd6	-0.36363095
116	0x3decd1bf	0.115634434
117	0xbe63f9ff	-0.22263335
118	0x3c27b9b2	0.010237144
119	0x3e8b39de	0.27192587
120	0x3c5dc77a	0.013536328
121	0x3cd666f2	0.026172135
122	0x3dd567a3	0.10420158
123	0xbd050e12	-0.03248412
124	0x3c17cee3	0.009265634
125	0x3dca6dc9	0.09884221
126	0xbc19eaf8	-0.0093944
127	0xbe359cd3	-0.17735605
128	0xbe20b917	-0.15695606
129	0x3ddff8fe	0.10936163
130	0xbd269fac	-0.04067962
131	0xbdb19846	-0.08671622
132	0xbe03ab86	-0.128584
133	0xbdeba4f5	-0.115060724
134	0xbe66bac5	-0.22532184
135	0x3e8fa455	0.28055063
136	0xbe7ee898	-0.24893415
137	0xbb96f126	-0.004606384
138	0x3c2d91f0	0.010593876
139	0x3da591af	0.080844276
140	0xbda9bece	-0.08288346
141	0xbd0f0cc6	-0.03492429
142	0xbc158c63	-0.009127709
143	0xbdd21014	-0.10256973
144	0xbe4931d2	-0.19647911
145	0xbe13b6d3	-0.1442521
146	0x3e10eea4	0.14153534
147	0x3d8cfa26	0.068836495
148	0x3e34acb5	0.17644008
149	0x3e58e109	0.21179594
150	0xbe01a55a	-0.12660733
151	0xbcd50109	-0.02600147
152	0x3d159d23	0.03652681
153	0xbcbb128d	-0.022835994
154	0xbe3e810f	-0.1860392
155	0xbe70db52	-0.23521164
156	0xbd934ca3	-0.07192352
157	0x3d710fca	0.05885295
158	0xbbd8a6a5	-0.0066116625
159	0x3e39a0db	0.18127768
160	0x3e305733	0.17220764
161	0x3ecfd72e	0.40593857
162	0x3e9eef18	0.3104179
163	0xbc1d51ec	-0.009602051
164	0x3c1b5dac	0.009482782
165	0xbe7fe8b7	-0.24991117
166	0x3eb57a1e	0.3544473
167	0x3bf966ca	0.0076111304
168	0x3b1c5870	0.0023856424
169	0xbe8d1f3c	-0.27562892
170	0x3e438d91	0.19096972
171	0xbd3036d6	-0.043021046
172	0x3ec2bc23	0.38034162
173	0xbc18333c	-0.009289559
174	0x3e520cc3	0.2051268
175	0xbe55c5ae	-0.2087619
176	0xbc7422dd	-0.01490089
177	0xbdc468d3	-0.09590306
178	0xbe4cf228	-0.2001425
179	0x3eae467f	0.3403816
180	0x3db55eec	0.088559955
181	0x3e07784c	0.13229483
182	0xbbcdfd8d	-0.006286329
183	0x3da19ff4	0.07891837
184	0xbe46184a	-0.19345203
185	0x3bf65473	0.0075173914
186	0xbdb14a12	-0.08656706
187	0xbcd3f40b	-0.025873205
188	0x3e724ed4	0.23662883
189	0xbc5f1b40	-0.013617337
190	0x3d647934	0.05577965
191	0x3f0941d8	0.53616095
192	0x3e64b579	0.22334851
193	0x3c6286dc	0.013826098
194	0x3d1e9989	0.03872064
195	0x3c008e09	0.007846364
196	0x3d597e0d	0.053098727
197	0x3b17ceb9	0.0023163988
198	0xbd7fdd53	-0.06246693
199	0xbc03cebe	-0.008044897
200	0xbc94830d	-0.018128896
201	0xbc0d489a	-0.008623267
202	0x3e7f97a6	0.24960193
203	0x3d3e42de	0.04645049
204	0xbb2319a0	-0.00248871
205	0x3dad72d2	0.08469166
206	0x3c11a4c5	0.008889382
207	0xbe950971	-0.29108766
208	0x3ab6da23	0.0013950508
209	0xbf85f41a	-1.0465119
210	0xbca219e1	-0.01978773
211	0x3e91b8aa	0.284612
212	0xbc47a68f	-0.012185707
213	0xbe0adeca	-0.1356155
214	0x3dede324	0.11615589
215	0x3b9749f2	0.0046169693
216	0x3b0a959e	0.0021146308
217	0xbba7ec30	-0.0051245913
218	0xbe7c132b	-0.24616687
219	0xbd742674	-0.059606984
220	0x3e852053	0.26001224
221	0xbda73bd1	-0.08165706
222	0x3d238c1b	0.039928537
223	0xbd3980c2	-0.04528881
224	0xbe62f879	-0.22165097
225	0x3d7a1a24	0.061060086
226	0x3e487213	0.19574766
227	0xbd156b30	-0.036479175
228	0x3e6dc29e	0.23218772
229	0x3c8756b7	0.016520841
230	0xbea3709d	-0.31921855
231	0xbcf9654a	-0.030443806
232	0x3b1933d8	0.0023376849
233	0xbdd51d2a	-0.10405953
234	0xbd136867	-0.035988238
235	0xbf392f9e	-0.72338283
236	0x3c28df3d	0.01030713
237	0xbd4ff926	-0.050774716
238	0x3bb13e94	0.005409071
239	0x3e992d94	0.29917586
240	0x3eb7e100	0.3591385
241	0xbe95826d	-0.2920107
242	0xbe511b2b	-0.2042052
243	0x3d8e59de	0.069507346
244	0x3bb0ff7b	0.0054015494
245	0xbb3022e8	-0.0026876274
246	0xbd0572b0	-0.032580078
247	0x3f23fa9a	0.6405426
248	0xbcd52cd5	-0.026022354
249	0xbc595d35	-0.013266851
250	0xbb9bf1d6	-0.0047590537
251	0xbb3cb105	-0.0028792035
252	0xbd1a30de	-0.03764426
253	0x3b617060	0.0034399256
254	0xbdba8303	-0.0910702
255	0xbc88937b	-0.016671887

transformer_encoder.layers.0.linear2.bias f4 [6]
0	0xbcdcf842	-0.026973847
1	0xbc9f9072	-0.019478057
2	0xbbd17421	-0.0063920175
3	0x3b531f75	0.0032214795
4	0x3cfcf685	0.030879268
5	0x3d0bbdff	0.03411674

transformer_encoder.layers.0.norm1.weight f4 [6]
0	0x3f8fbc62	1.1229365
1	0x3f9467fb	1.1594232
2	0x3f9e5d0a	1.2372143
3	0x3f70bfd6	0.9404272
4	0x3f7a9c04	0.9789431
5	0x3f81f194	1.0151849

transformer_encoder.layers.0.norm1.bias f4 [6]
0	0xbb53810d	-0.0032272965
1	0x3d27bf18	0.040953726
2	0x3d4d34a9	0.05009905
3	0xbde6e709	-0.11274535
4	0x3da8874c	0.08228931
5	0x3ce56cb8	0.028005943

transformer_encoder.layers.0.norm2.weight f4 [6]
0	0x3f89b604	1.0758672
1	0x3f8304b7	1.0235814
2	0x3f26ed93	0.6520626
3	0x3f800f57	1.0004681
4	0x3f1456ca	0.5794493
5	0x3f95250c	1.1651931

transformer_encoder.layers.0.norm2.bias f4 [6]
0	0xbb9a4766	-0.0047082184
1	0x3da2f893	0.07957568
2	0x3dc4777f	0.095931046
3	0xbecc7c0b	-0.39938387
4	0x3e4eb459	0.20185985
5	0x3e001689	0.12508596

transformer_encoder.layers.1.self_attn.in_proj_weight f4 [18, 6]
0	0xbe4a076c	-0.19729394
1	0x3e2390ff	0.1597328
2	0x3f44e811	0.76916605
3	0x3f02a029	0.51025635
4	0x3e97b574	0.29630625
5	0xbf00bc86	-0.50287664
6	0x3e33ea6d	0.17569895
7	0x3eaedbbe	0.34152025
8	0x3eb4e8cb	0.35333857
9	0x3e4ead30	0.20183253
10	0xbf04e942	-0.51918423
11	0xbf0407ab	-0.515742
12	0xbcba16f6	-0.022716027
13	0x3eb078f3	0.34467277
14	0x3ed95328	0.42446256
15	0xbed9c56e	-0.4253344
16	0xbe9dda33	-0.30830535
17	0xbd2453bb	-0.040118914
18	0xbef3c2ca	-0.4760955
19	0xbdeada57	-0.11467426
20	0xbed7703f	-0.42077824
21	0x3db74de2	0.08950402
22	0xbd27b4c4	-0.040943876
23	0x3ef2117e	0.4727897
24	0xbe51d588	-0.20491612
25	0x3e5bdd04	0.2147103
26	0x3ec648d4	0.38727438
27	0xbf12075b	-0.57042474
28	0x3e33b0cd	0.17547913
29	0x3f090d7b	0.53536195
30	0xbd540489	-0.051762138
31	0xbe9bb5b3	-0.30412063
32	0x3de3e748	0.11128098
33	0xbd08e950	-0.03342563
34	0xbf35d712	-0.71031296
35	0xbe895936	-0.26825875
36	0x3f44099e	0.76577175
37	0x3de67d83	0.11254408
38	0x3e5fc731	0.21853329
39	0x3e69bf53	0.2282689
40	0xbef415d3	-0.476729
41	0xbcd32a98	-0.025777146
42	0x3f07b8bd	0.53016263
43	0xbe1e1fac	-0.1544177
44	0xbe2cc9a8	-0.16873801
45	0xbe7ffa15	-0.24997742
46	0x3e52cf67	0.2058693
47	0x3e4e80fc	0.20166391
48	0xbe35a770	-0.17739654
49	0xbf166983	-0.5875475
50	0xbe7ce882	-0.2469807
51	0xbd536db0	-0.051618278
52	0xbeb880c2	-0.36035734
53	0x3f0d4b97	0.55193466
54	0x3e877e14	0.26463377
55	0xbf1ba514	-0.60798764
56	0x3f1569e3	0.58364695
57	0x3e9d6b6b	0.30746016
58	0x3f815bb9	1.0106117
59	0xbdb6bbb5	-0.08922521
60	0x3dabb8ef	0.08384883
61	0x3e5eedcd	0.21770401
62	0x3d953d02	0.07287027
63	0xbf5056f2	-0.8138267
64	0x3ea3a610	0.31962633
65	0x3f4a22d0	0.7895937
66	0xbf37ae76	-0.7175058
67	0xbf3436e7	-0.70396274
68	0x3f1b6e0b	0.6071479
69	0xbedd9580	-0.43278122
70	0x3d11673e	0.03549885
71	0x3eaba81b	0.33526692
72	0x3a912a6c	0.0011075265
73	0xbe7b08d9	-0.24515094
74	0xbe4fdae9	-0.20298351
75	0xbdf9cdd1	-0.121974595
76	0x3da4a388	0.080390036
77	0xbe7a996f	-0.24472593
78	0xbeee764e	-0.46574634
79	0xbf322162	-0.6958219
80	0xbd5e24cb	-0.054234307
81	0x3e204c8b	0.15654199
82	0x3dda3ef1	0.10656536
83	0xbe704071	-0.23462082
84	0xbe75759f	-0.2397065
85	0x3ea30e53	0.31846866
86	0xbd41126b	-0.047136705
87	0xbf0a557b	-0.5403668
88	0x3eab05e4	0.33402932
89	0x3e6a981d	0.22909589
90	0x3d14074b	0.036139768
91	0x3ed089bb	0.4073008
92	0x3e6eab25	0.23307474
93	0xbe0a8d7b	-0.13530533
94	0x3e6c869f	0.23098229
95	0x3f2c6148	0.6733594
96	0xbe1d3914	-0.15353805
97	0xbeacbbe5	-0.33737102
98	0x3f6ba7e3	0.9205305
99	0xbec6ac80	-0.38803482
100	0x3e6770a6	0.22601566
101	0xbeb40345	-0.35158744
102	0xbed78ac9	-0.42098072
103	0xbf063b20	-0.5243397
104	0x3c96e365	0.018418977
105	0x3e485b86	0.19566163
106	0x3ea1cfe5	0.31603923
107	0x3e48cd51	0.19609572

transformer_encoder.layers.1.self_attn.in_proj_bias f4 [18]
0	0xbe055a4f	-0.13022731
1	0x3cb45987	0.022015346
2	0xbe8cc0be	-0.274908
3	0xbe86e572	-0.26346928
4	0xbee9c228	-0.45655942
5	0xbea54699	-0.32280424
6	0xbbc075c0	-0.005873412
7	0x3b86dd57	0.0041157412
8	0xb9861c98	-0.00025579776
9	0x3a4e7827	0.00078761805
10	0xb8faac8d	-0.00011953069
11	0x387d7c3d	6.0435606e-05
12	0xbdc9aee0	-0.09847808
13	0xbda6b538	-0.081400335
14	0x3df6e481	0.120553024
15	0x3cc7bda8	0.024382427
16	0x3dd8ae09	0.105800696
17	0x3d67ebd4	0.056621388

transformer_encoder.layers.1.self_attn.out_proj.weight f4 [6, 6]
0	0x3e55af6e	0.20867702
1	0xbe8e1b3d	-0.27755156
2	0xbe9c6ef2	-0.30553395
3	0x3d805e4c	0.06267986
4	0xbf0adccc	-0.5424316
5	0xbe8035f9	-0.25041178
6	0xbda504e4	-0.080575734
7	0x3f3e7ea5	0.74411994
8	0xbe5c0eff	-0.21490096
9	0x3e7f940f	0.24958824
10	0xbb86c402	-0.0041127214
11	0x3e3829c8	0.17984688
12	0x3ec974af	0.39346835
13	0x3f1291c9	0.572537
14	0xbe8f4930	-0.27985525
15	0xbf03e884	-0.51526666
16	0xbea618b9	-0.32440737
17	0xbf042340	-0.5161629
18	0x3e9eb246	0.30995387
19	0xbec54882	-0.38531882
20	0x3ead88b8	0.3389337
21	0xbda417a3	-0.08012321
22	0xbca2a0c8	-0.019852057
23	0x3eda8aa0	0.42683887
24	0x3dfd4c07	0.12368017
25	0xbed1e627	-0.40995905
26	0x3f2e1fec	0.6801746
27	0x3d7af85e	0.061272018
28	0x3f402d20	0.75068855
29	0x3d468d76	0.04847475
30	0x3e51f2a5	0.20502718
31	0xbe303651	-0.1720822
32	0x3e9eff6b	0.31054243
33	0xbe8cf264	-0.2752868
34	0xbd855b42	-0.06511547
35	0x3cd10928	0.025517061

transformer_encoder.layers.1.self_attn.out_proj.bias f4 [6]
0	0xbc8eef91	-0.017448219
1	0xbe0e616b	-0.1390435
2	0xbe1305c9	-0.14357676
3	0x3d4ffa34	0.05077572
4	0x3dff7f8d	0.124755
5	0x3c0b5b9b	0.008505727

transformer_encoder.layers.1.linear1.weight f4 [2048, 6]
0	0xbdd5ffc4	-0.10449174
1	0xbd8a50b0	-0.06753671
2	0x3e1fe1af	0.15613435
3	0xbdab2606	-0.08356862
4	0x3c2be211	0.01049091
5	0x3eb5f3c9	0.35537556
6	0x3d342bf6	0.043987237
7	0x3ecdd893	0.40204296
8	0xbca2f85d	-0.01989382
9	0x3dc71fe9	0.09722883
10	0xbeabc05f	-0.33545205
11	0x3b67e24c	0.0035382686
12	0x3c2b9cc7	0.01047439
13	0xbc58288c	-0.013193261
14	0x3ea1c07f	0.31592175
15	0x3db44797	0.08802717
16	0x3dcea62b	0.10090288
17	0x3e76e78c	0.24111766
18	0x3d0eb921	0.03484452
19	0xbe346f91	-0.17620684
20	0xbe1d16dc	-0.15340751
21	0xbe35ddd1	-0.17760397
22	0x3dd1ecb6	0.10250227
23	0xbdf9e01a	-0.12200947
24	0xbe89b953	-0.26899204
25	0x3e436e64	0.1908508
26	0x3e061711	0.13094737
27	0x3e8bfc2b	0.27340826
28	0x3e3dc31c	0.1853146
29	0x3e82774c	0.2548164
30	0x3dd78882	0.10524084
31	0x3e3aae9c	0.1823067
32	0xbe868c12	-0.2627874
33	0x3ea478a5	0.32123294
34	0xbe448eec	-0.19195145
35	0x3e51320d	0.20429249
36	0x3ddd8e6e	0.10818182
37	0xbe902683	-0.28154382
38	0x3e08a18a	0.13342872
39	0x3e4a117e	0.19733235
40	0xbe8f8ec5	-0.28038612
41	0xbc384fe0	-0.011249512
42	0xbe4749d2	-0.19461754
43	0x3bde5ae8	0.006785739
44	0xbe5a7547	-0.213338
45	0xbe906973	-0.2820545
46	0x3e694c63	0.22783045
47	0x3d33013a	0.04370234
48	0xbe8ed92a	-0.27900058
49	0xbe948e37	-0.2901475
50	0x3d2aa54f	0.041661557
51	0xbdec8185	-0.115481414
52	0xbdecd4ec	-0.11564049
53	0x3e9385d5	0.28813043
54	0xbe87841f	-0.26467988
55	0xbe7c847d	-0.24659915
56	0xbcd0364e	-0.02541652
57	0xbe2bf145	-0.16791256
58	0xbed5ed8b	-0.41782793
59	0xbe4f6af9	-0.2025565
60	0xbca083af	-0.019594042
61	0x3e30cbb9	0.17265214
62	0xbdfc554e	-0.12320958
63	0x3d0d2823	0.034462105
64	0xbe740a32	-0.23832014
65	0xbccb84e6	-0.024843644
66	0xbd013e90	-0.031553805
67	0x3dbb879d	0.091567256
68	0xbc5b7412	-0.013394373
69	0xbeca9025	-0.395631
70	0x3e959e74	0.29222453
71	0xbdf008b8	-0.11720413
72	0xbe852003	-0.26000986
73	0x3df1cdd6	0.11806838
74	0x3e4da02c	0.20080632
75	0xbeb0c803	-0.34527597
76	0x3ee26269	0.44215706
77	0xbdbaab3c	-0.091146916
78	0xbe4e1001	-0.20123293
79	0xbe0160c3	-0.12634568
80	0xbe3d9d37	-0.18517004
81	0xbdec8e52	-0.11550583
82	0x3dce5152	0.10074104
83	0x3e978b9a	0.29598695
84	0x3da0d9da	0.07854052
85	0xbe7374e2	-0.23775056
86	0xbe9885b1	-0.29789498
87	0xbe902d94	-0.28159773
88	0x3e0f3351	0.1398442
89	0x3ecbc1f6	0.39796418
90	0xbe7f5a4d	-0.24936791
91	0x3e9cc2e7	0.3061745
92	0xbe602388	-0.21888554
93	0x3e1b9afe	0.15195844
94	0x3e80d7bf	0.251646
95	0xbdd8b03e	-0.105804905
96	0x3e41263d	0.18862243
97	0x3ec89309	0.3917468
98	0x3e095c72	0.13414171
99	0xbec36736	-0.3816468
100	0x3e9832da	0.29726297
101	0x3ef3bfb9	0.4760721
102	0x3ddbbf1d	0.10729811
103	0xbe865647	-0.262377
104	0xbe59b1d7	-0.21259247
105	0x3da9875f	0.08277773
106	0x3d6d5fbb	0.057952624
107	0x3ee61fe8	0.44946218
108	0x3e2b9df8	0.16759479
109	0x3d72514b	0.05915956
110	0xbe99dc80	-0.3005104
111	0xbd0975c3	-0.033559572
112	0xbe8532c4	-0.26015294
113	0x3cb6314a	0.0222403
114	0xbd712b29	-0.05887905
115	0x3d5eaedd	0.05436598
116	0xbe2cc630	-0.16872478
117	0xbd25d548	-0.040486604
118	0x3eecf3a9	0.46279648
119	0x3d44af8c	0.048018977
120	0xbda01b6b	-0.078177296
121	0xbec3aa4b	-0.3821586
122	0xbe8c6261	-0.27418807
123	0xbe9c7e9f	-0.30565354
124	0xbebaf758	-0.36516833
125	0x3b7c910c	0.0038538603
126	0xbe885126	-0.2662441
127	0xbe8c514d	-0.27405778
128	0x3d10789b	0.03527127
129	0xbedaabfc	-0.4270934
130	0x3dbe1a60	0.092823744
131	0xbe101262	-0.14069512
132	0x3d3dd9bf	0.046350237
133	0xbe78c7ea	-0.24295011
134	0x3e5ed8f9	0.21762456
135	0xbe83c5da	-0.25736886
136	0x3db145a9	0.08655865
137	0x3ed34d0f	0.4126973
138	0xbd89348c	-0.06699476
139	0x3e07c21d	0.13257642
140	0xbeb96c83	-0.362156
141	0x3e9e405f	0.30908486
142	0xbe8744cd	-0.26419678
143	0xbd99928a	-0.07498653
144	0x3e10c77f	0.14138602
145	0x3ecd3f2e	0.40087265
146	0x3dc97519	0.09836788
147	0x3eb1ad2e	0.34702438
148	0x3e629504	0.22127157
149	0x3ec27eca	0.37987357
150	0xbccd4a92	-0.025059972
151	0x3e230dde	0.15923259
152	0xbe5f51a0	-0.21808481
153	0x3e207fc1	0.15673734
154	0x3d31a5f3	0.043371152
155	0x3e25c140	0.16187
156	0xbd9a0385	-0.075202025
157	0x3e450224	0.19239098
158	0x3d232839	0.03983328
159	0x3ddf11aa	0.10892041
160	0xbdcf0b1f	-0.10109543
161	0xbe24eae0	-0.16105223
162	0xbe838b16	-0.25692052
163	0xbec1ce99	-0.37852934
164	0xbdadb7e9	-0.08482344
165	0xbe90eee3	-0.28307256
166	0x3e19a37a	0.15003768
167	0x3e28045c	0.16407913
168	0x3e34463e	0.1760492
169	0x3e7b07b4	0.24514657
170	0x3cd4e260	0.02598685
171	0xbcc7cb99	-0.024389075
172	0x3ec03621	0.37541297
173	0x3f0cf533	0.55061644
174	0x3d1e4db4	0.038648322
175	0xbe65ab7e	-0.224287
176	0x3eaabd87	0.33347723
177	0xbf04ca50	-0.51871204
178	0x3e5a5841	0.21322729
179	0xbd0a0ff2	-0.033706613
180	0x3d643384	0.05571319
181	0xbe3a0d00	-0.18169022
182	0x3d3b73be	0.045764677
183	0xbe856a5c	-0.26057708
184	0xbcde6cb0	-0.027151436
185	0x3ec1ccf5	0.37851682
186	0xbeee7494	-0.46573317
187	0xbeadb371	-0.33925965
188	0xbe91c52c	-0.28470743
189	0xba96112f	-0.0011449213
190	0xbebb1dc9	-0.36546162
191	0x3d5e9571	0.054341737
192	0xbe5da43a	-0.21644679
193	0xbdcbd12f	-0.09952008
194	0x38890e93	6.535384e-05
195	0x3e20c1df	0.15698956
196	0xbd863b44	-0.06554273
197	0x3da1ce60	0.07900691
198	0xbe2ce379	-0.16883649
199	0x3ea9ba83	0.3315011
200	0xbea127f8	-0.31475806
201	0x3de2ee89	0.11080653
202	0xbd2466c9	-0.040137086
203	0xbe00df68	-0.12585223
204	0xbea98fd6	-0.3311755
205	0xbe934e48	-0.2877066
206	0x3cb5525d	0.022134
207	0x3e0ea5d0	0.1393044
208	0x3e7ce2a8	0.24695837
209	0x3e39e6e3	0.18154483
210	0xbda68c6b	-0.08132251
211	0xbec5adca	-0.38609153
212	0x3e860fbd	0.26183882
213	0xbf098bfd	-0.5372923
214	0xbe1ef47d	-0.15522952
215	0xbde75d3d	-0.11297081
216	0x3d5be0a2	0.053681023
217	0x3e9b5e23	0.30345258
218	0x3c49c9a6	0.012316143
219	0x3e821b54	0.25411475
220	0xbe767533	-0.24068145
221	0xbd91caea	-0.07118781
222	0xbc7e8749	-0.015535184
223	0x3ebc739f	0.36806962
224	0x3dcce3d9	0.10004396
225	0x3e25b8b4	0.1618374
226	0x3e937759	0.28801993
227	0xbe3f51c4	-0.18683535
228	0xbda7a38b	-0.0818549
229	0x3d692747	0.056922223
230	0x3ecc4e10	0.39903307
231	0xbeaccb0d	-0.33748665
232	0xbe4614df	-0.19343899
233	0x3d154c3e	0.036449663
234	0x3e150b54	0.14555103
235	0x3e19c2e6	0.15015754
236	0x3ddf360f	0.10898983
237	0xbe93d7f3	-0.28875694
238	0xbc4616ad	-0.012090367
239	0xbe98fbc3	-0.2987958
240	0xbe11f3a0	-0.14253092
241	0x3dc2896c	0.094988674
242	0x3d983e65	0.07433776
243	0xbe19e7be	-0.15029809
244	0xbdad1a81	-0.08452321
245	0xbbbd650a	-0.005779867
246	0x3e5d87bf	0.21633814
247	0xbe0a5f65	-0.13512953
248	0x3efabdc3	0.48972902
249	0xbe6fa0e9	-0.23401226
250	0x3d479fdd	0.048736442
251	0x3e499390	0.19685197
252	0x3e71ba82	0.23606303
253	0x3dbc2ff9	0.091888376
254	0xbea4b9e0	-0.3217306
255	0xbe65df4d	-0.22448464

transformer_encoder.layers.1.linear1.bias f4 [2048]
0	0x3df91bd3	0.1216351
1	0xbe2ddff5	-0.16979964
2	0xbcafaa74	-0.021443583
3	0xbd744ff3	-0.059646558
4	0xbe8587e3	-0.26080236
5	0x3cd452f9	0.02591847
6	0xbe7e0976	-0.24808297
7	0x3e88ac96	0.26694173
8	0x3a437416	0.0007455958
9	0x3cb03b86	0.021512758
10	0x3dfdf565	0.12400321
11	0x3c3da94a	0.011576006
12	0xbe2849ed	-0.1643445
13	0xbe1187de	-0.14211985
14	0xbec001b9	-0.37501314
15	0xbddf3133	-0.10898056
16	0xbd83dfa5	-0.06439141
17	0x3d57dff8	0.052703828
18	0xbeaf5fa5	-0.34252658
19	0xbec72af0	-0.38899946
20	0xbdf998a0	-0.12187314
21	0x3e3df491	0.18550326
22	0xbce1f062	-0.027580444
23	0xbe8dc533	-0.27689514
24	0xbca707b4	-0.020389415
25	0x3e68f247	0.22748671
26	0xbdd4efc7	-0.103972964
27	0xbe2c7a3d	-0.16843505
28	0xbecf0a45	-0.40437523
29	0xbead6ffc	-0.338745
30	0x3e2a26e0	0.16616392
31	0x3e0578ba	0.13034335
32	0xbd4bb18f	-0.04972988
33	0xbd4a6d51	-0.04942066
34	0xbdbbd239	-0.09170956
35	0xbe4823d5	-0.19544919
36	0xbe0d631c	-0.13807338
37	0xbe18f810	-0.14938378
38	0x3d932af8	0.0718593
39	0x3e0aa8c8	0.13540947
40	0x3e01f4d9	0.12691058
41	0xbeab9fe5	-0.33520427
42	0xbe4df507	-0.20113002
43	0xbb82dc96	-0.003993581
44	0xbd5e7f0b	-0.054320376
45	0xbe7bf3d5	-0.24604733
46	0xbefccae7	-0.49373552
47	0xbe877c9d	-0.2646226
48	0xbea6707c	-0.32507694
49	0xbec971b0	-0.3934455
50	0x3decead7	0.1156823
51	0x3e210e31	0.1572807
52	0xbe7e3cce	-0.24827883
53	0xbc85a475	-0.01631377
54	0x3e37b91a	0.17941704
55	0xbe4e9dd5	-0.20177396
56	0xbe6718a8	-0.22568
57	0xbe94d7df	-0.29070947
58	0x3e8504d6	0.25980252
59	0x3d946bb4	0.07247105
60	0x3e079276	0.13239464
61	0x3e8c66f5	0.274223
62	0x3df8a693	0.121411465
63	0xbe6629e2	-0.22476915
64	0x3e233f4c	0.15942115
65	0xba40a370	-0.0007348573
66	0x3e270c66	0.16313323
67	0xbef971b0	-0.4871955
68	0xbeb63131	-0.35584405
69	0xbb855e1c	-0.0040700566
70	0xbe1cbf42	-0.15307334
71	0x3ce5954a	0.028025288
72	0x3d2dbf38	0.04241869
73	0x3d9fc894	0.07801929
74	0xbc5b01d2	-0.013367133
75	0x3e863c5b	0.26217923
76	0xbe5325d4	-0.20619899
77	0xbeccc76b	-0.39995894
78	0x3d551ccf	0.052029427
79	0x3e1b2b14	0.15153152
80	0xbdd3650f	-0.1032201
81	0xbde38306	-0.11108975
82	0xbeadd139	-0.33948687
83	0xbe1e7c24	-0.15477043
84	0xbf112fc5	-0.56713516
85	0xbed1b174	-0.40955698
86	0x3d8b7af7	0.06810563
87	0xbd847642	-0.064678684
88	0x3dbdef6d	0.092741825
89	0xbd65ae8f	-0.056074675
90	0xbdf4be86	-0.11950402
91	0xbe9d77b9	-0.30755404
92	0x3dc09d82	0.09405042
93	0xbc927044	-0.017875798
94	0xbdc144cc	-0.0943695
95	0xbe1713b6	-0.14753613
96	0xbea961a0	-0.33082294
97	0xbebe0e35	-0.37120214
98	0x3e328822	0.17434743
99	0xbe3957db	-0.1809992
100	0x3d3b67a6	0.045753144
101	0x3e905476	0.2818944
102	0xbead9d2f	-0.33908984
103	0xbe880eaa	-0.26573688
104	0xbecc8ae1	-0.39949706
105	0xbe7d63c0	-0.24745083
106	0x3c3bf931	0.011472986
107	0xbe35f65b	-0.17769758
108	0xbeb161e2	-0.3464499
109	0xbeb0d2bc	-0.34535778
110	0xbe354da7	-0.17705403
111	0x3e0c4d65	0.13701399
112	0x3d48322a	0.048875965
113	0xbe609417	-0.21931492
114	0x3d9358ed	0.071946956
115	0xbe91e78b	-0.28496966
116	0x3df68e23	0.12038829
117	0xbeccef0b	-0.40026125
118	0x3e1cdacf	0.15317844
119	0xbe99496c	-0.2993883
120	0xbe80b1af	-0.25135562
121	0xbebd3234	-0.36952364
122	0xbd2d0f5f	-0.042250987
123	0xbda48896	-0.08033864
124	0x3d827e31	0.06371725
125	0x3e47fa19	0.19528998
126	0xbe687113	-0.22699384
127	0xbeb698f0	-0.35663557
128	0xbe9c5d79	-0.30540064
129	0x3d7f7b06	0.062373184
130	0xbd16d090	-0.036819994
131	0xbeafc440	-0.34329414
132	0xbdf44922	-0.119280115
133	0xbe958ccd	-0.29208985
134	0xbee3ef34	-0.44518435
135	0xbe88722f	-0.26649615
136	0xbe9f7259	-0.31141928
137	0x3dd42b05	0.10359768
138	0x3e77d92b	0.24203937
139	0xbedcc8b8	-0.43121886
140	0xbeaf458c	-0.34232748
141	0xbe76c8db	-0.24100058
142	0xbe7ca91b	-0.24673884
143	0xbe98abd7	-0.29818603
144	0xbeb62062	-0.3557158
145	0xbe872b26	-0.26400107
146	0xbd35b65c	-0.044363365
147	0x3e78aa1c	0.24283642
148	0xbe068191	-0.13135363
149	0xbb0cf820	-0.0021510199
150	0xbeef4711	-0.46733907
151	0x3dfabb39	0.12242741
152	0xbeb8fe85	-0.36131683
153	0x3dfe2cb5	0.12410871
154	0x3e4696dd	0.19393487
155	0xbeaf85f0	-0.34281874
156	0xbe45bd72	-0.19310549
157	0x3d7fa376	0.062411748
158	0xbe1d0ec2	-0.15337661
159	0xbeb4231f	-0.35183045
160	0xbe56b185	-0.20966156
161	0x3df943e2	0.12171151
162	0x3d96f294	0.07370487
163	0x3e240f1e	0.16021392
164	0x3e4052d1	0.18781592
165	0xbd0b596b	-0.034020822
166	0xbea1d7b9	-0.31609896
167	0x3e5bf0ff	0.21478651
168	0xbdeac7e5	-0.11463908
169	0xbea41f9a	-0.3205536
170	0xbe2d5551	-0.16927077
171	0x3c209dda	0.00980326
172	0xbdbb18cf	-0.09135591
173	0x3d03239e	0.03201639
174	0x3d955204	0.07291034
175	0xbe354358	-0.17701471
176	0xbc7fd0b2	-0.015613722
177	0xbe94e6de	-0.29082388
178	0xbe29da6a	-0.16587225
179	0x3d8ccb1b	0.06874677
180	0x3dee8732	0.1164688
181	0x3d0d3630	0.034475505
182	0x3e232491	0.15931918
183	0xbd53b935	-0.0516903
184	0xbc2f2ea0	-0.010692269
185	0x3e313a1c	0.17307323
186	0xbe1642da	-0.1467394
187	0x3dbbe066	0.0917366
188	0x3dd04e65	0.101712026
189	0xbea0d0e7	-0.3140938
190	0xbe721adc	-0.23643059
191	0xbe4fbaf6	-0.20286164
192	0x3d659f76	0.056060277
193	0xbea4cf92	-0.32189614
194	0xbec46584	-0.383587
195	0xbe727a69	-0.23679508
196	0x3e8af25c	0.2713803
197	0xbe1a1d8c	-0.15050334
198	0xbddf8eb5	-0.10915891
199	0x3e41118b	0.18854348
200	0xbdfc8250	-0.12329543
201	0xbc5e596f	-0.013571127
202	0x3db2af0d	0.087247945
203	0xbe866ef9	-0.2625654
204	0xbd8a606b	-0.067566715
205	0x3d8b0086	0.06787209
206	0x3dc85c05	0.09783176
207	0xbd3f9407	-0.04677203
208	0x3defb512	0.11704458
209	0xbe5ff0ff	-0.21869276
210	0x3e46d768	0.19418108
211	0xbe4e58c6	-0.20151052
212	0xbdb832d7	-0.08994072
213	0xbee36c9f	-0.4441881
214	0xbe9edc4b	-0.31027445
215	0x3cd4e04d	0.025985861
216	0x3e3d8246	0.18506727
217	0xbddd2069	-0.10797197
218	0x3dc52242	0.09625675
219	0xbd455e44	-0.0481856
220	0xbddf0daf	-0.10891282
221	0x3dc9d080	0.09854221
222	0xbea9b855	-0.33148447
223	0xbe95886d	-0.29205647
224	0xbe9cdbb0	-0.30636358
225	0xbe67a767	-0.22622453
226	0x3df1cdc1	0.118068226
227	0x3e1e7ffd	0.15478511
228	0xbed52557	-0.4163005
229	0x3dc68a18	0.09694308
230	0xbea49046	-0.32141322
231	0x3cb9287c	0.022602312
232	0xbe88e9dd	-0.26740924
233	0xbde98d79	-0.11403937
234	0xbe2a3051	-0.16619994
235	0xbe359d95	-0.17735894
236	0xbebb765b	-0.36613736
237	0xbd9451ae	-0.07242142
238	0x3e0233d7	0.12715088
239	0xbe996882	-0.29962546
240	0xbeb3dc5a	-0.35129052
241	0xbe1f444b	-0.15553395
242	0xbeea0fda	-0.4571522
243	0xbe753bc8	-0.23948586
244	0xbd62f31d	-0.055407632
245	0x3db77553	0.08957925
246	0x3dbcb506	0.09214215
247	0x3dd5375b	0.10410949
248	0x3d45926d	0.048235346
249	0x3de3e86c	0.11128315
250	0xbed7c8c8	-0.4214537
251	0x3df2f98f	0.11864006
252	0x3e85d022	0.26135355
253	0x3e267ed2	0.16259316
254	0xbeab49da	-0.33454782
255	0xbea7300b	-0.3265384

transformer_encoder.layers.1.linear2.weight f4 [6, 2048]
0	0x3d305224	0.043047085
1	0xbce13fdd	-0.027496273
2	0xbbfd3b3d	-0.007728009
3	0xbd0d2d5e	-0.034467094
4	0xbdb70ee7	-0.08938389
5	0x3c588fa5	0.013217841
6	0x3c6ad982	0.0143340845
7	0xbd2d1a81	-0.042261604
8	0x3ccd676f	0.025073735
9	0xbd0a0664	-0.0336975
10	0x3b3e08db	0.0028996977
11	0x3c80ab7c	0.01570677
12	0x3e1b0277	0.15137659
13	0xbdbc4fb5	-0.091948904
14	0x3e2bae85	0.16765793
15	0xbd067782	-0.032828815
16	0xbd6e457b	-0.05817173
17	0x3db5a0de	0.088685736
18	0x3d4e3532	0.0503437
19	0x3d86c698	0.065808475
20	0x3d051344	0.032489076
21	0x3b0ca5a6	0.002146104
22	0x3d52a5be	0.051427595
23	0x3cefd044	0.029274113
24	0xbb9da299	-0.004810643
25	0x3bc0cff4	0.005884165
26	0xb9e155fd	-0.0004297941
27	0x3c601858	0.013677679
28	0x3dcec215	0.10095612
29	0x3e1060ad	0.14099379
30	0x3cebbcb1	0.028776499
31	0xbcc7d2e3	-0.02439255
32	0xbd168abc	-0.0367534
33	0x3a502152	0.00079395354
34	0x3c1796c5	0.009252255
35	0x3df47f07	0.11938291
36	0x3a307c4a	0.00067323877
37	0xba605911	-0.0008558194
38	0xbc0f511c	-0.008747365
39	0x3d5a8b62	0.053355582
40	0xbd3db34d	-0.046313573
41	0x3daae762	0.08344914
42	0xbd158ec3	-0.0365131
43	0x3d630a74	0.05542989
44	0x3bb7513f	0.005594402
45	0xbbe1d964	-0.00689237
46	0x3e4d7ac8	0.20066369
47	0xbe115470	-0.14192367
48	0x3c5a1c8b	0.013312469
49	0xbd351d05	-0.04421713
50	0xbc8e7b64	-0.017392822
51	0xbcabf0cb	-0.020988842
52	0x3dce241f	0.10065483
53	0xbc370ce9	-0.011172512
54	0x3ca240dd	0.01980632
55	0xbbaed2e4	-0.0053351987
56	0x3c95b972	0.018276904
57	0xbced3ab6	-0.02895866
58	0xbd512220	-0.051057935
59	0xbc13d73e	-0.009023486
60	0x3a02ac17	0.000498475
61	0x3a5723a2	0.0008206909
62	0xbd49ea73	-0.049295854
63	0x3d163e96	0.03668078
64	0x3ce32c4d	0.027731085
65	0xbca02ced	-0.019552672
66	0xbcb685d7	-0.022280617
67	0x3e1683c5	0.14698704
68	0xbc9c61f6	-0.01908968
69	0xbaa58d6a	-0.0012630646
70	0xbcfd07bc	-0.030887477
71	0x3c63e117	0.013908646
72	0xbc86698c	-0.01640775
73	0xbafa837a	-0.0019112669
74	0x3d784ed1	0.06062204
75	0x3c85401c	0.016265921
76	0xbab12952	-0.0013516343
77	0xbe1cc4d0	-0.15309453
78	0xbc179012	-0.009250658
79	0x3c9b492c	0.01895579
80	0xbcb7b181	-0.022423508
81	0x3c2d7c80	0.010588765
82	0xbda5d376	-0.080969736
83	0xb8a316e9	-7.776713e-05
84	0xbdde961d	-0.108684756
85	0xbd603db0	-0.05474633
86	0x3c286cc9	0.010279843
87	0xbd55f633	-0.052236747
88	0xbcd69f00	-0.026198864
89	0x3c416ac0	0.011805236
90	0x3c5b1423	0.0133715
91	0x3e150464	0.14552456
92	0x3cc78d05	0.024359236
93	0x3d75f259	0.060045574
94	0x3dc5303f	0.09628343
95	0xbcc2a61d	-0.02376085
96	0x3d1495f7	0.03627583
97	0xbca66bfa	-0.02031516
98	0xbd55c91a	-0.05219374
99	0x3d99e895	0.075150646
100	0x3d3f218d	0.046662856
101	0xbd02b7f6	-0.03191372
102	0x3e846cfc	0.25864398
103	0xbd4c142c	-0.049823925
104	0xbd85bb33	-0.06529846
105	0x3bde9b1d	0.0067933933
106	0x3b0c8477	0.002144126
107	0x3db15809	0.086593695
108	0xbdb0b472	-0.08628167
109	0x3d3875db	0.04503427
110	0xbbbd2721	-0.005772487
111	0x3dbc47f2	0.0919341
112	0x3cd6e2c8	0.026231185
113	0xbd0ab1ab	-0.033860844
114	0x3c626e3f	0.01382023
115	0xbd920fb4	-0.071319014
116	0x3d05d82e	0.03267687
117	0xbd159584	-0.036519542
118	0x3cc4753a	0.02398168
119	0xbe0a390e	-0.13498327
120	0x3c2f86d7	0.010713301
121	0xbe1087cf	-0.14114307
122	0xbc036604	-0.008019928
123	0x3d10c9d8	0.035348743
124	0x3c5b8153	0.0133975325
125	0x3d0bca8b	0.034128707
126	0x3b8afb48	0.004241381
127	0xbe186f86	-0.14886293
128	0xbbc63932	-0.0060492987
129	0xbc8991d5	-0.016793171
130	0xbad9e58e	-0.0016624199
131	0x3cba364b	0.022730967
132	0xbdaa8af6	-0.08327286
133	0x3d34d309	0.04414657
134	0x3e215ffe	0.15759274
135	0x3de32de9	0.11092741
136	0x3dd510e4	0.10403612
137	0xbb91df33	-0.0044516562
138	0xbcda22a8	-0.026627854
139	0x3dd01d8b	0.10161885
140	0xbdcc8893	-0.09986987
141	0xbc230604	-0.009950165
142	0x3c944794	0.018100537
143	0xbd8c4351	-0.06848777
144	0xbe594cde	-0.21220729
145	0x3de89186	0.113558814
146	0xbc9bcf7f	-0.01901984
147	0x3c323a8f	0.010878219
148	0x3d10c6cf	0.03534585
149	0x3d0ddc04	0.03463365
150	0xbdccb6c3	-0.099957965
151	0xbc339806	-0.010961538
152	0xbd9a7814	-0.07542434
153	0xbc78eb63	-0.015192839
154	0x3cfa4831	0.030552002
155	0x3cd68351	0.026185663
156	0xbcb3cb1c	-0.021947436
157	0x3ccffc82	0.02538896
158	0xbcd57a79	-0.026059376
159	0x3b5ba7c1	0.0033516737
160	0xbc3b577d	-0.011434433
161	0xbc5e6bb0	-0.013575479
162	0xbcf14119	-0.029449986
163	0x3c9d1702	0.01917601
164	0xbc3a22e6	-0.0113608595
165	0x3da98ab4	0.08278409
166	0x3d4816b8	0.04884979
167	0xbc8a063d	-0.016848678
168	0xbbf8b18d	-0.007589525
169	0xbbcfd15c	-0.0063420963
170	0xbca29ab4	-0.019849159
171	0xbcb402f6	-0.021974068
172	0xbd010aaf	-0.03150433
173	0x3c4a5d99	0.012351417
174	0x3dcc6108	0.09979445
175	0x3da9078e	0.08253394
176	0xbcb7442e	-0.022371378
177	0xbc48ad16	-0.012248298
178	0x3d817258	0.063206375
179	0x3bdedbb8	0.006801095
180	0x3c835c5a	0.016035248
181	0x3c9c0329	0.019044476
182	0xbc681eb0	-0.014167473
183	0xbca3126c	-0.019906245
184	0x3d0a1094	0.033707216
185	0xbd5ae730	-0.053443134
186	0x3e166753	0.14687853
187	0xbcf3d078	-0.029762492
188	0x3dceeb1b	0.101034366
189	0xbcbdbee6	-0.023162317
190	0xbd0c0e46	-0.0341933
191	0xbd7bb75c	-0.061454162
192	0x3cfce023	0.030868595
193	0xbd61874b	-0.055060666
194	0x3ceac14b	0.028656622
195	0x3c7b5260	0.015339464
196	0xbbef8375	-0.007309372
197	0x3c08fe31	0.008361385
198	0xbd844d05	-0.06460003
199	0x3c68a9d1	0.014200644
200	0xbd705a7b	-0.05868004
201	0xbb332fd8	-0.002734175
202	0xbd154367	-0.036441233
203	0x3d415171	0.04719681
204	0x3c0f0ac2	0.008730592
205	0x3e2ca6e3	0.16860537
206	0x3bd7b5e0	0.0065829605
207	0x3bcf03ee	0.006317607
208	0x3c1bbe09	0.009505757
209	0x3cfcf292	0.030877385
210	0xbcbae812	-0.022815738
211	0x3b159db5	0.0022829596
212	0xbd265891	-0.040611807
213	0xbe15dca6	-0.14634952
214	0xbcba3b24	-0.022733279
215	0x3c6f9aa2	0.01462427
216	0x3af34f6d	0.00185631
217	0x3bcdf7e7	0.006285656
218	0x3c356220	0.011070758
219	0xbd5514a9	-0.052021656
220	0xbd100d2c	-0.03516881
221	0xbc2e724e	-0.01064737
222	0x3ccba815	0.024860421
223	0xbdb5434d	-0.08850727
224	0xbd607653	-0.054800343
225	0xbcd3946f	-0.025827615
226	0xbd877f3a	-0.066160634
227	0xbc4f679d	-0.012658981
228	0x3e4d36c4	0.20040423
229	0x3cc32b10	0.023824245
230	0x3de6d7fe	0.11271666
231	0xbd1963a8	-0.037448555
232	0xbd451292	-0.048113413
233	0x3dc4d26e	0.09610449
234	0xbcbcee32	-0.0230628
235	0x3e084533	0.13307647
236	0xbcaf49b6	-0.021397453
237	0xbcf0e76e	-0.02940723
238	0x3c809621	0.015696587
239	0x3d2766a0	0.040869355
240	0x3d64f41f	0.055896875
241	0x3cdc1826	0.026866984
242	0xbdb76b92	-0.08956064
243	0x3cb23e7f	0.021758316
244	0x3c26005f	0.010131924
245	0xbc923f22	-0.01785237
246	0xbc0f3a00	-0.008741856
247	0xbd0a9b93	-0.033839773
248	0xbcd2e936	-0.02574597
249	0x3c16c8cf	0.00920315
250	0xbdbe4db6	-0.09292166
251	0xbc749e42	-0.01493031
252	0xbc4a3755	-0.012342294
253	0xbb3cc65b	-0.0028804753
254	0x3dbf1f7b	0.09332176
255	0x3d2ef213	0.04271133

transformer_encoder.layers.1.linear2.bias f4 [6]
0	0xbc02b639	-0.007978016
1	0x3b42fb5f	0.002975188
2	0xbcce9515	-0.025217572
3	0xbbe046e7	-0.0068443897
4	0x3bfbfe3b	0.0076902187
5	0x3b141eb1	0.0022601301
