DU_model/temp/best_model_t7jul_lat_ext_9jul1_2_3_4_5_6_tr.3.16.pth (torch, 328430 bytes, 29 tensors)

norm.weight f4 [6]
0	0x3f800000	1.0
1	0x3f800000	1.0
2	0x3f800000	1.0
3	0x3f800000	1.0
4	0x3f800000	1.0
5	0x3f800000	1.0

norm.bias f4 [6]
0	0x00000000	0.0
1	0x00000000	0.0
2	0x00000000	0.0
3	0x00000000	0.0
4	0x00000000	0.0
5	0x00000000	0.0

transformer_encoder.layers.0.self_attn.in_proj_weight f4 [18, 6]
0	0xbda0a09a	-0.07843132
1	0xbdd6702c	-0.10470614
2	0x3deea0b7	0.11651748
3	0x3ee05d22	0.43821055
4	0x3e8378b9	0.25678042
5	0x3efc0474	0.49222147
6	0xbecae0ae	-0.39624542
7	0xbef57f16	-0.4794852
8	0x3d353a01	0.04424477
9	0xbe25bb5b	-0.16184752
10	0xbe836be2	-0.25668246
11	0x3ed249d7	0.4107196
12	0xbd1a3161	-0.037644748
13	0xbdfd3c55	-0.12365023
14	0xbf033fe1	-0.51269346
15	0x3e03785c	0.12838882
16	0x3ce381e2	0.027771894
17	0x3db9a455	0.09064547
18	0xbe9b7787	-0.3036463
19	0xbce4bd6f	-0.02792236
20	0x3d8bbcf1	0.06823147
21	0x3e6afc41	0.2294779
22	0x3d873658	0.06602162
23	0x3eddf313	0.43349513
24	0xbecb1ce1	-0.3967047
25	0x3e406ff1	0.18792702
26	0x3e47c5bb	0.19509022
27	0xbe8e88f4	-0.27838862
28	0x3e79eb53	0.24406175
29	0xbe1ee16f	-0.15515684
30	0xbe55c40e	-0.2087557
31	0xbeaf39b7	-0.3422372
32	0xbdd9a6e5	-0.10627536
33	0x3e0c0176	0.13672432
34	0xbf05e425	-0.52301246
35	0x3d9c7500	0.076395035
36	0xbe876de2	-0.2645102
37	0xbe70d5a0	-0.23518991
38	0x3eea6113	0.45777187
39	0x3e869701	0.26287082
40	0xbe6ad19d	-0.22931524
41	0xbe6c6d39	-0.2308854
42	0x3ea072a1	0.31337455
43	0x3e18e3d9	0.14930667
44	0x3e7860eb	0.24255721
45	0x3ebadf77	0.36498615
46	0x3e4f5e75	0.20250876
47	0xbed86c97	-0.42270347
48	0xbe3f9d32	-0.18712309
49	0xbf38091d	-0.71888906
50	0xbd5f668d	-0.05454116
51	0xbec30270	-0.38087797
52	0x3ecaed2c	0.39634073
53	0x3ebda4dc	0.3703984
54	0x3ebab234	0.36464083
55	0xbf21fbcd	-0.6327484
56	0x3e59df26	0.2127653
57	0x3e9f40a3	0.31104
58	0xbf0376f8	-0.51353407
59	0xbe80aaf0	-0.25130415
60	0xbe47b526	-0.19502696
61	0xbdf64240	-0.12024355
62	0xbec0056e	-0.37504143
63	0x3ece2f59	0.40270498
64	0xbea0c73c	-0.31402004
65	0x3e9cc810	0.30621386
66	0x3d02df6d	0.031951357
67	0xbe413103	-0.18866353
68	0x3e15056c	0.1455285
69	0x3ddac0dc	0.10681316
70	0x3e63fbc6	0.22264013
71	0xbe522b35	-0.20524295
72	0xc0476724	-3.1156702
73	0x3e49f1d5	0.19721158
74	0xbf852ed1	-1.0404912
75	0x3e8ece41	0.27891734
76	0xbfaa0431	-1.3282529
77	0x3f2c243b	0.67242783
78	0xbd233b60	-0.039851546
79	0xbea9dc07	-0.3317568
80	0x3eea5759	0.45769766
81	0xbdc1b722	-0.09458758
82	0xbf097f59	-0.5370994
83	0xbf8a6cdf	-1.0814475
84	0x404b2192	3.173924
85	0x3e595c12	0.21226528
86	0x3e61c327	0.22047101
87	0x3e3912ff	0.18073653
88	0xbee9f6f4	-0.45696223
89	0xbf81d7e1	-1.0144006
90	0xc07e97d1	-3.9780161
91	0xbf83e115	-1.0303065
92	0xbf92f42f	-1.1480769
93	0x3e27fb3c	0.16404432
94	0xbf50d2df	-0.81571764
95	0x3f59aaf7	0.85026497
96	0x40863c66	4.194873
97	0xbf465c10	-0.77484226
98	0xbf0989e5	-0.53726035
99	0x3d2657b1	0.040610973
100	0xbf81bd3e	-1.0135877
101	0x3f4cda5e	0.800207
102	0xc06bb4d9	-3.682913
103	0x3e548a62	0.20755914
104	0xbe1d7bc7	-0.15379249
105	0x3ea09f95	0.3137175
106	0x3f9ab881	1.2087556
107	0x3dc83367	0.09775429

transformer_encoder.layers.0.self_attn.in_proj_bias f4 [18]
0	0xbe1ffc2e	-0.15623543
1	0xbd75642d	-0.05990999
2	0xbcfd9125	-0.030953
3	0x3cff2204	0.03114415
4	0xbe1bfa16	-0.15232119
5	0xbe1fd2a4	-0.15607697
6	0xbedf2a99	-0.43587187
7	0x3ed74e64	0.42051995
8	0xbe6ec7e3	-0.23318438
9	0xbe8893f9	-0.26675394
10	0xbdbbb189	-0.091647215
11	0x3d78c1fc	0.060731873
12	0xbf2b975e	-0.67027843
13	0x3e8fb3e1	0.28066924
14	0x3e150e27	0.1455618
15	0xbf80176e	-1.000715
16	0xbec5fe33	-0.386705
17	0xbe839158	-0.25696826

transformer_encoder.layers.0.self_attn.out_proj.weight f4 [6, 6]
0	0x3d534482	0.051579006
1	0x3ccc4ad9	0.024938034
2	0xbe430517	-0.1904491
3	0x3e1181a6	0.14209613
4	0xbe848bda	-0.25887948
5	0x3f05421b	0.52053994
6	0xbd97fcde	-0.074212775
7	0xbe799add	-0.24375482
8	0x3db143ee	0.08655535
9	0xbef9f93a	-0.48822957
10	0x3de9c129	0.114137955
11	0xbe1cbcc1	-0.15306379
12	0xbe2fd87c	-0.17172426
13	0xbcd0c917	-0.025486512
14	0x3ec9679e	0.39336866
15	0xbe154cec	-0.14580125
16	0x3e93be1f	0.28855988
17	0xbd6d01bc	-0.057862982
18	0xbd3a7718	-0.045523733
19	0xbe02b332	-0.1276367
20	0xbd37f720	-0.04491341
21	0x3c64e352	0.013970213
22	0x3df6a560	0.120432615
23	0xbb794b9f	-0.0038039458
24	0x3f00d9e1	0.50332457
25	0xbed7c3cd	-0.42141572
26	0x3c5a28c2	0.0133153815
27	0xbe9e66ac	-0.30937707
28	0xbb8e89b6	-0.0043499125
29	0xbd5efc39	-0.054439757
30	0x3e0df0c7	0.1386138
31	0xbeb63724	-0.35588944
32	0x3e6b352a	0.22969499
33	0x3ec68a62	0.38777453
34	0x3f0fd556	0.561849
35	0xbdad0918	-0.08449

transformer_encoder.layers.0.self_attn.out_proj.bias f4 [6]
0	0xbc610e3d	-0.013736305
1	0x3e8ca10e	0.27466625
2	0x3f4bda5c	0.79630065
3	0x3f039939	0.51405674
4	0x3eb1e774	0.34746897
5	0xbfad67d9	-1.3547317

transformer_encoder.layers.0.linear1.weight f4 [2048, 6]
0	0x3dac2677	0.08405774
1	0x3dd4e3ef	0.103950374
2	0x3e8f0b16	0.27938145
3	0x3e675afd	0.22593303
4	0xbef12f34	-0.47106326
5	0xbe72c8c8	-0.23709404
6	0xbe18b519	-0.14912833
7	0x3dfaed81	0.122523315
8	0x3eb09e8e	0.34495968
9	0x3e5104e5	0.20412023
10	0x3edb0c26	0.42782706
11	0xbd8d1568	-0.068888485
12	0xbe1a9566	-0.15096053
13	0x3ee79d96	0.45237416
14	0xbf17a41c	-0.59234786
15	0xbe9f0a87	-0.3106272
16	0xbe03a0dc	-0.12854332
17	0xbe275a9c	-0.16343158
18	0x3f34202b	0.70361584
19	0x3e983940	0.29731178
20	0x3dd3618f	0.10321342
21	0xbe7debfb	-0.2479705
22	0x3e533da8	0.20628989
23	0x3eaabf07	0.33348867
24	0xbca23e32	-0.019805048
25	0x3eac60e5	0.33667675
26	0xbdb4a710	-0.08820927
27	0xbcb4ce9c	-0.022071175
28	0xbe278cc0	-0.16362286
29	0xbe9d486a	-0.3071931
30	0x3c273dd5	0.010207613
31	0x3e00eab6	0.12589535
32	0x3d45c5b7	0.04828426
33	0x3e638c80	0.22221565
34	0xbdb25a22	-0.08708598
35	0x3cca0c3c	0.024664037
36	0xbe86197e	-0.26191324
37	0x3ea13ed4	0.31493247
38	0x3e8a9f9c	0.27074897
39	0x3e6161ea	0.22010008
40	0xbe487b42	-0.19578269
41	0xbe05f04b	-0.13079946
42	0xbe8a8007	-0.27050802
43	0xbd5fa60e	-0.05460172
44	0x3e92f65b	0.2870358
45	0x3c93a515	0.018023053
46	0xbe472994	-0.19449455
47	0xbe951c13	-0.2912298
48	0xbf2c1e37	-0.67233604
49	0x3efee848	0.49786592
50	0x3e31b4db	0.17354147
51	0xbe02f97b	-0.12790482
52	0xbbc31814	-0.005953798
53	0xbee68612	-0.45024163
54	0xbea295fd	-0.31755057
55	0xbef1be6c	-0.47215593
56	0xbdc2cd7a	-0.09511848
57	0xbe69a6bf	-0.22817515
58	0xbeb8e42b	-0.36111578
59	0x3ea8c61c	0.32963645
60	0xbd2deadc	-0.042460307
61	0xbe0e07ec	-0.1387021
62	0x3c00b19f	0.007854848
63	0x3e3403de	0.175796
64	0x3eceb8c7	0.4037535
65	0x3cc791ca	0.02436151
66	0x3d67c00c	0.056579635
67	0xbe8d6a31	-0.2762008
68	0xbe930327	-0.28713343
69	0xbdff4f82	-0.12466337
70	0xbe31fc07	-0.17381297
71	0x3d2024b1	0.03909749
72	0x3e2d268c	0.16909236
73	0xbde24803	-0.110488914
74	0x3e322f2e	0.1740081
75	0x3d360d74	0.044446424
76	0x3e9c9d0e	0.30588573
77	0x3ea7c278	0.32765555
78	0x3ddc1694	0.10746494
79	0xbe7baeac	-0.24578351
80	0x3ebcaf5f	0.36852548
81	0xbecdea9d	-0.40218058
82	0x3d96440c	0.07337198
83	0xbdb84543	-0.089975856
84	0xbe47bba9	-0.1950518
85	0x3e05dfa3	0.13073592
86	0x3e884632	0.26616055
87	0x3e20e8c5	0.15713795
88	0xbe07de85	-0.13268478
89	0xbe8a370d	-0.26995125
90	0x3e1bba95	0.15207894
91	0xbeaa1289	-0.33217266
92	0x3e8044e4	0.2505256
93	0xbf045a4a	-0.5170027
94	0x3e00a229	0.12561859
95	0x3ed65094	0.4185835
96	0x3edf7706	0.43645495
97	0xbca5add9	-0.020224499
98	0xbec98fed	-0.3936762
99	0xbf194829	-0.5987573
100	0xbe6692f2	-0.22516993
101	0xbcf09ab6	-0.029370647
102	0xbe88e440	-0.2673664
103	0x3ec44c7b	0.383396
104	0x3df9d5a1	0.121989496
105	0x3e9de8c2	0.30841643
106	0x3eacefe1	0.33776763
107	0x3e50bf05	0.20385368
108	0xbdf06ac3	-0.11739113
109	0xbc288d89	-0.010287651
110	0x3dcdbbf2	0.10045613
111	0x3ca4bb5d	0.020108873
112	0xbec5754d	-0.38566056
113	0x3ddc244f	0.10749113
114	0x3d5290cf	0.05140763
115	0xbdef5aeb	-0.11687263
116	0x3d800cb2	0.062524214
117	0xbcd139cd	-0.025540257
118	0x3d9d6291	0.07684816
119	0xbddf2d82	-0.10897352
120	0xbee68b48	-0.45028138
121	0x3e598581	0.21242334
122	0xbeaa298a	-0.33234817
123	0x3dfc9d71	0.12334717
124	0x3ed03a2a	0.40669376
125	0x3e774b8d	0.24149914
126	0x3dda8f28	0.10671836
127	0x3e801070	0.2501254
128	0x3d75683a	0.05991385
129	0x3e460d06	0.19340906
130	0xbcc4b0e4	-0.02401013
131	0xbe8c712a	-0.27430087
132	0x3f2b7a75	0.6698373
133	0xbefb1a57	-0.49043533
134	0xbebf93ed	-0.37417546
135	0xbe06ae8a	-0.13152519
136	0x3ec840bc	0.39111888
137	0x3d0de736	0.034644328
138	0x3db3e4fd	0.087839104
139	0x3b81499f	0.003945544
140	0xbd23b6b8	-0.039969176
141	0xbcb26507	-0.02177669
142	0x3d1971db	0.037462097
143	0x3e947daa	0.29002124
144	0x3ef65732	0.481134
145	0x3ec2dc21	0.3805857
146	0xbd84337c	-0.06455132
147	0x3e653445	0.2238322
148	0xbe853b08	-0.260216
149	0xbe15dc1e	-0.1463475
150	0x3dbee674	0.09321299
151	0xbe06c728	-0.1316191
152	0xbe41c514	-0.18922836
153	0xbe5fa770	-0.21841216
154	0x3e2369c6	0.15958318
155	0x3d930a93	0.07179751
156	0xbda114b4	-0.07865277
157	0x3e143aeb	0.144756
158	0x3dfe87f1	0.124282725
159	0xbdf25fc8	-0.11834675
160	0xbde69916	-0.112596676
161	0x3f236854	0.6383107
162	0x3df83e53	0.121212624
163	0xbdbb4d84	-0.09145644
164	0xbe901bf4	-0.28146327
165	0x3d3ba6a2	0.04581321
166	0x3e7f9cdb	0.2496218
167	0xbe0325ee	-0.12807438
168	0x3f35b3a4	0.70977235
169	0xbefcd387	-0.49380133
170	0x3c4c19d7	0.012457333
171	0xbf1642b5	-0.58695537
172	0x3e2a5382	0.16633418
173	0x3e3e39fd	0.18576808
174	0xbe3542aa	-0.17701212
175	0x3c3a4349	0.011368581
176	0x3e864e1d	0.2623147
177	0x3da5080c	0.080581754
178	0xbef13e25	-0.47117725
179	0x3e5d241d	0.21595807
180	0xbde579d8	-0.112048805
181	0x3ebf753e	0.37394136
182	0xbe931b41	-0.2873173
183	0x3e85a26a	0.26100475
184	0xbe9f3c0d	-0.31100503
185	0xbe255580	-0.16145897
186	0xbe3480e2	-0.1762729
187	0x3eda690d	0.42658272
188	0x3eb397e8	0.35076833
189	0xbf04a4f7	-0.51814216
190	0x3d8cabc6	0.06868701
191	0xbc05c7b7	-0.0081652915
192	0x3e8242a5	0.2544147
193	0xbe308361	-0.17237617
194	0xbea09f95	-0.3137175
195	0xbe3be20a	-0.18347946
196	0xbd99db79	-0.07512564
197	0xbe15daa0	-0.1463418
198	0xbc9760e4	-0.018478818
199	0x3ee68e2d	0.45030347
200	0xbe8dda90	-0.27705812
201	0x3e8718da	0.26386148
202	0x3e1c1b66	0.15244827
203	0x3d413e62	0.047178634
204	0xbe73d1b7	-0.23810469
205	0x3ddb0886	0.10694985
206	0xbd493518	-0.0491229
207	0x3e81d172	0.25355107
208	0xbe745730	-0.23861384
209	0xbe931d20	-0.28733158
210	0x3e069709	0.13143553
211	0x3ea2f562	0.31827837
212	0x3e76fb5e	0.24119326
213	0x3e8ea433	0.2785965
214	0x3d66f689	0.056387458
215	0xbe22e451	-0.15907408
216	0x3d22403e	0.039612047
217	0xbe6c4639	-0.23073663
218	0xbede1b96	-0.4338042
219	0xbed98ed3	-0.4249178
220	0x3ebd7209	0.37001064
221	0x3ebebf59	0.37255362
222	0x3e8de038	0.27710128
223	0xbecc7d34	-0.39939272
224	0x3ea03210	0.31288195
225	0x3dadee80	0.08492756
226	0x3c52ca2f	0.012865587
227	0xbe880dc2	-0.26572996
228	0x3dad7a54	0.08470598
229	0x3d82e6a6	0.06391649
230	0x3ea48f1f	0.32140443
231	0x3d668566	0.056279562
232	0xbefbde80	-0.49193192
233	0xbef3966a	-0.47575694
234	0x3e8bcebe	0.2730617
235	0xbe38fe03	-0.18065648
236	0x3e84af27	0.2591488
237	0x3dfce435	0.123482145
238	0xbc8a3fef	-0.016876189
239	0xbe4123fb	-0.18861382
240	0x3e894fc8	0.2681868
241	0xbdb455ac	-0.08805403
242	0xbed84b7d	-0.42245093
243	0x3d0859c4	0.033288732
244	0xbd088203	-0.033327114
245	0xbe772daf	-0.2413852
246	0x3d4e1bf3	0.050319623
247	0xbe9bf0cb	-0.30457148
248	0x3eea8006	0.458008
249	0x3e16a48f	0.14711212
250	0xbe1b0850	-0.1513989
251	0x3e1c388f	0.1525595
252	0xbeafe062	-0.34350878
253	0x3ebd0f3e	0.3692569
254	0xbe17bb24	-0.14817482
255	0x3e20c2bb	0.15699284

transformer_encoder.layers.0.linear1.bias f4 [2048]
0	0xbe882004	-0.26586926
1	0x3e3cf07b	0.18451111
2	0x3edc6057	0.4304225
3	0xbe8414b8	-0.25797057
4	0x3e66eaf8	0.22550571
5	0xbddab9d9	-0.10679979
6	0xbd17934a	-0.0370057
7	0x3c8528df	0.01625484
8	0x3dd387d6	0.10328643
9	0xbed9cb35	-0.42537847
10	0xbe93aa9b	-0.288411
11	0xbdeb7d86	-0.11498551
12	0x3e48479c	0.19558567
13	0xbee2b8a3	-0.44281492
14	0xbddc5ee2	-0.10760285
15	0x3d9e5336	0.07730715
16	0x3d913752	0.0709063
17	0x3cd74ca2	0.026281659
18	0xbe4af88b	-0.19821374
19	0x3e34f503	0.1767159
20	0xbebbe1c9	-0.36695698
21	0xbda370b3	-0.0798048
22	0xbe58d323	-0.21174292
23	0x3e5c21ff	0.21497343
24	0x3c222bc1	0.009898127
25	0x3e5bce71	0.2146547
26	0x3e19017b	0.14941971
27	0xbe4a9360	-0.19782782
28	0x3ddba91f	0.10725617
29	0xbe693b7c	-0.22776598
30	0xbefa303c	-0.48864925
31	0x3e5cb06b	0.21551673
32	0x3e78aa11	0.24283625
33	0xbeb262c0	-0.34840965
34	0xbeee0e42	-0.46495253
35	0xbd628a5b	-0.055307727
36	0x3e8c75f9	0.27433756
37	0xbdd6b621	-0.10483957
38	0xbe190586	-0.14943513
39	0xbd877e93	-0.06615939
40	0xbe7a9bba	-0.24473467
41	0xbe402528	-0.18764174
42	0xbea2ac98	-0.31772304
43	0xbecda4c5	-0.40164772
44	0xbe8c099e	-0.27351087
45	0x3e842f07	0.2581713
46	0xbe37a49f	-0.17933892
47	0xbe64c880	-0.2234211
48	0xbe3cedcc	-0.18450087
49	0xbea0ac14	-0.31381285
50	0xbe9bae58	-0.3040645
51	0x3e289da9	0.16466393
52	0xbeac755a	-0.33683282
53	0xbe5a584c	-0.21322745
54	0x3dbd4873	0.09242334
55	0xbdbbe385	-0.09174255
56	0x3eacbdfa	0.3373869
57	0xbeb42509	-0.35184506
58	0xba1ebf71	-0.00060557487
59	0x3d188f96	0.03724631
60	0x3d9305e3	0.07178857
61	0xbec3bfc8	-0.38232255
62	0x3c734e54	0.014850218
63	0xbd9a135f	-0.07523226
64	0x3e8d4e72	0.27598912
65	0xbea428b6	-0.3206231
66	0x3e9af144	0.30262196
67	0xbc997a70	-0.01873514
68	0xbeae5125	-0.34046283
69	0xbea7c260	-0.32765484
70	0xbea51e26	-0.32249564
71	0xbc012e6d	-0.007884604
72	0xbda9b049	-0.08285577
73	0x3e75da15	0.24008973
74	0xbe57e102	-0.21081927
75	0x3e65b953	0.22433977
76	0x3e2b642c	0.16737431
77	0xbe742b66	-0.2384468
78	0x3c88836b	0.016664227
79	0x3e6aeca5	0.22941835
80	0x3c648ddc	0.013949838
81	0xbce0de13	-0.027449643
82	0xbec0b5a2	-0.37638575
83	0xbc89ffd5	-0.016845623
84	0x3daa4bd4	0.08315244
85	0xbec5401f	-0.38525483
86	0x3e970c4c	0.2950157
87	0x3df7c3bc	0.1209788
88	0x3dfa3818	0.1221773
89	0xbea60fe1	-0.3243399
90	0x3e3067ed	0.17227145
91	0x3e2a9058	0.16656625
92	0x3eb4dab8	0.3532312
93	0xbab2fadc	-0.0013655084
94	0xbe834d36	-0.25644845
95	0xbcb7fdda	-0.022459913
96	0xbe67f491	-0.22651888
97	0xbd44c9c6	-0.04804399
98	0x3e856c47	0.26059172
99	0x3eae642f	0.3406081
100	0xbe25afbd	-0.1618032
101	0xbe039d9c	-0.12853092
102	0x3e0ff4f9	0.14058293
103	0x3e37aba7	0.17936574
104	0x3e233283	0.15937237
105	0xbebd0b27	-0.3692257
106	0xbe08dba2	-0.13365033
107	0x3e25068d	0.1611578
108	0xbddd6cc2	-0.108117595
109	0xbdf92b94	-0.12166515
110	0x3d2430a9	0.04008547
111	0x3c2db88a	0.01060308
112	0xbef2b924	-0.47406876
113	0x3e41d852	0.18930176
114	0xbdcc1938	-0.099657476
115	0xbe62fc7e	-0.2216663
116	0xbec4875b	-0.38384518
117	0xbebd508d	-0.36975518
118	0x3e0d0295	0.13770516
119	0xbe25e906	-0.16202173
120	0x3d89cc11	0.06728376
121	0x3d842828	0.06452972
122	0xbe04c2bc	-0.1296491
123	0xbef1afaa	-0.47204334
124	0xbe57218d	-0.21008892
125	0xbd0fcc16	-0.03510674
126	0xbe85200b	-0.2600101
127	0xbf07eb3d	-0.5309332
128	0xbe469223	-0.19391684
129	0xbea63175	-0.32459608
130	0x3e26507a	0.16241637
131	0xbe93c199	-0.2885864
132	0x3d7d029e	0.061770074
133	0x3e0fc3f0	0.14039588
134	0xbdc7489b	-0.09730645
135	0xbe222c3d	-0.15837188
136	0x3e37d96e	0.17954037
137	0xbe25f653	-0.16207246
138	0xbd420f33	-0.047377776
139	0xbec59310	-0.38588762
140	0x3e47684e	0.19473383
141	0xbcc55fb6	-0.02409349
142	0x3e88a78d	0.2669033
143	0x3df7121b	0.12064
144	0x3e59658a	0.2123014
145	0x3d35f1a8	0.044419914
146	0xbe23c334	-0.15992433
147	0xbe14ceaa	-0.14531961
148	0x3e989724	0.2980281
149	0x3e1661a1	0.1468568
150	0xbc907701	-0.01763487
151	0x3e159d00	0.14610672
152	0xbd81fdc9	-0.06347234
153	0x3e0a8f52	0.13531235
154	0xbd51b1ba	-0.051194884
155	0xbd36822f	-0.044557746
156	0x3e81f5d6	0.2538287
157	0xbdbae557	-0.09125774
158	0x3e9331b9	0.28748873
159	0xbe43e8b3	-0.19131736
160	0xbe734534	-0.23756868
161	0xbe0a6c99	-0.13517989
162	0x3e193cb3	0.14964561
163	0x3e4bb5a2	0.19893506
164	0x3e1bc08a	0.15210167
165	0x3dd5bbbb	0.10436197
166	0xbe815810	-0.252625
167	0xbe82195f	-0.25409982
168	0x3def4e29	0.1168483
169	0xbe466ff4	-0.19378644
170	0xbebb0858	-0.36529803
171	0xbe971328	-0.29506803
172	0xbdf35e30	-0.11883199
173	0xbe79aece	-0.24383089
174	0xbd23e559	-0.040013645
175	0x3c9eb0bc	0.019371383
176	0xbe4df2e0	-0.2011218
177	0x3e1fea36	0.15616688
178	0x3e2a6c00	0.16642761
179	0x3e90302d	0.28161755
180	0xbe2ee383	-0.17078976
181	0xbb3cbe29	-0.0028799868
182	0xbe1f6ad3	-0.15568094
183	0xbe37d323	-0.17951636
184	0xbea52f4b	-0.32262644
185	0xbe4017be	-0.18759057
186	0xbd3b884b	-0.045784276
187	0x3daa95f7	0.08329385
188	0xbd891e89	-0.06695277
189	0x3dd57551	0.10422767
190	0xbe7426ee	-0.23842975
191	0xbe5e9fb1	-0.21740605
192	0xbe514cd5	-0.20439465
193	0xbe828699	-0.25493315
194	0x3b988332	0.0046543116
195	0x3e7e5a14	0.2483905
196	0x3def19e5	0.11674861
197	0xbdd87ce9	-0.105707
198	0xbe9f6062	-0.31128222
199	0x3dfb4fe0	0.12271094
200	0x3da8bf6b	0.08239635
201	0x3e0268a5	0.12735231
202	0xbde8f8e9	-0.11375601
203	0xbf011caf	-0.5043439
204	0x3d83838d	0.06421576
205	0xbc78a528	-0.015176095
206	0xbc3e642a	-0.011620561
207	0xbec74cec	-0.38925874
208	0x3e4e31e5	0.20136221
209	0x3ead7581	0.3387871
210	0xbea27106	-0.31726855
211	0x3cd8a26f	0.026444642
212	0x3d8c7913	0.068590306
213	0xbef59b19	-0.47969893
214	0xbe8791de	-0.26478475
215	0xbeaab1c3	-0.33338746
216	0xbe2b3da5	-0.16722734
217	0x3e5abf83	0.21362118
218	0x3e6e1a56	0.23252234
219	0xbd12b52e	-0.035817318
220	0xbeabe798	-0.3357513
221	0xbe5c2970	-0.21500182
222	0x3e19c658	0.15017068
223	0x3e92f68f	0.28703734
224	0x3db4dff2	0.08831777
225	0xbe2170b0	-0.15765643
226	0x3eace7cb	0.33770594
227	0x3eb65f83	0.35619745
228	0x3d1aae61	0.037763957
229	0xbe9ae4e1	-0.30252746
230	0xbed1c7e3	-0.40972814
231	0xbcb91342	-0.02259219
232	0xbdc010f4	-0.093782336
233	0xbed4a665	-0.415332
234	0xbe28333c	-0.16425794
235	0x3d8b5506	0.06803326
236	0xbcf99321	-0.030465664
237	0x3e8dbcca	0.27683097
238	0xbe8f8baf	-0.28036258
239	0xbd8f9d51	-0.070124276
240	0xbe726a92	-0.23673466
241	0x3dc7a99c	0.09749147
242	0xbd60572f	-0.054770645
243	0xbe6264fd	-0.22108836
244	0x3dd4a6b6	0.1038336
245	0xbd0ed18e	-0.034867816
246	0xbf084f2f	-0.53245825
247	0xbdcb2979	-0.0992002
248	0x3de15a8c	0.110035986
249	0xbeaa6324	-0.33278763
250	0x3c92d334	0.017922975
251	0xbeb4717d	-0.35242835
252	0x3e8ee91d	0.27912226
253	0xbdba433b	-0.090948544
254	0xbec1fa3c	-0.37886226
255	0x3ec3043f	0.38089177

transformer_encoder.layers.0.linear2.weight f4 [6, 2048]
0	0x3d61eff2	0.05516047
1	0xbc202754	-0.009775002
2	0x3d9ba1d9	0.07599229
3	0x3e0cf8ae	0.13766739
4	0xbc67ae2b	-0.014140646
5	0xbd045973	-0.032311868
6	0xbca268b5	-0.019825319
7	0xbca7a068	-0.02046223
8	0xbe654029	-0.22387756
9	0xbea2a503	-0.3176652
10	0xbc90c725	-0.017673085
11	0x3d8d06fe	0.06886099
12	0x3d64390e	0.055718474
13	0x3d5d2a35	0.05399533
14	0xbd3a6f9f	-0.045516606
15	0xbe0c7d8a	-0.13719764
16	0x3e9c32b9	0.30507448
17	0xbc596cd6	-0.013270577
18	0xbc1239f4	-0.00892495
19	0xbcbef1af	-0.023308603
20	0x3d8d5474	0.06900874
21	0xbd19d0ff	-0.03755283
22	0x3e80ae8a	0.25133163
23	0x3adc231b	0.001679513
24	0xbd0811e8	-0.0332202
25	0x3c1e9c00	0.009680748
26	0xbe2bbf17	-0.16772114
27	0x3b8e92d8	0.0043510012
28	0xbda353eb	-0.079749905
29	0xbcfd64b9	-0.030931817
30	0xbcca6ddf	-0.024710594
31	0x3dd87dbb	0.10570856
32	0xbcdfcb93	-0.027318751
33	0xbbd87940	-0.006606251
34	0xbcc05f8f	-0.023483066
35	0xbc008a4e	-0.007845474
36	0xbe750c36	-0.2393044
37	0x3b0026c7	0.0019554363
38	0x3dc876a2	0.097882524
39	0xbb288962	-0.0025716652
40	0x3ba85303	0.005136849
41	0x3dbf58fc	0.09343144
42	0x3dfbc563	0.12293508
43	0x3e9727d4	0.29522574
44	0xbc40ecb7	-0.011775187
45	0xbc34e70b	-0.011041413
46	0xbd140dfa	-0.03614614
47	0xbd471c50	-0.048610985
48	0xba844c9c	-0.0010093632
49	0x3e90ad7a	0.28257352
50	0x3e3f219d	0.18665166
51	0x3d9738e1	0.07383896
52	0x3c00a061	0.007850737
53	0x3df0acf7	0.117517404
54	0x3eaa9a1a	0.33320695
55	0x3d292abb	0.041300517
56	0xbcc6472c	-0.02420386
57	0xbf1aaead	-0.60422784
58	0xbcfc0fea	-0.030769307
59	0xbc436537	-0.011925987
60	0xbe0f6a1f	-0.14005326
61	0x3e12ad86	0.14324006
62	0xbba82a76	-0.005132015
63	0xbe7ab2de	-0.24482295
64	0x3c8afe50	0.016966969
65	0xbd93969f	-0.07206463
66	0xbc0002e5	-0.00781319
67	0xbcf2d3dd	-0.02964204
68	0xbd101b58	-0.035182327
69	0xbd59e107	-0.05319312
70	0x3e66dc0e	0.22544882
71	0x3a917ef0	0.0011100452
72	0xbca5706c	-0.020195208
73	0xbcb2e362	-0.02183694
74	0x3aa40a10	0.0012515206
75	0x3b5316cb	0.003220963
76	0x3cf0be37	0.029387577
77	0x3ced530b	0.028970262
78	0x3d06c4d7	0.032902565
79	0x3b976302	0.004619957
80	0x3c1f8bf7	0.00973796
81	0xbbbf7395	-0.005842636
82	0xbc27d2f3	-0.010243165
83	0x3e1b1bd4	0.15147334
84	0xbe44feb3	-0.19237785
85	0xbeb37035	-0.35046545
86	0xbc7c0add	-0.015383449
87	0xbc94576a	-0.018108089
88	0xbcc8b5e9	-0.024500804
89	0xbd049e45	-0.0323775
90	0xbc44c571	-0.012009964
91	0x3bbea807	0.0058183703
92	0xbd1310b9	-0.03590462
93	0xbdc3954d	-0.09549961
94	0x3dc191bf	0.09451627
95	0x3c87123f	0.016488193
96	0xbbd4d8a4	-0.006495552
97	0xbd36c17d	-0.04461812
98	0x3dd67813	0.10472121
99	0x3f1111d2	0.56667817
100	0xbdff4409	-0.124641486
101	0xbe2eccbf	-0.17070292
102	0xbd803ca4	-0.06261566
103	0xbe69230c	-0.22767276
104	0xbc4b1424	-0.012394939
105	0x3dcfdd5e	0.10149644
106	0x3baba9c1	0.005238742
107	0xbbcb0a8c	-0.0061963256
108	0xbc073ba0	-0.008253962
109	0xbd12a186	-0.035798572
110	0xbc778d80	-0.01510942
111	0xbe527d2e	-0.20555565
112	0xbe0608ce	-0.13089296
113	0xbca29b88	-0.019849554
114	0xbd1f5af7	-0.03890511
115	0xbdca9f27	-0.09893637
116	0xbafe92f6	-0.001942246
117	0x3e8b0992	0.2715574
118	0xbd278bf0	-0.04090494
119	0x3e38066a	0.17971197
120	0x3fbd4dab	1.4789327
121	0xbcbb803a	-0.022888292
122	0xbf67bb5f	-0.9052028
123	0xbe1f9b1d	-0.15586515
124	0x3f16b3db	0.5886819
125	0xbd1d7edd	-0.038451064
126	0x3e3fe268	0.18738711
127	0xbbed74a6	-0.0072465716
128	0xbbb0d3db	-0.005396349
129	0x3ec48329	0.38381317
130	0xbb5afe5b	-0.0033415768
131	0xbc9dadc2	-0.019247893
132	0x3ba1566d	0.004923633
133	0xbd21117d	-0.03932332
134	0x3e7c74c6	0.2465392
135	0xbd279955	-0.040917713
136	0x3cfc52ef	0.030801265
137	0xbcaa4e7d	-0.02078938
138	0xbd607bd8	-0.054805607
139	0x3db0b541	0.086283214
140	0xbd0a53c6	-0.0337713
141	0xbd47b04f	-0.048752125
142	0xba940d33	-0.0011295438
143	0xbd3f1e0e	-0.04665952
144	0xbc47296b	-0.012155871
145	0xbb08596e	-0.0020805257
146	0xbccb6b05	-0.024831304
147	0xbe877069	-0.2645295
148	0x3e005da4	0.12535721
149	0x3e86a037	0.2629411
150	0xbc5917b8	-0.013250284
151	0xbc823a73	-0.015897011
152	0xbb844dd4	-0.004037598
153	0xbe902153	-0.28150424
154	0x3d643961	0.055718783
155	0xbd605a0a	-0.054773368
156	0xbca0a7c8	-0.019611254
157	0xbc2cad06	-0.010539299
158	0x3f8660ea	1.0498326
159	0xbe46211e	-0.1934857
160	0x3cabc183	0.020966297
161	0xbcb17c99	-0.021665858
162	0xbaf6019d	-0.0018768791
163	0xbc5632a7	-0.0130736
164	0xbc5604b8	-0.0130626485
165	0xbd428596	-0.04749068
166	0xbcb406e5	-0.021975944
167	0xbcd8fddd	-0.026488239
168	0x3e34491f	0.17606018
169	0x3e871ecb	0.2639068
170	0x3d69d859	0.05709109
171	0x3d249a35	0.040186126
172	0x3d2f5cca	0.0428131
173	0x3e5ba330	0.2144897
174	0xbb6f5d4d	-0.0036524117
175	0x3d9b051e	0.075693354
176	0xbd5c9c2f	-0.053859886
177	0xbe2c3c3d	-0.16819854
178	0x3daa3fd5	0.08312956
179	0x3bb3dd69	0.0054890406
180	0x3d39e858	0.045387596
181	0xbbbf641d	-0.005840792
182	0xbb387c4e	-0.0028150263
183	0xbea8282e	-0.32843155
184	0x3f14a55b	0.5806481
185	0x3e307d5c	0.17235321
186	0xbedc83a4	-0.43069184
187	0xbe829e5c	-0.25511444
188	0x3e4dc138	0.20093238
189	0x3e36842d	0.17823859
190	0xbe98b86b	-0.298282
191	0xbbfb73f7	-0.007673736
192	0xbbf15c2b	-0.0073657236
193	0x3d0c3956	0.034234367
194	0x3e67ec86	0.2264882
195	0xbd4bb24d	-0.049730588
196	0xbb57a8ea	-0.0032907077
197	0xbcdd88bf	-0.027042745
198	0xbcd0457a	-0.025423754
199	0x3d74e5db	0.05978952
200	0xbc9db985	-0.019253502
201	0xbcafb62f	-0.021449177
202	0xbd021f70	-0.031768262
203	0x3e01081b	0.12600748
204	0x3e6f44b0	0.23366046
205	0xbd7cf3e8	-0.061756045
206	0x3e813c52	0.25241333
207	0xbd171707	-0.036887195
208	0xbc08836d	-0.008332116
209	0x3c2f19b5	0.010687281
210	0x3ce5e06b	0.028061112
211	0xbe7e9609	-0.24861921
212	0xbc04fb2d	-0.008116526
213	0xbde62914	-0.11238304
214	0xbebe2305	-0.37136093
215	0xbe566a6d	-0.20939036
216	0xbd84239c	-0.064521044
217	0xbd9fe464	-0.07807234
218	0xbb8c34f5	-0.004278774
219	0xbe9d3470	-0.3070407
220	0xbe79282b	-0.24331729
221	0xbdb9e29a	-0.09076424
222	0x3d9c43af	0.07630097
223	0xbc5a67b3	-0.013330388
224	0xbad50bae	-0.0016254091
225	0x3db05737	0.08610385
226	0x3e7f39b9	0.24924363
227	0x3e9847fc	0.2974242
228	0xbdae4522	-0.0850928
229	0xbc8d813c	-0.017273538
230	0x3e7953c7	0.24348365
231	0x3cad97f9	0.02119063
232	0xbd00a731	-0.031409446
233	0xbe37b9b1	-0.1794193
234	0xbc989acb	-0.018628499
235	0xbe88a148	-0.26685548
236	0x3ea81e6b	0.32835707
237	0x3eea883a	0.45807058
238	0xbb94745c	-0.0045304727
239	0x3ee99aca	0.45625907
240	0xbcd490f4	-0.025948025
241	0x3ea1fb55	0.31637064
242	0xbc2b485e	-0.010454265
243	0xbd5c091f	-0.053719636
244	0x3eda0a2b	0.42585883
245	0x3c933ae5	0.017972419
246	0xbdc7609d	-0.097352244
247	0x3dff8b87	0.124777846
248	0x3dc3ebea	0.095664814
249	0xbc793541	-0.015210451
250	0x3b29e4aa	0.0025923648
251	0xbde8c3d9	-0.1136548
252	0xbeb0d6c1	-0.34538844
253	0x3be448ce	0.006966687
254	0x3cf161de	0.029465612
255	0x3ea8de8f	0.329823

transformer_encoder.layers.0.linear2.bias f4 [6]
0	0xbd5b1511	-0.053486887
1	0x3c77aca6	0.015116846
2	0xbc69a1fd	-0.014259812
3	0xbc2bdce2	-0.010489674
4	0x3d7f66da	0.062353946
5	0x3c52ca0f	0.012865557

transformer_encoder.layers.0.norm1.weight f4 [6]
0	0x3f8969a6	1.0735366
1	0x3f7fd997	0.9994139
2	0x3f8a3032	1.0795958
3	0x3f72897b	0.9474103
4	0x3f904012	1.1269553
5	0x3f9ce765	1.2258116

transformer_encoder.layers.0.norm1.bias f4 [6]
0	0xbc3bd0c7	-0.011463351
1	0x3e035d0f	0.12828468
2	0x3c03ce98	0.008044861
3	0xbdb2a024	-0.08721951
4	0x3d847aae	0.06468712
5	0xbc88384d	-0.016628409

transformer_encoder.layers.0.norm2.weight f4 [6]
0	0x3fc9c734	1.5763917
1	0x3f826239	1.0186225
2	0x3f877aff	1.058441
3	0x3f13a1c2	0.576687
4	0x3f47918b	0.77956456
5	0x3f7e6655	0.99374896

transformer_encoder.layers.0.norm2.bias f4 [6]
0	0xbbf39798	-0.007433843
1	0x3d82dadc	0.063894
2	0xbdc66e3d	-0.09688995
3	0x3c37ea91	0.011225359
4	0xbd62b259	-0.055345867
5	0xbc80ccd1	-0.015722664

transformer_encoder.layers.1.self_attn.in_proj_weight f4 [18, 6]
0	0xbcf441d6	-0.02981655
1	0xbe3e999a	-0.18613282
2	0x3e538090	0.20654511
3	0x3f1c0e26	0.6095909
4	0x3ecd1cb8	0.40060973
5	0x3eb61e3f	0.3556995
6	0xbed8f8b0	-0.42377234
7	0xbf39c64e	-0.72568214
8	0x3d4e8577	0.05042025
9	0x3c06c1fb	0.0082249595
10	0xbe8c507b	-0.27405152
11	0x3e5a9575	0.21346076
12	0xbdad283e	-0.08454941
13	0xbd67a966	-0.056558035
14	0xbf3ad5e6	-0.72982633
15	0xbca3cb78	-0.019994482
16	0x3e5edf1a	0.21764794
17	0x3eae3355	0.34023538
18	0xbe61486f	-0.22000287
19	0xbe083b32	-0.13303831
20	0x3d083f3c	0.03326343
21	0x3ecc7816	0.39935368
22	0xbcb29f35	-0.021804431
23	0x3ee5f070	0.44910002
24	0xbcdc718f	-0.026909618
25	0xbccd05c3	-0.025027161
26	0x3e3d3a49	0.18479265
27	0x3d8c999f	0.068652384
28	0x3f2fa97c	0.6861799
29	0x3da262b5	0.07928983
30	0xbdae1c52	-0.085014954
31	0x3c607e33	0.013701963
32	0x3e2debf6	0.16984543
33	0x3d881e44	0.06646398
34	0xbf54eae2	-0.831709
35	0x3f16ffff	0.5898437
36	0x3d90b509	0.0706578
37	0x3cffcab8	0.031224594
38	0x3f217bb6	0.6307939
39	0x3def9265	0.116978444
40	0xbee6f2c0	-0.4510708
41	0xbda1054f	-0.07862341
42	0x3e92dd68	0.28684545
43	0xbe8fbe9c	-0.2807511
44	0x3e8979fc	0.2685088
45	0x3eede0c3	0.46460542
46	0x3d21df60	0.039519668
47	0xbeb540da	-0.3540104
48	0xbf4feda1	-0.8122197
49	0x3e0d13ee	0.13777134
50	0xbf5767a0	-0.84142494
51	0xbeaa0926	-0.33210105
52	0x3e07a96a	0.1324822
53	0x3f3165f9	0.6929622
54	0x3e85fcce	0.26169437
55	0x3e75680c	0.23965472
56	0xbd3aa6d0	-0.04556924
57	0x3e5d6986	0.21622285
58	0xbf08dfb2	-0.5346633
59	0xbf86a4f2	-1.0519087
60	0x3dc55f17	0.096372776
61	0xbd61e7fb	-0.055152874
62	0xbe705f61	-0.23473884
63	0xbdbdcde1	-0.09267784
64	0xbebcb7dc	-0.36859024
65	0xbcc3a1ed	-0.023880923
66	0xbf08c893	-0.5343105
67	0xbce2a282	-0.02766538
68	0xbec0f232	-0.3768478
69	0x3f139b9a	0.57659304
70	0x3f0111ec	0.5041797
71	0x3e4b1466	0.19832
72	0xbf1360f0	-0.5756979
73	0x3ec01828	0.3751843
74	0xbe93bb64	-0.28853905
75	0x3e3957d0	0.18099904
76	0x3d8988a7	0.067155175
77	0xbee5001c	-0.44726646
78	0x3eaba047	0.3352072
79	0xbdba30c0	-0.090913296
80	0x3e13af1a	0.14422265
81	0xbdde5238	-0.10855526
82	0xbe6273d3	-0.22114496
83	0xbed92561	-0.4241133
84	0x3e9e1aba	0.30879766
85	0x3ea14bb3	0.31503066
86	0x3cb67c98	0.022276208
87	0x3e2239a4	0.158423
88	0xbe84f490	-0.25967836
89	0xbe54d2ea	-0.20783582
90	0xbd8d3b09	-0.06896026
91	0xbf131964	-0.5746062
92	0x3d053143	0.032517683
93	0x3e362446	0.17787275
94	0x3cf1a47d	0.02949738
95	0x3f059f1f	0.52195925
96	0x3e0584fe	0.13039014
97	0xbee8e480	-0.45486832
98	0x3d49f15c	0.049302444
99	0x3e5b5573	0.21419315
100	0xbd8f1f59	-0.06988401
101	0x3ed73543	0.42032823
102	0xbe444948	-0.1916858
103	0x3ecba80c	0.39776647
104	0xbe2c9d19	-0.16856803
105	0x3e2d96b9	0.16952027
106	0x3eb8284f	0.35968253
107	0x3eeece45	0.46641746

transformer_encoder.layers.1.self_attn.in_proj_bias f4 [18]
0	0xbde06171	-0.109560855
1	0xbdc6831d	-0.096929766
2	0x3ee12084	0.4397012
3	0xbeedfaa5	-0.4648029
4	0x3dfe349f	0.124123804
5	0xbd4bb16a	-0.049729742
6	0x39c4078b	0.00037389653
7	0x3a9b167f	0.0011832266
8	0xb9b32282	-0.0003416725
9	0x39014729	0.00012328908
10	0x3a8f835a	0.001094918
11	0xb8884b7c	-6.4990454e-05
12	0x3cd2a27c	0.025712244
13	0x3ce67ab6	0.028134685
14	0x3db04629	0.08607132
15	0xbe03fc0b	-0.12889116
16	0xbd67a427	-0.056553032
17	0x3a10cda8	0.0005523809

transformer_encoder.layers.1.self_attn.out_proj.weight f4 [6, 6]
0	0xbe67d646	-0.22640333
1	0x3e234741	0.1594515
2	0x3e0b9a37	0.13633047
3	0xbcb8f3c5	-0.022577176
4	0xbe3aac1f	-0.18229721
5	0x3ec2f387	0.38076422
6	0xbeb096a9	-0.34489945
7	0x3d38c2e6	0.045107745
8	0xbd41cc8c	-0.04731421
9	0xbe73bc60	-0.23802328
10	0x3e82b5a5	0.2552921
11	0xbec8f37b	-0.3924826
12	0xbd8710b1	-0.065949805
13	0xbe825372	-0.2545429
14	0x3eae0f38	0.33995986
15	0xbe1a053e	-0.15041062
16	0x3e85d698	0.26140285
17	0xbd6d87d5	-0.057990868
18	0x3db688af	0.08912789
19	0xbed9780a	-0.42474395
20	0x3ddcc3e7	0.10779553
21	0x3f4c25a1	0.7974492
22	0x3eb391d9	0.3507221
23	0x3cb4d99a	0.022076417
24	0x3e91c3c1	0.2846966
25	0xbda74f65	-0.0816944
26	0xbd93cc54	-0.07216707
27	0xbec9dbcd	-0.39425507
28	0xbe1b950e	-0.15193579
29	0x3e541168	0.20709765
30	0xbda5c405	-0.080940284
31	0xbe30294a	-0.1720325
32	0xbe19b0eb	-0.15008895
33	0x3e89cd40	0.26914406
34	0x3e923fb3	0.28564224
35	0xbdf3aa8d	-0.11897764

transformer_encoder.layers.1.self_attn.out_proj.bias f4 [6]
0	0x3ca4af06	0.020102989
1	0x3d3f0d89	0.046643768
2	0x3d07f4d7	0.03319248
3	0xbe0e21f8	-0.13880146
4	0x3da8713f	0.08224725
5	0xbd5bb3bc	-0.053638205

transformer_encoder.layers.1.linear1.weight f4 [2048, 6]
0	0x3db22cc0	0.08699942
1	0x3d0e5d7b	0.03475712
2	0x3eda818f	0.4267697
3	0x3e6086e5	0.21926458
4	0xbec52632	-0.38505703
5	0x3eb16730	0.34649038
6	0xbe44d05b	-0.19220106
7	0x3dbe6a1a	0.09297581
8	0x3e8cf44c	0.27530134
9	0x3ebe58a3	0.37177
10	0x3e5e8443	0.21730141
11	0xbebdab7d	-0.37044898
12	0xbda053ed	-0.078285076
13	0x3ed49f14	0.41527617
14	0xbe8a0dd1	-0.26963666
15	0xbeac0794	-0.33599532
16	0xbecde419	-0.40213087
17	0xbe7f975a	-0.2496008
18	0x3e6e3337	0.23261724
19	0x3ed0b77f	0.40764996
20	0x3ea4b277	0.32167408
21	0xbe261b4e	-0.16221353
22	0x3ed5b525	0.41739765
23	0x3ed1db23	0.409875
24	0xbd860d9e	-0.06545566
25	0x3e6178a8	0.22018683
26	0xbd20b882	-0.03923846
27	0xbdf76100	-0.12079048
28	0xbde9d1cd	-0.114169694
29	0xbef2225d	-0.47291842
30	0xbe1331a4	-0.14374405
31	0x3d169504	0.036763206
32	0x3d4220f3	0.047394704
33	0x3e932d8b	0.28745684
34	0xbd0c4d73	-0.03425355
35	0xbe115565	-0.14192732
36	0xbe1ed243	-0.15509896
37	0x3f11505f	0.5676326
38	0x3e7a8356	0.24464163
39	0xbd8598d7	-0.065232925
40	0xbdba568e	-0.0909854
41	0xbe8a9b48	-0.27071595
42	0xbd156d5d	-0.03648125
43	0xbdbbc710	-0.091688275
44	0x3ebe330f	0.3714833
45	0xbeb572db	-0.3543919
46	0xbe5739b3	-0.21018104
47	0xbe89d6dc	-0.26921737
48	0xbeae2c9c	-0.3401841
49	0x3e8f17cc	0.27947843
50	0x3e6c88f4	0.23099118
51	0xbeaa21b4	-0.33228838
52	0xbc7ff897	-0.015623233
53	0xbecbfef0	-0.3984294
54	0xbee5596d	-0.4479479
55	0xbec9dff9	-0.3942869
56	0xbe49ee72	-0.19719866
57	0xbd76d581	-0.060262207
58	0xbda3e2be	-0.08002232
59	0xbdbd8432	-0.0925373
60	0xbe4f0876	-0.20218071
61	0xbe7f9b3b	-0.2496156
62	0x3d127c99	0.035763357
63	0x3e59c8fa	0.21268073
64	0x3e837325	0.25673786
65	0x3dba808f	0.09106552
66	0xbdca21dc	-0.098697394
67	0xbe6c717f	-0.2309017
68	0xbe66c0c8	-0.22534478
69	0xbe13c29d	-0.14429708
70	0xbe33b306	-0.17548761
71	0xbda2a535	-0.07941667
72	0x3d9238bb	0.07139727
73	0x3c97d433	0.018533802
74	0x3e974b04	0.2954942
75	0x3de9602f	0.11395299
76	0x3e5038dc	0.2033419
77	0x3e0787d9	0.13235416
78	0x3caecb31	0.021337124
79	0xbc017c1d	-0.007903126
80	0x3f14af7a	0.58080256
81	0xbf16c3dd	-0.58892614
82	0xbe53a9f8	-0.20670307
83	0xbe895cd3	-0.26828632
84	0xbea2bc96	-0.31784505
85	0x3d5675b8	0.05235836
86	0x3ec58284	0.38576138
87	0x3e1a7969	0.15085377
88	0xbe3071c9	-0.17230906
89	0xbeb7a464	-0.35867608
90	0xbd9826d4	-0.07429281
91	0xbe6e1a3a	-0.23252192
92	0x3e9a906b	0.30188307
93	0xbd4e710c	-0.05040078
94	0xbe4891e2	-0.195869
95	0x3db9a062	0.09063794
96	0x3db814b6	0.08988325
97	0x3dfc061d	0.123058535
98	0xbe333679	-0.17501248
99	0xbed0e004	-0.4079591
100	0xbe0ee4e3	-0.13954501
101	0xbd59dee4	-0.05319108
102	0xbe00dd2f	-0.12584375
103	0x3e9ead3e	0.30991548
104	0x3de263c7	0.11054187
105	0x3e691039	0.22760095
106	0x3e2e0dbb	0.16997425
107	0x3e4461d2	0.1917794
108	0xbe215362	-0.15754464
109	0xbc72805b	-0.01480111
110	0x3e36a6fb	0.17837135
111	0x3cb47298	0.022027299
112	0xbede6209	-0.4343417
113	0xbe0b3089	-0.13592733
114	0xbd0a6920	-0.03379166
115	0xbdc103fe	-0.094245896
116	0x3ce87a6f	0.028378693
117	0xbdc2c44e	-0.095100984
118	0xbbf26acd	-0.0073979856
119	0xbdbadc52	-0.09124054
120	0xbeb806d8	-0.3594272
121	0x3e32bc4b	0.1745464
122	0xbe97d587	-0.29655096
123	0x3e2db7e3	0.16964678
124	0x3dcd604d	0.100281335
125	0x3e0cfba5	0.1376787
126	0x3d7aaf60	0.061202407
127	0x3ee84f5e	0.45373052
128	0x3d4e54b7	0.05037376
129	0x3d0c95b7	0.034322467
130	0x3e0d802c	0.13818425
131	0xbebf03e5	-0.3730766
132	0x3e98b7e3	0.29827794
133	0xbe1c2814	-0.15249664
134	0xbea2f25b	-0.31825528
135	0xbe576563	-0.2103477
136	0x3e976884	0.29571927
137	0xbe2116c4	-0.1573134
138	0xbcba4562	-0.022738162
139	0x3d15dad7	0.036585655
140	0x3d94b8c2	0.07261802
141	0xbd7b4e3c	-0.061353907
142	0xbce6ceae	-0.028174724
143	0xbcc1c122	-0.023651663
144	0x3e45be31	0.19310834
145	0x3ed47ded	0.41502324
146	0xbd8e1d60	-0.069391966
147	0x3ea86956	0.32892865
148	0xbe33502b	-0.1751105
149	0xbec2d447	-0.3805258
150	0xbda2f94d	-0.079577066
151	0xbde213bf	-0.110389225
152	0xba97ad2e	-0.0011571997
153	0xbe0f6a92	-0.14005497
154	0x3ba78413	0.00511218
155	0xbe270c4e	-0.16313288
156	0x3af51dad	0.0018700861
157	0x3dda7c97	0.10668295
158	0x3e8c3767	0.2738602
159	0xbd771d0a	-0.06033043
160	0x3d902c10	0.07039654
161	0x3e26d2eb	0.16291396
162	0x3de47e7a	0.11156936
163	0xbe7f17ae	-0.24911377
164	0xbe47db10	-0.1951716
165	0x3cb4fa73	0.02209208
166	0x3e5da6cb	0.21645658
167	0xbea0eab0	-0.31429052
168	0x3e4b488f	0.19851898
169	0xbe809e70	-0.25120878
170	0x3cd56dff	0.026053427
171	0xbd76accc	-0.060223386
172	0x3c8a4efd	0.016883368
173	0xbc3547b1	-0.011064456
174	0xbc9130d7	-0.017723484
175	0xbcb1e9f0	-0.021717995
176	0x3e814ed9	0.25255468
177	0xbd178f47	-0.037001874
178	0xbebf906d	-0.37414876
179	0x3e6c9507	0.23103724
180	0xbe76edc8	-0.24114144
181	0x3e87f097	0.26550743
182	0xbe826235	-0.2546555
183	0x3eb1e6b4	0.34746325
184	0xbeb541d7	-0.35401794
185	0xbf06f237	-0.5271334
186	0xbd7488a9	-0.05970064
187	0x3eca7973	0.39545783
188	0x3e9f16a2	0.31071955
189	0xbee2a5bd	-0.44267073
190	0xbdab66e6	-0.08369236
191	0xbc4cb303	-0.012493852
192	0xbd500fe0	-0.05079639
193	0xbdcbb3b0	-0.09946382
194	0xbdbad7ad	-0.09123168
195	0xbe4d858d	-0.20070477
196	0xbd620033	-0.05517597
197	0xbeb7f4dd	-0.35929003
198	0x3ceae647	0.028674258
199	0x3e8f78d2	0.28021866
200	0xbe9b6034	-0.30346835
201	0x3ec78204	0.38966382
202	0xbe0480a7	-0.12939702
203	0xbe9996d6	-0.2999789
204	0xbd3a03e3	-0.045413863
205	0xbe68e377	-0.22743021
206	0xbc971822	-0.018444125
207	0x3e9280ef	0.28613994
208	0xbdfd0ac9	-0.12355573
209	0xbf201136	-0.6252626
210	0xbc0838ee	-0.008314354
211	0x3e4a25eb	0.19741027
212	0x3eb0626e	0.34450096
213	0x3eaff164	0.34363854
214	0xbdc68a0d	-0.096943
215	0xbec574ac	-0.38565576
216	0xbd34e9cd	-0.044168282
217	0xbe195cfe	-0.1497688
218	0xbbcc5964	-0.006236242
219	0xbeaa9954	-0.33320105
220	0x3d8b8f77	0.06814473
221	0xbdc94820	-0.0982821
222	0x3ae04298	0.001710969
223	0xbe94ccac	-0.29062402
224	0x3f225a77	0.6341929
225	0x3dd298fc	0.10283086
226	0x3e159247	0.14606582
227	0xbf260234	-0.6484711
228	0x3e02bb54	0.12766773
229	0xbd8c617f	-0.068545334
230	0x3f2020f7	0.625503
231	0xbd973619	-0.07383365
232	0xbe570856	-0.20999274
233	0xbf01ad07	-0.50654644
234	0x3debfc21	0.11522699
235	0xbdb92b59	-0.09041471
236	0x3ef6030b	0.48049197
237	0x3e68304b	0.22674672
238	0x3e223674	0.15841085
239	0xbf0a218e	-0.5395745
240	0x3d887aad	0.066640235
241	0x3d52f031	0.051498596
242	0xbeed0969	-0.46296242
243	0x3e2bdbc1	0.16783048
244	0x3cf40640	0.029788136
245	0xbec94cad	-0.3931631
246	0x3ca20706	0.01977874
247	0xbea83b89	-0.32857922
248	0x3ea26093	0.31714305
249	0x3df399df	0.11894583
250	0xbda95c48	-0.082695544
251	0x3e59489a	0.21219102
252	0xbe5f62d0	-0.21815038
253	0x3eaa2075	0.33227888
254	0xbd868950	-0.06569159
255	0xbd196f85	-0.03745987

transformer_encoder.layers.1.linear1.bias f4 [2048]
0	0xbee28a24	-0.44246018
1	0x3e56c457	0.20973335
2	0x3e622402	0.22084048
3	0xbe6e88bd	-0.23294349
4	0x3d93400e	0.07189952
5	0xbe169ee9	-0.14709057
6	0xbd1b3ea8	-0.03790155
7	0x3c4df6b4	0.012571026
8	0xbc216107	-0.009849793
9	0xbef30669	-0.47465828
10	0xbeaf045c	-0.34183013
11	0xbe60b9c6	-0.21945867
12	0x3d8086f5	0.06275741
13	0xbe98bd75	-0.29832044
14	0xbe25074a	-0.16116062
15	0xbc8d5b57	-0.017255468
16	0xbe228c00	-0.15873718
17	0x3c2e4abb	0.010637934
18	0xbe2ac9e7	-0.16678582
19	0x3afe1c99	0.0019387185
20	0xbed07f24	-0.40722
21	0xbe01e983	-0.12686734
22	0xbea4593b	-0.32099327
23	0x3d23ac5e	0.039959304
24	0xbdfe3990	-0.12413323
25	0xbc25c531	-0.010117815
26	0x3d9caad3	0.0764977
27	0xbeacef7e	-0.33776468
28	0xbe1db3b4	-0.15400583
29	0xbea08347	-0.31350157
30	0xbf040ed3	-0.5158512
31	0x3e96f9eb	0.29487547
32	0x3cc3da30	0.02390775
33	0xbea874f2	-0.32901722
34	0xbf14dfab	-0.5815379
35	0xbd7529e0	-0.05985439
36	0x3de61dc5	0.11236147
37	0xbe3f96d3	-0.18709879
38	0xbe60ed41	-0.21965505
39	0xbe381be4	-0.1797939
40	0xbeef2ed2	-0.4671541
41	0xbe5e1539	-0.21687783
42	0xbeed2350	-0.46316004
43	0xbf112f7a	-0.5671307
44	0xbeb50189	-0.35352734
45	0x3e28d8d9	0.16488971
46	0xbea3ce44	-0.31993306
47	0xbf2521c1	-0.6450463
48	0xbe69462f	-0.22780679
49	0xbed28302	-0.41115576
50	0xbe9464d1	-0.28983167
51	0xbdaa3bd0	-0.083121896
52	0xbe825368	-0.2545426
53	0xbe5e7f86	-0.21728334
54	0xbdcf321a	-0.10116978
55	0xbe95ed8a	-0.2928279
56	0x3e12261a	0.14272347
57	0xbedf87f6	-0.43658417
58	0xbdc2b935	-0.09507982
59	0x3e00b43e	0.12568757
60	0x3dc19656	0.094525024
61	0xbed5f29c	-0.4178666
62	0xbd1a078a	-0.037604846
63	0xbe6b1f45	-0.22961147
64	0x3e2d9b9a	0.16953889
65	0xbeb3ec34	-0.35141146
66	0x3e2c6e7f	0.16839026
67	0xbd42fb14	-0.047602728
68	0xbee8aa19	-0.45442274
69	0xbe929bb4	-0.28634417
70	0xbef28f94	-0.47375166
71	0xbe3a15b2	-0.18172339
72	0xbe212e2e	-0.15740272
73	0x3e8fe725	0.28106037
74	0xbeb778ae	-0.3583426
75	0x3d840328	0.064459145
76	0x3de0bbcd	0.1097332
77	0xbed0aaf8	-0.4075544
78	0x3dda0aec	0.106466144
79	0x3d9cac34	0.07650033
80	0xbe36d9a0	-0.17856455
81	0xbe138b6f	-0.14408658
82	0xbf00538e	-0.50127494
83	0xbe5236c1	-0.205287
84	0xbce505cb	-0.027956864
85	0xbe400d5b	-0.18755095
86	0x3daf534b	0.08560809
87	0x3d8a865e	0.0676391
88	0xbc4ec5bf	-0.0126203885
89	0xbea3033d	-0.31838408
90	0x3e2c7942	0.16843131
91	0x3e1ac3bc	0.15113729
92	0x3e20c58a	0.15700355
93	0xbddc57cb	-0.10758933
94	0xbe763d31	-0.2404678
95	0xbd46b690	-0.04851395
96	0xbe7e18f4	-0.24814206
97	0xbdc356f6	-0.09538071
98	0xbda1069f	-0.07862591
99	0x3e11a9cd	0.1422493
100	0xbdd776ee	-0.10520731
101	0xbe8ce1b5	-0.2751595
102	0x3d8a38d5	0.06749121
103	0x3e05380f	0.13009666
104	0x3dde1410	0.1084367
105	0xbefb6536	-0.49100655
106	0xbe7a2257	-0.24427162
107	0x3e4e07a0	0.20120096
108	0xbe18408b	-0.14868371
109	0xbdb1ca24	-0.086811334
110	0x3c068119	0.00820949
111	0xbe08d673	-0.13363056
112	0xbef95822	-0.48700052
113	0x3e40701b	0.18792765
114	0xbe28847d	-0.1645679
115	0xbe3d51cd	-0.18488236
116	0xbef67471	-0.48135713
117	0xbed05b08	-0.4069445
118	0x3d42c6e3	0.047552954
119	0xbe9d1273	-0.30678138
120	0x3d168ebf	0.036757227
121	0xbdb01375	-0.08597461
122	0xbe9c43f8	-0.30520606
123	0xbed6216a	-0.41822368
124	0xbec99db2	-0.39378124
125	0xbe2c2fe3	-0.16815142
126	0xbea7b23b	-0.32753167
127	0xbf015826	-0.5052513
128	0xbef0d888	-0.470402
129	0xbec31f2b	-0.38109717
130	0x3d317581	0.04332495
131	0xbe88b38d	-0.26699486
132	0xbe0e5152	-0.13898209
133	0x3ca8b635	0.020594696
134	0xbe5fdb9e	-0.21861121
135	0xbe4c6126	-0.19958934
136	0xbd6105d3	-0.054937195
137	0xbe8167d5	-0.2527453
138	0x3dca4385	0.098761596
139	0xbeba18e9	-0.3634713
140	0x3e337019	0.1752323
141	0x3b8f8de4	0.0043809284
142	0x3e13d41b	0.1443638
143	0xbdf0897b	-0.11744972
144	0x3e484347	0.19556914
145	0x3d9b843f	0.07593583
146	0xbe69a108	-0.22815335
147	0xbddfad0d	-0.10921679
148	0x3db94c85	0.09047798
149	0x3d44a928	0.048012882
150	0xbcc1f931	-0.023678394
151	0x3e03a800	0.12857056
152	0xbe4b12cf	-0.19831394
153	0xbe0eb1c4	-0.13935
154	0xbdb2ca79	-0.08730025
155	0xbe444e9d	-0.19170614
156	0x3e1626f2	0.14663294
157	0xbd89ce0e	-0.06728755
158	0x3db43d74	0.08800784
159	0xbe46286f	-0.19351362
160	0x3e2876c1	0.16451551
161	0xbe5e425d	-0.21705003
162	0x3d3cd14d	0.046098042
163	0x3e476d29	0.19475235
164	0x3e28289e	0.16421744
165	0x3dd08bed	0.10182939
166	0xbebb0659	-0.3652828
167	0xbe4f81dd	-0.20264383
168	0xbd746d1a	-0.05967436
169	0xbe47a761	-0.19497444
170	0xbf0ddf41	-0.55418783
171	0xbe9d7b77	-0.3075826
172	0xbec42214	-0.3830725
173	0xbec82a2c	-0.39094675
174	0xbe6a55d3	-0.22884302
175	0xbe691973	-0.22763614
176	0xbe664f80	-0.22491264
177	0x3df97804	0.12181094
178	0x3de6c7b0	0.11268556
179	0x3e4e6b3e	0.20158097
180	0xbddf3370	-0.10898483
181	0xbe0aac02	-0.13542178
182	0xbdedd65b	-0.11613151
183	0xbe6fe42b	-0.23426883
184	0xbeddeff6	-0.43347138
185	0xbdf03ed3	-0.11730733
186	0xbea2d7a5	-0.3180515
187	0xbe639775	-0.22225745
188	0xbe78bab2	-0.24289969
189	0x3d6ff1d1	0.058580223
190	0xbea4db8a	-0.32198745
191	0xbe8cffb2	-0.2753883
192	0xbe909d6c	-0.28245103
193	0xbea527df	-0.32256982
194	0xbd055d5d	-0.03255974
195	0x3e42eeda	0.19036427
196	0x3cf762e1	0.030198516
197	0xbe00ed07	-0.12590419
198	0xbeb3f1b6	-0.35145348
199	0xbdd901a3	-0.10596015
200	0x3d9b3524	0.07578495
201	0x3d057da5	0.032590527
202	0xbe5ef86c	-0.21774453
203	0xbf0a3f1e	-0.5400256
204	0xbe001561	-0.12508155
205	0xbe5df4e9	-0.21675457
206	0xbd499f5b	-0.04922424
207	0xbed28f8b	-0.4112514
208	0x3e8a6c1b	0.27035603
209	0x3e4fe12f	0.20300744
210	0xbea6f548	-0.3260901
211	0xbdde525e	-0.10855554
212	0xbd8b6bec	-0.06807694
213	0xbf0552ac	-0.5207927
214	0xbe3df677	-0.1855105
215	0xbe657597	-0.22408138
216	0xbe806f11	-0.25084737
217	0x3e2d7ce2	0.1694217
218	0x3e33dcae	0.17564651
219	0x3da33521	0.07969118
220	0xbe9dc6cd	-0.30815735
221	0xbe95979a	-0.29217225
222	0x3e2ba026	0.1676031
223	0x3e99ee2d	0.30064526
224	0x3ba00e95	0.004884551
225	0xbea92cff	-0.33042142
226	0x3e2d2d07	0.16911708
227	0x3e4d51f3	0.20050792
228	0xbdd6ffd3	-0.10498013
229	0xbeba13b1	-0.36343148
230	0xbebee3bb	-0.3728312
231	0xbdc35dcf	-0.09539377
232	0xbe33e006	-0.17565927
233	0xbd3ba136	-0.04580804
234	0xbe5bada8	-0.21452963
235	0x3ccfea7f	0.025380371
236	0xbd9a35dc	-0.07529804
237	0x3d6b40cc	0.057434842
238	0xbeca72f8	-0.3954084
239	0xbe114c67	-0.14189301
240	0xbe9e238a	-0.3088649
241	0xbe0d168a	-0.13778129
242	0xbe0eec9e	-0.1395745
243	0xbe51254e	-0.20424387
244	0x3e3cfc45	0.18455608
245	0xbe715c27	-0.2357031
246	0xbec62953	-0.38703403
247	0xbe5b42df	-0.21412228
248	0xbe0057be	-0.12533471
249	0xbec0f54f	-0.37687156
250	0x3d6d9340	0.058001757
251	0xbf057e10	-0.5214548
252	0x3e01bc45	0.12669475
253	0xbda54d80	-0.080714226
254	0xbf01b148	-0.50661135
255	0x3e5c3b3e	0.21506974

transformer_encoder.layers.1.linear2.weight f4 [6, 2048]
0	0x3e9ee368	0.31032872
1	0xbdb37de0	-0.08764243
2	0x3e03be8d	0.12865658
3	0xbd627c17	-0.055294123
4	0xbcaf0bd5	-0.021367947
5	0xbdc1fb3f	-0.094717495
6	0xbe286f47	-0.16448699
7	0x3e5eac74	0.21745473
8	0xbd42a1ee	-0.04751771
9	0xbc9f48fb	-0.01944398
10	0xbbc6205a	-0.006046337
11	0x3d536d89	0.051618133
12	0x3d25a8a5	0.040444035
13	0x3e0028db	0.12515585
14	0xbda1e909	-0.07905776
15	0xbd5fb85f	-0.05461919
16	0xbe2193e6	-0.15779075
17	0xbd8e1088	-0.06936747
18	0xbd56ecf7	-0.05247208
19	0xbc49ea49	-0.012323924
20	0xbdb39e45	-0.08770422
21	0xbdba877a	-0.09107871
22	0xbc2e6959	-0.010645234
23	0x3bb06f7b	0.0053843833
24	0x3df3761d	0.11887763
25	0xbc774ee7	-0.015094495
26	0x3cada46a	0.021196563
27	0x3cf9dce8	0.030500844
28	0xbd7b630d	-0.06137376
29	0x3db10dc6	0.08645205
30	0xbd91ad79	-0.071131654
31	0x3d1d57ac	0.03841369
32	0xbcba8f38	-0.02277337
33	0xbc9ee1ff	-0.019394873
34	0x3dd4ef65	0.103972234
35	0xbcddc89f	-0.027073203
36	0x3c9ef411	0.01940349
37	0x3e0480e1	0.12939788
38	0x3e25596e	0.16147396
39	0x3d6a2c94	0.05717142
40	0x3e51fceb	0.20506637
41	0x3d3a9375	0.045550782
42	0xbd2ecb3c	-0.04267429
43	0x3c592cf8	0.01325535
44	0xbc25ae34	-0.010112334
45	0xbe07b6b2	-0.13253286
46	0xbc73f513	-0.014889973
47	0xbed23dbe	-0.4106273
48	0xbdbd9d5e	-0.09258531
49	0x3f05fc5a	0.5233818
50	0xbc2bc156	-0.010483107
51	0xbbfd98de	-0.0077391705
52	0x3e9dbf6a	0.308101
53	0x3e3cb97f	0.18430136
54	0x3a97e639	0.0011588997
55	0xbd2e16b8	-0.042502135
56	0x3ddcbd02	0.10778238
57	0x3cb0b3db	0.021570137
58	0xbc51926a	-0.0127912555
59	0xbd87603d	-0.06610153
60	0x3d73ff38	0.059569567
61	0x3d5c4e0f	0.05378538
62	0x3d65512f	0.055985626
63	0x3e0422d5	0.12903912
64	0x3c76e809	0.01506997
65	0x3cfadd6b	0.030623158
66	0x3d1bf723	0.038077485
67	0xbdc52324	-0.09625843
68	0x3f021536	0.50813615
69	0xbe2c7eb4	-0.16845208
70	0xbddf699d	-0.10908816
71	0xbd96371f	-0.07334732
72	0xbd51f433	-0.051258277
73	0xbd359b88	-0.04433778
74	0xbddb63d3	-0.10712399
75	0x3cfef347	0.031121863
76	0xbd8da070	-0.06915367
77	0xbd054dff	-0.032545086
78	0xbcea4d15	-0.028601209
79	0xbb9cff4e	-0.004791177
80	0x3db42643	0.0879636
81	0xbad89f5e	-0.0016526987
82	0x3bfab66b	0.0076511404
83	0x3e53e597	0.2069305
84	0x3d7ef3b1	0.06224412
85	0xbd9dab48	-0.07698685
86	0xbd198f78	-0.037490338
87	0x3be5e6cd	0.007016039
88	0xbc920662	-0.01782531
89	0xbdadcf80	-0.08486843
90	0xbca2f74b	-0.01989331
91	0xbcc0337e	-0.023462053
92	0xbcb5885b	-0.022159746
93	0xbd0dec9d	-0.03464948
94	0xbe27fae9	-0.16404308
95	0xbe077278	-0.1322726
96	0x3d17a699	0.037024114
97	0xbd9bcf1a	-0.07607861
98	0xbcf96796	-0.030444901
99	0xbd26aca5	-0.04069199
100	0xbe68ffc0	-0.22753811
101	0x3e4bca54	0.19901401
102	0xbcff9758	-0.031200096
103	0xbd15d1f8	-0.036577195
104	0xbcdde115	-0.027084867
105	0x3e217ea5	0.15770967
106	0xbcb53ff5	-0.022125224
107	0xbda4e581	-0.08051587
108	0x3b32d4b1	0.0027287418
109	0x3dc13978	0.094347894
110	0x3c77d223	0.015125784
111	0x3e00329f	0.1251931
112	0x3e22d1d7	0.1590036
113	0xbbb008d4	-0.005372146
114	0xbde0dd01	-0.10979653
115	0xbe2ff208	-0.17182171
116	0x3e44a525	0.19203623
117	0x3e9b59af	0.3034186
118	0xbdd85363	-0.1056278
119	0x3ec5ccbc	0.38632762
120	0x3e02f169	0.12787403
121	0x3ed53a6e	0.4164614
122	0xbb97227c	-0.004612265
123	0x3d860983	0.06544783
124	0x3e606939	0.2191514
125	0x3d5149e7	0.05109587
126	0xbec208d1	-0.3789735
127	0xbdb7b386	-0.08969788
128	0xbe34e5c2	-0.1766577
129	0xbe870016	-0.26367253
130	0xbd232a83	-0.039835464
131	0x3d1b4828	0.03791061
132	0xbcc02738	-0.023456201
133	0xbd982536	-0.074289724
134	0x3e05b075	0.13055594
135	0x3d51fb6e	0.051265173
136	0xbc833723	-0.016017502
137	0xbcd4ca1c	-0.02597528
138	0xbd836c47	-0.06417137
139	0x3dc577b0	0.09641969
140	0x3c770e74	0.0150791295
141	0x3b8d42e2	0.0043109516
142	0xbc53f497	-0.012936733
143	0x3dc3246a	0.0952843
144	0x3c91deb7	0.017806394
145	0xbd60a1f1	-0.05484194
146	0x3e0f6ba5	0.14005907
147	0x3c75b0a8	0.014995731
148	0xbdcc6cf4	-0.09981719
149	0x3d4f0e0d	0.05055051
150	0x3cd2cb88	0.025731817
151	0x3b860d8c	0.0040909704
152	0x3e642966	0.22281417
153	0xbc23d0fe	-0.009998558
154	0xbdb86068	-0.09002763
155	0xbd4ca42c	-0.049961254
156	0xbd5ba1cc	-0.0536211
157	0xbd025263	-0.03181685
158	0x3cfa1d79	0.030531632
159	0x3cf0a655	0.029376188
160	0xbe23bb70	-0.1598947
161	0xbdf0db43	-0.11760571
162	0xbb2d1f0b	-0.0026416208
163	0x3e05bfbe	0.13061425
164	0xbc11612b	-0.008873264
165	0x3e3c7de9	0.18407406
166	0xbd73d91a	-0.059533216
167	0xbd445eeb	-0.047942083
168	0x3cdde370	0.02708599
169	0xbb835436	-0.0040078415
170	0x3e2e6803	0.17031865
171	0x3d86ccb7	0.06582015
172	0xbddabb34	-0.106802374
173	0xbdeeb16c	-0.11654934
174	0xbbe71533	-0.0070520877
175	0xbd9e779b	-0.07737657
176	0xbdd94dda	-0.10610552
177	0xbddf4e9c	-0.109036654
178	0x3e0a825f	0.13526295
179	0xbc6d04f6	-0.014466515
180	0xbda9d066	-0.08291702
181	0x3d2e523b	0.04255889
182	0xbc65c131	-0.014023111
183	0xbe0a936b	-0.13532798
184	0xbde9bec8	-0.11413342
185	0x3c7692a3	0.015049609
186	0xbdc30be4	-0.09523752
187	0x3e3bb330	0.18330073
188	0xbd9b6efc	-0.07589528
189	0xbbc2ce0d	-0.0059449733
190	0x3e644b5f	0.22294377
191	0x3dda9113	0.10672202
192	0xbc673e9a	-0.0141140465
193	0xbe0e6bbb	-0.13908283
194	0xbc8c579c	-0.01713162
195	0xbe03fb7e	-0.12888905
196	0xbd150c3b	-0.036388617
197	0xbe01b2de	-0.12665889
198	0xbd9a38f6	-0.07530396
199	0x3cf26d82	0.029593233
200	0xbd693e07	-0.05694392
201	0x3c8d533d	0.017251605
202	0xbd55e5b0	-0.052221
203	0x3d7508f7	0.059823003
204	0x3d375db0	0.04476708
205	0xbc87550d	-0.016520048
206	0xbc91dceb	-0.017805537
207	0xbd2b7bcc	-0.04186611
208	0x3d188232	0.03723354
209	0xbde40da5	-0.11135415
210	0xbdb8c03c	-0.09021041
211	0x3dd8b335	0.10581056
212	0x3db566e0	0.088575125
213	0xbd2c939c	-0.04213296
214	0x3e0c02c1	0.13672926
215	0x3dca14f9	0.098672815
216	0xbe0c4d1f	-0.13701294
217	0x3e15776e	0.1459634
218	0x3d9567f2	0.072952166
219	0xbd6fc426	-0.05853667
220	0xbd3a26af	-0.045447048
221	0xbd3c25bc	-0.045934424
222	0xbe5946df	-0.21218441
223	0xbc6b5fe2	-0.014366122
224	0xbd1b7d7d	-0.03796147
225	0x3d8e44c4	0.0694671
226	0x3db9cab4	0.09071866
227	0xbd7e06df	-0.06201827
228	0xbb2b03f7	-0.0026094893
229	0x3c04ba86	0.008101111
230	0x3da8b8de	0.082383856
231	0xbdf8fb0b	-0.12157258
232	0xbd291d5b	-0.04128776
233	0xbdd93f91	-0.106078275
234	0xbd0dbef9	-0.034605954
235	0x3ce734f9	0.028223502
236	0xbd7767e5	-0.060401816
237	0x3c8d6535	0.017260173
238	0xba9bbfd1	-0.0011882727
239	0x3e0f7c67	0.140123
240	0x3dd4f090	0.10397446
241	0xbcd632be	-0.026147243
242	0x3d56d8d6	0.052452885
243	0xbd82197b	-0.06352516
244	0xbd8240db	-0.063600264
245	0xbd3395f0	-0.043844163
246	0x3c3476c1	0.011014641
247	0xbda6f1db	-0.08151599
248	0x3d94e0ee	0.072694644
249	0xbe9b54c4	-0.3033811
250	0xbcb0444b	-0.02151694
251	0x3d4db573	0.05022187
252	0xbd3e5706	-0.04646971
253	0x3c467a01	0.012114049
254	0x3e5cb705	0.21554191
255	0x3d840ad3	0.06447377

transformer_encoder.layers.1.linear2.bias f4 [6]
0	0xbcc2a596	-0.023760598
1	0x3b698676	0.0035633123
2	0x3c31b58a	0.010846505
3	0x3c336239	0.010948711
4	0x3cc4fb03	0.024045473
5	0x3c1d592b	0.009603779
