Production_Environment/Digital_Twin/best_model_tr.2.40.pth (torch, 473744 bytes, 29 tensors)

norm.weight f4 [6]
00000000: 0000 803f 0000 803f 0000 803f 0000 803f
00000010: 0000 803f 0000 803f
1.0 1.0 1.0 1.0 1.0 1.0

norm.bias f4 [6]
00000000: 0000 0000 0000 0000 0000 0000 0000 0000
00000010: 0000 0000 0000 0000
0.0 0.0 0.0 0.0 0.0 0.0

transformer_encoder.layers.0.self_attn.in_proj_weight f4 [18, 6]
00000000: 7a54 75be b46b d4be 6532 e73d 0c66 823d
00000010: 9e6a fd3d b3a8 33bd ac93 ecbe 3aa0 243e
00000020: 2af6 7bbe 70d7 df3e f908 a43e 5824 873e
00000030: 0f12 6f3d 65a3 9bbe fcfd c1be 2951 443e
00000040: c5fe d13e 54ce 80be f2cf 6f3e 139a febe
00000050: 8e65 dc3e 9c47 cdbe 87c3 843e 3916 923e
00000060: 151a b23e 8173 98be 4e32 b1be 4a89 833e
00000070: ef32 d63e ae56 a2bd 7dc5 c9be 03d6 ddbe
00000080: ddab d3be f58b 29be 6b87 03be d606 8dbe
00000090: 64f0 313c 67e1 953e 026b cb3d 8d46 65be
000000a0: dbf8 003f dfe5 fabe 1311 ac3e 9962 04bf
000000b0: f74d 8abe f16a 44bc 8cb4 73be 8ce9 17bf
000000c0: e5d0 f53e 66e3 b23d 6aaa 00be 4f2e ad3e
000000d0: d90e ab3e 25f3 773d fe7a 99be 60fd 90be
000000e0: c70e 78b9 14c1 463e 9eda 99be 3d8f 74be
000000f0: d152 70be 8c56 b5bd 6f28 393e a212 623e
00000100: 0703 ef3e 6690 e4be 18c3 cbbc a052 023f
00000110: 9f5a 9fbe d201 9c3d a79b 32be bdd1 323e
00000120: c24f 133f 5b06 0a3f dcdf 7a3c 264a 8ebe
00000130: c2c9 813e 5faa 923f 3f42 73bf e713 1cbe
00000140: 0bf3 b6bd 9578 bb3e feb4 06bd d7e0 ffbe
00000150: 5dd1 15bf 7696 6b3d 958b 343e 94e3 bdbe
00000160: f170 2a3d a6e9 1abe bde5 3d3f daf1 af3e
00000170: ada4 543d b1e7 75bd 4b04 53bf c2b8 f03e
00000180: 5f0f 123e 3731 35bf fd31 943e b883 db3e
00000190: 9aef 873e fbde 4abc 2308 753f 0a49 ecbb
000001a0: dec3 873c 472e 1f3e f7d7 3ebe cc3b 223d
-0.23958007 -0.4148842 0.11288909 0.0636712 0.12373851 -0.043862056 -0.46206415 0.16076747
-0.24605623 0.43719053 0.32038096 0.26394916 0.05836683 -0.30398098 -0.37889087 0.19171585
0.41014686 -0.25157416 0.23419169 -0.49726924 0.4304623 -0.40093696 0.25930426 0.2853258
0.34785524 -0.29775622 -0.34608692 0.2569068 0.41835734 -0.07926689 -0.39408484 -0.4332734
-0.4134206 -0.16557296 -0.12844627 -0.27544278 0.010860536 0.2927353 0.099325195 -0.22390194
0.50379723 -0.49003503 0.33606777 -0.5171295 -0.27012607 -0.011988387 -0.23799342 -0.5934074
0.48010936 0.08734779 -0.12565008 0.33824393 0.33409765 0.060534615 -0.29976648 -0.2831831
-0.00023656628 0.19409591 -0.30049604 -0.23882766 -0.23469092 -0.08854398 0.1808183 0.2207742
0.46681997 -0.44641417 -0.024873301 0.50907326 -0.31123826 0.07617535 -0.17442189 0.17462821
0.57543576 0.5391595 0.015312161 -0.27790946 0.25349241 1.1458243 -0.9502296 -0.15241967
-0.089330755 0.36615434 -0.03288745 -0.49976227 -0.5852259 0.057516538 0.17631371 -0.3708769
0.041611616 -0.15128192 0.7417868 0.34364206 0.05191486 -0.06003541 -0.82428426 0.4701596
0.14263676 -0.7077822 0.28944388 0.4287393 0.2654999 -0.012382264 0.9571554 -0.0072108554
0.016572889 0.15544997 -0.18637072 0.039607808

transformer_encoder.layers.0.self_attn.in_proj_bias f4 [18]
00000000: 6f7a a7bc e0a8 86bc bf62 9d3c 3679 64bc
00000010: 89fc 46bc 96e9 b9bc 53fa 68bd 9aff 76bd
00000020: f258 76bd def2 8f3c 0faf 0fbd b807 d63c
00000030: 0c10 283e 63d3 69be 960e f93d 04a2 563c
00000040: 42ec 78bd a27c 62be
-0.020444123 -0.016437948 0.019212125 -0.013944915 -0.01214517 -0.02269439 -0.056879353 -0.060302354
-0.06014342 0.017571863 -0.03507906 0.026126727 0.16412371 -0.22834544 0.12160985 0.013100151
-0.060772188 -0.22117856

transformer_encoder.layers.0.self_attn.out_proj.weight f4 [6, 6]
00000000: e308 f93d 84f1 a1be 9ca2 323e b7a0 d73c
00000010: 7ed9 90be 1ff8 b83d c1c4 e13d 354e 43be
00000020: b770 aebc 03d0 473e dd18 293e d7ef c03e
00000030: df69 79bd e656 babe 88ea a4be d9c4 f4bd
00000040: efef cb3a 5d59 54bd 8450 d3bd 3d6c 9d3d
00000050: 3b2b 353e 1e4d fdbc 1de3 183e ab5a e0be
00000060: 1293 fd3d b36e a13e 0ec7 2abe b5a1 873d
00000070: 5552 d5be 3ccc 8f3e 37bb 7f3e 8f97 60be
00000080: 8c40 323e c9ee 913e b236 8ebe 3a64 8abe
0.12159898 -0.31629574 0.17444843 0.026321752 -0.28290933 0.090317 0.11023856 -0.19072802
-0.021293981 0.19512944 0.16513391 0.37682983 -0.060891982 -0.36394423 -0.32210183 -0.11951608
0.0015559177 -0.051843036 -0.103180915 0.076866604 0.17692272 -0.030920561 0.14930387 -0.43819174
0.12381567 0.3152977 -0.16677496 0.0662264 -0.41664377 0.28085506 0.2497376 -0.21932815
0.17407435 0.2850249 -0.27776104 -0.27029592

transformer_encoder.layers.0.self_attn.out_proj.bias f4 [6]
00000000: 0865 c43d bd6a 3ebe 895b 013f 6b20 0bbd
00000010: dad6 12bf 9e81 0c3e
0.09589583 -0.18595405 0.50530297 -0.033966463 -0.5735909 0.1372132

transformer_encoder.layers.0.linear1.weight f4 [2048, 6]
00000000: 862e 15be df64 e13c b6e4 b73d 27d0 cebd
00000010: 1b26 623e a86b 3b3d 15b7 3a3e 3d24 f83e
00000020: 7a6f 95be 3bcd 633e 78b4 d13e 3d72 a53e
00000030: 3e8f 7bbe 0e6e 963e 92de e53e 85bf d0bc
00000040: d0fd 8fbe c221 71be edf4 a8be 47cf 443e
00000050: 8b19 973e 3fee 1e3e 163c f6be 7e67 ec3d
00000060: 0845 8f3c 360c 263f 400d 81be 977c b0be
00000070: 156e e33d b3fe a3be b203 91be 52e3 e3bd
00000080: ee7f 9d3e 8b86 6d3b 259e 2ebd 984c 64be
00000090: 3984 c8be dc3d b0be 7d80 993e f756 f0be
000000a0: 598d cf3e e375 6ebe ccba 863e 284e 9abe
000000b0: 916d 9bbd 3e68 8e3e ed59 60be 53bf 51be
000000c0: a20f 653d a579 843e 66e3 a7be 9fe9 68bd
000000d0: e15c c93c ddd0 933e 984c eb3e e640 0cbe
000000e0: 0e46 cbbc 0c87 b83e 1edd adbe 09f9 8e3e
000000f0: aa58 983e 3eec fd3e b692 873e 1e72 a5be
00000100: 6dc8 833c de8e ba3e a2ea ca3e 91c0 81be
00000110: f04a 873e 48af 353e 318d 943d c744 a6be
00000120: 9600 233d bacb c4bd e5ff 843e 49d3 8abe
00000130: e1ed 343e 16ea 533c 8fd6 98be 1c3c 1c3e
00000140: 4e37 403d a74c 96be 7ef4 6d3e e6ad 9c3e
00000150: 9b6c b33d 14a9 06bf a885 e0be 7397 81be
00000160: 24b0 943e e20c 993d d0c1 8c3e 781d 643e
00000170: df1d bc3e d13b 093e fb66 87be 4305 d1bd
00000180: c995 01be 8b25 3abe 3118 b7be 402b 843e
00000190: cca5 243e 1ea4 b73d e31c 2f3e 40c8 aebd
000001a0: 8624 d2be 8ff3 7fbe e54e 803e 93cb 83be
000001b0: 133c bf3d d5d5 d6be e1ef eb3e 3655 363e
000001c0: 6f81 d83a 0434 2e3e 0ce8 22bd b15d 3a3f
000001d0: 3557 673e 5bd7 bebd bdf9 4bbc 4a87 6abe
000001e0: c238 c53e 89ff c9be 67e2 8bbc 59d8 fcbd
000001f0: 64b3 803e 2cea d3be 726b a03e b06c 873d
00000200: 9b55 953e dfbb a53e b45e 643d 61b2 07be
00000210: 7b0e 373e db32 893c 3a38 1ebe 74b3 d43d
00000220: 0229 af3c b2ec 8abe 3c51 bebd b424 b53e
00000230: fbf6 693e c5ed 07bd 4bd1 813e 31cb c83d
00000240: ce63 123e 8428 033e fb28 b23d 0ba4 163c
00000250: 9c24 953e 9950 b7bd 91dd 9e3e e6cd 5a3d
00000260: 3322 52bd 6322 8e3e 93ae 823e 182e 973e
00000270: d73a a73e c0b9 fcbd 3574 953d 192c 933e
00000280: 1478 d23d 21a8 8abe 02cc b23e b6b8 8a3e
00000290: 209c a33e 978c 3a3e dad4 c6be 38ae 75be
000002a0: 6123 8ebe 51d2 1bbe 0e1e af3e babb 9a3e
000002b0: f99f 413e 46f8 12be 6135 44be 2dbd 5c3e
000002c0: 194a f9bd dfb4 19bd 04ed 2f3e d81d ca3e
000002d0: 98ab b7bd 90a2 85be 6858 393e 247f 203e
000002e0: b19e bdbe e8d4 f03d ddf0 a03c ebcd a83e
000002f0: 3238 23bc 8928 783e 43ef a2ba dc11 06be
00000300: 50b0 993e 478b 353e 5a3e 563e 6aa2 b7be
00000310: 6a88 cc3e 644d b33d 2655 22be 0117 d53e
00000320: bfa4 c9bd a62e 31be ab72 6abe 9d1a 853e
00000330: 5d9d ed3e 24e4 a9bd 2c32 773e 623f b5be
00000340: 9a37 b4bc 5ee5 18be 13c6 ce3e 03cc b8be
00000350: 1ae9 1c3e 9b8d e1bd 5bda a2bd 2eb6 21be
00000360: df2e 9d3e 7ff8 4c3e 209b a73e 9025 2a3e
00000370: ac5b 153e 3770 a83e cce2 443c a920 68be
00000380: afed 7bbd b7af 39bd b9c9 333d d85b 443e
00000390: f5a4 81be ccd8 883d 3beb 68bd f68c 943e
000003a0: 3002 7bbe 41f5 f8bd fa94 8f3e 92de e0bc
000003b0: 5c71 76be 8ba8 8e3e 6c8a c33e ff9a c93d
000003c0: 45b6 b6be 7578 833e becd d43d 690c 40bd
000003d0: ff70 d3be b1a6 5b3e ef65 c3bd 05da b0be
000003e0: 84dc 85be c73b 29bd 1513 a2be eb26 82be
000003f0: f456 913e 9b97 313e a54f e8be 6055 e5bd
-0.14568529 0.02751392 0.0897917 -0.10098296 0.22084849 0.045756966 0.18233903 0.48465148
-0.29186612 0.22246258 0.40958 0.3231372 -0.24566361 0.2938084 0.4489637 -0.025481949
-0.2812333 -0.23548034 -0.32999364 0.19219695 0.29511675 0.15520571 -0.48092717 0.11543177
0.017488971 0.6486238 -0.2520542 -0.34470055 0.11104981 -0.32030258 -0.28323132 -0.11127342
0.30761665 0.0036243524 -0.042631287 -0.22294843 -0.39163378 -0.34422195 0.2998084 -0.4694135
0.40537527 -0.23287158 0.2631439 -0.30137753 -0.075892575 0.27813905 -0.21909304 -0.2048314
0.05592311 0.25874057 -0.3279068 -0.056863423 0.02458042 0.28870288 0.45956874 -0.13696632
-0.024813678 0.36040533 -0.33957762 0.27924374 0.29755145 0.495943 0.2647912 -0.32313627
0.016086781 0.36437124 0.39632136 -0.2534223 0.2642436 0.17742646 0.072534926 -0.32474348
0.03979548 -0.0960917 0.25976482 -0.27114323 0.17668869 0.012934228 -0.29851195 0.15257305
0.046927743 -0.29355356 0.23237798 0.30601424 0.08760949 -0.5260174 -0.43851972 -0.2531086
0.29040635 0.0747316 0.27491617 0.22276866 0.3674154 0.13401724 -0.26445755 -0.10206082
-0.12654795 -0.18178384 -0.35760644 0.25814247 0.16078871 0.0896685 0.17100863 -0.085342884
-0.4104349 -0.24995254 0.25060192 -0.25741252 0.0933763 -0.41960016 0.4608145 0.17805943
0.0016518066 0.1701203 -0.03977208 0.7279921 0.2259186 -0.093184195 -0.012449679 -0.22903171
0.38519865 -0.3945277 -0.01707573 -0.123459525 0.25136864 -0.41389596 0.31331974 0.06612527
0.29166874 0.32369897 0.05575438 -0.1325164 0.17876618 0.016747883 -0.15451136 0.103857905
0.021381859 -0.2713371 -0.09292838 0.35379565 0.22848122 -0.03318574 0.2535499 0.09804381
0.14295885 0.12808424 0.08699223 0.009194384 0.29129493 -0.0895092 0.31028417 0.053419016
-0.051302146 0.2776061 0.25523815 0.29527354 0.3266208 -0.123401165 0.07297555 0.2874458
0.10276809 -0.27081397 0.3492127 0.27094048 0.3195505 0.18217693 -0.38834268 -0.2399224
-0.27761367 -0.15216948 0.34202617 0.3022135 0.18908681 -0.14352521 -0.19160987 0.2155654
-0.12172336 -0.037526008 0.17180258 0.39475894 -0.08968276 -0.26100588 0.1810013 0.156735
-0.37035134 0.11759359 0.019646103 0.32969603 -0.0099621285 0.24234213 -0.0012430925 -0.1309275
0.30017328 0.17728911 0.20922223 -0.358661 0.39947826 0.087549955 -0.15852794 0.41619113
-0.09845876 -0.17302951 -0.22895305 0.25996867 0.4640912 -0.082954675 0.24140233 -0.3539992
-0.02199917 -0.14931247 0.40385494 -0.3609315 0.15323296 -0.11013337 -0.07951804 -0.15792152
0.30699822 0.20016669 0.32735538 0.16615891 0.14585751 0.32898113 0.012016963 -0.22668709
-0.06150597 -0.04533359 0.04389355 0.1917566 -0.25321165 0.06681976 -0.05686496 0.29013795
-0.24512553 -0.121561535 0.28043348 -0.02744988 -0.2406668 0.27862963 0.38191545 0.09844016
-0.35685936 0.2567784 0.10390805 -0.046886835 -0.41297147 0.21450306 -0.09540927 -0.34541336
-0.26144803 -0.041316774 -0.31655183 -0.25420317 0.28386652 0.17342989 -0.45373264 -0.111979246

transformer_encoder.layers.0.linear1.bias f4 [2048]
00000000: f609 803e a564 853d d232 a13e 339a 7bbe
00000010: a530 a43e 003e 6dbe b9db 7d3d f825 8fbe
00000020: 16f4 9f3e dd70 923e 5dce c9be fdbb a43e
00000030: eed5 be3d 69d6 cb3c e266 ea3c 2f4d 943d
00000040: 950c 583d 80b3 883e 0fc9 3abe 8692 81be
00000050: 17ec 6abe 83db ccbe e5f1 68be bcf4 78be
00000060: 6bd6 143e 895e 103e e07e 863e 0939 c0bd
00000070: e7ee 80be 36f4 0b3e b47b 9bbe e758 f13d
00000080: 8023 d33e afaf 2cbd 0df0 d23d e8fd a43e
00000090: 0b75 bbbe 2ea6 813e 8ad5 81be 3465 62bd
000000a0: 8687 163e 2032 643c 2160 5a3e 1043 5e3e
000000b0: 986d 233d c6ad 4abd 0588 903d c8f8 bbbe
000000c0: 38e5 8bbd ca6d acbe 11ca 943e 2154 783e
000000d0: e54b d9bd 065b 97be cf23 303e b9fd 72be
000000e0: 45ca 28be 3031 ebbb d10d 373e f669 34be
000000f0: b891 b03e 5250 3abd 2db1 80bd 48f4 8fbd
00000100: 5691 f8bc 6af2 033e 8f81 af3a ff23 0bbe
00000110: f991 27be 220d 8b3e 81a8 48be 748f 17be
00000120: 514f 81be 9ca3 a4be 826f d8bd 7df5 a43e
00000130: 9aea 663e 29cf 453e 1605 28be 37f1 7fbe
00000140: ba53 3cbe b10e c53c fa63 8d3e ce03 4fbe
00000150: 0bf8 5a3e 0a70 d6bd 80a9 8a3e d4e8 513e
00000160: 83f1 49be cbc8 55be 9c51 dbbd 266a 3abe
00000170: c4f7 59bd 00f1 e0bd 92cd 8f3d 998e 01be
00000180: 02e8 c5be 02fa d13c 0996 723e dd88 6b3c
00000190: d8c7 503e e4a6 373d 5d7a a0be 0130 47be
000001a0: 7d62 f4bd b832 903d 7ad7 2cbe 000a 383e
000001b0: 4059 87be 1cb5 8fbe e61f 61be 5959 b1be
000001c0: 8154 e73c 9348 9b3e 3ece 3bbe 9bdf 4c3e
000001d0: 4ee7 9dbd b54f a23e 7aeb 9c3c cea9 4fbe
000001e0: 2d80 0f3e 1bd1 9b3e 670e df3c 50d2 b7be
000001f0: 7ec0 183e 1e1f 5bbd 92a9 99be 3906 e83c
00000200: dd76 ef3d d6e5 55bd 5146 8e3e 102d 8ebb
00000210: cda0 d83c 90bf ed3d ffa9 9a3e 84ac a8bd
00000220: f128 c13d 5ab0 76be 4567 19be 08fa a8be
00000230: 5339 febd 4dcd 84be ec6f 433d 333f 6cbd
00000240: 8a36 11be e474 19bd 4317 3c3e f27a 543d
00000250: f820 4f3d abfd 93be 42f9 353e 695f 883d
00000260: 85fb 8e3e 85e3 dd3d a58f 6e3e 70df 303e
00000270: 41a3 84be a688 1c3e 3144 a4bd 6173 a4be
00000280: 418d c03e 18cf 483e 0d8b 33be e567 663e
00000290: 5c1d 01be 3270 af3e a0d1 a7be 97fe c4be
000002a0: 7fc7 debe cd11 acbe 2aaf 8bbe 4c45 9f3d
000002b0: 0679 c4be 5887 ec3d c9ea 45bd 433b 683e
000002c0: 19cf d33d 9d68 a1be edb7 94be 8320 383e
000002d0: e5cb 5f3e 7cd4 87be 6d87 e3be 4f0f 83be
000002e0: 3fd5 90bd ded5 8bbd 9f42 d4be a430 85be
000002f0: b661 4abe 0150 ebbc f786 55be 44ef aa3e
00000300: 3fec 973d 8179 8f3e 9134 6abe 04d4 d23e
00000310: cc03 bdbe 094d 843e 14cc df3d 39e9 903e
00000320: 542b 8d3d fe77 92be 3b87 a33d 6eb8 f9bd
00000330: f59d d1bc 8348 7f3e 1031 19be 2375 3b3e
00000340: 90d5 91be 7389 7dbe 6836 38be e08c 49be
00000350: b3d0 c5be aa5f abbe f151 94be 671a 2bbd
00000360: 2aea b7bc e811 3d3e b93a a63e 3946 9bbe
00000370: 5499 863e 67af acbe a4f3 4a3d 35e9 ba3d
00000380: 774b 65be 4657 123e e027 4dbd 2dec 35be
00000390: 9d62 2d3e 0506 9c3e 7cd9 dcbe 6cf2 cdbc
000003a0: fdd2 b7be 222a c93e 0f81 8bbd bcf5 823e
000003b0: b3a6 3f3e d5a0 7f3e 5f6b d0be 3fde 8cbe
000003c0: 06b6 b33e b2a2 143a 8bae ccbd 6f49 c5be
000003d0: 5154 bbba f778 783e 63ee a53e 0fa2 7b3e
000003e0: c00d adbe c608 823e 95e2 5ebe c3b1 593d
000003f0: b12b 4a3e 0439 0c3e 644f aabe e958 093e
0.250076 0.06513337 0.31484085 -0.24570541 0.32068363 -0.23168182 0.061977122 -0.27958655
0.3124091 0.28601733 -0.39415255 0.32174674 0.093181476 0.024882512 0.028613511 0.07241284
0.052746374 0.26699448 -0.1824076 -0.253071 -0.22941624 -0.40011224 -0.22748525 -0.24312109
0.14534919 0.14098562 0.26268673 -0.093858786 -0.25182268 0.13667378 -0.30367815 0.11784535
0.41238022 -0.042159732 0.10299692 0.32224965 -0.36612734 0.25322098 -0.2535823 -0.055272296
0.14700136 0.013927966 0.21325733 0.2170527 0.03989944 -0.04948213 0.07057194 -0.36713243
-0.068308294 -0.33677512 0.29060414 0.24250843 -0.10610179 -0.29561633 0.1720116 -0.237296
-0.1648341 -0.0071774945 0.17876364 -0.17618546 0.34486175 -0.045486756 -0.062837936 -0.07029015
-0.03034274 0.12885442 0.0013390052 -0.1358795 -0.16364278 0.27158457 -0.19595529 -0.14800817
-0.25255826 -0.32156074 -0.105681434 0.32218543 0.22550431 0.19317307 -0.1640819 -0.2499436
-0.18391314 0.024054857 0.2761534 -0.20216295 0.21383683 -0.104705885 0.27082443 0.20498973
-0.19721036 -0.20877378 -0.10708925 -0.18204555 -0.053214803 -0.10983467 0.07021631 -0.12652053
-0.3865357 0.025631908 0.23690046 0.0143758925 0.20388734 0.044836894 -0.31343356 -0.19451906
-0.11932848 0.07040924 -0.16879073 0.17972565 -0.2643528 -0.28067863 -0.21984825 -0.3463848
0.028238537 0.30328807 -0.18340394 0.20007174 -0.077101335 0.31701437 0.019155253 -0.20279619
0.14013739 0.30432972 0.027228547 -0.35902643 0.1491718 -0.053496473 -0.30012184 0.02832328
0.11692593 -0.05222114 0.27788022 -0.004338868 0.026443863 0.11608803 0.30207822 -0.0823603
0.09431637 -0.2409071 -0.149808 -0.3300326 -0.124132775 -0.25937882 0.04771416 -0.05767746
-0.14180961 -0.03746499 0.18368249 0.051875062 0.05056855 -0.2890447 0.17770866 0.06658823
0.2792627 0.108344115 0.23296984 0.17272735 -0.25905803 0.15286502 -0.08020819 -0.32119277
0.37607768 0.1961025 -0.17533512 0.2250057 -0.12608856 0.34265286 -0.3277712 -0.38475487
-0.43511578 -0.3360733 -0.27282077 0.07776889 -0.38373584 0.11549252 -0.04831961 0.22678857
0.10342235 -0.31525126 -0.29046574 0.17981152 0.21855123 -0.265293 -0.4443926 -0.25597617
-0.070719235 -0.06827901 -0.41457078 -0.26013672 -0.19763836 -0.028724672 -0.20852266 0.3338567
0.07418107 0.28022388 -0.22871615 0.4117738 -0.3691696 0.25840023 0.10927597 0.28302935
0.0689303 -0.28607172 0.079847775 -0.1219338 -0.025588015 0.24930005 -0.14960122 0.18306403
-0.28483248 -0.24759464 -0.17989504 -0.19682646 -0.38635787 -0.33471423 -0.28968766 -0.041773226
-0.022450525 0.18463862 0.32466677 -0.30327013 0.26288855 -0.3372757 0.04954876 0.09126512
-0.22392069 0.14291105 -0.050086856 -0.17765875 0.16932149 0.30473343 -0.43134677 -0.02514001
-0.3590316 0.39289957 -0.06811725 0.25578105 0.18715934 0.24963696 -0.40706918 -0.2751331
0.3509981 0.00056699954 -0.09994229 -0.38532588 -0.0014292096 0.24264894 0.32408437 0.24573539
-0.33799553 0.2539732 -0.21766122 0.053148042 0.1974323 0.13693625 -0.33263695 0.13412823

transformer_encoder.layers.0.linear2.weight f4 [6, 2048]
00000000: 69b2 f83c 8f87 073e 8ee5 113b 0cf4 e33a
00000010: 4dbe 1b3e a349 af3c 09b1 b03d 4ba3 e439
00000020: 173b c03d 89d8 8dbc 6c76 c7bc 2b60 873b
00000030: 241d ba3d 8703 833d 775f c23e 6add 94b9
00000040: 8f2a 00ba 000c 373d 84f0 72be e8cd 403d
00000050: 501f e43c 6900 f43b 90b4 fa3b 4e90 113e
00000060: 1e9a d93c 8a5a 6f3b 8b0f 9abb 8c68 e1bc
00000070: 3cfa a0bb 6084 ca3c 160d 23bc c7c0 ea3b
00000080: 3da5 c53d 52a1 57be e522 ab3b 5a6f 06bd
00000090: 1856 8f3b b8e9 103e be07 9bbb ac35 913c
000000a0: 9273 f43c eeee 02bd 6ad8 183d af3e 2cbc
000000b0: 1e04 6fbc 32f0 41bc ad89 0d3e 987b c83b
000000c0: 8964 803d aebf 313c 5921 51bc b5be 973c
000000d0: 9bdc 183e e48d 7d3c ef5c 57bc 2b37 5c3e
000000e0: 3cf2 79be d689 ef3d ebac 7f3b 503a 733b
000000f0: a232 15bc 5555 8c3b f0a3 db3c ffa0 2f3e
00000100: 4bca eebc 91a5 4dbb 2da1 6bbe 6889 b63d
00000110: befb 323e d2e2 2d3d 1c63 a8bc bb41 923e
00000120: 872d b93d 69c1 72bd 52d3 aabb a22f 69bc
00000130: 04a6 4e3c c8e9 013c bddb 683e c2dc 10bc
00000140: 609d 37be 0bed e63b c3ba 303e 2819 af3e
00000150: 3a32 a2bd 56b5 e23d 72e4 243c 13b8 92bc
00000160: 8716 c43c bc82 4c3d 3721 c3be cbc4 c83d
00000170: f78d b13c b282 b03c 7a71 2dbc c6ff 0b3e
00000180: a787 25bd 8ef9 9bbc 1066 203e fec1 fa3d
00000190: 92ca ac3d 2724 cebb 995e 17bc cf49 853c
000001a0: b8f7 0cbd ff41 7abe dd95 173d 211a 08bc
000001b0: d0f3 73be a885 5cbc 30f6 f7bb 6ba8 363e
000001c0: 88cd 9b3a 0113 e13d f2b9 1dbe c6c6 113e
000001d0: 434d a33d b78f 0a3e 40c4 833c e91f 37bc
000001e0: 5f3d 1cbc 7dca 9cbc 0760 e9bb dec4 283d
000001f0: bb48 4ebc d262 0bbe 6d5f 613d 430b 193d
00000200: ee76 823d af3c 083e d638 87bc dfd8 e3bc
00000210: d789 a93d 76f0 73bc 64f1 0fbc 9800 c33b
00000220: 76aa 363e db47 023e c04a dc3d 0f09 4c3e
00000230: f5fe bbbb b436 0fbd 197c 9fbd e0cb 613c
00000240: efed d6bc 72c7 563d 018e 5fbc ca62 1a3d
00000250: 250f f93d 8c87 1a3d 9722 273d 9096 1d3d
00000260: 9c0f 643d df28 6fbe 1124 d03c 5118 663d
00000270: 2d10 06bd aa74 8b3a fbc3 d03d 9691 553e
00000280: d78e d23c b12a 9d3d d1c3 32be 790e bd3c
00000290: 94a8 06be bcfa 96bc 88b5 433d a35a 863d
000002a0: 3901 b3bc d671 8f3c 2cd7 47bd 9240 f3bc
000002b0: b620 0cbb 7be7 053e 61d5 de3d 2621 6f3b
000002c0: 7dd4 2e3d ba8b c43c 3cc6 1ebd 4b4b 96bd
000002d0: 25a4 cd3d b253 e33d c907 cdbc dc48 aa3c
000002e0: 7add 2bbb da67 873e 9005 e23d bd9e 013d
000002f0: 7603 c93c c2d2 f53c f268 59bc d4c3 563d
00000300: 2f9a 363e 6dd9 9e3d 053b 7eba 8abb 093e
00000310: 4660 38bc ef28 bc3d 32d0 8cbb 38d5 0abd
00000320: 1dd0 5dbc 5f4c 81bd d136 d43b 3b4d 333b
00000330: 12ac 5abc d973 ab3b e437 16bd db7f 26bc
00000340: d5ae 3abd 2ed6 aa3a f392 863c 0638 abbd
00000350: 9b85 463c 69ce 94bd ddb0 bcbc f321 a73d
00000360: 14ce 953d bbfe ea3a 31c2 cb3c 1fc9 cfbc
00000370: 85d2 973c 810a 0c3e 70e1 ccbb 09f3 94bd
00000380: 9b5b 23bd 7fb8 80bd 8249 dc3d 6876 f4bc
00000390: 62eb c9ba ba2c ac3d dfdd 2d3b a8ca 31bd
000003a0: fb0e 25bc c1bf 0b3c 5b91 bd3b cc6a 863c
000003b0: 7e51 143c da96 25bc f4dc 8abb ca2b 023e
000003c0: 50e6 efbc 28fe a73d 3b1f 843d 0e11 1bbd
000003d0: 5105 803d 0912 4fbd a8df 20bc 34e3 1b3e
000003e0: afec e03b 4edf 9ebb 461d 3e3d 716c 69bc
000003f0: 7476 13bc 6c3b 313d a322 ad3c 0e6e ecbd
0.03035851 0.13235305 0.002226207 0.0017391457 0.15209313 0.021397417 0.08627517 0.00043609212
0.093862705 -0.017315166 -0.02434846 0.004131337 0.090875894 0.06397157 0.3796346 -0.00028393726
-0.0004889154 0.04468918 -0.23724562 0.047071368 0.027846962 0.007446338 0.0076509193 0.14215204
0.026562747 0.0036522471 -0.00470156 -0.027515672 -0.0049126428 0.024721324 -0.00995185 0.007164094
0.09650657 -0.21057633 0.0052226656 -0.032821037 0.004374277 0.14151657 -0.0047311476 0.017725788
0.029840264 -0.031966142 0.037315764 -0.010512992 -0.014588384 -0.011837052 0.1382205 0.006118249
0.062691756 0.010848923 -0.012764298 0.018523553 0.14927904 0.015475724 -0.013144716 0.2150542
-0.24408811 0.11696212 0.003901298 0.0037113614 -0.00910631 0.0042826333 0.02681157 0.17151259
-0.029149195 -0.0031379203 -0.23010702 0.08912927 0.17478845 0.04245264 -0.020555072 0.28565773
0.09041887 -0.05926648 -0.0052131796 -0.014232548 0.012612823 0.007929273 0.22740074 -0.008841695
-0.17931128 0.0070473007 0.17258744 0.3419888 -0.07919736 0.11069743 0.010064231 -0.017910039
0.023936523 0.049929366 -0.38111278 0.0980316 0.02167414 0.021546695 -0.010586137 0.13671789
-0.04041257 -0.019039895 0.15663934 0.12244032 0.08437075 -0.006290931 -0.009238862 0.016270546
-0.03441593 -0.24439238 0.037008155 -0.008307011 -0.23823476 -0.0134596005 -0.0075671896 0.17837684
0.0011886815 0.10989953 -0.15402964 0.14235982 0.07973721 0.13531385 0.01608479 -0.011177042
-0.009536116 -0.019139523 -0.007122043 0.041203372 -0.0125905825 -0.13611916 0.055022646 0.037364256
0.0637034 0.13304399 -0.016506594 -0.027813373 0.08278244 -0.014888873 -0.008785579 0.0059509985
0.17838463 0.12722723 0.10756445 0.1992533 -0.0057371804 -0.03496428 -0.077873416 0.013781518
-0.026236502 0.0524363 -0.013644696 0.03769187 0.12161092 0.037726924 0.04080447 0.038473666
0.05567895 -0.23355435 0.025407823 0.056175534 -0.03273027 0.0010639627 0.1019363 0.20856318
0.025702877 0.07674158 -0.1745751 0.02307819 -0.13150245 -0.018430106 0.047780544 0.06560256
-0.021851169 0.017510336 -0.04878919 -0.029693875 -0.0021381802 0.13076584 0.108805425 0.0036488264
0.042683113 0.023992408 -0.03876327 -0.0733858 0.10041074 0.11099948 -0.025028126 0.020786695
-0.002622454 0.2644642 0.11036217 0.031645525 0.024537783 0.030007724 -0.01326965 0.05243285
0.17832254 0.077563144 -0.00096981257 0.13450447 -0.011253422 0.09187495 -0.0042972798 -0.033894747
-0.013538388 -0.06313395 0.006476261 0.0027359265 -0.013346689 0.005232316 -0.036674395 -0.010162319
-0.04557689 0.0013033801 0.016427493 -0.08360295 0.012116815 -0.07265932 -0.023033554 0.08160772
0.07314697 0.0017928699 0.024872871 -0.025364457 0.018533 0.13675882 -0.00625246 -0.07272918
-0.039882284 -0.0628519 0.10756208 -0.029841617 -0.0015405233 0.084069684 0.002652995 -0.04340616
-0.010074372 0.008529604 0.00578515 0.016408347 0.009052632 -0.010106767 -0.0042377654 0.12712017
-0.029284626 0.08202773 0.06451269 -0.03785806 0.06251014 -0.05055431 -0.009818949 0.1522339
0.0068641524 -0.0048483973 0.046414636 -0.014247046 -0.009000409 0.04326956 0.02113468 -0.11544429

transformer_encoder.layers.0.linear2.bias f4 [6]
00000000: 6029 97bb c9a3 143c 5e2f 86bc 7643 9f3c
00000010: e9f5 e23c aebe 933c
-0.0046130866 0.009072253 -0.016380008 0.019441348 0.02770515 0.01803526

transformer_encoder.layers.0.norm1.weight f4 [6]
00000000: 2945 7c3f d7ea 913f 806a 903f 43b3 6f3f
00000010: 7e8d 8b3f a785 7c3f
0.9854303 1.1399792 1.1282501 0.93632907 1.0902555 0.9864144

transformer_encoder.layers.0.norm1.bias f4 [6]
00000000: 82f4 ce3c 96eb 5b3c c303 d1bb 31b2 babd
00000010: 229d 633d 2411 b93c
0.025263075 0.013422867 -0.0063786223 -0.091160186 0.055569775 0.022591181

transformer_encoder.layers.0.norm2.weight f4 [6]
00000000: fbe0 6d3f 79ad 8f3f 80f5 8e3f 7d39 773f
00000010: d367 8a3f efef 7b3f
0.9292142 1.1224815 1.1168671 0.96572095 1.0812935 0.98412985

transformer_encoder.layers.0.norm2.bias f4 [6]
00000000: 9382 12bc 13c6 063d e61d 03bc b021 c0bd
00000010: 422f f13d 55d4 533d
-0.008942264 0.032903742 -0.008002734 -0.093814254 0.11776592 0.051716167

transformer_encoder.layers.1.self_attn.in_proj_weight f4 [18, 6]
00000000: 26aa f2bd 1b3b 05bf 6f6b 3bbe 0d34 4c3c
00000010: f9f2 af3e ec0c cb3d ff58 22bf c0c3 6e3e
00000020: 410f 82bc d46f df3e b0a2 323e a6b5 153f
00000030: 07af a03d 50fc edbe 9c71 86be bf50 513e
00000040: 0b3a e53e 4d4b fbbe 00ec 3e3e 3f2e c3be
00000050: 4e8c 0b3f 355e 01bf 96ed 5b3e d3dd a93e
00000060: 410c 903e 27a3 28be 20a6 d03c a76d 543e
00000070: caa0 a53e 8482 47be a8a3 c0be d6c2 01bf
00000080: c925 1dbf 33f8 b2bd 7c86 6abd 6cc5 c7bd
00000090: c284 9b3d 7f6c f93e aea1 dd3e 28d7 d3be
000000a0: 2b81 913e 53c1 40be 132d c33e 3369 fdbe
000000b0: b50f 3bbe 34bb 04bd 859c 80be 0235 04bf
000000c0: bf05 d73e 54aa cd3e dbae 883e 1bac d23d
000000d0: 3689 9ebc c5e4 0f3f 55f2 d6be ba0a 8abe
000000e0: 97c7 4b3d 5581 403e f388 d3be 8919 bbbe
000000f0: 8337 83bd dcf6 e3bd 2a5b ad3e 64e0 163e
00000100: 0ebf 813e c43b 1fbe 7f4a b93c b0e2 0d3f
00000110: 3fc0 86be 0bed acbc 63b2 a8be fd6c bc3d
00000120: 88ce 8bbd 82af bb3e e22f d8be b397 fcbd
00000130: b1a5 093f c49d ed3e c1cc 37be 8c88 943e
00000140: 2e15 c63e 26c1 833e 5266 e6be 7da8 053e
00000150: 458b 0cbe 2956 4a3e da00 f43e bb8b 06bf
00000160: 6421 bbbe 061f 293e d8f6 98bd a712 ca3d
00000170: bb49 c13e dfc7 77be 6b2e 91bd 06cc 10bf
00000180: 080c abbc 4ef2 dabe a01e 193f 75bb 6c3e
00000190: f845 dabd 36fb ce3e a181 93be 9d47 cb3d
000001a0: 5919 593e 20ef a63d fcde 3bbe ba8e 99be
-0.118488595 -0.5204331 -0.18302701 0.012463582 0.3436506 0.09914574 -0.6341705 0.2331686
-0.015876414 0.43640006 0.17444873 0.584803 0.07845884 -0.46481562 -0.26258552 0.20440958
0.44770846 -0.49080887 0.18644714 -0.3812122 0.5451096 -0.50534374 0.2147735 0.3317705
0.2813435 -0.16468488 0.02546984 0.20744954 0.32349235 -0.19483382 -0.3762486 -0.5068792
-0.6138578 -0.087387465 -0.05725716 -0.09754452 0.07593681 0.48715588 0.43287414 -0.4137509
0.2841886 -0.18823747 0.38120326 -0.49494323 -0.1826771 -0.032405093 -0.25119415 -0.51643384
0.4199657 0.40169013 0.26695904 0.10286733 -0.019352537 0.5620845 -0.4198176 -0.2696131
0.04975089 0.18799336 -0.4131542 -0.3654292 -0.064070724 -0.11131069 0.33858615 0.14734036
0.25341076 -0.15550143 0.02261853 0.5542402 -0.26318547 -0.021109125 -0.32948598 0.09200475
-0.06826502 0.3665734 -0.42224032 -0.12333622 0.5376845 0.46409428 -0.17949201 0.29010427
0.38688034 0.25733298 -0.4499994 0.13052554 -0.13725002 0.1975943 0.476569 -0.5255696
-0.36548913 0.16515741 -0.07468957 0.09866839 0.37751564 -0.24197339 -0.07088932 -0.56561315
-0.02087976 -0.4276299 0.59812355 0.23118384 -0.10657877 0.40426034 -0.28809837 0.099257685
0.21201076 0.08151078 -0.1834678 -0.29991704

transformer_encoder.layers.1.self_attn.in_proj_bias f4 [18]
00000000: 08e6 55bd d5f5 443e 231f 853d 2b89 9bbd
00000010: 4653 d73d f502 5fbd 4568 ceba c970 a9b9
00000020: d13e 11bb 2a92 6c3a e40b c5b9 b284 a7b9
00000030: 62bf ab3d 1ad5 6bbd 0d47 553c 09d4 093c
00000040: a370 b2bc b4b3 a4bd
-0.052221328 0.19234402 0.065000795 -0.07594522 0.1051393 -0.05444618 -0.0015747627 -0.00032318223
-0.0022162686 0.00090244657 -0.00037583627 -0.00031951588 0.08386113 -0.057576276 0.013017428 0.0084123695
-0.021782225 -0.08042088

transformer_encoder.layers.1.self_attn.out_proj.weight f4 [6, 6]
00000000: 7e1a c03e 2bf3 38be 9e06 7cbd 3d24 a2be
00000010: d4aa 02be c625 b33d 4529 eb3d f90e b5be
00000020: 366c d8bd 139a 833e bc22 e83d fe88 be3d
00000030: 9d34 ac3d 0cd0 85be 5ca9 e8be 1903 0ebe
00000040: aee6 30be 42cb b1be 0280 28be ca85 003d
00000050: dfa3 aa3e 33eb e3bb b86a ad3e 2adf f0bd
00000060: 73f1 05bd f7f3 013f 5869 3c3e a972 f03c
00000070: e093 28be b917 df3e 9cca 123d 80a7 cbbe
00000080: 262b 883e b116 0d3f 1d9c c0be 0aad debc
0.37520212 -0.18061511 -0.06152975 -0.31668273 -0.12760478 0.08747439 0.11482481 -0.35362986
-0.105675146 0.25703487 0.1133475 0.09303473 0.08408473 -0.2613529 -0.4544171 -0.13868369
-0.17275497 -0.34725386 -0.16455081 0.03137759 0.3332815 -0.006955528 0.33870482 -0.11761315
-0.032700967 0.50762886 0.1839956 0.02935155 -0.1646266 0.43572786 0.035837755 -0.3977623
0.2659542 0.5511275 -0.37619105 -0.02718212

transformer_encoder.layers.1.self_attn.out_proj.bias f4 [6]
00000000: 6e81 7c3d 14f5 c4bc 0bec a73c 716c df3b
00000010: 8363 d7bd fe8b 863d
0.06164687 -0.024042644 0.020498296 0.006818347 -0.10517027 0.0656967

transformer_encoder.layers.1.linear1.weight f4 [2048, 6]
00000000: 3619 9abd 60cb f53c 76a1 5a3d 64f9 81be
00000010: 6067 8d3e 5fa4 163c 1047 b73e 0211 b33e
00000020: ae02 54be 45a5 a33d dea0 a83e fa1a a73e
00000030: 01df 6fbe 101e 343e 2bd4 cd3e 0e54 dfb9
00000040: 5308 b0be bc98 6cbe 5838 bdbe f1c4 443e
00000050: e184 b93e 54ce 8d3d f152 e7be 1ec0 113e
00000060: 3bce 693d 0a71 a03e 0f8b 66be a35f d5be
00000070: a1a2 503e 6beb 86be e7da 8fbe d0b4 0fbe
00000080: 16c2 c53e 07d7 dabc d585 50bd 4654 6cbe
00000090: 890a c7be d105 c6be 8c38 913e 6065 cebe
000000a0: 5dee 843e f60c 15be 05ff 8d3e 7811 a9be
000000b0: 6649 113b 095a 8d3e 5fe4 2fbe 8c48 95be
000000c0: 7df8 8e3d 385d 403e 3457 88be d6a2 7ebd
000000d0: 707a a8bd 2d69 763e db7a eb3e 75d2 d1bd
000000e0: 7a7d f63d 2cd8 9e3e c2d0 dbbe 8170 803e
000000f0: 287c af3d fb17 e23e e8dc e13e 144b cfbe
00000100: fa7a a13d 7381 563e 5390 e93e d1aa a8be
00000110: ece8 343e 4ea2 043e 8de9 9a3b cfeb 95be
00000120: 76a8 fabb 5f5d c8bd bb68 873e f3b7 fbbd
00000130: 993b d03d f51a 7ebb 94aa 3fbe ac97 8c3d
00000140: e13b 9abe 159f 6cbe d46c 643e 13f0 c43e
00000150: 08cf 7f3d 28e1 d6be 04d5 cdbe 1e6c 81be
00000160: ffef 093e 305b 483d 4a92 a23e 5231 f93d
00000170: 50d3 bd3e e5b9 123e ea85 ccbe 4d12 f5bd
00000180: 8a8b 42be 8fe8 1fbe d372 adbe 8902 9f3e
00000190: d216 0c3e 6354 523c ca05 433e 9d64 f4bc
000001a0: 17e0 8ebe 1c59 6abe 308b 2a3e 2247 a3be
000001b0: dde5 313e 194c 96be 9784 f53e 7cd1 e43d
000001c0: 79a4 b5bd 5926 c23d 8ffb cd3c e8f0 923d
000001d0: 11b5 a03e 943e 45bc 887e a93d 26d5 9abe
000001e0: f5fa cb3e 2941 6bbe ac55 2c3e 885a 4dbe
000001f0: 2b37 743e e53f 02bf da21 b93e 50d2 473e
00000200: e215 cf3e dd59 713e df63 9e3c f5e9 36be
00000210: f856 1b3e 9ad1 58bd 974f 0bbe 644c 2f3e
00000220: 8b49 04bd d15e a7be 5b7e 873c f91f c13e
00000230: d2c7 983e eb2a a6be b211 cd3d 3520 9e3d
00000240: c272 df3d d698 df3d 139f 3d3d 1a96 f83c
00000250: 1fd2 6b3e abb4 54bd 2ca9 a13e 2100 dc3d
00000260: 62ff ec3d 72d5 4b3e 6cf2 403e fbc7 a83e
00000270: a298 993e b337 e7bd 48f9 0a3e b49a 9d3e
00000280: 2f30 ed3d 022c a8be 599c b43e 0003 4a3e
00000290: f8b4 9c3e 7717 353e bc6a c6be e71a 88be
000002a0: c84f 90be 86dc 24be bf0f 983e d374 a43e
000002b0: 9b9a 213e a94e 31be 7eaf fcbd 486b 803e
000002c0: cbf9 bbbd 3752 23be 0d35 5c3e fb35 8e3e
000002d0: c104 a93d 9094 eabe ebcf 483e acb5 e83d
000002e0: d798 89be 1a51 74bd 294d 56bd cd0b 323e
000002f0: c6d8 91bd 2555 ad3e e9fe 15bd c188 6abe
00000300: 533a dd3e d242 58bd fa47 8e3b 3f39 a1be
00000310: 3d75 c73e 1d13 8f3d b18b adbd 1a7f 673e
00000320: 02f9 16bd fd76 d6be 7522 bfbc be3c b33e
00000330: f6a7 9a3e 1f66 04be 9e3f d23e 5789 5dbe
00000340: 8c2e 3dbd 8b9c b3be c7c3 eb3e 6d09 bcbe
00000350: cdc2 b5bd b5fb 12be 865c bcbd e0be ddbd
00000360: 4df9 8d3e 78d1 2a3e ede2 023f a260 df3d
00000370: 3d0a 983c e0a7 133f c528 943d b36f 75bd
00000380: 4148 2f3e bca2 66be f84b 58bd a1c3 473e
00000390: a6e5 7bbe de3f 8f3c 4c80 3abe b875 933e
000003a0: ef53 a0be badc 9bbd 5f4b 593e 6d92 0abd
000003b0: 0637 8bbe d02e ac3e 0942 c03e 6873 2e3d
000003c0: 6811 a4be fc4f 313e b034 b93d 8175 08be
000003d0: 182a bbbe c09a 1b3e 81ce a0bd 0db3 b2be
000003e0: d997 22be b8d6 8dbd d292 c4be 058a 8cbe
000003f0: 03e2 ae3e 9fb0 a73d d4f1 c4be dbe7 19be
-0.0752434 0.030004203 0.053376637 -0.25385582 0.2761793 0.009194463 0.35796404 0.34973913
-0.20704147 0.07990507 0.32935232 0.3263777 -0.23424913 0.17589593 0.40200934 -0.000425965
-0.3438135 -0.23105139 -0.3695705 0.19215752 0.3623419 0.069241196 -0.45180467 0.14233443
0.057081442 0.31336242 -0.22513984 -0.41674528 0.20374538 -0.26351485 -0.28096697 -0.14033818
0.38624638 -0.026713861 -0.050908882 -0.23079023 -0.38875225 -0.38676313 0.28363454 -0.40311718
0.25963107 -0.14555725 0.27733627 -0.3302114 0.0022168993 0.27607754 -0.1717696 -0.2915691
0.06980989 0.1878556 -0.2662903 -0.06216701 -0.08226478 0.24063559 0.4599217 -0.102452196
0.120356515 0.310243 -0.42932707 0.25085834 0.08568603 0.4415892 0.4411385 -0.40486968
0.07884784 0.20947818 0.45617923 -0.32942823 0.17666978 0.1295254 0.0047275485 -0.2928147
-0.0076494766 -0.09783434 0.2644709 -0.12290945 0.10167617 -0.0038773392 -0.18717414 0.068648666
-0.3012381 -0.2310756 0.2230714 0.38464412 0.0624533 -0.41968656 -0.4020158 -0.252778
0.13470457 0.04891509 0.31752235 0.1216761 0.3707528 0.14328726 -0.39945918 -0.11966381
-0.18998542 -0.15616058 -0.33876666 0.31056622 0.1368058 0.012837502 0.19045177 -0.029833132
-0.27905342 -0.22885555 0.16654658 -0.31890208 0.17372842 -0.29354933 0.4795272 0.111727685
-0.08869261 0.094799705 0.025144367 0.071748555 0.31388143 -0.012038846 0.08276087 -0.30240744
0.39839903 -0.22974075 0.16829556 -0.20054066 0.2384917 -0.50878745 0.3615864 0.19513822
0.40446383 0.23569436 0.019334732 -0.17862685 0.15169895 -0.052934267 -0.1360458 0.17118984
-0.0322967 -0.32689527 0.016539743 0.37719706 0.2983995 -0.3245462 0.10013141 0.07720987
0.1091056 0.10917823 0.046294283 0.030345012 0.23029374 -0.05193011 0.3157438 0.10742212
0.11572148 0.19905642 0.18842477 0.32965073 0.29999262 -0.11289921 0.13571656 0.30782092
0.11581456 -0.32846075 0.35275534 0.19727707 0.30606818 0.17684732 -0.38753307 -0.26583025
-0.28185868 -0.16099748 0.29699513 0.3212038 0.15781634 -0.17315163 -0.1233816 0.2508185
-0.091785036 -0.15949331 0.21504612 0.2777556 0.0825286 -0.4581647 0.19610564 0.11362776
-0.2687442 -0.059647657 -0.05231968 0.17387314 -0.071214244 0.33854023 -0.036620054 -0.2290373
0.4320856 -0.0527981 0.0043420764 -0.31488988 0.38956633 0.069860674 -0.0847391 0.22607079
-0.036858566 -0.41887656 -0.02333186 0.3500728 0.3020627 -0.12929581 0.4106416 -0.21634422
-0.04618697 -0.3508037 0.46047804 -0.3672594 -0.08875046 -0.14353831 -0.09197335 -0.10827422
0.27729264 0.16681468 0.5112751 0.10907103 0.01855957 0.5767803 0.07234339 -0.059920978
0.17117406 -0.22523016 -0.052806824 0.1950822 -0.24599323 0.017486509 -0.18213004 0.2880075
-0.31314036 -0.076104596 0.21220158 -0.03383105 -0.27190417 0.33629465 0.3755038 0.04259053
-0.3204453 0.17315668 0.090432525 -0.13326074 -0.36555552 0.15195751 -0.078518875 -0.3490223
-0.15878238 -0.0692572 -0.38393265 -0.2744905 0.34156808 0.08187985 -0.3846575 -0.15029852

transformer_encoder.layers.1.linear1.bias f4 [2048]
00000000: ab5f 483e 5072 cbbc 2c7a a03e d0fd 7fbe
00000010: 659d 7d3e b680 71be bb38 ad3a 61c0 8abe
00000020: 0dff a43e ca85 913e cd3e 66be 9c48 763e
00000030: fc13 ab3d 677b 37bd 81a2 dc3b 8620 a73d
00000040: 8a65 bc3d de6e 883e 96fe 5bbe 3ecb 6fbe
00000050: 68bc 7bbe 855e d5be 92f6 48be ad8f 7bbe
00000060: 4a40 f53d 96ee 5d3d 51bb 8c3e 3ae4 abbd
00000070: 15b8 80be da7e cb3d fc7d b8be f96b 423e
00000080: cd20 b93e 2456 2bbe 9880 5d3e 1d28 853e
00000090: 175f babe 9295 4c3e a995 82be 64d3 4e3b
000000a0: 0edb dd3d 5c65 39bb c75b 3f3e e7c0 003e
000000b0: 1fb8 0f3d 777a 16be 0e81 803d 9a86 90be
000000c0: 96b4 ffbd 74dd bcbe f64f 973e d1e2 863e
000000d0: ce2c 10be 414f 9dbe eb54 5a3e 8ba8 b0be
000000e0: fe20 24be 97dc 08bd 284c 1d3e 6267 25be
000000f0: 748e 843e 8588 9bbe 27c4 e13c 9af6 2cbe
00000100: b057 f339 9a18 0e3e cf45 84bd d2c4 2ebe
00000110: e1a7 51bd d1ec 453e 96c0 16be 1b21 5fbe
00000120: bcf4 8abe c2e9 afbe cf0a 06be 934e 9a3e
00000130: bc24 773e a1ab 3d3e 7e8b 7ebe 7346 43be
00000140: c6b2 f2bd 42dd 763c bb48 8b3e a7f9 95be
00000150: 3151 953e e066 b5bd a08a 823e 4b45 e13d
00000160: cb39 43be 7daa a6be c7cf 81be f80e 78be
00000170: 65b2 e8bd f5c2 d6bd 38ce d83d 2f70 57be
00000180: ed31 e0be 755d bd3c 3555 323e 3c97 a9bc
00000190: ddde 213e 6790 c33d 2699 b6be d58d 4cbe
000001a0: 0bd6 a2be 443a 22bb c0b1 71bd bfc9 4c3e
000001b0: afc5 79be fc37 46be fff9 1abe fcac 9abe
000001c0: f748 a23c 0827 903e 1a34 a5be 2600 0e3e
000001d0: a73c 8dbb 45bb 933e a9dd c93c e595 61be
000001e0: 81ec 323e 115a c23e cbc0 083a 4db9 ddbe
000001f0: d4e8 933d 5f2f b1bd b6ce a1be 32a7 073d
00000200: 6a7b 043e 1e82 52be c182 a03e 8282 313b
00000210: a30e 3fbc 3353 063e 16a1 a83e d63c efbd
00000220: 1ecb 993d 9975 67be 3634 15be 0850 e2be
00000230: 580c d7bd 47b7 93be 1d38 72bd fc9b bcbd
00000240: a9ab c5bd 3c8a 143d 7c5c 553e 421c 963c
00000250: 84e6 f4bb 1a90 a5be 2f05 9b3e 9c69 263d
00000260: a27a a33e b866 df3c 4ece 693e 2099 a23d
00000270: 0c66 83be f4a7 423e a2cf 0abe 1105 a6be
00000280: c4d6 a53e e999 003e 771a c1be 3d51 2b3e
00000290: ff59 a4bd 929c a83e 9e9f b7be 242d b2be
000002a0: c6b7 cfbe 4db7 91be a933 d0be 6c5c d23d
000002b0: e5a9 abbe f96e bcbc 78f1 e4bd 8350 893e
000002c0: f65c bc3c 52f0 c5be 4451 bbbe b608 593e
000002d0: 2c46 003e e3b4 99be abd3 d3be e3fa 77be
000002e0: ac03 ddbd 893d eabd e4ed d4be 3875 92be
000002f0: 90e6 4fbe c264 c5bd fdff 4ebe ded0 923e
00000300: c85a ccbc d7d8 213e f69f 54be 0e8a af3e
00000310: 800b acbe 2d34 713e ea53 0a3e 615b 213e
00000320: f20d b93d 8e3c 86be 6341 ce3d 8a6a 09be
00000330: e988 043d 69e6 973e cbfa 58be 0f9e 1f3e
00000340: 11fb 60be c14d 82be ed3c 32be b22d 7abe
00000350: 3965 aebe 41a6 f8be 0126 88be 344c 48bd
00000360: 3657 ccbd 9617 5e3e f361 943e fd3a 20be
00000370: 3632 853e f0cf dbbe f363 6dbd d17c 523e
00000380: fdeb 87be 1be1 1c3e 41b7 bdbd 35be 2abe
00000390: 7a7f 103e ab20 873e 950b e2be 72ed 6bbe
000003a0: b75d 9abe 0ba7 d43e 9924 173c 6f10 693e
000003b0: 6693 543e 4e21 903e 300b 91be 6b7c 77be
000003c0: 6efa c23e 8927 bebd d873 2bbe da5a c3be
000003d0: 2b88 8f3d c708 813e f135 a03e fe90 0b3e
000003e0: 1182 90be bef4 7e3e 434f 10be a7c8 313d
000003f0: 544b 6c3e 4c9d 033e 339b bcbe 8930 f13d
0.19567744 -0.024834782 0.3134321 -0.24999166 0.24767072 -0.23584256 0.001321576 -0.27099898
0.32225838 0.28422385 -0.22484894 0.24051136 0.08353421 -0.04479542 0.006733239 0.081605
0.091990545 0.26647085 -0.21483836 -0.23417374 -0.2458359 -0.41673675 -0.19625309 -0.24566527
0.11975153 0.05418261 0.2748666 -0.0839314 -0.25140443 0.099363044 -0.36033618 0.18986501
0.36157838 -0.16732079 0.21631086 0.26007167 -0.36400673 0.19978932 -0.25504807 0.0031559104
0.10832797 -0.0028289175 0.18687354 0.12573586 0.0350877 -0.14695154 0.06274615 -0.28227693
-0.12485616 -0.36887705 0.29553193 0.26344922 -0.14079592 -0.30724528 0.21321456 -0.34503588
-0.1602821 -0.033413496 0.15361083 -0.16152719 0.25889933 -0.30377594 0.027559353 -0.16890946
0.00046413904 0.13876572 -0.064586274 -0.17067268 -0.051185492 0.1932862 -0.14721903 -0.21789972
-0.27139843 -0.3435803 -0.1309006 0.30138072 0.24135107 0.18522502 -0.248579 -0.19069843
-0.118505046 0.0150674 0.27203926 -0.29292032 0.29163507 -0.088575125 0.25496387 0.10999545
-0.19065015 -0.32551947 -0.25353834 -0.2422446 -0.11362151 -0.10486404 0.10586208 -0.21038888
-0.4378809 0.023115853 0.17415316 -0.020701997 0.15807672 0.09549027 -0.35663718 -0.1997598
-0.31803927 -0.0024753967 -0.059007406 0.19998835 -0.24391817 -0.19357294 -0.15134428 -0.30210102
0.019810183 0.28154778 -0.32266313 0.13867244 -0.004310209 0.28853813 0.024641829 -0.22029836
0.17473032 0.3795934 0.00052167167 -0.43305436 0.07222143 -0.086516134 -0.3160302 0.033118434
0.12937704 -0.20557448 0.31349757 0.0027085845 -0.0116612045 0.13117675 0.329354 -0.116815254
0.07509445 -0.22603454 -0.14570698 -0.44201684 -0.10500401 -0.28850767 -0.059135545 -0.09209439
-0.09651882 0.036264643 0.20836061 0.018324021 -0.0074737687 -0.32336503 0.30277392 0.04062806
0.319295 0.02727066 0.22832605 0.079393625 -0.25663793 0.19009382 -0.13555768 -0.3242574
0.32390416 0.12558712 -0.37715504 0.16730209 -0.08024978 0.32931954 -0.35863966 -0.34800065
-0.40569896 -0.2846016 -0.40664414 0.10271534 -0.33528057 -0.023002135 -0.11178869 0.26819238
0.022993546 -0.38659912 -0.36585438 0.21194729 0.12526768 -0.30020818 -0.41372427 -0.242168
-0.10791716 -0.11437518 -0.41587746 -0.28605056 -0.20302796 -0.09638359 -0.2021484 0.28674978
-0.024945632 0.15805374 -0.20764145 0.34285015 -0.33602524 0.2355506 0.13508573 0.15757515
0.09035863 -0.26218075 0.10071065 -0.13419548 0.03235713 0.29667976 -0.2118942 0.15587638
-0.21970774 -0.25449947 -0.17406054 -0.24431494 -0.34061602 -0.48564342 -0.26591495 -0.048900798
-0.09977572 0.21688685 0.2898098 -0.15647502 0.2601487 -0.4293208 -0.057956647 0.20555426
-0.26547232 0.15320246 -0.092634685 -0.1667412 0.14111128 0.2639211 -0.4414946 -0.23039797
-0.30149624 0.41533694 0.009225034 0.22760175 0.20759353 0.2815041 -0.28328848 -0.24168555
0.38081688 -0.092848845 -0.1674341 -0.38155252 0.07008394 0.2520201 0.31291154 0.13629529
-0.28224233 0.24898049 -0.14092736 0.043404248 0.2307561 0.12852973 -0.36837158 0.117768355

transformer_encoder.layers.1.linear2.weight f4 [6, 2048]
00000000: 3668 563c 0a4d 39bc dcc8 e2bb b119 9abd
00000010: f272 263d 134f 443c d730 77bd a43f b23c
00000020: 4136 21bd af04 343c 9c05 4a3e 2abd a63b
00000030: 1d79 adbc d577 3d3d 9772 16bd 00cb 6f3c
00000040: 4abe 11bc 84f5 ea3c 5893 bbbd 261a 893c
00000050: 2700 fbbd 7a90 9b3d 663a d23c 7f3d 483e
00000060: 3e36 a93c b2bf 00bc 91fe b63b f72d ebbc
00000070: 1413 80bb 3115 183d da57 24bd 1dd6 cd3a
00000080: 1399 25bd 8c5a 2d3d d1c5 b0bd 9768 82bb
00000090: 127e fb3e b5fa 1d3e 54e6 d6bc 6a37 a43c
000000a0: be22 b8bc 242b e5bb b25a bd3b e6ab abbb
000000b0: c338 443b 6a18 41bd 08c1 133d ba80 3abe
000000c0: d141 e2bd ae07 8d3d 8a37 1ebc a12b 873c
000000d0: 86f0 b73d d18e 1b3c 0737 40ba bcc0 cc3d
000000e0: cf79 593e 8cee 25bd 8340 1cbc 299c 8f3d
000000f0: 0153 bf3c ac5f 00bc ced0 a43c 5809 1d3d
00000100: f3a5 77bb 65ea 443c cc03 69bd 8e4d 3b3c
00000110: 4b4c 813b 61d0 443d c9a0 6ebc 5032 a83d
00000120: da01 a23d 2638 8ebd 960b 0fbd c17c 8c3b
00000130: 6254 933c f8b7 77ba acf7 babd d7e8 4c3d
00000140: 50bb d63d 7034 203c 8e36 183b 21be e23c
00000150: 0904 0c3e 7c0d 10bd 46af 0fbc a5c3 89bd
00000160: 05d4 c339 f0af 2fbd 6afe 963d 0f48 14bd
00000170: 3ec1 f3ba ee01 333d 0045 4cbc c7b1 363d
00000180: a306 b83c 1579 eaba 8daf b0bb dfbf 163d
00000190: e06b 5fbd 088f 7ebc 8ca1 a83e 4a44 f0bc
000001a0: 70d8 473c 0036 103d e034 cb3d 3ba8 fbbb
000001b0: f8c4 bebb ce5a 5cbc 82df 7f3e 0934 80be
000001c0: 045e 853b 68af f33c cc04 62bd e53c 003d
000001d0: 7497 9abd 499e 8d3a f57e 653c eec7 0dbd
000001e0: d3b2 90bc dc18 7e3c 4a96 aabc 07cf df3d
000001f0: f1d5 1ebd 6b16 c7bc e9d5 453e 6525 88bc
00000200: bb09 943c 999c 4e3d 8028 4ebb 4d86 94bc
00000210: cc05 07bd 6528 2fbc 9249 9bbc 4fbc d7bc
00000220: 698e 77bc e61f fe3d 776e 98bd 5748 a9bd
00000230: 0fbc f33b 250c 9e3c c3c8 4c3d f755 0dbd
00000240: 13bc a6bc 358a 703e bbf7 84bc 46fe 2ebd
00000250: 9a28 88bc 3dac 0b3d badf 9b3d ae90 173d
00000260: 52e1 26bd a0f2 16be b3b3 323c 413d 933d
00000270: caae 9cbc 2154 153b 9785 10bd fae4 15bd
00000280: f3b3 92bd ef00 163b 0302 2abd fef9 ab3b
00000290: 18c6 833e 7eba 2cbc b2b1 3c39 ea52 5a3d
000002a0: 0a3f 0a3c 9152 d73a 215e 46be 56d0 ecbc
000002b0: f0bc 753d 1381 ee3c a5c0 ec3c 1036 103c
000002c0: bb2e 373c d52b 89be 0edf 03be 70a1 80bc
000002d0: 3665 1ebc df64 e2bd be36 0b3d 2ebd 753b
000002e0: 1a14 1cbd 1e02 a6bb 70e6 ff3d 36b1 e33c
000002f0: 2383 9f3c b2b3 3e3c e445 b4bc fec5 d73d
00000300: 5067 713d e8b1 193d b308 133d d492 86ba
00000310: 0cda 86bb 5737 8fbd 5bf7 e4ba f1ee 35bd
00000320: 952d 80bb 40b3 c7bc bc16 583c d205 ba3c
00000330: fb9f 16bc ff38 8aba 0c27 b0bc e200 20bd
00000340: 8d64 cdbd b6a8 e73b 9200 f4bc acad d73b
00000350: 782c 603b f1e0 f63d 5817 a5bc 1abd 16bd
00000360: 3539 b53b 629f 3e3c f127 e63c 2e7c 3b3e
00000370: e23a 5f3c 67ef 673d 713f d43d e41d 2b3c
00000380: f924 35bd f2a9 453d 44b6 29bc 760f 25bd
00000390: 39b6 9cbc f6a9 d7bc 4d28 b63b 470c b1bd
000003a0: afd3 38bd 1706 b53d 0a38 73bb 41f3 163c
000003b0: 5bb1 2c3c fce1 0dbd ed71 d2bc b486 513c
000003c0: fe04 a23d 9494 9d3c 3b3e 88bc f353 603e
000003d0: fae8 593b 3993 a83d 5b41 533a 3eb9 8d3c
000003e0: 58ca 923c 5ff6 173a fe6c e7bd 5504 04bd
000003f0: 5298 11bc dc9a 2fbb 7519 a23c 83da d2bd
0.013086369 -0.011309871 -0.006920917 -0.075244315 0.040636964 0.011981743 -0.06034931 0.021758862
-0.03935838 0.010987445 0.19728702 0.005088468 -0.021175915 0.04625686 -0.036730375 0.014635801
-0.008895466 0.028681524 -0.09158963 0.016736101 -0.122558884 0.07595916 0.025662612 0.19554709
0.020655748 -0.007858204 0.005584546 -0.028708441 -0.0039085243 0.037129585 -0.040122844 0.001570407
-0.040429186 0.04232268 -0.086314805 -0.0039797532 0.49119622 0.15427668 -0.026232876 0.020045955
-0.022477504 -0.006993668 0.005778634 -0.0052389977 0.002994106 -0.047142424 0.03607276 -0.18213168
-0.1104771 0.068862304 -0.009656796 0.016500296 0.08981423 0.009494499 -0.00073324185 0.09997699
0.21237873 -0.0405107 -0.009536865 0.07012207 0.023355009 -0.00783531 0.020119097 0.03833899
-0.0037788122 0.012018775 -0.056888387 0.011432065 0.0039458624 0.048050288 -0.014564701 0.08212721
0.079105094 -0.06944303 -0.03492316 0.0042873328 0.017984573 -0.0009449716 -0.09129271 0.05002674
0.10484946 0.009778127 0.0023225877 0.027678551 0.13673414 -0.03516911 -0.008769816 -0.06726769
0.00037351265 -0.042892396 0.073727444 -0.036201533 -0.0018597019 0.043703012 -0.012467623 0.044603135
0.022464102 -0.0017888868 -0.005392021 0.036804076 -0.054546237 -0.015537031 0.3293575 -0.029329438
0.012197599 0.03520775 0.099221945 -0.0076799667 -0.0058218203 -0.013449384 0.24987605 -0.250397
0.0040700454 0.029746726 -0.055180356 0.031308074 -0.07548419 0.0010804619 0.01400732 -0.034614496
-0.017663395 0.015508857 -0.020823617 0.10928159 -0.03877825 -0.024302682 0.19319881 -0.016619394
0.018071046 0.050442312 -0.0031457245 -0.018130446 -0.032964513 -0.010690783 -0.01895598 -0.02633491
-0.015109637 0.12408428 -0.074429445 -0.08265751 0.00743819 0.0192929 0.04999615 -0.03450581
-0.020353353 0.23490222 -0.016231408 -0.042722963 -0.016620923 0.034099806 0.07611032 0.03700321
-0.040742226 -0.14740992 0.010907101 0.07189418 -0.019126315 0.002278574 -0.03528365 -0.036595322
-0.07163229 0.002288874 -0.041505825 0.0052483073 0.2573707 -0.01054251 0.00017995274 0.05330173
0.008437881 0.0016427805 -0.19371845 -0.028907936 0.059994638 0.029114282 0.028900454 0.008801952
0.011180575 -0.26791254 -0.12878057 -0.01570198 -0.009667685 -0.11054396 0.033987753 0.0037496793
-0.038105108 -0.0050661704 0.12495124 0.027794462 0.01947171 0.011639522 -0.022005983 0.10535811
0.058936417 0.03752318 0.035896968 -0.0010267147 -0.0041153487 -0.06992977 -0.0017468737 -0.044417325
-0.003911684 -0.024377465 0.013189014 0.022707853 -0.009193416 -0.0010545551 -0.021502994 -0.039063342
-0.10028944 0.0070696725 -0.029785428 0.0065819826 0.0034206193 0.12054623 -0.020152733 -0.036801435
0.0055305013 0.0116346795 0.028095217 0.1830909 0.013624879 0.056624796 0.10363663 0.010444138
-0.044224713 0.048257776 -0.010358397 -0.040297948 -0.01912986 -0.02632616 0.0055590034 -0.0864492
-0.045123752 0.08839052 -0.003711226 0.00921327 0.010540332 -0.034639344 -0.02568909 0.012788463
0.079111084 0.019235887 -0.016631236 0.21907024 0.0033250437 0.082312055 0.000805875 0.017300244
0.01791875 0.0005796905 -0.113000855 -0.032230694 -0.008886414 -0.0026795184 0.01978753 -0.10295584

transformer_encoder.layers.1.linear2.bias f4 [6]
00000000: b059 01bc 3a13 e43b fffb b1bb 8c47 6b3c
00000010: 2335 b93c 7349 b53c
-0.007894918 0.0069603 -0.0054316516 0.01436032 0.022608345 0.02212975

transformer_encoder.layers.1.norm1.weight f4 [6]
00000000: 6f14 833f 4b9b 823f 8764 843f a89c 7a3f
00000010: fead 8b3f 6137 7e3f
1.0240611 1.0203642 1.0343179 0.9789529 1.0912473 0.9930325

transformer_encoder.layers.1.norm1.bias f4 [6]
00000000: a888 1f3c 284a ca3c 0741 c43c e091 96bd
00000010: 6e10 583d 9f27 a63c
0.009737171 0.024693564 0.023956789 -0.07352042 0.052750044 0.020282565

transformer_encoder.layers.1.norm2.weight f4 [6]
00000000: c780 993f 34e4 a63f 7ac0 8e3f 6ae2 993f
00000010: 2f57 ad3f a717 893f
1.1992425 1.3038392 1.1152489 1.2022221 1.3542231 1.0710343

transformer_encoder.layers.1.norm2.bias f4 [6]
00000000: 4168 a1bd 87b4 2f3e b987 dcbd 3891 513c
00000010: 12da 90bc f318 cdbb
-0.07881213 0.1715871 -0.107680745 0.0127909705 -0.017682109 -0.0062590777
