DU_model/Transformer/Archive/best_model_prod4_tr.2.32.pth (torch, 425022 bytes, 29 tensors)

norm.weight f4 [6]
00000000: 0000 803f 0000 803f 0000 803f 0000 803f
00000010: 0000 803f 0000 803f
1.0 1.0 1.0 1.0 1.0 1.0

norm.bias f4 [6]
00000000: 0000 0000 0000 0000 0000 0000 0000 0000
00000010: 0000 0000 0000 0000
0.0 0.0 0.0 0.0 0.0 0.0

transformer_encoder.layers.0.self_attn.in_proj_weight f4 [18, 6]
00000000: 23db b43e a754 243d 39f6 ffbe 4fad 04be
00000010: 59aa 6cbe e9bc 01bf df4c 753e ec78 8abe
00000020: 2736 4f3d 118a 68bd b59a b83e c2bc a4be
00000030: cde2 c93e beac bebe 4aa5 a13e 3023 013d
00000040: 99e7 8f3e 8aa9 f0bd c9ac 51be 300f 6cbe
00000050: 65c6 ae3d 4a73 ac3e b94d c13d 4756 00bf
00000060: 132f 77be 64a5 81be 1e3b 04bf 9612 d8be
00000070: 3bcb 353d 82dc b93e 5646 623e 24d0 89be
00000080: 234d 7e3e e419 b43e ca0d 473e e101 2cbc
00000090: 4e6b 0a3e 0a39 91bd 9042 f6be 4362 01bd
000000a0: 206d e7bd 5cee 5a3e dd09 9bbe 6f93 1f3e
000000b0: 82ca eb3e 9b3c babe 2f0a 203e 6de5 fbbc
000000c0: 15b2 13be c548 b13d fc2c 393e cf7b 963e
000000d0: 0b2a c73c e69c 88be b28f 09bc e8b2 083e
000000e0: a63e 04be 26fa 60be bf37 da3d 04c4 7d3e
000000f0: 3997 833e ae35 523e ce87 01bf a7b5 69be
00000100: 4828 f8be 71dc a93e bebb 7cbe 5358 56be
00000110: e2e8 bdbe add7 f1be 00f9 e43b 2f6d 84be
00000120: 4815 1c3f e700 d3be 6038 f4bd 363d a1be
00000130: 1fee 0fbe 2324 22be 1fb5 1cbf a1b5 9d3e
00000140: 736e a03e d644 c6be 4056 e83e eba0 023e
00000150: dc12 aebe ec0b d83e db8c 7abe 352a eebe
00000160: d887 2a3f 2628 d8be 7c88 8b3e a806 913c
00000170: fcb5 9ebe ca56 f83e cf78 5a3e 11c4 04bf
00000180: c300 503f c937 0cbf 1718 53bf db3a 54bc
00000190: 3254 0fbf 2d81 1a3f f14b fabe a7a6 203d
000001a0: 6991 c53e cede e03d f331 733e 477b 0a3f
0.35323438 0.040119793 -0.4999254 -0.12956737 -0.23111857 -0.5067888 0.23955105 -0.2704538
0.050588753 -0.056772295 0.36055532 -0.3217526 0.39430848 -0.37241167 0.31571418 0.031527698
0.28106382 -0.11751087 -0.20476069 -0.23052669 0.085339345 0.3368171 0.094386525 -0.5013165
-0.24139051 -0.25321496 -0.51652706 -0.4220168 0.04438327 0.36301047 0.22097144 -0.2691661
0.24834113 0.35176003 0.19438854 -0.010498495 0.13517496 -0.070909575 -0.48097658 -0.03158785
-0.11300111 0.2137999 -0.30280963 0.15583585 0.4605294 -0.36374363 0.15628885 -0.030749047
-0.14423402 0.08656458 0.18083566 0.29391333 0.02431204 -0.26682204 -0.008396076 0.13349497
-0.12914523 -0.21970424 0.10655164 0.24781805 0.2570131 0.2052829 -0.50597847 -0.22823201
-0.48468232 0.33175996 -0.24680993 -0.2093213 -0.37091738 -0.4723486 0.006987691 -0.2586455
0.6096997 -0.41211626 -0.11924815 -0.31492013 -0.1405568 -0.15834098 -0.6121387 0.30802634
0.31334266 -0.38724393 0.45378304 0.12756698 -0.33998764 0.42196596 -0.24467795 -0.46516576
0.6661353 -0.4221813 0.27252567 0.01770337 -0.30998218 0.48503715 0.21335147 -0.51861674
0.8125116 -0.5477262 -0.82458633 -0.012953485 -0.55987847 0.60353357 -0.48886064 0.039221432
0.38587502 0.109799966 0.23749523 0.54094356

transformer_encoder.layers.0.self_attn.in_proj_bias f4 [18]
00000000: 7ca6 86bd f248 5b3d 90c4 adbc 22b4 ffbc
00000010: 3b5d cabc a7e8 0abd 099d c63b 4784 27bd
00000020: bb67 0dbb fff5 5c3c 34e1 92bc e768 ab3c
00000030: a422 0dbd 9358 a63e 7857 6f3e 2b62 b0be
00000040: 6fa7 06bf 821f 2b3e
-0.06574723 0.053536363 -0.021211892 -0.031213824 -0.024702659 -0.03391328 0.0060612005 -0.040897634
-0.002157672 0.013486384 -0.01792965 0.020924045 -0.034456864 0.32489452 0.2337321 -0.34449896
-0.52599233 0.16711238

transformer_encoder.layers.0.self_attn.out_proj.weight f4 [6, 6]
00000000: 5931 2f3e 4197 dcbe 9783 acbe 38a5 01bc
00000010: cdf9 d33e 22f4 2d3e 1acf 7dbb 1423 48be
00000020: 97c0 92be 2e12 8d3c d5bf b53d 5e49 7a3d
00000030: 4993 953d b5bd 4fbc 62d1 48bd d264 f1bd
00000040: f810 26bf 80ab 743e d437 25bd f068 62be
00000050: 8fa2 993e 4c93 82ba 3e94 e4be 86fc a43e
00000060: c711 09be f172 133d f1db 8d3e f642 893b
00000070: d05e 8c3e dcf6 9cbe 2b5b 90be 2840 a73d
00000080: 5712 0f3e df93 e13e 77f6 39bd 752e 04be
0.17108668 -0.43084148 -0.33694145 -0.007912926 0.4140152 0.1698766 -0.0038728178 -0.19544631
-0.2866256 0.017220583 0.0887448 0.061105125 0.07303483 -0.012679507 -0.049027808 -0.11786808
-0.6486964 0.23893547 -0.040336445 -0.22110343 0.30006835 -0.0009962111 -0.4464435 0.3222391
-0.13385688 0.03599829 0.27706864 0.0041888906 0.27416086 -0.3065709 -0.28194556 0.08166534
0.1397184 0.4405813 -0.045401063 -0.12908347

transformer_encoder.layers.0.self_attn.out_proj.bias f4 [6]
00000000: dd8a 13bf 9277 21bf e9e9 3b3f 92df 803e
00000010: 08ab df3d 152b a83b
-0.57633764 -0.63073075 0.73403794 0.2517057 0.109212935 0.005132089

transformer_encoder.layers.0.linear1.weight f4 [2048, 6]
00000000: 9899 d83e 9346 76bd 6f52 e8be af50 b6be
00000010: 01ea 51bb d338 ee3d 57a6 d3bb 0839 08be
00000020: 8f00 683e 0718 f8bd d159 e8be c665 763e
00000030: 2bea cf3d a2ce 08be 1e2b ea3d 769d 8c3d
00000040: 1a50 23be a727 afbd d010 21be 298e 0c3e
00000050: 513a cd3d 7fc0 913e 5221 63be 6639 823d
00000060: 2184 fabe c6a5 b4be 9d2d 8c3e b503 9abe
00000070: 6a43 1fbe d489 fdbe 7e5a a6bb a6ba 213d
00000080: be7a 87bd fea3 26be 6779 6bbe bccc a8be
00000090: f816 babe 2635 463f 4040 18be c382 75bd
000000a0: 2a8f ee3d 232b 0ebf d315 96bd 4c15 633c
000000b0: d450 083f fef0 8fbe 4ac0 a63e fd90 9e3d
000000c0: 4271 f6bd 400a 83be e2ff be3a cf1f 363e
000000d0: a187 413e e936 0abd f322 c63e 8bc2 9dbe
000000e0: a4a4 3d3d babb a6be 59a1 af3d 179c e4bd
000000f0: 659c 4f3e e91c 753e 60ae 6a3e d7e0 bfbe
00000100: 16e5 c13e f37c 86be e1d4 8c3d c3b8 f5bc
00000110: b110 75be b0b2 303e 05e2 b43e 6023 3bbe
00000120: c072 8e3e c97f d0be 53ec 203f 0ca7 c8be
00000130: 4272 d33c 8bc8 863e bf29 d93d 79b9 28be
00000140: aee1 c0bc 031a 663e 007f e1bd 71a6 6cbc
00000150: bbe5 a03e 9125 30be fb74 2cbe a5ed 62be
00000160: 3bd9 afbe 320a b3be 1621 b73d b216 ff3d
00000170: d584 7f3e 8c78 0ebb d6a1 bfbe d752 233f
00000180: cd43 f83d 85b9 d2be 69fc 933e 2e94 c73e
00000190: e440 963e 941c 443e 22f3 c3bd 6162 033e
000001a0: 2191 ec3c f01d e93d bca9 3d3c 89ea 88be
000001b0: b453 073d 4d24 aabe d8b1 3cbd 27df 8d3e
000001c0: fdc4 1bbd 3460 973e acef e13e d7ab 10be
000001d0: 1246 8ebe f995 acbe e51e 753e 5adc 84be
000001e0: d6d5 25be 7045 6a3b f511 d33e 0697 c4bc
000001f0: 88b9 6abe 84a6 d6bd 8057 bd3e f082 af3e
00000200: 8215 d93e ce1b f23d 205a c93e bf31 073f
00000210: 6235 90be cf0a b5be b3fb bd3e c705 f8be
00000220: 41ef 3bbe 0939 86be 2208 023d 3953 ae3e
00000230: 14f8 eebd 6284 81be 9dce babd 75a2 9e3e
00000240: 6fa7 1cbd 7bba ae3d c51f fb3e 8d72 183e
00000250: d0b8 23be d1f4 17be 175a 8fbe b6ac ce3e
00000260: eb6a 52be b709 513e 1f94 a3be 059a 6f3e
00000270: 4050 8ebe 166c 67bd 4891 7f3e d5f7 9a3e
00000280: cf9f e23d 93dc bbbe 492d ecbe 6f22 e5bd
00000290: 8fec 9fbe 7a59 b43e 2766 8cbe 4eef abbe
000002a0: 273f 983e 6aee cfbe 8fc2 233e 1562 023e
000002b0: 06a3 b2be d9d1 94be e1eb f83e 284a a33e
000002c0: 7991 93be 4ae4 593e 246b d13e 5dd1 c6be
000002d0: e202 adbe 45f1 01be 9fc4 f7bd b768 983e
000002e0: 9cbf d43e 8129 593e c8f2 22be cc5c b33e
000002f0: ef5e ad3e 03c2 0f3e ba92 b8be 2b8e 84bc
00000300: afb1 9bbd 1dff ce3e cffb d2bd 92b9 89bd
00000310: 3e5c 30be 69a3 b3be bb76 84be 652c 8ebe
00000320: 0127 ba3d 3668 8fbc 9c2c 91be 2308 90bd
00000330: 9ae7 f9be 6c96 06bf 67cb 82be 39a0 693d
00000340: d564 8e3e 7272 743e 6114 403e 2296 d83d
00000350: 374b 243e 9584 0e3d 666a 24bd 1d0c e6bd
00000360: 973a cbbe 6ba5 9ebe 4253 95be 04fd c13d
00000370: a1d8 a53e 1932 d0bd 26f2 f83e b832 793e
00000380: 7b3b ecbc d66f c3be d5ac 123d c132 83be
00000390: 3c80 933e 7af6 a13e ea1d d93e 93ff b53e
000003a0: 4826 7f3e 6972 c5be 3d49 b13e adea 973d
000003b0: 5db5 883e 905f dfbd 4db4 25be 47a4 2a3e
000003c0: 0db3 debe 2763 f83c 3099 aebe cf0a 28bd
000003d0: a159 9bbc 64f2 40be c634 1ebe 292c 91be
000003e0: ede9 98bd 1f1b a63e f10d bb3e 51a1 5fbe
000003f0: ad78 b73e 84b6 eb3d 5007 ec3d 4c3f a73e
0.42304683 -0.0601259 -0.45375392 -0.35608432 -0.0032030346 0.11631932 -0.0064590382 -0.13303006
0.22656463 -0.12113958 -0.45381024 0.24062261 0.10152086 -0.13360074 0.11434005 0.06865971
-0.15948525 -0.08552485 -0.1572907 0.13726105 0.100208886 0.28467175 -0.2218068 0.06358604
-0.4892893 -0.35282725 0.2737855 -0.30080953 -0.1555306 -0.49519217 -0.0050767055 0.039484642
-0.06615208 -0.16273496 -0.2299553 -0.329687 -0.3634565 0.7742485 -0.1486826 -0.059939157
0.116484 -0.5553457 -0.073283814 0.013860058 0.53248334 -0.2811355 0.3256858 0.07742498
-0.12033321 -0.25593758 0.0014572109 0.17785572 0.18899395 -0.033743773 0.3869854 -0.30812487
0.04629959 -0.325651 0.085756965 -0.11162584 0.20274504 0.2393681 0.22918081 -0.37476227
0.3787009 -0.26267204 0.06876541 -0.029995328 -0.23932149 0.17255664 0.3532869 -0.18275213
0.27821922 -0.40722492 0.628606 -0.39189947 0.025811318 0.26324877 0.106036656 -0.16477002
-0.023545112 0.2247086 -0.110105515 -0.01444398 0.3142527 -0.1720183 -0.168415 -0.22160967
-0.3434542 -0.34968716 0.089418575 0.12455501 0.24953015 -0.0021739332 -0.3742816 0.6379828
0.12122307 -0.41157165 0.2890351 0.3898024 0.29346383 0.19151527 -0.09567858 0.12830497
0.028877797 0.11382663 0.011576112 -0.26741436 0.03303881 -0.3323082 -0.046068043 0.27709314
-0.03802966 0.29565585 0.44128168 -0.14128052 -0.27787834 -0.3370817 0.23937567 -0.25949365
-0.16194853 0.0035746954 0.41224638 -0.023997795 -0.22922337 -0.10480979 0.3698082 0.34279585
0.42399222 0.118217096 0.39326572 0.5281028 -0.28165728 -0.3535981 0.37106094 -0.48441908
-0.18352987 -0.2621539 0.031746037 0.3404787 -0.11668411 -0.25296313 -0.091214396 0.3098332
-0.038245615 0.08531662 0.49047676 0.14887448 -0.15988469 -0.14839484 -0.2799842 0.40366143
-0.20548598 0.20413862 -0.31948945 0.23398598 -0.277956 -0.056499563 0.24957764 0.30267206
0.11065637 -0.36691722 -0.461283 -0.11188208 -0.31235167 0.35224515 -0.27421686 -0.33581012
0.2973568 -0.40611583 0.15992187 0.12732728 -0.34890002 -0.2906635 0.4861746 0.31892514
-0.28821924 0.21278492 0.40902054 -0.38831607 -0.33791262 -0.12689693 -0.12098049 0.2976739
0.41552436 0.21207239 -0.15912926 0.35031736 0.3386149 0.14038853 -0.36049443 -0.016181072
-0.0760225 0.4042901 -0.10301935 -0.06724848 -0.17222688 -0.3508561 -0.25871834 -0.27768245
0.09089471 -0.017505746 -0.28354347 -0.07032802 -0.4880951 -0.52573276 -0.2554581 0.057037566
0.27811304 0.23871782 0.18757774 0.105755106 0.16044317 0.03479441 -0.040140532 -0.11232779
-0.39693138 -0.3098558 -0.29165083 0.09472087 0.32391837 -0.10165805 0.48622245 0.24335754
-0.028836956 -0.38171262 0.035809357 -0.2562466 0.28808773 0.3163336 0.42405635 0.3554655
0.24916947 -0.3856385 0.3462619 0.07417808 0.2670087 -0.10906899 -0.1618206 0.1666423
-0.4349598 0.030320717 -0.34101248 -0.041025933 -0.018963637 -0.18842465 -0.15449819 -0.28354004
-0.07466493 0.32442567 0.36534074 -0.21838881 0.35834256 0.115094215 0.11524832 0.3266548

transformer_encoder.layers.0.linear1.bias f4 [2048]
00000000: 31dc 82be 7ce4 ecbd 9772 a53e 242b 73be
00000010: fdc6 3dbe b2ff b63e ac73 31be 70be 1dbc
00000020: 0ec0 26bd 3452 c43e 8e9c 793d 25eb 003e
00000030: 993a a2be 0e4e 913e 72b9 73be 5047 4fbe
00000040: bba6 05bc e4b4 a9bd 8002 59bd a1f5 383d
00000050: ac74 7e3b c992 b8bd 7a44 d5be 750a a0be
00000060: 0059 3e3e ab3b 29be e2f1 45be a0c3 fb3d
00000070: 8eb7 ed3d c825 b0be 06b0 8a3e 2099 22be
00000080: b15d 37be 7924 00be 477c 4ebe 647d 8f3e
00000090: 6a61 7cbe e35a 52bd 7544 7cbe 34b2 563e
000000a0: 7ddc 023e 49aa f73d 23c8 61be e076 b13e
000000b0: f235 f83a 532e 73bd 92ca e43c ecda a9be
000000c0: ced8 8d3e fdad 3bbc 8e2d 033e 14b1 963d
000000d0: fb9e 97be 7723 21be 113c 95be 2e99 94be
000000e0: 3775 5a3d 3db1 143d 1f56 663e 9a63 4c3e
000000f0: f0fa 7bbe 6596 d6bd 03cf 683e 3be4 9abe
00000100: 8979 79be 45ee efbd f924 9cbc 831b ab3b
00000110: 4c5f 1a3e 29fe 313e 0b10 343d a51c bebe
00000120: 2d6a 793c 90a7 f1bd 9b0f 813d 2715 a3be
00000130: 20c3 91be e5cf 43bd cfbc 893e d18c 123e
00000140: 8507 3d3e 5d8e 1f3e 4dbe 3c3d 82a0 0b3e
00000150: 45bd 94be 3bb4 993e f82a f7bd 0f94 b43e
00000160: 55a7 023e ee7d 39be 8209 8ebe 9111 28be
00000170: 85ba 1cbd 4c13 e73d 2783 89bd 0c05 343e
00000180: 7346 a63e 6d11 8cbd 44f2 b6be 93cb 19bd
00000190: 48c9 183e d7d4 98be 02be 783e ff77 9cbe
000001a0: 5047 44bd b449 7c3e ccd0 cebe 3a0f 90be
000001b0: b235 9b3e 7534 6d3e a1dd 8e3d b70a 33be
000001c0: 296f a33e 97dd a73e 86d2 acbe 3045 a53d
000001d0: f477 85be 6531 503e e656 32bd acc7 a53d
000001e0: 78e3 d03e be71 7ebc e35d 4fbd 2f54 a8bd
000001f0: 39e5 053e 4bc3 0c3e 3873 983e 95c4 0c3d
00000200: cbbd 913e 768b 1a3e 22f6 05be ff4c ccbd
00000210: f2ad ac3e 86f9 97be 06b6 253e ac24 9d3d
00000220: d618 23be 4213 94be 9a44 78be d2cd 5a3d
00000230: 0547 e83d 1451 08be 1db1 8e3e cf50 cdbe
00000240: a35d 54be 2b23 883d 4450 9fbd a4f2 76be
00000250: 31dd 9d3e 5639 30bd 536d ecbb d0fb ea3d
00000260: 61f7 a5be 90a1 9f3d b33d b6be d966 853c
00000270: 1d50 8b3c 20f8 b43e a8e0 2cbe 4b16 9dbe
00000280: ba24 84be 3254 21be f41f 74bd 5aef bb3c
00000290: 5c9d ad3c 3489 72be 0c20 c5be edcb 85be
000002a0: 5348 ffbd 1a56 ac3c 5d61 9fbd 5923 4bbe
000002b0: 6f54 a2be 0e59 a23e 17e3 153e 1656 9abe
000002c0: 2c19 b33d 445e 773e d25f 8f3e fa69 99be
000002d0: 108f 39be 8aae 113e 2009 21be 9340 fabd
000002e0: be2d fb3d 8a50 84be 123d 82be 7ffe 88be
000002f0: 10e6 c23e ae46 8fbe d0a4 8dbe 3c37 f6bd
00000300: 4b33 e138 ac96 5dbe cb6b b13c 0ae8 5fbd
00000310: c3b2 e33d c5ea ac3d e88f 5c3e 2f2a 63be
00000320: 361a c3bd d274 afbe 1cb2 3bbc e2bb 8ebe
00000330: f3f2 0bbe e12e a53e 1d98 2fbe cf69 583e
00000340: d8f5 55bd 4df2 55be b396 763e 8ae4 6b3e
00000350: 7b9a e63d c64f 9cbd 9157 76bd e021 813e
00000360: 013f 4e3e 16f1 993e 1092 dd3d c9fc 643e
00000370: be09 b0bd 74cc aabe 65b0 6c3e 9fae 9abe
00000380: a6ce 1bbe c23b 733e 62d6 913e 0c77 9b3e
00000390: 661a 503d 4415 54bc 077b 803e e8ac c13e
000003a0: 087c 783e 4ee0 8fbd e024 60be 7c4a ac3e
000003b0: 2ce9 943e bb6a 9ebe 29a6 aebe 274d 133e
000003c0: 4cb2 243d 73d0 02be 1bff 74be 6923 10be
000003d0: ca4e 6b3c 00e0 b83e 0314 c83e e26b 863d
000003e0: c8bc b73e cc03 aebe 0e2d cebd 788e 6f3e
000003f0: 7222 1e3e ced4 3c3e 4593 a43e 3e32 81be
-0.25558618 -0.115670174 0.32313988 -0.23746926 -0.1853294 0.35741955 -0.17329282 -0.009627923
-0.0407105 0.38343966 0.060940318 0.125897 -0.3168533 0.28379864 -0.2380121 -0.20242047
-0.008157427 -0.08286455 -0.0529809 0.045156125 0.0038826866 -0.09012372 -0.41653806 -0.31257978
0.18588638 -0.16526668 -0.19330552 0.12293172 0.11607276 -0.34403825 0.2708742 -0.15878725
-0.17906834 -0.12513913 -0.20164596 0.28025353 -0.24646536 -0.051356208 -0.2463549 0.20966417
0.12779422 0.12093026 -0.22049002 0.34661007 0.0018936975 -0.05937035 0.027928624 -0.33174837
0.2770447 -0.011455056 0.12810346 0.07357994 -0.2961348 -0.15736185 -0.2914739 -0.29023117
0.05333444 0.03630184 0.2249379 0.1995987 -0.24607444 -0.10477904 0.22735219 -0.3025225
-0.24362768 -0.11715368 -0.019060599 0.0052217855 0.15075415 0.1738211 0.043960612 -0.3713123
0.015223068 -0.11799538 0.06301805 -0.31852075 -0.2846918 -0.047805686 0.26901862 0.1431153
0.184599 0.15581651 0.046079922 0.13635448 -0.2905065 0.30020317 -0.120687425 0.3526921
0.12759145 -0.18114445 -0.2774163 -0.16412951 -0.038263816 0.112829775 -0.067144684 0.1758005
0.32475623 -0.06839261 -0.3573171 -0.03754766 0.14920533 -0.29849884 0.24291232 -0.305603
-0.04791957 0.2463749 -0.40393674 -0.28136617 0.30314404 0.23164542 0.06975866 -0.17484556
0.31920746 0.32786247 -0.33754367 0.08069837 -0.2606808 0.20331343 -0.043539904 0.08094725
0.40798545 -0.015530048 -0.050626647 -0.08219182 0.13075723 0.13746373 0.29775405 0.034367163
0.28465113 0.15092263 -0.13082173 -0.09975623 0.3372646 -0.2968256 0.16182718 0.0767301
-0.15927443 -0.28920943 -0.2424492 0.05341894 0.11341671 -0.13312179 0.27869502 -0.40100715
-0.20738845 0.06647333 -0.07778981 -0.24115998 0.30832818 -0.04302343 -0.007215181 0.11473811
-0.32415298 0.077944875 -0.35593948 0.016284393 0.017005974 0.35345554 -0.16882575 -0.3068107
-0.2580927 -0.15754774 -0.059600785 0.02294128 0.021193199 -0.23685151 -0.38501012 -0.26132146
-0.124649666 0.02103715 -0.077822424 -0.19837703 -0.31705043 0.31708568 0.14637409 -0.30143803
0.087450355 0.24157053 0.28002793 -0.29963666 -0.1812098 0.14226738 -0.15726137 -0.12219348
0.12264584 -0.25842696 -0.25437218 -0.26756665 0.3806615 -0.27983612 -0.27664804 -0.12022254
0.0001073839 -0.21639508 0.021657845 -0.05466465 0.111180805 0.08443216 0.21539271 -0.2218406
-0.09526484 -0.34268814 -0.011456039 -0.27877718 -0.13666897 0.32262328 -0.1714787 0.21134113
-0.052236408 -0.20893212 0.24080925 0.230364 0.112599336 -0.07632403 -0.060142104 0.25221157
0.20141222 0.30066746 0.10818875 0.22362055 -0.08595608 -0.3335911 0.23114164 -0.3021135
-0.15215549 0.23753265 0.28483874 0.30364263 0.050806426 -0.012944523 0.25093862 0.3782723
0.24266064 -0.070252046 -0.21889067 0.33650577 0.29084146 -0.30940804 -0.34111145 0.143849
0.0402091 -0.1277483 -0.2392544 -0.14076008 0.0143620465 0.36108398 0.39077768 0.06563546
0.35886216 -0.33987272 -0.10067187 0.23394191 0.15442827 0.18440554 0.32143608 -0.25233644

transformer_encoder.layers.0.linear2.weight f4 [6, 2048]
00000000: ee7a d5bd d66b c73d d12e 88bc 20d6 c13a
00000010: f4d3 d4bd a204 47bc 2105 40be 80fd e6bd
00000020: 941c 1c3d 7ab2 66bd 4588 39bc d3e8 07bc
00000030: bd1d 73bd 8467 85bc 7a27 1cbd 6932 af3d
00000040: 1864 d13c 2985 283c 3294 c83a 1c54 a7bd
00000050: fc6e c23d 46af aa3d a132 11be 9c72 803c
00000060: 88b8 d23b af03 61bc 76ec 083d f5b7 0e3c
00000070: b70f dbba ddbc edbd 2630 343c 2cce e83c
00000080: 9835 013c 658e 353c 7c21 283e b42c 16bc
00000090: ea26 9bba ce5a 68bd 9ef0 573c 68d2 153c
000000a0: 69a0 a3bc ceda 823c c27e 1c3c b8dc 4f3d
000000b0: c8b3 bc3d 9a07 b9bd 2f99 1dbd 8ac3 86bc
000000c0: 1df5 c0bb fb17 20bb f5f1 1d3e 2df8 843d
000000d0: c307 593c 74e6 a6bd 0c46 aebc c5f0 03be
000000e0: 6c48 2abe d825 853d 06e0 303c 37e8 b4bd
000000f0: cad0 813d f98d abbd d209 323c 5b9b f93b
00000100: 07bc 9a3c 5863 8f3c 5c3d 183c 293f 0cbe
00000110: f53a 9cbc a0e3 b43c 3d44 19be 63d8 f6bd
00000120: 4bf6 64be a762 d4bd 12ba 353e f68f 80bd
00000130: b3fb 08be 9724 3abe aa5b a13c 9535 4f3d
00000140: 71ee 883c b965 db3b 5658 18be d907 443d
00000150: 5ead 17bd d723 bf3c cedb 713d cdb2 e23c
00000160: 518a ddbd fd06 dfbc b799 e83d a323 95bd
00000170: b1e5 6f3e bbff 37bd 0520 efbb b8b7 59bc
00000180: b898 903b 5a31 64bd 257b 423d ced8 80bd
00000190: 82c6 de3b ea0b bb3c 5a3d 943d f22e 323e
000001a0: 7b04 083b 59e1 b8bd d70c 57bb 0ebe 0ebd
000001b0: a165 dfbc cec0 26be 95b0 043e 9bc2 463d
000001c0: 81cb 10bc 8357 11bd 1438 86bb 7a4f 7dbc
000001d0: b13d c6bc fb78 143d ab63 5bbc 4dd7 08bd
000001e0: c68c 883d 02b3 1f3d e557 313c f7b2 5fbd
000001f0: 0f96 0abe 7c1e 0e3e 081a 153e 7c75 2c3b
00000200: b959 4bbc 6a14 b13b b5bb 2ebe 40ed 89bc
00000210: 29e1 b7bb 656c 96bb 20b3 72bb e76a 5fbc
00000220: 7f78 86bd c1d1 a6bc dc2d b4ba 5b01 173d
00000230: 220f 5bbc 9240 3bbd 1da8 243e 1aa0 7cbb
00000240: 31a1 ccbc 4cec cdbc 47c7 693d 5432 9bbd
00000250: 2589 fcbb 028b 28be b247 a3bd 1aff 9a3a
00000260: 8c73 2c3c e4d0 4ebe da80 d23d db79 4f3b
00000270: 31cf 9cbd 5fba f03b e992 8bbd 1a4d 08bb
00000280: bb43 71bd 0cbe 9fbd d57c 5f3b 2748 a23d
00000290: ba36 4fbd c7ea 88be 359e b9bb 4f57 51bd
000002a0: 036b 323e 2611 6a3c d05f 023e f249 303b
000002b0: 11bf d7bd 589f 8f3e ea77 b83c eb73 ac3b
000002c0: 24e6 153d 14a1 6d3c d98b b33c 68b4 b2bd
000002d0: 3450 c7bc 92a5 9ebd 52c3 8b3a 974b ccbb
000002e0: 5ef5 8b3c ba6f 08bd bd37 853c cc21 3bbd
000002f0: 0ac7 c83d 3a3f 7c3c b597 8d3b 16a5 583c
00000300: 3012 b33d fa2c 09bd d5cb c43d 67bd bcbc
00000310: 0392 62be e396 073e 6d7f bdbc 1bd2 fabd
00000320: 90cb 9f3c 71c4 8f3c 3b8c 9abc af06 ecba
00000330: f3d3 843c bfb7 473e 0bd8 cabd 0c29 8dbd
00000340: f4f6 65bd 4660 7cbc 70cc 91bd ad9f 3c3b
00000350: 5519 f43a d104 e4bd 6e11 56bd 19a6 cc3b
00000360: db3e 23bd aeca eebd 71da 093d 500e 12be
00000370: ca24 e93e 3722 d5bb baab 423c a1b4 0cbd
00000380: 6028 35be 42bb a0bd fa8a 113c 143e 8bbd
00000390: 6a9a 0fbc ff35 4fbd c30e 983e 9de4 a63d
000003a0: 0aad 3f3b f066 653c 5308 743c 6b1b 2fbc
000003b0: 0b57 573e 4731 f0bd df72 41be 1561 2e3b
000003c0: e47c 673c b61e 99bc 8230 503d 92c6 393e
000003d0: 3754 193c ed31 483b cb3f 46bd 9651 5b3c
000003e0: 1e88 85bc abf0 4a3d 3691 dabb b80d 8bbb
000003f0: afc1 eebd b887 72bd 75cc d6ba bbc7 07bd
-0.104238376 0.09737365 -0.016623886 0.0014788546 -0.10391989 -0.012147101 -0.18751957 -0.1127882
0.03811319 -0.056322552 -0.011323993 -0.008295256 -0.059354533 -0.016284712 -0.038123585 0.08554537
0.025560424 0.010285654 0.0015302955 -0.081703395 0.09493825 0.08334212 -0.1417947 0.01567965
0.0064306892 -0.013733788 0.03342863 0.008710851 -0.0016713057 -0.116082884 0.010997808 0.028418623
0.007886313 0.011081313 0.16419023 -0.0091659315 -0.0011837159 -0.056727223 0.013179926 0.009144403
-0.01997395 0.015973475 0.009551706 0.050747603 0.09213978 -0.09034653 -0.038476165 -0.016450662
-0.005888595 -0.0024428356 0.1542433 0.06492648 0.013246479 -0.08149424 -0.021273635 -0.12884815
-0.16629189 0.06501359 0.010795599 -0.08833354 0.063386515 -0.083766885 0.010866599 0.007617397
0.018888487 0.017503425 0.009291973 -0.13695969 -0.019071082 0.022081196 -0.14967437 -0.12052991
-0.22359578 -0.10370379 0.17746761 -0.06277458 -0.13377266 -0.1817802 0.01969703 0.05058821
0.01671526 0.006695476 -0.14877447 0.047859047 -0.03703057 0.02333252 0.059047513 0.02767315
-0.108173974 -0.027225012 0.11357444 -0.07282188 0.23427464 -0.044921618 -0.007297518 -0.013288431
0.0044127367 -0.055711128 0.04748072 -0.06291352 0.0067985663 0.02283283 0.072382644 0.1740072
0.0020754624 -0.09027357 -0.003281405 -0.03484922 -0.02727014 -0.16284487 0.12957986 0.048525434
-0.008837582 -0.03548385 -0.0040960405 -0.015460843 -0.024199339 0.03624819 -0.013390462 -0.03340845
0.066674754 0.038989075 0.010824178 -0.054614034 -0.13533805 0.13878816 0.14560711 0.0026315143
-0.012411528 0.005404045 -0.17063792 -0.016836762 -0.005611558 -0.0045905584 -0.0037033036 -0.013636327
-0.065659516 -0.02036369 -0.0013746577 0.036866527 -0.013370307 -0.045715876 0.16079755 -0.0038547576
-0.024979206 -0.02513709 0.05707481 -0.07577959 -0.0077067786 -0.16459277 -0.07972659 0.0011825294
0.010525595 -0.20196873 0.10278483 0.0031658325 -0.07656706 0.007346436 -0.0681513 -0.002079791
-0.058902483 -0.077999204 0.0034101505 0.07923918 -0.0505893 -0.2674162 -0.0056646117 -0.051108655
0.17423634 0.014286315 0.12731862 0.0026899544 -0.1053449 0.28051257 0.022518117 0.005262842
0.036596432 0.014503736 0.02191727 -0.08725816 -0.024330236 -0.07746424 0.0010663068 -0.006234597
0.017084774 -0.033309676 0.01626193 -0.045686528 0.09803589 0.015395934 0.0043210634 0.013222953
0.08743703 -0.03349016 0.096091904 -0.023039533 -0.22126012 0.13241152 -0.02313205 -0.12247106
0.019506246 0.017549725 -0.018865695 -0.0018007363 0.016214347 0.19503687 -0.09904488 -0.06892595
-0.056143716 -0.015403813 -0.071190715 0.0028781698 0.0018623272 -0.11133731 -0.052262716 0.0062453863
-0.039854866 -0.11659752 0.033655588 -0.14263272 0.4553588 -0.006504323 0.011881763 -0.03435195
-0.17691183 -0.078482166 0.008883232 -0.0679895 -0.0087648425 -0.050588604 0.29698762 0.08149073
0.0029247426 0.014001593 0.014894563 -0.010687689 0.21029298 -0.11728149 -0.18891476 0.0026608158
0.014128897 -0.018691402 0.05082751 0.18142155 0.009358457 0.0030547336 -0.04840068 0.013386151
-0.016300257 0.049545925 -0.0066701425 -0.0042435788 -0.11658036 -0.059211463 -0.0016387837 -0.033149462

transformer_encoder.layers.0.linear2.bias f4 [6]
00000000: 7ed9 bbbb bb71 7d3c 37c0 593c d3d4 ef39
00000010: 7be0 ac3b 3f57 febb
-0.005732714 0.01546901 0.0132904565 0.000457442 0.0052757836 -0.0077618654

transformer_encoder.layers.0.norm1.weight f4 [6]
00000000: 9673 893f fd36 953f 9051 7e3f 9617 7a3f
00000010: ec20 813f 41d3 853f
1.0738399 1.1657406 0.99343204 0.9769224 1.0088172 1.0455095

transformer_encoder.layers.0.norm1.bias f4 [6]
00000000: 40ff c6bb 3bcf 02bd 8fd9 423d 16be 36bd
00000010: b8b9 f43b fd7f 093d
-0.0060729086 -0.03193591 0.04757076 -0.044614874 0.0074684285 0.033569325

transformer_encoder.layers.0.norm2.weight f4 [6]
00000000: 501d 5f3f 89ed 873f c1cf 893f 081c 763f
00000010: ac03 753f efb1 873f
0.871541 1.0619365 1.0766526 0.9613652 0.9570873 1.0601176

transformer_encoder.layers.0.norm2.bias f4 [6]
00000000: 4f87 fc3c 6a8b 27bd 4c31 733c b7cc 81bd
00000010: 1338 b73c d186 1eba
0.030826239 -0.04090444 0.014843296 -0.063378744 0.022365605 -0.0006047311

transformer_encoder.layers.1.self_attn.in_proj_weight f4 [18, 6]
00000000: 8c90 9d3e 7347 8a3e 547d 80be 1147 c8be
00000010: c7a6 5bbe 1eae f3be 4548 733e f600 a4be
00000020: 54e1 e3bd c1dc 1e3e b414 ad3e 3b47 14bf
00000030: f659 b03e 3cb1 cbbe fecb a83e a81c a43c
00000040: e027 b73e 030e 0b3d ab9d 9abe 967a adbd
00000050: 7d01 ae3d 2e84 ef3e 0608 5d3d ebb1 18bf
00000060: f850 55be a58f c9bc fe68 0dbf ad18 73be
00000070: 7f9b 63be 64ae 9f3e be52 223e 2910 febd
00000080: f03f 153e 5aad c63e 1128 493e 7da2 043d
00000090: 8def f13d 47e2 73bc 3473 d7be d2dd f5bd
000000a0: 5f79 68be 8530 443f 487b 6a3d 22d2 f5bd
000000b0: 1b91 323f e7ce 00bf 4a5a 0fbd 947d 5b3e
000000c0: 1abb 1c3e 3e21 293c f93b 023e 10d3 813e
000000d0: b2b3 dcbc 76a8 1dbf 747b 7cbd ffea ea3d
000000e0: 233f 39be 3b80 93be 045d 11bc 356a ae3e
000000f0: a2d2 3f3e 5a2e b93e 0b02 15bf 7026 16be
00000100: 85ca 1c3d f97e 203e c5c6 80be f89d 81be
00000110: 758c d8be c75e f1be 5b82 06be ec1f 7ebe
00000120: 2070 a23a ac54 06bf a3cf cabc c926 c7be
00000130: 2fda 61bd 85a1 32be db75 dc3e 1f50 903d
00000140: a04e e3bc cd7f c5be 27c1 253e 4315 283e
00000150: a893 d83e 913a 8e3e 138b fabe 755b d4be
00000160: 868a ed3e 10ea f7be 74eb 6e3d 2c5f be3e
00000170: 3f11 03bc 47a7 d13e 1f14 df3e 626e a43d
00000180: 31dc c53e 5439 bcbe d73d 85be 6b15 843c
00000190: 034d 1bbe 967a 043f 3974 50bd d9c9 2cbd
000001a0: cafa 263e 67c5 a13e dba7 443e e781 ffbd
0.30774343 0.27007636 -0.25095618 -0.3911672 -0.2145034 -0.47593778 0.23758037 -0.32031983
-0.11126962 0.15513898 0.33804858 -0.5792119 0.34443635 -0.39783657 0.32968134 0.020033196
0.3577261 0.03394891 -0.30198416 -0.08470647 0.084963776 0.46780533 0.05396273 -0.5964648
-0.20831668 -0.024604628 -0.5523833 -0.23739882 -0.22227286 0.31187737 0.15851876 -0.12405426
0.14575171 0.38804132 0.1964419 0.032381523 0.11813269 -0.014885492 -0.4208008 -0.120051995
-0.2270255 0.76636535 0.057246476 -0.1200297 0.69752663 -0.5031571 -0.034998216 0.21434623
0.15305749 0.010322867 0.1271819 0.2535634 -0.026941154 -0.61585176 -0.06164117 0.11470603
-0.18090491 -0.2880877 -0.008872274 0.34065405 0.18732694 0.36168176 -0.5820624 -0.146631
0.038279075 0.15673436 -0.2515165 -0.25315833 -0.4229466 -0.47142622 -0.13135664 -0.24816865
0.0012393035 -0.5247295 -0.024757212 -0.38896778 -0.055139717 -0.17444427 0.43058667 0.07046532
-0.027747452 -0.38574067 0.16186963 0.1641436 0.42300153 0.27779058 -0.4893423 -0.41476026
0.46394747 -0.48420763 0.058330014 0.37181985 -0.007999717 0.40947935 0.4357004 0.08028866
0.38644555 -0.36762488 -0.26023743 0.016123494 -0.15166096 0.5174955 -0.05089209 -0.042184684
0.16306606 0.3159592 0.19204657 -0.12475949

transformer_encoder.layers.1.self_attn.in_proj_bias f4 [18]
00000000: 3246 9a3e af5b 593e 7e8c a4be 5410 513d
00000010: c226 833e 324d ff3d e44c 9639 6384 58b8
00000020: b3e3 2cb9 fc65 b738 6dd9 d7b8 3acf b839
00000030: 5288 5f3b f897 c93c be73 803c 3542 2ebd
00000040: f617 213d 0565 0dbc
0.3013168 0.21226381 -0.32138437 0.051040962 0.25615507 0.12465896 0.00028667517 -5.1621708e-05
-0.00016488023 8.745116e-05 -0.000102924976 0.0003524961 0.0034108353 0.024608597 0.01568019 -0.04254361
0.03932949 -0.008630042

transformer_encoder.layers.1.self_attn.out_proj.weight f4 [6, 6]
00000000: 9204 23bd e089 0cbf 028e 9bbe b360 333e
00000010: 0254 55bd 0302 5c3e 54b5 3c3e 7557 9bbd
00000020: 5353 f1be b818 123d 97e3 cebd 3474 733d
00000030: 1565 05bd f64f 9ebd 0908 e53a 96f7 45be
00000040: 6897 bcbd b6cd 243e 3665 6d3d 797e 54be
00000050: 2b86 b33e 6370 123e d477 f9be 3f9b ba3e
00000060: 6586 9cba a71a 513e 333a 883e 0e7d 62be
00000070: a4ea d13e cb3d a5be fda8 cabe 4241 1abd
00000080: 8653 323e dae8 b63e 253f 6abe 9904 7cbe
-0.03979928 -0.5489788 -0.3038178 0.17517357 -0.05208207 0.21485142 0.18428546 -0.075850405
-0.47133884 0.035668105 -0.10102003 0.05943699 -0.032567102 -0.07730095 0.0017473708 -0.19332728
-0.09208566 0.16094097 0.05795785 -0.2075137 0.350633 0.14300685 -0.48724234 0.36446568
-0.0011941908 0.20420323 0.26606902 -0.22118017 0.4099933 -0.32273707 -0.39582053 -0.03765989
0.17414674 0.35724527 -0.2287565 -0.24611129

transformer_encoder.layers.1.self_attn.out_proj.bias f4 [6]
00000000: df64 4d3b 859e 34bd 153b 2b3d 30a4 f7bc
00000010: 4414 a73c b38d a4bc
0.0031340641 -0.04409649 0.041804392 -0.030229658 0.020395406 -0.020087099

transformer_encoder.layers.1.linear1.weight f4 [2048, 6]
00000000: 791c c13e 37c2 80be 7a23 c3be 08d0 40be
00000010: 7391 60bc 6058 593e 637e e93c 0a59 18be
00000020: 4fb6 363e 28dd 5bbe afed c8be 68c9 ce3d
00000030: fe46 0d3e 2da0 debd 4a37 2d3c 9963 cc3d
00000040: 9cda 31be 300a c9bd 0deb 00be 28b6 043e
00000050: 0768 403d 3b8d aa3e bf61 90be cb84 8b3c
00000060: 69c7 babe 84ce aabe d5ed 953d 1b1e c0be
00000070: f1ff d2bd 0d66 bbbe bbb1 0ebd 3926 08bd
00000080: fca1 bcbd f6ac 1abe 0e7e 5bbe 2621 99be
00000090: e7c5 c5be 3a07 ab3e 7301 cbbd 9996 22be
000000a0: e9b9 a33e 5606 29be 4134 823d 56fa e63d
000000b0: cdce 8b3e 3381 8ebe 25f4 c83e 0fcb 803d
000000c0: c303 0d3d be8e 3ebe cd5f a63d d7a2 563e
000000d0: a4f2 3c3e fc4c 09be 6e19 4d3e 93e9 7abe
000000e0: 970f 15bc a420 84be a1c7 9c3e a19b 2ebe
000000f0: 1f0c 353e c8b8 2d3e ba77 f33d 6818 9cbe
00000100: 79f4 ec3e 18da a8be c1dd 093e 91d0 49be
00000110: c557 62be bc14 d83d 99fa c93e 6f3e 4cbe
00000120: dbe5 a03e e79d bfbe 72f3 c73e cb0d bbbe
00000130: ebfa 383d 792d b63e 3205 a53d 0983 78be
00000140: 7b48 b4bd 2c41 883e d1c4 14be df29 a03c
00000150: ea19 853e 9c33 33be 0d77 71be bab1 0ebe
00000160: 2a49 77be 63c1 e4be 9715 933e efe2 633e
00000170: 4dc6 9b3e 8c90 85bd f0f5 b5be e3dd 503e
00000180: 29bd 863e dd5e e2be 0481 4c3e 9067 d53e
00000190: e140 ee3e 9b1a d53d b3ff 86bd 1e1e 8c3d
000001a0: 488b f9bc 7b5c 7b3e 8993 d9bd a2a0 97be
000001b0: d2b7 103e bf99 bdbe abbc 913d b43d 6c3e
000001c0: 10b2 03be db79 8f3e b624 833e 088e d9bd
000001d0: 806d 90bd ebda 7fbe 7256 b53e db0f aabe
000001e0: 09bb 52bd 5ef9 bf3b 5f91 593e 94a0 dbbd
000001f0: 2259 12be dfb6 bfbc 043a d63e 6d5d c23e
00000200: 11c0 d43e b28b 643e 6a50 b13e 531a 9a3e
00000210: def3 60be 2db8 dcbc e971 983e 24d3 d7be
00000220: ff7a a2be 22e5 83be 0082 9d3d 092e 963e
00000230: dbbe d5bd 9ef5 5ebe b3f0 fabc ed5c 033e
00000240: 28ea b0bd d26e 2a3d e550 e23e 3dcc 853e
00000250: b847 62be 553c 2cbe af87 87be c8b0 c03e
00000260: 3e16 6ebe d802 433e 5a28 34be 4831 fe3d
00000270: 9c6a 4cbe 5533 093e 1e00 2b3e 39df b93e
00000280: 135a 243d 60d0 e2be 297e 6bbe 4651 26be
00000290: 9387 83be 4b84 b13e aa30 7ebe bc9b 10bf
000002a0: 0d3d b53e 0c07 b0be 9f0d 043e 082c 393e
000002b0: 338d d0be cb93 80be 0e2b dc3e 53c6 833e
000002c0: 6f3c 6dbe b203 253e d454 163f 617d e3be
000002d0: f776 1dbe 5b3f cebd f8f4 dcbd 82d4 633e
000002e0: a6cc dd3e 6e86 4e3e 6497 83be 4a98 aa3e
000002f0: 67bf 8c3e 856c 4c3e ba30 a9be f0c9 08bd
00000300: 0974 adbd 3b67 923e 88ec cbbd a9eb db3d
00000310: 7d8b 60be 5c7f b8be 7ad6 5fbd ee47 a8be
00000320: 67c3 413d 8f04 fbbc f313 b5be faed 13bd
00000330: d62a d0be dbe8 debe 1f1c 89be eafe b1bc
00000340: da9c 8a3e 8927 b13e 80de 2f3e e79a ac3d
00000350: af4a f73d 4f63 8b3d 054e 42bd e8f8 6bbd
00000360: f859 b6be 397b ffbd c3ed ddbe a9ea c43d
00000370: 342a c43e f7eb 2d3b f403 b33e e157 363e
00000380: 3d79 003d 404d 83be 6e63 1c3e 38f0 a8be
00000390: 2420 643e b6e5 bf3e 2d5e b53e 1ebe eb3e
000003a0: c456 353e 4dfd dcbe 044a 953e 0400 643d
000003b0: 3615 773e b945 8fbd a95d 16be a88c 1a3e
000003c0: 9da1 acbe 8163 c93b c009 b1be 309c 80bd
000003d0: a4d2 0a3e aa9c 8abe 8ee1 79bd 21e2 aabe
000003e0: 3461 23bd 34e3 aa3e df7b aa3e 236b 23be
000003f0: e1c8 e13e ab41 d43d f87a de3d 9c84 9b3e
0.37717035 -0.25148174 -0.38113004 -0.18829358 -0.013706553 0.21225119 0.028502649 -0.14877716
0.17842983 -0.21471083 -0.39243838 0.10097009 0.13796613 -0.10870395 0.010572264 0.09979934
-0.17368549 -0.09816396 -0.12589665 0.12960112 0.04697421 0.33310875 -0.28199574 0.017031094
-0.36480263 -0.33360684 0.073207535 -0.3752297 -0.10302723 -0.36601296 -0.034837466 -0.033239577
-0.092105836 -0.15105042 -0.21434805 -0.29908103 -0.3862755 0.3340395 -0.09912386 -0.15877761
0.31977776 -0.16506323 0.06357623 0.112782165 0.27306214 -0.27832946 0.39248767 0.0628873
0.034427416 -0.1860914 0.08123741 0.20960556 0.18451935 -0.13408273 0.20029232 -0.24503164
-0.009097955 -0.25806153 0.30621055 -0.17051555 0.17680405 0.1696502 0.118880704 -0.3048737
0.46280268 -0.32978892 0.13463499 -0.19708468 -0.22103794 0.1055083 0.39449003 -0.19945692
0.31425366 -0.37425157 0.39052922 -0.3653396 0.04516117 0.35581568 0.080576316 -0.24268736
-0.08802887 0.26612222 -0.14528205 0.019551216 0.25996333 -0.17500156 -0.2358057 -0.13934985
-0.24149004 -0.44678792 0.2872741 0.22254537 0.3042473 -0.06521711 -0.35539198 0.20397143
0.26316193 -0.44213 0.1997109 0.41680574 0.46533874 0.10405465 -0.065917395 0.06841682
-0.030461922 0.24546997 -0.10623843 -0.2961474 0.14132622 -0.3703136 0.07116064 0.23070413
-0.12860894 0.28022656 0.25613946 -0.106227934 -0.070521355 -0.24985854 0.35417515 -0.33215222
-0.051447902 0.0058585843 0.21246861 -0.10723987 -0.14291814 -0.02340263 0.41841137 0.37961903
0.41552785 0.22318915 0.34631664 0.3009821 -0.21968028 -0.02694329 0.29774407 -0.42153275
-0.31734464 -0.25760752 0.07690811 0.29331997 -0.104367934 -0.21773383 -0.030632352 0.12828417
-0.08638412 0.041609593 0.44202343 0.26132384 -0.22097671 -0.1681989 -0.26470706 0.37634873
-0.23250672 0.19044054 -0.17593518 0.124117434 -0.19962543 0.13398488 0.16699263 0.36303118
0.040124964 -0.44299603 -0.22997345 -0.16241941 -0.25689372 0.34671244 -0.24823251 -0.5648763
0.3539814 -0.34380376 0.12895821 0.18083203 -0.40732726 -0.25112757 0.43001598 0.25737247
-0.23167585 0.16114691 0.5872319 -0.44431594 -0.15377413 -0.10070678 -0.107889116 0.22249034
0.43320197 0.20168468 -0.2570144 0.33319312 0.27489778 0.19963272 -0.33044988 -0.033395708
-0.084693976 0.28594384 -0.09957224 0.10738308 -0.2192821 -0.36034667 -0.0546479 -0.32867378
0.04730549 -0.030641822 -0.35366783 -0.036115624 -0.4065768 -0.4353703 -0.26779267 -0.021727998
0.27072793 0.34600475 0.17174721 0.08427983 0.12074792 0.06806051 -0.047437686 -0.057610422
-0.35615516 -0.12474675 -0.4334546 0.096150704 0.38313448 0.002653835 0.34963953 0.1780696
0.03136562 -0.25644875 0.15272304 -0.32995772 0.22277886 0.37479943 0.35423413 0.46043485
0.1770888 -0.43162003 0.29158032 0.055664077 0.24129185 -0.069957204 -0.14684166 0.15092719
-0.3371705 0.006145895 -0.3457775 -0.062797904 0.13556916 -0.2707265 -0.06100612 -0.33375648
-0.039887622 0.33376467 0.3329763 -0.15958838 0.4409857 0.10364088 0.10863298 0.3037461

transformer_encoder.layers.1.linear1.bias f4 [2048]
00000000: f149 b3be 0063 0bbe a7c5 b93e cd42 51be
00000010: 6afc 7dbe b0f2 a13e a940 a9be 4d56 efbd
00000020: fa32 95bd 1024 8f3e 0138 3cbd 2162 1d3e
00000030: 7f6b bbbe 73d6 a23e c1f8 91be 057a 57be
00000040: 887f 8dbb e52e 76bd 6080 4dbc 193c 18bd
00000050: d36b 9fbd 12f6 0bbe 133b b0be 9a1f b8be
00000060: bbeb 0a3e 765a 36be 0620 4bbe 4a08 5f3d
00000070: 4f9d d93d db2c cdbe 0c47 6b3e 17bf 50be
00000080: 8b4f 82be 73e4 abbd bd4b 91be ee6f 8b3e
00000090: 3f76 9abe f9db 1cbe 5558 5dbe a178 523e
000000a0: 694e 003d dd28 d93c e3eb 42be ccce ac3e
000000b0: f9ed 4abc 4b4f aebd 4bac d33c 1501 b5be
000000c0: b7a6 8d3e 57bc 7ebd c20e a93d deb1 c13c
000000d0: 060f afbe bf06 82be 2096 8fbe 1179 d2be
000000e0: 560c acbc cbd1 353d 4ab1 543e 0993 233e
000000f0: 45c2 96be 33f6 52be 13cc 803e 2dbc 72be
00000100: 06b4 5fbe 0b1f 2bbe 086d e2bb 3af9 8bbc
00000110: 2fbc 5c3d 198e d03d 786c 17bc 5b12 04bf
00000120: d796 3a3c d8df 1cbe 8e96 3cbc 11a3 d9be
00000130: 76a8 96be 874a cfbd e791 433e 24a3 f43d
00000140: f85e 3f3e fa6c 85bc ca8f ec3d 167c 103e
00000150: 36e4 c6be d84e 963e c2df 12be 2b18 953e
00000160: d0c6 0c3e fc9d 4cbe 2846 8abe 059c 82be
00000170: afc2 4cbe 1932 8e3d dace 9bbd cf1c 0c3e
00000180: 7f3f b53e 0526 ecbd edb1 c9be 7989 9bbd
00000190: eb4c f13d 90e0 88be eca1 123e 82aa b0be
000001a0: ed58 55bc 0b6d 4c3e 7f04 e4be c6cf b9be
000001b0: 013f b03e 12f5 2e3e 79a1 803d 82ba 73be
000001c0: 1078 993e f7d7 833e 5291 cfbe cfce dd3d
000001d0: b3b4 94be 8209 343e d268 91bd 1aab 113e
000001e0: 9089 b13e 1eab 88bd ec9e 4ebd 839d 0bbe
000001f0: a18e e23d e3d4 d53d 964b 903e e12a 1b3d
00000200: 73eb 1b3e e2ac 823d 5748 88be 43a7 09be
00000210: 1c6a a43e 35b8 90be 7a36 1d3e 1fda 1e3d
00000220: 9e06 23be 19e1 a4be 7bfa 5abe 856f a7bd
00000230: 2d94 b53d 0396 b2bd 263e 703e bfb7 e2be
00000240: d4d9 80be 9445 fe3d b436 37be 6154 8ebe
00000250: 4473 9d3e 2e0c 00be bbf9 0fbe 7874 0b3e
00000260: 1f04 bdbe ac40 50bd 2e4e d3be ea7f ee3b
00000270: 12e0 40bd a72f c83e 1d14 81be 8d72 98be
00000280: a4b4 a1be 0454 82be 5408 aabd 736b aabd
00000290: f3c4 17bd 0bba 89be 7263 c9be 5e0a cfbe
000002a0: 6685 48be 4a82 a73d c6d5 64bd 39ee 4ebe
000002b0: abf3 d3be 92f0 773e cb1a c43d c409 94be
000002c0: 5344 d43d 6694 0c3e 6ab4 883e b645 edbe
000002d0: 18f6 77be 3f0c e23d 60b7 39be 7755 c4bd
000002e0: 2b3f 253c ad94 bcbe b62f 6dbe 73f7 92be
000002f0: 3444 a63e 85f6 b8be e6a7 74be 5b2a 01be
00000300: f60f fdbb f3cd 30be 444b 11bd eb2a aabd
00000310: 4dae 78bd bbd3 0e3d 007c 583e f387 96be
00000320: 3950 11be 4b86 9fbe 9517 33bd 04c5 94be
00000330: a502 ddbd 90bc 5c3e 115c 31be 5fb3 6d3e
00000340: 1455 29be 78c4 2abe 1a12 603e 8599 813e
00000350: 2c98 a93c 91cc 0cbe c019 e4bd 56e2 813e
00000360: ea21 503e 5c14 673e 22ed c53d f19c 253e
00000370: e800 3ebe 825e acbe 6189 583e 993c b3be
00000380: b572 35be 6d50 523e 639b 923e 8ae6 913e
00000390: 3463 193b d342 aabc d650 073e dc62 b03e
000003a0: 3a73 3d3e d574 e5bd a76d 8fbe fef8 863e
000003b0: 4223 f63d 1a18 89be 0096 90be 0418 463e
000003c0: 5e78 033d f947 f5bd bf01 55be 495b 64be
000003d0: f313 82bd b645 b43e e773 853e 2cd1 fc3d
000003e0: 46a0 b83e 1b81 babe 71a2 35be 165c 773e
000003f0: 83d6 5e3e 9dde a03d ba31 843e 5f22 b0be
-0.3501735 -0.13611984 0.3628361 -0.20435639 -0.2480332 0.31630468 -0.33057144 -0.116863824
-0.07285114 0.279572 -0.045951847 0.15369464 -0.3660545 0.31804237 -0.28510097 -0.2104264
-0.0043181814 -0.060103316 -0.012542814 -0.03716669 -0.07784238 -0.13668087 -0.3442007 -0.3596161
0.13566487 -0.17807946 -0.19836435 0.054451264 0.10625707 -0.40073285 0.22976321 -0.20385395
-0.2545131 -0.083931826 -0.28378096 0.27233833 -0.3016834 -0.15318288 -0.21615727 0.20553829
0.031324778 0.026508743 -0.19035296 0.33751523 -0.012385839 -0.08511218 0.025838992 -0.35352388
0.27666256 -0.062191334 0.08254768 0.023644384 -0.3419115 -0.25395772 -0.28044224 -0.4110799
-0.021001976 0.044389527 0.20770755 0.15974058 -0.2944509 -0.2060173 0.25155696 -0.23704596
-0.21846017 -0.1671106 -0.00690997 -0.017086614 0.053890403 0.10183353 -0.00924217 -0.5159051
0.011388502 -0.15319765 -0.011510504 -0.42507222 -0.294254 -0.10121637 0.19098626 0.11945179
0.18688571 -0.016287316 0.11550863 0.14109835 -0.38845986 0.29357028 -0.1434317 0.2912
0.13747716 -0.19982141 -0.2700665 -0.25509658 -0.19996141 0.06943149 -0.07607813 0.13682865
0.35400006 -0.11530689 -0.3939356 -0.0759458 0.11782249 -0.26733828 0.14319581 -0.34505087
-0.01302169 0.19963472 -0.4453468 -0.3629133 0.34423068 0.17085674 0.062807985 -0.23801616
0.29974413 0.25750706 -0.40540558 0.10830461 -0.29044113 0.17581752 -0.07100071 0.14225426
0.34675264 -0.06673263 -0.05044453 -0.13634305 0.110623606 0.104409955 0.28182667 0.03788269
0.15226535 0.06380631 -0.2661769 -0.13442712 0.32112205 -0.2826554 0.15352812 0.038782235
-0.15920493 -0.32202986 -0.21384613 -0.081755675 0.08866153 -0.08720019 0.23461208 -0.44280812
-0.2516619 0.12415615 -0.17891961 -0.2779875 0.30752003 -0.12504646 -0.14060108 0.13618648
-0.36917207 -0.050842926 -0.41270584 0.007278432 -0.04708869 0.39098856 -0.25210658 -0.29774895
-0.3158313 -0.25454724 -0.0830237 -0.083212756 -0.03705306 -0.26899752 -0.39333683 -0.40437597
-0.19582137 0.081791475 -0.055867933 -0.20208062 -0.4139684 0.24212864 0.09575423 -0.289137
0.10364594 0.13728485 0.26700145 -0.46342248 -0.24214971 0.11037492 -0.18136358 -0.095866136
0.010085861 -0.3683218 -0.23162732 -0.28704414 0.3247391 -0.3612558 -0.23892173 -0.12613814
-0.00772285 -0.17266063 -0.03547217 -0.08308967 -0.0607131 0.03486989 0.21141052 -0.29400596
-0.14190759 -0.31157145 -0.04372366 -0.2905656 -0.1079152 0.21556306 -0.17320277 0.23212956
-0.16536361 -0.1667651 0.21881905 0.2531244 0.020702444 -0.13749911 -0.11137724 0.25367993
0.20325437 0.2256636 0.0966437 0.1617315 -0.18555033 -0.33665854 0.21146156 -0.3500717
-0.17719539 0.20538493 0.28634176 0.284962 0.0023405077 -0.020783817 0.1321443 0.34450424
0.18500987 -0.112039246 -0.28013346 0.2636184 0.12018444 -0.267762 -0.2823944 0.19345099
0.032097213 -0.11976618 -0.20801447 -0.22300448 -0.06351461 0.35209435 0.2606499 0.12344584
0.3605978 -0.36426625 -0.17737748 0.24156222 0.21761517 0.0785496 0.25819188 -0.34401223

transformer_encoder.layers.1.linear2.weight f4 [6, 2048]
00000000: 6231 243d 3710 62bc b5f8 10bc 5aa0 b13a
00000010: ff55 f03d 16c2 efba 15b0 87bc a91e acbc
00000020: e97c 11bd a02f 213b a0ff 533c 7613 c93c
00000030: 1dd8 0ebd fcb4 843a 391f f7bb c506 07bd
00000040: c7b0 063d 463f 1c3d edc7 1cbd abc0 afbb
00000050: f0d1 813c d0c2 bcbc d09a 6f3b dc9f b73c
00000060: 1610 7dbc 5893 81bb 5de7 8a3c 46e9 2f3d
00000070: 1977 15bb b17f b7bc c403 e83b c62f 0f3d
00000080: b7e5 e63c 1dc7 1fbd 37fd 213d fb33 b43a
00000090: 1252 17be f839 c9bb 649d 4d3c bcb2 f3bb
000000a0: 44c6 05bd a393 843c 7743 0fbd 4a09 efbb
000000b0: cb7c 59bd 5230 0a3d 876a 17bc 188a 983d
000000c0: 976b 883b 7434 27bc 5f7c abb8 da14 e83c
000000d0: 101d 9c3d fe33 ba3c d6af 2e3d 2631 ffbc
000000e0: 7ffd 843c 99bf 983d be04 213d 6ded 83bc
000000f0: 8d84 333c 064e 4f3d aa3c e53c 6df4 27bd
00000100: 81be 54bc 89f7 3d3d 1358 0c3d d181 95bc
00000110: 9fc6 a13b aa6b d83b 3cb9 e2bc 1d31 4b3d
00000120: 8e80 563c 5852 a83c eb59 8c3c 436e 27bd
00000130: 3442 30bd 2249 0c3d 33bb a93c 6971 1ebd
00000140: 325c 1b3c abc7 643c a90b 16bd 2c30 913c
00000150: cb4c ecbc dcf7 a53c cb48 2abd b103 a13c
00000160: b992 fdbc 4425 963c b1d5 79bc bbfd ecbc
00000170: 3b10 74bb 6a79 7ebc 49a5 5f3c ca4a dd3b
00000180: c0aa 283d 037f 12bd 7597 56bc 4c84 633b
00000190: 2ceb 663c 089e e73d 903b f63a 7361 9b3d
000001a0: 1b4d aa3c edbf 02bc e109 d1bd fbcb e9bc
000001b0: f399 77bb fe72 a73c 31ed da3b 88d7 333b
000001c0: c33e 60ba 71b8 f43c d7c4 f03d a681 efbc
000001d0: 09ff 2fbc b661 c4bc 964f 80bb 3798 fcbc
000001e0: 41cc 47bc fb80 53bd 5917 6e3d ab73 b93d
000001f0: 3af3 dbba 9332 a3bc 0c23 32bc bf3c df3b
00000200: 8b8e 03bc 29b2 043d 4ffd 9b3d 4319 77bd
00000210: 0894 5fbc 1d66 30bd 555a 4abb 1bc6 083c
00000220: 0543 293d d90d 13bb 1244 3f3d 857c 5bbc
00000230: 9b36 05bc 8c48 593c 985e 1a3a 8404 6f3d
00000240: 5614 333b e1b7 133d 7f55 8abd 9ba3 3d3d
00000250: 0c49 8b3b 05e7 5b3d b786 8fbc 2b3a fabc
00000260: b977 573d 1b17 1b3c b628 833b 7f18 65bd
00000270: bb09 afbb 8e74 043c 835b b2bc fd10 443d
00000280: 1fa1 5339 436d bcbc 82c5 e0bc 1713 90bc
00000290: 21a9 313b 6d29 873d ecd5 d1ba b66f 533c
000002a0: 621f acbc c70e 6c3d a850 313c 58e9 18bc
000002b0: e213 ae3c 0e3f 603b da4f 473d d3b8 cd3c
000002c0: 736f 5e3c a199 3a3c 5214 8a3c 041e 623d
000002d0: 7213 733c bcc6 0fbd f631 563c ad97 14bd
000002e0: 0b31 8f39 8a8e 033d d2e5 cd3d b035 7f3c
000002f0: 8b28 70bc aea3 903d e861 63bd 450e b63d
00000300: 06a3 31bd 86a6 ac3d f64a 23bd dcaa c53c
00000310: 6af2 66bb 634b 0fbc 352a 16bb c2aa bd3c
00000320: b6a3 4f3c 3936 8cbd 87fa e13c dadc 413d
00000330: 48d1 123d afa5 e63c 36ab b83d addb a7bb
00000340: 1a8e 563c d00c 9c3b 5074 00bc 4467 cbbb
00000350: 1c40 deba 2e58 073d ffba dcbc 7ae7 0f3d
00000360: c1b0 f73b 327f ff3c d63c bcbb 0bbe 0cbd
00000370: 0983 27bc eeb6 183e c86a 283c 154e afbd
00000380: d754 f73b 348f 74b9 91de a8bb 64ab a63c
00000390: a2bd ef3c 7c28 e2bc 393f 353d f9c4 6abc
000003a0: 365c 01bc 848f d13b 121f 523d 305e 873b
000003b0: 7235 2a3c 5448 bbbc 5ba2 fc3d e26e 66bb
000003c0: 039a ab3c db3b 853d b46d 96bb 19c4 70bc
000003d0: 46b0 053c d605 d7bc 7f64 563b 1086 0a3c
000003e0: 45c9 b33c 0255 1dbc 72c4 ba3d 28f7 d3bc
000003f0: 3fe0 ffbc d0de 09bc 9e5e ce3a 93e4 56bd
0.040086158 -0.013797811 -0.008848359 0.0013551817 0.117351525 -0.0018292095 -0.016563455 -0.021010714
-0.035519514 0.0024595037 0.012939364 0.024545413 -0.03487407 0.0010124738 -0.007541564 -0.03296544
0.03288343 0.03814628 -0.0382766 -0.005363544 0.015847176 -0.023042113 0.0036560781 0.022415094
-0.01544573 -0.0039543323 0.016956026 0.042947076 -0.0022806583 -0.022399755 0.007080527 0.03495767
0.028185708 -0.03900825 0.039548125 0.0013748402 -0.14777401 -0.0061409436 0.012549732 -0.0074370783
-0.032659784 0.01618368 -0.03497645 -0.0072948085 -0.053097527 0.033737488 -0.009241707 0.07448214
0.0041632163 -0.010205377 -8.177081e-05 0.028330255 0.07622731 0.02272987 0.04264816 -0.031151365
0.016234158 0.07458419 0.039311163 -0.016104424 0.010956896 0.05061152 0.027983028 -0.041004587
-0.012984873 0.046378646 0.03426368 -0.018250378 0.0049370076 0.0066046314 -0.027676217 0.049607385
0.013092173 0.020547077 0.01713272 -0.04087664 -0.043031886 0.034249432 0.020719146 -0.038682375
0.00948243 0.01396362 -0.036632214 0.017723165 -0.028845211 0.02025979 -0.041573327 0.01965508
-0.030953752 0.018328317 -0.015248702 -0.028929582 -0.003724112 -0.015531877 0.013650247 0.0067533003
0.041178465 -0.03576566 -0.013097634 0.0034716306 0.014094155 0.11309439 0.0018786062 0.07586946
0.02078872 -0.007980329 -0.102069624 -0.028539648 -0.003778097 0.020440575 0.0066811075 0.00274417
-0.0008554274 0.029873105 0.11756294 -0.029236626 -0.010741957 -0.023972373 -0.0039157374 -0.0308343
-0.012194694 -0.051636677 0.058127735 0.09055265 -0.0016780861 -0.019921577 -0.010872614 0.0068126614
-0.00802959 0.03239647 0.07616674 -0.060326826 -0.013646133 -0.043066133 -0.0030876596 0.008348013
0.04132368 -0.0022438674 0.046695776 -0.013396387 -0.008130695 0.013261925 0.00058887294 0.058353916
0.0027325354 0.036064032 -0.06754588 0.046298604 0.004250651 0.053687114 -0.017520292 -0.030545315
0.05260441 0.009465958 0.004002656 -0.055931564 -0.005341736 0.008084429 -0.021772152 0.047867764
0.0002018255 -0.023001319 -0.027437929 -0.017587228 0.0027108865 0.06599698 -0.0016009188 0.012905052
-0.021011058 0.05763128 0.010822453 -0.009332977 0.021249715 0.003421727 0.048660137 0.025112545
0.013576376 0.011389167 0.016855393 0.055204406 0.014836179 -0.035101637 0.013073435 -0.03627746
0.00027311625 0.032118358 0.100536 0.015576765 -0.014658104 0.070624694 -0.055513293 0.088894404
-0.043368362 0.08430199 -0.03986641 0.024129324 -0.0035239705 -0.008746001 -0.002291334 0.023152713
0.012673309 -0.0684628 0.027585281 0.04732976 0.035844117 0.028155176 0.09017031 -0.005122623
0.013095403 0.0047622696 -0.007840231 -0.0062073786 -0.0016956362 0.03304308 -0.026944635 0.035132863
0.0075589125 0.031188581 -0.005744557 -0.034360927 -0.010224112 0.14913532 0.010279365 -0.08559815
0.0075479555 -0.00023323 -0.005153485 0.020345397 0.029265229 -0.027607195 0.044249747 -0.0143291885
-0.00789552 0.006395282 0.051299162 0.004131101 0.010388719 -0.022861637 0.12335654 -0.0035161306
0.020947462 0.06505557 -0.0045907144 -0.014695191 0.008159703 -0.0262479 0.003271371 0.008454815
0.021946559 -0.009602787 0.091195 -0.02587469 -0.031234859 -0.008414939 0.0015744751 -0.05246408

transformer_encoder.layers.1.linear2.bias f4 [6]
00000000: 835a cfba f527 8d3c 3467 743c 1f13 ff3b
00000010: 8ac6 233b b333 e8bb
-0.0015819821 0.017230967 0.014917184 0.007784262 0.0024990165 -0.007086241

transformer_encoder.layers.1.norm1.weight f4 [6]
00000000: 3208 663f 811a 853f e608 833f 3db7 7b3f
00000010: 18b4 853f 444f 823f
0.89856255 1.0398713 1.023709 0.98326474 1.0445585 1.018044

transformer_encoder.layers.1.norm1.bias f4 [6]
00000000: f7d9 363d d4bb 81bd 22e4 4b3d 16a0 69bd
00000010: fe75 3abc 6f19 113c
0.04464146 -0.063346535 0.04977811 -0.057037435 -0.011380671 0.0088561615

transformer_encoder.layers.1.norm2.weight f4 [6]
00000000: 26d1 983f 44a3 aa3f 6168 9e3f 8bb9 8b3f
00000010: b7d2 a93f e3ad 9b3f
1.1938827 1.3331075 1.2375604 1.0915998 1.326743 1.2162441

transformer_encoder.layers.1.norm2.bias f4 [6]
00000000: 9896 e23d 74ed a73d 87c9 2cbd 19c5 b5bd
00000010: 66e7 5ebd 45d6 c33c
0.1106388 0.081995875 -0.04218438 -0.08875484 -0.054419897 0.023905883
