DU_model/Transformer/Archive/best_model_t7jul_lat_ext_9jul1_2_3_4_5_6_tr.3.40.pth (torch, 475886 bytes, 29 tensors)

norm.weight f4 [6]
1.0 1.0 1.0 1.0 1.0 1.0
00000000: 0000 803f 0000 803f 0000 803f 0000 803f
00000010: 0000 803f 0000 803f

norm.bias f4 [6]
0.0 0.0 0.0 0.0 0.0 0.0
00000000: 0000 0000 0000 0000 0000 0000 0000 0000
00000010: 0000 0000 0000 0000

transformer_encoder.layers.0.self_attn.in_proj_weight f4 [18, 6]
0.20824824 -0.23991893 -0.21748348 0.0746215 -0.30199322 0.42606613 -0.13056536 0.05663946
0.10553577 -0.12145115 0.35666603 -0.4769715 0.22052912 0.2448995 -0.5476971 0.056478795
-0.39151743 -0.490173 0.36789167 -0.1589381 0.44322073 0.24768168 -0.31151074 -0.24491663
-0.26470882 0.08358137 -0.45364532 0.3410756 -0.013639152 0.32999158 -0.24222729 0.0023972825
-0.30981016 0.2684713 -0.42864224 -0.28982654 -0.06219629 0.065825805 -0.39414287 0.43872565
-0.17007507 -0.17947856 0.2757258 0.30130255 0.36775503 -0.19267651 0.42508504 -0.08489264
0.26337352 0.3058415 -0.017711977 -0.50955737 0.18501012 -0.019595752 -0.23301296 0.40558708
0.093718894 -0.1748064 -0.4560433 0.015656196 0.14973448 0.06508537 -0.24480842 -0.054748017
0.0029663933 -0.10977875 -0.25921354 0.33369592 0.42624962 -0.46673936 -0.29728174 0.17114335
-1.3923314 -0.11131277 -0.6212886 0.19773066 0.31196567 0.3174644 -0.65127057 -0.07988634
-0.6427242 0.1403225 0.030974768 0.57301897 0.74975115 0.10365243 -0.44627526 -0.02772284
-0.755509 -0.25645494 -0.200183 -0.4670331 -0.2141311 0.19956923 -0.14476483 0.35812867
-0.6061198 -0.36358503 -0.39910248 -0.10314889 -0.025374886 0.36590385 -0.48100644 -0.0276103
-0.45232284 -0.44510546 0.272635 0.10991625
00000000: 073f 553e 4fad 75be fdb3 5ebe 28d3 983d
00000010: db9e 9abe 5725 da3e edb2 05be c7fe 673d
00000020: 2323 d83d 61bb f8bd ee9c b63e 9c35 f4be
00000030: 63d2 613e efc6 7a3e e135 0cbf 4f56 673d
00000040: f974 c8be f5f7 fabe 4c5c bc3e abc0 22be
00000050: d4ed e23e 44a0 7d3e 567e 9fbe 6dcb 7abe
00000060: ea87 87be b62c ab3d 3344 e8be 76a1 ae3e
00000070: c076 5fbc a8f4 a83e 6e0a 78be ba1b 1d3b
00000080: 709f 9ebe 1275 893e ff76 dbbe 2564 94be
00000090: 89c1 7ebd aecf 863d 18cd c9be a6a0 e03e
000000a0: 2928 2ebe 3ac9 37be ef2b 8d3e 5444 9a3e
000000b0: 634a bc3e fe4c 45be bfa4 d93e 31dc adbd
000000c0: e5d8 863e 4297 9c3e b518 91bc 5a72 02bf
000000d0: 4b73 3d3e 4587 a0bc f39a 6ebe 1ca9 cf3e
000000e0: b1ef bf3d 7300 33be 827e e9be 6c41 803c
000000f0: ff53 193e 7a4b 853d 0faf 7abe 753f 60bd
00000100: d267 423b aed3 e0bd a3b7 84be 31da aa3e
00000110: 643d da3e 76f8 eebe 5035 98be 3440 2f3e
00000120: ea37 b2bf f3f7 e3bd c50c 1fbf e879 4a3e
00000130: f7b9 9f3e b28a a23e abb9 26bf 739b a3bd
00000140: 9389 24bf b4b0 0f3e ccbe fd3c 5fb1 123f
00000150: b1ef 3f3f ba47 d43d 317e e4be 021b e3bc
00000160: 0a69 41bf 104e 83be c6fc 4cbe f61e efbe
00000170: 2f45 5bbe e05b 4c3e 3b3d 14be a45c b73e
00000180: ab2a 1bbf d127 babe 2957 ccbe ba3f d3bd
00000190: fede cfbc c057 bb3e 7a46 f6be ff2e e2bc
000001a0: dc96 e7be dde4 e3be d196 8b3e c51b e13d

transformer_encoder.layers.0.self_attn.in_proj_bias f4 [18]
0.04403286 -0.048381437 -0.04906302 -0.049847495 -0.013238856 -0.03487939 0.0021686833 -0.0016847986
-0.05125114 -0.016099634 -0.02531922 -0.024361333 -0.18035342 -0.50214654 -0.15073767 -0.25911823
-0.5806181 -0.154517
00000000: cd5b 343d 9d2b 46bd 4ef6 48bd e32c 4cbd
00000010: c9e7 58bc b1dd 0ebd 7820 0e3b 76d4 dcba
00000020: b7ec 51bd 61e3 83bc 416a cfbc 6b91 c7bc
00000030: 91ae 38be ad8c 00bf fa5a 1abe 25ab 84be
00000040: 63a3 14bf b439 1ebe

transformer_encoder.layers.0.self_attn.out_proj.weight f4 [6, 6]
-0.17105837 0.42061096 -0.16042684 -0.053027134 0.03358533 0.035126667 0.42285842 0.06676278
0.2918342 0.33142674 0.20200993 -0.34322327 -0.2915628 -0.4107682 -0.38459358 -0.07216447
-0.3320938 -0.16304554 -0.21711269 -0.27874163 0.20627777 0.083074555 -0.026639504 -0.17547528
-0.27863988 0.051202256 0.03124608 -0.11651492 -0.44555217 -0.54991525 -0.48918134 -0.00354032
-0.31697705 0.3424827 0.20273957 0.019809688
00000000: ed29 2fbe 525a d73e ef46 24be fb32 59bd
00000010: c590 093d fbe0 0f3d e680 d83e edba 883d
00000020: 4b6b 953e c4b0 a93e b1db 4e3e f6ba afbe
00000030: b847 95be 3650 d2be 73e9 c4be f7ca 93bd
00000040: 3308 aabe 69f5 26be ca52 5ebe 39b7 8ebe
00000050: 7b3a 533e fe22 aa3d 173b dabc cbaf 33be
00000060: e3a9 8ebe 75b9 513d c7f7 ff3c 609f eebd
00000070: 6a1f e4be 3fc7 0cbf fa75 fabe b704 68bb
00000080: d14a a2be e459 af3e f69a 4f3e ed47 a23c

transformer_encoder.layers.0.self_attn.out_proj.bias f4 [6]
-0.5579099 -0.16085964 0.7666387 0.14701085 -0.19068204 0.08943982
00000000: 2fd3 0ebf 64b8 24be 6f42 443f 038a 163e
00000010: 2742 43be 392c b73d

transformer_encoder.layers.0.linear1.weight f4 [2048, 6]
-0.10026075 -0.31375894 0.44801039 0.28121293 -0.25950375 0.007071376 -0.45050573 0.22180462
0.017513337 -0.2282961 -0.0017736392 -0.08568569 0.015243021 0.13148601 0.2917835 -0.2645727
-0.3911412 0.3593907 0.30950475 -0.37308642 0.4107902 0.193987 0.0728133 -0.18497495
-0.31515023 -0.17883593 -0.25148705 -0.35449734 -0.31347725 -0.07373931 -0.24207547 -0.2091298
0.3448359 0.08966482 -0.08935268 0.14855172 0.09247767 0.16355684 -0.24837749 -0.0833111
-0.047270555 -0.3109177 0.31859258 0.06996111 0.33346456 -0.03558103 0.5241046 0.41263255
-0.19853458 -0.042266026 -0.3022101 -0.09327451 0.2342769 0.07464246 -0.18835242 -0.3288876
-0.16026635 -0.34014088 0.3731623 -0.28057376 -0.025063796 -0.26455504 -0.25795904 -0.23588714
-0.13975653 -0.06374415 -0.35245737 -0.1332826 -0.2199046 0.11577807 0.44294006 -0.03635516
0.4150323 0.08915066 -0.3495476 -0.14131969 -0.14956653 -0.3749091 -0.09350673 -0.22869933
-0.18153672 -0.04425798 0.1678994 0.4015457 -0.4042969 -0.2309959 -0.23749712 -0.08036029
-0.40853733 0.085631885 -0.12664934 0.50207984 -0.3455697 -0.5295703 0.13472857 0.20587535
0.01024083 0.516689 -0.0985087 -0.08122708 -0.36378443 -0.04003845 -0.25316378 -0.27695045
0.08227159 0.15574235 -0.048159633 0.03232052 -0.22322023 0.09366178 0.005151474 -0.04482731
-0.1163989 -0.22989945 -0.09889165 0.3236464 -0.34068528 -0.00016859415 0.14914514 -0.10428574
-0.16473179 0.23413126 -0.115683176 -0.017001104 0.35638002 0.0558241 0.16581835 -0.47229293
-0.36486304 -0.16519691 0.16151723 -0.0019287618 -0.32867664 0.17346527 0.2757918 0.28740177
0.1522911 0.23220176 0.20440821 0.39983758 -0.34385633 -0.33704337 0.4584879 -0.27106676
-0.23723857 0.048204135 0.2947214 0.09155926 0.4295669 -0.1903984 -0.12358829 0.25133786
0.3547923 0.13938507 -0.30639187 0.012115051 -0.35863483 -0.21149832 -0.26760244 -0.2917422
-0.16124529 0.089101106 0.102321304 0.14416692 0.40607595 -0.22773753 0.27146482 0.23428625
-0.20331937 -0.18260093 -0.15725648 0.07592024 0.14830796 -0.1401389 0.42023635 -0.43043247
-0.27200267 0.076460816 -0.30795085 -0.20361146 0.26065955 0.22467501 0.52973205 -0.3274258
0.46055365 0.19962782 -0.1738829 -0.5158156 -0.12411341 -0.038071197 0.044454463 -0.3386478
-0.20736007 -0.16673128 0.12416465 -0.22046667 0.009162993 -0.22444364 -0.20334361 -0.0881822
0.39518997 -0.44643807 -0.00070742 -0.25776947 0.085304774 -0.095585056 0.21728559 0.19732992
-0.19534005 0.23087819 -0.34551138 -0.39285898 -0.4603087 -0.22853822 -0.41281545 0.3758302
0.4189154 -0.014198897 0.18527527 -0.57378805 -0.3450635 -0.07498973 -0.02601066 0.3977448
-0.23044251 0.3489138 0.3785274 0.25911564 -0.2037303 -0.22943954 -0.13933001 0.018825926
-0.11062894 -0.24509948 0.23104203 0.41539288 0.3850869 -0.14067852 -0.31851313 -0.4239941
-0.13024402 -0.35790154 -0.34246805 -0.35815153 -0.01769944 0.05611938 -0.099091165 0.32359588
0.06652617 0.17719926 0.06251497 0.4372369 -0.2543731 0.53905624 -0.03590055 -0.4636781
00000000: 8255 cdbd 03a5 a0be 9e61 e53e 24fb 8f3e
00000010: addd 84be 00b7 e73b b0a8 e6be c020 633e
00000020: 2178 8f3c 74c6 69be 7579 e8ba fb7b afbd
00000030: ddbd 793c 45a4 063e a664 953e 1376 87be
00000040: a943 c8be 0f02 b83e 6877 9e3e 2f05 bfbe
00000050: 1853 d23e 87a4 463e 241f 953d 136a 3dbe
00000060: 5f5b a1be c420 37be e9c2 80be ad80 b5be
00000070: 1780 a0be a304 97bd a2e2 77be 1f26 56be
00000080: 558e b03e 30a2 b73d 8afe b6bd f11d 183e
00000090: ef64 bd3d 727b 273e ab56 7ebe 039f aabd
000000a0: c59e 41bd 9b30 9fbe 911e a33e c547 8f3d
000000b0: debb aa3e 6abd 11bd b82b 063f 9344 d33e
000000c0: a64c 4bbe 241f 2dbd 48bb 9abe b506 bfbd
000000d0: 49e6 6f3e 25de 983d 75df 40be f563 a8be
000000e0: dd1c 24be f226 aebe 210f bf3e 5da7 8fbe
000000f0: 9752 cdbc c273 87be 3513 84be 668c 71be
00000100: 561c 0fbe 4b8c 82bd 4b75 b4be 3c7b 08be
00000110: ac2e 61be 0e1d ed3d 0ac9 e23e 26e9 14bd
00000120: 1d7f d43e 9f94 b63d e7f7 b2be 1cb6 10be
00000130: f827 19be 16f4 bfbe 7580 bfbd 2830 6abe
00000140: c3e4 39be db47 35bd d2ed 2b3e 6697 cd3e
00000150: 0100 cfbe 308a 6cbe 7232 73be f093 a4bd
00000160: ce2b d1be c55f af3d 5db0 01be 4e88 003f
00000170: 83ee b0be eb91 07bf 49f6 093e fdd0 523e
00000180: 27c9 273c bb45 043f eebe c9bd 625a a6bd
00000190: f441 babe 5cff 23bd af9e 81be 73cc 8dbe
000001a0: 027e a83d ec7a 1f3e 0943 45bd 8662 043d
000001b0: d893 64be bfd1 bf3d b2cd a83b d79c 37bd
000001c0: 8c62 eebd c36a 6bbe b587 cabd fbb4 a53e
000001d0: 4d6e aebe a6c8 30b9 81b9 183e c393 d5bd
000001e0: 73af 28be 1bc0 6f3e 4deb ecbd e645 8bbc
000001f0: 7177 b63e d0a7 643d 49cc 293e 61d0 f1be
00000200: 54cf babe 6129 29be c664 253e 82ce fcba
00000210: 4e48 a8be e1a0 313e 9534 8d3e 5326 933e
00000220: 33f2 1b3e 4cc6 6d3e 6350 513e 83b7 cc3e
00000230: f00d b0be f390 acbe edbe ea3e 43c9 8abe
00000240: abee 72be b371 453d b9e5 963e 6c83 bb3d
00000250: 31f0 db3e ccf7 42be db1b fdbd 5baf 803e
00000260: 56a7 b53e f6ba 0e3e 65df 9cbe 357e 463c
00000270: fc9e b7be 0493 58be 3003 89be 3c5f 95be
00000280: 7c1d 25be a47a b63d d58d d13d 7ea0 133e
00000290: 30e9 cf3e 0734 69be 70fd 8a3e bce8 6f3e
000002a0: f432 50be bdfb 3abe d807 21be 127c 9b3d
000002b0: 0bde 173e 9280 0fbe 3829 d73e a561 dcbe
000002c0: ef43 8bbe 7d97 9c3d bcab 9dbe 867f 50be
000002d0: 2b75 853e 3511 663e 859c 073f 5ba4 a7be
000002e0: b0cd eb3e 3c6b 4c3e 5c0e 32be 7e0c 04bf
000002f0: 2c2f febd 8bf0 1bbd e215 363d 3f63 adbe
00000300: 3356 54be 9bbb 2abe 094a fe3d 04c2 61be
00000310: 6120 163c 8ed4 65be 4f39 50be df98 b4bd
00000320: 5756 ca3e 8893 e4be 2772 39ba 5cfa 83be
00000330: 45b4 ae3d 19c2 c3bd 1d80 5e3e db10 4a3e
00000340: 3907 48be 556b 6c3e dee6 b0be d024 c9be
00000350: 95ad ebbe ec05 6abe 8c5c d3be d16c c03e
00000360: 147c d63e 7ea2 68bc cdb8 3d3e c6e3 12bf
00000370: 2aac b0be 3794 99bd 4f14 d5bc 35a5 cb3e
00000380: 1ff9 6bbe d4a4 b23e 58ce c13e ceaa 843e
00000390: ad9e 50be 33f2 6abe 87ac 0ebe d438 9a3c
000003a0: 6d91 e2bd 5cfb 7abe 4896 6c3e 60ae d43e
000003b0: 1c2a c53e 080e 10be 2714 a3be c115 d9be
000003c0: b05e 05be df3e b7be f957 afbe a35f b7be
000003d0: 6afe 90bc 6fdd 653d 4ff0 cabd 5cae a53e
000003e0: df3e 883d b973 353e d907 803d 84dd df3e
000003f0: 313d 82be 97ff 093f 750c 13bd 3767 edbe

transformer_encoder.layers.0.linear1.bias f4 [2048]
0.19607762 0.06756049 0.19199476 0.19500715 0.06697997 0.10493054 0.07573885 0.3453942
0.06490753 0.062072676 0.2640224 0.039051533 -0.010696057 -0.40410644 -0.3057401 -0.3000263
-0.06262981 0.17288956 -0.15960965 0.03648116 0.10605012 0.26423627 -0.35223186 0.35067877
0.18128978 -0.056693126 0.29895955 0.21078154 -0.2925709 0.020191232 0.05252234 -0.30785722
-0.24083608 -0.1858054 0.24340345 -0.030675614 -0.08377486 -0.31985757 -0.09327505 -0.18770015
-0.47311008 0.15958908 0.152073 -0.30535462 0.22413345 0.13187121 0.03399739 0.095405124
-0.47234896 0.17151393 -0.24605556 -0.3076254 0.3456607 0.11238666 -0.20465621 -0.13322027
0.11105854 0.14915691 0.2891183 0.35329393 0.12546824 0.30380365 0.014174077 -0.2718868
-0.22085229 0.27654693 -0.36085847 0.40904027 0.041108817 0.22469158 -0.047013648 -0.070620164
-0.038735915 -0.27332482 -0.19445375 -0.4234656 0.070999436 -0.25403965 0.3700101 0.23360004
-0.13601223 0.107698545 -0.39614767 -0.19831899 -0.30438092 0.29538068 0.29222015 0.050121456
0.11318033 0.014484615 0.33562633 -0.10343518 -0.23416622 0.363215 -0.0022604829 -0.4277698
-0.46236748 0.084220625 0.0033013423 0.058567636 -0.27040538 0.061457038 0.25558692 -0.14773971
0.029284926 -0.11959604 0.17659554 0.003194941 0.016743025 -0.15560403 -0.044588692 -0.098774865
-0.2144805 0.21412002 0.07057557 -0.27120978 -0.4241632 0.05809468 -0.42388722 -0.1360357
-0.08477406 0.29854155 -0.06635794 -0.1508444 -0.22342777 0.33861482 0.2644611 -0.164519
-0.039785855 -0.15028651 0.31347126 -0.1826855 -0.0992405 -0.24817663 -0.072461486 -0.23658688
-0.15418983 0.3197314 -0.018050376 -0.08391481 0.17076543 0.16078885 0.08113022 -0.04308995
-0.08167123 0.26685694 0.019355983 -0.196981 -0.026872562 0.063098945 -0.13190146 -0.18030895
-0.41935045 0.2611815 0.075568154 -0.29231122 -0.39472032 -0.20625803 0.20671415 -0.0101936925
-0.20490158 -0.31879017 0.27781737 0.099144176 -0.32534656 0.37536427 -0.03097825 -0.0029919571
0.34751076 -0.3585747 -0.073546045 0.25653148 0.27147132 -0.2583294 -0.21909203 -0.24416637
-0.12990502 -0.07025055 0.1690867 -0.19817594 -0.13837022 0.06352371 0.1881859 -0.071248636
-0.29373243 0.32133046 -0.25175324 -0.03951743 -0.2870532 0.15887696 0.15079242 0.046807397
-0.40305567 0.3191712 -0.21977378 -0.16514097 -0.14419398 -0.0016988468 0.051364724 -0.05717106
0.15935777 0.27695253 0.2674816 0.057899788 -0.32429108 -0.019133102 0.2596484 -0.27351397
0.13763009 -0.28686506 0.05074836 0.2544198 -0.13822575 0.011106753 0.021558378 0.324676
0.05872982 -0.057330873 -0.01403281 0.13524581 0.11281401 -0.3112638 -0.02021844 0.18311304
-0.10544918 -0.120225325 0.2732716 -0.377082 0.047104713 0.227872 0.020579265 0.19662197
-0.31175295 -0.1563817 -0.1638468 0.0022076294 0.32672277 0.067202464 -0.23725943 -0.4385967
0.0018238118 -0.086323276 -0.35045624 -0.24365422 0.08798535 -0.011802303 0.23150593 0.120247155
0.31843075 -0.4605951 -0.28977364 -0.20546806 -0.015213263 0.29523006 0.10861176 0.27809975
00000000: 92c8 483e 275d 8a3d 469a 443e f4af 473e
00000010: cb2c 893d d3e5 d63d f81c 9b3d 82d7 b03e
00000020: 3dee 843d eb3f 7e3d f22d 873e 80f4 1f3d
00000030: 843e 2fbc 0ae7 cebe f789 9cbe 0c9d 99be
00000040: 0f44 80bd f609 313e b670 23be 456d 153d
00000050: ce30 d93d fa49 873e bc57 b4be 2b8c b33e
00000060: 07a4 393e 0d37 68bd 3a11 993e 1ed7 573e
00000070: dacb 95be 1568 a53c aa21 573d 769f 9dbe
00000080: bc9d 76be c543 3ebe c13e 793e 6d4b fbbc
00000090: 2792 abbd 5fc4 a3be fd06 bfbd 7834 40be
000000a0: 7c3b f2be 526b 233e 06b9 1b3e 7157 9cbe
000000b0: 3d83 653e 3f09 073e d940 0b3d c363 c33d
000000c0: b9d7 f1be 59a1 2f3e fdf5 7bbe 1481 9dbe
000000d0: 70fa b03e fa2a e63d 6691 51be e56a 08be
000000e0: a972 e33d 97bc 183e 5007 943e f1e2 b43e
000000f0: bf7a 003e 278c 9b3e 633a 683c bf34 8bbe
00000100: 1a27 62be 8f97 8d3e 71c2 b8be ba6d d13e
00000110: b861 283d 8d15 663e 6291 40bd 4ea1 90bd
00000120: 8da9 1ebd 3bf1 8bbe e21e 47be 7cd0 d8be
00000130: 2768 913d 7c11 82be f771 bd3e d934 6f3e
00000140: ca46 0bbe 0e91 dc3d ded3 cabe 2214 4bbe
00000150: d1d7 9bbe 233c 973e e19d 953e 284c 4d3d
00000160: 17cb e73d e150 6d3c 37d7 ab3e d3d5 d3bd
00000170: 45c9 6fbe 51f7 b93e 9c24 14bb a504 dbbe
00000180: 6ebb ecbe dd7b ac3d 555b 583b 9ee4 6f3d
00000190: 9372 8abe 60ba 7b3d 4adc 823e 1449 17be
000001a0: f1e6 ef3c c5ee f4bd 76d5 343e 3762 513b
000001b0: ab28 893c aa56 1fbe a2a2 36bd 7a4a cabd
000001c0: c7a0 5bbe 4742 5b3e ed89 903d 02dc 8abe
000001d0: eb2b d9be b0f4 6d3d bf07 d9be f14c 0bbe
000001e0: 069e adbd 70da 983e ace6 87bd f476 1abe
000001f0: 40ca 64be ec5e ad3e 7267 873e ab77 28be
00000200: 7ef6 22bd b5e4 19be 4e7f a03e e811 3bbe
00000210: 9a3e cbbd 0422 7ebe b066 94bd d543 72be
00000220: f0e3 1dbe d6b3 a33e 62de 93bc 87db abbd
00000230: 22dd 2e3e d5a5 243e 9a27 a63d 167f 30bd
00000240: 3f43 a7bd 79a1 883e 7090 9e3c 63b5 49be
00000250: d923 dcbc 053a 813d 2d11 07be e9a2 38be
00000260: 1ab5 d6be 95b9 853e 7ac3 9a3d d1a9 95be
00000270: c818 cabe 4e35 53be e0ac 533e 7203 27bc
00000280: b8d1 51be 7738 a3be 143e 8e3e 1a0c cb3d
00000290: d393 a6be bf2f c03e 19c6 fdbc b614 44bb
000002a0: eeec b13e 1a97 b7be 4f9f 96bd 1858 833e
000002b0: 4afe 8a3e c043 84be a959 60be c006 7abe
000002c0: d205 05be 85df 8fbd 1025 2d3e a2ee 4abe
000002d0: ecb0 0dbe b818 823d ceb3 403e ceea 91bd
000002e0: 1964 96be 6d85 a43e cde5 80be 07dd 21bd
000002f0: a3f8 92be a4b0 223e 5469 1a3e 1db9 3f3d
00000300: 505d cebe 686a a33e 610c 61be b71a 29be
00000310: 96a7 13be d7ab deba d163 523d 342c 6abd
00000320: af2e 233e b9cc 8d3e 59f3 883e 5428 6d3d
00000330: 7b09 a6be 06bd 9cbc a3f0 843e 060a 8cbe
00000340: e7ee 0c3e fadf 92be 83dd 4f3d 5043 823e
00000350: 0d8b 0dbe 19f9 353c 329b b03c ef3b a63e
00000360: ae8e 703d c7d3 6abd dfe9 65bc e17d 0a3e
00000370: 080b e73d f85d 9fbe 24a1 a5bc fc81 3b3e
00000380: bdf5 d7bd b238 f6bd 41ea 8b3e e410 c1be
00000390: dff0 403d 4757 693e d995 a83c 4557 493e
000003a0: 159e 9fbe 8622 20be 75c7 27be e0ad 103b
000003b0: 3548 a73e 72a1 893d 23f4 72be bf8f e0be
000003c0: f80c ef3a 42ca b0bd 006f b3be 7e80 79be
000003d0: aa31 b43d 725e 41bc e40f 6d3e 2444 f63d
000003e0: 5b09 a33e 1fd3 ebbe 365d 94be 3866 52be
000003f0: 0d41 79bc 6528 973e d86f de3d 1763 8e3e

transformer_encoder.layers.0.linear2.weight f4 [6, 2048]
0.00091864134 0.28102592 0.028021729 0.0053563803 0.07861696 -0.029281655 -0.006196182 -0.15521581
-0.025437629 0.2605066 -0.0023432127 -0.008653825 0.13995802 0.01534016 0.33295354 -0.16362321
0.04187853 0.0060402295 -0.01990532 -0.011565988 -0.03190575 0.05035108 0.016558157 -0.044305146
-0.009879232 -0.0034893544 -0.023069689 -0.07370841 -0.015538802 -0.0045101917 -0.18661873 -0.020965103
-0.009237863 -0.023068525 -0.008473986 0.27360505 -0.05581602 -0.017473675 -0.014676659 0.21024555
0.023439495 -0.02120879 0.14041087 -0.0023404793 0.04924116 0.006062891 0.13422643 -0.0002520125
-0.015137834 0.01810728 0.012557354 0.101024024 0.0678507 0.09135528 -0.006957546 0.029825095
-0.021710975 0.025938185 -0.003227012 -0.012130436 -0.33320472 -0.23105128 0.12372176 0.16608372
-0.18277518 -0.097210534 -0.0009996888 0.07054602 -0.0015926248 -0.019564632 -0.009709714 -0.018241586
0.0019083348 0.14241241 -0.018864883 -0.061437283 0.07900852 0.0009673809 -0.053581063 -0.0016797847
0.1840811 0.06517986 -0.032702144 0.04613413 -0.0049358485 -0.0011142573 -0.02274344 -0.16434975
0.12660716 0.107260026 -0.013095495 -0.0056307176 -0.18473789 -0.14638814 0.2828052 0.01988469
0.0024445537 -0.20972343 0.31878632 -0.0940116 -0.018735707 0.0062528574 0.0016202814 -0.14232449
-0.02196799 0.014740542 -0.0005483104 -2.456347e-05 -0.0033116553 0.24560367 0.0739353 0.15355663
0.029755853 0.19547342 -0.0016289231 0.06316806 -0.008350612 0.34115928 0.039282758 0.030575683
-0.05171694 -0.0054787467 -0.27233112 -0.0019989205 0.17664386 -0.058883853 -0.0053727804 -0.0073634656
0.118877046 0.09595775 0.00029558322 0.034085404 -0.035556395 0.31250075 0.0026644282 -0.004768424
-0.007421342 0.079205036 0.0051047495 -0.025356425 0.20114596 -0.0126238065 -0.025208496 0.015434303
0.012759758 -0.0063523687 0.0032898346 -0.032171536 -0.01028724 -0.18890567 0.069284886 -0.0026578617
0.024739139 0.109018244 -0.023182852 0.01058014 -0.00788146 -0.017558968 0.03697159 -0.07497139
0.074854724 0.09556787 -0.008196329 -0.18279967 0.00057809206 -0.06695495 -0.118799224 0.008718576
0.04233751 0.013617561 0.0018238658 -0.013418066 -0.013647139 -0.18499434 -0.13988754 0.16006914
-0.012039072 0.0124774575 -0.21474744 0.040102642 -0.0056435764 0.04845397 0.0009788413 -0.15854736
-0.07428556 -0.027142657 -0.0010048151 -0.3698152 -0.027328668 0.00024655295 0.07260487 -0.06531014
0.19472916 -0.17463702 0.013970485 0.13138051 0.015178751 0.13749906 -0.007913938 -0.0053615454
0.012452673 -0.0011345177 -0.23531282 -0.16772151 -0.107640006 -0.191433 -0.0061308085 0.05798456
-0.022028448 0.05599912 0.057168063 -0.017266441 0.31223524 0.025997741 -0.013289632 0.15677933
0.15834951 -0.3470588 0.124608494 0.2246001 -0.01584479 -0.000123607 0.15985732 0.00736454
-0.06639564 -0.01870273 0.13004667 -0.016288921 0.015398563 0.026057487 -0.024016377 -0.048706558
0.08557369 -0.013369902 0.17032702 0.09439552 -0.010033735 -0.11182235 0.20601992 0.25713757
-0.00403021 0.12152212 -0.13359135 0.06801118 0.116909444 0.0030862226 -0.01688745 0.21749373
-0.037618138 -0.045319356 0.0069948076 -0.07162257 -0.0037260407 0.005164483 0.069215946 -0.36281154
00000000: fad0 703a a1e2 8f3e d38d e53c 9384 af3b
00000010: ee01 a13d 15e0 efbc 5809 cbbb e5f0 1ebe
00000020: 9362 d0bc 1f61 853e 9690 19bb c6c8 0dbc
00000030: 2851 0f3e 4b55 7b3c e378 aa3e d88c 27be
00000040: d288 2b3d 1eed c53b 7b10 a3bc 457f 3dbc
00000050: 9baf 02bd ef3c 4e3d f9a4 873c 5079 35bd
00000060: 81dc 21bc a7ad 64bb a5fc bcbc 6ff4 96bd
00000070: 7696 7ebc 3bca 93bb fb18 3fbe 02bf abbc
00000080: 685a 17bc 34fa bcbc 79d6 0abc f615 8c3e
00000090: 579f 64bd f424 8fbc 5f76 70bc 9c4a 573e
000000a0: 2f04 c03c 0ebe adbc dec7 0f3e ba62 19bb
000000b0: 19b1 493d 37ab c63b a772 093e 8c20 84b9
000000c0: ad04 78bc b855 943c 5cbd 4d3c afe5 ce3d
000000d0: 4ff5 8a3d 7a18 bb3d 20fc e3bb c253 f43c
000000e0: 37db b1bc 517c d43c 477c 53bb bcbe 46bc
000000f0: cf99 aabe b598 6cbe d661 fd3d da11 2a3e
00000100: 6b29 3bbe 5116 c7bd fd07 83ba 6f7a 903d
00000110: 9fbf d0ba 0246 a0bc 7e15 1fbc 616f 95bc
00000120: 1721 fa3a 8fd4 113e 878a 9abc a9a5 7bbd
00000130: 38cf a13d d597 7d3a d177 5bbd 392c dcba
00000140: c27f 3c3e 057d 853d aff2 05bd 24f7 3c3d
00000150: e6bc a1bb 450c 92ba 7350 babc 4d4b 28be
00000160: 4fa5 013e 25ab db3d 7d8e 56bc e281 b8bb
00000170: ee2b 3dbe c6e6 15be d8cb 903e 38e5 a23c
00000180: ce34 203b bdc1 56be f637 a33e 2789 c0bd
00000190: a07b 99bc c5e4 cc3b 9f5f d43a 83bd 11be
000001a0: 37f6 b3bc 5082 713c 7dbc 0fba a60d ceb7
000001b0: 5b08 59bb 877f 7b3e 646b 973d f33d 1d3e
000001c0: 8cc2 f33c 2f2a 483e 9781 d5ba 415e 813d
000001d0: 01d1 08bc 6eac ae3e f5e6 203d db79 fa3c
000001e0: 24d5 53bd 0f87 b3bb fc6e 8bbe 5200 03bb
000001f0: 21e2 343e 3230 71bd 260e b0bb 3a49 f1bb
00000200: cf75 f33d 7f85 c43d 82f8 9a39 239d 0b3d
00000210: 95a3 11bd 1900 a03e b09d 2e3b 7140 9cbb
00000220: bb2e f3bb 4036 a23d be45 a73b 47b8 cfbc
00000230: 35f9 4d3e 15d4 4ebc 0c82 cebc 29e0 7c3c
00000240: 4e0e 513c 8827 d0bb 449a 573b 4dc6 03bd
00000250: d08b 28bc 7d70 41be 3ce5 8d3d 852f 2ebb
00000260: bca9 ca3c f544 df3d f7e9 bdbc 5358 2d3c
00000270: 3d21 01bc d3d7 8fbc 866f 173d 9a8a 99bd
00000280: 6f4d 993d 16b9 c33d e549 06bc d62f 3bbe
00000290: 1a8b 173a ad1f 89bd 024d f3bd 5cd8 0e3c
000002a0: 196a 2d3d 311c 5f3c c80e ef3a 73d7 5bbc
000002b0: 4098 5fbc 286f 3dbe ae3e 0fbe 2ae9 233e
000002c0: 873f 45bc 406e 4c3c c1e6 5bbe ab42 243d
000002d0: c0ed b8bb ac77 463d 774c 803a 3d5a 22be
000002e0: 0723 98bd 475a debc 00b4 83ba 6b58 bdbe
000002f0: 5fe0 dfbc c743 8139 ddb1 943d 53c1 85bd
00000300: 1567 473e 0cd4 32be 76e4 643c 9d88 063e
00000310: 4cb0 783c 8ecc 0c3e 76a9 01bc e7af afbb
00000320: 4c06 4c3c 19b4 94ba d8f5 70be 30bf 2bbe
00000330: 5d72 dcbd 0307 44be f3e4 c8bb 3881 6d3d
00000340: 0175 b4bc 555f 653d 0f29 6a3d 5a72 8dbc
00000350: 4cdd 9f3e 37f9 d43c c2bc 59bc c38a 203e
00000360: 6026 223e b1b1 b1be bd32 ff3d 92fd 653e
00000370: efcc 81bc 809c 01b9 a3b1 233e 3d52 f13b
00000380: 70fa 87bd 7836 99bc f42a 053e 5870 85bc
00000390: 414a 7c3c 8376 d53c febd c4bc 8780 47bd
000003a0: 4241 af3d 6f0d 5bbc 356a 2e3e 7052 c13d
000003b0: 8964 24bc 1e03 e5bd e3f6 523e 89a7 833e
000003c0: da0f 84bb 97e0 f83d 2ccc 08be 7249 8b3d
000003d0: 386e ef3d 3942 4a3b 8d57 8abc adb6 5e3e
000003e0: 7a15 1abd caa0 39bd b334 e53b dbae 92bd
000003f0: 9730 74bb d33a a93b 17c1 8d3d 6fc2 b9be

transformer_encoder.layers.0.linear2.bias f4 [6]
-0.007792366 0.016981686 0.011103246 0.02049886 0.010033483 0.010612318
00000000: 1b57 ffbb 2d1d 8b3c 64ea 353c 3aed a73c
00000010: 7a63 243c 4adf 2d3c

transformer_encoder.layers.0.norm1.weight f4 [6]
1.0733987 1.1332656 1.0285672 0.9547832 1.0623796 1.0078305
00000000: 2165 893f d90e 913f 17a8 833f ac6c 743f
00000010: 0efc 873f 9700 813f

transformer_encoder.layers.0.norm1.bias f4 [6]
0.023623744 0.004959463 0.024062872 -0.0633774 0.002537659 0.043735873
00000000: 9586 c13c fe82 a23b 801f c53c 03cc 81bd
00000010: da4e 263b 6324 333d

transformer_encoder.layers.0.norm2.weight f4 [6]
0.9485019 1.0112646 1.0184077 1.01764 1.0756681 0.9889178
00000000: 05d1 723f 1e71 813f 2f5b 823f 0742 823f
00000010: 7eaf 893f b829 7d3f

transformer_encoder.layers.0.norm2.bias f4 [6]
0.04008198 -0.03580489 0.0047416724 -0.06955833 -0.088586606 0.036799747
00000000: 012d 243d 26a8 12bd 0860 9b3b 9974 8ebd
00000010: e56c b5bd 55bb 163d

transformer_encoder.layers.1.self_attn.in_proj_weight f4 [18, 6]
0.43368033 -0.20553955 -0.3772753 -0.08782991 -0.36082968 0.47631878 -0.33954945 0.2995683
0.05973078 -0.09549806 0.5073107 -0.19606997 0.05388559 0.18385303 -0.46820375 0.206877
-0.44472992 -0.39216843 0.24080317 -0.16019808 0.38122833 0.38107064 -0.35432065 -0.14807792
-0.4002518 0.75100905 -0.79973674 0.5623706 -0.10122136 0.18373734 -0.20129865 0.08377503
-0.11216706 -0.002382005 -0.16220307 -0.17252976 0.112193145 -0.053835765 -0.35256773 0.27063513
0.1623954 -0.62850064 0.37751165 0.47511628 0.07309246 -0.22614168 0.18392357 0.32186702
0.18350767 0.46610326 -0.21161705 -0.47545314 0.17594095 0.12410957 -0.15758635 0.45728356
0.08095035 -0.33699283 -0.33944377 0.16832738 0.2604541 0.13964415 -0.35484812 0.05171327
-0.14498591 0.07842698 -0.19244026 0.32265937 0.38096425 -0.2899802 -0.53353775 0.34295106
0.021464152 -0.34761316 -0.42922366 0.030156193 0.07781159 0.5841986 0.13409176 0.019585101
-0.18231612 0.035251826 -0.37757662 0.084177315 0.16271715 0.02193035 -0.08619817 0.32819265
-0.42756212 -0.406855 -0.015680868 -0.40886334 0.06013226 0.42918012 -0.04403187 0.10863481
-0.024841145 0.02927687 0.15521292 -0.10658889 0.37877652 0.21961746 0.43328074 0.17542417
-0.43826464 -0.42418033 0.074244924 -0.37286192
00000000: 590b de3e f678 52be 3a2a c1be 2be0 b3bd
00000010: abbe b8be 0ee0 f33e 6dd9 adbe 0461 993e
00000020: 43a8 743d 7d94 c3bd 1ddf 013f 91c6 48be
00000030: 23b7 5c3d f843 3c3e 67b8 efbe 90d7 533e
00000040: a4b3 e3be 4dca c8be 1b95 763e f70a 24be
00000050: 5c30 c33e b11b c33e 8469 b5be bda1 17be
00000060: ceed ccbe 2142 403f 8cbb 4cbf 85f7 0f3f
00000070: 254d cfbd a425 3c3e 3c21 4ebe 3e92 ab3d
00000080: d8b7 e5bd 6a1b 1cbb 9018 26be a4ab 30be
00000090: 85c5 e53d e482 5cbd c283 b4be b090 8a3e
000000a0: fb4a 263e 6be5 20bf 3549 c13e 7142 f33e
000000b0: 80b1 953d af91 67be 7656 3c3e c1cb a43e
000000c0: 6fe9 3b3e 16a5 ee3e 24b2 58be 986e f3be
000000d0: dd29 343e 292d fe3d 515e 21be 1221 ea3e
000000e0: 4cc9 a53d 538a acbe 93cb adbe 035e 2c3e
000000f0: 3d5a 853e e0fe 0e3e a7ae b5be 4bd1 533d
00000100: 3077 14be 539e a03d 0f0f 45be 9c33 a53e
00000110: bf0d c33e 4978 94be ee95 08bf 4897 af3e
00000120: 97d5 af3c 5afa b1be 34c3 dbbe 1f0a f73c
00000130: af5b 9f3d 0a8e 153f 5a4f 093e ef70 a03c
00000140: 14b1 3abe 3864 103d b951 c1be 2865 ac3d
00000150: 539f 263e 47a7 b33c ab88 b0bd de08 a83e
00000160: 6ce9 dabe 4c4f d0be 2a75 80bc 8956 d1be
00000170: 3f4d 763d 7fbd db3e c35a 34bd ed7b de3d
00000180: a87f cbbc 0cd6 ef3c 23f0 1e3e 474b dabd
00000190: ffee c13e 66e3 603e f9d6 dd3e 65a2 333e
000001a0: 3964 e0be 2a2e d9be b90d 983d c2e7 bebe

transformer_encoder.layers.1.self_attn.in_proj_bias f4 [18]
-0.067104325 -0.06822651 0.1263878 0.09595729 0.27255756 -0.11402073 0.002080073 -0.00010507669
-0.000766648 4.166765e-05 0.00065409695 0.00057184265 -0.0040185573 0.02841991 -0.06865971 0.0406032
0.023700723 0.015533254
00000000: fe6d 89bd 57ba 8bbd ce6b 013e 4185 c43d
00000010: aa8c 8b3e b383 e9bd d651 083b 9e5c dcb8
00000020: e0f8 48ba 4cc4 2e38 b477 2b3a b6e7 153a
00000030: 1aae 83bb dfd0 e83c 769d 8cbd 8b4f 263d
00000040: 0528 c23c 307f 7e3c

transformer_encoder.layers.1.self_attn.out_proj.weight f4 [6, 6]
-0.075001605 0.40143862 -0.29323226 0.20966396 0.09228631 0.115909055 0.47281802 -0.007923935
0.45838153 0.6217433 0.197817 -0.29883942 -0.06116925 -0.23377962 -0.33482477 -0.3353097
-0.33573923 -0.11774235 -0.39081097 -0.34787214 0.1604924 -0.14362183 0.053212985 -0.12838115
-0.46309945 0.055304587 -0.04381804 0.049974937 -0.3694748 -0.6272643 -0.45288944 0.06385894
-0.3890432 -0.16912207 0.1325404 0.07130784
00000000: 719a 99bd 5d89 cd3e 8a22 96be 26b2 563e
00000010: 9b00 bd3d ba61 ed3d 3415 f23e 64d3 01bc
00000020: fcb0 ea3e 922a 1f3f 8a90 4a3e 7b01 99be
00000030: 9c8c 7abd ed63 6fbe 276e abbe b7ad abbe
00000040: 03e6 abbe e722 f1bd 6018 c8be 4c1c b2be
00000050: 1f58 243e 9a11 13be dcf5 593d 5976 03be
00000060: 5f1b edbe 1087 623d 8c7a 33bd 85b2 4c3d
00000070: cd2b bdbe 6594 20bf 20e1 e7be 7ac8 823d
00000080: ac30 c7be 562e 2dbe acb8 073e d809 923d

transformer_encoder.layers.1.self_attn.out_proj.bias f4 [6]
0.06172824 0.03883673 0.01767591 -0.0756829 -0.067265235 0.10520779
00000000: c0d6 7c3d 4313 1f3d 12cd 903c a3ff 9abd
00000010: 5bc2 89bd 2f77 d73d

transformer_encoder.layers.1.linear1.weight f4 [2048, 6]
-0.13632253 -0.31553492 0.36739498 0.29597062 -0.23963659 -0.029702323 -0.34158012 0.13583267
0.018407276 -0.32060075 -0.1349384 -0.006134968 0.3587494 0.28465623 0.33411968 -0.2879219
-0.41384894 0.089058384 0.3615045 -0.30358025 0.46862277 0.12083305 0.15926641 -0.17200898
-0.37641317 -0.110179745 -0.27997372 -0.43081594 -0.1488626 -0.22507441 -0.1699488 -0.1772758
0.39733618 0.045594364 -0.062692724 0.22388846 0.04269427 0.16124526 -0.2641345 -0.07371913
-0.062704965 -0.28458902 0.35326928 0.021183679 0.34867942 0.055469885 0.36616796 0.33366334
-0.24028695 -0.12274004 -0.30740094 -0.0742186 0.19384307 0.17656086 -0.18998197 -0.38705546
-0.067855366 -0.2819085 -0.1052585 -0.2691275 -0.007172899 -0.29036078 -0.2561262 -0.24216782
-0.14772607 -0.0944001 -0.3649432 -0.21859434 -0.30123687 0.123966925 0.455224 -0.042774957
0.38137966 0.111403756 -0.40348274 -0.1633604 -0.08059146 -0.3607689 -0.04207194 -0.20425166
-0.18730748 -0.0061100046 -0.01989205 0.4580791 -0.43305537 -0.071245134 -0.24650444 -0.11646808
-0.25876623 -0.020464446 -0.34070182 0.47220114 -0.30103377 -0.31817284 0.10339071 0.33989465
0.06406887 0.35099375 -0.09795052 -0.10972588 -0.35271436 0.08080102 -0.121279545 -0.3379512
0.02945625 0.052782398 0.022085456 0.1007537 -0.28463623 0.09618168 -0.05405878 0.0028915752
-0.17539024 -0.29382768 -0.015786171 0.3569533 -0.41786864 -0.02544022 0.07543531 -0.04954288
-0.12351357 0.20954278 -0.045535933 -0.094579756 0.50601536 0.04825432 0.13836148 -0.31899634
-0.354347 -0.17760015 0.12133441 0.026485119 -0.27049902 0.17897026 0.22318272 0.27986735
0.1709154 0.1935014 0.326407 0.33766365 -0.4957 -0.3170775 0.17435515 -0.17620802
-0.30776376 0.08606588 0.17087133 0.105178565 0.4381666 -0.2149338 -0.056184687 0.19759619
0.3675603 0.106824495 -0.27645442 0.014016637 -0.29106212 -0.28846103 -0.22601002 -0.32402658
-0.15692708 0.16088557 0.070516795 0.24436055 0.35095507 -0.21278054 0.18834998 0.122134775
-0.037218813 -0.20504682 -0.38272688 0.01023734 0.3749298 -0.090618975 0.30486822 -0.27112734
-0.29716337 0.08155913 -0.30869964 -0.22157034 0.29462713 0.33364534 0.4040805 -0.17763895
0.35857645 0.0361896 -0.26719418 -0.3279263 -0.07744439 -0.027932603 0.069414996 -0.3633285
0.11329365 -0.4776201 0.0880079 -0.26528683 0.0725938 -0.21115974 0.09639359 -0.054392636
0.39341372 -0.47243315 -0.019586448 -0.32944593 0.00029343212 -0.108134754 0.17655435 0.23884413
-0.17650907 0.10803918 -0.32880214 -0.45110583 -0.32804832 -0.2661505 -0.39244553 0.37374824
0.26366103 0.18405123 0.15431988 -0.3520921 -0.3392519 -0.3695779 0.010122439 0.30562258
-0.2663481 0.37107873 0.33010828 0.21465924 -0.21173632 -0.18986677 -0.26662385 0.048543166
-0.14575069 -0.28108755 0.17357777 0.413432 0.3492303 -0.18359262 -0.28358686 -0.2875308
-0.10299617 -0.34494582 -0.34153342 -0.5201193 0.3714816 0.044537887 -0.12906234 0.27362347
0.09044842 0.18409124 0.069051765 0.42808235 -0.3444745 0.4245071 0.11949921 -0.39879066
00000000: 2298 0bbe cb8d a1be 321b bc3e 7689 973e
00000010: 4b63 75be 4952 f3bc 97e3 aebe b817 0b3e
00000020: dbca 963c c825 a4be 4b2d 0abe d707 c9bb
00000030: 00ae b73e 76be 913e bc11 ab3e 806a 93be
00000040: 02e4 d3be 3e64 b63d 1e17 b93e df6e 9bbe
00000050: 53ef ef3e 5177 f73d bc16 233e 1f23 30be
00000060: 3ab9 c0be eba5 e1bd b758 8fbe e893 dcbe
00000070: 706f 18be e879 66be 0f07 2ebe ca87 35be
00000080: a66f cb3e 28c1 3a3d 0b65 80bd 0443 653e
00000090: 30e0 2e3d 7a1d 253e a33c 87be 0efa 96bd
000000a0: 766b 80bd a7b5 91be b6df b43e 6589 ad3c
000000b0: 1c86 b23e 6434 633d 5e7a bb3e ecd5 aa3e
000000c0: c80d 76be 215f fbbd a863 9dbe ecff 97bd
000000d0: cc7e 463e 5fcc 343e a28a 42be 222c c6be
000000e0: c1f7 8abd 5056 90be c591 d7bd 14cb 89be
000000f0: a30a ebbb 2baa 94be f922 83be d7fa 77be
00000100: 8145 17be d754 c1bd d6d9 babe 32d7 5fbe
00000110: b83b 9abe 5fe2 fd3d 1f13 e93e cb34 2fbd
00000120: 3244 c33e a727 e43d 4a95 cebe f347 27be
00000130: 230d a5bd b4b6 b8be a053 2cbd 5927 51be
00000140: 88cd 3fbe 6f36 c8bb a7f4 a2bc 5889 ea3e
00000150: 6fb9 ddbe f8e8 91bd a96b 7cbe d186 eebd
00000160: 027d 84be 0ea5 a7bc 7870 aebe 59c4 f13e
00000170: 1921 9abe 8de7 a2be 82be d33d ac06 ae3e
00000180: 8a36 833d 74b5 b33e 489a c8bd f6b7 e0bd
00000190: fa96 b4be 017b a53d 6961 f8bd f107 adbe
000001a0: 3c4e f13c 5b32 583d 8fec b43c f557 ce3d
000001b0: d7bb 91be e7fa c43d bd6c 5dbd 9580 3d3b
000001c0: 8099 33be 9570 96be 0052 81bc 95c2 b63e
000001d0: e1f2 d5be 0268 d0bc d47d 9a3d 7aed 4abd
000001e0: aff4 fcbd 6292 563e e383 3abd 08b3 c1bd
000001f0: 398a 013f 52a6 453d a2ae 0d3e 7d53 a3be
00000200: f86c b5be d0dc 35be 2d7e f83d 52f7 d83c
00000210: d97e 8abe fb43 373e 038a 643e c64a 8f3e
00000220: 7204 2f3e 3b25 463e d11e a73e 40e2 ac3e
00000230: 64cc fdbe fb57 a2be 288a 323e e06f 34be
00000240: 3693 9dbe 4f43 b03d e5f8 2e3e dc67 d73d
00000250: 5f57 e03e 9b17 5cbe ea21 66bd a856 4a3e
00000260: dd30 bc3e cdc6 da3d 6f8b 8dbe 09a6 653c
00000270: 1806 95be 2ab1 93be 2c6f 67be d0e6 a5be
00000280: 7eb1 20be 30bf 243e 1c6b 903d a739 7a3e
00000290: 62b0 b33e 24e3 59be d1de 403e cc21 fa3d
000002a0: c172 18bd cbf7 51be c7f4 c3be 84ba 273c
000002b0: ccf6 bf3e 7196 b9bd b017 9c3e 34d1 8abe
000002c0: cc25 98be 7908 a73d e10d 9ebe 56e3 62be
000002d0: 5ed9 963e 90d3 aa3e a4e3 ce3e fce6 35be
000002e0: 5597 b73e 8c3b 143d adcd 88be f5e5 a7be
000002f0: 2a9b 9ebd ead2 e4bc 7329 8e3d 3106 babe
00000300: 8006 e83d 9f8a f4be 7c3d b43d add3 87be
00000310: 0fac 943d 423a 58be 016a c53d d0ca 5ebd
00000320: 866d c93e c2e2 f1be c273 a0bc 23ad a8be
00000330: cbd7 9939 c175 ddbd aaca 343e 8e93 743e
00000340: cbbe 34be a543 dd3d c158 a8be 58f7 e6be
00000350: f3f5 a7be e144 88be 9fee c8be ee5b bf3e
00000360: 94fe 863e ed77 3c3e 0806 1e3e 6a45 b4be
00000370: 6db2 adbe 5139 bdbe 96d8 253c 907a 9c3e
00000380: c75e 88be 08fe bd3e f403 a93e a2cf 5b3e
00000390: 68d1 58be 6f6c 42be ec82 88be 33d5 463d
000003a0: ab3f 15be b5ea 8fbe 5fbe 313e 5cad d33e
000003b0: 50ce b23e b4ff 3bbe 4c32 91be 3d37 93be
000003c0: a8ef d2bd bd9c b0be 78dd aebe 8a26 05bf
000003d0: d632 be3e 5c6d 363d eb28 04be 6018 8c3e
000003e0: 053d b93d 6a82 3c3e 036b 8d3d 9c2d db3e
000003f0: f65e b0be ff58 d93e 00bc f43d 4a2e ccbe

transformer_encoder.layers.1.linear1.bias f4 [2048]
0.21012546 -0.006510729 0.22198614 0.1229894 0.05233018 0.059133917 0.07764001 0.34689894
0.06851504 0.07865589 0.2438347 0.0021079106 -0.02541101 -0.40467852 -0.33652765 -0.35448357
-0.11042807 0.079412326 -0.12152657 0.025042277 0.067427345 0.15803775 -0.36150327 0.4148677
0.1787603 -0.09813436 0.2560358 0.31394342 -0.33358175 0.03676354 0.054639407 -0.30044165
-0.21684618 -0.14236546 0.2758088 -0.08051771 -0.0378396 -0.3142016 -0.07154412 -0.29848832
-0.3660333 0.15862145 0.10076429 -0.38194105 0.265731 0.07246183 0.031329073 0.13458961
-0.47950757 0.112638324 -0.17789482 -0.25033647 0.33211184 0.10170546 -0.20993707 -0.07269421
0.0388724 0.06340636 0.29270673 0.34188095 0.0368086 0.18138267 0.024358556 -0.3098241
-0.2378352 0.30714026 -0.3255022 0.42253256 0.053524297 0.22651312 -0.03178018 -0.12341176
-0.016006019 -0.43115073 -0.21509267 -0.38360357 0.07396564 -0.23234324 0.3097297 0.19997546
-0.16437529 0.07176364 -0.45197046 -0.25042054 -0.3456875 0.2978774 0.23389862 0.0061491043
0.23492143 0.038987543 0.22229883 -0.09897329 -0.0967143 0.32108474 -0.099054776 -0.52287656
-0.41262993 0.08491261 -0.011835772 0.020323733 -0.21708088 0.03119854 0.27120888 0.09919199
0.0037897131 -0.18969029 0.17409386 -0.06796784 0.09612527 -0.14784104 -0.042972095 -0.1372229
-0.24023429 0.07378943 0.15279867 -0.30283827 -0.45168075 0.03672971 -0.39467862 -0.091533296
-0.03543614 0.31816605 -0.13116734 0.0019674932 -0.20985644 0.20316143 0.27748078 -0.22958514
0.013348067 -0.21204524 0.32537207 -0.2199544 -0.101397775 -0.24582833 0.017030345 -0.2307926
-0.11165495 0.31181672 -0.0333525 -0.06062702 0.13603933 0.13928348 0.041344356 0.046937004
-0.06330282 0.20370427 0.10758388 -0.091195434 -0.0741891 0.077997275 -0.04162484 -0.2044344
-0.37923706 0.2605117 0.104901195 -0.29642567 -0.33564004 -0.20239471 0.16166613 -0.0545675
-0.28888902 -0.35909003 0.29777458 0.2430946 -0.33103815 0.38574472 -0.015849397 -0.034140557
0.37550202 -0.45269546 -0.08375769 0.24236515 0.2625728 -0.31087297 -0.26984277 -0.36938375
-0.12169146 -0.015967352 0.1048152 -0.20955333 -0.15879753 0.008725477 0.20719971 -0.07126982
-0.22275013 0.23547687 -0.27344558 -0.18244338 -0.11837564 0.16944003 0.20125602 0.027634265
-0.42410877 0.2639716 -0.19667816 -0.26731735 -0.13789888 -0.050690908 0.035219565 -0.036724128
0.17289412 0.2830897 0.21024524 0.026564572 -0.33427456 -0.035490617 0.2559336 -0.16988376
0.15931371 -0.32396573 0.062148724 0.2979598 -0.15105663 -0.014184373 0.008541288 0.2781979
0.011015536 -0.1904281 -0.101983145 0.13365208 0.1199948 -0.32373977 -0.030280938 0.18164809
-0.12957558 -0.11823181 0.20264527 -0.3018872 0.03904719 0.3069132 0.03388861 0.21932015
-0.32180408 -0.14236104 -0.23814477 0.0053444314 0.3240829 -0.079534754 -0.21944885 -0.33683977
0.009180294 -0.119931005 -0.37213185 -0.33898103 -0.00079182436 0.053252634 0.20412187 0.18335955
0.25583693 -0.25648 -0.25176919 -0.23107822 -0.06341862 0.29783976 0.013595765 0.21411556
00000000: 212b 573e f457 d5bb 5650 633e dee1 fb3d
00000010: 2c58 563d 6836 723d ba01 9f3d bd9c b13e
00000020: 9d51 8c3d 5716 a13d ceaf 793e df24 0a3b
00000030: c02a d0bc 0632 cfbe 5a4d acbe df7e b5be
00000040: 1d28 e2bd eea2 a23d ece2 f8bd 7625 cd3c
00000050: 5917 8a3d a6d4 213e f516 b9be 8a69 d43e
00000060: f10c 373e abfa c8bd 2017 833e 31bd a03e
00000070: 3acb aabe 5e95 163d 92cd 5f3d 7dd3 99be
00000080: ed0c 5ebe 40c8 11be d036 8d3e 78e6 a4bd
00000090: b2fd 1abd 08df a0be b985 92bd 76d3 98be
000000a0: b768 bbbe a96d 223e 825d ce3d c78d c3be
000000b0: e50d 883e de66 943d ea52 003d dcd1 093e
000000c0: 0482 f5be ecae e63d 0f2a 36be 1a2c 80be
000000d0: 900a aa3e f44a d03d bef9 56be b4e0 94bd
000000e0: aa38 1f3d 32db 813d a8dd 953e 050b af3e
000000f0: 9dc4 163d 61bc 393e 988b c73c 44a1 9ebe
00000100: 128b 73be 7d41 9d3e 39a8 a6be 3056 d83e
00000110: 4b3c 5b3d 0ef3 673e ef2b 02bd 4ebf fcbd
00000120: 0e1f 83bc cabf dcbe 4141 5cbe b067 c4be
00000130: 4c7b 973d 63eb 6dbe e494 9e3e 5ec6 4c3e
00000140: ff51 28be d1f8 923d ac68 e7be 1f37 80be
00000150: f4fd b0be 6383 983e 1f83 6f3e 6d7e c93b
00000160: 3e8f 703e 67b1 1f3d 4ea2 633e 82b2 cabd
00000170: 2612 c6bd 3865 a43e 3bdd cabd 3ddb 05bf
00000180: 3b44 d3be aae6 ad3d d3ea 41bc f57d a63c
00000190: 734a 5ebe 1594 ff3c e4db 8a3e 2c25 cb3d
000001a0: d65c 783b 2c3e 42be a945 323e b932 8bbd
000001b0: 53dd c43d a463 17be 8203 30bd 2984 0cbe
000001c0: faff 75be ea1e 973d 4177 1c3e 9e0d 9bbe
000001d0: b342 e7be e471 163d 5113 cabe cf75 bbbd
000001e0: 7c25 11bd a9e6 a23e bb50 06be 0ff1 003b
000001f0: 9be4 56be 8d09 503e f611 8e3e 5e18 6bbe
00000200: dab1 5a3c 6322 59be 2b97 a63e ba3b 61be
00000210: a3a9 cfbd 6cba 7bbe 3983 8b3c e554 6cbe
00000220: 5aab e4bd 71a6 9f3e a29c 08bd 0a54 78bd
00000230: e54d 0b3e 54a0 0e3e b358 293d 0441 403d
00000240: e9a4 81bd da97 503e f054 dc3d acc4 babd
00000250: 74f0 97bd 09bd 9f3d cf7e 2abd 4057 51be
00000260: 5c2b c2be ca61 853e 70d6 d63d 1bc5 97be
00000270: 03d9 abbe 8f40 4fbe ce8b 253e 2c82 5fbd
00000280: 43e9 93be a6da b7be e975 983e caed 783e
00000290: d57d a9be 5580 c53e 98d6 81bc f8d6 0bbd
000002a0: cd41 c03e b3c7 e7be 2789 abbd 922e 783e
000002b0: f16f 863e be2a 9fbe d528 8abe de1f bdbe
000002c0: 5f39 f9bd f7cd 82bc 5aa9 d63d 2695 56be
000002d0: d29b 22be 4ef5 0e3c 292c 543e e9f5 91bd
000002e0: 9c18 64be d920 713e 0f01 8cbe 70d2 3abe
000002f0: ed6e f2bd b081 2d3e 0f16 4e3e 4161 e23c
00000300: c924 d9be 4927 873e 0066 49be d2dd 88be
00000310: 5d35 0dbe 45a1 4fbd 6442 103d 0a6c 16bd
00000320: 280b 313e 22f1 903e 874a 573e f29d d93c
00000330: 0926 abbe 9c5e 11bd bb09 833e 02f6 2dbe
00000340: 2223 233e d6de a5be a98f 7e3d 308e 983e
00000350: 97ae 1abe 9365 68bc c2f0 0b3c f56f 8e3e
00000360: 827a 343c 95ff 42be 8adc d0bd 17dc 083e
00000370: d5bf f53d 38c1 a5be bb0f f8bc f501 3a3e
00000380: 76af 04be 8523 f2bd 3e82 4f3e f690 9abe
00000390: f2ef 1f3d ba23 9d3e c8ce 0a3d 7695 603e
000003a0: 81c3 a4be 18c7 11be 39dc 73be 5720 af3b
000003b0: 32ee a53e 1ee3 a2bd 33b7 60be 4376 acbe
000003c0: f268 163c 639e f5bd 1188 bebe ec8e adbe
000003d0: 6f92 4fba 6f1f 5a3d 5305 513e 9bc2 3b3e
000003e0: 0ffd 823e 5951 83be e4e7 80be c59f 6cbe
000003f0: 9fe1 81bd 747e 983e c6c0 5e3c 1c41 5b3e

transformer_encoder.layers.1.linear2.weight f4 [6, 2048]
-0.0028107886 0.1243155 -0.08502299 0.0067881863 0.09287405 0.0077802436 -0.033009782 0.04757975
0.025280297 -0.05371254 -0.014745905 -0.032553967 0.06470037 0.15262626 0.07256897 -0.07121128
-0.029793983 0.0038679359 -0.02862579 0.022232668 -0.025221337 0.06119787 0.049980816 0.06690884
-0.0060772034 0.00028934804 -0.035387646 0.06046356 0.32813987 -0.035367016 0.01916188 -0.05073016
-0.0652823 0.07677461 -0.01823067 -0.043967415 0.069922194 -0.05598062 -0.021655135 0.10477916
0.2990603 -0.0066481405 0.094227605 0.11044905 -0.059644297 0.0051366016 0.009942244 -0.021521201
-0.017173314 -0.06058544 0.07928174 0.30755523 0.04521539 0.052627802 -0.038666375 0.293295
-0.034107506 -0.055306714 -0.021519834 0.010547263 0.104112536 0.14944503 0.10766085 -0.014315341
0.115719125 0.10861128 0.04567882 0.11630741 -0.0018090837 -0.038728494 0.012412954 -0.051682338
0.004818824 0.09566446 0.025866508 0.20639782 -0.0027674667 0.05114177 0.017658621 0.033230852
0.1414156 0.03538431 0.043736797 0.06370278 -0.02292804 0.0006293173 -0.016347107 -0.010155981
0.057564236 -0.023525013 -0.039575573 -0.04332013 0.065738514 0.05411762 0.07850575 -0.08198499
0.0024797218 0.087970875 0.13603261 0.25829804 -0.0315147 0.009415596 -0.022520756 0.05963323
0.015459557 -0.010336358 -0.01005187 0.03317127 -0.010734315 0.34080303 0.018862052 0.10352273
-0.32704434 0.0661435 0.00410412 -0.19589992 -0.02829811 0.087927125 -0.05525266 0.03422029
-0.06382746 -0.031237777 -0.017741092 0.0853707 0.07413919 -0.08798197 -0.012942238 0.00344079
-0.046048444 0.086394876 -0.009879367 -0.044884354 -0.010797428 0.0037707153 0.009451126 -0.025902426
-0.015527479 0.014446161 -0.010806959 -0.014354737 0.033380948 -0.008972192 -0.052371185 0.1814345
0.09701311 0.021409577 -0.014172849 0.21715038 -0.015161597 -0.015835555 0.19430915 0.0046491534
0.036286723 0.0774367 -0.0065038283 0.04097156 -0.18711439 -0.026984077 -0.0222342 0.021187928
0.075690895 -0.019200146 -0.019644314 0.0757756 0.11070965 0.030678432 -0.03711683 -0.048601244
0.07937498 -0.01077436 -0.010708464 -0.019716706 -0.0069095143 0.4111947 0.10299069 0.1375781
0.0153064225 0.017631203 0.079247266 -0.058891725 0.0136116715 -0.022539843 -0.034549415 0.22068216
-0.06270296 -0.0026508763 0.04759371 0.08405521 0.23422539 -0.018728953 0.07288585 -0.02705576
-0.023710834 0.039609708 0.011993243 -0.06635713 -0.035935696 -0.08581352 -0.008222723 -0.031510755
0.0055255475 -0.0029939613 -0.04346067 0.03204714 0.08247385 0.042679537 -0.021921137 0.16840193
-0.113721676 -0.005531804 -0.06483965 -0.027001835 -0.03678544 0.12077418 -0.026517872 0.114026174
0.013431571 -0.29290348 0.1151271 0.068712726 -0.013873067 0.014712381 0.0231148 0.0028484284
0.17116651 -0.013002667 0.067315005 -0.029488662 0.053487696 -0.03576771 -0.05839703 -0.021139646
-0.039589524 0.047600314 0.09470693 0.09423152 -0.0063382722 0.09346602 -0.022616094 0.16915649
-0.012252798 0.017995534 0.12752533 0.0491298 -0.081455305 0.12984516 0.0069701383 0.009160139
0.002291953 -0.26469752 0.060193934 -0.120657235 0.09757849 0.0059638484 -0.019563843 0.03250941
00000000: 3535 38bb 2099 fe3d 8920 aebd 6f6f de3b
00000010: c034 be3d 6af1 fe3b 4435 07bd fce2 423d
00000020: a018 cf3c ae01 5cbd cf98 71bc 4f57 05bd
00000030: a181 843d 0f4a 1c3e 0a9f 943d 38d7 91bd
00000040: 8312 f4bc 327d 7d3b a280 eabc 4921 b63c
00000050: fa9c cebc 9eaa 7a3d afb8 4c3d 8007 893d
00000060: 4723 c7bb a3b3 9739 a3f2 10bd a3a8 773d
00000070: f301 a83e 01dd 10bd 60f9 9c3c 6eca 4fbd
00000080: bab2 85bd 023c 9d3d 7c58 95bc 2d17 34bd
00000090: 5e33 8f3d ef4b 65bd 1c66 b1bc 7596 d63d
000000a0: 6f1e 993e a5d8 d9bb 67fa c03d 1d33 e23d
000000b0: 944d 74bd f050 a83b cbe4 223c 3b4d b0bc
000000c0: 0daf 8cbc 7028 78bd 775e a23d e177 9d3e
000000d0: c633 393d 4090 573d a260 1ebd c32a 963e
000000e0: 50b4 0bbd 4b89 62bd 5d4a b0bc 6dce 2c3c
000000f0: f438 d53d 1e08 193e 4b7d dc3d e48a 6abc
00000100: 26fe ec3d 976f de3d b719 3b3d 9432 ee3d
00000110: c71e edba c5a1 1ebd b45f 4b3c dcb0 53bd
00000120: 3ae7 9d3b baeb c33d 00e6 d33c f359 533e
00000130: 635e 35bb 087a 513d d0a8 903c 131d 083d
00000140: 40cf 103e 23ef 103d 5b25 333d 9a76 823d
00000150: 96d3 bbbc c5f8 243a 5eea 85bc 4665 26bc
00000160: 7ac8 6b3d 87b7 c0bc ff19 22bd 7370 31bd
00000170: eaa1 863d 70aa 5d3d 9fc7 a03d bfe7 a7bd
00000180: d482 223b 132a b43d 224c 0b3e a43f 843e
00000190: 8f15 01bd df43 1a3c 737d b8bc f941 743d
000001a0: 154a 7d3c d459 29bc 99b0 24bc 99de 073d
000001b0: fbde 2fbc bc7d ae3e 9784 9a3c ba03 d43d
000001c0: 5b72 a7be 3e76 873d db7b 863b fd99 48be
000001d0: 70d1 e7bc 2313 b43d 9d50 62bd 932a 0c3d
000001e0: f9b7 82bd 5ee6 ffbc c455 91bc d5d6 ae3d
000001f0: 4ad6 973d e42f b4bd ae0b 54bc e17e 613b
00000200: 4b9d 3cbd ccef b03d 12dd 21bc a8d8 37bd
00000210: b2e7 30bc 1b1e 773b e5d8 1a3c 5331 d4bc
00000220: f866 7ebc 97af 6c3c ac0f 31bc 2130 6bbc
00000230: 76ba 083d 1a00 13bc 2b83 56bd f7c9 393e
00000240: cfae c63d 2363 af3c 3d35 68bc ab5c 5e3e
00000250: 5968 78bc 91b9 81bc faf8 463e ed57 983b
00000260: 63a1 143d 2297 9e3d 111e d5bb cbd1 273d
00000270: ea9a 3fbe b60d ddbc 7f24 b6bc 4e92 ad3c
00000280: d403 9b3d a049 9dbc 1ded a0bc 3d30 9b3d
00000290: bebb e23d 5651 fb3c d107 18bd 1912 47bd
000002a0: 598f a23d f186 30bc 8e72 2fbc ee84 a1bc
000002b0: 3569 e2bb 1d88 d23e c8ec d23d 46e1 0c3e
000002c0: cac7 7a3c 506f 903c 644c a23d 7338 71bd
000002d0: 7d03 5f3c 7aa5 b8bc b083 0dbd 81fa 613e
000002e0: 696a 80bd 53ba 2dbb 9ff1 423d 2325 ac3d
000002f0: c8d8 6f3e 766d 99bc 2d45 953d 0ba4 ddbc
00000300: 393d c2bc ca3d 223d 4f7f 443c 3fe6 87bd
00000310: 4f31 13bd 00bf afbd 9ab8 06bc 6c11 01bd
00000320: a70f b53b 5636 44bb d103 32bd dd43 033d
00000330: 0de8 a83d bdd0 2e3d f593 b3bc 8e71 2c3e
00000340: e9e6 e8bd 2344 b5bb a7ca 84bd f432 ddbc
00000350: 54ac 16bd 7458 f73d 023c d9bc 8e86 e93d
00000360: 1810 5c3c 72f7 95be c2c7 eb3d 42b9 8c3d
00000370: dc4b 63bc 330c 713c 405b bd3c b3ac 3a3b
00000380: 4646 2f3e 2309 55bc 73dc 893d 3592 f1bc
00000390: ea15 5b3d 2a81 12bd b931 6fbd 0d2d adbc
000003a0: a028 22bd 8cf8 423d b5f5 c13d 75fc c03d
000003b0: 48b1 cfbb 1d6b bf3d 6345 b9bc 5c37 2d3e
000003c0: f6bf 48bc 5f6b 933c 0096 023e 543c 493d
000003d0: 0ad2 a6bd 21f6 043e c265 e43b 6814 163c
000003e0: 9734 163b 6f86 87be ea8d 763d 241b f7bd
000003f0: 3bd7 c73d 636c c33b 5a44 a0bc 9628 053d

transformer_encoder.layers.1.linear2.bias f4 [6]
-0.006844571 0.018456802 0.0068503376 0.028903658 0.0053329486 0.016407924
00000000: 6c48 e0bb b832 973c cc78 e03b 5dc7 ec3c
00000010: 04c0 ae3b e969 863c

transformer_encoder.layers.1.norm1.weight f4 [6]
1.0491549 1.1156094 1.0519166 0.9619187 1.004921 0.9423441
00000000: b54a 863f 4acc 8e3f 34a5 863f 4e40 763f
00000010: 40a1 803f 773d 713f

transformer_encoder.layers.1.norm1.bias f4 [6]
0.04677344 0.022823494 -0.011802005 -0.11161473 0.004329039 0.08709772
00000000: 8295 3f3d 56f8 ba3c 325d 41bc 4396 e4bd
00000010: 9cda 8d3b 4a60 b23d

transformer_encoder.layers.1.norm2.weight f4 [6]
1.1763 0.79918706 1.1007463 1.3173033 1.1023097 0.90251464
00000000: 0091 963f 8697 4c3f 41e5 8c3f 659d a83f
00000010: 7c18 8d3f 330b 673f

transformer_encoder.layers.1.norm2.bias f4 [6]
-0.02779392 -0.030861778 0.018785818 -0.024616115 -0.0100176055 0.033347916
00000000: 13b0 e3bc d7d1 fcbc b7e4 993c bca7 c9bc
00000010: e220 24bc d397 083d
