DU_model/Transformer/Archive/best_model_prod2_tr.3.40.pth (torch, 474174 bytes, 29 tensors)

norm.weight f4 [6]
00000000: 0000 803f 0000 803f 0000 803f 0000 803f
00000010: 0000 803f 0000 803f
1.0 1.0 1.0 1.0 1.0 1.0

norm.bias f4 [6]
00000000: 0000 0000 0000 0000 0000 0000 0000 0000
00000010: 0000 0000 0000 0000
0.0 0.0 0.0 0.0 0.0 0.0

transformer_encoder.layers.0.self_attn.in_proj_weight f4 [18, 6]
00000000: 5dbd fa3e 6dc1 f2be 6c88 dd3e 88d0 df3c
00000010: f0dd d9be ea34 1c3e b098 d43d 156c b4bd
00000020: 43ff 97be 9abf 323e 7e50 323e ec68 56be
00000030: 2563 69be 1e08 7abe 4809 7b3e 3ff6 f8be
00000040: 4b4e 09ba 3180 d6be 67d3 e83d 9483 01bf
00000050: 0208 aa3c 6e00 9e3e cca6 c43e a1f5 9cbe
00000060: edde e03e 5d0f c03e 2609 66bd 2a3a d6bd
00000070: aa76 613e b888 a9be 0332 e33e 56be c2be
00000080: d5cb debe 6efd bb3d 632c f83d 5449 113e
00000090: b9aa d0be 0145 8cbe 421a 4e3e 613c ca3e
000000a0: fa64 f73e 0c8c 7abd 9989 e3be 9018 e03d
000000b0: 2e5a 913e 9eed f63e b69e 7abd 11a3 bfbb
000000c0: d7bb c93e 90c7 22be ddda db3e 3651 b3be
000000d0: 2cbf 633e 8136 76be dce6 a23e e1ed da3d
000000e0: 2875 6e3d b3db 29be d296 ea3e 2297 b6be
000000f0: ae39 b73e 7d47 873d d22e b13d d3be 5d3d
00000100: a8bf d3be 3284 b13d 00d9 f6be e568 a63e
00000110: 8552 d53e eb0b 093e 3d55 6c3e 8721 80bd
00000120: a945 0bbf 932e 083f 4ede e93e 5843 b3be
00000130: 40e0 c83e f060 00be fe3e c7bf 4b24 2f3f
00000140: 1151 253d 50f5 7e3d 3076 8dbe c573 223f
00000150: a377 63bd db35 dd3e 53af 643f b545 5e3e
00000160: 0d1f d43e 42cc b9be 1d86 b4bf 02a2 43bf
00000170: 617b 2cbf b982 cb3e 9d7a 66bf d2df febe
00000180: 05aa e53e 57a5 09bf 75d1 f2be 1e4b a93d
00000190: d166 a1be aa1b d7be 9dfb 3d3f 50ff 923d
000001a0: 0e02 39bf e615 98be 9295 01bf 57a6 9fbd
0.48972598 -0.47413197 0.43268144 0.027321115 -0.42552137 0.1525456 0.10380685 -0.088096775
-0.29686937 0.17455903 0.17413518 -0.20938462 -0.22791727 -0.24417159 0.2451526 -0.4862537
-0.0005237802 -0.41894677 0.11368447 -0.505914 0.020755772 0.30859703 0.38408506 -0.3065615
0.4392008 0.3751172 -0.05616107 -0.10460313 0.22017923 -0.3311212 0.44374093 -0.3803584
-0.43514886 0.09179197 0.12117841 0.14188129 -0.4075525 -0.27396396 0.20127204 0.3949919
0.48319227 -0.061168715 -0.44440916 0.10942185 0.28389114 0.48228163 -0.061186515 -0.0058482965
0.39401123 -0.1589644 0.42940417 -0.35022897 0.22240895 -0.24044229 0.31816757 0.10689903
0.058217198 -0.16587715 0.45818192 -0.3566218 0.35786194 0.06605432 0.086515084 0.054137062
-0.4135716 0.086677924 -0.48212433 0.32501903 0.4166452 0.13383453 0.23079391 -0.06256395
-0.5440317 0.53196067 0.45677418 -0.35012317 0.3923359 -0.12536979 -1.5566099 0.68414754
0.040360514 0.062245667 -0.27629232 0.634579 -0.055534016 0.4320515 0.89330024 0.21706279
0.4142994 -0.3628865 -1.4103428 -0.7641908 -0.6737576 0.3974817 -0.90030843 -0.49780136
0.44856277 -0.53767914 -0.47425428 0.082662806 -0.31523755 -0.42013294 0.74212056 0.07177603
-0.7226876 -0.29704207 -0.5061885 -0.07795399

transformer_encoder.layers.0.self_attn.in_proj_bias f4 [18]
00000000: b378 aebb 5adf e0ba 98f6 b0bc 89e4 dcbc
00000010: c5df 1bbd 5c99 4abd bdc3 ce3c c515 613d
00000020: a855 afbd 5cfc ae3d 4987 d13c 9a58 28bd
00000030: 702d 113f b68d c73e d244 0f3f 5196 06bf
00000040: 1985 0bbf ecec d8be
-0.005324447 -0.0017156408 -0.02160196 -0.026964443 -0.0380552 -0.04946266 0.02523982 0.0549524
-0.085612595 0.085442275 0.025577204 -0.041100122 0.5670996 0.38975304 0.55964386 -0.52573115
-0.54499966 -0.42368257

transformer_encoder.layers.0.self_attn.out_proj.weight f4 [6, 6]
00000000: 5101 09be 0510 4d3e 8dbc 4f3e ce94 e13e
00000010: 5124 3ebe 1a0c 1c3e a45e 4f3b 3a6a fa3d
00000020: 5e29 f33c 91c3 94be fcb2 bcbe 8dab dabe
00000030: 4f3b d4bd 6d78 833e 2aa7 c73d 8aff e43d
00000040: 5bc2 18bd c48a bdbe a372 80bd 39dc b4be
00000050: c6d8 0d3e bf53 923d 15f3 f8be daba ba3d
00000060: c2ab 4bbe 3155 54be 3523 8ebe 420e bc3e
00000070: f72d 243e 78b2 54be 25c1 a6be 7953 1b3e
00000080: 67b1 febe b58a 9fbc 991f e43d 15e2 f93c
-0.13379408 0.20025642 0.2028677 0.4405884 -0.18568541 0.15238991 0.0031642104 0.12227292
0.029682811 -0.29055455 -0.36855304 -0.42709008 -0.10362875 0.25677815 0.09748681 0.11181553
-0.037294727 -0.37019932 -0.06271865 -0.35324267 0.13852224 0.071448795 -0.48622957 0.0911767
-0.19889739 -0.20735623 -0.27761236 0.36729628 0.16033159 -0.20771205 -0.32569233 0.15168561
-0.49744722 -0.01947532 0.11138839 0.030503312

transformer_encoder.layers.0.self_attn.out_proj.bias f4 [6]
00000000: 623c e9be ad7c be3e 9010 f13e ca3d 543e
00000010: c815 1ebf a71c adbe
-0.4555388 0.37204495 0.4708295 0.20726696 -0.61751986 -0.33810923

transformer_encoder.layers.0.linear1.weight f4 [2048, 6]
00000000: e462 813d 0575 9ebe 41af d83c a908 123d
00000010: 7cb2 353e 0821 27be 485e efbe a79f 883e
00000020: 8f50 85bc e245 aabc 18ea b2be 996c 6b3d
00000030: 4775 33be bc3a b03d 3585 a7bd 8452 873e
00000040: 6eee f53e 179b d43d 3eea 133f a0c1 7b3e
00000050: e3a2 94be c140 d93d e467 e83d c918 8238
00000060: 2f15 bd3e b453 a8be 45ff 0b3e 8180 793b
00000070: 4196 5cbe b6b6 643e f025 683e 168d 85be
00000080: 5bc7 bebb d880 9fbe 2907 70be bbbc 823e
00000090: 7877 67bd 1ea0 013f 4b42 9b3d 8094 d3be
000000a0: 0603 d53e a043 b43d ee04 833e 807e 813c
000000b0: 8b8f a23d 6784 9c3e 67d7 bb3e 50fa cd3e
000000c0: 14f2 f03e 27b3 8cbe c081 d4be c8e5 d8bc
000000d0: 11f1 96be 86d5 4ebe f407 59be ed20 73bd
000000e0: 26fb e23e 4ee7 93bb 1c23 71be 03d1 c83e
000000f0: 8dd4 803e 2f0b bbbe f31b 603e b2f3 93be
00000100: bb33 37be 4731 a0be 3cd2 f63d 2ef3 433e
00000110: c904 ee3e cc40 d4be 0c92 123e 05fd b6be
00000120: 7aa3 943d d62b fb3d e450 943e 22f8 5cbe
00000130: fc2e a73e 6e66 cc3e 66f0 93be 9bb1 853e
00000140: d798 81be ac31 b63d de0c 663e 3025 863c
00000150: 41b9 d7be ef05 023e 6741 c53d e07a f33d
00000160: c682 1c3e 06db 5b3e 8162 d33c 2d38 723e
00000170: 49e9 963e d4b6 41be a765 2abf b8e6 89be
00000180: 035c 3bbe 09df 5cbd adca ec3d 4e79 91be
00000190: 6829 3a3b f82f ba3e edb7 85be dc8e 2cbe
000001a0: ff7b a1bd d7ea d23d f45c c23e e7ed 1c3e
000001b0: 9507 a73d 7650 4e3c deaf e23d 3fd0 a03d
000001c0: 3a24 1cbd e95e ba3d 1271 6f3e c47d 5cbd
000001d0: 99c2 af3c 053b ce3d ece7 aabe fb3c 45be
000001e0: 8233 9b3c 3c55 40be d98b 74be ec12 bfbe
000001f0: a193 dfbe e7fc 90be db2e 74be 654e 853d
00000200: 6fd1 ad3e df6e 8dbc e7e8 ccbe 78aa be3e
00000210: 12f5 4fbd ccfd 353e 09ef bdbe 1db3 6e3e
00000220: be11 94be 1386 45bd 96cb 0e3e 1b56 4e3e
00000230: ad9d 8abe a4dd 9fbe e194 92bd 4abc e53e
00000240: 6a9b 85be f481 c83e 848b be3e 7149 16be
00000250: 82c7 e9be 53b8 a0be 782a 963e 002b d53e
00000260: d52e 863d 388e 953b 8352 b8be f61c cb3e
00000270: 0686 ef3d 2d0d 80be c26a b13e bda9 71be
00000280: bf4b cabe 44b1 4ebe 0944 8d3e c14f 4c3e
00000290: bdb1 8f3e 1d2c 8e3e 93f2 9fbe eff9 afbe
000002a0: 3a2b a03e 14ac 0bbe 976b cdbe 14f2 32be
000002b0: 7504 96bd c8b1 0dbe 47a0 1bbe 895d 51be
000002c0: 36d7 213d 3913 cc3b 4b8b 9ebe 6620 113e
000002d0: e2c9 7e3e 5320 0c3e 7a97 ca3e 168e 823c
000002e0: 7c88 afbe 8740 8c3e b2d5 263e b8ac 723e
000002f0: 323d 31bf 14bf 95be 4e7f 9b3e c95e 863e
00000300: 17c9 613e 64a0 c6bc 2320 c7bd df31 6d3c
00000310: dda2 a43e 1c40 8c3d 87e0 adbe 01f8 bcbd
00000320: 74ef c3bd b6d6 54be 3926 023f c13d 08be
00000330: 33be d53e 645e ba3e 7f1b 50be 6977 ecbe
00000340: bb67 fc3d 63c2 273e 0878 8fba 7d1d c13c
00000350: 03f5 0b3e 07b3 b8be 69a2 2ebe b7bb 273e
00000360: e7ba b7be 0abd 81bd 0725 8bbd 17da 1fbf
00000370: fab6 96be 7100 75be d590 debe 8f1e a13e
00000380: ab86 233e 01d9 2abd 4e54 1abe a1ad 0a3e
00000390: 4743 b6be e651 473e 9de4 01be af7f d3bc
000003a0: 4c8c 1fbe e04c 0c3d 158e 57be 3613 ef3d
000003b0: 0df8 02be c97f 323e b558 693e 5f6d 233d
000003c0: f35b 5a3e 2d15 2ebd 88e2 993e e18d 5abe
000003d0: 9062 d0be 1280 543e cfd2 44be 07d0 03bd
000003e0: 059f bebe c1b1 9cbd 9aea cdbc 6478 f33d
000003f0: 8247 59be a8f4 113e 3e3d 91be d8e6 4c3d
0.0631769 -0.30948654 0.026450755 0.03565279 0.17743868 -0.16321194 -0.46751618 0.26684305
-0.016273765 -0.020785276 -0.34944224 0.057476614 -0.17525207 0.08604953 -0.08179704 0.26430142
0.4803347 0.103811435 0.577793 0.24585581 -0.29030523 0.10608054 0.113479406 6.2035e-05
0.36930224 -0.3287636 0.13671596 0.003807098 -0.21541692 0.22335324 0.22670722 -0.26084203
-0.005822105 -0.31152987 -0.23440231 0.25534615 -0.05651042 0.50634944 0.07581004 -0.41324234
0.4160387 0.08801961 0.255897 0.01580739 0.07937535 0.30569765 0.36687776 0.40230036
0.4705969 -0.27480432 -0.4150524 -0.026476756 -0.29480794 -0.2019864 -0.2119444 -0.059357572
0.44332236 -0.0045136577 -0.2354855 0.39221963 0.25162163 -0.3653197 0.21885662 -0.28896862
-0.17890827 -0.31287596 0.12051818 0.19135734 0.46488026 -0.41455686 0.14313525 -0.35739914
0.07257743 0.122642204 0.28967965 -0.2157903 0.32653034 0.39921898 -0.28894347 0.26112065
-0.2531192 0.08896193 0.22465846 0.016375154 -0.42133525 0.12697576 0.09631615 0.11888671
0.15284261 0.2147027 0.025803806 0.23654242 0.29474857 -0.189174 -0.6656136 -0.26933837
-0.18296818 -0.05392364 0.11562095 -0.2841286 0.0028406028 0.36364722 -0.26116887 -0.16851372
-0.078849785 0.102986984 0.37961543 0.15325128 0.08155743 0.012592426 0.110687 0.0785222
-0.038120486 0.09100134 0.23382977 -0.053830877 0.021455096 0.10069851 -0.33380067 -0.19261543
0.01894546 -0.18782514 -0.23881473 -0.37319124 -0.4366732 -0.2831795 -0.23845999 0.06509093
0.33948848 -0.017264782 -0.4002144 0.37239432 -0.050770827 0.17772597 -0.37096432 0.23310514
-0.28919786 -0.048223566 0.1394485 0.20150034 -0.27073422 -0.31223786 -0.07157303 0.44870216
-0.26095134 0.39161646 0.37215817 -0.14676453 -0.45660025 -0.31390628 0.29329276 0.4163437
0.06551901 0.004564073 -0.3600045 0.39670533 0.11695485 -0.25010052 0.34651762 -0.23599906
-0.39510915 -0.20184809 0.2759097 0.19952299 0.2806529 0.2776803 -0.31239757 -0.34370372
0.3128298 -0.13639861 -0.40121147 -0.17475158 -0.07325069 -0.1383735 -0.1519786 -0.20445837
0.03951188 0.0062278775 -0.30965647 0.14172515 0.248817 0.13684206 0.39568692 0.015936892
-0.34283817 0.2739298 0.16292456 0.236987 -0.69234 -0.29247344 0.30370563 0.2624419
0.22049366 -0.024246402 -0.097229265 0.014477222 0.32155505 0.068481654 -0.33960363 -0.092269905
-0.095671564 -0.2078503 0.50839573 -0.13304807 0.41746673 0.3640014 -0.20322989 -0.46184853
0.123244725 0.16382746 -0.0010945806 0.023573631 0.13667683 -0.36074087 -0.17054142 0.16380201
-0.35884783 -0.063348845 -0.06794172 -0.62442154 -0.29436475 -0.2392595 -0.43469873 0.31468627
0.1596934 -0.041710857 -0.15071222 0.13542797 -0.35598204 0.19464836 -0.12684865 -0.02581772
-0.15580863 0.034253 -0.21050294 0.11673586 -0.12789936 0.17431559 0.22787745 0.039899226
0.21324138 -0.042500664 0.30055642 -0.21343185 -0.40700197 0.2075198 -0.19221042 -0.032180812
-0.37230697 -0.07651091 -0.02513628 0.11888197 -0.21218684 0.14253485 -0.28367037 0.050024837

transformer_encoder.layers.0.linear1.bias f4 [2048]
00000000: 4514 ac3e 122e 14be 1181 0a3d c59f 673c
00000010: 798d 553d 5da4 1d3e 1771 e8bd e59d 18be
00000020: 30de b73e fdfa 513e ffc7 923e 68fe 313e
00000030: e9f6 afbe 1b4e 56be e9ca 52be dd57 7b3e
00000040: 3bf6 c23d 87f2 e43d 4eec 3e3e 6889 0cbe
00000050: f33c 253e b346 aa3e bfed 863e 0efd 5cbe
00000060: c820 40bc b647 80be 23a1 ae3d cd54 563d
00000070: ddf5 9bbd 343d a43e 635e 7b3e 0169 56be
00000080: 243d c33e 96eb 823e 4426 a33e abf3 7bbe
00000090: adab bebe dafa 513d 478f 8cbd d97b bdbe
000000a0: b4c8 4e3e f510 c43e 5b34 da3d 938a 5abe
000000b0: 9bca 293e 6e61 8cbe 0268 213e b08c 35be
000000c0: a8f9 cf3d 2489 94be 8f56 2e3e 90af 9dbe
000000d0: e923 f9bd 1803 b53e 01f4 b23b 26d7 413d
000000e0: 60c0 8f3c 66f4 1cbe 5831 c13e 1bde a8be
000000f0: 8d20 b83d 8e8a 2abd 4add 713e b2d2 95be
00000100: 2ae5 843e 2106 18be f240 7ebe dc34 693e
00000110: 6891 ac3e efb9 313e 566e 753e cb7d 733b
00000120: f806 40be 1947 9bbe 9468 2d3e db12 873e
00000130: 08d6 4cbe cf39 a03e 0535 b8bb 1a81 6ebe
00000140: e488 c1bd 22dc 88be 3bea 023d 92d8 5fbe
00000150: 25e9 8d3e cd79 83be 696c b13c 6796 9c3e
00000160: a1e5 b93e 10df c83e 9268 8ebe 2d4d 1ebc
00000170: a98d ffbd a84d 78be d480 6fbe 62e6 9e3e
00000180: d7af e13d 1f9c a83d ccce b4bd 66f4 cc3d
00000190: 5423 a9be bec3 763e a2da bdbe a9c6 42be
000001a0: 38f8 91be 315a c7be 8d68 113c 6fb9 243e
000001b0: f0d4 56be 3fcf ab3e c77b b53e 5a5d f23b
000001c0: 6ae1 fabd 9b05 debd 74ed a0bd f497 ccbe
000001d0: 218c 603e ce46 d7bd 2dac 81be 4bc2 923e
000001e0: 89e2 873c 8d44 3e3e d046 79be 28fa 8f3e
000001f0: aef5 5abd a2cc 17be 9ed2 563e 07d9 03be
00000200: 84da 41be e8e0 553e a33d 2d3e 8f7f 8cbe
00000210: b12e 413b 0060 a7bc 7625 983d e5b5 9d3e
00000220: 9434 9fbe 2330 4abe 35a7 a7bc 86cc febc
00000230: 540a 49bd f51b 1bbe dfcf 9f3e 166c e4bd
00000240: 2289 3a3e 8780 453e aa9c af3e def7 efbd
00000250: 80e3 e63b 02aa 963e ea03 373e 7fa9 c23e
00000260: 6c64 ba3d d136 16be e09a 5dbe 275e 2f3e
00000270: 30c7 00be bf49 80bd 4add d63d 355f bf3e
00000280: caee 92be e48e aebe a363 c6bd d2cf dbbd
00000290: 63d6 15be 6cba da3e 3de6 5ebe 2908 39be
000002a0: 2e23 8c3e 05b2 7abb 69f9 dcbd 1711 573e
000002b0: af7f c23b b7e1 c3be 8752 8f3e 9eff 2a3c
000002c0: d820 30be a99e 1d3e 1fab 32bd 3369 71be
000002d0: 84ce 1dbe 54a6 c2be d2c8 573e 176b aabd
000002e0: e3b7 813e f36e 6e3e bfd1 90be 53c1 eb3d
000002f0: 1bb4 c7be 747c c23d 7c2a b4be 4a15 ad3e
00000300: e036 46bd b5a6 c4be 3459 53be 5afc a6be
00000310: f952 2b3e 7059 6a3d aa1a 4cbd 2d20 afbe
00000320: dc8a 7bbe 423d 8d3e 6766 ab3e 0eea 0cbe
00000330: b0f9 e5bd f3b6 19be 8e1f 92be 1a50 ac3e
00000340: 7271 ee3e fbe0 e3bd 542c 7dbe 4a32 aebe
00000350: 917d 94be b93f 48be 856a 343e 4caf 8d3e
00000360: 6d0d c1be 0247 c6be 7681 8cbe fa30 a1be
00000370: 17db c63e f49b 08bd 4b33 8d3e 7581 dc3e
00000380: caf6 69bd cf63 13be a18e 233e 0d9e b03d
00000390: 5331 6abb d091 1f3b 7277 73bb 5a40 013d
000003a0: 7d48 d93d f271 9cbe 15bd b5bd a585 fcbd
000003b0: 4d77 843e d203 9b3e 38a1 81bd 0cca 15be
000003c0: 4295 a63e c345 27be cdd3 0fbe 8dba a6be
000003d0: 1da6 2dbe 0d8a 563e 3ed2 4cbe a57f 17bd
000003e0: 2ae7 8b3e cdc6 9dbe f23d 69be ae18 90be
000003f0: be16 a43c 580d d8bc df10 7fbe e400 ccbd
0.33609214 -0.144707 0.033814494 0.014137213 0.052136872 0.15394731 -0.11349695 -0.14903982
0.35911703 0.205059 0.2866821 0.17382205 -0.34368065 -0.20928232 -0.20585217 0.24545236
0.09519621 0.11179071 0.1864483 -0.13724291 0.16136532 0.33257064 0.2635326 -0.21580908
-0.011726566 -0.2505471 0.08526828 0.052326966 -0.07615254 0.32077944 0.24547724 -0.20938493
0.38132584 0.25570363 0.31865132 -0.2460467 -0.37240353 0.05126462 -0.068632655 -0.3700855
0.2019375 0.38294187 0.10654517 -0.21341924 0.16581194 -0.27418083 0.15762332 -0.1772945
0.1015504 -0.2901088 0.17025207 -0.30798006 -0.121650524 0.35353923 0.0054612164 0.047324322
0.017547786 -0.15327606 0.3773296 -0.32981953 0.089905836 -0.041636042 0.23619571 -0.2926231
0.25956088 -0.14846088 -0.24829462 0.2277407 0.33704686 0.17356084 0.23967871 0.0037153836
-0.18752658 -0.3032768 0.16934425 0.26381573 -0.20003521 0.31294104 -0.005621555 -0.23291436
-0.09449938 -0.26730448 0.03196166 -0.21859959 0.27716938 -0.25678864 0.02165814 0.30583498
0.36308005 0.39232683 -0.27814156 -0.009661955 -0.124781914 -0.24248374 -0.23388988 0.31035143
0.11019867 0.08232903 -0.08828506 0.10007553 -0.33034766 0.24098107 -0.37080866 -0.19021095
-0.28509688 -0.38935998 0.0088750245 0.16086362 -0.20979667 0.33556554 0.35445997 0.0073963823
-0.122500256 -0.10840913 -0.078577906 -0.3995968 0.21928455 -0.10511552 -0.25326672 0.2866386
0.016587513 0.18580838 -0.24343419 0.28120542 -0.053456955 -0.14824155 0.20978782 -0.12875758
-0.18931013 0.20886576 0.16918044 -0.2744107 0.0029477293 -0.020431519 0.0742902 0.30802837
-0.310948 -0.19744925 -0.020465473 -0.031103384 -0.049082115 -0.15147384 0.3121328 -0.11153428
0.18216375 0.1928731 0.34299213 -0.11717199 0.007046163 0.2942658 0.17872587 0.3801994
0.09101185 -0.14669348 -0.21641111 0.1712576 -0.12575984 -0.06264066 0.10491426 0.37377325
-0.28697807 -0.34093392 -0.09686973 -0.10732998 -0.14632563 0.42720354 -0.21767516 -0.18069519
0.2737059 -0.003825308 -0.10789759 0.21002613 0.005935631 -0.38258144 0.2799265 0.01043692
-0.17200029 0.15392555 -0.043620225 -0.23575287 -0.1541081 -0.38017523 0.210727 -0.08321207
0.25335607 0.23284511 -0.28285024 0.11511483 -0.39004597 0.09496394 -0.35188663 0.33805305
-0.048392177 -0.38408437 -0.20639497 -0.32614404 0.1673087 0.0572142 -0.049830116 -0.34204236
-0.2456469 0.27585799 0.33476564 -0.1376116 -0.11229265 -0.15011196 -0.285397 0.33654863
0.46570927 -0.11126896 -0.24723941 -0.34022743 -0.2900205 -0.19555558 0.17618759 0.27672803
-0.37705556 -0.3872605 -0.2744252 -0.3148268 0.38839027 -0.033351853 0.27578196 0.43067518
-0.057120122 -0.14393543 0.15972377 0.08623896 -0.0035734966 0.0024348386 -0.0037150052 0.03155551
0.10609529 -0.30555683 -0.08873955 -0.12330178 0.2587227 0.30276352 -0.06329578 -0.14627856
0.3253575 -0.16335206 -0.1404564 -0.32564202 -0.16957898 0.209511 -0.20002076 -0.036986966
0.27324802 -0.30815735 -0.22777537 -0.2814383 0.020030376 -0.02637355 -0.2490878 -0.099611074

transformer_encoder.layers.0.linear2.weight f4 [6, 2048]
00000000: 8d6c b6b8 fb58 873d c0b5 14bc 906f 933d
00000010: 406e 093d 8a20 823c 6f21 813e b773 c63b
00000020: 18ea cebb cad3 283d 157b 053d b2ec 8b3d
00000030: 3658 84bc 6a74 dc3d f618 8e3c 68d8 c0bc
00000040: 6415 f8bc 69eb cdbb 1eff adbc 29d4 9ebb
00000050: 9dcd 713d 35b8 213b 1da0 0a3c 75a5 ddbc
00000060: c424 f9bb b0fb 573c c63a 523c e7d4 14bb
00000070: e92c ee3d 4080 d5bb 4db5 1f3d f80e b33d
00000080: a03e b73b 7182 aa3c ce66 5a3c fa71 463b
00000090: d1d8 4bbd a699 6e3d 75fe 0b3e f5e6 213e
000000a0: 4887 07bd b322 82bc eece a4bc 8731 bbbc
000000b0: 61e6 19bc 5a23 94bb 8349 813d 8016 a63c
000000c0: 1b6c 2d3c 5e0c 083e d635 3f3e c5fe 8b3d
000000d0: ad80 593b 483e 483d f631 27bb 62fd 0c3d
000000e0: cf0a e63b 4a8f 53bc 2d80 a93b 8e99 c7bd
000000f0: 404d 35bb ae33 743b 901f 2fbc 84ad 4e3d
00000100: 6fcf d8ba 18e7 343d 7932 9a3c 4d66 723b
00000110: a00b 8bbc a07f 96bb 815a 3a3d d5c2 09bd
00000120: 1669 903d 45d3 bfba 69d2 823c 5805 323d
00000130: d8cb 353e aa46 29bd 509f 84bc c2fc a8bd
00000140: 6972 e9bc f71f 0dbd f183 a13c 9faf a13c
00000150: 423f 87bd 0382 203a 6d4d 4d3d d36c 96bc
00000160: 4483 5a3c 4334 a13d 0a9b cc3d 9bdb 723d
00000170: b90c d2bc 3c11 03bc 2294 b03e 971f 973d
00000180: 7562 863d db07 a13c ca02 b73d 6a92 193c
00000190: b122 bc3c 1c36 353b 1adc 163e 0377 493d
000001a0: e378 3a3e e107 a83b 3312 e139 6aa7 abbb
000001b0: 6764 203c 3699 7c3b f1dd 74bb 7f24 3c3d
000001c0: 6ef1 8b3e edcc 543e d1dd 44bd b87f 2abd
000001d0: ce8e a3bb 85a6 59bd ebcd c83d e28e 1e3d
000001e0: eab1 7abc 1349 033c a1b1 a0bc 9bd7 cbbc
000001f0: 1b41 9e3b 0f2d 3fbc 4b2f d33b 6b91 bebc
00000200: 869f bfbc 3140 b33b 5e34 b43a e64b 843b
00000210: 4307 06bc 8bc6 01bc 8bac be3b b23f 5abd
00000220: ebd8 ccb9 0717 53bd a102 8d3c 5249 4b3c
00000230: 9609 1bbc 9433 8f3d 6f10 c93d c0fe 05bc
00000240: 66de 793d 41b1 2ebb e8ba b73c 924e 0a39
00000250: 39ae cebb 01b3 2bbb 4071 95bc 51e2 083e
00000260: 54c4 643d 30df c4bb ef1a c23c fde8 5138
00000270: 4adb cdbc a53e 243e 3119 2d3e 39cf 203d
00000280: 714e cbbc f1fb 3b3d c9d9 95bb d507 37bc
00000290: dd6a c23c db3b cc3d c68e 5cbc 2e99 2d3e
000002a0: dfbb 15bc 446b 183c 378f cbbb a109 45bc
000002b0: 83c6 523c a197 fe3d 939c debb 63d2 36bc
000002c0: 758e 463d 29cd c2bc 0bb7 97ba 14ba 653b
000002d0: 741f c73d 45f6 883c 7785 1b3c a2c5 e03d
000002e0: fe29 f9bb f236 693c 5d0e d8bb d439 033e
000002f0: ab8a 0f3d 101c 423d e63b 8dbd 8936 78bc
00000300: 290b 893b cc4b 193d 7fc1 6b3d 6dbb 863d
00000310: 7742 6fbb 5536 6a3c 3d14 473d 7f4a 9c3e
00000320: 0277 5b3c ddf2 1dbb db91 f5ba aa79 833e
00000330: aa28 453d 6a4a 51bc 434d 0f3d c8d0 4dbc
00000340: e805 8e3c 0487 b43d 54c9 c33b d230 003e
00000350: 3664 063c 13ea a7bc 2c29 a83b e808 52bc
00000360: 174c 77bc 6f59 95bd d177 fd3d 6cd3 30be
00000370: 2ce9 013d ba12 e9ba f4d9 88bb 3828 4d3d
00000380: 03f0 a33e fee9 cabd 8157 5fbc 4a1a afbb
00000390: 787c 2b3e 755f 073c ff84 10bc 34fb 6f3c
000003a0: 4e4f 9c3d 535e 6f3d 20cc cb3c b832 ac3c
000003b0: fe82 ec3d 20ec 0d3c 4eeb 563d fe0d 913d
000003c0: 5abb 863c 54e8 143e 3608 c9bc 51aa 493d
000003d0: 7cfd e43b 3d52 673c e501 9abc cb20 b43b
000003e0: 3179 13bb f9d7 9cbb 3502 20bc 8cc1 3ebd
000003f0: f134 c63d f94f 9b3b 3e29 8cbd 9fe1 80bd
-8.6986554e-05 0.066087686 -0.009076536 0.07199013 0.03355241 0.015884656 0.2522082 0.0060562748
-0.0063145272 0.041217603 0.032588083 0.068322554 -0.016155344 0.10764392 0.017345887 -0.02354069
-0.030283637 -0.0062841666 -0.021239813 -0.004847069 0.05903398 0.0024676446 0.008461026 -0.027056435
-0.0076032598 0.013182566 0.0128313955 -0.0022709907 0.1162966 -0.0065155327 0.03899126 0.087430894
0.0055921823 0.020814152 0.013330175 0.0030280338 -0.04976732 0.058252 0.13671286 0.1581076
-0.033088 -0.015885687 -0.020118203 -0.022850765 -0.0093933055 -0.004520816 0.063128494 0.0202744
0.010584856 0.13285968 0.1867288 0.06835703 0.003318827 0.04888752 -0.0025511957 0.034421332
0.0070203315 -0.012912581 0.0051727504 -0.09746085 -0.0027664453 0.0037262249 -0.010688677 0.050458446
-0.0016541312 0.0441657 0.018822895 0.0036987246 -0.016973317 -0.004592851 0.045496468 -0.033633072
0.070512936 -0.0014635107 0.015969472 0.043462127 0.17753541 -0.041327156 -0.016189247 -0.08251335
-0.028496938 -0.034454312 0.019716235 0.019737063 -0.06603862 0.0006122889 0.050122667 -0.018362438
0.01333696 0.07871296 0.09990509 0.059291463 -0.025640832 -0.007999714 0.34488016 0.07379072
0.06561748 0.019657066 0.08936079 0.009373287 0.02296576 0.002765066 0.147324 0.049185764
0.18210177 0.0051278924 0.00042928904 -0.005238463 0.009789563 0.003854347 -0.0037363733 0.045933243
0.27332634 0.20781298 -0.048063103 -0.04162571 -0.004991389 -0.05313732 0.09804901 0.038710482
-0.015301207 0.008013028 -0.01961595 -0.024883082 0.0048295385 -0.011668458 0.0064448467 -0.0232627
-0.023391496 0.0054702987 0.0013748517 0.004037368 -0.008180442 -0.0079208715 0.0058189086 -0.0532834
-0.0003907153 -0.051535632 0.017213168 0.012407618 -0.009462735 0.069922596 0.098175876 -0.008178413
0.06100311 -0.0026655945 0.022427991 0.00013189975 -0.00630739 -0.0026199224 -0.018242478 0.13367583
0.055851296 -0.0060080513 0.023694484 5.004647e-05 -0.02512898 0.16039522 0.16904141 0.039260123
-0.024817677 0.045894567 -0.004573081 -0.011171301 0.023732597 0.09972354 -0.013461774 0.16952965
-0.00913903 0.009302918 -0.006212141 -0.0120262215 0.012864712 0.12431265 -0.0067935674 -0.011158559
0.0484757 -0.023779469 -0.0011574937 0.0035053538 0.09722796 0.016718993 0.00949227 0.109751955
-0.007603883 0.014234291 -0.006593509 0.12815028 0.035044353 0.047390044 -0.0689619 -0.015149721
0.0041822386 0.0374258 0.05755758 0.065787174 -0.0036508122 0.01429518 0.048603285 0.30525586
0.013395073 -0.0024101057 -0.0018735485 0.2567876 0.048134483 -0.012774089 0.034985792 -0.012561984
0.0173368 0.08814815 0.005974928 0.12518623 0.008202603 -0.020497357 0.005131861 -0.012819506
-0.015093825 -0.07292449 0.12376369 -0.17268151 0.03171651 -0.001778207 -0.0041763727 0.050087184
0.32019052 -0.09907912 -0.013631702 -0.00534371 0.167467 0.008262505 -0.008820771 0.014647294
0.07632314 0.058439564 0.024877608 0.021020278 0.11548422 0.008662254 0.052470498 0.07082747
0.016446758 0.14541751 -0.024540048 0.049234692 0.0069882255 0.014118728 -0.018799732 0.0054970733
-0.0022502656 -0.004786488 -0.009766151 -0.0465713 0.096780665 0.004739758 -0.06843804 -0.06293034

transformer_encoder.layers.0.linear2.bias f4 [6]
00000000: fa4b 42bc 79ca f9bb 9396 17bc 4052 cf3a
00000010: 8e31 693c e228 a6bb
-0.011858935 -0.0076230136 -0.009252208 0.0015817359 0.014233006 -0.0050707916

transformer_encoder.layers.0.norm1.weight f4 [6]
00000000: fc46 8f3f 02b3 803f 9243 9b3f 2514 753f
00000010: f1f8 903f 0fcf 7f3f
1.1193538 1.0054629 1.2129996 0.95733863 1.1325971 0.9992532

transformer_encoder.layers.0.norm1.bias f4 [6]
00000000: de19 cfbb ae5d 893c 53a9 15bc 96d8 4fbd
00000010: 729a 0e3c b480 683d
-0.0063202223 0.016768303 -0.009134608 -0.05074366 0.008703815 0.056763366

transformer_encoder.layers.0.norm2.weight f4 [6]
00000000: c960 7e3f f879 813f 5806 8e3f ce4e 773f
00000010: 593b 883f 12a8 633f
0.9936643 1.0115347 1.1095686 0.9660462 1.0643111 0.8892833

transformer_encoder.layers.0.norm2.bias f4 [6]
00000000: 2b25 d9bd 7e2d 183d e33e 0cbd 8145 8abd
00000010: 6a0f b13c 3805 e93c
-0.10602792 0.03715276 -0.03423966 -0.06751538 0.021613795 0.028444871

transformer_encoder.layers.1.self_attn.in_proj_weight f4 [18, 6]
00000000: 1048 aa3e 512f 2dbf dcb6 ab3e d966 4f3e
00000010: bc11 76be 732d 573e 43d7 ae3d b4f4 59be
00000020: 6f5b 8fbd 4ef7 233d 843b de3e a0ca a7be
00000030: f8ad acbe c396 71be 8797 903d 8e16 a9be
00000040: 5540 1c3d b425 99be ff31 5e3d 97f8 f7be
00000050: a7db 65be 6e83 f33e 2962 bc3e ee11 f0bd
00000060: bb7e 003f e67e 433f cbbb 723e 667f a8be
00000070: 1d05 3d3c 9819 b5be e961 003f 4768 f1be
00000080: 4e0f f9be d884 3c3e 1482 c33d d2b8 9e3e
00000090: ba77 cfbe 5c21 84be 8126 9c3d 6116 ed3e
000000a0: 9623 ff3e 6cf1 86be 2c8b 13bf 3f91 093e
000000b0: db1a 13bd 1a02 213f 3a1e ba3c b776 a4be
000000c0: 4ae4 46bb e765 083e 8964 b23d 66f7 ab3d
000000d0: d1ac 183d 5ad6 22bd 0b27 de3e 6585 cb3d
000000e0: 0b94 3c3e c0fb 99be d057 2a3e 49a5 86be
000000f0: f4b9 833e 4883 793e a232 aebc 8d12 993d
00000100: 623f 21bf 7583 c03e de7e ddbe 2f8e 6bbb
00000110: 6fe4 223f 6471 023d 8594 073f 539b debe
00000120: e332 5fbe 7161 05be 69a2 0bbd ba40 b6be
00000130: 3e64 633c d499 a7be e778 1cbf 1ae9 033f
00000140: d09c adbe 71be c93d 719d f5be ddb6 9e3e
00000150: 56c8 9b3e 0986 fabc e8bd d03e 824c 823e
00000160: 80ec cebe ec8b 9f3c 447e 0ebf 7c77 2abe
00000170: dd7e 1abe eca0 bd3e a875 eabe b7c8 743e
00000180: f0af 183f d7fe f6bd 88cb d13c baf7 b9ba
00000190: 50fa b13e 2eb6 d6bd 92a1 3dbd aaab f03e
000001a0: 353d 08bf d640 12be dd15 86bc 1a25 6bbc
0.33258104 -0.67650324 0.33537948 0.20254077 -0.24030203 0.21013431 0.08537152 -0.21284753
-0.069998614 0.04003077 0.43404782 -0.32771778 -0.33726478 -0.23592667 0.070601515 -0.3302502
0.03814729 -0.29911578 0.0542469 -0.48431846 -0.22447072 0.4756121 0.3679364 -0.1172217
0.50193375 0.76365507 0.2370445 -0.32909697 0.011536864 -0.3537109 0.501494 -0.4714987
-0.4864449 0.18410051 0.09546295 0.31000382 -0.40521032 -0.258067 0.076245315 0.46306136
0.49831837 -0.26356065 -0.57634234 0.13434313 -0.035914283 0.6289383 0.022719491 -0.32121822
-0.0030348473 0.13320123 0.08710582 0.08396797 0.037274186 -0.039755203 0.43389162 0.09937552
0.18415849 -0.30074883 0.1663506 -0.26297978 0.25727808 0.24366486 -0.021264378 0.074742414
-0.6298734 0.37600294 -0.43260854 -0.0035942902 0.6362981 0.03184642 0.52961 -0.43477878
-0.21796755 -0.13025452 -0.034090433 -0.35596257 0.01387888 -0.3273455 -0.6112198 0.5152756
-0.339087 0.09850777 -0.4797168 0.3099889 0.30426282 -0.030581491 0.40769887 0.25448996
-0.4041481 0.0194759 -0.55661416 -0.16647142 -0.15087457 0.37036836 -0.4579289 0.23904692
0.5964346 -0.120603256 0.025609747 -0.0014188208 0.34761286 -0.10483967 -0.046296664 0.4700597
-0.53218395 -0.14282545 -0.016367847 -0.014352107

transformer_encoder.layers.1.self_attn.in_proj_bias f4 [18]
00000000: c56d a83e 714b c43d e8e5 803d f0ce 233d
00000010: d810 8ebe 34c2 c23d 084d feba d8c8 543a
00000020: ee61 89b9 8cca cf3a e109 203a 4be8 e839
00000030: f669 5b3d 7ac1 283d a09f f6bc eb12 94bd
00000040: d946 d23c 0633 3c3d
0.32896248 0.09584702 0.06293851 0.039992273 -0.27747226 0.095096976 -0.0019401619 0.0008117086
-0.0002620364 0.001585321 0.00061049877 0.0004442356 0.05356785 0.04120014 -0.030105412 -0.07230171
0.025668548 0.045947097

transformer_encoder.layers.1.self_attn.out_proj.weight f4 [6, 6]
00000000: d3ac 82be a182 1a3f 5ff2 663e d6f9 e53e
00000010: 682c 2dbf 0759 8d3e e7cd 6f3d d18d 1cbe
00000020: 0f4f 0d3e 1e18 c1be ba79 6abe effa f0be
00000030: 8435 38bd 5494 813e 2d20 a63e 2cc0 093e
00000040: e870 c9bd 3df9 99be 9679 d2bd a298 afbe
00000050: 8fce 953e f5d5 353e 1657 85be cc93 4cbd
00000060: d4de 32be 5ec0 9fbe 1bb3 ebbe 5da4 8f3e
00000070: e931 503e b91b efbd 4e45 9dbe 7d86 513e
00000080: 9211 24bf 2f2f 14bd 0482 b33e 3003 59bd
-0.2552248 0.60355574 0.22553395 0.44917172 -0.67645884 0.27606985 0.058545973 -0.15288474
0.1379969 -0.37713712 -0.22897997 -0.47066447 -0.04497291 0.25308478 0.32446423 0.13452214
-0.09835988 -0.30072966 -0.10277097 -0.34296137 0.29259154 0.177574 -0.26043004 -0.049945638
-0.17467815 -0.31201452 -0.46035084 0.28055087 0.20331539 -0.116752096 -0.30716938 0.2046146
-0.6408931 -0.03617781 0.35060132 -0.052981555

transformer_encoder.layers.1.self_attn.out_proj.bias f4 [6]
00000000: 4af3 bdbb e6d7 c33b 80fb 9cbd 60d9 a2bd
00000010: 2090 aabc 162e ce3c
-0.0057968246 0.005976665 -0.07665157 -0.07951617 -0.020820677 0.02516846

transformer_encoder.layers.1.linear1.weight f4 [2048, 6]
00000000: 4561 9f3c 8cb4 9fbe f3b6 8b3d 04ed 0b3d
00000010: 0bf1 053e e6b7 13be 543d d8be 2289 b53e
00000020: 7174 f43c fb6a 5e3d f0b3 0dbf ea0d 55be
00000030: 6649 72be f51d e23d 5c35 17bd 787f 6a3e
00000040: 13e3 b03e 277e ff3d 89fb 963e cb3c 373e
00000050: 9b8f 57be 05c9 c93d 6f8f 8d3e 74d5 303e
00000060: 246d 883e f2d2 99be 0bad 443e 72c8 b438
00000070: 3df2 83be 47a8 903d 0b61 683e e7b6 61be
00000080: 5515 583d c0af 9cbe dd2c d0be c4f6 433e
00000090: 09f2 1b3e cbe0 bc3e 8c89 f53d 6a00 c8be
000000a0: a3f6 8c3e 706b 513e 8658 833e 9cba 003b
000000b0: dbec 0d3e 2df3 983e b9fd b03e 3561 f23e
000000c0: 06d3 d33e 4651 9ebe 3aa6 b8be 0918 88bc
000000d0: 0089 a2be 5dae 4ebe 2eaf 55be 8bdc a8bc
000000e0: 0010 973e 5fa7 8cbc 406f 6dbe 05d7 083f
000000f0: ad26 b63e 5092 a3be 6c60 413e 2f5d e9be
00000100: 2b35 78be 9e5c 75be 9e5d 7d3e 5a7a 643e
00000110: db49 963e 9d52 b6be 12b3 513e de8e cabe
00000120: 8211 863d 01d9 3b3e a226 803e 8bd8 64be
00000130: 9b74 573e 2ec1 093f 2eb6 41be afc7 873e
00000140: 64d7 90be 3502 c63d 8687 433e 20fe b4bc
00000150: c09c bbbe cf85 f73d 63c7 a03a cabd 9d3d
00000160: 71d0 443e a0e3 d93e fe15 a53b c3ff d93e
00000170: 1088 533e 61c7 b3be c5b4 d2be 7035 cabd
00000180: c1f3 51bd a373 5f3d d466 0cbd e4fc ddbe
00000190: ed06 50bd f883 d93e 4a0d 88be 7a9b 3dbe
000001a0: acf9 233b 568b 003e f97a a33e 4645 e23d
000001b0: 0e37 253e e5ae f73c e9de cc3d f727 293d
000001c0: 681b 4bbd e84b 8d3d 031e 953e d530 88bc
000001d0: 1c85 5fba d984 453d 7657 c0be 9b52 aabd
000001e0: 5c7f ba3b 1af2 74be 0f88 36be e4f2 e4be
000001f0: e63b a4be 36ac 79be 3f1e 7dbe 6f45 d23d
00000200: 37bf a13e c82f 67bd ebef 8cbe 5bed e63e
00000210: 9c7c 25be c00a 383e f6d5 c5be 7155 8c3e
00000220: 91a6 b4be 391d 87bd bdd8 18bc f187 3b3e
00000230: 322c b7be 254b 95be a5a7 0f3e 72b9 f83e
00000240: decf ddbd c724 103f 8ed5 723e a6f6 7bbe
00000250: b4c1 05bf e849 4ebe d543 d03e 58df cb3e
00000260: 2333 a83d 8df5 073e 9287 ecbe 1dcb e53e
00000270: 0e15 7fbc 581b 43be 0153 5d3e fb86 48be
00000280: 5067 ebbe 8fa2 85be 3f19 813e b3a7 1d3e
00000290: 72da 7b3e e2ac 9e3e 551f 9fbe 2aad afbe
000002a0: c1c4 603e 72e6 00be 84c5 14be e6c7 9fbe
000002b0: 4522 85be aab8 08bd e1f7 96bd 28f2 36be
000002c0: 8bf1 753d ebb7 67bd 55b0 c1be 22c0 2b3e
000002d0: f0b3 203e 9713 bf3d da6f b03e b7b0 c63a
000002e0: 3995 8fbe be40 a83e 8c18 ae3d 34d1 963e
000002f0: 9e65 c0be df86 a6be 9be4 bebd 6a78 993e
00000300: a282 343e e350 ba3c 23e6 ef3b f47b 16bc
00000310: 3739 763e 0be8 8b3d 7ab5 bdbe 5241 0fbe
00000320: 9421 51be 4f1b 13be e3e9 ab3e 261d 4ebe
00000330: 3109 ce3e f92e 7a3e 7fa9 c3bd e45b 91be
00000340: 3f12 263e eb4a cb3d 36ab 85be d080 65bd
00000350: 2b38 bc3e 1362 a7be b693 34be b6b2 2f3e
00000360: a7da aebe 3d9f 9abe 2377 d4bc ab34 cdbe
00000370: dcda 20be 8495 cebe 88c3 cfbe 90f5 a33e
00000380: 5670 413e ba3b b938 aa7b 64be 6388 06bc
00000390: 4688 98be aa0c e63e c04f a7bd e9ad c3bd
000003a0: 3d0a 88be 4bcd 3c3e dfe2 f8bd 75b0 293e
000003b0: b85b 31be e06e 233e a5bf 193e 1691 883d
000003c0: f045 503e 7b5d f0bc 040c 963e 667e 6fbe
000003d0: 2816 a2be 8734 443e eb35 12be 4512 29bd
000003e0: ad9a 7dbe 138e b0bd 9420 243c 6785 943d
000003f0: 8352 5abe 72b3 3c3e e39a bcbe 7443 1c3d
0.019455561 -0.31192434 0.06822004 0.034161583 0.13080232 -0.1442562 -0.4223429 0.35456187
0.02984068 0.054301243 -0.5535269 -0.20806089 -0.23660812 0.1104087 -0.03691612 0.22900188
0.34548244 0.124752335 0.2948878 0.17894284 -0.21050875 0.098527946 0.27648494 0.17268926
0.26645768 -0.3004375 0.19206636 8.620405e-05 -0.2577075 0.07063346 0.22693269 -0.22042428
0.05275472 -0.30602837 -0.40659228 0.19137102 0.15229048 0.36890253 0.119891256 -0.39062816
0.2753192 0.2045114 0.25653476 0.0019642478 0.13859884 0.29873028 0.34568575 0.47339788
0.41371936 -0.30921382 -0.3606432 -0.016613023 -0.31745148 -0.20183702 -0.20867607 -0.020612976
0.29504395 -0.017169653 -0.2318697 0.53453094 0.35576382 -0.31947565 0.18884438 -0.45578906
-0.24239032 -0.23961112 0.24742743 0.22312298 0.29353222 -0.35609904 0.20478466 -0.39562124
0.06546308 0.18344499 0.25029474 -0.2234823 0.21040575 0.53810394 -0.18917152 0.26519534
-0.2828933 0.0966839 0.19094667 -0.022093832 -0.36643028 0.12086069 0.0012266453 0.07702215
0.19220139 0.42556477 0.005038022 0.42577943 0.20657372 -0.35113052 -0.4115354 -0.09873474
-0.051257852 0.05455364 -0.034277752 -0.43357003 -0.050787855 0.42483497 -0.2657264 -0.18516341
0.0025020642 0.12553152 0.31929758 0.11048369 0.16134283 0.030234763 0.10003454 0.04129788
-0.049586684 0.068992436 0.2912446 -0.016624847 -0.000852661 0.048222397 -0.37566727 -0.08316537
0.005691452 -0.2392048 -0.1782534 -0.4471656 -0.3207695 -0.243821 -0.24718569 0.1026715
0.31591198 -0.056442052 -0.27526793 0.45102963 -0.16160816 0.17972851 -0.38639802 0.27408937
-0.3528333 -0.06597371 -0.009329018 0.18313576 -0.35775906 -0.29158893 0.14028795 0.48578984
-0.10830663 0.5630612 0.23714277 -0.24605808 -0.5224869 -0.2014538 0.40676752 0.39818835
0.082128786 0.13277264 -0.46197182 0.44881526 -0.015568985 -0.190534 0.21613695 -0.19582741
-0.4597726 -0.26100585 0.25214574 0.15396003 0.24595049 0.30991274 -0.31078592 -0.343118
0.21950056 -0.12587908 -0.14528471 -0.31207198 -0.26002708 -0.033379234 -0.07371498 -0.17865813
0.060044806 -0.056571882 -0.37829843 0.16772512 0.1569364 0.09329908 0.34460336 0.0015158866
-0.28043535 0.32861894 0.08500776 0.29456484 -0.37577528 -0.32524773 -0.09320947 0.2997468
0.17627957 0.022743648 0.0073211356 -0.009184826 0.24045263 0.06831368 -0.37052518 -0.13989761
-0.20422965 -0.14365886 0.3357688 -0.20128307 0.40241387 0.24431981 -0.09553813 -0.2839042
0.16217898 0.09926399 -0.26107186 -0.05603105 0.36761603 -0.32692012 -0.17634472 0.17158017
-0.34151193 -0.30199614 -0.025935715 -0.40079245 -0.15708488 -0.40348446 -0.40578866 0.32023287
0.18890509 8.8326124e-05 -0.22312799 -0.008211228 -0.29791468 0.44931537 -0.08169508 -0.09554655
-0.2657031 0.18437688 -0.12152647 0.1657122 -0.17320144 0.15960264 0.15014513 0.06668298
0.20339179 -0.02934145 0.29306042 -0.23388061 -0.3165753 0.19160663 -0.1427838 -0.04127719
-0.24766035 -0.086208485 0.010017533 0.07252007 -0.21320538 0.18427828 -0.3683692 0.038150266

transformer_encoder.layers.1.linear1.bias f4 [2048]
00000000: c68e aa3e d6e9 31be 29bf fb3a 7c3d c73c
00000010: f1a5 b33c 4c4d 0a3e 3b9d 01be 46af 1fbe
00000020: 179c bc3e ff53 343e 3afd 393e 2feb 153e
00000030: 7682 bbbe 01d1 58be 3c0f 72be 7cfe b73d
00000040: 8014 eabc 9b1f 013e 2502 1d3e 302a 43be
00000050: da56 233e cad0 943e b8dd 993e b007 4ebe
00000060: 6489 07be 9237 95be 91c4 6c3d 3dfc 843d
00000070: 4707 52be de0a 843e 8983 813e a0c8 a7be
00000080: c6f6 b23e fc35 a43e 4a3d b73e f6b2 9ebd
00000090: 62c1 93be a9e9 4e3d b213 1cbe 4ab7 cdbe
000000a0: 21b0 6b3e 9ba5 bb3e 6945 923d e062 4fbe
000000b0: b2eb 443e ac21 82be 41dd 413e 420d 0dbe
000000c0: e1ae 583d 4893 66be 2ee6 033e a79d 98be
000000d0: f5fd eabd 180b c53e 14fa 0c3c 6eba 133d
000000e0: 4ae0 ebbb a45a 1fbe 5ede a33e ee4e c7be
000000f0: 6723 bf3d 4fee 97bd f24d 433e 9ef3 a6be
00000100: 6d84 8d3e a72c 0bbe 487a 4cbe fe06 6b3e
00000110: e0ba b33e 9f4c 373e e83c 4e3e db22 14bc
00000120: e3e7 47be 1714 23be c565 503e a1cb a43e
00000130: fd91 92be 9b3d 8e3e c115 173c d402 57be
00000140: 2dd8 5fbd a4bf 92be e59c 0f3d 4466 8fbe
00000150: 2c7a 4d3e 8ab2 78be 4cba 613b fe96 993e
00000160: 0bbc bb3e ff91 b33e 4614 8abe d3fc adbd
00000170: 0922 dfbd f56a 8dbe f7a0 a3be 5c3b 333e
00000180: c2bc d63d ba4e 383d e49d 08be 026b 9d3d
00000190: d830 d1be 185d 5b3e 9798 c0be 84a8 34be
000001a0: 4d6a 4fbe b5ea b5be 6bc6 053d 2996 1f3e
000001b0: 97fe 56be 5dc0 b03e 753a a63e 7b67 e6bb
000001c0: 06ce 0dbe 6243 1bbe b291 79bd 25c3 b2be
000001d0: 8508 803e 1fb3 98bd 7803 a2be 1b4a 883e
000001e0: 4c07 04bb 5cf4 673e bc33 66be 0cfc bc3e
000001f0: e8b3 c4bb 4177 40be 3db5 533e f546 d4bd
00000200: 9468 21be 7be5 313e 2485 473e 745a 95be
00000210: d579 71bd 89e6 c8bc b0f4 b5bd 746b 983e
00000220: 2ecd acbe be38 86be ccf4 53bc 3884 c6bc
00000230: 562b 4dbd 4d54 00be a4df d03e 5604 dcbd
00000240: b339 ac3d 054b 013e 2814 a33e 41d8 17be
00000250: 3747 95bc 99b0 a43e 0457 2e3e 92fb 9c3e
00000260: 9665 9f3d ad70 dbbd dd04 40be 5f9f 273e
00000270: ba9b 02be b31b f8bd 8ada df3d d571 a33e
00000280: b85c 27be c3e2 b7be e165 fdbd 8933 25be
00000290: f010 28be f241 843e 7c9a 82be 2c26 22be
000002a0: 935b 9f3e cf85 c03c 57b3 aabd 5ac6 5b3e
000002b0: bba2 263d b460 c5be 8a29 923e 78c6 053d
000002c0: 7063 8bbe 86b9 1f3e cf89 8abd c66d 93be
000002d0: 145f 6ebe c434 ccbe f683 803e 1449 35be
000002e0: 2d3f a13e 99fc 3a3e a9f8 9ebe 157b f23d
000002f0: 8079 e5be 9d0b 293e b315 b4be bc97 a33e
00000300: 5ca5 23bd 12ea c3be 01dd 96be 4a01 90be
00000310: 7f5c 263e 2667 953d a423 eebd 3027 cfbe
00000320: 1088 95be 716c 593e d17d bd3e fbef 72be
00000330: c35c 4abe c9be 31be 120d b3be 70cf 9e3e
00000340: 0824 d63e c6bc 3fbe c072 69be 1c93 88be
00000350: 17dc 93be 0d4c 42be cdd1 7a3e b9d5 963e
00000360: 59be c5be 4867 c4be 09db d1be 849c bbbe
00000370: 9771 c23e ceb2 2abd fe63 863e ed41 b43e
00000380: b803 10be 9e08 3cbe 5a9b 323e 731f d83d
00000390: a872 2c3d 8c9c a13c 94d4 fdbc 4d7c 813d
000003a0: a028 c0bc fcfc 8cbe 3379 01be a848 53be
000003b0: aa90 8c3e e9cd 803e 5ac9 5dbd 2f09 87bd
000003c0: e3ae 9a3e 7e54 c3bd 7bc2 06be 4141 b9be
000003d0: 06e7 21be a861 4a3e 2118 43be 329f 0bbe
000003e0: 1eaf 893e 21ba 41be d212 7fbe 93c7 88be
000003f0: 9bed 3fbc 0dc4 3dbd 74fa 4dbe e2a4 2abe
0.33312052 -0.17374358 0.001920675 0.02432131 0.021929713 0.13506049 -0.12657635 -0.15594205
0.36837837 0.17610167 0.18163005 0.14640497 -0.3662297 -0.21173479 -0.23638624 0.08984086
-0.028574228 0.12609713 0.1533285 -0.19059062 0.159511 0.29065543 0.3005197 -0.2012012
-0.13236004 -0.2914396 0.057804648 0.06493423 -0.20510589 0.2578954 0.25295666 -0.32770252
0.34953898 0.32072437 0.35788947 -0.07748978 -0.28858477 0.050515804 -0.15241888 -0.401789
0.23016407 0.36649784 0.07142145 -0.20252562 0.19230536 -0.25416315 0.18932058 -0.13774589
0.052901153 -0.22517121 0.12880775 -0.2980778 -0.1147422 0.38485026 0.008604545 0.036066465
-0.007198368 -0.1556192 0.3200559 -0.38927406 0.09332924 -0.07418501 0.19072703 -0.3260774
0.27640095 -0.13591252 -0.19968522 0.22951886 0.35103512 0.17900322 0.20140421 -0.009041513
-0.19522052 -0.15925632 0.20351322 0.32186607 -0.28627005 0.27781376 0.009221495 -0.20997173
-0.05464952 -0.28661835 0.035061736 -0.2800771 0.20066136 -0.24286857 0.0034443317 0.2999801
0.36666903 0.35072324 -0.26968592 -0.08495488 -0.108951636 -0.27620664 -0.31958744 0.17503113
0.104852214 0.044996955 -0.1334148 0.07686426 -0.40857577 0.21422231 -0.37616417 -0.17642409
-0.20255394 -0.3553063 0.03265993 0.15584625 -0.20995556 0.34521762 0.32466474 -0.007031379
-0.13848123 -0.15162423 -0.06092996 -0.34914508 0.250065 -0.0745604 -0.3164327 0.26619038
-0.002014595 0.2265181 -0.22480673 0.36911047 -0.006002892 -0.18795492 0.20674606 -0.103650965
-0.1576255 0.17372696 0.19484383 -0.29170573 -0.05895408 -0.02452399 -0.08884561 0.2976948
-0.3375029 -0.26215166 -0.012936782 -0.024232969 -0.050090156 -0.12532158 0.40795624 -0.107430145
0.08409443 0.12626274 0.31851315 -0.14828588 -0.018222434 0.32165983 0.17025381 0.30660683
0.07783048 -0.107148506 -0.18751855 0.16369389 -0.12754717 -0.12114658 0.10930355 0.31922784
-0.16343963 -0.35915193 -0.123729475 -0.1613294 -0.16412711 0.25831562 -0.25508487 -0.15834874
0.31124553 0.023501305 -0.083349876 0.21462384 0.040682536 -0.3855034 0.28547317 0.032659978
-0.27224302 0.15598115 -0.06764566 -0.28794688 -0.23278457 -0.39884007 0.25100678 -0.17703658
0.31493512 0.18260421 -0.31049088 0.11839882 -0.4481926 0.16508336 -0.35172805 0.31951702
-0.03995262 -0.3826452 -0.29465488 -0.28125983 0.16246222 0.07295065 -0.11627892 -0.40459585
-0.2920537 0.21232773 0.37010053 -0.23724358 -0.19761948 -0.17357935 -0.3497091 0.31017637
0.41824365 -0.18724355 -0.2279768 -0.26674736 -0.28878853 -0.18974324 0.24494095 0.29459932
-0.38621786 -0.38360047 -0.40987423 -0.3664285 0.37977287 -0.041674428 0.26248163 0.35206547
-0.14063919 -0.18362662 0.17442074 0.105528735 0.042101532 0.019727968 -0.030985154 0.063225366
-0.023456872 -0.27536762 -0.1264389 -0.20633185 0.2745412 0.25157097 -0.054147102 -0.065935485
0.30211553 -0.095376 -0.13160126 -0.36182597 -0.15810785 0.19763815 -0.19052173 -0.13634947
0.26891416 -0.18918659 -0.24909523 -0.26714763 -0.011714364 -0.046329547 -0.20115072 -0.1666446

transformer_encoder.layers.1.linear2.weight f4 [6, 2048]
00000000: 1039 663b e59d 89bd ee68 b23a f713 91bc
00000010: fbe8 a03c 954e 583d 664c a0bc 1318 0c3c
00000020: fe61 4c3b 6e89 cb3b 3c05 873d 0f59 d63c
00000030: cd7a 9c3c 19e9 b23c 14fb eb3c b076 893d
00000040: 2774 b4bb 2a21 8139 8fc9 50bc a97d d8bc
00000050: 6b6f b43d 5d3d ebbb cea4 0c3c 4c72 c8bb
00000060: 65d0 d73d 1fd8 133e 41d0 0f3d 460c e2bb
00000070: a4d2 803d 908b 823b 9338 023d c1a2 e6bd
00000080: 693a 563b e638 653c 7d4c 3dbc 101a a7bc
00000090: 5264 793d b187 443c 49c6 46be 719b 823c
000000a0: b3cf 053d 0b84 38bc 154a bcbc 05ba ecbc
000000b0: 8d23 a4bc 283f 94bc f02e c43d a57e 0a3c
000000c0: 9572 1e3c 247d 963c 8e51 2f3d d96d 2abc
000000d0: 6d13 ca3d d1e0 513d a47c f43c b2da 92bc
000000e0: a9ff 6a3c 0c11 32bd 12b6 483c f4e8 9fbd
000000f0: 6f13 f03a fccb 1fbc feda b4bc 437d a53d
00000100: 96dd c33a 3538 59bc 9e31 253c 8fe3 163c
00000110: 04e5 f4bc fbeb f23b 77c9 85bc 494f d7bb
00000120: c198 48bc 077c 2e3e 3e87 a73b a6c7 273c
00000130: 634f 34be 9137 9f3c 7e8b 8dbc 1f29 2dbc
00000140: 76c5 a93b 2341 b13c 4950 b13c 12ae 89bd
00000150: f9de dabb f4df 08bc 80a0 92ba 2425 7ebb
00000160: df39 b63c 5a83 5c3d 582b 663e e21c babc
00000170: e264 263c ec0b 77bc 6267 06bd e6e0 64bd
00000180: 7761 f93c cf34 4c3d bbd7 29bc 08dc ac38
00000190: 4d91 6a3b af91 01ba b484 cc3a f00b 32bd
000001a0: a4c4 3f3d d26e 6bbc 375f 63bc 89e7 503b
000001b0: 0eaf cabc 3ee7 743a e5e1 c6bc dd85 973b
000001c0: b0be d63c 94eb 08be 37b4 253b 8602 13bc
000001d0: 6223 2c3c 9e5b a8bc 36c2 3f3e cb05 c2bc
000001e0: 2e01 f23b e43b 723c 15c0 29ba ddef 9e3c
000001f0: ce9d f9bb f0bd 81bd 9f24 833c 2740 9abc
00000200: cbf1 4a3c 180b 163c 75e9 523c c54c bc3d
00000210: 7433 cabc 9f6b baba 5f8d 963d d9e2 b53c
00000220: 3f16 82bc 05e7 893d e922 fc3a b4d0 5e39
00000230: 8846 00bc 9871 023d 79e8 debc cfb4 7d3a
00000240: 35c6 e13d d6b3 0abc 6bc7 fb3b 51be b3bc
00000250: 9764 9bbc 61d4 9b3c e110 c3bc 3641 d6bc
00000260: 5d07 8c3c ff95 b9bc 2764 18bc 13f3 0d3a
00000270: b02c 2ebc 4bae 00bd 0d94 7dbd 8e12 0f3d
00000280: ed59 133e a131 0f3d 979e aa3b eb3d 933d
00000290: a4dc 80ba 3c0e af3a de8e a2bc 1615 113e
000002a0: d413 99bc 65e3 aa3b 57a0 b13c 249c 1ebc
000002b0: 80b9 d73c 375e 343c 57fc 30bc 8945 fabc
000002c0: ff64 ebbc 88c6 83bc 0b76 62bc 25e7 3ebc
000002d0: bd31 51be d7ee f23d bee8 e13c 9b40 24be
000002e0: 0d7a 673c ca0b 833c d29c a03b d43e 8bbc
000002f0: 5fcb 92bd 5c6a 5c3b 9c0d 08bc e7fb d1ba
00000300: 12f4 523c 796c 163c 4a30 963d dce5 00bd
00000310: e864 8b39 322d 2dbb 83fb 2d3e c93c b0bd
00000320: 95d0 54bc 9d24 53bc f933 6cbc b794 40bb
00000330: 9e0f e6bc 42fe 15bd 31b8 8ebd f414 083b
00000340: 1395 073d 04bd b5bd 9da8 09bc 068f 40bd
00000350: 4dda 183c 2198 75bd fa71 113c f45b 87bc
00000360: 65ab aa3c 3a3f c6bc 6aff 09be 0192 5d3d
00000370: e0a6 e13c fc83 e8bb f85e 0abc 235d 8b3c
00000380: 7f6b 343a 2994 fc3c e42d 03bc f2ca 6dbc
00000390: 714a 2b3d 5355 ca3b acd6 96bc a539 c8bd
000003a0: 79d5 7b3b c780 203b f1df e73c dee3 29bd
000003b0: a0d6 c23c f01d a6bc 4b79 ea3c 551e 123d
000003c0: 0681 fb3b e8fc 593e c58e 63bd d49b 58bd
000003d0: e40e 87bc be44 8a3c 3ad3 b6bc c1be c73d
000003e0: 39f0 2b3c 0249 fe3d 69f7 84bb e433 54bd
000003f0: 3a44 8a3b 2216 3b3c 9031 eabc 3c4a 9f3d
0.0035129227 -0.06719569 0.0013611594 -0.017709715 0.019642344 0.052809317 -0.01956768 0.008550662
0.0031186338 0.0062114513 0.06592795 0.026165513 0.019101525 0.021839665 0.028806247 0.06712091
-0.0055070105 0.00024629507 -0.012743368 -0.026427107 0.08810314 -0.007178946 0.008584214 -0.006117141
0.10537795 0.14437912 0.035110716 -0.0068984358 0.062901765 0.0039839223 0.031792235 -0.112615116
0.0032688624 0.013990616 -0.011553881 -0.02039817 0.06088669 0.011995242 -0.19411577 0.01594326
0.03266878 -0.01126195 -0.022984544 -0.028897295 -0.020036483 -0.018096521 0.09579265 0.008453046
0.009670873 0.018370219 0.042802386 -0.010402166 0.098669864 0.051239792 0.02984459 -0.017926548
0.014343181 -0.04347329 0.01225044 -0.07808104 0.0018316339 -0.0097532235 -0.02207708 0.080805324
0.0014943357 -0.01325803 0.01008263 0.009209528 -0.02989436 0.007413385 -0.016331417 -0.006570731
-0.012243451 0.170395 0.0051125577 0.010240471 -0.17608409 0.019435676 -0.01727843 -0.010568886
0.00518101 0.021637505 0.021644728 -0.067226544 -0.0066794124 -0.008354176 -0.0011186749 -0.0038779462
0.022244392 0.053836204 0.22477472 -0.02271885 0.010155888 -0.015078526 -0.032813437 -0.055878542
0.030441983 0.04985505 -0.010366376 8.242583e-05 0.0035792172 -0.0004942668 0.0015603513 -0.043468416
0.04681839 -0.014369683 -0.013877681 0.0031876287 -0.024741676 0.0009342319 -0.024277637 0.004624112
0.026213974 -0.13371116 0.0025284418 -0.00897277 0.010506483 -0.020551499 0.1872643 -0.023684403
0.0073853945 0.014784787 -0.0006475461 0.019401485 -0.0076176887 -0.06335056 0.016008673 -0.018829418
0.0123867495 0.009157918 0.012873043 0.0919433 -0.024682738 -0.0014222747 0.07351183 0.022202896
-0.015879748 0.067335166 0.0019236478 0.00021249318 -0.007829316 0.031846613 -0.027210461 0.00096781267
0.11024133 -0.008465728 0.0076836846 -0.021941336 -0.018968863 0.019022169 -0.02381176 -0.026154142
0.017093355 -0.022654532 -0.009301222 0.0005414944 -0.0106307715 -0.03141622 -0.06190877 0.034929805
0.14389773 0.03495944 0.0052068937 0.07189544 -0.0009831381 0.0013355683 -0.019843515 0.141682
-0.018686213 0.005215096 0.021682901 -0.0096807815 0.02633357 0.011008791 -0.01080235 -0.030550735
-0.028734682 -0.016085878 -0.013822089 -0.011651789 -0.2042913 0.11861961 0.0275768 -0.1604027
0.01412822 0.015996832 0.004901507 -0.016997732 -0.07167696 0.003363273 -0.008304026 -0.0016020507
0.012875574 0.009181135 0.07333429 -0.03146921 0.00026587327 -0.0026424644 0.16990475 -0.08605344
-0.012989183 -0.012887147 -0.014416688 -0.0029385516 -0.028083619 -0.036619432 -0.069687255 0.0020764442
0.033101153 -0.088739425 -0.008402017 -0.047011398 0.009329391 -0.059959535 0.008877272 -0.016523339
0.02083368 -0.02420007 -0.13476339 0.05409432 0.027545393 -0.007095812 -0.008445494 0.017012184
0.0006882473 0.030832367 -0.008006547 -0.014513718 0.04181904 0.006174722 -0.01841291 -0.0977662
0.00384268 0.002449082 0.028305026 -0.041477077 0.023783982 -0.020277947 0.02862229 0.035673458
0.007675293 0.21287882 -0.055556078 -0.052882984 -0.016486593 0.016878482 -0.022317518 0.0975318
0.010494285 0.12416269 -0.004057814 -0.0518073 0.004219559 0.011418851 -0.028588086 0.07777831

transformer_encoder.layers.1.linear2.bias f4 [6]
00000000: 4b78 b7bb 2555 c2bb ba28 3abc cfb3 9d3b
00000010: fad7 673c b2db 0bbc
-0.005599057 -0.00593056 -0.011362249 0.0048126946 0.014150614 -0.008536266

transformer_encoder.layers.1.norm1.weight f4 [6]
00000000: 79a4 833f 3cf0 813f 94d8 843f 8066 793f
00000010: 955c 853f c210 8a3f
1.0284568 1.0151439 1.0378594 0.9742203 1.0418879 1.0786364

transformer_encoder.layers.1.norm1.bias f4 [6]
00000000: 3059 00bd ecc9 943c 90e5 56bd c5df d9bc
00000010: af24 b03b d025 2c3d
-0.031335056 0.01816269 -0.05246502 -0.02659596 0.005375467 0.04202825

transformer_encoder.layers.1.norm2.weight f4 [6]
00000000: b16d aa3f 42ba a13f 9923 a03f 9777 953f
00000010: d39a a93f c79f 883f
1.3314725 1.2634966 1.2510864 1.1677121 1.3250374 1.067376

transformer_encoder.layers.1.norm2.bias f4 [6]
00000000: ae84 2abd 43f7 2bbe 672f ac3b 8ef8 60bb
00000010: 3000 033d 6c44 ce3c
-0.04163044 -0.16793542 0.0052546742 -0.0034327838 0.0319826 0.02517911
