DU_model/Transformer/Archive/best_model_t7jul_lat_ext_9jul1_2_3_5_5_6_tr.2.32.pth (torch, 426734 bytes, 29 tensors)

norm.weight f4 [6]
1.0 1.0 1.0 1.0 1.0 1.0
00000000: 0000 803f 0000 803f 0000 803f 0000 803f
00000010: 0000 803f 0000 803f

norm.bias f4 [6]
0.0 0.0 0.0 0.0 0.0 0.0
00000000: 0000 0000 0000 0000 0000 0000 0000 0000
00000010: 0000 0000 0000 0000

transformer_encoder.layers.0.self_attn.in_proj_weight f4 [18, 6]
0.32920012 0.122621216 0.49140036 0.40971184 0.46700877 -0.010802835 -0.049845435 0.31123203
0.4231246 0.03484093 -0.34470698 0.018833091 0.29865062 0.37518418 -0.030742722 -0.2245426
-0.31184626 -0.12806669 -0.20909624 -0.45819384 0.33901456 -0.29186618 -0.49502704 0.06623852
0.62783366 0.05135846 0.3214535 0.06082767 -0.51829505 0.75043696 -0.14997052 -0.3310415
0.16522735 -0.43571222 0.30978054 0.44983485 0.32911533 -0.32142332 -0.28474605 -0.24101321
0.2823818 0.08780708 0.45610532 -0.5521112 0.008519457 0.1262342 0.08161277 -0.3034064
0.10633017 -0.105390795 0.29501852 0.43240678 -0.18502553 0.05425248 -0.28487766 -0.34664148
0.497996 -0.029566534 0.06325822 0.05430814 -0.06916583 0.51777864 0.11458876 -0.21912374
-0.06456283 0.40147218 -0.52708364 0.13681069 0.039232675 -0.22244494 -0.27505243 -0.0063811345
-1.4172599 0.2877663 -0.12191222 -0.30428237 0.14730947 0.062215067 2.519086 -0.47911927
0.51223147 -0.3490548 -1.4856955 1.8557591 2.3545563 0.063769564 -0.55675685 -0.28773424
-0.27572316 2.2059994 -4.5506444 -0.611461 -1.0277108 0.3267661 0.48324832 -1.3016115
4.715125 0.6376932 0.90964586 0.31244838 -0.22468157 1.4359217 2.3510032 0.5912634
0.45714337 -0.3693399 -0.09487182 0.350232
00000000: eb8c a83e d520 fb3d d498 fb3e c0c5 d13e
00000010: c61b ef3e 60fe 30bc ba2a 4cbd ce59 9f3e
00000020: caa3 d83e 5db5 0e3d 6f7d b0be db47 9a3c
00000030: bce8 983e 2418 c03e 29d8 fbbc 7fee 65be
00000040: 50aa 9fbe ea23 03be 531d 56be 6298 eabe
00000050: 5193 ad3e 7c6f 95be 2f74 fdbe 10a8 873d
00000060: b5b9 203f 405d 523d 8e95 a43e 6f26 793d
00000070: fcae 04bf a31c 403f df91 19be 467e a9be
00000080: 5c31 293e ac15 dfbe 8e9b 9e3e c150 e63e
00000090: ce81 a83e 9991 a4be 3cca 91be 2bcc 76be
000000a0: 5994 903e 33d4 b33d a386 e93e 2957 0dbf
000000b0: 3195 0b3c 8a43 013e 9924 a73d 1558 9bbe
000000c0: a2c3 d93d 21d7 d7bd ab0c 973e 6c64 dd3e
000000d0: 5577 3dbe d937 5e3d 7cdb 91be fe7a b1be
000000e0: 55f9 fe3e 8435 f2bc 878d 813d 3672 5e3d
000000f0: d1a6 8dbd 248d 043f 83ad ea3d f961 60be
00000100: 8439 84bd c38d cd3e f4ee 06bf 1a18 0c3e
00000110: 71b2 203d 9bc8 63be acd3 8cbe d618 d1bb
00000120: c668 b5bf 1b56 933e 1dad f9bd e6ca 9bbe
00000130: 4bd8 163e 3ad5 7e3d b438 2140 1f4f f5be
00000140: 9a21 033f 50b7 b2be 452b bebf 8489 ed3f
00000150: 0db1 1640 9e99 823d 9e87 0ebf e751 93be
00000160: 962b 8dbe 182f 0d40 e19e 91c0 b588 1cbf
00000170: 078c 83bf e34d a73e 536c f73e 359b a6bf
00000180: 4ee2 9640 dd3f 233f 8dde 683f 3cf9 9f3e
00000190: ed12 66be 48cc b73f d676 1640 0a5d 173f
000001a0: b20e ea3e 1f1a bdbe 284c c2bd 9c51 b33e

transformer_encoder.layers.0.self_attn.in_proj_bias f4 [18]
0.021960733 -0.032277707 -0.022531986 0.02971825 0.072482936 0.09313213 -0.025973791 -0.028677873
0.047165256 -0.04312384 -0.020886637 -0.04752574 -0.1269884 0.11913514 -0.34503365 -0.8674884
0.72363937 0.85389966
00000000: ffe6 b33c a135 04bd 0095 b8bc b073 f33c
00000010: ef71 943d 0fbc be3d fdc6 d4bc dced eabc
00000020: 5b30 413d a0a2 30bd 741a abbc 5aaa 42bd
00000030: 3f09 02be 20fd f33d 40a8 b0be b813 5ebf
00000040: 6e40 393f 2b99 5a3f

transformer_encoder.layers.0.self_attn.out_proj.weight f4 [6, 6]
0.16332483 0.20780502 0.22316486 -0.12647828 0.11799176 -0.0118164765 -0.2873523 0.26517212
0.035854165 -0.3377576 0.08348895 0.40515444 -0.04621593 0.33539096 -0.34242037 -0.19986576
-0.029652197 -0.19895776 0.25782993 -0.2579675 0.027850809 -0.00080096326 0.10769359 0.09795319
0.24659866 -0.40585515 0.2435701 0.20883742 -0.25085226 -0.40431643 0.06615502 -0.38119888
-0.4028631 -0.011431298 -0.2873376 -0.027328588
00000000: a03e 273e d7ca 543e 5485 643e 8683 01be
00000010: aaa5 f13d e599 41bc d71f 93be a4c4 873e
00000020: d1db 123d 90ee acbe 41fc aa3d 6770 cf3e
00000030: ea4c 3dbd 5db8 ab3e b951 afbe 9ca9 4cbe
00000040: 2ae9 f2bc 95bb 4bbe 4902 843e 5114 84be
00000050: 6127 e43c bcf7 51ba 758e dc3d af9b c83d
00000060: 5c84 7c3e 3fcc cfbe 716a 793e 7ad9 553e
00000070: b56f 80be 9002 cfbe 487c 873d 802c c3be
00000080: 1244 cebe 574a 3bbc ea1d 93be 34e0 dfbc

transformer_encoder.layers.0.self_attn.out_proj.bias f4 [6]
-0.06144782 0.8922668 1.4480275 0.8385992 -2.3464553 -0.16807128
00000000: b6b0 7bbd 996b 643f f758 b93f 70ae 563f
00000010: 532c 16c0 e11a 2cbe

transformer_encoder.layers.0.linear1.weight f4 [2048, 6]
0.42486948 0.10560538 0.32025003 0.25674024 -0.05874731 -0.20129597 -0.42108172 -0.18769586
-0.4850472 -0.42880884 0.16968885 0.20652522 -0.028385771 -0.21556412 0.36750346 0.22522493
-0.17330922 0.22130996 -0.06628435 -0.1635191 0.2025878 -0.8144628 0.08367157 -0.37846205
0.4878375 -0.26814926 -0.069462515 -0.8830935 0.02721627 -0.0983413 0.28692782 0.21319088
-0.21162237 0.04092153 0.072742105 0.054314937 0.09644363 0.3589012 0.4252491 0.18487811
-0.4745629 -0.3094168 0.32365498 0.27392024 0.16248561 0.28492552 0.23162332 0.3876239
-0.14832832 -0.11736206 0.3207606 0.11560891 -0.21365267 -0.04719929 -0.06677007 0.13298962
0.2093916 0.27107742 -0.73589414 0.30133176 -0.059914693 -0.27566192 0.118646406 -0.3209066
0.18904893 -0.09391777 0.15191212 0.30525047 -0.1313503 -0.099557325 0.04488181 -0.27723676
-0.12366633 0.27192682 0.11441145 0.19888078 0.28396454 0.023581734 0.39777306 0.04854153
-0.06359348 0.1276069 0.17536888 0.49500564 0.051935125 0.37763646 -0.5001465 0.16426906
0.17673473 0.25336027 0.26068863 -0.32837585 -0.41768783 -0.35285044 -0.33533117 -0.38244197
-0.3653179 0.33196902 0.1629933 0.10778473 -0.5645976 0.21551074 -0.027297081 0.35900578
0.3984928 0.30779278 0.03609624 -0.001304746 0.17694736 -0.035903078 7.004819e-05 0.12043631
-0.6267056 0.14262208 -0.20211218 -0.2294363 0.347613 0.0052583567 -0.18197107 -0.20474932
0.37189898 0.16323838 0.28501585 0.031313457 0.5893976 0.31145722 -0.18045217 -0.1854799
0.3533037 -0.056224518 -0.0056995424 -0.09148629 0.31811973 0.07335731 0.5068112 0.15014264
-0.07360157 0.22773056 -0.21170679 0.43232712 0.5631382 0.032764714 0.075944014 -0.31866056
0.23025322 0.27937382 -0.015786821 0.13936466 0.19982351 0.15097225 0.17130613 -0.40423086
0.26244146 -0.8204148 -0.07572176 -0.05121921 -0.072645195 0.19112085 -0.02875531 0.10064297
-0.57665366 0.22861208 0.3245175 0.121634394 0.12401243 0.37596023 -0.34106854 0.36192462
0.4266828 0.3862216 -0.49906823 0.055674933 -0.022284137 0.5637476 0.014922513 -0.1241109
0.16558832 0.18965653 -0.28377083 -0.060566477 -0.045070082 0.41942465 -0.05033653 0.03931622
0.36745533 -0.11595118 0.1928871 -0.2672971 0.3843114 0.28304157 -0.25432813 0.3375251
0.12435338 -0.23191293 0.3734071 0.0397234 -0.24736317 0.075117454 -0.3977136 0.10511031
0.57659703 -0.2757209 0.51261914 -0.31311607 0.032889433 0.41995448 0.4715379 0.15952632
0.026325025 -0.19105983 0.5092649 -0.111816384 0.015480503 -0.0346849 -0.09552766 -0.40193465
-0.028068878 -0.4843621 0.21299067 -0.35601363 0.21692173 -0.04572512 0.19319633 -0.17556721
0.035688177 -0.17450067 0.24076463 0.48350006 0.2642768 -0.05911081 0.32884026 0.3142508
0.33639586 -0.0030472176 -0.1612016 -0.26868317 0.23161891 0.14186954 -0.3253849 0.33196262
-0.06954602 -0.28567293 0.2356508 -0.016744893 0.0023963067 0.26020578 -0.38935044 -0.22127254
-0.0460032 -0.26267427 0.086671196 0.419883 0.30052498 0.06803512 0.29105 0.052589417
00000000: 7e88 d93e a247 d83d d0f7 a33e 7573 833e
00000010: 05a1 70bd 8820 4ebe 0698 d7be 5833 40be
00000020: 1b58 f8be d58c dbbe eac2 2d3e 597b 533e
00000030: 4789 e8bc d7bc 5cbe 6a29 bc3e 5da1 663e
00000040: f977 31be 149f 623e 17c0 87bd 8d71 27be
00000050: 2d73 4f3e a280 50bf 005c ab3d c7c5 c1be
00000060: d6c5 f93e dc4a 89be 5d42 8ebd 6a12 62bf
00000070: a8f4 de3c 2a67 c9bd 34e8 923e b64e 5a3e
00000080: 89b3 58be 569d 273d d0f9 943d 5779 5e3d
00000090: 3d84 c53d e6c1 b73e 40ba d93e b050 3d3e
000000a0: e9f9 f2be e16b 9ebe 1bb6 a53e 463f 8c3e
000000b0: a162 263e c2e1 913e aa2e 6d3e a476 c63e
000000c0: 61e3 17be 855b f0bd bc3a a43e 5dc4 ec3d
000000d0: c4c7 5abe 0b54 41bd bfbe 88bd 6e2e 083e
000000e0: c06a 563e a9ca 8a3e 8f63 3cbf 2848 9a3e
000000f0: 1c69 75bd 8f23 8dbe e3fc f23d df4d a4be
00000100: 0b96 413e f657 c0bd da8e 1b3e ca49 9c3e
00000110: b180 06be b6e4 cbbd fdd5 373d faf1 8dbe
00000120: c644 fdbd fe39 8b3e 8d50 ea3d 67a7 4b3e
00000130: cd63 913e 7b2e c13c e9a8 cb3e 7cd3 463d
00000140: 4c3d 82bd 62ab 023e e693 333e 6171 fd3e
00000150: edb9 543d 9159 c13e 9a09 00bf 2636 283e
00000160: f3f9 343e 70b8 813e fb78 853e e120 a8be
00000170: 2edb d5be d0a8 b4be 87b0 abbe 6fcf c3be
00000180: f30a bbbe d8f7 a93e b7e7 263e 3ebe dc3d
00000190: 7889 10bf d9ae 5c3e 219e dfbc 9bcf b73e
000001a0: 4007 cc3e 0497 9d3e a7d9 133d 0304 abba
000001b0: b031 353e 1b0f 13bd d6e6 9238 50a7 f63d
000001c0: c76f 20bf 860b 123e 7ff6 4ebe 59f1 6abe
000001d0: 55fa b13e 4b4e ac3b a056 3abe cea9 51be
000001e0: 8b69 be3e f627 273e 99ed 913e 8a42 003d
000001f0: c3e2 163f 5277 9f3e 74c8 38be 71ee 3dbe
00000200: 39e4 b43e ae4b 66bd 3ac3 babb 2a5d bbbd
00000210: 97e0 a23e 5b3c 963d 61be 013f febe 193e
00000220: 6cbc 96bd 3332 693e aac9 58be fb59 dd3e
00000230: d329 103f 4b34 063d 8988 9b3d 7a27 a3be
00000240: 80c7 6b3e 160a 8f3e 5d53 81bc 9cb5 0e3e
00000250: 899e 4c3e 7898 1a3e e06a 2f3e 59f7 cebe
00000260: ba5e 863e b406 52bf 0314 9bbd 3ccb 51bd
00000270: 01c7 94bd 2fb5 433e 4290 ebbc e71d ce3d
00000280: 939f 13bf 4919 6a3e 2827 a63e 741b f93d
00000290: 3bfa fd3d dc7d c03e 89a0 aebe 2f4e b93e
000002a0: 2b76 da3e d6be c53e df85 ffbe 660b 643d
000002b0: 398d b6bc c351 103f 8e7d 743c db2d febd
000002c0: fc8f 293e 5235 423e 694a 91be 8e14 78bd
000002d0: 689b 38bd d4be d63e ad2d 4ebd 0b0a 213d
000002e0: 1b23 bc3e d077 edbd 3284 453e 2adb 88be
000002f0: 77c4 c43e d3ea 903e 4c37 82be 17d0 ac3e
00000300: fcac fe3d 957a 6dbe 372f bf3e 01b5 223d
00000310: c54c 7dbe 2ed7 993d 1ea1 cbbe 1344 d73d
00000320: dd9b 133f 4a2b 8dbe 023b 033f c050 a0be
00000330: 12b7 063d 4604 d73e 6a6d f13e de5a 233e
00000340: 94a7 d73c 30a5 43be 2f5f 023f fdff e4bd
00000350: f0a1 7d3c c111 0ebd 01a4 c3bd 61ca cdbe
00000360: b4f0 e5bc 4ffe f7be 3a1a 5a3e 6b47 b6be
00000370: bb20 5e3e 434a 3bbd 42d5 453e e4c7 33be
00000380: c42d 123d 4eb0 32be 018b 763e 528d f73e
00000390: 4a4f 873e 2d1e 72bd c05d a83e 7be5 a03e
000003a0: 143c ac3e d4b3 47bb 0812 25be d790 89be
000003b0: 822d 6d3e 4046 113e da98 a6be 01f7 a93e
000003c0: 256e 8ebd b943 92be 714e 713e 962c 89bc
000003d0: 5b0b 1d3b b139 853e f158 c7be 4595 62be
000003e0: da6d 3cbd 3e7d 86be ab80 b13d e8fa d63e
000003f0: 69de 993e ff55 8b3d 8104 953e 0068 573d

transformer_encoder.layers.0.linear1.bias f4 [2048]
-0.009671787 -0.12008672 -0.24097687 -0.27493668 -0.25522566 0.20905253 0.14404587 0.062502585
-0.15073949 0.06651724 0.35635766 0.24047047 -0.26965508 0.13491835 -0.13957185 0.09347692
-0.33159772 -0.2066509 0.030713018 -0.20950432 0.3785733 -0.087363996 0.236677 0.24582794
-0.3443747 -0.2561537 0.21075119 -0.15541041 0.118876934 -0.29642692 0.14345588 -0.23604144
0.021505198 -0.060828518 0.1756775 -0.26560113 0.104362585 0.19763409 -0.38466942 -0.14177118
-0.051230982 -0.24752524 0.057510577 0.13933763 -0.27668685 -0.00960098 -0.05861754 -0.30478963
0.24817722 0.14966762 -0.11660273 -0.016243668 0.14658844 -0.40851274 -0.11206387 0.031072509
0.091126025 0.2522666 0.18792015 -0.49966303 0.379373 -0.20706585 -0.35219058 -0.3382435
0.18287694 0.18146205 0.22523466 0.28475982 -0.1457132 -0.2896305 0.22771633 0.22224367
0.22035757 0.101160906 -0.37012002 -0.0062526017 0.04346576 0.22189082 0.2611359 0.35134175
0.16708584 0.08001452 -0.19672294 0.25014868 -0.07941338 0.14740913 -0.13504389 -0.053939484
0.31362438 -0.0608279 -0.16595215 0.04401066 -0.42987615 0.09192801 -0.1694482 -0.06514525
-0.08749773 -0.011507613 0.31766236 0.0740303 -0.18326607 -0.2066211 -0.2398516 0.0416836
-0.28403896 0.27077314 -0.24708052 -0.2956439 0.20960231 -0.3920638 0.2158722 0.055732947
-0.16746615 -0.09381531 -0.28918806 -0.16054904 0.2501746 0.20652719 -0.32902604 -0.02093919
0.30323088 -0.15733206 0.3529274 -0.19255802 -0.37781596 -0.23972206 -0.09144063 -0.43244717
-0.15138613 0.090064324 0.28259125 -0.13642783 -0.22552946 -0.36749703 0.09595891 -0.14080359
0.077022806 -0.25772938 0.13003108 0.3755883 -0.15830112 -0.06338511 -0.34345266 -0.05082636
0.28409612 0.17552237 -0.4578013 0.048177294 0.24582666 0.3013368 -0.008035744 -0.10510708
0.17149098 0.34074342 -0.010287622 -0.049086694 0.13471317 -0.14974667 0.33216417 -0.01267703
-0.12904598 -0.0835313 -0.31593046 -0.15841965 -0.12697785 -0.2942125 -0.21737343 -0.0013393479
-0.30291605 0.31439897 -0.1575558 -0.14896134 -0.35293445 0.2502767 0.14070311 0.03293378
-0.38529864 -0.34676322 -0.015052015 -0.0972888 -0.10653544 0.06686435 -0.3243966 -0.38258612
0.24759805 -0.10013277 -0.13731775 0.008706803 -0.3657939 0.12386554 0.08983942 -0.2603911
-0.12509845 0.1506372 -0.16700235 -0.1433454 -0.24041611 0.28969222 -0.23912455 0.26288107
-0.2419649 -0.32248327 0.24518804 -0.21390261 -0.35682085 -0.22968155 0.17664921 0.045151822
-0.064974606 -0.06130557 -0.084701136 -0.2826397 0.0858102 -0.0904599 -0.057695772 0.10233771
-0.27251208 -0.086629525 -0.28155273 -0.1351072 -0.043435957 -0.3468895 -0.2530226 0.10447291
-0.11221471 -0.26982096 0.13467246 -0.40081653 0.16223803 0.20734702 -0.1668721 0.21876986
0.029153904 -0.24743204 -0.28483585 0.11535325 -0.34003314 -0.27770475 -0.21404423 -0.23867029
-0.1905668 0.2977916 -0.24615788 -0.24816108 -0.14351068 -0.04948242 -0.001679387 -0.23166166
0.047953635 0.2037536 -0.099488586 0.0025694987 0.0981947 0.008061379 -0.23286732 0.03956631
00000000: 6a76 1ebc 07f0 f5bd a4c2 76be 80c4 8cbe
00000010: f0ac 82be de11 563e c380 133e 5b01 803d
00000020: 745b 1abe 313a 883d 8374 b63e e43d 763e
00000030: 3b10 8abe 0928 0a3e eceb 0ebe d470 bf3d
00000040: 2dc7 a9be 4b9c 53be de99 fb3c 4d88 56be
00000050: 5cd4 c13e e5eb b2bd 755b 723e 52ba 7b3e
00000060: e151 b0be 9426 83be 29cf 573e e823 1fbe
00000070: c075 f33d 45c5 97be 19e6 123e d9b4 71be
00000080: ab2b b03c 5327 79bd cde4 333e dffc 87be
00000090: 0dbc d53d 9760 4a3e 64f3 c4be 772c 11be
000000a0: 94d7 51bd 4277 7dbe 3690 6b3d 86ae 0e3e
000000b0: e6a9 8dbe 6e4d 1dbc f218 70bd 630d 9cbe
000000c0: 2b22 7e3e 7842 193e 69cd eebd 7111 85bc
000000d0: 481b 163e 9528 d1be be81 e5bd c68b fe3c
000000e0: 48a0 ba3d 1629 813e 246e 403e d5d3 ffbe
000000f0: 2e3d c23e 1209 54be 5352 b4be 412e adbe
00000100: 1844 3b3e 30d1 393e eaa3 663e 0acc 913e
00000110: d735 15be 734a 94be 782e 693e d893 633e
00000120: 6aa5 613e 732d cf3d 5f80 bdbe a0e2 ccbb
00000130: 2709 323d 5937 633e 9bb3 853e 11e3 b33e
00000140: 8d18 2b3e a7de a33d bd71 49be 7d13 803e
00000150: 7ba3 a2bd 6bf2 163e f248 0abe a6ef 5cbd
00000160: 6093 a03e ad26 79bd 5cef 29be 8644 343d
00000170: ba18 dcbe c144 bc3d d483 2dbe df6a 85bd
00000180: 0332 b3bd 6d8a 3cbc a4a4 a23e 339d 973d
00000190: 1aaa 3bbe 7b94 53be a89b 75be 6cbc 2a3d
000001a0: 8e6d 91be c7a2 8a3e ad02 7dbe a35e 97be
000001b0: fda1 563e 96bc c8be 9a0d 5d3e 3b48 643d
000001c0: 3f7c 2bbe 3e22 c0bd 7510 94be f866 24be
000001d0: e316 803e dd7b 533e 1a76 a8be aa88 abbc
000001e0: 1441 9b3e a81b 21be e6b2 b43e ee2d 45be
000001f0: 1871 c1be b379 75be 3a45 bbbd b769 ddbe
00000200: f704 1bbe a573 b83d cdaf 903e bdb3 0bbe
00000210: 32f1 66be 9228 bcbe 1b86 c43d d12e 10be
00000220: 22be 9d3d 1bf5 83be de26 053e 1c4d c03e
00000230: b019 22be 0dd0 81bd 07d9 afbe 4d2f 50bd
00000240: 0c75 913e 23bc 333e ef64 eabe 8e55 453d
00000250: fcb9 7b3e d148 9a3e 5aa8 03bc 6142 d7bd
00000260: 559b 2f3e ec75 ae3e 6a8d 28bc 210f 49bd
00000270: 40f2 093e 3157 19be 6c11 aa3e 51b3 4fbc
00000280: a124 04be 7512 abbd a3c1 a1be c338 22be
00000290: 7b06 02be 05a3 96be 2497 5ebe 0f8d afba
000002a0: d017 9bbe e7f8 a03e 4f56 21be 5289 18be
000002b0: d3b3 b4be 4524 803e 7a14 103e 92e5 063d
000002c0: dd45 c5be f38a b1be ba9c 76bc 5a3f c7bd
000002d0: 412f dabd 2df0 883d 5017 a6be 54e2 c3be
000002e0: 588a 7d3e 6912 cdbd 069d 0cbe fba6 0e3c
000002f0: 5749 bbbe 37ad fd3d bbfd b73d fb51 85be
00000300: cf19 00be a340 1a3e aa02 2bbe 23c9 12be
00000310: a42f 76be 8a52 943e 11dd 74be 5998 863e
00000320: a6c5 77be 871c a5be 9312 7b3e 4909 5bbe
00000330: 39b1 b6be a431 6bbe 88e3 343e 1ef1 383d
00000340: 6811 85bd 8d1b 7bbd ca77 adbd 27b6 90be
00000350: 42bd af3d 0a43 b9bd 6752 6cbd 6f96 d13d
00000360: b486 8bbe d26a b1bd ae27 90be 8b59 0abe
00000370: e7e9 31bd 809b b1be 2e8c 81be e5f5 d53d
00000380: d3d0 e5bd f925 8abe 94e7 093e d337 cdbe
00000390: ba21 263e c752 543e 85e0 2abe 3505 603e
000003a0: 2bd4 ee3c d35e 7dbe 01d6 91be 533e ec3d
000003b0: d318 aebe 512f 8ebe 692e 5bbe fc65 74be
000003c0: f123 43be 2478 983e d010 7cbe f01d 7ebe
000003d0: 77f4 12be 14ae 4abd e01e dcba b738 6dbe
000003e0: 086b 443d c9a4 503e acc0 cbbd 0965 283b
000003f0: 4e1a c93d e013 043c c574 6ebe 4810 223d

transformer_encoder.layers.0.linear2.weight f4 [6, 2048]
-0.031805713 0.73691887 -0.0040777437 -0.27958634 -0.22377178 0.011722877 -0.029430132 -0.0019367541
-0.027959546 0.0021014265 0.07943701 -0.038897965 -0.018504443 -0.014962507 -0.16089082 0.1354186
0.049075264 -0.02209021 0.0076044095 0.0070068347 0.0023761296 -0.014028369 -0.011629299 -0.024863023
-0.018215278 -0.1980731 -0.0053164572 0.027412493 0.107458234 0.0053951927 -0.004948083 -0.012917407
-0.014555106 0.009127903 -0.018334197 0.67191905 -0.05709786 0.13607128 -0.0015184009 -0.0011417923
0.0010181675 -0.31659222 0.11635887 -0.10531429 0.0009163865 -0.0061210846 -0.099802695 -0.0117714275
-0.006098256 -0.06469928 -0.05809673 0.0020625766 0.06904874 0.14741461 -0.03285509 0.0776524
0.076148555 -0.031967722 -0.04884962 -0.0156061165 0.077367604 -0.028494002 0.0985442 -0.17292538
-0.010686732 0.17775483 0.0076729422 -0.021952752 0.23931833 0.0101016695 0.0032190885 -0.016052155
-0.022590928 -0.054610908 -0.023460206 -0.01577638 0.14698198 0.01600103 -0.0041397926 -0.058838174
0.08853471 -0.5151744 -0.019579818 0.015658733 0.031207317 0.33477342 0.002186039 0.00020122291
-0.053524625 -0.036939386 0.044395655 0.12488164 -0.03371378 0.001893173 -0.079703294 0.0063633355
-0.071225844 0.11203804 0.01291646 -0.002359606 -0.040273976 0.09081231 0.63019097 -0.0026695156
-0.0467932 0.035458922 -0.043869574 -0.033349406 0.042028274 -0.051150564 0.074858576 0.052180693
-0.04663204 -0.12054187 0.019251565 -0.02242658 0.031626858 -0.014209224 -0.04744318 -0.10240696
-0.00031572918 -0.011630142 0.02372877 -0.040257566 -0.13816072 -0.6234933 0.27545196 -0.007504444
-0.0060110795 0.030984394 -0.03510977 -0.006526074 0.34567752 0.12268459 -0.193266 -0.19398522
-0.019699048 0.19062594 -0.020649424 -0.029437104 0.08593734 0.0006995986 -0.018286776 0.081535995
0.037179444 0.014317461 -0.05592312 0.018482711 -0.05948383 0.09968922 -0.62964433 0.09668821
0.027396388 0.105734505 0.003570454 -0.07142971 -0.003930806 -0.013180787 0.0056459657 0.012545423
0.08788823 0.031085486 0.32645318 0.016190967 0.0050794627 0.005239708 -0.022470431 -0.03522048
-0.0013345729 0.11472528 0.012001995 0.009399951 -0.035099626 0.108801015 0.06973632 0.1410631
0.07851655 0.05850153 -0.042097136 -0.115667105 -0.3672276 0.4404929 -0.017663525 0.06574668
0.20693442 0.023119882 -0.022199567 -0.0069182497 0.004288529 -0.008193161 0.57394767 0.07104911
0.15928322 -0.0028893142 -0.013109584 0.04984274 0.016325098 -0.021746648 -0.022375805 -0.07303071
-0.0067841145 -0.093733 0.050342757 0.02048553 -0.13684562 0.19095486 0.15124293 0.025991224
-0.022847954 -0.008323934 -0.0068655163 0.025985012 -0.08317903 -0.7567132 -0.08185925 0.0063100387
0.034527566 -0.015575773 0.07968433 0.011839083 0.0077654845 0.1877346 0.10090352 -0.00318951
0.071178064 -0.0101075135 -0.031099869 -0.12389899 -0.032884173 0.5522936 -0.5258926 -0.06003462
0.108988546 -0.010249043 -0.16389625 0.06795232 0.18950406 0.005820087 -0.07303438 0.69026726
-0.09017761 -0.0017181212 -0.405742 0.063316464 0.04704068 -0.0065826084 -0.020973552 -0.0044777025
0.018190673 0.009163574 0.0113521265 -0.02173842 0.0049993615 0.015257659 -0.034845684 -0.012555466
00000000: b546 02bd b7a6 3c3f 989e 85bb f125 8fbe
00000010: 6e24 65be 4f11 403c 7617 f1bc afda fdba
00000020: 6b0b e5bc 16b8 093b dfaf a23d 7953 1fbd
00000030: a196 97bc 4e25 75bc 90c0 24be 2cab 0a3e
00000040: 2503 493d 87f6 b4bc 692e f93b 9799 e53b
00000050: d7b8 1b3b 3fd7 65bc d188 3ebc 8aad cbbc
00000060: 3538 95bc add3 4abe ad35 aebb 2a90 e03c
00000070: 1013 dc3d 28ca b03b 8723 a2bb 88a3 53bc
00000080: 8a78 6ebc 338d 153c 9931 96bc e302 2c3f
00000090: 72df 69bd 4556 0b3e 1405 c7ba 31a8 95ba
000000a0: 0874 853a 6018 a2be 8f4d ee3d 05af d7bd
000000b0: a839 703a 6193 c8bb 5b65 ccbd f2dc 40bc
000000c0: e1d3 c7bb 0e81 84bd d6f6 6dbd 4b2c 073b
000000d0: 6d69 8d3d dbf3 163e 0f93 06bd 3908 9f3d
000000e0: c6f3 9b3d 96f0 02bd 8a16 48bd ccb0 7fbc
000000f0: e872 9e3d 416c e9bc 8bd1 c93d 5a13 31be
00000100: 6717 2fbc 5d05 363e 4e6d fb3b 42d6 b3bc
00000110: dd0f 753e 7981 253c 58f7 523b cf7f 83bc
00000120: 9c10 b9bc b0af 5fbd 9e2f c0bc 783d 81bc
00000130: 7282 163e 9814 833c 19a7 87bb 4c00 71bd
00000140: b051 b53d 78e2 03bf db65 a0bc be46 803c
00000150: 7da6 ff3c 6c67 ab3e a643 0f3b 5dff 5239
00000160: a33c 5bbd c14d 17bd 38d8 353d f2c1 ff3d
00000170: 7617 0abd 5824 f83a 7b3b a3bd 8783 d03b
00000180: dbde 91bd 3374 e53d 8f9f 533c 9fa3 1abb
00000190: 53f6 24bd cefb b93d 3254 213f 0af3 2ebb
000001a0: 3aaa 3fbd 603d 113d 95b0 33bd 6399 08bd
000001b0: d725 2c3d 4183 51bd 744f 993d 6cbb 553d
000001c0: 3d01 3fbd a8de f6bd 75b5 9d3c f2b7 b7bc
000001d0: 2a8b 013d cecd 68bc c853 42bd beba d1bd
000001e0: 7488 a5b9 5a8c 3ebc d662 c23c 1ee5 24bd
000001f0: 017a 0dbe 429d 1fbf 0a08 8d3e d7e7 f5bb
00000200: 97f8 c4bb fcd2 fd3c 43cf 0fbd add8 d5bb
00000210: a5fc b03e 0f42 fb3d 86e7 45be 10a4 46be
00000220: e65f a1bc 7233 433e fb28 a9bc 1526 f1bc
00000230: ebff af3d 4465 373a 26ce 95bc 58fc a63d
00000240: 7949 183d c993 6a3c a40f 65bd 0e69 973c
00000250: 51a5 73bd dd29 cc3d 5f30 21bf 7804 c63d
00000260: 646e e03c 558b d83d 47fe 693b bd49 92bd
00000270: fecd 80bb 3af4 57bc cb01 b93b 518b 4d3c
00000280: bffe b33d fda6 fe3c df24 a73e eba2 843c
00000290: 9f71 a63b dbb1 ab3b e913 b8bc 5a43 10bd
000002a0: d6ec aeba 16f5 ea3d 04a4 443c 4102 1a3c
000002b0: a0c4 0fbd 11d3 de3d ead1 8e3d d872 103e
000002c0: 49cd a03d 4d9f 6f3d 0c6e 2cbd e0e2 ecbd
000002d0: 4205 bcbe 4988 e13e 19b3 90bc 32a6 863d
000002e0: 9ee6 533e e865 bd3c dedb b5bc 7cb2 e2bb
000002f0: ca86 8c3b 9c3c 06bc 3cee 123f 3282 913d
00000300: 241b 233e a65a 3dbb 95c9 56bc e727 4c3d
00000310: 36bc 853c 0726 b2bc 774d b7bc 2091 95bd
00000320: 474d debb 16f7 bfbd 3534 4e3d 45d1 a73c
00000330: 4221 0cbe ac89 433e 6ddf 1a3e 8ceb d43c
00000340: a22b bbbc 1c61 08bc 20f8 e0bb 85de d43c
00000350: c459 aabd f5b7 41bf d3a5 a7bd 71c4 ce3b
00000360: c76c 0d3d 8731 7fbc 8a31 a33d b7f8 413c
00000370: 9b75 fe3b 803d 403e 81a6 ce3d 1907 51bb
00000380: cec5 913d fc99 25bc 27c5 febc c1be fdbd
00000390: 8eb1 06bd 1d63 0d3f e6a0 06bf dde6 75bd
000003a0: 6335 df3d 9aeb 27bc 6bd4 27be 962a 8b3d
000003b0: 5a0d 423e 6eb6 be3b 0d93 95bd 5bb5 303f
000003c0: 0aaf b8bd 9532 e1ba 6abd cfbe 10ac 813d
000003d0: baad 403d ecb2 d7bb bad0 abbc b1b9 92bb
000003e0: 9b04 953c d122 163c 45fe 393c c514 b2bc
000003f0: afd1 a33b 43fb 793c 59ba 0ebd 71b5 4dbc

transformer_encoder.layers.0.linear2.bias f4 [6]
-0.024773499 0.047793437 0.030473089 0.0062308344 -0.014989896 0.020396147
00000000: cbf1 cabc 0dc3 433d b3a2 f93c 072c cc3b
00000010: 2e98 75bc d215 a73c

transformer_encoder.layers.0.norm1.weight f4 [6]
0.9933714 0.9254358 1.1481056 0.8327497 1.4205632 1.0809149
00000000: 974d 7e3f 5ce9 6c3f 20f5 923f 162f 553f
00000010: 04d5 b53f 6b5b 8a3f

transformer_encoder.layers.0.norm1.bias f4 [6]
0.009055955 0.15006141 0.034806363 -0.22569747 -0.0001850547 -0.0022643842
00000000: 6e5f 143c b3a9 193e 1e91 0e3d 3d1d 67be
00000010: 3e0b 42b9 1066 14bb

transformer_encoder.layers.0.norm2.weight f4 [6]
1.1974416 0.7359653 0.9422714 0.9800538 1.296732 0.94338906
00000000: c445 993f 3968 3c3f b338 713f cee4 7a3f
00000010: 50fb a53f f281 713f

transformer_encoder.layers.0.norm2.bias f4 [6]
0.031266976 -0.091156706 0.092524424 -0.40225118 -0.097106904 -0.009279939
00000000: cd11 003d 5eb0 babd 727d bd3d def3 cdbe
00000010: fcdf c6bd e30a 18bc

transformer_encoder.layers.1.self_attn.in_proj_weight f4 [18, 6]
0.38325042 0.006304567 0.6915571 0.2451299 0.41785324 0.4876258 -0.0006905526 0.11079525
0.27790833 0.3558061 -0.6271428 0.051115114 0.31221256 0.67522424 -0.1828403 -0.17037977
-0.21910338 -0.48299003 0.3255589 0.046169158 0.029306918 -0.5144603 -0.45731458 -0.33209231
0.55485433 -0.10832669 0.25791216 0.09339557 -0.32995954 0.41655782 -0.09781022 -0.52429026
0.7618268 -0.4888797 0.5433329 -0.5060426 0.2450819 -0.20804614 -0.14793059 -0.19229837
0.43321782 0.21522959 -0.11809288 -0.94173837 0.01002976 0.5030702 0.18567728 -0.09858327
0.26769888 -0.18785909 -0.060934976 0.34089962 -0.4942466 0.3544891 -0.34079203 -0.1077466
0.58844066 0.21940239 -0.18709312 0.07677947 -0.15700579 0.27094302 -0.3327027 -0.24409653
-0.033903956 0.5683294 -0.12203808 0.92693776 0.24365887 -0.4741447 -0.26271832 -0.22769278
-0.4847535 -0.15763965 -0.035380155 -0.27319503 -0.54602194 0.3501598 -0.1684535 -0.34225488
0.6290746 -0.48247814 0.024983004 -0.49763435 -0.052664373 0.1509765 -0.45818073 -0.2880225
0.49822015 0.05427532 0.5489827 -0.0635576 -0.018757341 0.34931996 0.14864951 -0.25151289
-0.31564134 0.13458058 -0.1351951 0.3486156 0.14511935 0.30124328 0.6332532 -0.16761158
-0.27428764 -0.3789013 0.20374604 0.07564946
00000000: 6639 c43e 8b96 ce3b e309 313f 5503 7b3e
00000010: dcf0 d53e 17aa f93e 3306 35ba 9fe8 e23d
00000020: 004a 8e3e 382c b63e 6e8c 20bf 155e 513d
00000030: 53da 9f3e 7fdb 2c3f 7d3a 3bbe 0978 2ebe
00000040: a35c 60be 784a f7be a8af a63e df1b 3d3d
00000050: 1015 f03c acb3 03bf 2325 eabe 0108 aabe
00000060: ef0a 0e3f 62da ddbd 100d 843e 2d46 bf3d
00000070: 75f0 a8be 1147 d53e ba50 c8bd e337 06bf
00000080: 1507 433f 714e fabe dd17 0b3f 028c 01bf
00000090: c0f6 7a3e 0c0a 55be 1e7b 17be dde9 44be
000000a0: bace dd3e 2565 5c3e aeda f1bd c415 71bf
000000b0: dd53 243c 35c9 003f 2f22 3e3e 07e6 c9bd
000000c0: d40f 893e 225e 40be f496 79bd 658a ae3e
000000d0: e40d fdbe 987f b53e 4b7c aebe 40aa dcbd
000000e0: 0ca4 163f 05ab 603e 5795 3fbe 8e3e 9d3d
000000f0: 20c6 20be 0bb9 8a3e 0258 aabe 71f4 79be
00000100: e0de 0abd 097e 113f 1aef f9bd cb4b 6d3f
00000110: b681 793e 18c3 f2be 0483 86be 4c28 69be
00000120: 9c31 f8be 4a6c 21be c8ea 10bd 38e0 8bbe
00000130: 18c8 0bbf 2548 b33e 137f 2cbe 083c afbe
00000140: 080b 213f 6007 f7be 28a9 cc3c eec9 febe
00000150: 99b6 57bd 9599 1a3e aa96 eabe af77 93be
00000160: b616 ff3e cc4f 5e3d 218a 0c3f 7d2a 82bd
00000170: ffa8 99bc 11da b23e 9437 183e 4cc6 80be
00000180: be9b a1be 7ecf 093e 9670 0abe be7d b23e
00000190: 2b9a 143e 8f3c 9a3e e21c 223f 5fa2 2bbe
000001a0: 6e6f 8cbe 5aff c1be cda2 503e 1bee 9a3d

transformer_encoder.layers.1.self_attn.in_proj_bias f4 [18]
0.04120036 -0.024163816 -0.19538161 -0.13687007 0.1711287 -0.21794802 -0.0007400094 0.0032938488
-0.0005391095 0.0017553094 -0.0009124887 0.0051998743 0.11657682 0.041194882 -0.005404252 -0.09236821
-0.032897975 0.10783585
00000000: b5c1 283d 32f3 c5bc 1e12 48be ab27 0cbe
00000010: 5d3c 2f3e c42d 5fbe 31fd 41ba 9ddd 573b
00000020: 0753 0dba 6912 e63a 1434 6fba b563 aa3b
00000030: d4bf ee3d f7bb 283d 2716 b1bb 8b2b bdbd
00000040: 07c0 06bd 0bd9 dc3d

transformer_encoder.layers.1.self_attn.out_proj.weight f4 [6, 6]
-0.2175511 -0.014888112 0.4222066 -0.2192795 0.15025406 0.03171148 -0.3910552 0.69453776
0.1205665 0.25553575 -0.12666944 0.51538515 -0.0462095 0.5346295 -0.47190553 -0.16722985
-0.06273972 -0.25773588 0.4675361 -0.06372906 0.35432467 -0.24629076 -0.24088499 0.34062332
-0.035517976 -0.30362412 -0.018958302 0.18785541 -0.16306916 -0.4259215 0.3228646 -0.42292917
-0.6271106 0.37380818 -0.4102741 0.13692813
00000000: b7c5 5ebe 45ed 73bc 772b d83e ce8a 60be
00000010: 33dc 193e e6e3 013d 6338 c8be 3acd 313f
00000020: 92eb f63d 95d5 823e a2b5 01be 48f0 033f
00000030: 2c46 3dbd 7bdd 083f 9a9d f1be 4d3e 2bbe
00000040: af7d 80bd f5f5 83be e460 ef3e 6284 82bd
00000050: 0b6a b53e a533 7cbe 8eaa 76be 2e66 ae3e
00000060: 4c7b 11bd 9f74 9bbe 714e 9bbc 2b5d 403e
00000070: 9afb 26be 6212 dabe 824e a53e 2c8a d8be
00000080: 528a 20bf c963 bf3e 720f d2be e336 0c3e

transformer_encoder.layers.1.self_attn.out_proj.bias f4 [6]
0.037877664 0.05049877 0.048636016 0.1786008 -0.08021329 -0.009191726
00000000: 9c25 1b3d ccd7 4e3d 8f36 473d 21e3 363e
00000010: de46 a4bd e598 16bc

transformer_encoder.layers.1.linear1.weight f4 [2048, 6]
0.35445774 0.063194446 0.20301433 0.27983212 -0.0651648 -0.27896765 -0.3691205 -0.20852737
-0.21216407 -0.38753852 0.24450481 0.14023751 -0.056311406 -0.23601787 0.026769223 0.25825042
-0.06323295 0.05213825 0.015237839 -0.084546566 -0.28835765 -0.23607343 0.14910866 -0.3838732
0.39072064 -0.3076164 -0.058394704 -0.25656718 -0.11427161 -0.26428345 0.20537883 0.14930984
-0.39564794 0.08978529 0.11088813 -0.10464534 0.14381109 0.534243 0.22555192 0.12572417
-0.2800029 -0.20622918 0.28637046 0.18607469 0.13194717 0.28026238 0.42236066 0.27516475
-0.06402661 -0.06870538 0.40142086 -0.018039951 -0.10665755 -0.050001983 -0.06708543 0.1117104
0.07395002 0.21003963 -0.3341264 0.36899772 -0.07568399 -0.07391956 -0.24801062 -0.31236172
0.3902657 -0.2756736 0.15417533 0.1814374 -0.33688942 -0.06316607 -0.0780256 -0.20355201
-0.04541182 0.026072176 -0.06143053 0.25077364 0.38185295 -0.13197286 0.27955678 -0.058416136
-0.35522452 0.1935329 0.48856515 0.2767431 0.013023064 0.18438819 -0.46998757 0.17152783
0.5606301 0.17803708 0.12954946 -0.39378455 -0.20674701 -0.30413425 -0.1832531 -0.46013412
-0.32113314 0.3443465 -0.13255534 -0.03706454 -0.2565061 0.5109391 0.028687695 0.37187558
0.18126449 0.29716066 0.186211 -0.08665425 0.18866126 0.020322626 -0.110377654 0.025827205
-0.2652643 0.2584601 -0.16403565 -0.18681303 -0.060790613 0.0004920975 -0.15713233 -0.23800334
0.19584022 0.3662462 0.28321236 -0.014890911 0.31194273 0.32405302 -0.20099804 -0.2662444
0.1181719 -0.025650064 0.16642173 -0.17883708 0.26390934 0.16831768 0.17721272 0.11630696
0.09898469 0.1950183 -0.14344251 0.40540734 0.25041223 0.0017003629 0.22075254 -0.28380865
0.17048882 0.24649756 0.050446946 0.13923694 0.1811044 0.12371648 0.2528411 -0.32685378
0.103072405 -0.12031654 -0.29191166 -0.3056167 -0.06941316 0.16345994 -0.071916685 0.011708529
-0.23163241 0.4607871 0.45732617 0.14964636 0.029489355 0.20491771 0.016019111 0.5453614
0.26676312 0.3488439 -0.48994327 0.103255264 0.023519153 0.6268104 0.020671504 -0.1443927
-0.07205822 0.10982662 -0.21487418 -0.28059214 -0.05622297 0.4655837 -0.10796424 0.07304529
-0.035351224 0.011767425 0.24256554 -0.21153118 0.0576787 0.24409354 -0.124633 0.1730505
0.16341679 -0.17954348 -0.0501459 -0.01920885 -0.15869664 -0.079999894 -0.19497459 0.2656074
0.07901408 -0.34155133 0.50138193 -0.1862419 0.0927374 0.35884348 0.095431685 0.12214173
-0.10760335 -0.17638928 0.31970933 -0.10233498 -0.032874703 -0.023430053 -0.25095826 -0.2365077
0.27175987 -0.36275092 0.004352138 -0.2366442 0.009220666 -0.33929548 0.05624377 -0.12413163
0.04937723 -0.26873145 0.26515836 0.31712785 0.42332375 -0.1311762 0.23455457 0.38092905
0.34539926 -0.21209516 -0.12486597 -0.14093743 -0.071626 0.049866185 -0.23288932 0.24065585
-0.01865348 -0.25908217 0.04882046 -0.0891213 0.19922043 0.27266547 -0.22247075 -0.17438264
-0.6452403 -0.06750804 0.12731126 -0.081038795 0.38277408 -0.0054328195 0.23047854 0.012641921
00000000: 7c7b b53e 176c 813d fde2 4f3e 2846 8f3e
00000010: 1f75 85bd d9d4 8ebe 5dfd bcbe 3388 55be
00000020: 8a41 59be 736b c6be 785f 7a3e 6c9a 0f3e
00000030: caa6 66bd abae 71be 214b db3c 6639 843e
00000040: 4780 81bd eb8e 553d 21a8 793c c026 adbd
00000050: 9da3 93be 3cbd 71be f1af 183e 078b c4be
00000060: 890c c83e e67f 9dbe 492f 6fbd c65c 83be
00000070: 3c07 eabd 2950 87be d44e 523e aee4 183e
00000080: 5e92 cabe 5ae1 b73d 5119 e33d 4c50 d6bd
00000090: 3743 133e 26c4 083f 15f7 663e d6bd 003e
000000a0: 8a5c 8fbe be2d 53be 269f 923e 5d8a 3e3e
000000b0: 291d 073e 8d7e 8f3e a83f d83e 65e2 8c3e
000000c0: 6220 83bd 68b5 8cbd 0987 cd3e 85c8 93bc
000000d0: 466f dabd e1ce 4cbd 1664 89bd 6cc8 e43d
000000e0: 1c73 973d a114 573e 9e12 abbe 45ed bc3e
000000f0: 3500 9bbd 2363 97bd 7ff6 7dbe e0ed 9fbe
00000100: e8d0 c73e 1725 8dbe 23e0 1d3e baca 393e
00000110: c57c acbe 365d 81bd e3cb 9fbd f06f 50be
00000120: bf01 3abd 5195 d53c 949e 7bbd 6765 803e
00000130: 3b82 c33e e523 07be 1122 8f3e c245 6fbd
00000140: fddf b5be 7d2d 463e 3625 fa3e 46b1 8d3e
00000150: b05e 553c 42d0 3c3e 36a2 f0be fea4 2f3e
00000160: 7485 0f3f 5a4f 363e 9da8 043e 219e c9be
00000170: 7db5 53be 7cb7 9bbe b3a6 3bbe b396 ebbe
00000180: 906b a4be 2f4e b03e 96bc 07be fdd0 17bd
00000190: c454 83be e8cc 023f 7502 eb3c 7a66 be3e
000001a0: 669d 393e 7125 983e 19ae 3e3e c977 b1bd
000001b0: 6b30 413e a37b a63c ae0d e2bd 9393 d33c
000001c0: b9d0 87be e254 843e f6f8 27be ea4b 3fbe
000001d0: 94ff 78bd 1b00 013a 4ce7 20be 26b7 73be
000001e0: 578a 483e 9f84 bb3e 3601 913e 02f9 73bc
000001f0: f5b6 9f3e 47ea a53e 6ed2 4dbe 3051 88be
00000200: 1c04 f23d 1520 d2bc 756a 2a3e 1121 37be
00000210: 201f 873e 785b 2c3e 4077 353e 5832 ee3d
00000220: 7cb8 ca3d e1b2 473e 98e2 12be 8d91 cf3e
00000230: 0836 803e b6de de3a f40c 623e 5e4f 91be
00000240: 9f94 2e3e db69 7c3e 75a1 4e3d 2194 0e3e
00000250: 6f73 393e 115f fd3d 6374 813e 6159 a7be
00000260: a017 d33d 8568 f6bd 7275 95be cb79 9cbe
00000270: 7d28 8ebd 0b62 273e 0e49 93bd 21d5 3f3c
00000280: 0c31 6dbe 49ec eb3e a826 ea3e e53c 193e
00000290: a993 f13c f3d5 513e 833a 833c ce9c 0b3f
000002a0: 2d95 883e ab9b b23e d8d9 fabe 7f77 d33d
000002b0: 3dab c03c a576 203f 4957 a93c aedb 13be
000002c0: 4393 93bd c7ec e03d fa07 5cbe c6a9 8fbe
000002d0: 0f4a 66bd fd60 ee3e 5b1c ddbd c598 953d
000002e0: 72cc 10bd 28cc 403c 1a63 783e a19b 58be
000002f0: 8040 6c3d a8f3 793e 963f ffbd 2634 313e
00000300: bb56 273e 3fda 37be ca65 4dbd e15b 9dbc
00000310: 5f81 22be fcd6 a3bd 6ba7 47be b1fd 873e
00000320: 22d2 a13d d1df aebe 915a 003f 32b6 3ebe
00000330: 1bed bd3d 55ba b73e b071 c33d 7125 fa3d
00000340: 255f dcbd 649f 34be f1b0 a33e 0195 d1bd
00000350: a0a7 06bd 62f0 bfbc 9a7d 80be 132f 72be
00000360: 1c24 8b3e 7dba b9be 619c 8e3b db52 72be
00000370: 4712 173c 23b8 adbe de5f 663d b938 febd
00000380: c73f 4a3d 2b97 89be d6c2 873e 955e a23e
00000390: e4bd d83e 0e53 06be 132f 703e 2209 c33e
000003a0: 2cd8 b03e 792f 59be bbb9 ffbd e751 10be
000003b0: a7b0 92bd 7c40 4c3d 8a7a 6ebe 7d6e 763e
000003c0: 2fcf 98bc 6ba6 84be f6f7 473d 3a85 b6bd
000003d0: 7100 4c3e cf9a 8b3e 5fcf 63be 5d91 32be
000003e0: 782e 25bf a841 8abd e25d 023e abf7 a5bd
000003f0: f7fa c33e cb05 b2bb 9102 6c3e 0f20 4f3c

transformer_encoder.layers.1.linear1.bias f4 [2048]
-0.06207941 -0.19026066 -0.22628887 -0.5152505 -0.40351698 0.3039672 0.054569468 0.029130949
-0.27691317 0.015546061 0.28683192 0.18468298 -0.2331561 0.19723126 -0.19931775 0.0290126
-0.4731129 -0.30578822 -0.069676794 -0.27181923 0.1374194 -0.07583234 0.09483595 0.16772427
-0.36585277 -0.2845934 0.16379687 -0.29228258 0.020515334 -0.31361678 0.0064900885 -0.31689852
-0.07890968 -0.28641826 0.035393357 -0.2223374 0.03479185 0.05625608 -0.36315054 -0.25190938
-0.16131422 -0.32400465 -0.044684578 0.08865943 -0.28822312 -0.013109521 -0.32339847 -0.42987698
0.13862285 0.122021124 -0.12158439 -0.13314864 0.0010208413 -0.3402224 -0.15180014 -0.03453089
-0.19745454 0.07482602 0.04650195 -0.45722002 0.34580195 -0.34399715 -0.3871613 -0.43226695
0.21784376 0.11351161 0.12404921 0.339491 -0.2471939 -0.24024887 0.20271787 0.2030501
0.2758458 0.07939705 -0.42647117 -0.11594818 -0.06000974 0.1639633 0.117300265 0.22729626
0.043571945 0.020318255 -0.20538197 0.10603668 -0.12676471 -0.009861682 -0.24472529 -0.11573856
0.26235867 -0.14786816 -0.2519634 -0.041921496 -0.41234535 0.14130177 -0.31178814 -0.11509496
0.01433359 -0.14000764 0.09805347 -0.024077311 -0.28127992 -0.28187618 -0.34763727 -0.032710407
-0.43896934 0.18264286 -0.27135903 -0.47551343 0.01978133 -0.4820653 0.0027251535 -0.08783615
-0.21468519 -0.11562569 -0.4319035 -0.3698502 0.056947865 0.09648352 -0.5436424 -0.095692344
0.23852149 -0.22480597 0.2953499 -0.24213883 -0.47205624 -0.39420658 -0.23748073 -0.46773288
-0.10618119 -0.04001241 0.22744146 -0.20139816 -0.32290924 -0.41659456 0.06688112 -0.23671101
0.025176132 -0.40666607 0.018694181 0.22417592 -0.24063477 -0.056298785 -0.39491427 -0.121748365
0.12286712 0.050820645 -0.3889047 0.1577736 0.116408214 0.22706082 -0.15007856 -0.23810399
0.015559937 0.09305698 -0.13618982 -0.26124665 0.070166305 -0.23882614 0.35130864 -0.03374548
-0.13967806 -0.14997281 -0.48083386 -0.2111903 -0.18793288 -0.3656208 -0.25772655 0.06591314
-0.3310787 0.2016008 -0.23868579 -0.124448635 -0.43901283 0.14816353 -0.04316058 -0.26943377
-0.48727682 -0.40421313 0.007144794 -0.19791839 -0.3320829 -0.047974255 -0.35020152 -0.39230618
0.10930174 -0.27009314 -0.09247946 -0.0837586 -0.19392082 0.18378648 -0.07450911 -0.46722808
-0.2306386 -0.018041028 -0.20034902 -0.2195075 -0.22595792 0.16956133 -0.27431893 0.21712054
-0.29438317 -0.3666222 0.17778803 -0.26320016 -0.47010273 -0.29133284 0.027381932 -0.025782024
-0.11609606 -0.15754983 -0.16568124 -0.37705776 -0.050024502 -0.5820201 -0.15526278 0.050007228
-0.36508834 -0.033365272 -0.31662098 -0.14565276 -0.08777816 -0.29037946 -0.31794703 0.0354213
-0.22033404 -0.24397199 0.11744619 -0.46639413 0.124349095 0.06609138 -0.29988834 0.18711478
0.08228816 -0.29808936 -0.3860444 -0.044378616 -0.4475375 -0.42572966 -0.2551606 -0.2296949
-0.22792402 0.27439326 -0.3326245 -0.48089075 -0.30451578 -0.13957182 -0.022064345 -0.28994063
-0.03862303 0.033654146 0.030910546 -0.074755445 -0.021168038 -0.16780545 -0.36863592 -0.13312408
00000000: fb46 7ebd b1d3 42be 45b8 67be 75e7 03bf
00000010: c799 cebe 97a1 9b3e 3c84 5f3d 07a4 ee3c
00000020: 90c7 8dbe e8b4 7e3c a2db 923e 891d 3d3e
00000030: 79c0 6ebe fef6 493e f419 4cbe d5ab ed3c
00000040: db3b f2be 4690 9cbe b5b2 8ebd e42b 8bbe
00000050: acb7 0c3e fc4d 9bbd 5a39 c23d e9bf 2b3e
00000060: 0e51 bbbe 3ab6 91be 5eba 273e 10a6 95be
00000070: c60f a83c 6192 a0be cfaa d43b 8640 a2be
00000080: 669b a1bd 6aa5 92be a0f8 103d 6aac 63be
00000090: e681 0e3d c66c 663d deee b9be 44fa 80be
000000a0: 8e2f 25be f0e3 a5be 2d07 37bd 1393 b53d
000000b0: fb91 93be 51c9 56bc 7c94 a5be d618 dcbe
000000c0: 26f3 0d3e 36e6 f93d 3d01 f9bd 1e58 08be
000000d0: c0cd 853a a131 aebe 7f71 1bbe 4370 0dbd
000000e0: 8631 4abe 623e 993d d478 3e3d be18 eabe
000000f0: f40c b13e 6520 b0be 023a c6be 1852 ddbe
00000100: 6f12 5f3e c678 e83d 830d fe3d c4d1 ad3e
00000110: 6620 7dbe cd03 76be 4695 4f3e 5eec 4f3e
00000120: a93b 8d3e ec9a a23d 6e5a dabe 3d76 edbd
00000130: c6cc 75bd ffe5 273e 1f3b f03d 5ac0 683e
00000140: 7f78 323d 7872 a63c a74f 52be c229 d93d
00000150: 9cce 01be e492 21bc 4499 7abe 5708 edbd
00000160: e053 863e c06a 17be 5901 81be e0b5 2bbd
00000170: ee1e d3be 69b1 103e b2a2 9fbe e8b6 ebbd
00000180: 6fd7 6a3c 2a5e 0fbe 42d0 c83d c83d c5bc
00000190: ec03 90be 1352 90be 83fd b1be 59fb 05bd
000001a0: 97c0 e0be bb06 3b3e 92ef 8abe 7f76 f3be
000001b0: 750c a23c 43d1 f6be 7d98 323b 70e3 b3bd
000001c0: 6fd6 5bbe 29cd ecbd 7522 ddbe 015d bdbe
000001d0: 2a42 693d 2799 c53d 262c 0bbf 59fa c3bd
000001e0: fa3e 743e 8933 66be 1a38 973e 3ef3 77be
000001f0: 5bb1 f1be 72d5 c9be 262e 73be af7a efbe
00000200: 8675 d9bd 0ee4 23bd 6ae6 683e 523b 4ebe
00000210: 5c54 a5be e24b d5be f8f8 883d 5f64 72be
00000220: 2d3e ce3c 8936 d0be 8a24 993c 5f8e 653e
00000230: f668 76be 8e99 66bd 3432 cabe 3557 f9bd
00000240: c2a1 fb3d 4f29 503d 841e c7be 678f 213e
00000250: 6e67 ee3d a282 683e 32ae 19be 88d1 73be
00000260: 1bef 7e3c a894 be3d 5875 0bbe 1fc2 85be
00000270: 5ab3 8f3d d78e 74be bade b33e b338 0abd
00000280: c407 0fbe 7992 19be db2f f6be 4542 58be
00000290: 7a71 40be a632 bbbe bcf4 83be 78fd 863d
000002a0: 2683 a9be 7170 4e3e 0c6a 74be edde febd
000002b0: 4ac6 e0be 2eb8 173e 26c9 30bd 39f3 89be
000002c0: 597c f9be 06f5 cebe e01e ea3b 1eab 4abe
000002d0: c506 aabe a780 44bd 9d4d b3be 5bdc c8be
000002e0: 97d9 df3d a649 8abe df65 bdbd a189 abbd
000002f0: 2e93 46be 8632 3c3e 3b98 98bd 8538 efbe
00000300: 862c 6cbe c7ca 93bc 4b28 4dbe 93c6 60be
00000310: 8361 67be 7ca1 2d3e 8873 8cbe d954 5e3e
00000320: 64b9 96be e8b5 bbbe 110e 363e 2cc2 86be
00000330: 4eb1 f0be 9429 95be 1350 e03c d334 d3bc
00000340: c5c3 edbd be54 21be 58a8 29be b70d c1be
00000350: 7ee6 4cbd 45ff 14bf 35fd 1ebe 61d4 4c3d
00000360: dcec babe 06aa 08bd 251c a2be ff25 15be
00000370: 09c5 b3bd 9eac 94be f4c9 a2be ed15 113d
00000380: 3f9f 61be cbd3 79be a187 f03d 36cb eebe
00000390: bdaa fe3d eb5a 873d f78a 99be 049b 3f3e
000003a0: b286 a83d 2b9f 98be 9da7 c5be 5ac6 35bd
000003b0: a323 e5be 3df9 d9be 69a4 82be 2435 6bbe
000003c0: ea64 69be 467d 8c3e c24d aabe 5037 f6be
000003d0: 7ee9 9bbe eaeb 0ebe 49c0 b4bc 1973 94be
000003e0: 2f33 1ebd eed8 093d 1d38 fd3c 6219 99bd
000003f0: 9868 adbc 31d5 2bbe d9bd bcbe ae51 08be

transformer_encoder.layers.1.linear2.weight f4 [6, 2048]
-0.021904685 -0.08697124 -0.012899031 0.052564833 0.0934415 -0.010822603 0.04757864 -0.020779196
-0.12742029 -0.012266474 0.024477921 -0.016538965 -0.051336758 -0.04305269 0.09646199 -0.027180512
0.08245102 0.11074931 -0.018362192 -0.028303033 0.12917915 -0.031036252 0.0047818418 -0.01225458
-0.04055832 0.039450042 -0.06307284 -0.017872272 0.00056324096 -0.0197394 0.050957225 -0.039264556
-0.033991095 0.10548771 -0.011024886 0.17604457 -0.011975344 -0.042397294 0.15322135 -0.023012219
-0.04021318 0.13810758 0.02658987 -0.11785205 0.077107236 0.01507649 -0.076008104 -0.036078036
0.005487444 -0.14052168 -0.0712088 0.07727981 -0.02754692 -0.0027941258 0.01719549 0.072859116
-0.13973387 0.10970652 -0.2162483 -0.014565457 -0.012671783 0.057615295 0.1089646 -0.029396772
0.036258012 -0.06457591 0.00848649 0.019095795 0.05995606 0.0026854498 -0.03427773 -0.022170853
0.04216675 -0.083486184 -0.17642426 0.1889552 -0.0028078621 -0.011991844 -0.016013954 0.00094720506
-0.028872369 0.01165432 0.12120159 0.023635704 0.17329937 0.037657723 -0.025730142 0.005113546
-0.054208808 -0.09320912 0.27317414 0.05558091 -0.087547466 -0.011140062 -0.016413474 0.00010796867
0.12811661 -0.18956335 -0.018266633 0.02596432 -0.12589927 -0.17981331 -0.13419153 0.0009245956
0.20505923 -0.1042364 0.08630806 0.05014717 -0.0202008 -0.054607514 0.15183686 -0.0541051
-0.0496209 -0.0037082282 -0.05036385 0.15172316 -0.023960408 0.05199251 -0.16242853 -0.21990098
0.02058087 -0.056564804 0.00813937 0.0028873056 0.0009930165 -0.17015634 -0.06888052 0.11939966
-0.033227064 0.027270973 0.025094217 0.025582474 0.06924644 0.03687152 -0.044364933 -0.23049623
-0.019949934 0.2701703 -0.04932446 -0.080254644 0.07604227 -0.05682611 0.04167293 0.122541994
-0.04888095 -0.003149475 -0.10064692 0.005908717 0.066504866 -0.05681491 0.15634756 -0.035316754
0.10707872 0.18561155 -0.028423637 -0.050139885 0.0015726569 0.0082275225 0.022749146 0.059519567
0.050345927 -0.009664682 -0.040227797 -0.057768587 0.012162516 0.016925339 0.074549295 0.012091409
0.0010512857 -0.016189318 -0.043180127 -0.04140498 -0.05398846 0.072322786 -0.010662765 0.11736937
0.027144931 0.029141612 0.069416784 0.08046391 0.37869555 0.10735139 0.22581857 0.04504133
-0.06401176 0.09478585 0.07729515 -0.069340564 0.015866548 0.03987975 -0.028582262 0.07410653
0.063651204 -0.0011197042 -0.00011291113 0.123184815 -0.049200144 0.0038926539 -0.013886036 0.0376195
0.39523122 0.12039257 0.06703609 0.058298726 -0.034492664 -0.12944189 0.00023241859 -0.041631993
-0.11524802 0.047923636 -0.19144997 0.057893462 0.10306279 0.16034569 0.15825762 0.029643737
0.027539322 -0.06076689 -0.10771341 -0.14187855 -0.0013192801 0.24466589 0.19697106 0.012988229
-0.03266249 0.048878577 0.10249983 0.111055605 0.00080098223 0.03526867 -0.16880208 0.110978715
0.10232409 0.02588291 -0.06894314 -0.043282215 -0.051475026 -0.11845917 0.09200475 0.07702092
0.06962832 -0.06994324 0.054223064 0.14544043 -0.0690336 -0.045531284 -0.009158844 -0.11156998
0.068743974 -0.000883068 -0.02127783 0.030222468 0.0074665523 0.03055311 -0.020395406 -0.041003402
00000000: 7471 b3bc fa1d b2bd 7556 53bc 394e 573d
00000010: 425e bf3d 4951 31bc d2e1 423d 2239 aabc
00000020: 777a 02be 52f9 48bc ec85 c83c b97c 87bc
00000030: 7e46 52bd 0458 30bd dd8d c53d aaa9 debc
00000040: 15dc a83d 89d0 e23d 4f6c 96bc c3db e7bc
00000050: 8a47 043e bd3f febc ffb0 9c3b 6fc7 48bc
00000060: 7b20 26bd 5e96 213d 552c 81bd df68 92bc
00000070: 76a6 133a 86b4 a1bc 86b8 503d dfd3 20bd
00000080: 3f3a 0bbd f109 d83d b9a1 34bc 0745 343e
00000090: 3c34 44bc c9a8 2dbd 0fe6 1c3e 1f84 bcbc
000000a0: 93b6 24bd 136c 0d3e 00d3 d93c 6a5c f1bd
000000b0: 66ea 9d3d 6203 773c 23aa 9bbd 90c6 13bd
000000c0: 04d0 b33b eae4 0fbe ebd5 91bd e144 9e3d
000000d0: 14aa e1bc a71d 37bb 8edd 8c3c 2937 953d
000000e0: 6516 0fbe d0ad e03d 3270 5dbe f4a3 6ebc
000000f0: 4f9d 4fbc 04fe 6b3d d528 df3d 80d1 f0bc
00000100: 4883 143d 6040 84bd eb0a 0b3c c96e 9c3c
00000110: 7c94 753d 5ffe 2f3b ce66 0cbd a69f b5bc
00000120: 0bb7 2c3d cefa aabd 90a8 34be 797d 413e
00000130: 1c04 38bb 7079 44bc b22f 83bc db4d 783a
00000140: bf85 ecbc c3f1 3e3c 8a38 f83d aa9f c13c
00000150: 6475 313e fc3e 1a3d 05c8 d2bc 888f a73b
00000160: 0e0a 5ebd 6ce4 bebd 7bdd 8b3e cfa8 633d
00000170: 164c b3bd ce84 36bc 8d75 86bc 3d6d e238
00000180: 0031 033e e51c 42be e8a3 95bc 20b3 d43c
00000190: bdeb 00be fb20 38be 8169 09be 8f60 723a
000001a0: 0cfb 513e e579 d5bd 48c2 b03d 1e67 4d3d
000001b0: 267c a5bc 21ac 5fbd 1f7b 1b3e 4f9d 5dbd
000001c0: 493f 4bbd bf05 73bb 534a 4ebd 515d 1b3e
000001d0: 9e48 c4bc 19f6 543d aa53 26be b92d 61be
000001e0: 3699 a83c 7fb0 67bd fe5a 053c f338 3d3b
000001f0: 1b28 823a 773d 2ebe 3b11 8dbd cf87 f43d
00000200: 1a19 08bd 6067 df3c 6392 cd3c 5692 d13c
00000210: 14d1 8d3d 9706 173d 01b8 35bd 3407 6cbe
00000220: 0b6e a3bc c353 8a3e 7208 4abd 8c5c a4bd
00000230: 0dbc 9b3d 7fc2 68bd 3cb1 2a3d 4cf7 fa3d
00000240: 6437 48bd 6c67 4ebb f91f cebd e99d c13b
00000250: b433 883d c0b6 68bd 9319 203e 4da8 10bd
00000260: 174c db3d f410 3e3e b0d8 e8bc 7b5f 4dbd
00000270: 9c21 ce3a bbcc 063c 6b5c ba3c caca 733d
00000280: 8837 4e3d 9d58 1ebc e7c5 24bd c19e 6cbd
00000290: 4a45 473c 02a7 8a3c 4dad 983d 0c1b 463c
000002a0: 4bcb 893a 769f 84bc a5dd 30bd 4598 29bd
000002b0: 0123 5dbd f81d 943d e1b2 2ebc 5a5f f03d
000002c0: 0c5f de3c 64ba ee3c 632a 8e3d 43ca a43d
000002d0: 62e4 c13e 0cdb db3d fc3c 673e 427d 383d
000002e0: 9918 83bd 151f c23d eb4c 9e3d 6d02 8ebd
000002f0: 90fa 813c f358 233d 5925 eabc 2ac5 973d
00000300: 905b 823d 0ac3 92ba b4ca ecb8 5248 fc3d
00000310: 1786 49bd e51b 7f3b 4282 63bc e816 1a3d
00000320: bf5b ca3e 6190 f63d 384a 893d a5ca 6e3d
00000330: 2e48 0dbd 6a8c 04be 64b5 7339 4f86 2abd
00000340: 2707 ecbd 934b 443d 760b 44be b221 6d3d
00000350: 9612 d33d a931 243e 490e 223e 6cd7 f23c
00000360: 259a e13c b4e6 78bd d998 dcbd 9c48 11be
00000370: b2eb acba b289 7a3e c8b2 493e 95cc 543c
00000380: 1ac9 05bd e734 483d 6eeb d13d 1f71 e33d
00000390: 02f9 513a e275 103d 74da 2cbe cf48 e33d
000003a0: 4b8f d13d 6508 d43c 1032 8dbd b148 31bd
000003b0: 7ad7 52bd b99a f2bd fd6c bc3d 25bd 9d3d
000003c0: 4b99 8e3d 673e 8fbd 0119 5e3d 56ee 143e
000003d0: 7d61 8dbd 037f 3abd fa0e 16bc cd7e e4bd
000003e0: a4c9 8c3d b17d 67ba d84e aebc 1c95 f73c
000003f0: fba9 f43b 844a fa3c 4414 a7bc 2ff3 27bd

transformer_encoder.layers.1.linear2.bias f4 [6]
-0.025687536 0.014217372 0.030929029 -0.021374783 -0.0015655922 0.007314301
00000000: ab6e d2bc fbef 683c e05e fd3c 2b1a afbc
00000010: 8f34 cdba ceac ef3b

transformer_encoder.layers.1.norm1.weight f4 [6]
1.0273547 0.9497662 0.9505258 0.92544234 1.092311 0.9046713
00000000: 5c80 833f e123 733f a955 733f cae9 6c3f
00000010: d9d0 8b3f 8a98 673f

transformer_encoder.layers.1.norm1.bias f4 [6]
0.04552325 -0.1228684 0.085473664 -0.011167631 -0.045176584 0.02608752
00000000: 9676 3a3d 6da2 fbbd d10c af3d 70f8 36bc
00000010: 150b 39bd 7fb5 d53c

transformer_encoder.layers.1.norm2.weight f4 [6]
1.169089 0.78388095 0.7931882 1.1560652 1.2415937 0.79231095
00000000: b5a4 953f 6cac 483f 620e 4b3f f2f9 933f
00000010: 8bec 9e3f e4d4 4a3f

transformer_encoder.layers.1.norm2.bias f4 [6]
0.21309161 0.06927412 0.09736147 -0.002701154 -0.15695752 -0.1495416
00000000: b034 5a3e 97df 8d3d 7365 c73d d805 31bb
00000010: 79b9 20be 6f21 19be
