DU_model/Transformer/Archive/best_model_merged_tr.3.40.pth (torch, 474208 bytes, 29 tensors)

norm.weight f4 [6]
1.0 1.0 1.0 1.0 1.0 1.0
00000000: 0000 803f 0000 803f 0000 803f 0000 803f
00000010: 0000 803f 0000 803f

norm.bias f4 [6]
0.0 0.0 0.0 0.0 0.0 0.0
00000000: 0000 0000 0000 0000 0000 0000 0000 0000
00000010: 0000 0000 0000 0000

transformer_encoder.layers.0.self_attn.in_proj_weight f4 [18, 6]
0.19922328 -0.15856446 -0.042074736 -0.21872473 0.44338912 0.13801125 0.11561316 0.5340914
0.04281923 -0.32604152 0.096870154 -0.10154004 -0.13357641 -0.450456 -0.4884492 0.09359127
0.31470114 -0.32911113 0.2585098 0.39122048 -0.27541745 0.2615317 0.21796715 0.44350734
0.16347037 -0.48944503 -0.31203204 -0.15868473 0.016665969 0.5171538 -0.2429106 -0.12920004
0.33090314 0.049686603 0.16863546 0.0028493295 -0.3181005 -0.04339416 0.06801961 0.019929107
0.15964249 -0.20622909 -0.4936525 -0.20963037 -0.12562282 0.28698796 0.17632473 0.25071818
0.42156172 0.4899515 -0.07782805 -0.16834429 -0.38783902 0.40372527 -0.39574343 -0.20544714
0.17666425 -0.404486 -0.21694447 -0.12231382 0.6154801 0.4076044 -0.18250698 -0.015753541
-0.23118679 0.15887016 -0.56134963 0.2887907 -0.4566262 0.10872397 0.32778472 0.20666447
0.92106116 0.9370443 -0.13298975 0.097565606 1.1059574 1.1396807 -0.84655184 0.0916618
0.012670496 -0.5367468 0.14259632 0.18394832 -0.8551582 0.12928988 1.0291702 -0.015533397
1.2148948 -0.4754738 -1.5575501 0.29821253 0.49697483 0.17246863 1.1287953 -1.9224472
1.6879694 0.68924487 -0.53059703 0.07489261 0.4097575 0.9121282 0.39573976 0.09820494
0.68365484 -0.37665647 -0.5358422 0.3959409
00000000: 3001 4c3e b95e 22be 8f56 2cbd 60f9 5fbe
00000010: e603 e33e d252 0d3e 98c6 ec3d 37ba 083f
00000020: 3863 2f3d eaee a6be dc63 c63d 39f4 cfbd
00000030: 41c8 08be 2ba2 e6be 0316 fabe c8ac bf3d
00000040: 8220 a13e 4181 a8be 665b 843e 0d4e c83e
00000050: 8403 8dbe 7ce7 853e c832 5f3e 6513 e33e
00000060: c764 273e 8a98 fabe aac2 9fbe 407e 22be
00000070: 1287 883c 3164 043f 8ebd 78be 044d 04be
00000080: 236c a93e 2e84 4b3d c6ae 2c3e d1bb 3a3b
00000090: 12de a2be 13be 31bd de4d 8b3d 5e42 a33c
000000a0: 5279 233e b82d 53be 05c0 fcbe 58a9 56be
000000b0: 45a3 00be 16f0 923e 788e 343e 225e 803e
000000c0: f0d6 d73e ecda fa3e 5064 9fbd 7262 2cbe
000000d0: d692 c6be 14b5 ce3e e29e cabe bc60 52be
000000e0: 79e7 343e ca18 cfbe b126 5ebe ab7f fabd
000000f0: 1b90 1d3f 86b1 d03e 1ce3 3abe 920d 81bc
00000100: 3bbc 6cbe dcae 223e 9cb4 0fbf 60dc 933e
00000110: e9ca e9be acaa de3d 66d3 a73e da9f 533e
00000120: aaca 6b3f 23e2 6f3f 772e 08be 7ad0 c73d
00000130: 0390 8d3f 0fe1 913f 9fb7 58bf 2fb9 bb3d
00000140: e997 4f3c 3d68 09bf c504 123e f35c 3c3e
00000150: a6eb 5abf 9164 043e d9bb 833f ca7f 7ebc
00000160: ac81 9b3f 4d71 f3be cd5d c7bf 50af 983e
00000170: 7c73 fe3e 9e9b 303e 5d7c 903f c012 f6bf
00000180: 620f d83f 5a72 303f 35d5 07bf 4c61 993d
00000190: bccb d13e 3c81 693f 679e ca3e ac1f c93d
000001a0: 0104 2f3f 1ed9 c0be f42c 09bf c4b8 ca3e

transformer_encoder.layers.0.self_attn.in_proj_bias f4 [18]
0.046289925 0.04140632 -0.013868635 0.011093675 -0.042782284 0.02103641 -0.022378827 -0.022044292
0.048197165 0.04900171 0.11708532 -0.11788728 0.22476661 -0.022990601 0.3964659 0.31636778
-0.2457099 0.7266948
00000000: 819a 3d3d ac99 293d 4539 63bc 3fc2 353c
00000010: 7a3c 2fbd 8d54 ac3c cd53 b7bc 3b96 b4bc
00000020: 646a 453d 04b6 483d 6eca ef3d e36e f1bd
00000030: 3829 663e c956 bcbc 94fd ca3e f5fa a13e
00000040: 609b 7bbe ac08 3a3f

transformer_encoder.layers.0.self_attn.out_proj.weight f4 [6, 6]
0.1198887 0.0055438927 -0.21047916 -0.620142 0.45184097 -0.20479432 -0.0334296 -0.03382755
-0.4421911 0.16675769 0.15240647 -0.4959251 -0.20445897 -0.44411048 0.09124748 -0.11817215
-0.15275042 -0.31248832 -0.3969583 -0.12766206 0.18643205 -0.20517194 -0.59232086 -0.121636525
0.13863923 0.02351404 0.14283268 0.07763634 -0.23885968 -0.02363868 0.13669361 0.36256462
0.29964676 -0.063865416 0.40100333 -0.4295698
00000000: 3588 f53d 8ba9 b53b d987 57be a0c1 1ebf
00000010: b357 e73e 9ab5 51be 7aed 08bd c28e 0abd
00000020: df66 e2be 87c2 2a3e 7110 1c3e e5e9 fdbe
00000030: b15d 51be 7362 e3be f5df ba3d 3d04 f2bd
00000040: 9b6a 1cbe 78fe 9fbe 1e3e cbbe d8b9 02be
00000050: 0be8 3e3e 9818 52be 57a2 17bf 921c f9bd
00000060: 71f7 0d3e 84a0 c03c bb42 123e cdff 9e3d
00000070: a297 74be e8a5 c1bc 69f9 0b3e 12a2 b93e
00000080: 4d6b 993e dfcb 82bd 4f50 cd3e 93f0 dbbe

transformer_encoder.layers.0.self_attn.out_proj.bias f4 [6]
-1.1840826 -0.45824444 0.11913054 -0.20631331 1.0129148 -0.28763255
00000000: 0590 97bf 049f eabe b6fa f33d cc43 53be
00000010: 31a7 813f 9344 93be

transformer_encoder.layers.0.linear1.weight f4 [2048, 6]
-0.28010532 -0.043417715 0.049007993 -0.19410914 0.2018962 -0.11091931 0.18367106 0.5393733
-0.11152995 0.04210405 -0.25358614 -0.08431374 0.15657078 -0.025608636 -0.12466185 -0.079211324
-0.26016185 0.6788432 -0.24182051 0.07778866 -0.41421333 -0.2529766 0.3362421 -0.16568963
-0.14990588 0.09683026 0.43681312 0.033594627 -0.14492898 0.5110442 0.31926227 -0.21761842
0.3501328 -0.5168005 0.13435763 0.035217717 -0.48755983 -0.03355465 -0.22175016 -0.47475067
0.4392989 0.10950344 0.39217114 0.28141034 0.21278961 0.007744789 -0.23909892 -0.25252515
-0.14453721 0.11704063 -0.29913154 -0.044209395 0.21304742 0.04149089 0.27455476 0.08174678
-0.1362165 -0.35952368 0.28797373 0.2957438 0.3813586 -0.09612416 -0.04633833 0.17404985
0.3973228 -0.20111607 0.3578584 0.27209958 -0.11877741 -0.3001558 0.4815648 0.09488058
0.74541384 0.002343714 -0.46225163 -0.41070318 -0.02366338 0.2708605 -0.24257027 0.22341296
-0.025695609 0.039368756 0.04533044 0.30074868 0.30623403 -0.20683835 -0.2710733 0.14760964
0.18476377 0.8668864 -0.4430241 0.14566186 0.38041782 0.15803649 0.3171473 0.43198752
-0.53812164 0.4307721 0.024390874 0.0028409944 0.19502288 0.03867928 -0.08895295 -0.13668765
0.292422 -0.12149811 0.0032646323 0.092534825 0.426043 0.18999295 0.3765136 -0.17558672
0.45769644 0.21388544 -0.11561816 0.10779212 -0.30025065 -0.052222967 0.13450813 0.20008326
0.109979175 -0.21516147 -0.2909584 0.1553019 -0.036610316 0.11315335 0.20561153 0.06720394
0.4450027 -0.27524883 0.27993652 -0.27790114 0.37734136 0.16693988 0.21614866 0.12761137
-0.07023041 -0.08966592 0.13889082 0.35717928 0.19954693 0.024937738 -0.22826852 -0.070906565
0.26217175 0.35580704 0.0579272 0.21422163 0.24323614 0.39461905 0.3849107 -0.14589067
-0.058158256 -0.033445098 -0.048905395 0.13070248 0.1996777 0.28917068 -0.20872329 0.08977403
-0.031119976 0.51371896 0.015226299 0.15980223 0.06957727 0.26343703 0.43753818 -0.064913444
-0.071459144 0.61050355 -0.13847986 -0.02984022 -0.24508585 0.070269346 -0.09933838 0.050719544
0.3163606 -0.096675314 -0.2881434 0.4036276 0.16104326 0.28501582 0.037558835 -0.43016288
0.3945104 -0.46009874 -0.19997753 0.45055902 -0.23157647 -0.018839175 -0.00886432 0.020020135
0.15971912 0.03628824 0.6482106 -0.04657491 0.03529722 -0.513882 0.04108163 -0.13452098
0.040177826 -0.36634496 0.35382748 0.24502411 0.15813328 0.13909383 0.2968882 -0.49133724
0.33796078 0.17534806 -0.48592973 -0.02903014 0.12196292 0.116367124 0.031225957 0.32708612
0.112144634 0.046159834 -0.24155593 0.11422924 -0.24668008 0.46775055 0.0966571 -0.090959325
0.061366964 -0.5405587 0.15858538 -0.08438121 0.38842264 0.16391243 -0.06735054 0.21342878
-0.18698896 0.19472015 -0.4076854 -0.21223533 -0.011837875 -0.11693974 0.30527768 0.6828129
0.22249019 0.13882709 0.65154696 -0.15347399 0.12945537 -0.3491548 -0.017559214 0.19280058
-0.66775024 -0.33058894 0.50758505 -0.059510447 -0.15845679 -0.081826925 0.24509677 0.21657078
00000000: f769 8fbe c6d6 31bd 9bbc 483d 8cc4 46be
00000010: e1bd 4e3e aa29 e3bd 4414 3c3e 5e14 0a3f
00000020: d069 e4bd 4c75 2c3d 0bd6 81be afac acbd
00000030: 1754 203e 34c9 d1bc b64e ffbd 8c39 a2bd
00000040: ef33 85be abc8 2d3f cc9f 77be a94f 9f3d
00000050: c513 d4be 2686 81be ed27 ac3e 8baa 29be
00000060: ed80 19be f14e c63d f8a5 df3e 859a 093d
00000070: 4368 14be cbd3 023f 5876 a33e 5dd7 5ebe
00000080: 9b44 b33e 0a4d 04bf 0c95 093e 7440 103d
00000090: 71a1 f9be 9a70 09bd 7912 63be 8512 f3be
000000a0: c9eb e03e 5743 e03d a8ca c83e 0415 903e
000000b0: 85e5 593e 00c8 fd3b 59d6 74be fa4a 81be
000000c0: 9001 14be ffb2 ef3d c527 99be e914 35bd
000000d0: 1a29 5a3e 5af2 293d 7192 8c3e db6a a73d
000000e0: 577c 0bbe 7d13 b8be 4b71 933e bb6b 973e
000000f0: 6f41 c33e bedc c4bd 43cd 3dbd 203a 323e
00000100: e56d cb3e 5ff1 4dbe 3739 b73e a350 8b3e
00000110: 9241 f3bd 05ae 99be a98f f63e c050 c23d
00000120: 71d3 3e3f ff98 193b 3fac ecbe b047 d2be
00000130: b4d9 c1bc 3aae 8a3e 5764 78be 5ec6 643e
00000140: 997f d2bc 2241 213d 69ac 393d bbfb 993e
00000150: b5ca 9c3e 6fcd 53be 1fca 8abe fb26 173e
00000160: b732 3d3e 44ec 5d3f 0ed4 e2be 6228 153e
00000170: 20c6 c23e 51d4 213e 2261 a23e 782d dd3e
00000180: 57c2 09bf 298e dc3e 5fcf c73c fa2f 3a3b
00000190: 14b4 473e 2a6e 1e3d f72c b6bd d9f7 0bbe
000001a0: 56b8 953e 00d4 f8bd 71f3 553b e682 bd3d
000001b0: 4f22 da3e 838d 423e 64c6 c03e 01cd 33be
000001c0: 3057 ea3e c904 5b3e 37c9 ecbd 1dc2 dc3d
000001d0: 74ba 99be c0e7 55bd 80bc 093e a0e2 4c3e
000001e0: c33c e13d 4a53 5cbe 80f8 94be 7607 1f3e
000001f0: b3f4 15bd f2bc e73d d48b 523e 38a2 893d
00000200: 65d7 e33e 6aed 8cbe d753 8f3e 0f49 8ebe
00000210: e332 c13e 4af2 2a3e 1356 5d3e 8eac 023e
00000220: f6d4 8fbd c4a2 b7bd 6539 0e3e 34e0 b63e
00000230: 0856 4c3e 3a4a cc3c 39bf 69be 7637 91bd
00000240: 603b 863e 572c b63e 1245 6d3d ea5c 5b3e
00000250: e512 793e 820b ca3e 0413 c53e 5d64 15be
00000260: 5a37 6ebd bafd 08bd 0651 48bd dfd6 053e
00000270: 5078 4c3e 2e0e 943e 8fbb 55be 72db b73d
00000280: 52ef febc 1683 033f ba77 793c 32a3 233e
00000290: 877e 8e3d 38e1 863e 0105 e03e 57f1 84bd
000002a0: 2c59 92bd f649 1c3f aacd 0dbe 7a73 f4bc
000002b0: c9f7 7abe 60e9 8f3d ec71 cbbd 4cbf 4f3d
000002c0: 04fa a13e b5fd c5bd 8887 93be 47a8 ce3e
000002d0: 86e8 243e 98ed 913e 4bd7 193d 4f3e dcbe
000002e0: 44fd c93e 1092 ebbe e9c6 4cbe acaf e63e
000002f0: 6222 6dbe 9d54 9abc a73b 11bc 4401 a43c
00000300: 698d 233e faa2 143d 21f1 253f 55c5 3ebd
00000310: d193 103d c58d 03bf 3645 283d debf 09be
00000320: 8191 243d 9191 bbbe e028 b53e 9ae7 7a3e
00000330: b1ed 213e 9d6e 0e3e bb01 983e 8e90 fbbe
00000340: 3209 ad3e 718e 333e c8cb f8be 9ed0 edbc
00000350: b2c7 f93d e351 ee3d 94cd ff3c d577 a73e
00000360: 16ac e53d 1812 3d3d 705a 77be 05f1 e93d
00000370: b499 7cbe 007d ef3e 28f4 c53d e248 babd
00000380: ed5b 7b3d 0e62 0abf 3564 223e 0ed0 acbd
00000390: 55df c63e a9d8 273e 14ef 89bd 138d 5a3e
000003a0: 097a 3fbe b864 473e 24bc d0be 3854 59be
000003b0: a5f3 41bc 1a7e efbd 5b4d 9c3e d4cc 2e3f
000003c0: 78d4 633e b028 0e3e c8cb 263f 4928 1dbe
000003d0: f38f 043e 6bc4 b2be 57d8 8fbc 846d 453e
000003e0: aef1 2abf f442 a9be 18f1 013f 3ac1 73bd
000003f0: 7f42 22be e094 a7bd a6fa 7a3e bbc4 5d3e

transformer_encoder.layers.0.linear1.bias f4 [2048]
0.30530182 -0.17502394 -0.12332214 -0.17077738 0.033573546 0.22020225 -0.32310432 -0.025372347
0.12319906 -0.073004745 0.17308435 0.09823809 -0.46581325 -0.041691534 -0.38654974 -0.3001489
-0.1755243 0.28866118 0.22513466 0.14310718 -0.23703831 0.12062854 -0.14583924 -0.13327807
0.20975557 0.1928173 -0.006107631 -0.044569276 -0.108899884 0.105608076 0.22887963 -0.059233148
-0.33024257 -0.32771248 0.027564442 -0.30971 -0.26425725 0.19152427 -0.32342654 -0.18768395
0.11747874 0.2596378 -0.23350276 0.2486546 -0.030367851 -0.064394 -0.059637915 -0.09509343
0.11803349 0.28113452 0.1785913 -0.369812 -0.34319758 0.18081161 0.04458148 -0.40055594
0.22909907 0.011623991 -0.2355628 -0.36760607 0.16571927 -0.23830554 0.37560618 0.21605213
-0.032201894 -0.20211644 -0.2775505 -0.32957062 0.14825629 0.014891469 0.19879822 -0.1976342
-0.41961062 -0.11288456 -0.29401952 0.29238683 -0.32712844 0.011030453 -0.09159465 0.008152618
-0.305289 -0.44340122 0.2606582 0.41226515 -0.23284902 0.28107285 0.2053527 -0.10518421
-0.30833477 0.16230443 0.047557525 -0.10021101 -0.1121678 0.2577103 -0.21536066 0.13243997
-0.33770227 -0.09292645 -0.011258756 -0.17490162 0.026902037 0.17958029 -0.3492659 -0.10321523
-0.16693379 0.056966223 0.17961834 -0.2330738 -0.23204781 0.28428414 0.3643439 0.2500451
-0.34246203 0.25353822 0.07564024 0.09099043 -0.108973384 -0.3756399 -0.29654792 -0.3384548
0.15156636 0.36591744 -0.2642482 0.088861644 -0.08197908 0.3617482 0.102239385 -0.15514734
-0.03909915 -0.33057818 0.15816951 -0.19146822 -0.2239958 0.08650091 -0.35057002 -0.28274947
-0.49292165 0.16622849 -0.21083942 -0.21969621 -0.06658987 -0.26434118 0.16118069 0.15014796
-0.48619723 0.04989242 -0.3010209 -0.27499455 0.018926159 -0.12234114 -0.07256551 0.11570572
-0.1932191 -0.021765487 0.24251616 0.15182889 0.15227158 0.15168872 0.115613915 -0.111701824
-0.4163026 0.0490742 -0.17630947 -0.46331844 0.0015752028 -0.032169614 0.032322608 -0.41438264
0.02659692 0.20528254 -0.24775727 -0.45951724 0.18969525 -0.32399154 -0.40607068 -0.053861123
-0.40863913 -0.16964714 -0.17365894 -0.33369815 -0.17884591 -0.25694665 0.119858764 0.07901708
-0.21367666 -0.14340982 0.07782609 -0.54756 0.33342406 -0.2663583 0.017539654 -0.12556072
0.11561419 -0.29849488 -0.056082018 -0.034006346 -0.21456484 -0.20470703 -0.08238785 -0.07497417
0.015177163 -0.32289806 0.17839438 -0.19386624 0.15724649 -0.16432907 -0.14526115 -0.16710728
0.24163741 -0.08739843 -0.35003912 -0.14366369 -0.055369806 -0.5067826 -0.04793221 0.20476353
-0.26521674 0.16250977 -0.31237054 0.29474267 0.029333841 0.07678612 -0.25668594 -0.3414718
0.18991181 0.018978689 0.21112888 0.1423345 -0.1563202 0.034459352 0.06586377 0.19571203
0.3137538 -0.39997637 0.21211495 -0.3521305 -0.06813176 -0.09883394 -0.4544556 -0.04475549
0.2839458 0.13996345 -0.31281656 -0.31823298 -0.14901273 0.0528249 -0.46477926 0.06254145
-0.32582107 0.30503893 0.2545483 -0.22535762 -0.045166284 -0.06272677 -0.29136994 -0.35813236
00000000: 8550 9c3e 7a39 33be 5190 fcbd 44e0 2ebe
00000010: 6a84 093d b37c 613e ee6d a5be abd9 cfbc
00000020: ca4f fc3d 8383 95bd 063d 313e 0d31 c93d
00000030: 137f eebe bec4 2abd d9e9 c5be 1ead 99be
00000040: a4bc 33be 66cb 933e b389 663e b08a 123e
00000050: 2cba 72be 190c f73d e256 15be 0c7a 08be
00000060: 2aca 563e e671 453e 8622 c8bb 468e 36bd
00000070: e706 dfbd 0c49 d83d 6c5f 6a3e 759e 72bd
00000080: 8e15 a9be eec9 a7be d3ce e13c 4f92 9ebe
00000090: ba4c 87be f01e 443e 2a98 a5be 3930 40be
000000a0: b298 f03d 3fef 843e 591b 6fbe 509f 7e3e
000000b0: 00c6 f8bc 00e1 83bd e346 74bd 58c0 c2bd
000000c0: 8bbb f13d ddf0 8f3e a3e0 363e 0058 bdbe
000000d0: 98b7 afbe ae26 393e 129b 363d ab15 cdbe
000000e0: f298 6a3e 8d72 3e3c 6037 71be dd36 bcbe
000000f0: 50b2 293e 5e06 74be 744f c03e c53c 5d3e
00000100: 22e6 03bd 9df7 4ebe 191b 8ebe 7bbd a8be
00000110: 7fd0 173e 59fb 733c c391 4b3e 9f60 4abe
00000120: 34d7 d6be 0530 e7bd ba89 96be bab3 953e
00000130: 617d a7be 13b9 343c fa95 bbbd 8f92 053c
00000140: d74e 9cbe 7c05 e3be fe74 853e 6b14 d33e
00000150: f96f 6ebe c8e8 8f3e fa47 523e d26a d7bd
00000160: 0ede 9dbe 2233 263e aecb 423d 6e3b cdbd
00000170: 3bb8 e5bd 9bf2 833e 8187 5cbe 589e 073e
00000180: 50e7 acbe 3950 bebd a576 38bc 6919 33be
00000190: a961 dc3c e5e3 373e fbd2 b2be 8262 d3bd
000001a0: b1f0 2abe 6a55 693d dfed 373e e6aa 6ebe
000001b0: f19d 6dbe b18d 913e 498b ba3e e905 803e
000001c0: 2f57 afbe c3cf 813e 45e9 9a3d 3159 ba3d
000001d0: 702d dfbd df53 c0be 21d5 97be f349 adbe
000001e0: 3634 1b3e 8859 bb3e 8a4b 87be 18fd b53d
000001f0: a6e4 a7bd 0f37 b93e e262 d13d f2de 1ebe
00000200: 6e26 20bd 8b41 a9be 30f7 213e 3f10 44be
00000210: 285f 65be 6427 b13d ea7d b3be 8ac4 90be
00000220: 3a60 fcbe cd37 2a3e 4ae6 57be 0bf8 60be
00000230: 4560 88bd ba57 87be 8d0c 253e 63c0 193e
00000240: d8ee f8be ff5b 4c3d 691f 9abe 16cc 8cbe
00000250: 080b 9b3c fe8d fabd 3a9d 94bd 1ff7 ec3d
00000260: 3adb 45be 894d b2bc 2856 783e 0879 1b3e
00000270: 15ed 1b3e 4a54 1b3e fdc6 ec3d edc3 e4bd
00000280: 9d25 d5be 0702 493d 788a 34be 1338 edbe
00000290: 0977 ce3a 49c4 03bd b664 043d f629 d4be
000002a0: c9e1 d93c 9635 523e 15b4 7dbe d845 ebbe
000002b0: 793f 423e 38e2 a5be 7fe8 cfbe 7b9d 5cbd
000002c0: 2639 d1be fbb7 2dbe a6d3 31be 7cda aabe
000002d0: 6223 37be 838e 83be 8378 f53d b5d3 a13d
000002e0: 0ece 5abe 06da 12be 4963 9f3d e42c 0cbf
000002f0: 8fb6 aa3e 1d60 88be 52af 8f3c fd92 00be
00000300: 22c7 ec3d 52d4 98be 42b6 65bd 3d4a 0bbd
00000310: e3b6 5bbe b89e 51be f6ba a8bd 0f8c 99bd
00000320: a3a9 783c e552 a5be 04ad 363e df84 46be
00000330: 3905 213e e145 28be 57bf 14be 2c1e 2bbe
00000340: cc6f 773e f3fd b2bd 5438 b3be 931c 13be
00000350: 73cb 62bd 81bc 01bf 9154 44bd 88ad 513e
00000360: 7dca 87be f668 263e 08ef 9fbe 83e8 963e
00000370: 864d f03c 0b42 9d3d 576c 83be 64d5 aebe
00000380: 3e78 423e 3279 9b3c 2b32 583e 23c0 113e
00000390: 6712 20be 4025 0d3d 96e3 863d bc68 483e
000003a0: 57a4 a03e b4c9 ccbe a934 593e 734a b4be
000003b0: aa88 8bbd 7369 cabd 68ae e8be 8851 37bd
000003c0: 5861 913e 9452 0f3e 7e29 a0be 6fef a2be
000003d0: cb96 18be ec5e 583d 8cf7 edbe bb15 803d
000003e0: 05d2 a6be 102e 9c3e 2854 823e 26c4 66be
000003f0: 4800 39bd e576 80bd 712e 95be 205d b7be

transformer_encoder.layers.0.linear2.weight f4 [6, 2048]
0.034058798 0.0059196963 -0.10232288 0.1463825 -0.030318182 0.06662535 -0.22021815 0.04666462
0.020251572 0.28985202 -0.032944385 0.06106687 0.06706641 0.008925218 -0.021153202 -0.39146957
-0.122760616 0.0137143135 0.095254906 -0.0011310079 -0.011660415 -0.26426268 -0.064774215 0.044742007
-0.009663301 -0.017806454 -0.06374951 0.02077448 0.020495813 -0.0057358667 0.073937856 -0.016066536
-0.011219771 0.26728386 0.060141277 0.026574437 -0.06795635 0.06143212 -0.10110345 -0.4743844
0.009632913 0.09635931 0.007865334 -0.0014831837 0.011194439 -0.025113177 -0.030697955 -0.27728048
-0.16620569 0.065271795 0.0022174597 0.011878045 -0.0006586102 -0.0059363493 -0.022274205 -0.017871853
0.13547501 0.0047536585 0.017478758 -0.013678032 -0.019654611 0.12722048 -0.016947856 -0.02163791
-0.19468775 -0.006317598 0.10553232 0.26936784 -0.0061038816 0.038856372 -0.07350427 -0.03828958
-0.036414776 -0.033507753 -0.08804679 0.053353995 -0.0082340725 0.04979227 0.13574816 -0.0035965987
-0.028870497 0.24275866 0.06265004 -0.14419198 -0.0005826344 -0.07336191 -0.019606382 -0.018476218
0.14011966 0.14644586 0.012880626 -0.02807036 -0.06871005 0.2458881 0.000842653 0.083344005
0.11675273 0.20974769 0.09894543 -0.15974276 -0.019382317 -0.16494979 0.2606016 -0.16824919
-0.04277562 0.04367156 0.0026832414 -0.011262219 -0.25111338 -0.0063264733 -0.027239328 -0.26866174
0.1075456 0.15697332 0.017201561 0.03670038 -0.043595385 -0.037442103 -0.07941148 0.21127251
0.5872479 -0.023770666 -0.039715935 0.00886369 -0.0030213136 0.32311076 0.18588613 -0.097602
0.17468397 -0.018580668 -0.05902597 0.109992206 0.023139944 0.11758594 0.022021858 -0.22330858
-0.024418397 0.043872107 -0.17752762 0.16955654 -0.016154338 -0.013806308 0.008043813 -0.20199719
-0.11755066 -0.010763173 -0.047580242 0.2459104 -0.31870613 0.117589295 -0.06600265 -0.00424163
0.0077009737 0.24925247 0.10035283 -0.007386577 0.002713287 0.103538044 0.093182474 0.0027174826
0.020195117 -0.010671951 0.122724995 0.0010168916 -0.01558853 0.10917326 0.023042496 -0.004941102
0.13746864 0.21335901 0.008717031 0.026208239 0.107915185 -0.074038446 -0.07734516 -0.0337497
0.050788064 -0.0534094 -0.07955928 -0.270183 0.06129408 0.21603338 0.2884223 -0.0089695705
-0.095860705 -0.0022252135 -0.013129289 0.22804007 -0.064291954 -0.12354253 0.045432642 0.21690737
-0.0022975872 -0.14939928 0.003697003 0.068399474 -0.20049384 0.12777072 -0.19180635 -0.026673162
0.09817791 -0.19140117 0.06273445 -0.0008054194 0.027475981 -0.20016663 0.059574965 0.09180243
0.013407008 -0.100334175 -0.024883777 0.15728845 0.07303389 -0.22700967 -0.18173651 -0.0527308
0.026698956 0.118374296 0.02415815 0.033987224 0.01458357 -0.16716154 -0.11264961 0.00979397
-0.035885796 0.25442827 -0.018003572 -0.017678313 0.002779864 -0.0045717717 0.3411268 0.037325636
-0.014014354 -0.029230788 -0.016998136 0.13563421 -0.25607777 -0.11372802 0.075972244 -0.10259262
0.0047499845 0.0027158533 -0.29779235 -0.21917869 -0.027360955 0.008748991 0.010913158 -0.10608437
0.2794913 0.39722717 0.009741479 0.020135222 0.14427015 0.1734918 -0.095056675 0.028337061
00000000: 3d81 0b3d 03fa c13b a88e d1bd 4be5 153e
00000010: d65d f8bc df72 883d de80 61be 6723 3f3d
00000020: a0e6 a53c 7c67 943e b1f0 06bd 4121 7a3d
00000030: 1d5a 893d 143b 123c 7b49 adbc b36e c8be
00000040: eb69 fbbd 00b2 603c 0115 c33d 543e 94ba
00000050: 530b 3fbc 704d 87be 58a8 84bd 6543 373d
00000060: d252 1ebc d7de 91bc 1a8f 82bd 3e2f aa3c
00000070: d6e6 a73c f0f3 bbbb bb6c 973d f89d 83bc
00000080: 21d3 37bc 6ed9 883e b356 763d a2b2 d93c
00000090: b32c 8bbd 3fa0 7b3d 530f cfbd 83e2 f2be
000000a0: 5ed3 1d3c 0858 c53d 9add 003c 6367 c2ba
000000b0: e168 373c 26ba cdbc 477a fbbc b5f7 8dbe
000000c0: d331 2abe 38ad 853d cd52 113b 229c 423c
000000d0: 95a6 2cba b585 c2bb 6578 b6bc fe67 92bc
000000e0: f6b9 0a3e 94c4 9b3b 9d2f 8f3c d319 60bc
000000f0: b502 a1bc 1646 023e 3bd6 8abc fc41 b1bc
00000100: 3a5c 47be da03 cfbb 5421 d83d 95ea 893e
00000110: 1203 c8bb dc27 1f3d 6889 96bd 89d5 1cbd
00000120: a927 15bd 6d3f 09bd e051 b4bd b889 5a3d
00000130: 34e8 06bc fbf2 4b3d 9101 0b3e eab4 6bbb
00000140: d281 ecbc ba95 783e aa4e 803d 10a7 13be
00000150: efbb 18ba c53e 96bd 909d a0bc 705b 97bc
00000160: 877b 0f3e e7f5 153e 4309 533c d0f3 e5bc
00000170: dbb7 8cbd 17ca 7b3e 7ce5 5c3a 43b0 aa3d
00000180: 0e1c ef3d 19c8 563e e7a3 ca3d 9b93 23be
00000190: aac7 9ebc 99e8 28be 936d 853e 8449 2cbe
000001a0: 7d35 2fbd f3e0 323d 52d9 2f3b 2c85 38bc
000001b0: ef91 80be 4e4e cfbb 0325 dfbc 088e 89be
000001c0: de40 dc3d 9dbd 203e 4aea 8c3c 2353 163d
000001d0: 1391 32bd e45c 19bd 7ca2 a2bd d257 583e
000001e0: e155 163f b3ba c2bc 2dad 22bd 0339 113c
000001f0: 3b01 46bb c66e a53e ef58 3e3e 8fe3 c7bd
00000200: 5be0 323e 7c36 98bc 37c5 71bd 9843 e13d
00000210: fb8f bd3c e6d0 f03d 2f67 b43c 01ab 64be
00000220: 1709 c8bc 3db3 333d cdc9 35be 3ba0 2d3e
00000230: 1a56 84bc da33 62bc 32ca 033c 5ad8 4ebe
00000240: 67be f0bd 0558 30bc 80e3 42bd f0cf 7b3e
00000250: 732d a3be a8d2 f03d 662c 87bd 5ffd 8abb
00000260: 7358 fc3b 0a3c 7f3e c985 cd3d 190b f2bb
00000270: 67d1 313b c10b d43d 74d6 be3d cb17 323b
00000280: 3b70 a53c 68d9 2ebc 3e57 fb3d 3849 853a
00000290: 0967 7fbc 3b96 df3d 9ec3 bc3c f8e8 a1bb
000002a0: 94c4 0c3e c97a 5a3e e1d1 0e3c a9b2 d63c
000002b0: a302 dd3d 78a1 97bd 2467 9ebd 203d 0abd
000002c0: 2507 503d d1c3 5abd faef a2bd 6d55 8abe
000002d0: 800f 7b3d db37 5d3e 16ac 933e 1bf5 12bc
000002e0: 9e52 c4bd e3d4 11bb 3b1c 57bc 5683 693e
000002f0: 80ab 83bd de03 fdbd 9417 3a3d f71c 5e3e
00000300: 1e93 16bb 20fc 18be 6b49 723b 0615 8c3d
00000310: 424e 4dbe 54d6 023e e268 44be ad81 dabc
00000320: 8011 c93d abfe 43be eb7a 803d c822 53ba
00000330: 4f15 e13c 7bf8 4cbe e104 743d ea02 bc3d
00000340: 11a9 5b3c 017c cdbd 10d9 cbbc 3910 213e
00000350: cb92 953d 3975 68be 2319 3abe 40fc 57bd
00000360: c5b7 da3c 396e f23d 50e7 c53c 3036 0b3d
00000370: edef 6e3c 652c 2bbe d7b4 e6bd e376 203c
00000380: fcfc 12bd 6c44 823e 3a7c 93bc 1cd2 90bc
00000390: 612e 363b cdce 95bb 2ca8 ae3e c4e2 183d
000003a0: 769c 65bc 6875 efbc ad3f 8bbc b2e3 0a3e
000003b0: a01c 83be 3cea e8bd 5697 9b3d 141c d2bd
000003c0: c2a5 9b3b 75fc 313b 3d78 98be 6170 60be
000003d0: 1524 e0bc ee57 0f3c 1acd 323c c342 d9bd
000003e0: 7c19 8f3e 5c61 cb3e b99a 1f3c 9ff2 a43c
000003f0: 8ebb 133e d6a7 313e 13ad c2bd 2023 e83c

transformer_encoder.layers.0.linear2.bias f4 [6]
0.0068048937 -0.014204365 -0.00991546 0.030480482 0.0040099216 0.020299014
00000000: 96fb de3b 6db9 68bc 7474 22bc 34b2 f93c
00000010: a965 833b 1e4a a63c

transformer_encoder.layers.0.norm1.weight f4 [6]
1.0394735 1.1486688 1.0724304 0.9051549 1.0583382 1.0004514
00000000: 780d 853f 9407 933f 6645 893f 3bb8 673f
00000010: a077 873f cb0e 803f

transformer_encoder.layers.0.norm1.bias f4 [6]
0.058244787 -0.061489645 -0.0049059545 -0.106636986 0.034813862 0.069252506
00000000: 1692 6e3d 91dc 7bbd 21c2 a0bb 7e64 dabd
00000010: fb98 0e3d 42d4 8d3d

transformer_encoder.layers.0.norm2.weight f4 [6]
1.0636382 1.0380008 0.92995477 1.0350258 1.1695551 0.8273133
00000000: 4c25 883f 36dd 843f 8411 6e3f ba7b 843f
00000010: fbb3 953f ceca 533f

transformer_encoder.layers.0.norm2.bias f4 [6]
0.03291257 -0.04766594 0.018856378 -0.08928223 0.0285919 -0.02745509
00000000: 55cf 063d 5c3d 43bd b178 9a3c 9ad9 b6bd
00000010: 8f39 ea3c 7fe9 e0bc

transformer_encoder.layers.1.self_attn.in_proj_weight f4 [18, 6]
0.47655317 -0.36976293 -0.26417282 -0.34652075 0.42591968 0.4105012 0.20109957 0.3491767
-0.0033456117 -0.4446633 0.42358264 -0.001608153 -0.28871846 -0.16815218 -0.48904637 0.17423232
0.09972749 -0.54745924 0.23591791 0.7200265 -0.35520363 0.29659286 -0.19537216 0.37164214
0.29826283 -0.7776165 -0.61705685 -0.07769746 0.32752258 0.48247817 -0.07852364 0.18023105
0.0515102 -0.0012951355 -0.35079634 0.6224732 -0.44652095 -0.222963 0.63167936 0.22303563
-0.30082953 0.01645384 -0.54559904 -0.24576949 0.2279622 0.17911777 0.28776005 0.51335317
0.13456891 0.4228626 0.036008686 -0.049588654 -0.56980324 0.34627473 0.026690472 -0.111112915
0.07462709 -0.47764343 -0.41450003 -0.53404313 0.7339168 0.09364313 -0.7248683 0.04294668
-0.104855955 0.28488585 -0.5161584 0.70518833 -0.14037678 0.06351772 -0.031165546 0.6841046
0.6186615 0.32754725 -0.4965622 0.17439204 0.31265754 0.29683843 0.52313703 -0.4843164
0.06935005 -0.62808675 -0.08522295 -0.012902271 -0.11466711 0.75483996 0.5002837 -0.24217778
-0.1647294 -0.105679125 -0.2007523 -0.012396803 0.11350058 0.23953894 0.36387286 -0.26607338
-0.025389638 0.45517004 -0.3555693 0.07476311 0.14362414 0.27067456 0.09066707 -0.44200465
0.15532094 -0.3044206 -0.4040685 -0.23486699
00000000: c7fe f33e 9151 bdbe a941 87be 2b6b b1be
00000010: 2512 da3e 372d d23e 0ced 4d3e 4ac7 b23e
00000020: 0d42 5bbb e8aa e3be d3df d83e a9c8 d2ba
00000030: e8d2 93be 1630 2cbe 4964 fabe f569 323e
00000040: ed3d cc3d 4a26 0cbf 7794 713e a853 383f
00000050: 40dd b5be 05db 973e a40f 48be e147 be3e
00000060: e8b5 983e e011 47bf 70f7 1dbf d91f 9fbd
00000070: 0ab1 a73e 6107 f73e 01d1 a0bd 7d8e 383e
00000080: 5cfc 523d 89c1 a9ba 949b b3be 675a 1f3f
00000090: 659e e4be 6a50 64be bdb5 213f 7463 643e
000000a0: 5406 9abe 34ca 863c 61ac 0bbf ffaa 7bbe
000000b0: ec6e 693e a66a 373e 4955 933e 1d6b 033f
000000c0: 6fcc 093e 7281 d83e d87d 133d 791d 4bbd
000000d0: a0de 11bf ec4a b13e faa5 da3c 2b8f e3bd
000000e0: 16d6 983d ae8d f4be 5939 d4be 0db7 08bf
000000f0: f9e1 3b3f f8c7 bf3d f890 39bf dce8 2f3d
00000100: b8be d6bd 8fdc 913e f522 04bf 3987 343f
00000110: eebe 0fbe 9415 823d e34e ffbc 7b21 2f3f
00000120: 9a60 1e3f 46b4 a73e 673d febe d493 323e
00000130: a614 a03e 35fb 973e 4fec 053f 52f8 f7be
00000140: 6607 8e3d 4bca 20bf 5f89 aebd 0c64 53bc
00000150: 97d6 eabd 313d 413f 9812 003f 74fd 77be
00000160: d3ae 28be 4c6e d8bd 0392 4dbe f61b 4bbc
00000170: fe72 e83d b249 753e 8b4d ba3e c53a 88be
00000180: eefd cfbc 0c0c e93e 2e0d b6be 671d 993d
00000190: 3512 133e db95 8a3e a8af b93d 6f4e e2be
000001a0: 740c 1f3e 04dd 9bbe 11e2 cebe f980 70be

transformer_encoder.layers.1.self_attn.in_proj_bias f4 [18]
-0.21040015 -0.046972446 0.044498533 -0.032844678 -0.026318187 0.22135971 0.0011788567 0.0018198908
0.0012658031 0.0002402561 -0.00014440063 -3.5663208e-05 0.050099857 0.087709956 -0.0017013676 0.03252164
-0.020545583 0.056358766
00000000: 2373 57be 2e66 40bd 1844 363d 2488 06bd
00000010: 3d99 d7bc 1fac 623e de83 9a3a 6789 ee3a
00000020: 4ee9 a53a 41ed 7b39 406a 17b9 1495 15b8
00000030: 8235 4d3d 47a1 b33d 6c00 dfba 6935 053d
00000040: 364f a8bc 73d8 663d

transformer_encoder.layers.1.self_attn.out_proj.weight f4 [6, 6]
-0.51888365 -0.36156082 -0.04200176 -0.12653679 0.30338848 -0.30584884 -0.1479744 0.030282298
-0.52904946 0.2339673 -0.07027714 -0.2811178 -0.4986894 -0.4125799 0.5361229 -0.2540703
-0.15249552 -0.29140612 0.17769396 0.024513083 -0.083239004 -0.4230032 -0.42932364 0.03010156
0.21168467 0.029803406 0.16682504 -0.15505274 -0.19157949 -0.1497941 0.23655786 0.5649486
0.49667403 -0.13892242 0.47009128 -0.29590216
00000000: 8fd5 04bf 801e b9be 0a0a 2cbd dc92 01be
00000010: bc55 9b3e 3898 9cbe 9a86 17be 9512 f83c
00000020: c96f 07bf 2095 6f3e 76ed 8fbd acee 8fbe
00000030: 3854 ffbe ac3d d3be 5a3f 093f 8115 82be
00000040: c927 1cbe 2f33 95be 68f5 353e a9cf c83c
00000050: 3679 aabd e093 d8be 4fd0 dbbe 8c97 f63c
00000060: dec3 583e 4626 f43c 2fd4 2a3e 25c6 1ebe
00000070: 6a2d 44be a063 19be 393c 723e 79a0 103f
00000080: 0f4c fe3e ae41 0ebe ceaf f03e 7d80 97be

transformer_encoder.layers.1.self_attn.out_proj.bias f4 [6]
-0.07318545 -0.017188376 0.0049858196 -0.07844913 0.017454538 0.052654054
00000000: 41e2 95bd a3ce 8cbc 1660 a33b f0a9 a0bd
00000010: d2fc 8e3c c7ab 573d

transformer_encoder.layers.1.linear1.weight f4 [2048, 6]
-0.22393177 0.069585465 -0.00307664 -0.204725 0.20273314 -0.10870414 0.088477455 0.68472487
-0.12526633 0.06642987 -0.31400383 -0.078071535 0.013447629 0.31438106 0.114426926 -0.15590458
-0.27874503 0.31827343 -0.081109256 0.0013570666 0.037591178 -0.18881838 0.13695988 -0.7398985
-0.19432183 0.39215964 0.246861 -0.0050160787 -0.11886632 0.26344737 0.17890555 -0.25613984
0.268066 -0.4614434 0.36445233 0.017477183 -0.41463965 -0.34301814 -0.63595366 -0.1401069
0.6084448 0.121034615 0.49265137 0.12589252 0.3989795 0.042767994 -0.24630857 -0.23082553
-0.20651864 0.20407604 -0.31776047 -0.014379245 0.19763109 -0.032095246 0.18567054 0.17722464
-0.033440486 -0.28026828 0.33720872 0.3233253 0.25221682 -0.07205371 0.09294187 0.16247272
0.40726167 -0.24128027 0.21620712 0.65879476 -0.2614748 -0.00013046595 0.23271786 0.2243839
0.13568841 0.09341934 -0.138023 -0.24751814 -0.033376977 0.38717717 -0.2727111 0.29006794
0.01404252 0.022034146 0.030868117 0.1572631 0.39806405 -0.2163581 -0.17504418 0.1951231
0.060637318 0.23980235 -0.20954774 0.4016505 0.29004616 -0.20900486 0.35143313 0.33073434
-0.35894784 0.35495564 -0.3471039 -0.062263116 0.08899916 0.43449217 -0.041933123 -0.04882215
0.19094166 -0.13605599 0.1020741 -0.062684044 0.2196498 0.39143136 0.34893626 -0.11859075
0.5076904 0.29373395 -0.10852582 0.078743584 -0.21616504 -0.06891187 0.04382175 -0.08535981
0.011793831 -0.29913038 -0.3280071 0.1893231 0.0047306614 -0.100249074 0.18590528 -0.050115816
0.55052197 -0.205507 0.23237558 -0.0900991 0.21518672 0.09344703 0.04260596 0.18503658
0.019590344 -0.17362176 0.13417456 0.49267223 0.35613334 0.013763321 -0.30524424 -0.052771404
0.2147352 0.4827984 -0.058172148 0.2591213 0.16379918 0.16557181 0.20721915 -0.030961169
-0.013790612 -0.06687475 -0.023803823 -0.09982866 0.12319751 0.5307678 -0.24750057 0.090778425
0.07893491 0.15985325 0.100723386 0.034973294 0.0062441984 0.2706069 0.39110184 -0.11449518
-0.04724907 0.5459812 -0.08933297 0.0022673472 -0.31990725 -0.07270102 -0.18571676 0.22695166
0.13701892 -0.122247316 -0.15239038 0.118366115 0.11208122 0.35520062 0.015102317 -0.43560582
0.44721636 -0.32455894 -0.2360541 0.40122855 -0.32119238 0.04961986 -0.04012666 -0.03451935
0.28430212 0.24317701 0.26931247 -0.40354636 0.08132185 0.013365838 -0.04486936 -0.22775373
0.08578977 -0.33724996 0.32141495 0.3468418 -0.225246 0.107224666 0.38068348 -0.42708355
0.3427011 0.38658416 -0.40175653 -0.0018257275 0.08047417 0.064427264 0.21022853 0.21718878
0.08345211 0.17261934 -0.24178858 -0.12409587 -0.02619986 0.30932102 -0.2010306 -0.032669194
0.11452876 -0.57236713 0.21075772 0.114537634 0.23068596 0.41813916 -0.11036658 0.1277442
-0.11140069 0.13478273 -0.055663228 0.1229635 -0.106125504 -0.4774055 0.47463357 0.3684424
0.100526355 -0.093131475 0.19752628 -0.018099602 0.05768503 -0.36728093 -0.30670822 0.1481211
0.055073503 -0.3273733 0.60205185 -0.072142005 -0.22521685 -0.20918575 0.11411238 0.27763292
00000000: 5f4e 65be d382 8e3d 74a1 49bb 6ea3 51be
00000010: 4799 4f3e 47a0 debd ab33 b53d 214a 2f3f
00000020: d145 00be 620c 883d 1cc5 a0be f8e3 9fbd
00000030: 7253 5c3c 8ef6 a03e aa58 ea3d 73a5 1fbe
00000040: abb7 8ebe bcf4 a23e 9c1c a6bd 99df b13a
00000050: 35f9 193d 9b59 41be 363f 0c3e fd69 3dbf
00000060: 4dfc 46be 26c9 c83e 21c9 7c3e eb5d a4bb
00000070: 2f70 f3bd 93e2 863e 0433 373e c324 83be
00000080: f23f 893e 4f42 ecbe 7f99 ba3e 4f2c 8f3c
00000090: a64b d4be 13a0 afbe dccd 22bf 2f78 0fbe
000000a0: 0ac3 1b3f ffe0 f73d cd3c fc3e f8e9 003e
000000b0: 0b47 cc3e 7e2d 2f3d 5038 7cbe 875d 6cbe
000000c0: 9f79 53be 4ff9 503e 80b1 a2be ed96 6bbc
000000d0: ce5f 4a3e 4e76 03bd 6b20 3e3e 607a 353e
000000e0: e4f8 08bd 537f 8fbe 9fa6 ac3e e58a a53e
000000f0: 9022 813e e590 93bd 4f58 be3d 405f 263e
00000100: 9a84 d03e 2d12 77be 6665 5d3e c6a6 283f
00000110: 06e0 85be b0cd 08b9 974d 6e3e e5c4 653e
00000120: e7f1 0a3e a452 bf3d e755 0dbe 6575 7dbe
00000130: 4cb6 08bd 163c c63e caa0 8bbe c983 943e
00000140: 9912 663c f480 b43c 22df fc3c 9409 213e
00000150: 0dcf cb3e fa8c 5dbe c83e 33be 5ace 473e
00000160: d65e 783d bf8e 753e af93 56be 22a5 cd3e
00000170: ee80 943e 5f05 56be 0bef b33e 0356 a93e
00000180: 03c8 b7be bfbc b53e 9ab7 b1be 9c07 7fbd
00000190: 3145 b63d c275 de3e 11c2 2bbd bcf9 47bd
000001a0: 3686 433e 4352 0bbe 3a0c d13d 7e60 80bd
000001b0: e1eb 603e b169 c83e c6a7 b23e b5df f2bd
000001c0: 00f8 013f 4c64 963e c942 debd 5144 a13d
000001d0: 5e5a 5dbe ab21 8dbd 6f7e 333d 20d1 aebd
000001e0: ea3a 413c 9e27 99be 8cf0 a7be eadd 413e
000001f0: aa03 9b3b 634f cdbd f45d 3e3e 3e46 4dbd
00000200: 02ef 0c3f 6d70 52be ddf3 6d3e e085 b8bd
00000210: e859 5c3e 2861 bf3d 9683 2e3d 3b7a 3d3e
00000220: ee7b a03c e7c9 31be 0e65 093e 893f fc3e
00000230: 1c57 b63e 8d7f 613c f948 9cbe d426 58bd
00000240: 8be3 5b3e 5a31 f73e eb45 6ebd 8cab 843e
00000250: f9ba 273e a88b 293e 4231 543e 47a2 fdbc
00000260: 05f2 61bc a1f5 88bd 3c00 c3bc f872 ccbd
00000270: fa4e fc3d 66e0 073f ca70 7dbe 0aea b93d
00000280: a0a8 a13d 92b0 233e 1048 ce3d 2840 0f3d
00000290: 229c cc3b fd8c 8a3e 803e c83e 737c eabd
000002a0: 3e88 41bd 6dc5 0b3f 34f4 b6bd c697 143b
000002b0: e2ca a3be 46e4 94bd 892c 3ebe 0466 683e
000002c0: b04e 0c3e cd5c fabd 390c 1cbe ef69 f23d
000002d0: d78a e53d dbdc b53e b56f 773c ba07 dfbe
000002e0: 8bf9 e43e 972c a6be 2ab8 71be d46d cd3e
000002f0: 5473 a4be 323e 4b3d da5b 24bd 2964 0dbd
00000300: 0c90 913e 6503 793e 53e3 893e a19d cebe
00000310: 128c a63d 63fc 5a3c efc8 37bd 4638 69be
00000320: 8cb2 af3d 07ac acbe 8090 a43e 4095 b13e
00000330: e3a6 66be 9b98 db3d f2e8 c23e b2aa dabe
00000340: 8576 af3e 5cee c53e 08b3 cdbe 404d efba
00000350: a4cf a43d 71f2 833d 2646 573e bc66 5e3e
00000360: f1e8 aa3d 20c3 303e 6d97 77be fa25 febd
00000370: 17a1 d6bc 535f 9e3e f7da 4dbe 22d0 05bd
00000380: 0e8e ea3d a786 12bf dfd0 573e b592 ea3d
00000390: f138 6c3e 5616 d63e e007 e2bd 60cf 023e
000003a0: 0c26 e4bd 7c04 0a3e 20ff 63bd 4ad4 fb3d
000003b0: 5458 d9bd 7e6e f4be 2c03 f33e 7ba4 bc3e
000003c0: c3e0 cd3d b7bb bebd 5444 4a3e 9e45 94bc
000003d0: 2347 6c3d 3f0c bcbe dc08 9dbe 0fad 173e
000003e0: c194 613d 799d a7be 1220 1a3f 30bf 93bd
000003f0: 3f9f 66be ca34 56be c0b3 e93d e725 8e3e

transformer_encoder.layers.1.linear1.bias f4 [2048]
0.23293114 -0.10519266 -0.19105937 -0.21017747 -0.020237675 0.23666742 -0.26125 -0.058993265
0.13418993 -0.26366985 0.11462229 0.25988275 -0.5077921 -0.062727414 -0.3698492 -0.33894125
-0.21838981 0.21833993 0.22801991 0.1567576 -0.2562561 0.2114839 -0.118486494 -0.14823546
0.24382216 0.15572545 -0.1305276 -0.025620537 -0.075525746 0.018467046 0.19318815 -0.023808006
-0.3553487 -0.37287506 0.015989946 -0.4597641 -0.45640782 0.15176351 -0.41616544 -0.25298882
0.23205794 0.35744217 -0.18708335 0.275524 -0.03893062 -0.058474593 -0.07464509 -0.056668513
0.03129913 0.26873887 0.23257226 -0.34123662 -0.3848114 0.17706795 0.041566443 -0.3561102
0.1439738 0.10115078 -0.2889532 -0.4470671 0.2122956 -0.17459416 0.2361309 0.3459161
-0.1706563 -0.06332955 -0.43492565 -0.36585566 0.033919487 -0.016543709 0.22862434 -0.27153248
-0.48510662 -0.12218266 -0.38316396 0.24607421 -0.15519328 -0.05349771 -0.108936064 -0.022457208
-0.23779608 -0.3866304 0.19926794 0.34842578 -0.14311704 0.30397677 0.17114708 -0.18634675
-0.36422184 0.22366178 0.07190418 -0.11490132 -0.05987763 0.32077053 -0.21436034 0.034119435
-0.09511145 -0.10667601 -0.021037646 -0.2568906 -0.0113559235 0.0121026235 -0.50622386 -0.023782015
-0.084183045 -0.009651829 0.050592367 -0.19066565 -0.364012 0.26036644 0.25334373 0.3189414
-0.31951883 0.36873585 0.121715866 0.015770443 -0.1193913 -0.37378708 -0.45120388 -0.31816006
0.1280632 0.35973418 -0.25043026 0.095435545 -0.038308106 0.33985773 0.13344131 -0.06555853
-0.050418235 -0.35826015 0.025689114 -0.23043793 -0.13507777 0.010506273 -0.18586406 -0.21162519
-0.50685126 0.14837721 -0.2771132 -0.12136806 -0.08094871 -0.25860184 0.19839326 0.08780731
-0.4790471 0.0053726295 -0.3559093 -0.30195168 -0.07886188 -0.3096082 -0.17550229 0.115390815
-0.14241666 -0.098600276 0.1541433 0.09004463 0.2157096 0.20693748 0.006377405 -0.11089602
-0.4297424 0.14778878 0.003746939 -0.42451525 -0.06926601 -0.102006726 0.024928056 -0.42035443
0.10726139 0.3019342 -0.25134307 -0.4491204 0.1273418 -0.24023172 -0.3983084 -0.1666513
-0.5224273 -0.08536621 -0.1605775 -0.32397518 -0.15951234 -0.29527932 0.09063875 0.0723882
-0.21835016 -0.058521435 0.08994429 -0.3602552 0.28089112 -0.24089691 -0.03696328 -0.1307432
0.05822829 -0.4327049 -0.069289714 0.1876638 -0.15769264 -0.35864344 -0.032022588 -0.047323216
0.15067819 -0.30931586 0.09597173 -0.16983132 0.14248857 -0.22268164 -0.19724254 -0.164671
0.2522176 0.003381774 -0.26578838 -0.14668374 -0.1257028 -0.4618762 0.07688676 0.018996282
-0.34716454 0.04088737 -0.36212116 0.3008114 0.061437342 -0.00358825 -0.21450146 -0.25129306
0.2539 -0.09742892 0.25131935 0.097617 -0.16460684 -0.010523913 0.02367828 0.22778992
0.2671185 -0.45622185 0.15515745 -0.39692682 -0.4099474 -0.074848734 -0.33846992 -0.03074841
0.24668159 0.16093442 -0.38217062 -0.37408122 -0.21942051 0.003463193 -0.355342 0.037756972
-0.39059383 0.25685567 0.23928538 -0.26384524 -0.0110673485 -0.09524302 -0.450569 -0.40238044
00000000: 8085 6e3e 406f d7bd 11a5 43be c338 57be
00000010: 7bc9 a5bc f258 723e 8fc2 85be eca2 71bd
00000020: 1669 093e bcff 86be 17bf ea3d 5a0f 853e
00000030: aafe 01bf 3b77 80bd e05c bdbe b589 adbe
00000040: 94a1 5fbe 8194 5f3e 0d7e 693e 1085 203e
00000050: 0034 83be 3c8f 583e 0ca9 f2bd 09cb 17be
00000060: 84ac 793e 7e76 1f3e 07a9 05be 29e2 d1bc
00000070: 3ead 9abd 3448 973c 1dd3 453e 0209 c3bc
00000080: 44f0 b5be 7be9 bebe 59fd 823c 3366 ebbe
00000090: 49ae e9be e567 1b3e a313 d5be c087 81be
000000a0: 99a0 6d3e a902 b73e c792 3fbe 7b11 8d3e
000000b0: b775 1fbd 0e83 6fbd 86df 98bd 3e1d 68bd
000000c0: 8433 003d 2498 893e 6c27 6e3e 91b6 aebe
000000d0: 0006 c5be 4d51 353e 9341 2a3d 1354 b6be
000000e0: de6d 133e 2428 cf3d adf1 93be fbe5 e4be
000000f0: 0564 593e d0c8 32be 4ccc 713e ea1b b13e
00000100: 86c0 2ebe ecb2 81bd 93ae debe 6f51 bbbe
00000110: 29ef 0a3d ac86 87bc 801c 6a3e 4e06 8bbe
00000120: e55f f8be e73a fabd 112e c4be e1fa 7b3e
00000130: fdea 1ebe 6a20 5bbd df19 dfbd 2ef8 b7bc
00000140: d180 73be 6bf4 c5be e50c 4c3e dd64 b23e
00000150: 468d 12be d8a2 9b3e 2e41 2f3e afd1 3ebe
00000160: 497b babe 9807 653e 8042 933d 6251 ebbd
00000170: 3f42 75bd 093c a43e 4781 5bbe d2c0 0b3d
00000180: cbc9 c2bd f478 dabd 2457 acbc 2a87 83be
00000190: 320e 3abc 154a 463c e397 01bf 80d2 c2bc
000001a0: 2968 acbd b422 1ebc f139 4f3d db3d 43be
000001b0: c85f babe c04e 853e 45b6 813e 4a4c a33e
000001c0: f997 a3be f2ca bc3e 2b46 f93d 0431 813c
000001d0: 6d83 f4bd 0561 bfbe 3204 e7be e0e5 a2be
000001e0: 0023 033e 142f b83e 6538 80be b673 c33d
000001f0: f6e8 1cbd d501 ae3e d7a4 083e 8d43 86bd
00000200: 5a83 4ebd e06d b7be fa71 d23c ecf7 6bbe
00000210: d451 0abe 8122 2c3c 2653 3ebe 46b4 58be
00000220: 01c1 01bf 32f0 173e c8e1 8dbe d18f f8bd
00000230: 70c8 a5bd 7667 84be 9a27 4b3e 52d4 b33d
00000240: a945 f5be e20c b03b be39 b6be 6999 9abe
00000250: 5682 a1bd f784 9ebe dfb6 33be 0552 ec3d
00000260: acd5 11be f1ee c9bd bed7 1d3e 5269 b83d
00000270: fae2 5c3e 6be7 533e 8df9 d03b 741d e3bd
00000280: 3207 dcbe f155 173e 348f 753b 105a d9be
00000290: 56db 8dbd e7e8 d0bd ec35 cc3c b238 d7be
000002a0: dcab db3d 1f97 9a3e 0ab0 80be 1cf3 e5be
000002b0: e465 023e 4eff 75be 14ef cbbe a3a6 2abe
000002c0: ccbd 05bf 7bd4 aebd 6e6e 24be 13e0 a5be
000002d0: 3457 23be da2e 97be cfa0 b93d 4440 943d
000002e0: 2f97 5fbe 2cb4 6fbd b634 b83d 5f73 b8be
000002f0: f6d0 8f3e aead 76be cf66 17bd 8ce1 05be
00000300: ca80 6e3d 7f8b ddbe c4e7 8dbd f02a 403e
00000310: 2e7a 21be 1da0 b7be 1e2a 03bd fdd5 41bd
00000320: 624b 1a3e a65e 9ebe d48c c43d 43e8 2dbe
00000330: 86e8 113e a806 64be f3f9 49be 849f 28be
00000340: aa22 813e c1a0 5d3b 6a15 88be 4334 16be
00000350: 3cb8 00be 0a7b ecbe ce76 9d3d 179e 9b3c
00000360: 8dbf b1be 8479 273d f267 b9be f403 9a3e
00000370: b9a5 7b3d d828 6bbb 45a6 5bbe 7ca9 80be
00000380: 2eff 813e d088 c7bd eeac 803e 6ceb c73d
00000390: b28e 28be 7e6c 2cbc f4f8 c13c c341 693e
000003a0: c2c3 883e e995 e9be 98e1 1e3e fe39 cbbe
000003b0: a0e4 d1be 4b4a 99bd ee4b adbe 17e4 fbbc
000003c0: 199a 7c3e fecb 243e deab c3be 9387 bfbe
000003d0: c5af 60be bdf6 623b 63ef b5be 0ea7 1a3d
000003e0: eafb c7be 9682 833e 3a07 753e b916 87be
000003f0: d353 35bc c60e c3bd fbb0 e6be cf04 cebe

transformer_encoder.layers.1.linear2.weight f4 [6, 2048]
-0.023635907 0.21629901 -0.0707338 -0.35481295 -0.005546675 0.094907746 0.12515062 0.07131772
0.078652374 -0.065356456 -0.053448 -0.09555865 -0.05735058 0.055256564 -0.09823837 0.38384765
0.080519885 -0.02020203 0.10673075 -0.0132603645 -0.04713368 0.22170155 -0.028595544 0.11735171
-0.02231114 -0.024196161 0.013057518 -0.0016023583 0.16147874 0.023689002 -0.03182298 0.018406939
-0.03427956 0.14990756 0.24445373 -0.20082633 0.0012352879 0.11899992 0.14683147 -0.0409353
0.003949498 0.08885263 -0.0052335938 0.22643873 -0.078776866 -0.052247643 -0.021379882 -0.052472815
-0.033901386 0.13900684 -0.00984424 0.18841012 -0.10056763 0.011745701 -0.010389313 0.1543418
-0.007327007 0.016339516 -0.055518348 -0.055285133 -0.028725257 0.15594117 -0.0114745535 -0.061998755
0.27239046 0.08358214 -0.31662595 0.16747686 0.023726668 0.03222093 0.09816936 -0.04227706
0.0171018 -0.18683064 -0.122501686 -0.021630961 0.10187564 0.15183622 0.08149546 0.005310925
-0.05479234 -0.16022429 0.047872458 0.086792156 0.035856407 -0.1345955 0.016147051 -0.06303738
0.11728267 0.080659896 0.030821852 -0.013144983 0.07476665 -0.13729568 -0.0068935757 -0.0119939335
0.060951274 -0.09656183 0.0027568561 -0.3187516 0.029849093 -0.055073038 -0.110346496 -0.028868608
0.03223499 -0.0278113 0.03470305 0.0018503877 -0.08546905 -0.007169609 -0.013153094 -0.015920786
-0.096037835 -0.06496439 -0.014983957 -0.026049322 -0.030244857 -0.037600104 0.2627746 0.13442342
-0.0663663 0.026571404 -0.076710016 -0.04160576 -0.016352393 -0.056197535 0.078216955 0.14505017
-0.033412077 -0.04134104 0.05687545 0.036190618 -0.028376596 0.048713356 0.009828582 0.09396283
0.050974097 -0.11641389 -0.3653774 -0.17876637 -0.04815539 -0.06824765 -0.0033159903 -0.05072035
0.026131628 -0.0015433024 -0.07351873 0.2154093 0.029376654 0.0034514687 -0.07506955 -0.00978026
0.028698241 0.03865705 0.008496882 -0.040413283 -0.0030234766 -0.0083177 0.17218016 0.023620496
0.14604245 -0.10710378 0.15373272 -0.19513021 -0.02428528 0.15090863 -0.026579212 -0.032721825
0.07669602 0.15672515 0.13230278 -0.0057999687 -0.0072935405 0.1238766 0.040107355 -0.06591788
0.1048069 -0.12868236 -0.15082987 0.132227 0.0917054 -0.053878132 0.19350101 -0.01852298
0.01722165 0.012046502 -0.04665309 -0.08399137 0.035777386 -0.08152094 -0.016103249 -0.0014454398
-0.04031153 0.05829 -0.025446901 0.022019442 -0.02753183 -0.1809293 0.08694828 -0.047428902
0.05369678 -0.029902996 0.04625106 -0.1384901 -0.0044405754 -0.041914437 0.009771208 0.23481995
-0.028393634 0.108265564 0.124890044 0.10838833 0.018143056 0.07542486 0.14305194 -0.023104819
-0.018450953 0.15586983 0.053615566 -0.015608681 -0.022496874 0.013518691 -0.066603005 -0.07680734
-0.04040958 0.097228244 -0.043803483 -0.043852266 -0.024581928 0.04496419 0.19067833 0.012474472
-0.060162116 0.07211357 0.01108833 -0.41355145 -0.288989 -0.0084692305 0.026979515 -0.020798003
-0.03209241 -0.0040932577 -0.03220427 -0.08829466 -0.028588828 -0.06518343 0.05278143 -0.052671567
0.30848083 0.09052027 -0.027254736 -0.027620612 0.04300584 -0.08383061 -0.04854333 -0.09335919
00000000: 17a0 c1bc 7d7d 5d3e e2dc 90bd 0baa b5be
00000010: e2c0 b5bb fe5e c23d 7c27 003e 060f 923d
00000020: 7f14 a13d 9bd9 85bd 4aec 5abd 41b4 c3bd
00000030: 71e8 6abd b554 623d 3331 c9bd ae87 c43e
00000040: 9ce7 a43d ba7e a5bc a795 da3d 0042 59bc
00000050: 3f0f 41bd bb05 633e 3441 eabc 1856 f03d
00000060: dac5 b6bc 0737 c6bc 33ef 553c 3906 d2ba
00000070: af5a 253e 700f c23c d058 02bd 26ca 963c
00000080: b968 0cbd 5e81 193e 1452 7a3e 6ba5 4dbe
00000090: 62e9 a13a 3bb6 f33d fd5a 163e c6ab 27bd
000000a0: ca6a 813b 5ef8 b53d 917e abbb 8edf 673e
000000b0: c455 a1bd a001 56bd dd24 afbc bced 56bd
000000c0: 2edc 0abd cf57 0e3e bc49 21bc 95ee 403e
000000d0: 67f6 cdbd 0a71 403c f037 2abc c70b 1e3e
000000e0: 6417 f0bb 73da 853c 3567 63bd aa72 62bd
000000f0: 3b51 ebbc 0baf 1f3e c4ff 3bbc 68f2 7dbd
00000100: c376 8b3e 1d2d ab3d cc1c a2be 0e7f 2b3e
00000110: 6e5e c23c 18fa 033d 040d c93d b62a 2dbd
00000120: 1319 8c3c 8850 3fbe 2ae2 fabd 6a33 b1bc
00000130: 2da4 d03d f47a 1b3e 17e7 a63d 4507 ae3b
00000140: ef6d 60bd d611 24be e915 443d 16c0 b13d
00000150: 2bde 123d 67d3 09be d246 843c be19 81bd
00000160: e631 f03d 0431 a53d 1c7e fc3c 0e5e 57bc
00000170: 421f 993d 3d97 0cbe 81e3 e1bb 3482 44bc
00000180: 0ba8 793d 35c2 c5bd 5fac 343b 6933 a3be
00000190: 1686 f43c 4494 61bd 58fd e1bd dc7d ecbc
000001a0: d608 043d 86d4 e3bc c924 0e3d b588 f23a
000001b0: 660a afbd 0aef eabb 1380 57bc 4f6c 82bc
000001c0: 7caf c4bd 0d0c 85bd 457f 75bc 6365 d5bc
000001d0: 10c4 f7bc 9102 1abd 648a 863e 4ba6 093e
000001e0: 0eeb 87bd 46ac d93c 241a 9dbd cd6a 2abd
000001f0: 74f5 85bc 632f 66bd 3630 a03d 0888 143e
00000200: 1adb 08bd 3955 29bd 3bf6 683d 9d3c 143d
00000210: 0976 e8bc a887 473d 1008 213c 966f c03d
00000220: 37ca 503d 686a eebd bf12 bbbe 880e 37be
00000230: 963e 45bd 6dc5 8bbd 1651 59bb 24c0 4fbd
00000240: ff11 d63c a348 caba fd90 96bd 4194 5c3e
00000250: 4fa7 f03c 0932 623b 10be 99bd 623d 20bc
00000260: 9318 eb3c db56 1e3d 8236 0b3c 6688 25bd
00000270: 8525 46bb f646 08bc ff4f 303e c57f c13c
00000280: 278c 153e 3a59 dbbd 1c6c 1d3e 37d0 47be
00000290: ecf1 c6bc cb87 1a3e a6bc d9bc 5207 06bd
000002a0: ce12 9d3d 8f7c 203e 617a 073e aa0d bebb
000002b0: a7fe eebb 04b3 fd3d 9c47 243d f4ff 86bd
000002c0: 00a5 d63d 4fc5 03be 2573 1abe 8466 073e
000002d0: 0ad0 bb3d 51af 5cbd 2125 463e 81bd 97bc
000002e0: 6b14 8d3c b15e 453c 4f17 3fbd ab03 acbd
000002f0: 4f8b 123d 73f4 a6bd f6ea 83bc e974 bdba
00000300: b41d 25bd 7fc1 6e3d 0576 d0bc 1e62 b43c
00000310: 6f8a e1bc 8845 39be f111 b23d cf44 42bd
00000320: 28f1 5b3d 21f7 f4bc c071 3d3d 59d0 0dbe
00000330: 3f82 91bb 79ae 2bbd 6b17 203c a474 703e
00000340: c499 e8bc 56ba dd3d 5ac6 ff3d b3fa dd3d
00000350: bfa0 943c 5978 9a3d 357c 123e 5146 bdbc
00000360: 7426 97bc 579c 1f3e ff9b 5b3d 8ebb 7fbc
00000370: 5d4b b8bc 807d 5d3c 2867 88bd 2b4d 9dbd
00000380: 8484 25bd 9a1f c73d 486b 33bd 6f9e 33bd
00000390: 0a60 c9bc 5f2c 383d 2e41 433e ba61 4c3c
000003a0: 8d6c 76bd 48b0 933d d4ab 353c 04bd d3be
000003b0: 5ef6 93be 87c2 0abc 2504 dd3c 9360 aabc
000003c0: 5573 03bd bc20 86bb a0e8 03bd d5d3 b4bd
000003d0: 1e33 eabc e47e 85bd 5731 583d 24be 57bd
000003e0: 33f1 9d3e b162 b93d 5345 dfbc 9f44 e2bc
000003f0: e426 303d 62af abbd 5fd5 46bd 1a33 bfbd

transformer_encoder.layers.1.linear2.bias f4 [6]
-0.0027265227 0.005580024 -0.0017209955 0.03300908 0.0050796117 0.003743243
00000000: 76af 32bb a2d8 b63b 0793 e1ba 8734 073d
00000010: df72 a63b 3251 753b

transformer_encoder.layers.1.norm1.weight f4 [6]
0.9731143 1.2041517 0.9871388 0.9770873 1.060653 0.89042467
00000000: 051e 793f a521 9a3f 21b5 7c3f 6522 7a3f
00000010: 7ac3 873f dff2 633f

transformer_encoder.layers.1.norm1.bias f4 [6]
-0.0025604407 -0.013461005 0.020663239 -0.059971973 0.017552517 0.014220855
00000000: 11cd 27bb 8c8b 5cbc f445 a93c 2ca5 75bd
00000010: 4cca 8f3c 97fe 683c

transformer_encoder.layers.1.norm2.weight f4 [6]
1.129235 0.8476773 1.0145053 1.3302188 0.99467224 1.066422
00000000: c68a 903f 6101 593f 4fdb 813f 9c44 aa3f
00000010: d7a2 7e3f 8480 883f

transformer_encoder.layers.1.norm2.bias f4 [6]
0.0025563082 -0.01616693 0.05751693 -0.00025792612 0.11712727 -0.12022432
00000000: bc87 273b 8270 84bc df96 6b3d 423a 87b9
00000010: 6ce0 ef3d 2b38 f6bd
