Production_Environment/Archive/models_tested/best_model_t7jul_lat_ext_9jul1_2_3_tr.3.40.pth (torch, 474786 bytes, 29 tensors)

norm.weight f4 [6]
00000000: 0000 803f 0000 803f 0000 803f 0000 803f
00000010: 0000 803f 0000 803f
1.0 1.0 1.0 1.0 1.0 1.0

norm.bias f4 [6]
00000000: 0000 0000 0000 0000 0000 0000 0000 0000
00000010: 0000 0000 0000 0000
0.0 0.0 0.0 0.0 0.0 0.0

transformer_encoder.layers.0.self_attn.in_proj_weight f4 [18, 6]
00000000: 3937 bb3e d1aa a4be 58ad a3be c00f 863e
00000010: f393 413e 1d3b 393c 8b37 883d f135 2cbe
00000020: b099 d6be c3fd 1c3d 8034 efbe 77c8 623d
00000030: c0da 763e f2b6 bb3e bba3 b63e 7913 723e
00000040: bf11 bebe 3f67 7bbe 0ffc 963e 758e 033f
00000050: 8c1b 0c3f 1eb8 82bd efbd ce3d 790f a73e
00000060: f037 0cbe 3326 cfbd 303f edbe b326 b13e
00000070: 554e c3be 8fde aabe aa5c 0a3d 81a2 b4bd
00000080: b89a e43e f626 a4be 0347 d9bd d366 953d
00000090: bcb8 b43e 9af8 ea3e f015 893d c2dc 2cbe
000000a0: 35ff 19be a341 903e 6536 943d d0f4 a23e
000000b0: 26f1 99be 2eaa bf3d 2fb5 61be 1ed5 4cbe
000000c0: 6a60 973e 8c6d be3d 38e2 2a3d e5d2 1b3e
000000d0: 2766 17be 688f 8b3e 8249 c5bd 7d0e a7be
000000e0: d9d1 f53e e4b1 b0be b8ae c8be c846 1ebe
000000f0: 643b 3b3d a355 003f 8565 e4be 45c6 3d3e
00000100: 9b8a 0cbf c849 1c3d 567d 25be 9610 afbe
00000110: 97b6 bc3d eff1 ca3e aaa9 8abe 5167 d73e
00000120: dbc7 e2bf 79d7 f9be a550 0b3f 9c6a 543e
00000130: 1618 48be cef0 15bf b3e9 cfbf a56a cbbe
00000140: 2e2c 63bc da1b e63e 44e8 08bf 3a2b 11bf
00000150: 6d07 ea3f e313 efbe e3ac bc3e aa3e 78be
00000160: 1c25 af3f 388d da3d aee4 8ebf 2bd4 39be
00000170: ee97 9abd 2f5d 3d3e fce1 a5be 65d4 2bbf
00000180: ad1f ac3f fc6e 8a3e e3e2 423e 795b 7abd
00000190: 9ae1 b3bf be86 5f3f cf7c 343e 11f6 3ebe
000001a0: b972 65bf 6451 f33d b8b1 d5be 9fae 393f
0.3656557 -0.32161573 -0.31968188 0.2618389 0.18904094 0.011305598 0.06651219 -0.16817452
-0.4191413 0.038327944 -0.46719742 0.05536696 0.24106884 0.36663014 0.3567179 0.2364024
-0.37122914 -0.24551104 0.2948918 0.5138925 0.54729533 -0.06382774 0.10094821 0.32628992
-0.13693213 -0.10114708 -0.4633727 0.34599838 -0.381457 -0.33372924 0.033779778 -0.08820058
0.4464929 -0.32060975 -0.106092475 0.07295003 0.3529719 0.45892793 0.06693637 -0.16881087
-0.1503876 0.28175077 0.072369374 0.31827402 -0.30066794 0.09358631 -0.22041772 -0.20003173
0.29565746 0.09298238 0.041719645 0.15217169 -0.14785062 0.27257848 -0.09633161 -0.3262824
0.48011664 -0.3451072 -0.391958 -0.15456688 0.045710936 0.5013067 -0.44608703 0.18532665
-0.54898995 0.0381563 -0.16161093 -0.34192342 0.09214514 0.39637706 -0.27082568 0.42071012
-1.7717241 -0.48797205 0.5441993 0.20743793 -0.19540438 -0.58570564 -1.6243194 -0.397298
-0.013865514 0.44943124 -0.5347941 -0.56706583 1.8283516 -0.4669486 0.36850652 -0.24242654
1.36832 0.106714666 -1.1163538 -0.18147342 -0.075485095 0.18492578 -0.32398975 -0.67120963
1.3447167 0.270378 0.19031863 -0.06112239 -1.4053223 0.87314975 0.17625736 -0.18648554
-0.8962818 0.118807584 -0.4173715 0.72532076

transformer_encoder.layers.0.self_attn.in_proj_bias f4 [18]
00000000: 14ec 48bd 33f7 803d fb56 cabd b955 b53d
00000010: 367b f0bc d1b9 91bc b75c ea3d 61e6 9dbc
00000020: 3661 0ebc 4b54 f3bb 4c21 58bd dea7 463d
00000030: 5c77 df3e f474 2e3e d74b 083f c925 0cbe
00000040: c0fa 2c3e 6344 54bf
-0.049053267 0.062971495 -0.098798715 0.08854241 -0.029355627 -0.0177888 0.11443465 -0.019274892
-0.008690169 -0.00742582 -0.05276613 0.048499934 0.4364575 0.17036802 0.5324072 -0.13686289
0.16892529 -0.8291685

transformer_encoder.layers.0.self_attn.out_proj.weight f4 [6, 6]
00000000: 900a 3ebe ac78 3ebe 4766 38be 39c6 cd3e
00000010: 359b 2bbe 21c4 a13e 3fbc f73e 838a 113f
00000020: bd74 423e 0e14 243d b914 bdba 389a 8c3c
00000030: 7b07 f73d 9cff 30be a630 eb3e f6dc 17be
00000040: cdce 5c3e b67d 5cbe c156 9a3d 7d2b 9bbc
00000050: d24c c13c 42dd 20bc 7eb4 043e cda4 403d
00000060: 9841 ac3d 691d cbbd 6f7e 073f f7ad c4be
00000070: 5f1f ffbe a2bf 543e c6b1 28bd bd03 6d3b
00000080: 289b 90bc 20c5 cd3c 3e0b e63e 8470 8b3d
-0.18558717 -0.1860072 -0.18007766 0.40190294 -0.16758426 0.31594947 0.48385808 0.5685198
0.18989845 0.04005819 -0.0014425731 0.017163381 0.12061974 -0.17285007 0.45935553 -0.14830384
0.21563263 -0.2153233 0.07536078 -0.018941635 0.023596201 -0.009818377 0.12959477 0.047032166
0.084109485 -0.09917719 0.529273 -0.38413975 -0.49828622 0.20776227 -0.041185163 0.0036165558
-0.01765211 0.02511841 0.44930452 0.0680857

transformer_encoder.layers.0.self_attn.out_proj.bias f4 [6]
00000000: 0b5a 6fbd 2514 073f b40a ab3f f9bd b5bd
00000010: d3cb 0abc 7af6 80bf
-0.05843548 0.52765113 1.3362641 -0.08874125 -0.008471447 -1.0075219

transformer_encoder.layers.0.linear1.weight f4 [2048, 6]
00000000: a7a2 863e 5b64 123d 6011 e03e 3574 0abf
00000010: ae4e b7be 1711 e03e 92c7 57be 515f 0fbd
00000020: 78e2 1b3e 0425 49bf 3532 2fbe a510 4ebe
00000030: ee4a d1bd 2688 393f ac37 9a3e 49df 58bd
00000040: efad 873e e7f8 253e a923 9ebe e415 cf3a
00000050: f0f3 ae3e 1231 39be e124 e1bc 0309 31bc
00000060: 19e3 fe3d 9469 1cbd 82b9 08be 701b a4bd
00000070: a3d0 d03d fbe3 50be 7d59 80bd 3ea5 693d
00000080: 87c8 913e ab64 cb3e f71a d23e 2caa d6be
00000090: efb4 1a3c 672c 8bbe fbe6 063f 3a07 11bf
000000a0: c150 743e 14e8 023e a13d 0abd cc8e 25bb
000000b0: bb18 83be 9cdc 2cbf d368 103f d706 aebe
000000c0: bdab a33a c54a b4bc b3f9 fb3e d380 cebe
000000d0: 8a7c b1be 13cb a23c a113 363e 1cdb 7b3e
000000e0: a9f0 dd3e ccb9 433e 7baf b93d 5154 f13e
000000f0: 3b66 e63c c0f5 103e 1f06 323d 3cfd c63d
00000100: 5b12 813e 1367 b73e 6265 78bd a236 adbe
00000110: b39c b7be 35ed 7ebd b3de cabb 376b 6cbc
00000120: 8b3a d33d be66 42ba 1f16 883e eef2 873e
00000130: 48d1 703e 934b 32be ac84 a73e 9460 01bf
00000140: 43f6 043e 7afd de3d d37b b63e 6ee3 6e3e
00000150: 1933 c4be 5451 dd3e 220e debe d71b acbe
00000160: 8312 a93e 88f5 ad3e 8ac9 5bbe e1a4 043f
00000170: db61 48be 0dc9 863d ef0a ae3e 6751 c03e
00000180: 8f9f 1bbf 35b6 9dbe 38fd d03d ed11 98be
00000190: 7b8b e4be ea02 0e3e 4d3b d4be f89c a33e
000001a0: 757e 013d 4666 3a3e 5130 063d d795 793e
000001b0: a308 003f 85f6 ad3e 6c21 d9bb 8681 6cbf
000001c0: 63cc 033e 01a0 26bb 73a1 8a3d b78e 4b3f
000001d0: d487 3b3d ecd6 0dbf 0ce6 213e 818f 313e
000001e0: e1b1 1f3e 37de 933d 730f ebbe 175d e0be
000001f0: 9fc5 1b3f a1f7 15bc de62 9e3c b04b 8d3e
00000200: 07ff 17be 5937 b1bc 0ca5 8b3d 52f0 0cbe
00000210: 7828 353e eafb 923e 33b1 5dbe b29c a3bc
00000220: 3d4e 91be 8696 d33e d09a b8be 8947 c8be
00000230: f624 9d3e 5ad4 903d b7f5 8f3e 15a1 72be
00000240: e9e7 ca3d 45f3 40be c245 943e 96c9 28bf
00000250: 8802 8abe ad85 763e 119c 273e bf18 d43e
00000260: 3762 cd3d 4322 5bbd 79db d83c 8765 92be
00000270: feb7 07bf 4759 88be 7d4e dd3d 7720 23bd
00000280: 15ad 09be 2b6b ab3d cc31 b73e 180c 2b3e
00000290: 1016 a2bd c002 323e f71e 81bd 1f9a a63e
000002a0: 8a0c ebbb 1380 813d 15f7 cd3d f666 0b3d
000002b0: a3e8 1abd d7ba 0abe 2a9d 9e3e ab7f 61bb
000002c0: 9033 ff3c 3698 85bf 7f55 30be 4592 b2be
000002d0: c188 a53e eae2 0abd 43db 873d 868b 603d
000002e0: d913 a43e b098 d13d e350 13be 21f5 8abd
000002f0: 392a fbbe 7dfc ccbe cc1e 1b3f 1ce4 c23d
00000300: 8c77 cebe d7fb 69be cdfa f3bb 96c7 a5bd
00000310: cd3e 46bd 9f62 c93c 400c f13d 3e3a e53d
00000320: 830c 3a3e b6b9 4dbe 4f9c ebbb ffc6 99be
00000330: 9cb7 2abe c10a bdbd 84b0 cfbd d370 19be
00000340: 7648 c9bd bfcf ddbd 52ac bb3e a85a 41be
00000350: 4a00 933e 0aa1 c5be ac8b 84be ac6f e63d
00000360: 9b46 19be 2c93 94be 38f3 733e efca ec3c
00000370: 1e61 bdbe f15e 433e 3167 68be fc17 c73e
00000380: fa35 293d 3c43 1fbf 20d9 6b3e beb4 e73e
00000390: d610 c7bc b990 babd 757d 41be 5e6a 3fbd
000003a0: 99b1 81be 9a9a a3be 66fa 8a3e f923 503e
000003b0: e1c4 71bc 8f6d 49bf a079 b73d 54bb e13d
000003c0: 2fe1 383d c036 583e 36e5 9cbd b6f2 6a3e
000003d0: 3e88 7f3e f8c7 a63d cf03 dbbe e836 1abe
000003e0: 8a8b 8b3d 7303 903d bf69 a93e 52f5 83be
000003f0: 86cd 2d3d 695b e93e 389b 323e 7c9c 33be
0.2629597 0.035740238 0.43763256 -0.5408357 -0.35802215 0.4376304 -0.21072224 -0.03500301
0.1522311 -0.78572106 -0.17108996 -0.20123537 -0.1021937 0.7247337 0.301206 -0.052947316
0.26499888 0.1620823 -0.30886582 0.0015799371 0.34170485 -0.18085125 -0.027483406 -0.010805371
0.12445659 -0.038186625 -0.13352016 -0.08013046 0.10196044 -0.20399468 -0.062670685 0.057042353
0.28473303 0.3972524 0.41036198 -0.41926706 0.009442552 -0.27182314 0.526962 -0.5665165
0.2385893 0.12783843 -0.03375018 -0.0025262116 -0.25604805 -0.67524123 0.5640995 -0.33989593
0.0012487095 -0.02200831 0.49213943 -0.4033266 -0.34665328 0.019872224 0.17780925 0.24595302
0.43347672 0.19113845 0.09066673 0.4713464 0.02812492 0.14156246 0.04346287 0.097162694
0.25209317 0.35820827 -0.06064356 -0.33830744 -0.3586174 -0.062237937 -0.0061910986 -0.014429859
0.103139006 -0.00074158225 0.26579377 0.26552528 0.23517334 -0.17411642 0.32718408 -0.5053799
0.12984566 0.108881906 0.35641345 0.23328945 -0.38320234 0.4322611 -0.43370157 -0.3361499
0.33021936 0.33976388 -0.214636 0.51814085 -0.19568579 0.06581316 0.33992717 0.37562105
-0.6079034 -0.30803075 0.10204548 -0.29701176 -0.44637665 0.13868299 -0.41451493 0.31955695
0.03161474 0.18203077 0.032760922 0.24373566 0.5001318 0.33977142 -0.0066262987 -0.9238514
0.12870936 -0.002542496 0.06769075 0.7951464 0.045783833 -0.5540607 0.15810412 0.17339899
0.15595199 0.072201185 -0.45910224 -0.43821022 0.6084842 -0.009153278 0.019334253 0.27596807
-0.14843379 -0.021632837 0.068185896 -0.1376355 0.17691219 0.2870782 -0.21649627 -0.01997218
-0.28380004 0.41325778 -0.36055613 -0.39117077 0.3069226 0.07071753 0.28117153 -0.2369426
0.099075146 -0.188428 0.2895947 -0.65932596 -0.26955056 0.24074431 0.16368128 0.4142513
0.100284986 -0.05349947 0.02647184 -0.28593084 -0.53015125 -0.26630613 0.10805986 -0.039825883
-0.13444932 0.0837005 0.3578018 0.16703832 -0.07914364 0.17383862 -0.06304734 0.3253946
-0.0071731256 0.06323256 0.10056893 0.034033738 -0.037819516 -0.13547836 0.30979282 -0.0034408371
0.031152517 -1.0437076 -0.17220114 -0.3487722 0.32330897 -0.03390781 0.06633618 0.05482056
0.32046393 0.10234201 -0.14386325 -0.06785036 -0.4905565 -0.40036383 0.6059387 0.09516165
-0.40325582 -0.22849976 -0.0074456693 -0.080947086 -0.048399735 0.024583159 0.117699146 0.111927494
0.18168835 -0.20090374 -0.0071902643 -0.30034634 -0.16671604 -0.09230567 -0.101410896 -0.14984445
-0.09828274 -0.1083064 0.36654907 -0.18882239 0.28711158 -0.38599426 -0.2588781 0.112517685
-0.1496834 -0.29018533 0.2382325 0.02890536 -0.36988157 0.19079186 -0.22695614 0.38885486
0.04131124 -0.62211967 0.23032045 0.45255083 -0.02430002 -0.09109635 -0.18895514 -0.0467323
-0.2533081 -0.3195389 0.27144164 0.20326222 -0.014756412 -0.786828 0.08958745 0.11022058
0.045136627 0.21114635 -0.07660906 0.2294415 0.24954316 0.0814361 -0.42776343 -0.15060008
0.06813724 0.07031908 0.3308849 -0.25773102 0.04243233 0.45577553 0.17442024 -0.17540163

transformer_encoder.layers.0.linear1.bias f4 [2048]
00000000: 4400 9dbe 0f79 2abe f274 893e 2d2e 043e
00000010: 7fb8 f63c 5355 88be af5c f3be b75b 8ebe
00000020: d457 b23e 8d16 6b3e 6d73 063e 82bd b2be
00000030: 8487 03be 3818 6bbe 377b 15bd 59f1 ebbd
00000040: da43 fe3a d6f4 17be e8af b4be 426e 71bd
00000050: 35eb 7c3e 84f9 8abc 96ba 8dbd 4df3 3e3e
00000060: 07a4 783d 681a 533e 41c3 463d bd09 90be
00000070: 2725 5dbd f90d 5abe a6c0 fabd 5a09 fe3d
00000080: c198 0a3e ef45 bb3e a35e 4bbe 987b edbe
00000090: 3ca8 89bd 4815 083e 5356 dabe 14b9 0cbe
000000a0: ca3c b3be 598b dd3d cb18 83be 6dc7 4ebe
000000b0: 422e d33d a949 85be 2382 873e 9631 68be
000000c0: 153b bfbe cc01 0c3e 0368 7dbe 6802 dcbe
000000d0: 5572 94be 81f7 98bd a967 8dbe 2490 b2be
000000e0: 84ba 303d b7ca 5ebd 8777 e7bd 307b 4c3e
000000f0: d464 983e 926c 81bd 6e9f efbd e900 24be
00000100: 28cd f13d f09d 233e ddb2 153d 8a4a 5239
00000110: 80fc 15be d18f 50be f88c 843e 192f 34bb
00000120: 2fb8 883e 097f b9be 88b9 a1bc 42bd 32be
00000130: a99b 7a3e 1726 adbe 0df5 0bbe 302d 9cbe
00000140: c83a 7abe e7e3 453d 0570 013e 67ab 9a3e
00000150: 41e1 a33e b4d3 a6be c180 87be 1279 16be
00000160: 6875 96be 4346 68be b5e8 3abe 1226 b9bd
00000170: 256e a53d 3235 7ebd 0752 883e c1cb 9c3b
00000180: f4f1 513e 2be5 1d3d 506f 763e 4ca3 9bbe
00000190: f273 49be 604d 44be 49f1 abbe ab6a 46be
000001a0: 24e1 19bd 5f8a 84be 9ca0 583e 22c9 b13c
000001b0: 0eef 3bbe 925d bcbd 72e2 7c3e 0b85 523d
000001c0: 728b e9bd 6fee bf3e d1a7 afbe 4781 bdbe
000001d0: c9ec bb3e d4b1 83be 453c aa3c db53 dcbc
000001e0: 19fa 2fbe dea1 cabe 8ace 95bd 2d36 1b3d
000001f0: d8ce 243e d453 e3be 300c 893c c674 223e
00000200: d4d0 6ebe 6b00 86be e61f b73d 384b 073e
00000210: 99d5 8dbe 6f73 b5b9 ef78 7f3e fa42 8c3e
00000220: cc22 1abe 62ea f23d 4ae9 bc3d 1ee2 82bd
00000230: 3506 77be b057 91be c07f 083e 68ad 7bbe
00000240: fb2a 963e 76ac 8cbe 8b23 2f3e ec92 17be
00000250: 82b3 abbe 6f3e cebe 9acf 383d 6d79 973e
00000260: 071c 423e e609 8c3d ef9d d83d d382 b0be
00000270: ad19 0abe 9724 5fbe f770 d0be a809 9a3e
00000280: c025 09be 5ae4 65be 6177 c43e 5599 dabe
00000290: 803a 01be 5781 0ebe c345 42be 11c5 813e
000002a0: 3334 eabd 214d 82bd 44e4 03be 0ddb 803a
000002b0: 3edc 983c e9e4 60be 0880 76be 69c0 0ebe
000002c0: 7d53 85be 082a 9abd 4b9c debe 27d7 df3d
000002d0: 94b4 2abe 2701 46be f899 bebd 9eb6 013e
000002e0: 8f6b 81bd 64d4 b5be e419 9d3e e45a b73c
000002f0: 8af1 81be ebfd 803d d4de 65be 0afb a2be
00000300: 10f6 d0be 87c5 863e f3eb 86bd f46c 333d
00000310: 05e7 42be f2c5 f73d fdda 87be 740b 873b
00000320: 441d c9be 3f2c 0bbe 63ca 40bd 4cdc a9bd
00000330: 940d 1b3e 5979 efbd ac81 7ebe ca78 08be
00000340: c71a 71bd 70ce 123d ab3f 3ebe 432b 76bd
00000350: 2a98 b2be 7196 843e 877c a53c 1185 d3be
00000360: 4c29 89be 9f67 e53d 4712 d3bc b7c1 a23e
00000370: b02a bc3d 8e40 51bc ecdd 7fbe 7b58 3b3d
00000380: 731e 933e b12c 58be 2017 433e a1b3 63be
00000390: 5109 50bd 93cd 14bc 91a1 87bc a145 aebe
000003a0: 343e 8ebd 247d 953d 32b9 a4be 34d3 aabe
000003b0: 75e4 03be 6625 e53d e043 19bd c02f f63c
000003c0: 9255 893e b7cf 94be e2b1 6b3e 4535 a4be
000003d0: 9540 98be 8494 2c3e ff40 07be 5b0d a2be
000003e0: 4dd0 adbe e197 fb3d 7477 813e 3043 f83b
000003f0: cd21 ebbc bfe4 983d a26a b4be d6c7 82bb
-0.30664265 -0.16647743 0.26847035 0.1290824 0.030117271 -0.26627597 -0.4753165 -0.27804348
0.34832633 0.22957821 0.13129969 -0.34910208 -0.12844664 -0.22958457 -0.03649446 -0.11520643
0.0019398883 -0.14839491 -0.35290456 -0.05894304 0.246991 -0.016964681 -0.06920354 0.186475
0.060703304 0.20615542 0.048526052 -0.2813243 -0.05399051 -0.21294393 -0.12243776 0.124041274
0.13534833 0.36576793 -0.1986032 -0.46383357 -0.06721541 0.13289368 -0.42643985 -0.13742477
-0.35007316 0.10817594 -0.25604853 -0.20193262 0.10311557 -0.2603276 0.26466474 -0.22675166
-0.37349764 0.1367256 -0.24746709 -0.42970586 -0.28993478 -0.074690826 -0.2761815 -0.34875596
0.043146625 -0.054392543 -0.11302095 0.19968867 0.29764426 -0.06319536 -0.11700331 -0.16015972
0.118067086 0.15978217 0.03654753 0.00020054929 -0.14647102 -0.20367362 0.258888 -0.0027493893
0.2670302 -0.36229733 -0.019741789 -0.17455009 0.24473442 -0.33818123 -0.13667698 -0.30503225
-0.24436486 0.048313048 0.12640388 0.30208895 0.32007793 -0.32583392 -0.2646542 -0.14694622
-0.2938645 -0.22683053 -0.18252833 -0.090404645 0.08077649 -0.06206245 0.26625082 0.0047850315
0.20502454 0.03854863 0.240659 -0.30398023 -0.19673136 -0.19170141 -0.33582523 -0.19376628
-0.037568226 -0.2588682 0.21155018 0.021702353 -0.18352911 -0.091975346 0.24695757 0.05139641
-0.1140355 0.37486598 -0.3430772 -0.37012693 0.3670409 -0.2572161 0.020780692 -0.026895454
-0.17185248 -0.3957662 -0.07314785 0.037893463 0.1609453 -0.44399893 0.016729444 0.15864858
-0.23321849 -0.26172194 0.08941631 0.13212287 -0.27702025 -0.00034609015 0.24948476 0.2739485
-0.15052336 0.11861111 0.09224184 -0.06390785 -0.24123462 -0.28387213 0.13329983 -0.24577868
0.29329666 -0.27475327 0.17103402 -0.1480214 -0.3353539 -0.40282008 0.04511986 0.29584828
0.18956004 0.068378255 0.105769984 -0.3447481 -0.13486357 -0.21791302 -0.40711185 0.30085492
-0.13393307 -0.2245039 0.3837233 -0.42695108 -0.12619972 -0.13916527 -0.18971924 0.25345662
-0.114357375 -0.063623674 -0.12880045 0.0009830907 0.018659707 -0.21962322 -0.24072278 -0.13940586
-0.2604026 -0.07527548 -0.43478617 0.10929709 -0.16670448 -0.19336377 -0.09306711 0.12667319
-0.06319343 -0.35513604 0.30683815 0.022382207 -0.25379592 0.06298431 -0.22448283 -0.31832153
-0.4081273 0.26322576 -0.065879725 0.043805078 -0.1903344 0.12098302 -0.26534262 0.0041212384
-0.3928014 -0.13591097 -0.04706801 -0.082939714 0.15141898 -0.11693067 -0.24854153 -0.13327327
-0.058863427 0.035841405 -0.18578975 -0.06009985 -0.34881717 0.25896028 0.02020098 -0.4131246
-0.2678932 0.11201405 -0.025765551 0.31788418 0.091878295 -0.012771739 -0.24987 0.04573868
0.28734168 -0.21110798 0.1905179 -0.22236492 -0.050790135 -0.009082216 -0.016556533 -0.34037498
-0.06945458 0.07299259 -0.32172543 -0.3336426 -0.12880118 0.11188774 -0.037418246 0.030052066
0.26823097 -0.29064724 0.23017076 -0.3207189 -0.29736772 0.16853529 -0.13208388 -0.31650814
-0.33947983 0.12284828 0.25286448 0.0075763687 -0.02870264 0.07465505 -0.35237604 -0.0039911075

transformer_encoder.layers.0.linear2.weight f4 [6, 2048]
00000000: 3fa8 653d bc21 7a3e a1eb 6abd 9d3f 1d3e
00000010: f617 653b 222a bc3c f2a6 983e 706e 103e
00000020: c82d 16be a8a2 6c3c 4de5 5e39 f8f4 07bb
00000030: 00e8 7c3c fa1a 39be 64e1 d7bd 6b01 a53d
00000040: e7c8 b8be 787c 833a abe6 c33e dc53 a03d
00000050: 1d76 4abe 8b34 74bb dc93 563b b4de ea3c
00000060: d125 0b3e 2921 dfbb e8fe 933d 4ecc 43bb
00000070: 07ed feba 7468 433e a965 a13c fc28 d73b
00000080: 18e3 9abc db05 b2bd 01c5 64bc f2be 3e3d
00000090: 0d23 183d efe6 9a3e 4abb 0139 8956 773e
000000a0: 7d1e 263b 7a7e c73c dd32 eebe 872e aabd
000000b0: 1c69 4fbc f9c0 72bc 51e4 5f3b 88f9 da3c
000000c0: 5524 17be b468 873d f678 733e acb5 0c3c
000000d0: 29ba e8be 65a7 1c3f e251 6ebc 1eb3 a2bd
000000e0: e1b1 463d 0ae8 0f3d bcdb 833c 5165 f7bc
000000f0: 16d3 9e3e 3280 f1bc 618b acbc 6408 003d
00000100: 1d60 fb3b 6016 58be 54cf acbb 3f63 32be
00000110: 8a86 883e 5483 893e e84a c0bd 25f8 31be
00000120: 6182 4fbc c194 9cbb 36d9 83bc 31c1 2ebe
00000130: e442 613e 2519 5fbe 8d94 8b3e 97ae 903e
00000140: 750c 9d3d 8656 44ba 1838 b43e ed78 9dbd
00000150: b4fe 873c 16e9 a03d e2cb 5bbe 7404 e6bd
00000160: 7474 273d db8e 023e 7147 5bbc 38f3 72bc
00000170: b71e 003c cb12 ae3a 2430 97bb 8424 e13c
00000180: 118d a13b 4806 75be 576f aabc c56e 5f3a
00000190: fc1e c7bd 1ab8 923d e7e9 373e e487 323c
000001a0: 2818 3fbe 2909 34ba dcc2 7abd b310 623e
000001b0: 9918 eebb 991e bf3b fa3b 873e ad2a 7a3e
000001c0: f6a2 033c 8ebf 9fbd 28ab 06be fc03 963c
000001d0: 92c5 453b ad56 443e 7b1c 193d 34b3 163e
000001e0: d04e 903e 3980 acbb d50e 073d 7d64 81bc
000001f0: 4a12 ab3b e7ed e83c 736f 99bc 30b1 293b
00000200: d184 9a3d 843b 6a3e 0fd5 2c3d aae3 4f3c
00000210: a5a0 cebd f614 63bd a796 af3e ffbc 693d
00000220: 3e85 ab3b 2424 0bbd dfe5 b13c 2188 8a3e
00000230: 33f1 143d 9147 4ebd b8e7 1b3c ce55 373c
00000240: ef96 dabc 5e06 033d 936a a63a c546 03bd
00000250: 6258 75bd f06e 813d a7d8 443c 713c a5bd
00000260: dd8a aebc ce9c 7f3d 828f a1ba d235 093f
00000270: 98e0 1f3b e92e e3bc 423f 04be 566a 7d3e
00000280: 8f57 9b3d 7e30 153e c595 5abd 3a0e c9bb
00000290: 8e68 96bd 5705 15bc 0d7a c83e a440 84bc
000002a0: 48c9 943d ff26 843c 19e3 ff3d ea96 d9bc
000002b0: bfff 423b 6c3e 2a3c 14a4 84be cb29 be3b
000002c0: 9a07 b8bc 3bd5 14bd 5b76 663b 1cf8 43bc
000002d0: 1866 713e c342 5dbc 4827 00be 5b87 283b
000002e0: 06f8 b93b ebac 763c 39d9 8abc 1d95 72bc
000002f0: c6d0 933e ffa9 873e 531e 14bd 34ef aebd
00000300: 7273 9b3e ad4a 85bd ebf5 b33e 96a0 483c
00000310: 0dc3 603d ade3 123e 30e0 733c fd15 443c
00000320: 15a9 103c 30aa 07bc e355 763e 5410 22bc
00000330: 7c1a 2dbe c673 b53c d612 bc3c 9919 f7be
00000340: 2822 edbe 8b7b b43d 5a41 fa3b c212 823e
00000350: bb96 523c 77f9 f9bd 56ea 2f3c c6f5 9f3c
00000360: 0a54 ec3e c54a cd3e eb4b b5bc 5b83 76bd
00000370: 19c4 5dbd 0764 47bc 35b8 2fbe 58c3 99bc
00000380: 0b03 a8bc 2959 d4bb d121 76bb 7d69 ea3b
00000390: 99b8 343e cd37 bcbe f209 75bd 3620 c4bb
000003a0: ba8f 6e3e 4c02 8b3c 3137 dd3c 149d 08b9
000003b0: 6d3e f63d e722 a93e b29b 623c 2228 28bc
000003c0: 4926 d9bb 795a 4cbe 8867 343c 08e5 29bf
000003d0: 00e5 b8be 38dc 653d da29 33bd a9b3 d03c
000003e0: 020b 2cbd 7151 f23c a615 ab3b 090d 6cbe
000003f0: 60fb 2cbd 296d 40be 314d 7e3e 9958 95bd
0.056068655 0.24426931 -0.05735362 0.15356298 0.0034956909 0.02296931 0.2981487 0.14104629
-0.14665902 0.014443077 0.00021256991 -0.0020745378 0.0154361725 -0.18076697 -0.10541037 0.08056911
-0.36090776 0.0010031601 0.38261923 0.07828495 -0.19771619 -0.0037262763 0.003274194 0.028670646
0.13588645 -0.006809373 0.07226354 -0.0029876414 -0.0019449302 0.19082814 0.019701796 0.006566165
-0.018907115 -0.08692523 -0.013962985 0.04656882 0.037142802 0.30254313 0.0001237217 0.24154104
0.0025347762 0.0243523 -0.4652318 -0.08309656 -0.012659337 -0.014816516 0.0034163187 0.026730314
-0.14759953 0.066117674 0.23776612 0.008588236 -0.4545453 0.61192924 -0.01454589 -0.0794432
0.048509482 0.0351334 0.016095988 -0.030199679 0.3102042 -0.029480074 -0.021062555 0.031258002
0.0076713697 -0.21102285 -0.005273739 -0.17420672 0.26665145 0.26858008 -0.09389287 -0.17379816
-0.012665362 -0.004778475 -0.016094785 -0.17065884 0.21998173 -0.21786936 0.27261773 0.282582
0.076683916 -0.00074896996 0.35199046 -0.076890804 0.016600944 0.078569576 -0.21464494 -0.11231318
0.040882543 0.12749808 -0.013383732 -0.014828496 0.007819823 0.0013280747 -0.004613893 0.027483232
0.0049301465 -0.23928177 -0.020805044 0.0008523281 -0.09722707 0.07164021 0.1796032 0.010896657
-0.18661559 -0.000686782 -0.06122099 0.22076683 -0.007266116 0.005832505 0.26412946 0.24430342
0.008034458 -0.07800208 -0.13151228 0.018312447 0.0030177576 0.19173689 0.037380677 0.14716798
0.2818513 -0.005264309 0.03297313 -0.015794987 0.005220686 0.028433753 -0.018729901 0.0025892965
0.07544864 0.22874266 0.042195376 0.012688557 -0.10089234 -0.05543991 0.34294626 0.057065006
0.0052343896 -0.033970013 0.021716056 0.27056983 0.036362838 -0.05036122 0.009515695 0.011189891
-0.026683299 0.031988494 0.0012696557 -0.032049913 -0.05989874 0.06319988 0.012014545 -0.08068169
-0.02130645 0.0624054 -0.0012326094 0.5359775 0.0024395343 -0.02773233 -0.12914756 0.24747595
0.0758506 0.1456928 -0.053365488 -0.006135729 -0.07344161 -0.009095511 0.39155617 -0.016144104
0.07264954 0.016131876 0.12494487 -0.02656122 0.0029754487 0.010390859 -0.25906432 0.005803322
-0.022464562 -0.036336165 0.003516576 -0.011961009 0.23574102 -0.013504687 -0.12514985 0.0025715444
0.0056753187 0.015055875 -0.016949283 -0.014806059 0.2887022 0.26496884 -0.036161732 -0.08541718
0.30361515 -0.06508384 0.35148558 0.012245318 0.054873515 0.14344664 0.014884993 0.011968133
0.008829375 -0.008280322 0.240562 -0.009891588 -0.16904634 0.022149932 0.0229582 -0.48261717
-0.46315122 0.088126265 0.007637185 0.25404936 0.01285332 -0.12205785 0.010737022 0.019526374
0.46157867 0.40096107 -0.022130927 -0.060183864 -0.05414209 -0.0121698445 -0.17160113 -0.018769905
-0.020509264 -0.0064803553 -0.0037556777 0.0071536885 0.17648543 -0.36761323 -0.059823938 -0.005985285
0.23297015 0.016968869 0.027003856 -0.00013028487 0.120236255 0.3303444 0.013831066 -0.010263475
-0.0066268784 -0.19956388 0.011011012 -0.663651 -0.36112213 0.05611822 -0.043741085 0.025476294
-0.042002685 0.02957985 0.0052210866 -0.23051848 -0.042231917 -0.18791641 0.24834134 -0.07292289

transformer_encoder.layers.0.linear2.bias f4 [6]
00000000: 95a0 973c a10c b0bc 4ea3 ed3a 8f79 efb9
00000010: 2204 183c aa4c 99ba
0.018509189 -0.021490397 0.0018130334 -0.000456762 0.009278329 -0.0011695821

transformer_encoder.layers.0.norm1.weight f4 [6]
00000000: 803b 8f3f 25be 923f 98b1 833f 9eb8 673f
00000010: a54f 7c3f 148b 9d3f
1.1190033 1.1464278 1.0288572 0.9051608 0.9855903 1.2308068

transformer_encoder.layers.0.norm1.bias f4 [6]
00000000: 68f2 a23c 0ade afbd 766b 033d 7214 03be
00000010: 39ff b83d ca6b ba3c
0.019890979 -0.085872725 0.032084905 -0.12800768 0.09033055 0.022756476

transformer_encoder.layers.0.norm2.weight f4 [6]
00000000: 3067 463f 2dc0 9d3f dfb6 8a3f 832a 333f
00000010: 98da 5e3f c8e6 913f
0.775012 1.2324272 1.0837058 0.6998674 0.870523 1.1398554

transformer_encoder.layers.0.norm2.bias f4 [6]
00000000: b03e 3c3e 6e5e 8ebd 6ed9 44bd 12c6 1fbe
00000010: f0f9 853d e8a9 11bc
0.18383288 -0.06951605 -0.04805892 -0.15602902 0.065418124 -0.008890606

transformer_encoder.layers.1.self_attn.in_proj_weight f4 [18, 6]
00000000: 7667 44be c495 153e a0c5 f3be f10a 8c3e
00000010: df2d d63d e1da 3e3c fad0 263f e6a9 39bf
00000020: d919 f4be 4e43 a43d 1e9a 55bf e5ae ac3e
00000030: ab93 1b3f 136a 023f 5bf5 063e d2e4 bf3e
00000040: 5c89 f7be 12a0 053d 69de 92bd c7b7 853e
00000050: 0f96 313f 5ae2 ddbd 06f7 853d df4b c13d
00000060: e972 44be b3f1 3a3a 61b1 98be c85f d03e
00000070: 526e e8be b72a 5abd f0de 0a3e 0594 19be
00000080: 4b6e fb3d 6e86 50bd 654e 423e b183 f9bd
00000090: a9e0 f33d 53c8 e63e bc71 39be 780a 5bbd
000000a0: d707 873c fa3c a93e 8b4a 9f3e 4c14 ef3e
000000b0: 79bf cbbe 8efe 083e 7946 f03d a58c e3be
000000c0: 63c5 a13d 1a35 ce3e dc84 983c e649 ac3d
000000d0: c0f3 68be 5502 d03e 7e69 8f3d aa0f cabe
000000e0: a629 e63e 7f25 8fbe 2dd2 8dbd 12dd 9ebe
000000f0: a381 4abe 17cc d63e c75c 6abe 1be3 66bd
00000100: 8e65 dfbe d9b6 893e 8a86 e9bd 376f 49be
00000110: 0ff5 383d 9585 213f 2e97 5abe b893 4a3e
00000120: 31b3 b0be 9e82 bdbe e62f 503e a47e ed3d
00000130: 2716 dcbd cb24 0f3f 5232 c7be 4c5c edbe
00000140: b315 eebb a384 b63e c938 94be a810 133f
00000150: d523 6dbe fb96 97be 913b febe 5cc6 a8bc
00000160: ddda 033f 7baf 3a3c 9f08 1b3e 1513 3fbf
00000170: 2d75 d33c 87f1 613e 633b 6a3e f550 38bf
00000180: 06c3 8e3e eecc 07be 3293 b03e ee93 17be
00000190: c717 00be dd5f eb3e a26b 2bbf a027 b03e
000001a0: 3ce8 f83b 0e10 1e3e 7adb ec3e d7ea a43e
-0.19180092 0.14607912 -0.47611713 0.27352098 0.10457968 0.0116488645 0.6516262 -0.7252487
-0.4767597 0.0802065 -0.8343829 0.33727184 0.607722 0.50943106 0.13179533 0.37479264
-0.48346984 0.032623358 -0.071713276 0.26116773 0.69369596 -0.10834189 0.065412566 0.094382994
-0.1918446 0.0007131353 -0.2982283 0.40698075 -0.45396668 -0.053263392 0.13561606 -0.14997871
0.12276896 -0.050909452 0.18975218 -0.12183321 0.11908085 0.4507471 -0.18109792 -0.05347678
0.01648323 0.33054334 0.3111156 0.46695173 -0.3979452 0.13378355 0.117321916 -0.4444324
0.07898977 0.40274888 0.01861804 0.084125325 -0.22749233 0.4062678 0.07002543 -0.39465076
0.4495365 -0.27958295 -0.069248535 -0.31028038 -0.19776015 0.41952583 -0.22886954 -0.05636893
-0.43632168 0.26897314 -0.114026144 -0.19671331 0.04515558 0.63094455 -0.21346733 0.19782913
-0.34511712 -0.37013716 0.20330772 0.115964204 -0.10746413 0.55915517 -0.3890558 -0.4635948
-0.0072657703 0.3564807 -0.28949574 0.5744729 -0.231582 -0.29607376 -0.4965482 -0.020602398
0.51505834 0.011394377 0.15140007 -0.7463849 0.02581271 0.22064792 0.22874217 -0.7199853
0.27883166 -0.13261768 0.344873 -0.14802524 -0.1250907 0.45971575 -0.6696111 0.3440523
0.007596044 0.15435812 0.46261197 0.3221042

transformer_encoder.layers.1.self_attn.in_proj_bias f4 [18]
00000000: b8fa 053d 61ed a53e 23b9 133e 0019 82bd
00000010: 62b0 6f3e 16ec 8cbc f58c 923a 47a2 0c3b
00000020: 8f17 99bb 9165 a93b ac76 283b a406 9839
00000030: a3c7 3bbd bc2c 60bd c48e 693c 41b4 293d
00000040: e259 c13d 8d31 89bd
0.032709807 0.32407668 0.14426093 -0.063524246 0.23407128 -0.017202418 0.0011180924 0.002145903
-0.004671998 0.0051695784 0.00257055 0.00028996647 -0.045844685 -0.054730162 0.014255229 0.04143167
0.09440972 -0.06698904

transformer_encoder.layers.1.self_attn.out_proj.weight f4 [6, 6]
00000000: 1141 39be 5ef9 46be c1b9 adbd 029d ce3e
00000010: 0806 e4be 9bd7 f23e 77e2 c23e e168 d73e
00000020: 68cd 0d3f 38c5 5f3e 260f 703d 9c35 b2be
00000030: 8104 a63d 27fd 3fbd fee7 eebd 1f22 00be
00000040: 5932 f73e 194a 6abe cf25 14be 82a8 4bbe
00000050: b8b4 d0bd 68bf f1bd d1e3 6a3e defd 9d3e
00000060: 7282 c93d e0bb c7bd 0bf7 0b3f 4224 0ebf
00000070: f8a5 dbbe 6107 e73e 5c78 1d3d 33e9 883c
00000080: 56a1 a73e 6f6a f1bc f3c8 803e 5449 3e3e
-0.18091227 -0.19431064 -0.08482695 0.40354162 -0.4453585 0.4743012 0.38063404 0.42072204
0.5539155 0.21852577 0.058608197 -0.34806526 0.08106328 -0.046872284 -0.11665343 -0.12513016
0.482806 -0.22879829 -0.14467548 -0.198885 -0.10190719 -0.11804086 0.22938468 0.30857748
0.098393336 -0.09752631 0.5467383 -0.55524075 -0.42900062 0.45122817 0.03844486 0.01671276
0.32740277 -0.029469697 0.25153312 0.1858266

transformer_encoder.layers.1.self_attn.out_proj.bias f4 [6]
00000000: 5007 d8bc 04ee 07bd f615 773d b3f6 92bd
00000010: 5510 713c 7f24 763d
-0.026370674 -0.033185974 0.060323678 -0.071759604 0.0147133665 0.0600934

transformer_encoder.layers.1.linear1.weight f4 [2048, 6]
00000000: cb42 b73e f0bb 453d a5ed 453f 5850 1fbf
00000010: 21bb dfbe f42e bf3e 1bd5 d8be c559 2abe
00000020: ec60 833e 8334 12bf 832b fabd eaaf 1fbe
00000030: 1340 cabd 91e4 303e 61df c73e 2918 22be
00000040: 7bc3 b13e fb65 093e f926 0b3b c826 733e
00000050: ce0a 983d 632b 2dbe 2c2e a2bd 2510 13bd
00000060: 4004 b33c da9e 12be 05f7 dfbd b2f7 1abd
00000070: 8570 7d3d 3f3c adbe c8b2 533e a328 22bd
00000080: 6653 333e edfc f53e 4132 893e 4117 babe
00000090: 9165 4cbd 914f c3be 9efd 9f3e e9cb fe3d
000000a0: 08de 053f b471 5bbe f54e 9e3c 60c5 923d
000000b0: 2267 bcbe e491 d5be a2ab 4b3e c510 933d
000000c0: 9fca 20bd 12dc a5be 29dd 063f 3565 cfbe
000000d0: 6ded cfbd 1a1b 2abd aa5f 533e fb11 563e
000000e0: ca7e cb3e 9a57 673e 0322 d23d fe9d a73e
000000f0: 325c dd3d 85e6 113e 9f25 3e3d f3bc c63d
00000100: 270f 303e 7e6f 263e fe51 07bd d718 d3be
00000110: fa4a 81be a93f cdbd 51db 82bb bc9a 363e
00000120: b745 9f3d d174 25be a726 323e 33d2 b83e
00000130: ac21 6f3e b348 a9be 816d a13e b640 84be
00000140: b738 133e 23ce 743c 1964 ad3e aaed 3d3e
00000150: eaa6 ba3d 8322 03bd 571e 94be da59 d8be
00000160: c3ce 973e d235 203e ec73 65bc d91b 303e
00000170: 2093 2a3e 6d84 67be 01f1 473e b44d e53e
00000180: 35b8 8dbe a23f 43be 8b79 d73d 1fe9 3bbf
00000190: 0083 55be f96f a6bd 4128 82be 46ea 263e
000001a0: 48d7 ce3c 4f06 003e 1dc7 f1bd ac20 a63e
000001b0: 4fb8 cf3e 3eaf a33e c17f 38bd ed01 2abe
000001c0: 366c 403e e9dc 0abe ea29 3e3e e7a0 bf3e
000001d0: 4bd5 eb3e f0ac e9be ea4c 7cbd 1f7b 3d3e
000001e0: d9f6 283c cacc fabd 2b20 c5bd 5471 03bf
000001f0: 2114 943e 6ae2 be3c 46c0 1abe c665 3e3e
00000200: 3005 48be 6c2e f33c 311c f4bc ff8e 8ebe
00000210: 7d94 7c3e 0805 9e3e 0eb0 7dbe e35d cab9
00000220: d1ee acbe 1836 1b3e dd40 afbe 579c 07bf
00000230: dc2e a63e 8902 203e 986b 8f3e d556 8cbd
00000240: a68b e7bb c381 c9be 99ad 463f 6323 b0be
00000250: 1128 8dbe dda5 3b3d 1c79 333c 1922 7a3e
00000260: 1aca a73d 7c86 a3bc 3a9f 523c 6105 8dbe
00000270: 87c7 b2be d892 77be afab 403e 92f7 82be
00000280: aace 193b 552f 2a3e c329 8a3e 46b8 173e
00000290: 64af 01be 546e 5e3e 51e4 c5bd 98fc 053d
000002a0: 0e3d 8dbe 5a32 cf3d 24d4 aebc 5110 de3d
000002b0: 3ff9 d1bd c203 83be 6e3a a03e 3ad2 1bbd
000002c0: e06d 83bc 8dc3 c8be d9c1 c5be fc1b d2be
000002d0: f09d e13e 7ee9 7dbe 8717 123e 9e45 a13d
000002e0: 0808 853e 6c64 0c3e 444c 8ebe baff f6bd
000002f0: b06b 37bd f8d9 cebe 823b c23e 68bf 353e
00000300: 95ca e8be 1052 97be bee9 ab3d aa06 92be
00000310: 2e44 c23e ff78 44bd 43e1 84bc 226d a33d
00000320: d4ba e23e d283 89be cd3a db3d 8c14 4abe
00000330: 7697 3abe f9f8 b2bd 5d77 dfbd 444e f6bd
00000340: 536f d5bd 1945 02be 42cc eb3e 3a7d d4bd
00000350: e299 8a3e b681 e5bd 291c 12bf f42a 83bd
00000360: 95ab 823d 9f74 86bd d019 543e da0a a2bd
00000370: 6bb4 dabe 6d4c 343e c394 5ebe 3cbf 103e
00000380: 01cb 9a3e b8bc c9be 89fc e23e 3e52 2d3e
00000390: 8130 c3bd 6c70 85be d6cf 79be 64cb fd3c
000003a0: 01aa 15be 1d28 e8be fa76 ce3e b1a3 903e
000003b0: 4842 d2bd ef0b 0cbf d8bc eabd 9701 1d3e
000003c0: c6a6 8d3c 9677 503e 1cca 3abe 2fa1 783e
000003d0: ae67 963e d89c 013d 246e 86be be8c a4be
000003e0: 9d52 3a3e e561 fe3b 3026 083f d567 57be
000003f0: e9ca c93d fe26 33bd 2605 1a3d 9d93 0ebd
0.35793146 0.048274934 0.7731574 -0.6223197 -0.43697456 0.3734051 -0.42350087 -0.16635807
0.25659883 -0.57111377 -0.122153305 -0.1559445 -0.098755024 0.17274691 0.39037612 -0.15829529
0.34719452 0.13417809 0.0021232946 0.23745263 0.07423936 -0.16911082 -0.07918963 -0.03590407
0.021852612 -0.1431841 -0.10935787 -0.037833877 0.061874885 -0.33835027 0.20673668 -0.039589535
0.17512283 0.4804453 0.26796153 -0.36345866 -0.04990155 -0.38146642 0.31248182 0.124412365
0.5229192 -0.21430093 0.019324759 0.071665525 -0.36797434 -0.41712868 0.19889691 0.07180933
-0.039255735 -0.32394463 0.52681214 -0.40506902 -0.10152707 -0.041529752 0.20641962 0.20905297
0.3974517 0.22592011 0.102603935 0.32737726 0.108086005 0.14248092 0.046422597 0.09704008
0.1719328 0.16253468 -0.03303718 -0.4122989 -0.25252515 -0.10021908 -0.0039934297 0.17832464
0.07776969 -0.16157843 0.17397557 0.3609787 0.23352689 -0.33063278 0.31528857 -0.2583062
0.14377104 0.014941725 0.3386543 0.18547693 0.091138676 -0.032015335 -0.28929397 -0.4225605
0.29649934 0.15645531 -0.014004689 0.17198123 0.16657686 -0.2260911 0.1952553 0.44785845
-0.276796 -0.19067243 0.10521229 -0.7340259 -0.20850754 -0.08126826 -0.25421336 0.16300306
0.025249138 0.12502407 -0.11805556 0.32446802 0.40570304 0.31969637 -0.04504371 -0.16602297
0.18791279 -0.13560833 0.18570676 0.37427446 0.46061167 -0.45639753 -0.06159679 0.18503998
0.010312759 -0.12246092 -0.09625276 -0.513448 0.28921607 0.023301322 -0.15112409 0.18593511
-0.19533229 0.029685222 -0.029798599 -0.27843472 0.24666019 0.30863214 -0.24774191 -0.00038598393
-0.33775952 0.15157354 -0.34229174 -0.5297293 0.32457626 0.15625967 0.28011775 -0.068524994
-0.007066208 -0.39356813 0.7760864 -0.34401998 -0.2756963 0.045812476 0.010954168 0.2442707
0.08192845 -0.019961588 0.012855345 -0.27543166 -0.34917852 -0.2417711 0.18815492 -0.25579506
0.0023469129 0.16619618 0.26984987 0.14816388 -0.12664562 0.21721774 -0.096626885 0.032711595
-0.27585644 0.10117026 -0.02134139 0.10842956 -0.10252618 -0.25588804 0.31294578 -0.038042285
-0.016043603 -0.39211693 -0.38624457 -0.41036975 0.4406581 -0.24796101 0.14266787 0.078746065
0.2598269 0.13710183 -0.2779256 -0.12060495 -0.044780433 -0.40400672 0.37936026 0.17748797
-0.45467058 -0.29554796 0.08394192 -0.2852071 0.37942642 -0.047966953 -0.016220694 0.079798
0.44283164 -0.26858383 0.10704575 -0.197344 -0.1822184 -0.08738894 -0.109114386 -0.12026647
-0.10421624 -0.12721671 0.46054274 -0.103754476 0.27070528 -0.11206381 -0.5707422 -0.06404677
0.06380383 -0.065652125 0.20712972 -0.07912226 -0.42715773 0.17607279 -0.21736436 0.1413545
0.30233005 -0.39401793 0.44333294 0.16925904 -0.09530736 -0.26062334 -0.2439569 0.030980773
-0.14615633 -0.45343104 0.40325147 0.28249887 -0.102665484 -0.5470571 -0.114618 0.15332638
0.017291438 0.20358118 -0.18241161 0.24280237 0.29375976 0.03164372 -0.26255906 -0.32138628
0.18195577 0.007763135 0.5318327 -0.21035703 0.09853155 -0.043738358 0.037602566 -0.034808744

transformer_encoder.layers.1.linear1.bias f4 [2048]
00000000: 36a3 b7be 7db8 0abe a768 443e 15eb ac3d
00000010: 0f9f 5bbd b684 61be 69b9 dcbe 0385 5ebe
00000020: 39fb 763e 7ad8 4d3e 54d5 a23d da0e fdbe
00000030: 79c5 b7bd c1dc 82be a565 38be ca62 89be
00000040: ef3c fbbd 51b3 7dbe 4b2b fcbe b695 64be
00000050: dc1d d63d 8a5a d6bc 1e93 87bc b0f2 533d
00000060: c24f c63c c0df 2e3e ea95 26be 6e25 87be
00000070: a52d 1ebc bac0 c0be d02a 16be fd02 4bbe
00000080: 54f7 86bd 5be5 993e 8527 3fbe df29 90be
00000090: a801 3cbe 2204 623d e3d6 bfbe e35d dbbd
000000a0: 008f a8be a8ab 86bd f3dd 2fbe 2871 11be
000000b0: e7e5 173e 8493 8dbe d7bc 373e e77d 3dbe
000000c0: 55e4 fdbe 2ab4 423d e6dd 6ebe 7dca 10bf
000000d0: 935b d8be 1ca9 90be c5f2 a9be 10f3 babe
000000e0: ffee 473d bdb7 1ebe a21c 9ebd 0524 133e
000000f0: c8ec 1e3e 4088 eebd 851a dbbd 73f8 8cbe
00000100: 5cff 043e ee17 9c3d 5efd f6bd e7a6 d0bd
00000110: 958b 85be 9658 bdbe 57bf 063e de1d f6bd
00000120: d00f 2d3e 4cc2 a4be 39d5 e5bd 541d d2be
00000130: 7a06 713d dd1e 98be 6c76 13be 7267 0bbf
00000140: b7a1 dfbe 594d 4abe 2644 163d 0837 9a3e
00000150: 4ab8 503e a8bd c8be edde a6be 6de7 a4bd
00000160: ddc4 e1be 140b 9ebe c6ab 09be 706e 01be
00000170: 57e0 093c 7348 a43d 7c33 153e a694 ec3d
00000180: 0c06 493e cf1f e7bc 7858 7a3e cf80 8bbe
00000190: 0813 b2be 7581 b6be a289 ddbe 7cc3 48be
000001a0: a807 1ebe b8ea 6fbe 3960 7d3e 1c0d 21bd
000001b0: 3665 33be 0e6c 23be 2913 2b3e 8866 253e
000001c0: e115 3bbe 9f83 383e 42d6 e9be 466b a2be
000001d0: 6bbb a93e 432c a8be e323 a23c ac14 42be
000001e0: 2575 aebd 5cf5 b1be 6a3d 11be 5c46 963d
000001f0: dee4 0e3e e35a dcbe 5595 02be 3d00 163e
00000200: b8a3 90be efc1 ccbe 1b2b 833d e295 a23d
00000210: c055 06bf ef5c 6fbb a36b 4a3e 0089 453e
00000220: 2a04 1abe c8a6 773d 9911 ed3d c5e1 88be
00000230: c332 eebe 27bb f0be bf33 f43d 233f 6bbe
00000240: 5bcf 483e de9f 60be e09d b13d d425 4fbe
00000250: a404 bcbe 4e70 f7be 5982 e2bd 0983 483e
00000260: 7e46 033a 9dfc f0bb 462f da3b c324 bdbe
00000270: 6253 77be 2acf 66be 16fe cdbe 0c1d 773e
00000280: 4f35 95be b2b4 28be d54b 563e 924d c7be
00000290: 4517 61be 529e 9ebd db34 b1be 2ac0 4d3e
000002a0: 0f76 a9be 4174 d7bd bf8b b5bd 986c 34be
000002b0: 73d8 183d aebd d0bd 6802 95be af0e 7fbe
000002c0: c781 afbe 399e d6bd ce35 e5be 8f8c 123e
000002d0: 0f77 93be c2b2 e0bd b1d6 0abe 13f9 183d
000002e0: ca4b 2fbd 7219 8cbe 5ec4 983e fb6f 6dbd
000002f0: c690 81be 0c0d 883e 1805 33be 2561 b0be
00000300: ca36 00bf fee4 393e cc24 7cbe a853 b83d
00000310: 0cc2 c0be 499f 73bb ab43 24be 6393 21bd
00000320: 563a cbbe 4356 61be bb3d aabd 7c70 2bbe
00000330: e064 d03c 09c0 37be b944 49be 3a02 71be
00000340: 4e47 bdbe 81fd 4cbd 6d27 ecbd 08d3 c23b
00000350: 6a23 dcbe bad3 1a3e ef0e a83d a504 f2be
00000360: da9f c7be bbde e13c 0904 89bd 3aab 813e
00000370: dd76 4a3d 7377 f93d 36d9 c3be 9042 1cbe
00000380: c897 553e f748 6ebe dfec 223e 6b57 f0bd
00000390: fe50 2fbc b072 b9bd dd09 0fbe f510 50be
000003a0: fcb1 713d 74df eb3c 8851 85be e350 d8be
000003b0: ff69 a0be b438 373e 7ac4 19bd 8772 a1bc
000003c0: 4da0 1b3e 5212 afbe af66 313e e44e 8fbe
000003d0: 4d3d b3be 6853 33bd 7aaf 18be d56c a7be
000003e0: e1f8 d5be 30ce 9b3d 016d 5d3e eeff 41bd
000003f0: a9c8 cbbb 3218 a1bd d849 c0be dcef 1dbe
-0.35866708 -0.13546939 0.19180547 0.08443276 -0.053618487 -0.22023281 -0.43110207 -0.21730427
0.24119271 0.2010211 0.07950845 -0.49425393 -0.08973212 -0.25559047 -0.18007524 -0.26833183
-0.122674815 -0.24775435 -0.4925178 -0.22322735 0.10454914 -0.02616622 -0.016549643 0.051745117
0.024207953 0.17077541 -0.16268125 -0.26395744 -0.009654437 -0.3764704 -0.14664769 -0.19825359
-0.06590143 0.30057797 -0.18667419 -0.28156945 -0.18360007 0.055179723 -0.37468633 -0.10711267
-0.329216 -0.065757096 -0.1717451 -0.14203322 0.14833795 -0.27651608 0.1794313 -0.18505059
-0.49588266 0.0475351 -0.23326835 -0.5655897 -0.42257366 -0.2825402 -0.3319303 -0.36513567
0.04881191 -0.15499778 -0.07720305 0.14369209 0.15520012 -0.116470814 -0.106984176 -0.27533302
0.12988037 0.07621752 -0.12060045 -0.10188084 -0.26083055 -0.36981648 0.13158928 -0.120174155
0.16900563 -0.32179487 -0.112223096 -0.41038 0.058844067 -0.29711047 -0.14400643 -0.5445472
-0.43678066 -0.19756068 0.036686085 0.3012011 0.203828 -0.39207196 -0.32591954 -0.080519535
-0.44095507 -0.30867827 -0.13444433 -0.12639785 0.008415303 0.08021631 0.14570421 0.1155179
0.19631213 -0.02821341 0.2444781 -0.2724671 -0.34780145 -0.35645643 -0.43269068 -0.19605821
-0.15432608 -0.23429382 0.24743737 -0.039319143 -0.17519078 -0.15959188 0.16706528 0.16152394
-0.18270065 0.1801896 -0.45671278 -0.31722468 0.331508 -0.3284627 0.019792503 -0.18953198
-0.08518437 -0.34757507 -0.14183584 0.07337639 0.13954493 -0.4303809 -0.12752278 0.14648528
-0.28249907 -0.3999171 0.06404706 0.07938744 -0.52474594 -0.0036523899 0.19767623 0.19290543
-0.15040651 0.06046179 0.11575622 -0.26734748 -0.46523103 -0.47017786 0.11923932 -0.22973303
0.1961035 -0.21935984 0.086726904 -0.20229274 -0.3672229 -0.4832787 -0.11060018 0.19581236
0.00050077576 -0.0073543326 0.0066584675 -0.3694211 -0.24152902 -0.22539964 -0.40232915 0.24132174
-0.29142234 -0.1647518 0.20927365 -0.3892637 -0.21981533 -0.07745041 -0.34610638 0.20092836
-0.33097884 -0.105202205 -0.08864545 -0.1761955 0.037315797 -0.101924285 -0.29103398 -0.24907945
-0.342787 -0.10479397 -0.44767612 0.14311431 -0.28801772 -0.10971595 -0.13558461 0.03734691
-0.042796887 -0.27363163 0.29837316 -0.05796812 -0.25305766 0.26572454 -0.17482412 -0.34449115
-0.500836 0.1815376 -0.24623412 0.09000331 -0.37648046 -0.0037173799 -0.16041438 -0.0394472
-0.39692944 -0.22005562 -0.083125554 -0.16742128 0.025438726 -0.1794435 -0.19655122 -0.23536006
-0.36968464 -0.050046448 -0.11530957 0.005945567 -0.4299577 0.1511983 0.08205973 -0.47269168
-0.38989145 0.027572026 -0.06690223 0.25325948 0.049429763 0.12180986 -0.38251656 -0.15259767
0.20858681 -0.23270021 0.15910672 -0.11735424 -0.010700462 -0.09055078 -0.13968606 -0.20318969
0.05900763 0.028793074 -0.26038766 -0.42249212 -0.3133087 0.17892724 -0.03754089 -0.019707931
0.15197869 -0.34193665 0.17324327 -0.27989876 -0.35007706 -0.043780714 -0.14910689 -0.3270022
-0.41791442 0.076076865 0.21623613 -0.047363214 -0.006218989 -0.07865943 -0.37556338 -0.1542353

transformer_encoder.layers.1.linear2.weight f4 [6, 2048]
00000000: f2d7 ffbe 75af 14be 0764 003d f811 a33c
00000010: ffe9 9d3d 0fa5 d33d 8331 0b3e 57f0 23bd
00000020: 6138 9b3d e8d4 b53c 9e18 973c 427f 1fbe
00000030: bd37 b23d 416f d1bd c725 8aba 57b2 373d
00000040: 7dab a2be a16e 963d b8f3 17be 794d 0cbe
00000050: 0dc2 8f3c f9dc beba a0a9 c43c eb12 663d
00000060: d372 803c 5852 253d b8c8 b63d 504e 09bd
00000070: 5744 e83c 386d 133e 6147 94be 8037 9c3d
00000080: 228f bfbd 12be 21be 0d7a da3b eaa3 e83d
00000090: 6cf1 d7bd 4580 433d 2642 b43d f3f1 4bbd
000000a0: c65c dfbc 4863 4e3e 1288 3abc ace1 f6bb
000000b0: 986d ef3c 8a35 0fbd 0d78 01bd 8f17 e23d
000000c0: a945 b73b f648 42bd 8cb0 f4bd 14af 91be
000000d0: 5e28 a6bd 9235 993e 25da f6bc b8a6 aa3c
000000e0: a8a2 b73d 12d9 ae3d 3e20 553c d352 353c
000000f0: a30d bf3c 9e2c 1ebd be73 563e 2ecc d23d
00000100: 392f 11bb 76c1 763d dc89 7e3c f698 58bd
00000110: 963a 27be 3b13 513e 1b96 21bc 5220 bebd
00000120: 727e 903a b588 b5bc b333 d23c 46da bdb7
00000130: 3b55 213b 8936 ae3d 7073 043e b3d4 6fbd
00000140: 5c8a 503e e523 52bd 4b90 46bd 2716 8d3c
00000150: ecf9 cf3b a878 67be 2d80 b2bb 8060 50be
00000160: d12d fdbc abb9 aa3e 975b 853d db12 01bc
00000170: 5694 3b3d 4c6f 0b3d 0f1c 4b3c 55ee 683d
00000180: 7100 1c3d 7df0 673d 64c0 833b 6822 92bc
00000190: 79c0 be3d 375d 85be 8228 f9bd cc9e c03c
000001a0: 5d8d 84bd b2e9 313c 6ad7 193c 9eef 32bd
000001b0: 6464 943d 51ba 823d 58c1 87bc 4d95 02bd
000001c0: b886 14bc bef5 44bd 783d c8bd 7a94 c93d
000001d0: a0d8 2f3d 959b 26bd 4cb9 da3c c3b9 cc3d
000001e0: a229 05be ffd1 973d 587d 3cbb 3acb 3cbc
000001f0: cdf3 de3c ab85 a13a 2e58 963c efba 303d
00000200: 0e97 fdbd 9764 36bd 273a 043e 0c7b 33bc
00000210: c7a7 f33b 8edc eebc c0ae c03c 0e73 1e3d
00000220: e75a ed3b 503a bc3c b312 05be af41 133e
00000230: 08e4 1b3c 40ce aebd 3712 e93c acae 203d
00000240: bdf6 94bc ed8b 30bd e613 073d 1014 cebd
00000250: 5c9a 04bd 96b4 013c 0572 bcbd 2616 b5bc
00000260: f3ab b2bc ba0c 6dbd 8126 f73d ccb6 b4be
00000270: edcb 77bc 95f9 6c3c 9934 933d fee3 b53c
00000280: 3cd1 07bd 6dee d6bc 27f3 913c e99a 383d
00000290: b120 df3d a1e7 89bd 44f6 6b3d 4f7a cc3b
000002a0: d291 db3d d045 ab3d 6637 583d eafe d2bd
000002b0: 1380 c4bd 53da 27bd 3ce2 01be 67c7 f33d
000002c0: 8b1e 0c3c c4de d7bd 6881 b13c ddd5 3b3d
000002d0: a3ac 5f3d 1457 833d 6e05 c1be 62ad d43c
000002e0: d983 d93c 1f96 9fbd b417 d939 b7c2 87bc
000002f0: 311b 85bd d4ee 21bd 2ada 913c 594d e1bb
00000300: 312e a13e a96a b6bd 093d 8ebd 4093 023d
00000310: 3d39 093e 6567 50bd 3665 85bc cfd8 0f39
00000320: ebf4 ae3d 1a03 d8bc 06ac a4bd 7ee9 ba3a
00000330: 7dd7 8d3c 4282 b13d e552 4f3c 95fe c8bd
00000340: 0391 5a3d d813 18bd 6d62 e93c ac58 92bd
00000350: 7e1b 94bd 420c 72bb 61ba d63c cac0 1dbd
00000360: eb78 10bf 9222 e9bd c42b b5ba c28d 0c3a
00000370: 9a9c e03c 1dc6 1dbc 50ce b63d a69a a43c
00000380: 4639 bd3b 5951 6bbc a94b 523c 61fa 193d
00000390: 432f c6bc fcfe d63c bf42 19bd c444 8bbc
000003a0: c521 543d 4a09 c43c 4706 44bd b2bf a4be
000003b0: d983 28bd 640a e8ba 186f 223c 6c20 a23c
000003c0: 42e6 f3bb 26c0 c3bc cb58 ce3b ff0c 12bb
000003d0: 3e0e e53e 3ecc c2bc 6932 adbd 791b a3bd
000003e0: c148 ac3d 4592 e93a fa7d 713c 2d7e 2abe
000003f0: b13e 693c caa7 e6bd 90a1 8cbe d50f 1dbd
-0.4996944 -0.14520057 0.031345394 0.01990603 0.07710647 0.10334217 0.13593106 -0.040024128
0.07579113 0.022196248 0.018444356 -0.15575889 0.087020375 -0.10226298 -0.0010539823 0.044847813
-0.3177146 0.073453195 -0.14839065 -0.13701428 0.017548585 -0.0014561705 0.024006665 0.056170385
0.015679752 0.040361732 0.08925003 -0.03352195 0.0283529 0.14397132 -0.28960708 0.07627773
-0.09353472 -0.15795162 0.0066673816 0.11359389 -0.105440944 0.04772975 0.08801679 -0.049791288
-0.027265918 0.2015506 -0.011384981 -0.0075342264 0.029227063 -0.03496317 -0.03160863 0.1103965
0.005593021 -0.047432862 -0.11947736 -0.28453887 -0.08113168 0.29923683 -0.030133316 0.02083145
0.08966571 0.085374966 0.013008175 0.01106711 0.023321932 -0.03861677 0.2094259 0.102928504
-0.002215339 0.060243092 0.015535798 -0.05288025 -0.16330943 0.20417492 -0.009862448 -0.09283508
0.0011024012 -0.022159914 0.025659418 -2.2632197e-05 0.0024617452 0.085064955 0.12934661 -0.058552455
0.2036528 -0.051303763 -0.048477452 0.017222477 0.0063469317 -0.2260462 -0.0054474087 -0.20349312
-0.030905636 0.33344778 0.0651161 -0.007878031 0.04579576 0.034041688 0.012396826 0.056867916
0.03808636 0.056625832 0.0040207375 -0.017838672 0.09314055 -0.2604768 -0.121659294 0.02351322
-0.064722754 0.01085894 0.009389738 -0.043685548 0.072457105 0.06383193 -0.016571686 -0.031880666
-0.009065323 -0.04808592 -0.09777349 0.09842773 0.0429312 -0.04067572 0.026699685 0.09996369
-0.13004163 0.074131005 -0.0028761234 -0.011523062 0.027215863 0.0012323161 0.018352594 0.043147024
-0.12382327 -0.044529524 0.12912808 -0.01095463 0.007435772 -0.029157903 0.023520827 0.038683943
0.0072435024 0.022977024 -0.12995414 0.14380525 0.009514816 -0.08535433 0.028451068 0.03922908
-0.01818406 -0.043102194 0.03297796 -0.1006242 -0.03237377 0.00791659 -0.09201435 -0.022105288
-0.021810507 -0.057873465 0.12067891 -0.35295713 -0.015124303 0.014463802 0.071877666 0.022203442
-0.033158526 -0.026236737 0.01781614 0.04506961 0.10894907 -0.06733633 0.057607904 0.0062401663
0.107211724 0.08362925 0.052787207 -0.10302527 -0.09594741 -0.040979695 -0.12683958 0.11903267
0.008552204 -0.10540536 0.021668151 0.045858253 0.054608 0.06413093 -0.37699455 0.025961582
0.026552128 -0.07792305 0.00041407126 -0.01657234 -0.06499327 -0.039534405 0.017804224 -0.0068756756
0.31480554 -0.089070626 -0.06945235 0.03187871 0.13400741 -0.050879855 -0.016283613 0.0001371831
0.08542808 -0.026368666 -0.08040623 0.001426026 0.017314667 0.08667423 0.012654041 -0.09814183
0.05336095 -0.0371283 0.028489316 -0.07145819 -0.07231806 -0.0036933576 0.02621192 -0.038513936
-0.56434506 -0.11383547 -0.0013822247 0.00053617 0.027418423 -0.009629753 0.0892607 0.020093273
0.00577465 -0.0143626565 0.012835422 0.037592296 -0.024192458 0.026244633 -0.03741717 -0.017000563
0.051790018 0.02393021 -0.04785755 -0.32177502 -0.041141365 -0.0017703292 0.009914182 0.01979085
-0.0074432204 -0.023895334 0.006297206 -0.0022285578 0.44737428 -0.02377903 -0.084568806 -0.07964224
0.08412314 0.0017820081 0.014739508 -0.16649695 0.014236138 -0.11262472 -0.27467012 -0.038345177

transformer_encoder.layers.1.linear2.bias f4 [6]
00000000: 5eb3 483c da22 3abb 6aea eebb 750f 43bc
00000010: d460 dc3b fe4d bb39
0.012249796 -0.002840212 -0.007291128 -0.011905541 0.00672541 0.00035725528

transformer_encoder.layers.1.norm1.weight f4 [6]
00000000: ab0e 853f 11e4 973f 3fc7 803f 0c65 473f
00000010: 5980 733f 0e08 6c3f
1.0395101 1.1866475 1.0060805 0.7788856 0.9511772 0.9219979

transformer_encoder.layers.1.norm1.bias f4 [6]
00000000: 94c2 1b3e 7190 043d edd0 87bd 8666 1fbe
00000010: 3a7c d13c f29e 743d
0.15210944 0.032364313 -0.06631646 -0.15566453 0.025571931 0.059721895

transformer_encoder.layers.1.norm2.weight f4 [6]
00000000: 6e33 8b3f a597 a83f 8a6c 6a3f 40fb 8b3f
00000010: 4d7a 7d3f 732a 953f
1.087507 1.3171278 0.9157187 1.093605 0.9901474 1.165358

transformer_encoder.layers.1.norm2.bias f4 [6]
00000000: 0afe 6b3d 7e51 d13d 63db a4bd ede4 ad3e
00000010: 676b 55be c456 3ebe
0.057615317 0.102206215 -0.08049657 0.3396372 -0.20841752 -0.18587786
