Archive/RU_model/Transformer/best_model_tr.2.16.pth (torch, 326322 bytes, 29 tensors)

norm.weight f4 [6]
000000 00 00 80 3f 00 00 80 3f 00 00 80 3f 00 00 80 3f
       1.0 1.0 1.0 1.0
000010 00 00 80 3f 00 00 80 3f
       1.0 1.0

norm.bias f4 [6]
000000 00 00 00 00 00 00 00 00 00 00 00 00 00 00 00 00
       0.0 0.0 0.0 0.0
000010 00 00 00 00 00 00 00 00
       0.0 0.0

transformer_encoder.layers.0.self_attn.in_proj_weight f4 [18, 6]
000000 f2 28 dd bc 79 a0 7f be ea 43 ff bd 4d 17 74 bd
       -0.026997063 -0.24963559 -0.124641255 -0.059592534
000010 ee 79 37 bd dd 51 fd be 9c 3e d8 3d 78 c0 87 be
       -0.044794016 -0.4947652 0.10558817 -0.2651403
000020 db a0 0f 3e d4 da ca be 7d 23 d8 be 6f e7 da 3e
       0.14026205 -0.39620078 -0.42214575 0.42754695
000030 32 88 29 bb 4f 01 05 3e 74 d7 c4 be b2 7d 95 be
       -0.0025868532 0.1298878 -0.38445628 -0.2919746
000040 46 98 cf 3e 9c 06 1e 3c 28 8c a9 3e 50 d9 54 bc
       0.40545863 0.0096451305 0.33114743 -0.012991264
000050 fc 6f 81 be 9f e5 c2 3e 01 9d 1f 3e ed 62 ec be
       -0.2528075 0.38065812 0.15587236 -0.46169224
000060 11 d5 00 bf a5 08 2d be f4 1d 62 3e 54 83 d9 be
       -0.50325114 -0.16897829 0.22081739 -0.42483008
000070 29 f8 e6 3e 5c 1c 96 be f3 dc 7d 3b c0 a9 71 be
       0.45111206 -0.2931851 0.0038736432 -0.2359991
000080 f7 a9 aa be 01 04 88 3e f5 e9 53 be 69 b4 fe be
       -0.33332798 0.26565555 -0.20694716 -0.49747017
000090 92 e2 e6 3e 42 fa dd be 58 ed a5 3d e3 b8 d3 3c
       0.45094734 -0.43354994 0.0810191 0.025844997
0000a0 47 73 e6 be 3c e0 42 3e 68 da 1b be fd d6 c1 3e
       -0.45009825 0.19030851 -0.15220034 0.37859336
0000b0 97 0b dc 3e 92 5d a8 3e b3 7d e2 3c 23 bf ec 3e
       0.42977592 0.32883888 0.027647829 0.46239576
0000c0 52 e0 85 3e aa ae aa 3e 37 73 7c 3e ec ca d0 be
       0.26147705 0.33336383 0.24653326 -0.40779817
0000d0 fb a7 c4 be f3 5a 15 be 7e 06 c3 3e e6 cd ba 3e
       -0.3840941 -0.14585476 0.3809089 0.36485213
0000e0 f9 e8 ad be f6 7a db be a9 1b 9e be d3 e1 7d be
       -0.33966807 -0.4286725 -0.30880478 -0.24793176
0000f0 97 00 c9 3e a7 40 c2 be db d4 ab 3e 02 a5 74 be
       0.39258263 -0.3793995 0.33560833 -0.2389107
000100 22 5e 58 3d fd 50 a5 3e 3f c3 5b be f4 ac 22 be
       0.052824147 0.32288352 -0.21461199 -0.15886289
000110 82 dd 41 be 52 7c cb be 39 eb 36 3e 92 8b f0 be
       -0.18932155 -0.39743286 0.17863168 -0.46981484
000120 87 7e 06 be 15 68 6c 3d d2 05 fa be 68 4b e4 bc
       -0.13134204 0.057716448 -0.48832566 -0.027867988
000130 00 b4 0f bf 60 71 05 3e 9a 8b 92 be 72 20 10 be
       -0.56134033 0.1303153 -0.28622133 -0.14074877
000140 13 2c 85 3e df ba de be 03 e5 91 be 96 be 12 3e
       0.26010188 -0.43501946 -0.28495035 0.14330515
000150 0b ff 16 bf d8 6c 11 be 70 f6 ed be 84 8e 43 be
       -0.58982915 -0.14201677 -0.4647708 -0.19097334
000160 c9 40 61 be 8c 2c 90 be db e3 c8 3e 23 6a d2 3e
       -0.2199737 -0.28158987 0.3923634 0.410966
000170 87 48 16 be 1d 45 47 3d bc ba 6e bc f9 7a 85 3e
       -0.14676104 0.048649896 -0.014570888 0.26070383
000180 60 f9 83 3e e2 bd f3 bc 9d 5f 4d 3d 79 e9 00 3f
       0.25776196 -0.02975363 0.050140012 0.5035625
000190 b0 34 c8 3e 57 86 df 3e 34 3c 10 bf a2 55 e7 be
       0.39102697 0.4365718 -0.5634186 -0.4518252
0001a0 d6 8a 85 be c6 e2 95 bd 14 19 c5 3e f3 ef 8e 3e
       -0.26082486 -0.07318644 0.38495696 0.27917442

transformer_encoder.layers.0.self_attn.in_proj_bias f4 [18]
000000 30 11 d2 3c c3 fb c7 3c 33 ef c7 bc a4 91 97 3b
       0.025642961 0.024412042 -0.024406051 0.004625516
000010 69 68 5b 3c 8e 49 b7 3b 5c dc 3d 3c 14 b3 a5 3c
       0.013391593 0.005593485 0.011588182 0.020226993
000020 ed 9f a1 3c cb 2f 7d 3c 66 36 43 bc 63 a4 1f 3c
       0.019729579 0.015453289 -0.011914825 0.009743783
000030 5d 7f 18 be 7a 1b f6 3d 62 d4 38 bd 15 e5 ed 3b
       -0.14892335 0.120169595 -0.04512442 0.0072599747
000040 51 6f 86 bd 5d c1 a3 3d
       -0.06564201 0.079958655

transformer_encoder.layers.0.self_attn.out_proj.weight f4 [6, 6]
000000 68 44 3e be 32 e0 bf 3e 3f 0e 79 3e b7 c1 7c 3e
       -0.18580782 0.37475735 0.2432184 0.24683271
000010 6b c0 d6 3e c5 86 88 3d 31 75 52 3e 17 9f c4 3e
       0.41943678 0.0666633 0.20552517 0.38402626
000020 0d 77 ae 3d 10 4b 34 be cc 40 97 be 1a fa 93 3e
       0.08518801 -0.17606759 -0.29541624 0.2890175
000030 0d 82 36 3e 66 fa 9b be c4 4e 1a 3e ce 5c 9c 3e
       0.17823048 -0.30464476 0.15069109 0.30539554
000040 12 2d ce 3e c3 15 e3 3d 63 72 01 bf b4 8d 0a 3d
       0.4026876 0.11088135 -0.50565165 0.033826545
000050 e1 49 63 bc bd 29 8d 3e 07 8c 3a be 36 6e 07 3e
       -0.013872595 0.27570906 -0.18217479 0.13225636
000060 52 f5 ca 3e 6a 24 eb 3c 05 d0 6f 3c 1c 99 b2 3e
       0.3964029 0.028703887 0.014636998 0.34882438
000070 72 17 10 3e e5 7f 8b be cb 2c d4 bd 84 20 2b 3e
       0.14071444 -0.27246013 -0.10360106 0.16711622
000080 f1 68 b1 be ab ae b5 3e 02 36 6c be 65 5b c9 3e
       -0.34650376 0.35484824 -0.23067477 0.3932754

transformer_encoder.layers.0.self_attn.out_proj.bias f4 [6]
000000 f7 be b3 3d 02 fb a9 3d 37 91 2c bd 4e 3b ea 3d
       0.08776658 0.08299829 -0.042130675 0.11437093
000010 48 6e 6b bd d0 1d e7 bc
       -0.05747822 -0.028212458

transformer_encoder.layers.0.linear1.weight f4 [2048, 6]
000000 88 5e 9f 3e 16 31 df 3d cd 70 89 3c 92 eb dd be
       0.3112681 0.10898034 0.01677742 -0.43343788
000010 11 26 9c 3e 69 d1 a0 be 8b 34 b8 be 66 21 8a be
       0.30497792 -0.31409767 -0.35977587 -0.26978606
000020 41 03 70 3e d6 1e e4 bc a5 60 84 3e cd 3a 60 3e
       0.23438741 -0.027846735 0.25854984 0.2189743
000030 9d 84 c6 3e 4b 53 18 3d f7 28 9d bc 0c 67 03 3e
       0.3877305 0.03718881 -0.019184573 0.12832278
000040 ac b4 9d 3e b0 57 6b 3d 87 8b 19 3e 74 91 b7 be
       0.30801904 0.057456672 0.14994632 -0.3585316
000050 8b 72 5f 3e 00 c7 78 be c5 f2 5f be d3 51 06 be
       0.21821038 -0.24294662 -0.21869953 -0.13117151
000060 81 58 19 be a3 4d aa 3c 8b 1e 95 3e c5 d2 73 3e
       -0.14975168 0.020788973 0.29124865 0.23810871
000070 db 58 aa be 86 98 d9 bd 51 6a 13 3e 30 d9 83 be
       -0.33270916 -0.10624795 0.14396025 -0.25751638
000080 d2 89 c1 bc 84 e1 99 bd cd 0e cd 3e 4c 5e 3c bd
       -0.023625288 -0.07513717 0.40050355 -0.045988366
000090 3b 09 9f bd 42 37 e9 bd 72 c5 bc 3e 39 f8 73 3e
       -0.077654324 -0.11387493 0.3686939 0.23825158
0000a0 50 be eb bd 8c f2 57 3e ad e1 7d be 19 35 53 be
       -0.115109086 0.21088618 -0.2479312 -0.20625724
0000b0 10 c0 e0 bd ce bf 42 3e d3 70 cd 3d 99 cd 9a 3e
       -0.10974133 0.1901848 0.10031285 0.30234984
0000c0 66 e1 2c be 9c f1 5b be f5 a6 84 be 02 ef 16 be
       -0.16882858 -0.21478885 -0.25908628 -0.14739612
0000d0 27 9a f8 bd d4 94 9a 3e 92 35 aa be db 31 25 3e
       -0.12138777 0.30191672 -0.33243996 0.161323
0000e0 48 c4 e7 bd 45 1b b1 bd 53 55 8a be bd b8 b3 bd
       -0.113167346 -0.086477794 -0.27018222 -0.087754704
0000f0 d6 86 a5 3d e0 f0 60 3e fb 19 12 3e e7 d3 37 be
       0.080823585 0.21966887 0.14267723 -0.17951928
000100 fe 55 4b bd bc b3 58 be cf 17 4c 3e 6b db 84 be
       -0.049642555 -0.21162313 0.19930957 -0.25948653
000110 ef 70 7c bc bc f4 e3 3c 22 e8 9d be 73 32 ac be
       -0.015407785 0.02782666 -0.30841166 -0.3363224
000120 3d 23 f1 bd 5b d2 7e 3e 56 b3 11 bd b0 ae c1 3e
       -0.11774299 0.24884932 -0.03557142 0.37828588
000130 b1 98 c2 be c0 6c 1e 3e 7b 18 d7 3e be a8 ba bd
       -0.3800712 0.15471172 0.42010865 -0.09114216
000140 79 f4 73 3e 3c 1c 3e bd d1 43 e1 3c 40 99 cd be
       0.23823728 -0.046413645 0.027498158 -0.40155983
000150 3f 07 a1 3e 74 45 c1 be 44 b9 ab 3e cf 8e bc 3d
       0.3145084 -0.377483 0.33539784 0.09206926
000160 04 b1 df 3c 49 00 30 3d 73 b8 a0 be 13 dd 59 3e
       0.027306087 0.042969022 -0.31390724 0.2127574
000170 82 df c2 be 5c 99 57 3e 9d c7 ce 3d a2 a0 dd bd
       -0.38061148 0.21054596 0.10096667 -0.10821654
000180 ef f7 08 3e 2a 69 ae 3d fb 1e 95 be fe 5f 92 be
       0.13375829 0.08516152 -0.291252 -0.2858886
000190 b6 04 b5 be 3a 95 f5 bd d8 e2 82 3e 17 9c a3 3e
       -0.35355157 -0.11991353 0.25563693 0.31955025
0001a0 d6 d6 05 be 71 0b a0 be b4 da 4a 3d 77 10 8f 3e
       -0.13070235 -0.3125873 0.049524978 0.2794225
0001b0 83 1b ab be fa 4d c6 bd 64 73 6f bd 22 0e 92 3e
       -0.33419427 -0.096828416 -0.058459654 0.28526407
0001c0 66 ec ce 3d 8e ff 90 3e ef 35 8d be b8 3c 36 bc
       0.10103683 0.28319973 -0.2758021 -0.011122875
0001d0 13 bf c9 3e cb 64 7d be d2 15 7e 3c 41 18 0e be
       0.3940359 -0.2474548 0.015508132 -0.1387644
0001e0 8e c2 f0 3b 7f dd 91 3e c3 8f e6 be 7d e2 4d 3e
       0.0073474115 0.284893 -0.45031556 0.2010593
0001f0 50 50 af 3e 8a ae 86 3e 73 96 9c 3e 23 ab af be
       0.3424096 0.26305038 0.30583534 -0.34310254
000200 48 e2 90 3e 3e d4 a9 3c c5 b8 d3 be 32 ea 52 be
       0.2829764 0.020731088 -0.41351905 -0.20597151
000210 a5 a9 b7 be 2c 1a 6d 3e 7c 5f 8f be 7e 02 a4 3e
       -0.35871616 0.23154515 -0.28002536 0.3203315
000220 48 88 68 3e 82 3f 82 be 81 dc 94 bc 3a ff 1b be
       0.22708237 -0.25439078 -0.01817155 -0.1523408
000230 f3 f7 37 3e 3d fc d3 be 99 d9 49 3c 71 4f a8 be
       0.17965679 -0.4140338 0.012319946 -0.3287311
000240 69 88 20 3e b3 6a 90 3e 86 4f 5c 3e 59 32 85 be
       0.15677036 0.28206405 0.21514711 -0.26014975
000250 d5 e2 36 be 60 4e 75 3e a5 15 56 3b fd 87 dd bd
       -0.17859967 0.23955679 0.003266671 -0.10816953
000260 b8 3f b4 3c ad 74 d0 be 6d ce 84 be f0 09 ab be
       0.02200304 -0.40714017 -0.2593874 -0.3340602
000270 97 28 56 be b0 ae a7 be 78 00 9e 3d 61 17 63 be
       -0.20913921 -0.32750463 0.07714933 -0.22176887
000280 96 a6 50 bd 1b d9 8d bd ef 21 f1 be d2 60 aa bd
       -0.05094012 -0.06926175 -0.47096202 -0.08319248
000290 95 4d 38 be 3d 34 7d be 77 2c 8e 3d 5c 5e c4 3e
       -0.17998345 -0.24726959 0.06942075 0.3835324
0002a0 aa f8 ce 3e 3f a4 74 3d 59 1c 24 3e 5b 6e 8f bd
       0.4042409 0.05972695 0.16026439 -0.070034705
0002b0 4f d1 3f 3e d9 82 dd 3d 9a 78 5a be 5c a4 10 be
       0.18732189 0.10815973 -0.21335068 -0.14125198
0002c0 35 01 83 3d d1 d4 1d bd 97 80 87 3e ce 36 c9 be
       0.063967146 -0.038533036 0.26465294 -0.39299625
0002d0 08 da 3f be bf 11 01 be 41 ed 44 3e 0a 2b ec be
       -0.18735516 -0.12604426 0.1923113 -0.46126586
0002e0 0c 0c 09 be 98 43 9f 3e c8 06 ba 3e 96 94 5d be
       -0.13383502 0.31106257 0.363333 -0.21638712
0002f0 aa 85 8b 3e 1e d3 28 3e 4b 9a 25 3e 9f 85 93 be
       0.27250415 0.16486785 0.1617214 -0.28812882
000300 f3 8e 06 3d c5 19 b5 3e a1 de 8b 3e ff 56 24 3e
       0.03285117 0.35371223 0.2731829 0.16048811
000310 40 b7 ca be c3 a8 22 3e 66 36 b2 3e 59 eb e0 3d
       -0.39592934 0.1588469 0.34807128 0.10982389
000320 78 f6 d5 3e 2e a9 b2 3d 55 86 62 be cd 1d 5e bd
       0.41789603 0.08723675 -0.22121556 -0.05422764
000330 81 53 ab 3e 26 e6 c2 3d 6f 49 15 be 03 e6 76 3e
       0.33462146 0.095165536 -0.14578794 0.2411118
000340 83 52 c2 3e e7 a9 b8 3e 54 15 9a 3e d5 01 9c 3e
       0.37953576 0.36067125 0.30094397 0.30470148
000350 aa a7 9d 3e cd 0b 1f 3d b8 c0 88 3e f4 ec 6d be
       0.3079198 0.038829613 0.26709533 -0.23234922
000360 88 c3 95 be df c5 8b 3e 12 14 df 3e 52 bf 9a be
       -0.2925074 0.272994 0.4357 -0.3022409
000370 2a ec 0b bb ec 0c c9 3d cb 53 c3 3e 1f 96 8c 3e
       -0.0021350482 0.09816918 0.38149866 0.27458283
000380 07 0d 4c be 2a 52 11 3e b6 46 c2 be bd 3a 91 3e
       -0.19926845 0.141915 -0.37944573 0.28365126
000390 26 14 cf 3d f7 8c b4 3e ec 92 83 bc a7 bc 8e 3e
       0.10111265 0.35263798 -0.016061269 0.27878305
0003a0 c5 e5 b6 3e 5c c8 88 be 08 9a 95 be 5e 3d b4 3d
       0.35722175 -0.26715362 -0.2921908 0.08800767
0003b0 d6 d1 55 3e 09 b1 52 be 5b 21 d4 be 23 bd c0 3e
       0.20880827 -0.20575346 -0.41431698 0.376443
0003c0 2a 4c 66 3e a9 b6 bf be 9c 6d 92 3e eb 2a 82 3e
       0.22489992 -0.37444046 0.2859925 0.2542337
0003d0 bf 81 80 be 20 c9 b1 3e 5c 40 0a be 79 d3 81 3e
       -0.25098988 0.3472376 -0.13501114 0.25356653
0003e0 17 ea 9c be 6d 6d 8d be bd 51 a5 bd 4c 69 a2 be
       -0.30647346 -0.27622548 -0.08072231 -0.3172096
0003f0 3a d6 05 3e 7f 08 6e be 61 c9 89 3e 83 c8 e8 3d
       0.13070002 -0.23245429 0.26911452 0.113663696

transformer_encoder.layers.0.linear1.bias f4 [2048]
000000 1d 36 be 3e bb af 62 3e 94 f1 24 be e4 29 27 be
       0.3715066 0.22137348 -0.1610778 -0.16324574
000010 a7 38 66 be 6e 33 b2 bd 12 93 7c 3e 6d 57 58 bc
       -0.22482549 -0.08701216 0.24665478 -0.013204438
000020 2d a0 86 bd 89 62 8c 3e 95 ea 4b be 03 f0 be be
       -0.0657352 0.27418926 -0.19913705 -0.3729249
000030 da ec 33 3e 33 55 2d 3d 29 c6 a0 3e 9f 83 a9 be
       0.1757082 0.04231758 0.31401184 -0.3310823
000040 65 ca 60 3e 9a af b6 3e 6f aa b0 3e ef d5 b4 3e
       0.21952207 0.35680848 0.3450503 0.35319468
000050 01 16 ca 3c a4 c6 d8 3d 67 79 33 3e fe b9 d3 bd
       0.024668695 0.10584763 0.1752678 -0.103382096
000060 5a 3f 58 bd 2e de 1c bd 79 e9 37 be e9 fc 78 be
       -0.05279479 -0.038297825 -0.17960157 -0.24315228
000070 77 6f 8a be 99 6f 99 3e 22 18 10 bd 79 28 aa be
       -0.27038166 0.29967955 -0.035179265 -0.33234003
000080 bc 5a 04 3e fb 6d be bd 27 e9 e8 3d e3 4e 28 3e
       0.12925237 -0.09298321 0.11372595 0.16436343
000090 97 dd f8 bd 58 9e 8e 3c 60 93 03 3d da 7f ab 3e
       -0.1215164 0.017409489 0.03212297 0.3349598
0000a0 82 75 e6 bc 28 4d b5 3e aa 61 83 3e c1 ed 9c 3e
       -0.028132204 0.35410428 0.2566045 0.30650142
0000b0 da 01 38 3e fe 0b 35 be da 31 c5 be 03 0d 71 bd
       0.17969456 -0.17680356 -0.38514596 -0.0588503
0000c0 d4 f3 b3 be 68 41 42 3e 6e f0 ad 3d cd d2 c2 bc
       -0.35146964 0.18970263 0.08493124 -0.023782158
0000d0 56 e5 75 be ab 8f 68 3e 28 e1 66 be 3f 71 9f 3e
       -0.24013266 0.22711055 -0.22546828 0.31141087
0000e0 af 2c 98 3d 81 29 82 be 9c e5 a3 3d a4 11 8e be
       0.07430398 -0.2542229 0.08002779 -0.27747834
0000f0 40 18 0f 3e 51 0d 84 3e 76 52 f5 bd bf 3d 93 3d
       0.13974094 0.2579141 -0.11978619 0.071895115
000100 eb 7e 9c be 97 9e 09 bd 90 a1 de 3d 26 76 81 be
       -0.3056558 -0.03359851 0.10870659 -0.25285453
000110 3c 53 28 3e 7e 01 4f be 72 03 a4 3e 29 17 77 be
       0.16438001 -0.20215413 0.3203388 -0.24129929
000120 e6 c6 b1 3e 67 b1 a0 3e 7e d9 cd bd 26 c5 a7 be
       0.3472206 0.31385347 -0.10051249 -0.327676
000130 63 3a c0 be 88 d1 8b 3e 04 9a ac 3d 55 d7 1a 3e
       -0.37544546 0.27308297 0.08427814 0.15121205
000140 d7 d1 22 3e 55 a5 6e 3e dd d6 f4 bd 77 44 46 3e
       0.1590036 0.23305257 -0.119550444 0.19362055
000150 50 34 9a bc 03 a1 2d 3e 7c 3a 8b bd 53 e8 81 3e
       -0.018823773 0.16955952 -0.067982644 0.25372562
000160 b0 12 18 3e a7 cb ec bd ff 94 67 be 47 a3 0d be
       0.14850879 -0.11562281 -0.22615431 -0.13831817
000170 10 3f 9b be 11 a5 8e be 48 ad 37 3e 4b e8 45 be
       -0.3032155 -0.2786031 0.17937195 -0.19326894
000180 af 6f d1 3d 36 ab 75 bc 42 d7 ab bd b5 18 c6 3b
       0.1022638 -0.014994433 -0.083906665 0.006045426
000190 c5 28 b1 3d 2a d3 85 3e 85 a1 7a 3e ad 42 1e bd
       0.08650354 0.26137668 0.24475677 -0.038637806
0001a0 8e b6 22 3d a6 e4 61 3e 81 b2 b5 be ea af 9c 3e
       0.03972488 0.22059879 -0.3548775 0.30602962
0001b0 2b c6 11 3e be 37 cf be c0 31 17 3b c2 82 f3 bd
       0.14235751 -0.40472215 0.0023070425 -0.118901744
0001c0 33 11 c3 3e ce 26 f5 bd 49 b9 2a 3e 83 80 c1 be
       0.3809906 -0.11970292 0.16672243 -0.3779336
0001d0 0e a8 ca bb ad 18 8b be 3f d1 37 3e 06 68 c3 be
       -0.0061845845 -0.27167264 0.17950915 -0.381653
0001e0 c6 18 58 3e fb 6b 11 3e dc d4 0b 3d d9 69 b6 3d
       0.211032 0.14201348 0.034138545 0.089069076
0001f0 0b 08 b7 bc b1 59 62 3d 55 a4 72 3e bf e9 da 3d
       -0.022342702 0.055261318 0.236955 0.10689115
000200 5e 55 9a 3e 39 d3 20 be 51 a3 2c bd 89 09 12 3d
       0.30143255 -0.15705575 -0.04214794 0.035653625
000210 e3 67 19 3e 31 86 83 3e 3f d3 10 be c1 2a 90 be
       0.14981036 0.25688317 -0.14143084 -0.2815762
000220 e7 7a 7f 3e b7 73 af be f8 4c 9a be 1d e4 2e 3e
       0.24949227 -0.3426797 -0.30136847 0.17079206
000230 81 78 af 3d 45 85 11 3e 22 1d bf 3d 49 df 22 3e
       0.08567906 0.14210995 0.093317285 0.15905489
000240 28 68 0e 3e 37 e2 af be 60 3d b8 3e 86 3a c3 3d
       0.1390692 -0.34352276 0.35984325 0.09532647
000250 13 2f 5b be 86 2f 55 3e 48 b9 35 be e0 da b7 3e
       -0.21404676 0.2081891 -0.1774646 0.35909176
000260 81 84 85 3e 01 fc 9d bc 4d 05 c4 3e 53 78 b8 3e
       0.26077655 -0.019285204 0.38285294 0.360293
000270 08 b1 8a 3e 62 a8 1b bd 18 a6 b6 bc 46 34 97 bd
       0.2708819 -0.03800238 -0.022295997 -0.07383017
000280 87 2c a4 be 59 da 50 3e a7 70 22 bd 5c 32 b4 3e
       -0.32065222 0.20395793 -0.039658215 0.3519467
000290 4e 23 cc bd 9f cc 5b be 7c 01 9a bd ea c9 b9 be
       -0.09967671 -0.21464776 -0.07519814 -0.3628686
0002a0 d7 98 7d 3e c1 94 08 be c8 c3 50 3d 1b 02 b1 3e
       0.24765335 -0.13337995 0.05096796 0.3457192
0002b0 fb 44 9f 3e 79 ce 88 3e b8 bf 6f 3e bc 51 0e bd
       0.31107315 0.26720026 0.23412979 -0.034745917
0002c0 8e 77 d9 be d4 3e c2 be 6d f2 44 3d 79 17 d1 be
       -0.42474025 -0.3793856 0.048082758 -0.4083822
0002d0 3e 9f 8c 3e 11 fc bd 3e c4 f1 ab be 6f c3 97 bd
       0.27465242 0.37106374 -0.3358289 -0.07410323
0002e0 9b 49 c5 be 43 15 39 3d 13 2c 1a be bb a1 f9 bc
       -0.3853272 0.045186292 -0.15055875 -0.030472627
0002f0 a0 a7 84 3e 9a 5a 32 bd 92 16 ac 3e dc bd b5 3e
       0.25909138 -0.043543436 0.3361097 0.35496414
000300 06 de d6 3b 5d 86 d1 bd 42 fc 8e 3e 4d 1d 88 be
       0.006557229 -0.10230706 0.27926832 -0.26584855
000310 21 5e a3 3e 9e 88 c9 be e6 2d ba be 05 ab c7 3d
       0.31907752 -0.39362043 -0.36363143 0.09749416
000320 43 02 fc bd 1f 88 2f be 12 6c 48 be 20 95 82 be
       -0.12305119 -0.1714177 -0.19572476 -0.25504398
000330 d1 5c 73 3e 2f 3a 8c bd 24 94 c0 3c a7 a0 11 be
       0.23765875 -0.06847035 0.023508139 -0.1422144
000340 58 e6 99 be 4c 26 3c 3e 8c d5 93 3e e2 3b 34 be
       -0.3005855 0.18373984 0.2887386 -0.17600968
000350 c0 f2 92 3e 1f fe 29 3d 30 a7 72 be 4e 1a c0 bd
       0.2870083 0.041502114 -0.2369659 -0.09380017
000360 9f b8 37 be 34 77 ac be 40 f5 a6 3e 21 f2 72 be
       -0.17941521 -0.33684695 0.32608986 -0.23725177
000370 51 4d d2 be aa 33 ea 3d 7e d6 bc 3e af 21 59 bd
       -0.41074613 0.114356354 0.36882395 -0.05301064
000380 95 7f 79 be da 60 bd 3e 05 0c ca be 97 27 8a be
       -0.24365075 0.36987954 -0.39462295 -0.2698333
000390 d2 ef a0 3e 88 bb 29 bd 86 d9 62 3d d0 37 8e bd
       0.31432968 -0.04143861 0.055383228 -0.06944239
0003a0 87 74 2f be ed 41 1f 3e 1f f9 bd bd 65 f3 ad 3e
       -0.17134295 0.15552492 -0.09276032 0.33974758
0003b0 53 95 70 3e 61 95 cd be b1 91 da be 25 31 5d be
       0.23494463 -0.4015303 -0.4268928 -0.21600778
0003c0 1d 30 2c 3e 18 13 42 3e 53 9b 00 be 20 38 8d be
       0.16815229 0.18952596 -0.12559251 -0.27581882
0003d0 f0 f5 af 3e a5 68 5a bd ec ea b0 be 73 25 56 3e
       0.34367323 -0.053322453 -0.3455423 0.20912723
0003e0 f4 35 85 3e 20 e0 96 be 70 86 6f 3e 80 aa bc 3d
       0.26017725 -0.2946787 0.23391128 0.09212208
0003f0 69 84 85 3c 9f 22 e0 bd 60 e2 b6 3e 3e b7 74 bc
       0.01629849 -0.109441034 0.35719585 -0.0149362665

transformer_encoder.layers.0.linear2.weight f4 [6, 2048]
000000 2a 65 c4 3c 13 bf ab 3b e3 fa 19 3c e6 19 84 3d
       0.02397402 0.0052412837 0.009398195 0.06450252
000010 f8 6e 90 bc 17 2c dd ba 95 f3 93 3b 58 8f 4e 3b
       -0.017631039 -0.0016874102 0.004515121 0.0031518545
000020 fd 77 85 3d fd 6d 4b bb fb 11 47 bc 1a dc 48 bc
       0.065170266 -0.00310409 -0.012150283 -0.012259508
000030 1c ee 64 bc d4 68 10 3c 3b 2a 79 bc cd 2e 94 3c
       -0.013972785 0.0088140555 -0.015207822 0.018088723
000040 7f 9c 1c bc 8b c6 1f bb 5a 5d 30 3c e0 29 25 bc
       -0.009558796 -0.0024379815 0.010764444 -0.010080785
000050 5a 46 26 3c 93 fd 90 bc 3e 54 a8 bb a8 d5 82 3c
       0.010148609 -0.017699039 -0.0051369956 0.01597102
000060 50 b4 4e 3d 92 2d b0 3c 58 8b 7d 3d a3 df a4 3d
       0.05046493 0.021506105 0.061900467 0.08050468
000070 d5 71 46 3c 05 bb 80 3c df 5d ce 3d 27 98 c9 bb
       0.012112101 0.015714178 0.10076498 -0.006152171
000080 bb a8 08 bc bd ce eb ba 26 c7 57 3c 08 85 a4 3b
       -0.00834101 -0.001799069 0.013170039 0.0050207414
000090 f2 8d 48 3d 46 c0 c4 3c 30 e2 1c 3c 71 15 a3 bd
       0.048963495 0.024017464 0.009575412 -0.07963074
0000a0 7f e3 50 3c 4d cb 95 bd 95 b7 60 bc e6 b4 2e ba
       0.012749552 -0.07314167 -0.013715644 -0.0006664529
0000b0 c0 82 0b 3d 04 e3 1a 3c 2c 00 0a 3d f0 32 2c ba
       0.03406024 0.009453539 0.03369157 -0.00065688696
0000c0 b3 5f 9e 3d f4 40 05 3d 62 4c fb 3b 18 f6 13 3e
       0.07733097 0.032532647 0.0076690177 0.14449346
0000d0 bc da 0b bc 76 0a 0a 3c e3 64 95 3b c7 63 af 3a
       -0.008536037 0.008425346 0.004559146 0.0013381176
0000e0 e3 d1 98 3d cb 24 ef bc 98 da a9 bd 5f 08 f0 bc
       0.07461908 -0.029192349 -0.082936466 -0.029300867
0000f0 32 98 3a bb e7 0a 0d 3d bb e1 98 3c 33 95 ed ba
       -0.0028472063 0.034434225 0.018662324 -0.001812613
000100 46 36 21 3d 7c fb c2 bd 92 e9 07 3c ab c4 ef 3c
       0.0393584 -0.09520623 0.008295434 0.029268583
000110 98 9c 30 3d 52 c0 41 bc fc 4d ef 3c 16 b2 04 3d
       0.04311809 -0.011825638 0.02921199 0.0323964
000120 4d 3b 86 3d 6a 2f 46 bb 4f 01 14 3c d8 22 31 3c
       0.065542795 -0.0030240663 0.009033515 0.01081153
000130 54 49 b6 3c 94 65 6f ba 0e c6 cf 3c 9c 93 e1 3a
       0.022251762 -0.0009132263 0.025362995 0.0017210129
000140 7a f3 73 ba c7 c3 f0 3b 4d 23 c9 3d cc dd 25 3d
       -0.0009305995 0.007347557 0.09821186 0.040494725
000150 b1 77 3d 3d 01 6f 66 bb 6e 8e 74 3d b7 8a e0 3b
       0.046256725 -0.0035161378 0.059706144 0.0068524736
000160 44 d4 06 bd 6e 72 a2 3d 13 d4 a0 3d 7b 07 aa 3a
       -0.032917276 0.07931982 0.0785295 0.00129722
000170 ac 5d 41 3d 17 66 24 bd 3a 97 69 bc f1 d6 d2 3d
       0.047208473 -0.040136423 -0.014257247 0.10294903
000180 60 6a 55 3c 37 f6 66 3d 32 f3 c0 3b 2d c5 00 3e
       0.01302585 0.056387153 0.005888366 0.12575217
000190 5e de 3c bb 04 e0 65 bd a2 e0 40 3d bb 03 d7 3c
       -0.0028819065 -0.05612184 0.047089227 0.026246896
0001a0 b8 ff c5 bc 0d 59 a4 3d 7c 69 17 bc 2c 51 bb 3a
       -0.024169788 0.080247976 -0.009241458 0.0014291159
0001b0 c4 ea 78 3d 10 a5 98 3c a4 a1 ea 3c 00 04 b2 bd
       0.060770765 0.018633395 0.02864153 -0.08692169
0001c0 85 7e 88 3d 92 f8 90 3c 87 cf 6d 3c ee 99 ce 3c
       0.06664757 0.017696653 0.01451481 0.025219884
0001d0 b2 c6 91 bb 8a e8 3f 3c 91 ac 1c bc 5e b1 a7 bc
       -0.004448735 0.0117131565 -0.009562627 -0.020470317
0001e0 39 0e 66 3c af 95 fc 3b b2 d5 95 bc 1a 84 72 3c
       0.014041477 0.0077082734 -0.018290374 0.014802003
0001f0 e2 99 06 be a5 45 18 bd 5b 48 04 3e 2a f7 9f 3c
       -0.13144639 -0.037175793 0.12918226 0.019527037
000200 3d 7d 64 bb a4 49 f3 bb 1f 0e de 3c 7f 4b 32 3d
       -0.0034864687 -0.00742455 0.027106343 0.04352903
000210 39 1e a8 bb c6 b1 d4 bb 1c 5c c6 bb 28 9d 15 bd
       -0.005130556 -0.006490919 -0.0060534608 -0.03652683
000220 bb f3 65 3c 4c bd 01 3b 09 73 22 3d 10 19 9f 3a
       0.014035161 0.0019796668 0.039660487 0.0012138207
000230 20 dd ae 3c 73 2e 41 3d 0a cb 3a 3d cf 0a 84 3d
       0.021345675 0.047163438 0.04560379 0.06447374
000240 cf b6 bf bd d2 9d 91 3c 56 49 1f bc 0b c6 d7 3c
       -0.0936104 0.01777545 -0.0097220745 0.026339551
000250 41 e9 09 3c d9 03 82 bc 57 55 b4 3c 74 74 aa 3c
       0.0084174285 -0.015870975 0.02201335 0.020807482
000260 20 bd 41 bc e2 b8 44 3b 1a 54 e3 3c f8 e8 51 bc
       -0.011824876 0.0030017425 0.027750064 -0.012811892
000270 8a 2e a6 b8 e4 b0 ef bc 03 83 f2 3a 49 09 b6 bc
       -7.9241654e-05 -0.029259153 0.0018502179 -0.022221224
000280 db ea 16 bc 4d 1f c4 bc cc 1b e5 3c 4e e5 87 3c
       -0.009211267 -0.023940707 0.027967356 0.016588833
000290 88 05 22 3c 0e a8 9c 3d c2 85 99 3d 90 28 cd 3c
       0.009889014 0.076492414 0.074962154 0.025043756
0002a0 a6 e6 a3 3c 97 ea be 3d 6c 14 fe bb 6e f6 1f 3c
       0.020007443 0.09322088 -0.0077538993 0.009763343
0002b0 34 ab 88 3c f8 aa 29 bc a1 41 56 3c 27 0b 90 3c
       0.016683199 -0.0103557035 0.013077171 0.017583443
0002c0 4e 59 e0 bc ef 94 ad 39 b2 57 98 3b 78 fb a9 bb
       -0.027386334 0.00033108096 0.004649126 -0.005187448
0002d0 28 dc 50 ba 98 ff 8f bc 0e a5 c4 3b 3d 86 d6 3d
       -0.0007967376 -0.017577931 0.0060011214 0.10474823
0002e0 da 51 99 3a df 05 a8 3d c1 f5 8c bc f0 fe 8b 3d
       0.0011697367 0.08204245 -0.017207028 0.06835735
0002f0 e7 de 3a bc 2b 84 77 3c d1 d8 d6 3c 32 3b 8f 3c
       -0.011405683 0.015107195 0.026226433 0.017484281
000300 94 7c bb 3d 5b fa 87 bc a4 b3 3a bc a8 0a 8a 3b
       0.09154621 -0.016598871 -0.011395369 0.004212696
000310 f9 cc c5 bb e7 09 01 3c 54 ba 7b bc 4f 51 6c 3b
       -0.0060363975 0.007875896 -0.015364248 0.0036059206
000320 57 26 79 bc 2d b7 7e bc 96 a1 04 3b 12 8b e7 bd
       -0.015206895 -0.015546602 0.0020237914 -0.113058224
000330 58 03 de bc 4e 98 21 bd 8e b4 02 bd 5d 7a f1 3c
       -0.027101204 -0.03945189 -0.03191047 0.029477293
000340 4a ea 94 3c 08 27 68 3d b2 30 8b 3d d9 18 a4 3b
       0.018178124 0.056677848 0.06796397 0.005007845
000350 02 de 99 bc 8a f8 42 3c 73 c8 b6 3b 34 ea 8b bc
       -0.01878262 0.011900077 0.0055780946 -0.01707945
000360 7a c1 bd 3d 6e cc 94 3c 7c ed 03 3d 43 58 a2 3b
       0.09265418 0.018163886 0.032208905 0.0049543693
000370 ad 8e cc 3c f1 52 aa 3d 08 bb af 3b 74 76 98 bc
       0.024970377 0.08316601 0.005362872 -0.01861117
000380 da e4 ae 3d d9 44 8e 3d ca 4a 35 3d 35 a0 6f bc
       0.08539744 0.069467254 0.044260778 -0.014625599
000390 d8 23 8e bc e1 38 ee 3c f7 fc 93 3d b3 32 45 bc
       -0.017351076 0.029079856 0.072259836 -0.012036013
0003a0 14 53 26 3d 8b 55 f5 bb b9 24 18 bc d5 09 da 3d
       0.040606573 -0.007487004 -0.009286099 0.106464066
0003b0 b6 8d de 3b f2 ad e4 ba 45 19 17 3d 39 83 18 bc
       0.0067917956 -0.0017446859 0.036889333 -0.00930863
0003c0 87 2b 90 3c 0d 04 3b 3d 9f b6 61 bd da 32 0e 3d
       0.01759888 0.04565816 -0.0551058 0.034716465
0003d0 cb e2 64 bc 7d 28 31 3d 08 a2 04 3b bd 21 bc 3d
       -0.013970087 0.043251503 0.002023818 0.091861226
0003e0 98 9b 02 3c c6 d4 00 3d 3d 95 a3 3c 11 a7 11 3c
       0.007971667 0.031452917 0.019968623 0.008889929
0003f0 96 e0 3a 3c d6 96 d5 bc 07 66 90 3d c5 9b 41 bc
       0.0114060845 -0.0260729 0.0705071 -0.0118169235

transformer_encoder.layers.0.linear2.bias f4 [6]
000000 81 e3 6a ba a7 86 31 3c d2 ef c2 3b 55 81 d6 bb
       -0.00089602923 0.010835326 0.005948999 -0.0065461793
000010 4a b2 39 bc 1e a1 a4 3c
       -0.011334011 0.020096358

transformer_encoder.layers.0.norm1.weight f4 [6]
000000 22 b8 83 3f 76 34 7b 3f a4 e2 83 3f 5e 25 7a 3f
       1.0290568 0.98126924 1.030354 0.9771327
000010 cb 34 90 3f 7e 04 86 3f
       1.1266111 1.0470121

transformer_encoder.layers.0.norm1.bias f4 [6]
000000 99 9a 82 3c 34 15 04 3d 96 2b 02 3c 3d 3c 0a bd
       0.015942859 0.032246783 0.007944962 -0.033748854
000010 4e e2 ef 3b ce b6 11 3b
       0.007320679 0.0022234204

transformer_encoder.layers.0.norm2.weight f4 [6]
000000 e7 f9 86 3f 96 19 81 3f d2 5f 82 3f f8 ff 7b 3f
       1.0545014 1.0085933 1.0185492 0.9843745
000010 d3 9e 81 3f 9c be 74 3f
       1.0126594 0.95603347

transformer_encoder.layers.0.norm2.bias f4 [6]
000000 f9 e1 98 3c 2b 86 82 3d 59 58 83 bc c0 70 16 bd
       0.01866244 0.06373247 -0.016033338 -0.03672862
000010 df 6d e3 bb 65 f1 8b 3c
       -0.006940588 0.01708288

transformer_encoder.layers.1.self_attn.in_proj_weight f4 [18, 6]
000000 07 de 28 bd fd 46 cb be 6f b9 92 bb 0a 81 0e be
       -0.041227367 -0.39702597 -0.004477672 -0.13916412
000010 7a ad f7 3c a4 15 fb be d1 57 47 bc 52 8f ee be
       0.030234087 -0.49039948 -0.012166933 -0.4659372
000020 d8 a1 62 3e fd c6 7d be 4c b1 d3 be a7 8a e0 3e
       0.22132051 -0.2478294 -0.41346204 0.43855783
000030 4d b4 d2 3d 8e 73 6b 3e 74 d3 b1 be d0 e9 e0 be
       0.10288296 0.229933 -0.34731638 -0.43928385
000040 43 ea ea 3e 86 cc 9b 3c 80 21 c6 3e a2 11 e9 bc
       0.45881853 0.019018423 0.38697433 -0.02845079
000050 6d d4 7c be c4 b7 c1 3e 02 c5 a1 3d 8b 3e b7 be
       -0.24690409 0.37835515 0.078989044 -0.35789904
000060 be 55 bb be 4e c6 36 bd f1 ee 99 3d a6 eb 0c bf
       -0.36588854 -0.04462271 0.075162776 -0.5504707
000070 9f 22 cb 3e d9 54 85 be 53 b6 5d 3e eb bc d0 39
       0.3967485 -0.26041296 0.21651582 0.00039813606
000080 45 6b 0c bf 42 0a 54 3d a4 91 8e be 6e 06 05 bf
       -0.5485118 0.051767595 -0.2784549 -0.51962936
000090 ef 02 01 3f d2 10 a1 be b0 55 3a bd 38 9c 0a 3e
       0.503951 -0.31458145 -0.045491874 0.13536155
0000a0 60 77 17 bf bf d2 3f 3e f4 d7 89 bc 5a a0 f2 3e
       -0.59166527 0.18732737 -0.016826607 0.47387964
0000b0 eb 58 a5 3e 74 09 c7 3e 6a f2 a8 bd a4 68 ed 3e
       0.32294402 0.388744 -0.08249362 0.46368897
0000c0 82 cb a1 3e 07 f9 7d 3e e7 8a 96 3e 52 de 0d bf
       0.31600577 0.24802028 0.2940285 -0.5541736
0000d0 7c ca 87 be ca e7 a7 bd 68 f5 e8 3e 4a 39 a1 3e
       -0.2652167 -0.08198507 0.4549973 0.3148902
0000e0 9f e0 b0 be 4b 66 e7 be df e7 70 be 65 da 81 be
       -0.34546372 -0.4519523 -0.23525952 -0.25361934
0000f0 4c 0d b2 3e bc 4e c6 be 9c 57 be 3e 70 0d 82 be
       0.3477577 -0.38731945 0.37176216 -0.25400877
000100 ea 07 d2 3c 25 70 a0 3e 1a 78 c3 bd 53 b0 74 be
       0.02563854 0.3133556 -0.09544392 -0.23895387
000110 a4 c8 05 be 8a 84 05 bf ba 27 a5 3e fa b7 f4 be
       -0.1306482 -0.52155364 0.3225687 -0.47796613
000120 ee f4 e8 bd dd c0 3b 3e 7d 65 e5 be 06 ef 01 3d
       -0.11374842 0.1833529 -0.44803992 0.03172209
000130 50 ce 00 bf 93 06 1a 3d 1d b7 d1 be 05 fc 8f be
       -0.5031481 0.037603926 -0.40960017 -0.28121963
000140 23 f3 6a 3e 02 ab e0 be 74 2c b5 be e7 14 79 3e
       0.22944312 -0.4388047 -0.35385478 0.2432438
000150 85 52 03 bf f9 67 37 bd 6f 61 03 bf 16 fe e9 bd
       -0.5129779 -0.04477689 -0.51320547 -0.11425416
000160 94 ca 75 be ec 2f 8e bd 71 44 9f 3e 8d aa 9e 3e
       -0.24003059 -0.06942734 0.31106904 0.30989495
000170 60 3a 1a be ae 6c 98 bd d5 ad f1 3d fb 3c d2 3d
       -0.15061331 -0.07442604 0.11800734 0.10265537
000180 e1 85 43 3e 80 4a fa 3c ea 0f aa 3c 68 9a ee 3e
       0.1909404 0.030553102 0.020759542 0.46602178
000190 08 75 e0 3e 8c 54 c9 3e bc a4 dd be 8e 24 fd be
       0.43839288 0.39322317 -0.43289745 -0.49441952
0001a0 26 fc 82 be ba d4 a0 bd 08 c0 aa 3e b5 60 a3 3e
       -0.25583 -0.07853074 0.33349633 0.3190972

transformer_encoder.layers.1.self_attn.in_proj_bias f4 [18]
000000 41 d4 10 3c 2a 16 4a 3e 47 bb 22 be 2f 8b 48 3c
       0.008839668 0.19735017 -0.15891753 0.012240215
000010 6f 67 09 be 63 8c 78 be 35 67 ba b8 85 22 e8 38
       -0.13418363 -0.24272303 -8.888395e-05 0.00011069052
000020 ab 2b e5 b8 b5 01 00 b8 60 a9 8b b5 07 2d 0f b7
       -0.00010927705 -3.0519168e-05 -1.0405602e-06 -8.533948e-06
000030 fa e3 b1 3c e9 60 88 3c 17 10 9f 3b 10 0a c8 3c
       0.021715153 0.016647773 0.004854213 0.02441886
000040 a2 95 3e ba 59 a0 66 bc
       -0.0007270222 -0.014076316

transformer_encoder.layers.1.self_attn.out_proj.weight f4 [6, 6]
000000 c2 63 f5 bd db 2a d3 3e 57 c7 85 3e 92 6d a0 3e
       -0.11981918 0.41243634 0.26128647 0.31333596
000010 6e 53 a8 3e 4d 0a 56 3e 0d f3 d3 3e e1 a8 c0 3e
       0.32876152 0.20902367 0.4139637 0.37628844
000020 9d f0 30 3e 38 37 54 be b7 6f 73 be 15 79 a8 3e
       0.17279287 -0.2072419 -0.23773085 0.32904878
000030 d7 60 94 3d 9d 7c c2 be 85 0b e6 3d 55 ce bc 3e
       0.07245033 -0.37985697 0.11232666 0.3687617
000040 7e 3e af 3e 25 c9 44 3d 7c c6 af be 91 d4 44 3e
       0.34227365 0.04804339 -0.3433112 0.19221713
000050 fb 88 88 3d ec 18 7e 3e b6 63 6e be 36 35 81 3e
       0.06666752 0.24814194 -0.23280224 0.2523591
000060 54 92 aa 3e 19 5d cf 3a 68 09 52 3d 0c 09 ae 3e
       0.33314764 0.0015820592 0.0512785 0.33991277
000070 76 80 08 3e c7 6c 88 be f2 6c ca bd 31 a4 8d 3e
       0.13330254 -0.2664549 -0.09884061 0.2766433
000080 be 44 b2 be 44 d3 8a 3e d5 92 3a be 85 59 a5 3e
       -0.3481807 0.27114308 -0.18220074 0.3229486

transformer_encoder.layers.1.self_attn.out_proj.bias f4 [6]
000000 a9 3b 27 3c 31 5a a7 3c 4c 18 7e bc f7 29 ee 38
       0.010207095 0.020428749 -0.0155087225 0.00011356541
000010 19 72 02 3d e2 fa 21 3b
       0.031847093 0.0024716188

transformer_encoder.layers.1.linear1.weight f4 [2048, 6]
000000 db d7 b1 3e 0d e3 e5 3d dc ad 3d bd 00 5b 9d be
       0.34734997 0.11224947 -0.046308383 -0.3073349
000010 7e 96 80 3e b1 31 85 be b2 6e b5 be fe b7 86 be
       0.25114816 -0.26014474 -0.35436016 -0.2631225
000020 0d dc 6e 3e eb c0 a7 bc 8b eb 60 3e c4 39 30 3e
       0.2332613 -0.020477733 0.21964853 0.17209536
000030 61 73 d1 3e 07 44 82 3d 37 f1 ea bc f2 00 ca 3d
       0.4090834 0.063606314 -0.028679473 0.098634616
000040 ed b4 ac 3e e9 5c 61 3d fe 90 0a 3e 47 4d a3 be
       0.33731785 0.055020247 0.13531873 -0.31894895
000050 d2 17 42 3e 09 8c 83 be 13 10 6c be 42 17 02 be
       0.18954399 -0.25692776 -0.23053007 -0.12704185
000060 4f d6 05 be 7d 5c 2a 3c ef 5b a5 3e e3 d1 78 3e
       -0.13070033 0.0103980275 0.32296702 0.24298815
000070 a8 3c c1 be 95 33 0c be 69 a6 cf 3d f9 02 93 be
       -0.3774159 -0.13691552 0.10139162 -0.28713205
000080 d8 4c 37 3c 0e c8 32 bd ba 12 a4 3e db 06 b7 bd
       0.011187755 -0.04364782 0.32045537 -0.089368545
000090 3b f2 b3 bd 57 20 f1 bd af f6 c1 3e 7a 1f 77 3e
       -0.08786436 -0.117737465 0.37883517 0.24133101
0000a0 43 da 1f be 49 41 52 3e 72 4c 94 be 47 32 52 be
       -0.15610604 0.20532717 -0.28964573 -0.20526992
0000b0 f4 e1 ce bd 20 1a 4b 3e 43 79 c7 3d 8f 72 99 3e
       -0.10101691 0.19834185 0.09739926 0.29970214
0000c0 e3 fe 17 be 51 01 14 be 35 d9 7e be 4a 1a 52 be
       -0.14843325 -0.14453627 -0.24887545 -0.20517841
0000d0 b9 3a 74 be 4b ed 8a 3e 90 2e 94 be c3 c3 4b 3e
       -0.23850526 0.27134165 -0.28941774 0.19898896
0000e0 3c c5 dd bd 93 84 f7 bd 74 4c 89 be 4b e1 e0 bd
       -0.10828635 -0.120858334 -0.26816142 -0.10980471
0000f0 0f b9 ec 3d a5 43 94 3e 7b ad c6 3d e2 7f f1 bd
       0.115587346 0.2895786 0.097010575 -0.1179197
000100 23 fa fa bd d9 1e a9 be 92 e6 4e 3e af 12 81 be
       -0.12254741 -0.33031347 0.20205143 -0.25209567
000110 39 e6 eb bb 20 bc b6 3c 9a e7 98 be 5a 6b bf be
       -0.0071990755 0.022306502 -0.29864198 -0.3738659
000120 97 4c 04 be 1f 6c 71 3e c7 f0 9c bc 04 aa c4 3e
       -0.12919842 0.23576401 -0.01915778 0.38410962
000130 2f 95 c9 be ec 43 1d 3e 95 47 b6 3e 63 d3 eb bd
       -0.3937163 0.15357941 0.35601488 -0.11514928
000140 4a a3 8a 3e d9 98 c9 bc b7 c4 b1 3c c8 fe d6 be
       0.27077705 -0.024609016 0.021700246 -0.41991258
000150 7c de 95 3e 10 d6 bf be 3e f6 a6 3e 7b 7d b1 3d
       0.29271305 -0.37468004 0.32609743 0.086665116
000160 d3 27 9d 3d 45 a0 1f 3d 38 ab 94 be fb 71 60 3e
       0.076736115 0.038971204 -0.2903688 0.2191848
000170 b0 f1 ab be 44 eb 37 3e 96 1b 09 3e 8c fb e3 bd
       -0.3358283 0.1796084 0.1338943 -0.11131963
000180 1b d4 15 3e 3a a5 9b 3d 20 39 8a be 9d 7d 9f be
       0.14631693 0.07599874 -0.26996708 -0.31150523
000190 85 e8 b1 be 3d e4 fe bd 7d 7d 53 3e a9 02 b0 3e
       -0.3474771 -0.12445877 0.20653339 0.3437703
0001a0 59 a1 01 be 46 8c 9d be c2 09 28 3d ad 11 9d 3e
       -0.12659205 -0.30771083 0.04102493 0.30677548
0001b0 13 47 b1 be de 4c de bd be 6e 13 bd b3 36 98 3e
       -0.34624538 -0.10854505 -0.035994284 0.29729232
0001c0 a1 21 01 3d 1d d3 85 3e ac 48 85 be 9d aa d7 3c
       0.03152621 0.2613763 -0.26032007 0.026326472
0001d0 ff 60 c6 3e 6a fd 91 be 5e e1 d0 3c 19 03 d2 bd
       0.38745877 -0.28513652 0.025498088 -0.10254497
0001e0 f1 ec 4b bd 8b f5 5a 3e a3 3c b9 be cd 89 6d 3e
       -0.04978651 0.2138273 -0.36179075 0.23197098
0001f0 a2 2b d0 3e db 92 3d 3e b9 38 8f 3e 5b 5f b5 be
       0.4065829 0.18513052 0.27972963 -0.35424313
000200 b4 36 91 3e 7f d7 12 3d f4 d5 d0 be cd 75 51 be
       0.28362048 0.035850044 -0.40788233 -0.20455094
000210 96 4d c2 be bb ec 55 3e b6 e8 82 be fb 7a ac 3e
       -0.37949818 0.20891087 -0.2556817 0.33687577
000220 0b 14 55 3e 4b 88 84 be 6a 72 2f bd 2d 74 0a be
       0.20808427 -0.25885233 -0.042833723 -0.1352088
000230 c6 d2 18 3e e3 58 b9 be e2 33 a8 3c f0 38 c1 be
       0.14924154 -0.36200628 0.020532552 -0.37738752
000240 38 17 67 3e 74 f6 90 3e d8 14 1b 3e 2c dc 6e be
       0.22567451 0.2831303 0.1514467 -0.23326176
000250 f3 55 ae bd db 9c 95 3e 12 d7 98 3c 89 7c 25 bd
       -0.08512487 0.29221234 0.018657241 -0.04040197
000260 54 1b 87 bd 59 c3 95 be 85 ec 84 be 68 e1 af be
       -0.06597009 -0.292506 -0.259617 -0.3435166
000270 f2 d4 82 be 25 9a a2 be be f3 80 3d 76 49 4a be
       -0.2555309 -0.31758228 0.0629649 -0.19754586
000280 69 a8 1b be e7 3c 97 bd 0a eb e9 be 04 5f ea bd
       -0.15200962 -0.07384663 -0.45687133 -0.11443904
000290 84 8e 31 be 68 d7 a9 be 4a fc d2 bd 03 3b ca 3e
       -0.17339522 -0.33172154 -0.103020266 0.39498147
0002a0 fc 25 d8 3e 00 31 4d 3c 53 9d 55 3e cd 03 b2 bd
       0.4221648 0.01252389 0.20860796 -0.08692131
0002b0 6d 42 43 3e 2d 82 34 3e 7a 3f 61 be ba ad 0a be
       0.19068308 0.17627783 -0.2199687 -0.13542834
0002c0 6f a8 4b 3d f8 30 2f bd f3 8e 8a 3e 4b eb c7 be
       0.049721178 -0.04277131 0.27062187 -0.39046702
0002d0 c2 ab 26 be 97 41 b1 bd b8 af ef 3d 41 e8 cd be
       -0.16276458 -0.086550884 0.117034376 -0.40216258
0002e0 61 ab 32 be 43 e2 b3 3e 29 54 b4 3e a4 db 5e be
       -0.17448188 0.35133561 0.3522046 -0.21763474
0002f0 86 28 8c 3e d8 5c 31 3e fd 1f 42 3e 53 f0 9d be
       0.27374667 0.17320573 0.18957515 -0.30847415
000300 4c 40 b3 3c 73 f6 b1 3e 87 8c 8e 3e 26 b2 18 3e
       0.021881245 0.34758338 0.2784159 0.14911708
000310 88 ce b7 be ef d0 2d 3e 65 7a b2 3e 18 b7 14 3e
       -0.35899758 0.16974233 0.34859005 0.1452297
000320 e4 9d c5 3e 07 c7 4e 3d 3a f5 12 be 39 4f ac bc
       0.38597023 0.050482776 -0.14351359 -0.02103387
000330 76 44 c5 3e c5 63 1a 3e 0c 57 2b be 43 5a 5a 3e
       0.38528794 0.15077122 -0.16732424 0.21323495
000340 4b c4 c4 3e 4d 05 a1 3e d7 da ad 3e 94 b5 b1 3e
       0.3843101 0.31449357 0.33956024 0.34708846
000350 3d 3a 8b 3e f0 27 97 3b de 2b 88 3e 57 08 5d be
       0.2719287 0.004612915 0.26595968 -0.21585213
000360 64 b7 a6 be 35 a4 9d 3e d3 e4 c7 3e 08 28 60 be
       -0.3256179 0.30789343 0.39041767 -0.2189027
000370 28 73 f2 bd e6 46 3c 3e 6c 05 d0 3e 17 21 51 3e
       -0.118383706 0.1838642 0.40629137 0.20422779
000380 8a cb 0e be b3 fd 04 3e 93 ee af be 49 47 8b 3e
       -0.13944831 0.12987404 -0.34361705 0.27202824
000390 1f 4f ad 3d 35 d1 ab 3e d4 ed ba 3b 4a cb 99 3e
       0.08462357 0.3355805 0.005704621 0.3003791
0003a0 dc d1 a3 3e 33 89 8f be 7a ab 81 be 11 5f d9 3d
       0.31996047 -0.28034362 -0.2532614 0.106138356
0003b0 95 3a 51 3e e3 3c 5f be 0a d5 b3 be c8 5d 9b 3e
       0.20432504 -0.2180057 -0.35123473 0.30344987
0003c0 8a c7 55 3e fc 7c c0 be 64 a6 95 3e 9b 56 86 3e
       0.208769 -0.37595356 0.29228508 0.2623795
0003d0 3e 21 83 be 6c 95 a7 3e 10 a0 8b bd 9e bc 44 3e
       -0.256113 0.32731187 -0.06817639 0.19212577
0003e0 1f 39 3c be 7d 3b bd be ad 4d b0 bd 21 23 a1 be
       -0.18381165 -0.36959448 -0.086085655 -0.31472114
0003f0 5e a1 05 3e e1 03 62 be 88 99 72 3e fe 78 03 3e
       0.13049838 -0.22071792 0.2369138 0.12839124

transformer_encoder.layers.1.linear1.bias f4 [2048]
000000 57 95 b5 3e af 2b 5e 3e 70 64 2d be ce 7e 44 be
       0.354655 0.21696351 -0.16932845 -0.19188997
000010 6a 69 62 be 8f 23 42 bd e5 d6 81 3e 76 3a 5f bb
       -0.22110525 -0.047397193 0.25359264 -0.0034061945
000020 d7 41 d0 bd 13 02 6b 3e fa a0 2a be f6 92 bc be
       -0.10168808 0.2295001 -0.1666297 -0.36830872
000030 91 d0 36 3e 8a b5 86 3d c1 0f 9f 3e 9d c3 bd be
       0.17853 0.065775946 0.31066707 -0.37063304
000040 5b 20 51 3e e0 32 97 3e 4e ea b3 3e 05 2a a3 3e
       0.20422499 0.29531002 0.35139698 0.31867996
000050 aa 96 6c 3d a5 5d ed 3d 3f 52 41 3e e1 c8 f3 bd
       0.057760872 0.11590127 0.1887903 -0.11903549
000060 2c 82 02 be b1 b4 c6 bd 15 b9 2d be e4 0a 81 be
       -0.12744969 -0.09702433 -0.16965134 -0.2520362
000070 c8 31 6e be 5c 47 98 3e 8d d0 b1 bd 5f 89 aa be
       -0.23261178 0.29741943 -0.08682356 -0.3330793
000080 66 87 e8 3d ef 80 02 be 3d bc 81 3d 24 68 f9 3d
       0.1135395 -0.12744497 0.06334732 0.121780664
000090 79 ff 0e be f1 cb 69 3c d2 0a 48 3d 0f b1 a4 3e
       -0.13964643 0.014269815 0.048838444 0.32166335
0000a0 ae fd d2 bc 6a 5d 96 3e 54 46 87 3e b8 df 98 3e
       -0.02575573 0.29368144 0.26420844 0.29858184
0000b0 0c 6e 9b 3d 0d 87 3e be d2 73 cc be 80 8b 15 bd
       0.07589349 -0.18606205 -0.39932114 -0.03650999
0000c0 6e e9 b7 be a5 82 1f 3e cc 31 b7 3d 9b 41 9c bd
       -0.3592028 0.1557718 0.08945045 -0.07629701
0000d0 29 49 7a be ec eb 67 3e 0f 45 25 be 3d 32 a2 3e
       -0.24441971 0.22648591 -0.16139625 0.31678954
0000e0 7c 22 b7 3c a3 54 93 be 64 f6 81 3d a8 25 94 be
       0.02235531 -0.2877551 0.063458234 -0.2893498
0000f0 a3 9e 12 3e 8c db 40 3e 63 d7 e4 bd 53 2c 9d 3d
       0.14318328 0.1883375 -0.11173894 0.0767447
000100 22 e7 9c be cd 1c bc bd bd c7 f5 3d 52 08 78 be
       -0.3064509 -0.09185181 0.12000988 -0.24221924
000110 1b c3 16 3e 71 2e 49 be 89 d6 ad 3e 6f f8 6f be
       0.14722864 -0.19646622 0.3395274 -0.23434614
000120 d1 61 81 3e 7e ff 9c 3e ee ae 95 bd 7c 25 a1 be
       0.2526994 0.30663675 -0.07308756 -0.3147391
000130 d4 8e b1 be 34 07 71 3e 08 ce ce 3d 25 b7 1e 3e
       -0.34679282 0.23537904 0.10097891 0.15499552
000140 7b 3d 2e 3e 20 fc 5c 3e 78 de 00 be 77 44 31 3e
       0.1701564 0.21580553 -0.12584865 0.17311274
000150 9d b0 ce bd 9c b5 45 3e 58 ed e5 bd 4a 3f 7e 3e
       -0.1009228 0.1930756 -0.1122691 0.2482883
000160 0f 7a cb 3d 33 f8 e2 bd 89 cf 62 be 8b 97 0c be
       0.0993539 -0.110824965 -0.22149481 -0.13729684
000170 c7 7f 9c be 69 0a 90 be 3c b6 40 3e 0e 40 85 be
       -0.30566236 -0.28132942 0.18819517 -0.26025432
000180 e0 a7 9c 3d f1 7d 8b bd 9c 4a ab bd 09 dd 81 3c
       0.07649207 -0.06811131 -0.0836384 0.015852468
000190 87 3b c8 3d b1 7b 55 3e 12 8c 67 3e b3 85 07 bd
       0.09776979 0.20847966 0.22612026 -0.03308649
0001a0 f4 a9 15 3d 39 5b 6d 3e 79 0d b5 be 12 67 9a 3e
       0.036539033 0.2317933 -0.3536184 0.3015676
0001b0 42 41 a9 3d fb e2 cc be 1a 92 79 3b 50 7f fe bd
       0.082644 -0.40016922 0.0038081468 -0.12426627
0001c0 ad fb cf 3e ad 7f db bd 61 d7 2b 3e 1d ac cf be
       0.406217 -0.107177116 0.1678138 -0.40561
0001d0 3d 33 3c 3c f9 22 90 be 1f b7 29 3e a4 81 e0 be
       0.0114868255 -0.28151682 0.16573761 -0.43848908
0001e0 7a 2c 4d 3e 05 31 11 3e d8 fa 36 3d df c1 d7 3d
       0.20036498 0.14178856 0.044672817 0.10535025
0001f0 e5 e6 9c bd 52 ae 84 3c 89 40 43 3e 19 bc d2 3d
       -0.07661227 0.016196404 0.19067587 0.10289783
000200 dd 66 a1 3e ad e9 18 be 97 b2 af bd 3c c3 2e 3b
       0.3152379 -0.1493289 -0.08578985 0.0026666662
000210 09 96 1d 3e 17 db 85 3e ef fa 23 be 3b 3f 9a be
       0.15389265 0.26143715 -0.16013692 -0.30126366
000220 f9 8d 83 3e ff 44 ab be 01 c8 b0 be cb 0f 29 3e
       0.25694254 -0.33451077 -0.3452759 0.16509931
000230 07 5e bf 3d 51 7d 0f 3e 4a a9 98 3d 12 20 1c 3e
       0.09344106 0.14012648 0.07454164 0.15246609
000240 9d 23 16 3e 1d 6a 95 be 24 7c b4 3e 8f 8c ae 3d
       0.14662023 -0.2918252 0.35250962 0.08522903
000250 55 73 53 be 4d 3e 60 3e 6a 8b 2c be b0 dd 8b 3e
       -0.20649464 0.21898766 -0.16850057 0.27317572
000260 48 e0 81 3e 72 9c 2d bd a6 e5 be 3e 97 e6 c1 3e
       0.25366426 -0.042385526 0.37284583 0.3787124
000270 d1 11 8e 3e 52 6f 12 bd 94 01 89 bc fa 58 7b bd
       0.27747968 -0.035750695 -0.016724385 -0.06136415
000280 95 41 9f be db ed 4d 3e 3d 2a 98 bc 8f 21 a4 3e
       -0.31104723 0.20110266 -0.018574828 0.32056853
000290 a6 29 a0 bd c5 1c 83 be 58 0b e8 bd c6 ac be be
       -0.07820444 -0.25607887 -0.11330289 -0.3724119
0002a0 57 14 85 3e ff 72 25 be 53 1e 4d 3c a4 dd b2 3e
       0.2599208 -0.16157149 0.012519437 0.34934723
0002b0 f3 68 9a 3e 4c 33 90 3e 5b d4 75 3e 02 b0 cc bc
       0.30158195 0.28164136 0.24006788 -0.02498627
0002c0 e6 02 d3 be 32 82 ba be 12 5f 58 3d 61 ea d6 be
       -0.4121315 -0.36427456 0.05282504 -0.41975692
0002d0 60 10 8c 3e 86 45 c2 3e bd b8 a6 be be 91 80 bd
       0.27356243 0.37943667 -0.3256282 -0.06277798
0002e0 21 7e d4 be bf ad 0d bb f7 cd 00 be eb 05 97 bd
       -0.4150248 -0.0021618453 -0.1257857 -0.07374176
0002f0 cd 65 85 3e bb ed c2 bc d6 bb ad 3e d2 b6 b1 3e
       0.2605423 -0.023795 0.3393237 0.34709793
000300 87 65 18 3b e1 8d b3 bd 14 62 90 3e 36 b1 93 be
       0.0023253874 -0.08767296 0.28199828 -0.2884614
000310 ef 60 a6 3e ce 81 bd be 99 12 bc be 48 22 f4 3d
       0.3249583 -0.37013096 -0.3673294 0.11920601
000320 c4 53 15 be 1d ad 1e be 29 4a 53 be e4 ab 9e be
       -0.14582735 -0.15495725 -0.20633759 -0.30990517
000330 98 c2 4e 3e 65 7c 01 be fb 74 15 3d 0d 65 09 be
       0.20191419 -0.12645109 0.036488514 -0.13417454
000340 5a d5 a4 be 5c 11 2a 3e 65 3c 83 3e 57 97 e4 bd
       -0.32194024 0.16608185 0.25632015 -0.11161678
000350 78 39 93 3e b4 03 82 3d 47 f0 5f be 43 13 c4 bd
       0.28754783 0.063483626 -0.21869002 -0.095739864
000360 f4 0a 5a be 48 fe a5 be 67 64 a1 3e 98 29 69 be
       -0.21293241 -0.32420564 0.31521913 -0.22769773
000370 be 3b ce be 7c 6c a8 3d fc ae bc 3e c1 19 77 bd
       -0.40279955 0.08223817 0.36852252 -0.060327295
000380 c4 b7 9d be 4d fe af 3e 9e 0a c2 be 8a 71 87 be
       -0.30804265 0.34373704 -0.37898725 -0.2645381
000390 22 84 a4 3e c1 a5 9d bd 4f 34 e2 3c f2 19 0a be
       0.3213206 -0.07697631 0.027612833 -0.1348646
0003a0 da 69 51 be b6 e4 2a 3e 42 33 a1 bd 55 50 76 3e
       -0.20450535 0.16688809 -0.07871105 0.24054082
0003b0 2c 52 72 3e ba 85 ca be 16 65 c2 be 3a c2 63 be
       0.23664159 -0.3955515 -0.37967747 -0.2224206
0003c0 8e 69 1b 3e 9f 04 32 3e e8 42 30 be 26 1b 94 be
       0.15176985 0.17384575 -0.17213023 -0.28926963
0003d0 f2 ab b0 3e 7c f8 60 bd bf e5 bb be 23 3f 16 3e
       0.34506184 -0.054924473 -0.3669872 0.14672522
0003e0 0e 19 7e 3e 77 13 b1 be 44 9c 78 3e 0b 68 bd 3d
       0.24814245 -0.34585163 0.2427836 0.0924836
0003f0 4b ad bc 3c ca 49 d3 bd 8b 7d b5 3e 86 f8 81 bc
       0.023031851 -0.103168085 0.35447344 -0.015865576
