Archive/RU_model/Transformer/best_model_tr_new.3.40.pth (torch, 473978 bytes, 29 tensors)

norm.weight f4 [6]
0	0x3f800000	1.0
1	0x3f800000	1.0
2	0x3f800000	1.0
3	0x3f800000	1.0
4	0x3f800000	1.0
5	0x3f800000	1.0

norm.bias f4 [6]
0	0x00000000	0.0
1	0x00000000	0.0
2	0x00000000	0.0
3	0x00000000	0.0
4	0x00000000	0.0
5	0x00000000	0.0

transformer_encoder.layers.0.self_attn.in_proj_weight f4 [18, 6]
0	0xbc6b3c83	-0.014357689
1	0x3b53b385	0.0032303047
2	0x3e5cd145	0.21564205
3	0xba2ff830	-0.0006712703
4	0xbe90e3a5	-0.2829868
5	0xbe2f91d3	-0.17145471
6	0xbed237b3	-0.4105812
7	0xbd572f1d	-0.052535165
8	0xbee69b2d	-0.45040265
9	0x3edae1b4	0.42750323
10	0x3ca6adb7	0.020346506
11	0xbedb1af7	-0.4279401
12	0xbe3d628b	-0.18494622
13	0xbe9bc9ae	-0.30427307
14	0x3ea0cb0e	0.31404918
15	0x3d5b8eaa	0.053602852
16	0x3d19293c	0.03739284
17	0xbecf372c	-0.4047178
18	0x3f146623	0.5796835
19	0xbe2aea1c	-0.16690868
20	0x3bb402d2	0.0054935003
21	0xbf04603b	-0.51709336
22	0xbe3b6a6d	-0.18302317
23	0xbddea4c7	-0.108712725
24	0x3dcfbc6a	0.10143359
25	0x3e9d73d6	0.30752438
26	0xbdfbbd0c	-0.12291917
27	0x3db389d1	0.08766521
28	0x3ed057b1	0.40691903
29	0x3f0306a7	0.51182026
30	0xbd6fbba9	-0.058528576
31	0x3e66424a	0.22486225
32	0x3eff1003	0.49816903
33	0x3eeb1c0e	0.45919842
34	0x3d058fd7	0.03260788
35	0xbec4fd78	-0.3847463
36	0xbd5e3d42	-0.05425764
37	0xbc60a0af	-0.013710185
38	0x3ed13ece	0.4086823
39	0xbece85f2	-0.40336567
40	0x3ea273e3	0.3172904
41	0xbebbcced	-0.36679783
42	0xbe61cbb9	-0.2205037
43	0x3ed2a833	0.4114395
44	0xbedfea00	-0.43733215
45	0xbd611815	-0.054954607
46	0x3d16b8a7	0.036797192
47	0x3d616425	0.055027146
48	0xbc1756ae	-0.009236975
49	0xbe19dbc4	-0.1502524
50	0x3e425d3d	0.1898088
51	0x3c1ae4f1	0.009453998
52	0xbde183ca	-0.11011465
53	0xbf0b67cb	-0.5445525
54	0xbec7af98	-0.39001155
55	0xbee5f8e5	-0.44916454
56	0xbecaa5f3	-0.39579734
57	0xbe0d06b7	-0.13772093
58	0x3e4e2e6a	0.20134893
59	0xbe40b7b1	-0.18820073
60	0x3e2a272c	0.16616505
61	0x3e9c5f88	0.30541635
62	0xbdbbef8b	-0.091765486
63	0xbeb11889	-0.3458903
64	0x3e5a2411	0.2130282
65	0xbe49e2ce	-0.19715425
66	0x3bbea72f	0.0058182697
67	0xbeddcac8	-0.43318772
68	0xbd8ccbcf	-0.06874811
69	0xbecb70cd	-0.39734498
70	0xbe79c2ad	-0.24390669
71	0xbdf96c1b	-0.121788226
72	0xbea030cb	-0.31287226
73	0xbd8ba5dc	-0.068187445
74	0xbeab044a	-0.3340171
75	0x3dd70744	0.10499433
76	0xbf992dcc	-1.1967101
77	0xbece0114	-0.40235198
78	0xbf4bdce4	-0.7963393
79	0x3f66b081	0.90113074
80	0xbd69ab71	-0.057048265
81	0xbda7af78	-0.08187765
82	0x3eea6ce0	0.4578619
83	0xbf99923b	-1.1997751
84	0x3fe00e07	1.7504281
85	0xbeb750e4	-0.35803902
86	0xbedf4b6b	-0.43612227
87	0xbe5fb6af	-0.21847032
88	0xbf664b2b	-0.8995845
89	0x3f72d715	0.9485944
90	0x3f733351	0.9500018
91	0xbed3cd0d	-0.4136738
92	0xbf072d5e	-0.528036
93	0xbee800a4	-0.4531299
94	0xbce7eeef	-0.028312175
95	0x3f3f6d37	0.74776024
96	0xbf8b8a3e	-1.0901563
97	0x3ed31338	0.412256
98	0xbef36d37	-0.47544262
99	0xbc970363	-0.018434232
100	0x3d811697	0.06303137
101	0xbf5ddc4f	-0.8666429
102	0x3f8c5a4b	1.0965055
103	0xbed6b6f0	-0.41936445
104	0xbe905325	-0.28188434
105	0x3eaccc50	0.33749628
106	0xbec7c3b0	-0.39016485
107	0x3f83a01d	1.0283238

transformer_encoder.layers.0.self_attn.in_proj_bias f4 [18]
0	0x3cd407e8	0.025882676
1	0x3bfd4ca7	0.007730085
2	0xbd5432cc	-0.051806256
3	0xbcc64bfe	-0.024206158
4	0xbb4ef9ef	-0.0031582077
5	0x3c8f14ca	0.017465968
6	0xbbd32a96	-0.0064442856
7	0x3c80ac48	0.01570715
8	0x3c98df24	0.01866109
9	0xbd0cc0dc	-0.034363613
10	0xbc9cda84	-0.019147165
11	0xbc340b74	-0.010989059
12	0xbec5cf4e	-0.38634723
13	0x3b1841ab	0.00232325
14	0x3ccb556f	0.024821011
15	0xbe47f099	-0.19525374
16	0xbdac0e4f	-0.08401167
17	0x3d815643	0.06315281

transformer_encoder.layers.0.self_attn.out_proj.weight f4 [6, 6]
0	0x3e8c9b61	0.27462295
1	0x3d9e5f99	0.077330776
2	0xbeaa267b	-0.33232483
3	0xbcdaa7fd	-0.026691431
4	0x3ed8ad02	0.42319494
5	0xbee53490	-0.44766665
6	0xbd914efc	-0.07095143
7	0x3dfd4e50	0.123684525
8	0xbd525210	-0.051347792
9	0x3ecadf8b	0.39623675
10	0x3ebdf701	0.37102512
11	0xbedd2bf1	-0.43197587
12	0xbe982324	-0.2971431
13	0xbe938ef5	-0.28820005
14	0x3ec27df2	0.37986714
15	0x3ecd6500	0.4011612
16	0xbe3386e3	-0.17531924
17	0xbd3947ce	-0.045234494
18	0x3dc4a9f6	0.0960273
19	0x3ea6a593	0.32548198
20	0xbe35ae24	-0.1774221
21	0x3d94731e	0.07248519
22	0x3e27895b	0.1636099
23	0xbcad2776	-0.02113698
24	0xbcabdae7	-0.020978404
25	0xbe809bb5	-0.25118795
26	0x3d9d35d8	0.076762855
27	0x3d7d83a2	0.061893113
28	0x3e469650	0.19393277
29	0x3e86d4a2	0.263341
30	0xbe8c1dc8	-0.2736647
31	0x3dbeba10	0.09312832
32	0xbda6df0b	-0.08148011
33	0xbe8a3a29	-0.26997498
34	0x3e0cecf6	0.13762268
35	0x3dc41129	0.095735855

transformer_encoder.layers.0.self_attn.out_proj.bias f4 [6]
0	0x3e2fbf48	0.17162812
1	0xbe91f9d4	-0.28510916
2	0x3f4cc51c	0.79988265
3	0xbe6d6502	-0.23183063
4	0xbe0fd951	-0.14047743
5	0x3e283fee	0.16430637

transformer_encoder.layers.0.linear1.weight f4 [2048, 6]
0	0x3ea8f728	0.33001065
1	0xbd4d51cb	-0.050126832
2	0xbd457d74	-0.048215345
3	0x3ea175e8	0.31535268
4	0xbd79f57c	-0.061025128
5	0xbda23211	-0.07919706
6	0x3e4b2a4b	0.19840352
7	0x3d494e3d	0.04914688
8	0x3e96b708	0.29436517
9	0xbf01b1f2	-0.5066215
10	0xbc25fdc2	-0.010131301
11	0xbece2616	-0.40263432
12	0x3e05e6fa	0.13076392
13	0x3e770357	0.24122368
14	0xbe1d4d39	-0.1536149
15	0x3e3dd874	0.18539602
16	0x3e9ee78b	0.31036028
17	0xbeb75907	-0.3581011
18	0x3e9b8532	0.30375057
19	0x3ccbcf00	0.024878979
20	0x3ca42762	0.02003831
21	0x3e18b2e5	0.14911993
22	0x3cfbc479	0.030733334
23	0xbe37bccf	-0.17943119
24	0x3e751b2c	0.23936146
25	0xbea59fbc	-0.3234843
26	0x3dbc9388	0.09207827
27	0xbe98282d	-0.29718152
28	0xbe146759	-0.14492549
29	0x3ee8fbae	0.45504516
30	0xbeea50db	-0.45764813
31	0xbaa5f2aa	-0.001266082
32	0xbe27fab9	-0.16404237
33	0xbe3c49f9	-0.18387593
34	0x3f13e569	0.5777193
35	0x3ef57ef0	0.47948408
36	0xbe337aa1	-0.17527248
37	0x3e735aaf	0.23765062
38	0x3ecb677b	0.39727387
39	0xbe8107ee	-0.25201362
40	0xbdbc427b	-0.09192368
41	0xbe568ff8	-0.20953357
42	0x3c36cf72	0.011157857
43	0xbea6deac	-0.3259176
44	0xbe1d9dd7	-0.15392242
45	0xbe93dbef	-0.28878734
46	0x3ed49b7d	0.41524878
47	0x3edca898	0.43097377
48	0x3ecd863c	0.40141475
49	0xbb8ff36c	-0.004393032
50	0xbe528312	-0.20557812
51	0xbe024c13	-0.12724333
52	0x3df7b9b1	0.12095965
53	0x3e379572	0.17928103
54	0xbe416c4e	-0.18888971
55	0x3db003e8	0.08594495
56	0x3ea2026f	0.31642482
57	0xbea68eb8	-0.3253076
58	0xbea062df	-0.31325433
59	0xbe37452b	-0.17897479
60	0x3ed54513	0.41654262
61	0xbe9b9b25	-0.30391803
62	0x3e634958	0.22195947
63	0xbda34600	-0.07972336
64	0xbdc14c09	-0.09438331
65	0xbeaab446	-0.33340663
66	0xbe8a6bf6	-0.27035493
67	0x3e9517c8	0.29119706
68	0xbdf0e4c0	-0.117623806
69	0x3e176d3b	0.14787762
70	0x3c866029	0.016403275
71	0xbe589665	-0.21151121
72	0xbe4a56cd	-0.19759674
73	0x3e2487fa	0.16067496
74	0x3e3ca89b	0.18423693
75	0x3e73b310	0.23798776
76	0xbcea1912	-0.028576408
77	0xbdd23c08	-0.10265356
78	0xbe78c565	-0.2429405
79	0xbd03de25	-0.032194275
80	0x3e93a4a8	0.2883656
81	0x3cda5c00	0.026655197
82	0xbc857bc7	-0.016294373
83	0xbde51f74	-0.1118764
84	0xbe8dab6a	-0.2766984
85	0xbe83bfc0	-0.2573223
86	0xbe69bdde	-0.22826335
87	0xbd96df76	-0.073668405
88	0xbe3f5686	-0.1868535
89	0xbe4f61bd	-0.20252128
90	0xbe2db59b	-0.16963808
91	0xbd66042f	-0.056156334
92	0xbe8755d9	-0.26432684
93	0xbdd48a17	-0.10377901
94	0x3cb59cd0	0.0221695
95	0xbed78964	-0.42097008
96	0xbdb68e02	-0.089138046
97	0x3e4ee41f	0.20204209
98	0xbe646943	-0.22305779
99	0x3d96c45d	0.07361672
100	0x3eb04465	0.3442718
101	0x3ea34423	0.31887922
102	0x3ed86f63	0.4227248
103	0x3e6b71c5	0.22992618
104	0xbeb03e49	-0.3442252
105	0xbccfdaa5	-0.025372813
106	0x3f40c981	0.7530747
107	0x3e43808a	0.19092003
108	0xbd09910d	-0.033585597
109	0x3e99b7c0	0.30023003
110	0xbe86949c	-0.26285255
111	0xbe1c3492	-0.15254429
112	0xbe4006fb	-0.18752663
113	0xbe00f33c	-0.12592787
114	0xbe64f20f	-0.22357963
115	0x3e8decf8	0.27719855
116	0x3e83ef8c	0.25768697
117	0x3e42d272	0.19025591
118	0xbee93b0e	-0.45552868
119	0x3ee15cd2	0.4401613
120	0x3f06b376	0.52617586
121	0x3e2ad47a	0.16682616
122	0xbe2fb0b5	-0.17157252
123	0x3e8790cb	0.26477656
124	0x3c511a40	0.012762606
125	0xbe1507d7	-0.14553772
126	0x3e939924	0.28827775
127	0xbe05aa04	-0.13053137
128	0xbe02820e	-0.12744924
129	0x3e541f74	0.20715123
130	0x3e3c1eba	0.18371096
131	0x3dc5b3ca	0.09653433
132	0x3ee2ab41	0.4427128
133	0x3eb8f26a	0.36122447
134	0x3e817a1a	0.2528847
135	0xbe28a14a	-0.16467777
136	0x3df76a05	0.120807685
137	0x3f06ebbe	0.52703464
138	0xbe04ecca	-0.12980953
139	0xbd40fd19	-0.047116373
140	0x3e4a73ed	0.19770785
141	0xbe81b6d0	-0.25334787
142	0xbeb6dfb6	-0.35717553
143	0xbdae3df3	-0.085079096
144	0x3d96118b	0.07327565
145	0x3ed2ff65	0.41210476
146	0xbe4e9fa7	-0.2017809
147	0x3e8f980d	0.28045693
148	0xbe86fc90	-0.26364565
149	0x3de9f90c	0.11424455
150	0x3e2a5d57	0.16637169
151	0x3e81cb46	0.25350398
152	0x3d62267f	0.055212494
153	0x3e1afb37	0.15134893
154	0x3ef029d2	0.46906906
155	0xbe9c960d	-0.3058323
156	0x3e8f5df1	0.2800136
157	0x3db9fcac	0.090813965
158	0x3d8b4bdd	0.06801579
159	0xbf1f4269	-0.6221071
160	0x3e829cf8	0.25510383
161	0xbd9c905f	-0.07644724
162	0x3d2d2b27	0.04227748
163	0x3de63d2c	0.11242136
164	0xbeb191e0	-0.34681606
165	0x3c66633e	0.014061747
166	0x3e49f734	0.19723207
167	0x3d26c2af	0.04071301
168	0x3e7c36c6	0.2463027
169	0x3eaf14ed	0.34195653
170	0xbe08cc9a	-0.133593
171	0x3e8d059d	0.27543345
172	0xbe819a69	-0.25313118
173	0xbea923bb	-0.33035073
174	0x3ee093dd	0.4386281
175	0x3e5d1856	0.21591315
176	0xbe8a8d56	-0.27060956
177	0xbebf8b8f	-0.37411162
178	0x3cedebac	0.029043041
179	0xbd4ecdb3	-0.05048914
180	0x3e7935e6	0.24336967
181	0xbe41d9ea	-0.18930784
182	0x3da6a5f4	0.08137122
183	0x3de80b21	0.11330248
184	0xbdd54d5f	-0.10415148
185	0xbb861261	-0.0040915464
186	0x3d127380	0.03575468
187	0x3ed7fa01	0.42182925
188	0xbe7aadbe	-0.2448034
189	0x3d904f23	0.07046344
190	0x3eb868d1	0.3601747
191	0xbe36174a	-0.17782322
192	0x3eae5c00	0.34054565
193	0x3d226adb	0.039652687
194	0x3ecc80c8	0.39942002
195	0xbed16704	-0.40898907
196	0x3f18dfe3	0.59716624
197	0x3eb8bfa1	0.360837
198	0x3ea6221a	0.32447892
199	0x3da70098	0.0815441
200	0x3e022695	0.1271003
201	0x3d87c110	0.066286206
202	0x3d81f568	0.06345636
203	0xbe092145	-0.13391598
204	0xbed4b72e	-0.41546005
205	0x3dce680b	0.10078438
206	0x3edad588	0.42741036
207	0xbe8fb6d2	-0.28069168
208	0xbe81ef01	-0.25377658
209	0xbe157fae	-0.14599487
210	0xbea38ff7	-0.31945774
211	0xbde8661b	-0.113476
212	0x3e307045	0.17230327
213	0x3e8474e3	0.25870427
214	0xbe013ab2	-0.12620047
215	0xbec17e14	-0.37791502
216	0x3ecf0f19	0.40441206
217	0x3e683c07	0.22679149
218	0x3e01a8b3	0.1266201
219	0xbeac99e6	-0.33711165
220	0x3dae018d	0.084963895
221	0x3ebaf9ca	0.365187
222	0x3ebb1d70	0.36545897
223	0xbe9b222e	-0.30299515
224	0x3cbf0d53	0.023321783
225	0xbc45c61d	-0.01207116
226	0xbd93f9be	-0.07225369
227	0xbec6a616	-0.3879859
228	0x3ee6ceb6	0.45079583
229	0xbd11ae36	-0.03556653
230	0x3e04b0a4	0.12958008
231	0xbd22011d	-0.039551843
232	0xbadfc7d5	-0.0017073104
233	0x3e81af1d	0.25328913
234	0xbe9b4284	-0.30324185
235	0x3eb8c34c	0.360865
236	0xbe5c6072	-0.21521166
237	0xbd1578e9	-0.036492262
238	0x3e59b2fb	0.21259682
239	0xbe361647	-0.17781936
240	0x3e31040a	0.17286697
241	0x3caef0c4	0.02135504
242	0x3e9d6017	0.30737373
243	0xbb646610	-0.0034850873
244	0x3cb05e48	0.021529332
245	0x3ddc7497	0.10764425
246	0xbe7cf7f4	-0.24703962
247	0x3ed2bc29	0.4115918
248	0xbe8e7476	-0.27823228
249	0x3e5dd7a5	0.21664293
250	0x3e34bb71	0.17649628
251	0xbee7aa33	-0.4524704
252	0xbe0403fb	-0.12892143
253	0xbeb35470	-0.35025358
254	0xbeb31ab2	-0.34981304
255	0xbebd1fd8	-0.36938357

transformer_encoder.layers.0.linear1.bias f4 [2048]
0	0x3e0188c6	0.12649831
1	0x3ea5454e	0.32279438
2	0xbd7f7375	-0.062365968
3	0xbde0cb4d	-0.109762765
4	0xbdc48cb2	-0.09597148
5	0xbd790dd7	-0.060804214
6	0x3d8985b8	0.06714958
7	0xbd68a060	-0.05679357
8	0x3e402db9	0.18767442
9	0xbeae47c5	-0.3403913
10	0x3e23fb4b	0.1601383
11	0x3cc120f3	0.023575282
12	0xbdba7316	-0.09103982
13	0x3ea46069	0.32104805
14	0xbe14aca7	-0.14518987
15	0x3d919b39	0.071096845
16	0xbeb39ea2	-0.35081965
17	0xbe7e5c53	-0.24839906
18	0x3ec73a76	0.3891179
19	0xbea789fd	-0.32722464
20	0x3c992874	0.018696047
21	0xbe0774b1	-0.13228108
22	0xbdc342ce	-0.09534226
23	0xbea20f8a	-0.3165248
24	0xbdfa7401	-0.12229157
25	0x3e9d7979	0.3075674
26	0x3e8bf21d	0.27333155
27	0x3dab7df6	0.083736345
28	0xbea1f41c	-0.31631553
29	0xbebacc67	-0.36484072
30	0xbd5f5aec	-0.05453007
31	0x3e452dc5	0.19255741
32	0x3eb95ad1	0.362021
33	0x3e27e739	0.16396798
34	0x3eaac976	0.33356827
35	0xbe9d7c94	-0.30759108
36	0x3d651772	0.055930562
37	0xbdb721ff	-0.08942031
38	0x3e753f71	0.23949982
39	0x3e02d00d	0.12774678
40	0xbece303e	-0.4027118
41	0xba0768c3	-0.0005165452
42	0x3e5b2ecf	0.21404575
43	0xbe233483	-0.15938
44	0xbe2e19fc	-0.170021
45	0x3edbc31c	0.42922294
46	0x3e25bf7b	0.16186325
47	0x3d4fb0b1	0.050705615
48	0xbe03f243	-0.12885384
49	0x3d45c9f9	0.04828832
50	0x3e880f9b	0.26574406
51	0xbe2decf1	-0.16984917
52	0xbe6e627c	-0.23279756
53	0x3eca3253	0.3949152
54	0x3e0ebab2	0.13938406
55	0x3ee85ba5	0.4538242
56	0x3d83eb44	0.06441358
57	0xbe3c22eb	-0.18372695
58	0xbea284e5	-0.31742015
59	0xbe6000c3	-0.2187529
60	0x3e9c0014	0.3046881
61	0xbe802524	-0.25028336
62	0x3d77324b	0.060350697
63	0x3dd213b5	0.10257665
64	0x3e8a286e	0.2698397
65	0xbeaa7b1d	-0.33297053
66	0xbdcd545c	-0.10025856
67	0x3e843fd4	0.25829947
68	0xbd0cf036	-0.03440877
69	0xbe45c493	-0.19313268
70	0xbe24a8bf	-0.16079997
71	0x3e9fd3b7	0.31216213
72	0xbecab1c3	-0.39588746
73	0xbe7e181f	-0.24813889
74	0xbec247a2	-0.37945276
75	0x3be5a981	0.007008732
76	0xbe97e4b9	-0.2966669
77	0xbedbcbe9	-0.4292901
78	0x3dc5a0f7	0.09649842
79	0xbd6d51c7	-0.057939317
80	0x3e18da67	0.14927064
81	0x3e0746a6	0.13210544
82	0xbdd7cdcf	-0.10537302
83	0x3e8a0bc4	0.269621
84	0xbe171e57	-0.14757667
85	0xbc2936de	-0.010328023
86	0xbe162600	-0.14662933
87	0x3de62e2b	0.112392746
88	0xbc925ed3	-0.017867481
89	0xbc419e35	-0.011817505
90	0x3d7266d7	0.059180107
91	0x3ea50fa2	0.3223849
92	0x3e9b1571	0.30289796
93	0xbd2ca351	-0.04214794
94	0xbc1d773f	-0.00961095
95	0xbbbc6de8	-0.0057504065
96	0x3e8f7228	0.28016782
97	0x3c7d2235	0.01545005
98	0x3dca2325	0.098699845
99	0xbe932c10	-0.28744555
100	0x3de22c36	0.11043589
101	0x3e8ef531	0.2792144
102	0x3e1c4e0e	0.1526415
103	0x3ebc2bf1	0.36752275
104	0x3eda0221	0.4257975
105	0x3dd39df3	0.10332861
106	0xbc31f032	-0.01086049
107	0x3e94ff01	0.29100803
108	0xbdeffb68	-0.11717874
109	0x3e8462e2	0.25856692
110	0x3e63189e	0.2217736
111	0x3d16ef1a	0.03684912
112	0x3dee8c68	0.11647874
113	0xbe392c36	-0.18083271
114	0x3e5fe89f	0.21866082
115	0x3e1883c2	0.14894012
116	0x3e71eef5	0.23626311
117	0x3ebddad8	0.37081027
118	0x3e94ae1f	0.29039094
119	0xbdcbcbe6	-0.09951
120	0x3e076757	0.13223015
121	0x3e87babc	0.26509655
122	0xbedcf25a	-0.4315365
123	0xbe2cb26f	-0.16864942
124	0xbe0a4135	-0.13501437
125	0xbce50edf	-0.027961193
126	0x3e114eea	0.1419026
127	0x3de296d0	0.110639215
128	0x3eabd0e6	0.33557814
129	0x3eb10b75	0.34579054
130	0x3e978dc2	0.2960034
131	0x3ea10436	0.31448525
132	0xbd7f4334	-0.06231995
133	0xbd32b31b	-0.04362784
134	0xbe223185	-0.15839203
135	0x3e5ad341	0.2136965
136	0x3e8c732e	0.27431625
137	0x3e4da032	0.20080641
138	0xbdbbfa81	-0.09178639
139	0xbe958a6a	-0.29207164
140	0xbea5a632	-0.3235336
141	0x3e07d34c	0.13264197
142	0xbdb078f2	-0.086168185
143	0x3e47a270	0.19495559
144	0xbb267606	-0.0025399937
145	0x3ca6c52c	0.02035769
146	0xbe38e16a	-0.18054739
147	0x3e6accab	0.22929637
148	0xbe0f6c51	-0.14006163
149	0x3e0f4727	0.13991986
150	0xbdc6368f	-0.09678375
151	0xbc4f02e8	-0.01263497
152	0x3e83e2c3	0.25758943
153	0xbe2b54c4	-0.16731554
154	0x3e599b5d	0.21250673
155	0x3de66cf1	0.11251248
156	0x3e0cdecf	0.1375687
157	0xbe3d6447	-0.18495284
158	0x3e93a0e1	0.28833678
159	0xbe5a9242	-0.21344855
160	0xbc4ab519	-0.012372279
161	0x3e6272c6	0.22114095
162	0xbea41965	-0.32050624
163	0x3e4b0825	0.19827326
164	0x3e93ee5b	0.28892788
165	0xbe8ca252	-0.2746759
166	0x3e84486e	0.2583651
167	0xbe4d7811	-0.20065333
168	0x3ea44f2f	0.32091662
169	0xbd86a8f6	-0.065751955
170	0xbe906681	-0.28203204
171	0xbdd731aa	-0.105075195
172	0x3e297601	0.16548921
173	0xbeb09294	-0.3448683
174	0xbe92dab8	-0.28682494
175	0xbea659fa	-0.32490522
176	0x3bbd5a00	0.005778551
177	0xbe9a868a	-0.3018077
178	0x3e25c56e	0.16188595
179	0x3e2eb198	0.17059934
180	0x3e2c32ca	0.1681625
181	0xbde7c449	-0.11316735
182	0x3e2fc063	0.17163233
183	0x3ddaf46b	0.1069115
184	0x3e5b27c5	0.2140189
185	0x3bd7962c	0.006579181
186	0xbde22b64	-0.11043432
187	0xbe1a44be	-0.15065286
188	0xbe8deebc	-0.27721202
189	0x3e1c7b17	0.1528133
190	0xbe933bf7	-0.28756687
191	0xbeb44408	-0.35208154
192	0x3d9ba75c	0.07600281
193	0x3ea9b5e8	0.33146596
194	0xbefa99ec	-0.48945558
195	0xbea44ee2	-0.32091433
196	0xbe5dd21a	-0.21662179
197	0x3e2365b6	0.15956768
198	0xbea2699c	-0.317212
199	0xbe6ebb27	-0.2331358
200	0x3e0bda94	0.136576
201	0xbe80051e	-0.25003904
202	0x3e3554da	0.1770815
203	0x3d931387	0.07181459
204	0x3ea038e6	0.3129341
205	0xbe3b639c	-0.18299717
206	0x3e8d8665	0.27641597
207	0xbebf8864	-0.37408745
208	0xbe291579	-0.16512097
209	0xbec131da	-0.37733346
210	0xbdfcd0a8	-0.123444855
211	0x3ebdd7c9	0.37078694
212	0x3e57b998	0.21066892
213	0x3ebaa42c	0.36453378
214	0x3e2ff2f4	0.17182523
215	0xbea9694e	-0.33088154
216	0x3e46edec	0.19426697
217	0x3e85942b	0.26089606
218	0x3d8ac73e	0.06776284
219	0xbec6fcda	-0.38864785
220	0xbd344f8e	-0.04402118
221	0xbe8403b4	-0.25784075
222	0xbeb8c864	-0.36090386
223	0x3e6700bc	0.22558874
224	0xbeaef5f3	-0.3417202
225	0x3e5d93de	0.21638438
226	0xbeada96b	-0.33918318
227	0x3e3ed644	0.18636423
228	0xbdfd8fc6	-0.12380938
229	0xbe2beb55	-0.16788991
230	0xbd16c0f7	-0.03680512
231	0x3ebc71bc	0.36805522
232	0x3e5c8974	0.21536809
233	0xbe8534a0	-0.26016712
234	0x3d13429f	0.035952207
235	0xbe005a85	-0.1253453
236	0xbd95c94c	-0.07313785
237	0xbe645893	-0.22299413
238	0xbe9f61f7	-0.3112943
239	0xbeb27814	-0.34857237
240	0x3dc5287f	0.09626865
241	0x3df73a4f	0.12071668
242	0x3b52da3b	0.0032173533
243	0x3e334c1a	0.17509499
244	0x3ebaa1a1	0.36451438
245	0xbdeb99cf	-0.11503946
246	0x3ea34449	0.31888035
247	0x3e955c39	0.29171923
248	0x3c68e77b	0.0142153455
249	0xbe96b913	-0.29438075
250	0xbe6beaf2	-0.23038843
251	0xbd8d56a5	-0.06901292
252	0xbe159d70	-0.14610839
253	0x3eafb0e4	0.34314644
254	0x3e18e9a4	0.14932877
255	0x3e53b3e3	0.2067409

transformer_encoder.layers.0.linear2.weight f4 [6, 2048]
0	0x3b9745c8	0.004616473
1	0xbc6979f4	-0.014250267
2	0xbc83798a	-0.016049165
3	0x3c7a3c11	0.01527311
4	0x3d834ef9	0.06411547
5	0x3e901400	0.2814026
6	0x3dd6fe58	0.10497731
7	0x3e25568d	0.16146298
8	0xbc6064bf	-0.013695895
9	0x3d3b7460	0.04576528
10	0x3d4dc07e	0.050232403
11	0x3c288a63	0.0102869
12	0xbbacd890	-0.0052748397
13	0xbc2d221a	-0.0105672125
14	0xbbd57676	-0.006514366
15	0xbc3ffd20	-0.011718065
16	0x3e7b1f15	0.24523576
17	0x3e4bbbda	0.19895878
18	0xbd2831c2	-0.041063078
19	0x3e8235f1	0.2543178
20	0xbbf0f6d8	-0.007353645
21	0xbc18fc26	-0.009337461
22	0x3d64a3e2	0.055820353
23	0x3cfb2772	0.030658457
24	0x3c0ec586	0.008714085
25	0xbc810c2d	-0.015752876
26	0xbcc7c31a	-0.024385024
27	0xbb8e8d84	-0.004350366
28	0x3b70a8c5	0.0036721688
29	0x3e67ee28	0.22649443
30	0xbc8265dc	-0.015917711
31	0x3bdee043	0.0068016364
32	0xbb734485	-0.0037119698
33	0x3c2bb99c	0.010481264
34	0xbe86d58f	-0.26334807
35	0xbc9ad5c3	-0.018900758
36	0x3b9dad9d	0.004811956
37	0x3c1fff9f	0.009765535
38	0x3c4f99a8	0.012670912
39	0x3e10488a	0.14090171
40	0xbd13bbb6	-0.036067687
41	0x3bd83c1a	0.0065989615
42	0x3bffbe71	0.007804685
43	0x3bfa210f	0.0076333354
44	0xbc952c72	-0.01820967
45	0x3db68026	0.08911161
46	0xbbac2753	-0.0052537112
47	0x3d50e58b	0.05100016
48	0x3f3a807a	0.7285229
49	0xbd3c3cb9	-0.045956347
50	0xbc873c8f	-0.016508369
51	0x3c8f8a14	0.017521895
52	0x3eab4c4e	0.33456653
53	0x3c612d53	0.013743716
54	0x3dc7ed3a	0.09762044
55	0x3e0091ba	0.1255559
56	0x3dc7f88d	0.09764204
57	0x3b4d5ebe	0.0031336988
58	0x3cdff878	0.027340159
59	0xbc2a2006	-0.010383612
60	0x3e89ef97	0.26940605
61	0xbdfce14f	-0.12347662
62	0xbcea5134	-0.028603174
63	0x3a62083d	0.00086224434
64	0xbad1a286	-0.001599387
65	0x3b01cbd8	0.0019805338
66	0x3dec176b	0.11527904
67	0xbeadefe4	-0.33972085
68	0x3e33e7ed	0.17568941
69	0x3ddc1bf2	0.10747518
70	0x3ba1b994	0.0049354527
71	0x3e09d05a	0.13458386
72	0x3c9b71c9	0.018975155
73	0x3e3b2b60	0.18278265
74	0x3bb31c0b	0.0054659895
75	0xbce7ebf1	-0.028310748
76	0x3e6d7737	0.23190008
77	0x3c4a91d3	0.012363869
78	0xbbd369c5	-0.0064518177
79	0x3db05d03	0.086114906
80	0xbcaf2396	-0.021379273
81	0x3e60b823	0.21945243
82	0xbcd72b59	-0.026265787
83	0x3dc5f7b6	0.09666388
84	0x3ecb4143	0.39698228
85	0xbd79b471	-0.060963098
86	0x3cbcc32d	0.023042286
87	0xbc8c8748	-0.01715435
88	0xbc93b258	-0.018029377
89	0x3c91811b	0.017761758
90	0xbc8528ce	-0.016254809
91	0xbba05ef7	-0.004894133
92	0x3d5d3154	0.05400212
93	0xbcbae7e9	-0.022815662
94	0x3a67314e	0.00088192977
95	0xbd0f747c	-0.035023198
96	0x3d07323c	0.03300689
97	0x3d74efe9	0.05979911
98	0x3d8136c5	0.063092746
99	0x3e074370	0.13209319
100	0xbdbd09ac	-0.092303604
101	0xbc91e1fc	-0.017807953
102	0x3bcf9308	0.006334666
103	0x3b9bf2f5	0.0047591873
104	0x3bdce6c3	0.006741376
105	0xbc85e990	-0.016346723
106	0x3e3ab487	0.18232928
107	0xbc7a1644	-0.015264098
108	0xbcb102d3	-0.021607792
109	0x3d6464ab	0.055760067
110	0x3e869227	0.2628338
111	0x3bf3e19f	0.0074426676
112	0xbc263500	-0.010144472
113	0xbd5769d8	-0.052591175
114	0xbcf79c01	-0.030225756
115	0x3dcd3b2b	0.10021051
116	0xbcb4004f	-0.021972803
117	0x3ce57b19	0.0280128
118	0x3b78cae2	0.0037962724
119	0xbd09d9ed	-0.033655096
120	0x3d1c29ce	0.038125806
121	0x3ae10971	0.0017168951
122	0xbcd229ba	-0.025654662
123	0xbc8dbd30	-0.017302126
124	0x3c3eea99	0.011652612
125	0x3e51e46b	0.20497291
126	0x3edf56a2	0.43620783
127	0x3e1a9141	0.15094472
128	0x3c1fa084	0.00974286
129	0xbe8831a5	-0.26600376
130	0x3db841aa	0.089968994
131	0x3d4eac9b	0.05045758
132	0x3e9ac3b3	0.30227432
133	0xbb79e375	-0.003812996
134	0x3e95beb7	0.29247066
135	0x3e28696f	0.1644647
136	0xbbd3dcd1	-0.0064655324
137	0x3e507e9c	0.20360798
138	0x3d9f35d4	0.07773939
139	0xbc80ea45	-0.015736708
140	0xbbcbd7e6	-0.0062208055
141	0x3a31565f	0.00067648845
142	0xbb24bbbf	-0.002513632
143	0x3b01a2b8	0.0019780826
144	0x3df62c3f	0.12020158
145	0x3d85424a	0.06506784
146	0x3c6ff817	0.014646552
147	0xbc1fae2c	-0.009746116
148	0xbc2f1e5e	-0.010688392
149	0xbc92d11e	-0.01792198
150	0x3ea33edf	0.31883904
151	0xbd3263af	-0.043552097
152	0x3d85ac56	0.06527011
153	0x3c6f0e08	0.014590748
154	0xbd639bf2	-0.055568643
155	0x3e2e6dae	0.17034027
156	0xbbc77495	-0.0060868957
157	0x3c1a52f9	0.009419196
158	0xbcaafd10	-0.020872623
159	0xbc9a2f1c	-0.018821292
160	0x3c26cf73	0.010181296
161	0x3e5dcf4a	0.21661106
162	0xbd3d4cdd	-0.04621588
163	0xbc854a75	-0.016270855
164	0xbcd763e9	-0.026292758
165	0x3d3e0416	0.046390615
166	0xbacfc2b0	-0.0015850868
167	0x3ee2e795	0.44317308
168	0xbb6c9226	-0.0036097853
169	0x3d6d30bc	0.057907805
170	0x3cbf2439	0.023332702
171	0x3d47dd22	0.048794873
172	0xba308a33	-0.00067344605
173	0xbb732700	-0.0037102103
174	0xba3a5c04	-0.00071090483
175	0xbc9350a2	-0.017982785
176	0xbdfcbf6d	-0.12341199
177	0xbd9788a0	-0.07399106
178	0x3b0c92fb	0.0021449912
179	0x3e3a3fe6	0.18188438
180	0x3df7fb23	0.121084474
181	0xbd15844e	-0.03650313
182	0xbd8ac017	-0.067749195
183	0x3d89a4de	0.06720899
184	0x3da30b0d	0.07961092
185	0x3a90336e	0.0011001655
186	0xb96c3cd4	-0.00022529374
187	0x3cb29795	0.021800796
188	0xbcd6694f	-0.026173262
189	0x3dbd4dac	0.0924333
190	0xbe22aab4	-0.1588543
191	0x3b74360e	0.0037263664
192	0xbb1c78f9	-0.0023875816
193	0xbd64218d	-0.05569606
194	0xbc89f73e	-0.016841527
195	0x3d618ee8	0.055067927
196	0xbea910d3	-0.33020648
197	0xbd31b5b2	-0.04338617
198	0xbcf92e0c	-0.030417465
199	0x3defa923	0.11702182
200	0xbba1d8f7	-0.0049391943
201	0x3ebaa60f	0.36454818
202	0xbc27e3c8	-0.010247178
203	0x3a401591	0.00073274324
204	0x3c1f0539	0.009705835
205	0xbc3b3478	-0.011426084
206	0xbcf6b558	-0.030115768
207	0xbd18a33c	-0.037265047
208	0x3c781083	0.015140655
209	0xbd84d026	-0.06485014
210	0x3ac8cfad	0.0015320681
211	0x3d9d9f3e	0.07696389
212	0x3d8b9a46	0.06816535
213	0xba7a5d08	-0.0009550606
214	0x3bfd93d0	0.007738568
215	0x3e89c414	0.26907408
216	0x3c2f7d75	0.010711064
217	0xbbbfc381	-0.0058521633
218	0x3c7c6c4c	0.015406679
219	0x3c5dea7b	0.013544674
220	0xbc5db5eb	-0.013532142
221	0x3e0c135a	0.13679257
222	0xbcc942da	-0.02456801
223	0x3c3485c5	0.011018221
224	0x3d387409	0.045032535
225	0x3d6aafe4	0.05729665
226	0xbec51fd4	-0.38500845
227	0x3d0bbde0	0.034116626
228	0x3e43e7c9	0.19131388
229	0x3d073201	0.03300667
230	0xbbcf2a39	-0.006322172
231	0x3dc21a38	0.09477657
232	0xbc30ae0c	-0.0107836835
233	0x3dab01da	0.083499625
234	0xbdd605cf	-0.10450327
235	0x3a523d87	0.00080200325
236	0x3ca89da9	0.02058299
237	0x3bc978ea	0.0061484473
238	0x3d94b099	0.07260246
239	0x3d197bbf	0.03747153
240	0xbd876192	-0.06610407
241	0x3d1771c8	0.036973745
242	0xbcb6e32c	-0.02232512
243	0xbd4770b6	-0.048691474
244	0x3da43dc7	0.080195956
245	0x3d845048	0.06460625
246	0x3dfdcee9	0.123929806
247	0x3deaf88f	0.1147319
248	0x3e15933e	0.1460695
249	0x3e5052f3	0.20344143
250	0x3ec29663	0.3800536
251	0x3c0d09e9	0.00860832
252	0xbb533fc0	-0.0032234043
253	0xbc94f229	-0.018181877
254	0xbbc52dc9	-0.006017421
255	0x3c974953	0.01846758

transformer_encoder.layers.0.linear2.bias f4 [6]
0	0xbc17f937	-0.009275726
1	0xbc426624	-0.011865173
2	0x3c833b6c	0.016019545
3	0x3ca8e99c	0.020619206
4	0xbcc9a92a	-0.024616797
5	0xbcddd163	-0.027077382

transformer_encoder.layers.0.norm1.weight f4 [6]
0	0x3f9d3ade	1.228359
1	0x3f8054db	1.0025896
2	0x3f85858a	1.0431378
3	0x3f6e5008	0.9309087
4	0x3f8db47c	1.1070704
5	0x3f97bd77	1.1854695

transformer_encoder.layers.0.norm1.bias f4 [6]
0	0x3c844d08	0.016150013
1	0x3d4601f4	0.048341706
2	0x3c79cf36	0.015247157
3	0xbdc09927	-0.094042115
4	0x3cbc7181	0.023003342
5	0x3b4709ac	0.0030370755

transformer_encoder.layers.0.norm2.weight f4 [6]
0	0x3f77e9ea	0.968413
1	0x3f7e3cba	0.9931141
2	0x3f857c44	1.0428548
3	0x3f82018c	1.0156722
4	0x3f7ce9da	0.9879433
5	0x3f994e35	1.1976992

transformer_encoder.layers.0.norm2.bias f4 [6]
0	0xbe1fa7d8	-0.15591371
1	0x3dd5fe51	0.10448898
2	0x3d70d54a	0.05879716
3	0xbe0fe40c	-0.14051837
4	0x3dd0a6f5	0.101880945
5	0x3d18cf0b	0.037306827

transformer_encoder.layers.1.self_attn.in_proj_weight f4 [18, 6]
0	0x3e5918b1	0.21200825
1	0xbeb3bf34	-0.35106814
2	0x3e9beaec	0.3045267
3	0x3dc8b917	0.09800928
4	0xbee7ec2b	-0.4529737
5	0xbea2f888	-0.3183024
6	0xbf63a6ac	-0.88926196
7	0x3d5c3f55	0.053771336
8	0x3cb09f7e	0.021560427
9	0x3eafc483	0.34329614
10	0x3d212c2a	0.03934876
11	0xbf3f60b3	-0.74756926
12	0xbdb6f0d8	-0.08932656
13	0xbe392fe0	-0.18084669
14	0x3ef9855a	0.48734552
15	0x3c8a6304	0.016892917
16	0xbe9e87e7	-0.3096306
17	0xbee981bf	-0.456068
18	0x3eb2d0ab	0.34924826
19	0xbde55408	-0.11197668
20	0x3dd41a6c	0.10356602
21	0xbf0e4ded	-0.55587655
22	0x3dc16084	0.09442237
23	0xbd170f29	-0.036879692
24	0xbe071ce1	-0.1319461
25	0x3db9f506	0.09079938
26	0xbdfd7fa3	-0.123778604
27	0x3e6b4393	0.22974996
28	0x3ef19f47	0.4719183
29	0x3f320e98	0.6955352
30	0xbea9ef43	-0.33190355
31	0x3efed7f2	0.49774128
32	0x3f6029c8	0.87563753
33	0x3eb773ba	0.3583048
34	0xbe2d184b	-0.16903798
35	0xbedfceb0	-0.43712378
36	0x3e458f19	0.19292869
37	0x3e514e77	0.20440088
38	0x3e2a7375	0.16645606
39	0xbf490d41	-0.7853585
40	0x3ee64ad5	0.44978967
41	0xbde52e22	-0.1119044
42	0xbef0aa1b	-0.4700478
43	0x3f047c6d	0.5175236
44	0xbe8ad63f	-0.27116582
45	0xbbd91bef	-0.0066256444
46	0x3dbd0463	0.09229352
47	0xbd946a2b	-0.072468124
48	0xbe266f03	-0.16253285
49	0x3cefc172	0.029267047
50	0x3e2a1bce	0.16612169
51	0xbd9342e3	-0.07190492
52	0xbda8920a	-0.0823098
53	0xbead5f4b	-0.33861765
54	0xbecf31c1	-0.40467647
55	0xbee3a055	-0.4445826
56	0xbeaffe41	-0.34373668
57	0x3d214365	0.039370913
58	0x3d19e0a6	0.037567757
59	0xbf12d409	-0.5735479
60	0x3eb55f5d	0.3542432
61	0x3ea60ca8	0.3243153
62	0xbf08f471	-0.5349799
63	0xbee3c56b	-0.44486555
64	0x3ed92c30	0.42416525
65	0x3e8714dd	0.26383105
66	0x3e08b90d	0.13351841
67	0xbea86f17	-0.32897255
68	0x3ec13e7a	0.37742978
69	0xbef099cf	-0.46992347
70	0xbe9a359a	-0.3011902
71	0xbf30e874	-0.69104695
72	0xbeae04d0	-0.33988047
73	0x3dace40d	0.08441935
74	0x3ec8c251	0.39210752
75	0x3e9ca832	0.30597073
76	0xbeeeba8e	-0.46626705
77	0xbcce3f5c	-0.025176696
78	0x3f0e6ccc	0.5563476
79	0x3f255e38	0.6459689
80	0xbec9816d	-0.39356557
81	0x3cb88c85	0.022527942
82	0xbea3b5b9	-0.3197458
83	0x3f512b2d	0.81706506
84	0x3e628a6b	0.22123115
85	0xbe37a03d	-0.1793222
86	0xbe9f8f8c	-0.31164205
87	0xbec7c7e8	-0.39019704
88	0x3e9039b9	0.2816904
89	0x3cda03cc	0.026613139
90	0x3e8b8458	0.27249408
91	0xbde17deb	-0.11010345
92	0xbe99f3e1	-0.30068877
93	0xbef5cb75	-0.48006788
94	0x3ee84fd3	0.453734
95	0x3f088144	0.53322244
96	0x3d1a0e85	0.037611503
97	0x3e5e0838	0.21682823
98	0xbf019d60	-0.5063076
99	0x3d232e93	0.03983934
100	0xbe5680ce	-0.20947573
101	0xbe522369	-0.2052132
102	0x3e119dde	0.14220378
103	0xbe9733e0	-0.29531765
104	0xbe8c7fbf	-0.27441213
105	0x3e9a8236	0.30177468
106	0xbe2ef68d	-0.17086239
107	0x3ef0edbd	0.4705638

transformer_encoder.layers.1.self_attn.in_proj_bias f4 [18]
0	0xbe37ebf9	-0.1796111
1	0xbe3590eb	-0.17731063
2	0xbe021ea2	-0.12706998
3	0xbc1fce59	-0.009753787
4	0x3d9fa990	0.07796013
5	0xbf0a81df	-0.5410442
6	0xbb0bc07d	-0.0021324449
7	0x3af32443	0.0018550236
8	0xbb16f4eb	-0.0023034166
9	0x3b7130a6	0.0036802678
10	0x3978c965	0.00023726148
11	0xb9abff38	-0.00032805814
12	0x3d230a48	0.039804727
13	0xbd049f5a	-0.032378532
14	0xbd33a4d1	-0.043858353
15	0x3bb6dd0b	0.0055805496
16	0x3d31206f	0.04324382
17	0xbd2f8ebe	-0.04286074

transformer_encoder.layers.1.self_attn.out_proj.weight f4 [6, 6]
0	0x3f165e7f	0.5873794
1	0xbe52b070	-0.20575118
2	0xbf0230c0	-0.50855637
3	0xbe54d19f	-0.20783089
4	0x3ea86968	0.3289292
5	0xbec421fe	-0.38307184
6	0x3d540f94	0.05177267
7	0xbe8f99ca	-0.2804702
8	0x3ce301ac	0.027710758
9	0x3ef2f085	0.47449127
10	0x3e74d5fa	0.2390975
11	0xbed35cba	-0.41281682
12	0xbee75b6e	-0.45186943
13	0xbe2c1976	-0.16806588
14	0x3f000c31	0.500186
15	0x3eff153c	0.49820888
16	0x3e79eaba	0.24405947
17	0xbe154888	-0.1457845
18	0xbd8857cc	-0.06657371
19	0x3f292672	0.6607429
20	0xbeac96fe	-0.33708948
21	0xbd621fda	-0.055206157
22	0x3ecc7571	0.3993335
23	0xbe5e1d75	-0.21690924
24	0x3c569975	0.01309811
25	0xbe97476c	-0.29546678
26	0x3e2f0c45	0.17094524
27	0x3e3d6cf2	0.1849859
28	0x3d770d5b	0.06031547
29	0x3deaade1	0.11458946
30	0xbe77c9ef	-0.24198125
31	0x3d7a3bd4	0.061092213
32	0x3d870f25	0.065946855
33	0xbe11ffa9	-0.14257683
34	0x3e2002b0	0.15626025
35	0x3e8892e4	0.2667457

transformer_encoder.layers.1.self_attn.out_proj.bias f4 [6]
0	0x3da64841	0.0811925
1	0xbd01c879	-0.031685326
2	0x3c9e798d	0.01934507
3	0xbcb1014a	-0.02160706
4	0x3b8e6345	0.00434533
5	0xbbb8991c	-0.0056334864

transformer_encoder.layers.1.linear1.weight f4 [2048, 6]
0	0x3e8fb2bd	0.28066054
1	0xbde162ba	-0.11005159
2	0xbdcb386f	-0.09922873
3	0x3eac2a69	0.33626106
4	0xbd639dd4	-0.05557044
5	0x3d494a0e	0.04914289
6	0x3e68f156	0.22748312
7	0x3e670de9	0.225639
8	0x3e538c68	0.2065903
9	0xbeeb6d7c	-0.45981967
10	0x3d451c55	0.048122723
11	0xbebadd5d	-0.36497012
12	0x3e77c5d6	0.24196562
13	0x3e3f5d94	0.18688041
14	0xbe226cd8	-0.15861833
15	0x3e6470ff	0.2230873
16	0x3e51a260	0.20472097
17	0xbee148da	-0.44000894
18	0x3ee25772	0.4420734
19	0x3cbca0cc	0.023025893
20	0xbdf1a18b	-0.1179839
21	0x3e1f3e6e	0.15551159
22	0x3d2a9c27	0.041652825
23	0x3de2487c	0.110489815
24	0x3e4e38bd	0.20138831
25	0xbec2e5d9	-0.38065985
26	0x3e8641f9	0.26222208
27	0xbe96fdac	-0.2949041
28	0xbeae4c9b	-0.3404282
29	0x3e97ac3e	0.29623598
30	0xbea4047e	-0.32034677
31	0xbb964bc3	-0.004586668
32	0x3db668a7	0.089066796
33	0xbe744a5b	-0.2385649
34	0x3eb5b4c2	0.3548947
35	0x3e6aa32d	0.22913809
36	0x3d6983d7	0.057010498
37	0x3ea64141	0.3247166
38	0x3e916f5d	0.28405276
39	0xbe7b902f	-0.2456672
40	0xbe20c3b7	-0.1569966
41	0xbe446717	-0.1917995
42	0x3db449b3	0.088031195
43	0xbe03f923	-0.12888007
44	0xbd923bb1	-0.071402915
45	0xbef6dd04	-0.48215497
46	0x3e1a139e	0.15046546
47	0x3ea46674	0.32109416
48	0x3ea5a5fb	0.32353196
49	0xbd93149a	-0.07181664
50	0xbe86fcb0	-0.2636466
51	0xbda52642	-0.08063938
52	0x3dc51102	0.096223846
53	0x3dca78eb	0.098863445
54	0xbebe30a2	-0.3714648
55	0x3d7be0a0	0.061493516
56	0x3edd03be	0.43166918
57	0xbe24839d	-0.16065831
58	0xbe58dc11	-0.21177699
59	0xbe9fe6fd	-0.31230918
60	0x3eee59e9	0.4655297
61	0xbe76a781	-0.24087335
62	0x3d24a284	0.04019405
63	0x3b2427be	0.0025048102
64	0xbe4bafa4	-0.1989122
65	0xbf1180ad	-0.5683697
66	0xbe791c7c	-0.24327272
67	0x3e99e71c	0.30059135
68	0xbe34ba64	-0.17649227
69	0x3e07ae2a	0.13250032
70	0xbda9b522	-0.082865015
71	0xbe762ff7	-0.24041735
72	0xbe89d43f	-0.26919743
73	0x3e286e58	0.16448343
74	0x3eae780c	0.34075963
75	0x3e634c26	0.22197017
76	0xbe387a00	-0.1801529
77	0xbe5f6f7e	-0.21819875
78	0xbea9f0c0	-0.3319149
79	0xbdaf2498	-0.085519016
80	0x3e7205c8	0.23635018
81	0x3d90fc8e	0.07079421
82	0xbde2163b	-0.110393964
83	0xbd7104e3	-0.05884255
84	0xbea42002	-0.3205567
85	0xbe9704fc	-0.2949599
86	0xbe86eb5b	-0.26351437
87	0xbd8ed3b5	-0.06973974
88	0xbe78369b	-0.2423958
89	0xbe40a52a	-0.18813005
90	0xbe273e79	-0.16332425
91	0xbdc2ff99	-0.09521408
92	0xbea1e73e	-0.31621736
93	0xbdc07101	-0.09396554
94	0xbcf6d372	-0.030130122
95	0xbe83ff2a	-0.25780612
96	0x3d9f4be4	0.07778147
97	0x3cbd2d8b	0.023093006
98	0xbe49b07d	-0.19696231
99	0x3e2b6aad	0.16739912
100	0x3dc1d3b3	0.094642065
101	0x3ececd63	0.40391073
102	0x3f2b447f	0.6690139
103	0x3e260247	0.16211806
104	0xbeb64184	-0.3559686
105	0x3d703bd1	0.058650795
106	0x3ea5cbe3	0.32382116
107	0x3e126d92	0.1429961
108	0x3c17650d	0.009240401
109	0x3ed7a530	0.42118216
110	0xbe30c56b	-0.17262809
111	0xbe6404cc	-0.22267455
112	0xbe8aa9d4	-0.27082694
113	0xbdfb1fc4	-0.12261918
114	0x3c8d9696	0.017283719
115	0x3e44413e	0.19165513
116	0x3f058c70	0.52167416
117	0x3e5f0537	0.21779333
118	0xbee37966	-0.44428557
119	0x3e364225	0.1779867
120	0x3f06c7ac	0.52648425
121	0x3e05cb29	0.1306578
122	0xbe316e2e	-0.17327186
123	0x3e87e681	0.26543048
124	0xbe265fcf	-0.16247486
125	0xbe79e88a	-0.24405113
126	0x3ed4a7b4	0.41534197
127	0xbe5d1e88	-0.21593678
128	0xbe8976f9	-0.2684858
129	0x3e8399cc	0.25703275
130	0x3da2dfd8	0.07952851
131	0x3e2f2844	0.17105204
132	0x3ed6cd59	0.41953543
133	0x3ed1d0ce	0.40979618
134	0x3eba50ac	0.36389673
135	0xbe03b2c6	-0.12861165
136	0x3df468a4	0.11934021
137	0x3eb68220	0.35646152
138	0xbe273b19	-0.16331138
139	0xbe140ed3	-0.1445878
140	0x3e7d3925	0.2472883
141	0xbd05685d	-0.03257023
142	0xbef925ac	-0.48661554
143	0xbbcdb260	-0.0062773675
144	0x3b92f1d8	0.0044843964
145	0x3eb48c17	0.3526313
146	0xbe8ee6a4	-0.2791034
147	0x3eaa3e5d	0.33250704
148	0xbe98eb8d	-0.2986721
149	0x3dd5f991	0.10447992
150	0x3e39b1ad	0.18134184
151	0x3e76cf4a	0.24102512
152	0x3d6822cf	0.05667382
153	0x3e270cc0	0.16313457
154	0x3e9ee13e	0.3103122
155	0xbe630c50	-0.22172666
156	0x3e7be538	0.24599159
157	0x3e069007	0.1314088
158	0x3e1b1ea9	0.15148415
159	0xbedc8b68	-0.4307511
160	0x3e0f3407	0.1398469
161	0xbe13e5c3	-0.14443116
162	0x3e3b2a73	0.18277912
163	0x3cc1532c	0.02359923
164	0xbe9eac84	-0.30990994
165	0x3cf37d8e	0.029722955
166	0x3e05882f	0.13040231
167	0xbb42221d	-0.0029622384
168	0x3eda36e9	0.42620018
169	0x3e67cc1b	0.22636454
170	0xbd734cce	-0.05939942
171	0x3eadc9d5	0.33943048
172	0xbf0f9c95	-0.560983
173	0xbf0a6769	-0.5406404
174	0x3ed8b346	0.42324275
175	0x3d6b5bc1	0.05746055
176	0xbe8519fc	-0.25996387
177	0xbe653403	-0.22383122
178	0xbe55f28f	-0.2089331
179	0xbdbd12c7	-0.09232097
180	0x3d7eb0ec	0.062180445
181	0xbe36a71d	-0.17837186
182	0x3daac523	0.08338382
183	0x3df46dc4	0.11934999
184	0xbe36ea29	-0.17862763
185	0x3d25239c	0.040317163
186	0x3ed8d4c7	0.42349836
187	0x3e9f8ecc	0.31163633
188	0xbe570b74	-0.21000463
189	0x3d9b4407	0.075813346
190	0x3e15cf27	0.14629804
191	0x3d28cf15	0.041213114
192	0x3eb18c8e	0.34677547
193	0xbcacc5cd	-0.021090413
194	0x3ec5cf6f	0.38634822
195	0xbe09512d	-0.13409872
196	0x3ecd1821	0.4005747
197	0x3e575b75	0.21030982
198	0x3e70148a	0.23445335
199	0x3dc5a88d	0.09651289
200	0x3d87cba5	0.06630639
201	0x3dfa184f	0.12211668
202	0xbe5eff07	-0.21776973
203	0xbe2aa418	-0.1666416
204	0xbebbca57	-0.3667781
205	0xbcf38583	-0.02972675
206	0x3e7518ad	0.23935194
207	0xbe4a7cf5	-0.1977423
208	0xbe914534	-0.2837311
209	0xbe0720c0	-0.13196087
210	0xbe875b0d	-0.26436654
211	0xbdc875f0	-0.0978812
212	0x3dd56d83	0.10421278
213	0x3e5c06de	0.21486995
214	0xbe188a36	-0.14896473
215	0xbf0781eb	-0.52932614
216	0x3e9bb403	0.30410776
217	0x3e5ec380	0.21754265
218	0x3e95d533	0.2926422
219	0xbe70b865	-0.23507841
220	0xbd808d02	-0.06276895
221	0x3e25c35e	0.16187808
222	0x3ef596d0	0.47966623
223	0xbec3a5db	-0.38212475
224	0xbd86afd2	-0.06576504
225	0x3bc9c0ce	0.0061570173
226	0xbdff46cd	-0.12464676
227	0xbd8ea204	-0.06964496
228	0x3f04a8a4	0.51819825
229	0x3ce7caa4	0.028294869
230	0x3d540d81	0.05177069
231	0xbd8dfd63	-0.06933095
232	0xbac91c28	-0.0015343474
233	0x3e180b42	0.14848045
234	0xbe619a37	-0.22031485
235	0x3eb17f69	0.3466752
236	0xbe06d2d6	-0.13166365
237	0xbd6320b8	-0.055451125
238	0x3e207c56	0.1567243
239	0xbe3c8dc5	-0.18413456
240	0x3e0386dc	0.12844414
241	0xbdc77c6b	-0.09740528
242	0x3ebdf528	0.37101102
243	0x3e7539d3	0.2394784
244	0xbd992eac	-0.07479605
245	0xbd956582	-0.07294752
246	0xbe6225ad	-0.22084685
247	0x3ee18e42	0.44053847
248	0xbe9408fb	-0.28913102
249	0x3e4eb19b	0.20184939
250	0x3dd867fd	0.10566709
251	0xbec5f4d9	-0.38663366
252	0xbdeb4395	-0.114874996
253	0xbea033bd	-0.31289473
254	0xbe7ccd9e	-0.24687812
255	0xbec452d5	-0.38344446

transformer_encoder.layers.1.linear1.bias f4 [2048]
0	0x3e22cb47	0.15897857
1	0x3ebd3f6f	0.36962458
2	0xbdacde0d	-0.0844079
3	0xbd86373c	-0.06553504
4	0xbe296855	-0.16543706
5	0xbe7ced32	-0.24699858
6	0xbdaf5367	-0.085608296
7	0xbe89e4e3	-0.2693244
8	0x3e823103	0.25428018
9	0xbea53afe	-0.3227157
10	0x3e288986	0.16458711
11	0x3c2d04e3	0.010560247
12	0xbdfa8731	-0.12232817
13	0x3eb697ff	0.3566284
14	0xbe243d8c	-0.16039103
15	0x3d9d86cc	0.07691726
16	0xbe959635	-0.2921616
17	0xbe7adbcd	-0.2449791
18	0x3ea3167d	0.31853095
19	0xbeac5faa	-0.33666736
20	0x3c47b0ba	0.012188131
21	0xbd581e74	-0.052763417
22	0xbe13c7dd	-0.1443171
23	0xbeb3ac0e	-0.35092205
24	0xbda17707	-0.07884031
25	0x3e9ba383	0.30398187
26	0x3e5e3dfc	0.21703333
27	0x3da88d7b	0.0823011
28	0xbeb0a9a4	-0.34504426
29	0xbed9ceb4	-0.42540514
30	0xbd324e83	-0.043531906
31	0x3df8c552	0.12147011
32	0x3ea8c776	0.32964677
33	0x3e6b6011	0.22985865
34	0x3ec29b23	0.38008985
35	0xbeb2d77b	-0.34930024
36	0x3d4668e9	0.048439894
37	0xbce0344c	-0.027368687
38	0x3e5fd360	0.21857977
39	0x3d04c5c8	0.03241518
40	0xbe95da7f	-0.29268262
41	0xbd3ec58f	-0.046575125
42	0x3e18a4c3	0.14906602
43	0xbe23b411	-0.15986659
44	0xbe4fd0f7	-0.20294558
45	0x3eaf3800	0.34222412
46	0x3e3c4da6	0.18388996
47	0x3d2b02ed	0.041750837
48	0xbe13d312	-0.14435986
49	0x3bcb2865	0.0061998838
50	0x3e8cced3	0.27501544
51	0xbdfe9e75	-0.12432567
52	0xbe9c274e	-0.30498737
53	0x3ea3e696	0.3201186
54	0x3db6f80a	0.089340284
55	0x3e4d51d2	0.20050743
56	0x3d11d470	0.035602987
57	0xbe51c363	-0.2048469
58	0xbe9efaa5	-0.31050602
59	0xbe40bff6	-0.18823227
60	0x3e93d111	0.28870443
61	0xbe793db0	-0.24339938
62	0x3db426a7	0.08796435
63	0x3dfba01a	0.12286396
64	0x3ebd3603	0.3695527
65	0xbe9966f2	-0.29961354
66	0xbdfc50ec	-0.12320122
67	0x3e8f17bd	0.27947798
68	0xbda6e61a	-0.08149357
69	0xbe80ece4	-0.25180733
70	0xbdbdd0dd	-0.09268353
71	0x3e9e6927	0.309396
72	0xbeb32f9d	-0.34997264
73	0xbeee86a3	-0.46587095
74	0xbebbc7c1	-0.36675838
75	0x3d92d602	0.07169725
76	0xbe87ef2b	-0.26549658
77	0xbeb6bd94	-0.35691512
78	0x3dba51c6	0.09097628
79	0xbe4786dd	-0.1948504
80	0x3d517229	0.051134262
81	0x3de8bbbf	0.11363935
82	0xbdab99ec	-0.08378968
83	0x3e918f97	0.28429863
84	0xbe1821a0	-0.14856577
85	0x3c462523	0.012093815
86	0xbdb39f0f	-0.087705724
87	0x3d429ead	0.047514606
88	0xbd9c2cf0	-0.07625759
89	0xbd8133dc	-0.063087195
90	0x3dbe18e6	0.09282093
91	0x3ea8ebfa	0.32992536
92	0x3eb7051e	0.35746092
93	0xbcc1e086	-0.023666631
94	0xbda53b74	-0.080679804
95	0x3d4ecc8d	0.050488044
96	0x3e930e3f	0.28721806
97	0x3d82d3d9	0.06388063
98	0x3e2f84ac	0.17140454
99	0xbe99550f	-0.29947707
100	0xbc1e6748	-0.009668179
101	0x3e9fb445	0.31192222
102	0x3e05e9ff	0.13077544
103	0x3e94cac7	0.29060957
104	0x3eb13be9	0.3461602
105	0x3e02ee0c	0.1278612
106	0xbd2466fe	-0.040137284
107	0x3e7d8505	0.24757774
108	0xbe11e646	-0.14247999
109	0x3e2ade74	0.16686422
110	0x3e57b06e	0.21063396
111	0x3d9dbfaf	0.07702576
112	0x3e370097	0.17871319
113	0xbe5143a9	-0.20435967
114	0x3e1ba801	0.15200807
115	0x3df0abad	0.117514946
116	0x3e346279	0.1761569
117	0x3eb595b9	0.35465792
118	0x3e92d2fb	0.2867659
119	0xbed0a1dc	-0.4074849
120	0x3dab5acb	0.08366927
121	0x3eb40664	0.35161126
122	0xbede6e06	-0.43443316
123	0xbdebe65c	-0.11518547
124	0xbdc8ffac	-0.098143905
125	0xbd1736cd	-0.036917496
126	0xbd5b6983	-0.05356742
127	0x3dacbb60	0.084341764
128	0x3ea6a648	0.32548738
129	0x3e9a4116	0.30127782
130	0x3e9ed6ab	0.31023154
131	0x3e784129	0.24243607
132	0xbe069a9d	-0.13144918
133	0xbb8214c2	-0.0039697597
134	0xbe2227e9	-0.15835537
135	0x3dceaa9d	0.10091136
136	0x3ea23a3e	0.3168506
137	0x3e5bc2b0	0.21460986
138	0xbe1f5975	-0.15561469
139	0xbe718c32	-0.23588637
140	0xbeab87bb	-0.33501992
141	0x3dc5276a	0.09626658
142	0x3c957f3d	0.018249149
143	0x3d498a96	0.04920443
144	0xbd114893	-0.035469603
145	0xbdb20a90	-0.08693421
146	0xbec8a302	-0.39186865
147	0x3e34f500	0.17671585
148	0xbdfe4d03	-0.124170326
149	0x3e37599e	0.1790528
150	0xbe4a49ae	-0.19754669
151	0xbca4e080	-0.020126581
152	0x3e8aed20	0.27134037
153	0xbe26b7fd	-0.16281123
154	0x3e32892f	0.17435144
155	0xbd26bd3f	-0.040707823
156	0x3e155988	0.14584935
157	0xbe82c0bb	-0.25537667
158	0x3ea7619f	0.32691666
159	0xbe7be07d	-0.24597354
160	0xbcd12be7	-0.02553363
161	0x3d855c85	0.06511787
162	0xbe826111	-0.2546468
163	0x3e726a7a	0.2367343
164	0x3e186ea9	0.14885963
165	0xbe322ab2	-0.173991
166	0x3ea241df	0.3169088
167	0xbe939300	-0.2882309
168	0x3ebb3eb8	0.36571288
169	0xbdbb683a	-0.09150739
170	0xbe8f5930	-0.27997732
171	0xbe227143	-0.15863518
172	0x3e6e1e3a	0.23253718
173	0xbeb23bc2	-0.34811217
174	0xbe85dc3c	-0.26144588
175	0xbeb9ae61	-0.36265853
176	0xbd20649e	-0.039158456
177	0xbead652a	-0.33866245
178	0x3e77b588	0.24190342
179	0x3e2f1956	0.17099509
180	0x3def2989	0.11677844
181	0xbe2d1ce9	-0.1690556
182	0x3dc72238	0.097233236
183	0xbb208be0	-0.0024497434
184	0x3e4735be	0.19454095
185	0xbd87503d	-0.06607101
186	0xbe249a8e	-0.16074583
187	0xbe0e3d99	-0.13890685
188	0xbe84e7be	-0.25958055
189	0xbd317e4a	-0.04333333
190	0xbe8d6a51	-0.27620175
191	0xbea7b495	-0.3275496
192	0x3e005696	0.1253303
193	0x3ebbf5f0	0.36711073
194	0xbee64d48	-0.44980836
195	0xbeb76c7a	-0.3582495
196	0xbe4ae013	-0.1981204
197	0x3e789663	0.24276118
198	0xbe8e2452	-0.27762085
199	0xbe6b48f0	-0.22977042
200	0x3e0397f9	0.12850942
201	0xbea20356	-0.3164317
202	0x3e8756c4	0.26433384
203	0x3dbca04c	0.09210262
204	0x3e99637a	0.29958707
205	0xbe353288	-0.17695057
206	0x3e7d299c	0.24722904
207	0xbed1be51	-0.40965512
208	0xbe1dafa5	-0.15399034
209	0xbec3ed0b	-0.38266787
210	0xbdd6ff40	-0.10497904
211	0x3eb72b84	0.35775387
212	0x3da374b9	0.079812475
213	0x3eb4d78b	0.35320696
214	0x3e8026b1	0.2502952
215	0xbedd9a16	-0.4328162
216	0x3e421d2b	0.18956439
217	0x3e8ad841	0.27118114
218	0x3dc0d9a2	0.0941651
219	0xbeac5781	-0.3366051
220	0x3bdb23c2	0.0066876123
221	0xbe8b81c0	-0.2724743
222	0xbeafa353	-0.34304294
223	0x3e806e34	0.25084078
224	0xbedbc06b	-0.4292024
225	0x3e3df56f	0.18550657
226	0xbede6327	-0.43435022
227	0x3dea2023	0.11431911
228	0xbe913100	-0.28357697
229	0xbe75af61	-0.23992683
230	0x3d11f3b3	0.0356328
231	0x3ea1d350	0.3160653
232	0x3e71afc4	0.23602206
233	0xbebc1a8c	-0.36739004
234	0x3d442e3d	0.04789566
235	0xbdbdae6e	-0.092617854
236	0x3c38c40b	0.011277209
237	0xbe524245	-0.20533092
238	0xbeb2a1cf	-0.34889075
239	0xbedc0268	-0.42970586
240	0x3d4c895b	0.04993568
241	0x3d8b9912	0.06816305
242	0xba8f7bdf	-0.0010946951
243	0x3e39d0d0	0.18146062
244	0x3e9979f8	0.29975867
245	0xbe7ea0fa	-0.24866095
246	0x3eb22dfe	0.34800714
247	0x3e923a02	0.2855988
248	0xbd2ec9c3	-0.042672884
249	0xbee14cf2	-0.44004017
250	0xbe855a22	-0.26045328
251	0xbda30c17	-0.0796129
252	0xbd9b5f2b	-0.07586511
253	0x3e88d044	0.26721394
254	0x3e3db571	0.18526246
255	0x3e5a6092	0.21325901

transformer_encoder.layers.1.linear2.weight f4 [6, 2048]
0	0xbc5e6ea3	-0.013576183
1	0x3de51a05	0.111866035
2	0xbdcdfe7a	-0.10058303
3	0xbc2e8e52	-0.010654049
4	0x3da14111	0.078737386
5	0xbd892676	-0.06696789
6	0x3dc8dd1e	0.098078
7	0xbc6b6423	-0.014367136
8	0x3b6e0b9e	0.0036322842
9	0xbd4f3a00	-0.050592422
10	0xbdff74eb	-0.12473472
11	0xbd11d9a6	-0.035607956
12	0x3c3aed4d	0.011409116
13	0xbbda1c37	-0.0066561955
14	0xbc93050e	-0.017946746
15	0xbd037ea1	-0.032103185
16	0xbd337d9e	-0.04382097
17	0x3c0372e8	0.008023001
18	0x3d88c8d6	0.066789314
19	0x3dab179c	0.083541125
20	0xbc24cadc	-0.010058131
21	0xbcad1e63	-0.021132654
22	0x3de3ccf9	0.1112308
23	0x3e2c3203	0.16815953
24	0xbc797c5f	-0.015227406
25	0xbcc0e81b	-0.023548177
26	0xbd252bda	-0.040325023
27	0xbc8d5861	-0.017254056
28	0x3d33e93e	0.04392361
29	0x3d8b5374	0.06803027
30	0xbae3d8d9	-0.0017383351
31	0x3cb7a8f7	0.022419436
32	0x3c5db573	0.01353203
33	0xbc33b37e	-0.010968087
34	0x3ab15acf	0.0013531091
35	0xbc336f91	-0.0109518925
36	0x3da3e4ac	0.080026
37	0x3d9a47eb	0.075332485
38	0x3d648f66	0.055800818
39	0x3cbeaa5f	0.023274599
40	0x3c3817a5	0.011236106
41	0xbd6e0549	-0.05811051
42	0xbc475ce2	-0.012168141
43	0xbcee00e8	-0.029053167
44	0xbce000a7	-0.027344061
45	0x3d107cf7	0.035275426
46	0x3ac379a0	0.0014913566
47	0xbc8ac74e	-0.016940739
48	0xbd378aa0	-0.044809937
49	0x3e24b4b3	0.16084556
50	0xbd0a7ea7	-0.03381219
51	0x3b6e0a66	0.0036322116
52	0x3d23eae8	0.040018946
53	0x3d030902	0.031991012
54	0xb96ee09c	-0.00022781122
55	0x3db605c0	0.088878155
56	0x3ce4f998	0.027951047
57	0xbd16cf7e	-0.036818974
58	0x3d83454f	0.06409704
59	0xba0144dd	-0.0004931221
60	0x3d03eeca	0.03221015
61	0xbdbdc3c5	-0.09265856
62	0x3dd613bc	0.10452983
63	0x3c817095	0.015800754
64	0xbd1525a0	-0.036412835
65	0x3cd5281c	0.026020102
66	0x3d0d94a4	0.034565583
67	0x3d050a5b	0.03248058
68	0xbb338751	-0.0027393887
69	0x3d6a90e4	0.057267085
70	0xbda03b4b	-0.07823809
71	0xbcb1123b	-0.021615138
72	0x3c302458	0.0107508525
73	0x3cbfb54c	0.023401879
74	0x3e5e9ff4	0.21740705
75	0x3b278545	0.0025561613
76	0x3dabe09c	0.0839245
77	0x3cc15bb0	0.02360329
78	0xbd1f2a3b	-0.038858633
79	0x3e20de83	0.15709881
80	0x3c42b75b	0.011884536
81	0xbd2cfcb3	-0.04223318
82	0xbcfa02e8	-0.030518964
83	0x3cb23657	0.021754427
84	0x3d938882	0.07203771
85	0x3c713af5	0.014723529
86	0xbd5de7fa	-0.05417631
87	0xbce46943	-0.027882224
88	0xbd26c385	-0.040713806
89	0x3ca8ab8d	0.020589614
90	0xbbdecc57	-0.0067992616
91	0xbd0880c3	-0.03332592
92	0x3d84d55c	0.064860076
93	0xbc6db900	-0.0145094395
94	0x3c1b34b0	0.009473011
95	0x3df39615	0.1189386
96	0xbd7bcfeb	-0.061477583
97	0x3d914ed5	0.07095114
98	0x3ccc5c81	0.024946453
99	0xbd3e0645	-0.046392698
100	0x3d210f59	0.039321277
101	0xbbdb661b	-0.0066955215
102	0xbc26ad1c	-0.010173108
103	0x3dcc164a	0.09965189
104	0x3d9793f2	0.07401265
105	0xbb78e996	-0.0037981025
106	0xbad6e28a	-0.0016394418
107	0xbccc6c26	-0.024953913
108	0xbc857f5c	-0.016296081
109	0xbcba9b6a	-0.022779185
110	0x3d1d1978	0.038354367
111	0x3c0618cd	0.008184624
112	0xbc29d3ad	-0.010365409
113	0xbd25ffb9	-0.04052708
114	0xbd916320	-0.07098985
115	0x3db2ca3f	0.08729982
116	0x3de2beb1	0.11071528
117	0x3e1b65da	0.15175572
118	0xbc6ff182	-0.014644982
119	0xbe05019b	-0.12988894
120	0xbc95b6ef	-0.018275706
121	0xbd312404	-0.043247238
122	0xbc2f8c93	-0.010714668
123	0x3ce0c8cc	0.027439497
124	0xbbba51c9	-0.005686019
125	0x3bd282a3	0.0064242645
126	0x3d0ae0ce	0.033905797
127	0x3d1c6cee	0.03818982
128	0x3c350f71	0.011051045
129	0x3d0498b2	0.032372184
130	0x3d876c8f	0.06612503
131	0x3ce71ab4	0.028210975
132	0xbd0c6f2a	-0.0342857
133	0xbc8a713e	-0.016899701
134	0x3e31575f	0.17318486
135	0x3c5404e7	0.012940622
136	0xbca40505	-0.020021925
137	0x3cd5c591	0.026095184
138	0x3d096b9d	0.033549894
139	0x3c17c0f7	0.009262315
140	0x3e62d62b	0.22152011
141	0xbc8ff411	-0.017572435
142	0xbcd623a9	-0.026140051
143	0x3d35be20	0.04437077
144	0xbcbc6f81	-0.023002388
145	0x3d3e6c47	0.04648998
146	0xbe05210e	-0.1300089
147	0xbc3f8a6c	-0.011690717
148	0xbcee2194	-0.029068746
149	0xbd50138d	-0.050799895
150	0x3e06688b	0.13125817
151	0xbd1f3f8a	-0.038878955
152	0xbe4a1402	-0.19734195
153	0x3c90b511	0.017664464
154	0xbcbb55e3	-0.022868102
155	0x3d6a4033	0.05719013
156	0x3de2ae13	0.11068358
157	0x3e12918b	0.14313333
158	0xbcc06207	-0.023484243
159	0x3a242a4f	0.0006262408
160	0x3bb80da7	0.005616862
161	0xbce229bd	-0.027607793
162	0xbca5ceae	-0.020240154
163	0xbd38f5e5	-0.04515638
164	0x3d5277fe	0.051383965
165	0x3e54a5cd	0.20766373
166	0xba618e75	-0.00086042966
167	0x3ac87bed	0.0015295722
168	0xbcd9425b	-0.026520899
169	0x3c789671	0.015172587
170	0x3a05b41f	0.00051003875
171	0x3e4ca24d	0.19983788
172	0xbd400ce0	-0.04688728
173	0x3d9db61a	0.07700749
174	0xbc8bfa83	-0.017087227
175	0x3d30dc5a	0.043178894
176	0xbd0fa417	-0.035068598
177	0xbe010303	-0.12598805
178	0xbb9cb93c	-0.004782824
179	0x3c76d635	0.015065719
180	0x3d04f066	0.032455824
181	0xbc91fe75	-0.01782153
182	0xbd05be10	-0.03265196
183	0x3c9495c0	0.018137813
184	0x3adfb25e	0.0017066707
185	0x3d75f69b	0.060049634
186	0xbd5c3da1	-0.05376971
187	0xbc2c11e2	-0.0105023105
188	0x3e1a9bdd	0.1509852
189	0x3d878fb6	0.066192076
190	0xbc5a3ee0	-0.013320655
191	0x3cd585de	0.02606481
192	0x3b2c7c42	0.002631918
193	0xbce12371	-0.02748272
194	0xbcd51591	-0.02601126
195	0x3d17c8c5	0.037056703
196	0x3b3dcfd1	0.002896298
197	0xbcd2fef9	-0.025756346
198	0x3dcac8ee	0.099016055
199	0x3de08067	0.10961991
200	0xbd3439a2	-0.044000275
201	0x3e052952	0.13004044
202	0xbcab98b5	-0.02094684
203	0xbd19a66d	-0.03751223
204	0x3ac7beb9	0.0015239335
205	0xbca65478	-0.02030395
206	0x3cfd52ca	0.030923266
207	0x3c4e4d1d	0.012591627
208	0x3dd1d029	0.102447815
209	0x3dbd637c	0.09247491
210	0xbd747f23	-0.05969156
211	0x3de619e2	0.112354055
212	0x3ddea06f	0.10870444
213	0x3ce7a61e	0.028277453
214	0xbbb9e57e	-0.0056731096
215	0x3d2e809f	0.04260313
216	0xbd21656a	-0.039403357
217	0xbc4346e8	-0.011918761
218	0xbbd5b7c1	-0.0065221493
219	0xbc969063	-0.018379396
220	0xbcada135	-0.021195034
221	0xbdc65873	-0.09684839
222	0xbc5ae0ad	-0.013359231
223	0x3c5d8b0f	0.013521924
224	0x3d267e44	0.04064776
225	0x3c7b5184	0.015339259
226	0x3d0bfc9b	0.03417645
227	0x3d85506e	0.06509481
228	0xbda668e5	-0.08125476
229	0xbd9a9bac	-0.07549223
230	0xbcf8a96f	-0.03035423
231	0x3c8686ac	0.016421638
232	0xbcff016a	-0.031128604
233	0xbc28e344	-0.010308091
234	0xbd20abf1	-0.039226476
235	0x3b0442d7	0.0020181441
236	0x3d247dc5	0.040159006
237	0xbd1b6c3a	-0.03794501
238	0x3ccb9091	0.024849208
239	0x3d5acea8	0.05341974
240	0xbd0084ad	-0.03137653
241	0x3c1884ad	0.009308976
242	0x3b1f1edf	0.0024279875
243	0xbd57e4a3	-0.05270828
244	0x3cdf8091	0.027282985
245	0x3de31718	0.11088389
246	0x3d5c23ab	0.053744953
247	0x3d6cf66a	0.057852186
248	0x3acb25f4	0.0015498982
249	0xbd2f3f1a	-0.042784788
250	0x3e04a6c4	0.12954241
251	0x3e404814	0.18777496
252	0xbc9d6e1b	-0.019217541
253	0xbc887236	-0.016656023
254	0xbbed23bb	-0.0072369254
255	0xbcd86eb7	-0.02641998

transformer_encoder.layers.1.linear2.bias f4 [6]
0	0xbc482340	-0.0122154355
1	0xbc58494a	-0.013201067
2	0x3c9a6f60	0.018851936
3	0x3c4a24c1	0.012337864
4	0xbc544604	-0.012956146
5	0xbcc945f7	-0.024569495
