Production_Environment/best_model_extended_heuristicjul_tr.3.40.pth (torch, 474718 bytes, 29 tensors)

norm.weight f4 [6]
1.0 1.0 1.0 1.0 1.0 1.0
00000000: 0000 803f 0000 803f 0000 803f 0000 803f
00000010: 0000 803f 0000 803f

norm.bias f4 [6]
0.0 0.0 0.0 0.0 0.0 0.0
00000000: 0000 0000 0000 0000 0000 0000 0000 0000
00000010: 0000 0000 0000 0000

transformer_encoder.layers.0.self_attn.in_proj_weight f4 [18, 6]
0.25565794 -0.37023783 0.50269693 0.09929402 0.33095798 -0.37091312 -0.25040334 -0.12987977
0.08426162 -0.14271136 0.08760555 -0.24331926 0.008473779 -0.21811981 -0.4596062 -0.054147888
-0.19032954 -0.34606674 -0.37703946 0.321723 0.22560363 -0.09294972 0.46294072 0.2554137
-0.22475383 -0.3032258 0.19926299 -0.18450181 0.3148226 -0.047244284 0.16909398 -0.31213573
-0.4364926 -0.4053726 0.050036736 0.40371656 -0.17986198 0.051111385 -0.056785114 0.41225943
-0.18742055 0.49568883 -0.31155822 0.12691739 -0.008996917 -0.4254672 -0.118760735 0.26005697
0.4922214 0.42547575 0.18580219 -0.27797136 0.0029638596 0.11577219 0.36265102 0.43599942
-0.13864167 0.23964463 0.53038156 0.22789712 -0.27544764 0.11423071 0.2028985 -0.14977361
-0.091592446 -0.24107741 -0.07537513 0.4341523 0.33862668 0.23936482 -0.082781 0.06548431
0.27617434 0.7400859 1.0921792 0.42147407 0.7287671 -0.18148908 -1.4821292 -0.02786954
-0.48041618 0.4436422 0.2341411 -0.0074151633 0.31035346 -0.13418248 -0.25297442 0.27527958
-0.71475774 0.5107102 -0.22516765 0.45635033 -0.15107578 -0.12825502 0.3366481 0.38138562
-0.6119391 -0.50994736 -0.38620108 -0.15236524 -0.47594786 0.06423826 0.21727772 0.08589464
-0.7424 -0.005473319 -0.32488015 -0.45430195
00000000: 99e5 823e d08f bdbe bfb0 003f aa5a cb3d
00000010: 5373 a93e 53e8 bdbe de34 80be 34ff 04be
00000020: 5b91 ac3d ed22 12be 8a6a b33d af28 79be
00000030: 9bd5 0a3c cd5a 5fbe 8151 ebbe 2dca 5dbd
00000040: bfe5 42be a92f b1be 510b c1be e1b8 a43e
00000050: a304 673e 6c5c bebd 9106 ed3e 96c5 823e
00000060: de25 66be 6940 9bbe 990b 4c3e 0bee 3cbe
00000070: 6e30 a13e 3983 41bd f926 2d3e 41d0 9fbe
00000080: f57b dfbe ff8c cfbe 52f3 4c3d f0b3 ce3e
00000090: bd2d 38be 2c5a 513d 8297 68bd ab13 d33e
000000a0: 2ceb 3fbe edca fd3e 8f84 9fbe a2f6 013e
000000b0: ce67 13bc d6d6 d9be d438 f3bd 3026 853e
000000c0: 7104 fc3e f5d7 d93e ee42 3e3e 4352 8ebe
000000d0: 503d 423b f819 ed3d 65ad b93e 513b df3e
000000e0: 15f8 0dbe 6765 753e 16c7 073f dd5d 693e
000000f0: 7907 8dbe caf1 e93d a0c4 4f3e 415e 19be
00000100: d294 bbbd ffdc 76be 475e 9abd 3649 de3e
00000110: 7a60 ad3e 0d1c 753e 1689 a9bd a31c 863d
00000120: b966 8d3e 4576 3d3f 87cc 8b3f 73cb d73e
00000130: 7b90 3a3f 46d8 39be 69b6 bdbf a94e e4bc
00000140: 1cf9 f5be 1225 e33e afc2 6f3e e6fa f2bb
00000150: a6e6 9e3e 2267 09be dd85 81be 72f1 8c3e
00000160: 5dfa 36bf e7bd 023f 5992 66be c0a6 e93e
00000170: 9cb3 1abe 4955 03be 245d ac3e fa44 c33e
00000180: 0aa8 1cbf e98b 02bf 26bc c5be a205 1cbe
00000190: 70af f3be 598f 833d 0d7e 5e3e 87e9 af3d
000001a0: ed0d 3ebf 8759 b3bb b156 a6be 449a e8be

transformer_encoder.layers.0.self_attn.in_proj_bias f4 [18]
0.028019497 0.020962851 -0.107480414 0.10180742 0.011200072 -0.046435885 0.09126868 -0.107874796
0.009871077 0.027635893 0.055997536 0.070634246 0.6629596 -0.12879756 0.02788874 0.26443285
-0.36376226 -0.09926623
00000000: 2589 e53c 49ba ab3c b11e dcbd 6980 d03d
00000010: 8280 373c 8e33 3ebd 13eb ba3d 76ed dcbd
00000020: 4cba 213c ab64 e23c ac5d 653d b0a8 903d
00000030: b8b7 293f 82e3 03be ed76 e43c be63 873e
00000040: 0c3f babe 184c cbbd

transformer_encoder.layers.0.self_attn.out_proj.weight f4 [6, 6]
-0.15723568 0.26404735 -0.18196629 -0.074101515 -0.062879466 -0.06071457 0.15276186 -0.26292014
0.13640755 -0.25684345 0.42282456 -0.26323366 0.2744754 -0.41546047 0.17542616 -0.27832472
-0.25924787 -0.5260082 0.2807781 -0.30636215 -0.16709992 -0.3482431 0.035851467 0.016203212
0.36768946 0.3999307 0.13130447 -0.1278377 0.029242067 0.07116093 -0.20259422 0.41650447
0.2101591 -0.16038075 0.23828472 0.57873505
00000000: 6402 21be 3731 873e 5f55 3abe 89c2 97bd
00000010: f3c6 80bd d7af 78bd 9b6d 1c3e 789d 86be
00000020: 6cae 0b3e fc80 83be 767c d83e 90c6 86be
00000030: 0a88 8c3e 3cb7 d4be eaa2 333e 9480 8ebe
00000040: 23bc 84be 79a8 06bf 26c2 8f3e 80db 9cbe
00000050: 3e1c 2bbe eb4c b2be fdd8 123d 99bc 843c
00000060: cb41 bc3e b7c3 cc3e ae74 063e e3e7 02be
00000070: 0f8d ef3c d2bc 913d dc74 4fbe 1340 d53e
00000080: f233 573e da3a 24be e900 743e fb27 143f

transformer_encoder.layers.0.self_attn.out_proj.bias f4 [6]
-0.24821128 -0.28358966 0.34346056 -0.16457449 0.3016261 -0.89615667
00000000: 192b 7ebe aa32 91be 10da af3e 3786 28be
00000010: bc6e 9a3e 866a 65bf

transformer_encoder.layers.0.linear1.weight f4 [2048, 6]
-0.2314725 -0.23208357 0.29297924 -0.45242286 -0.011743976 0.16494149 0.02798014 -0.03584292
-0.20833947 -0.13695769 -0.17636554 -0.23956743 -0.09776536 0.23008342 0.15642053 0.42602193
-0.27558744 -0.09431467 -0.13751695 0.48158357 0.056193046 -0.5129632 -0.16823158 -0.103517324
0.084564574 0.2569425 -0.3325667 0.27988777 0.057495464 -0.3370259 0.0920443 0.32317224
0.10009872 -0.3787358 0.3639805 0.08981275 0.09686444 -0.22149494 -0.32964584 -0.08849753
0.36081013 0.27153173 0.12917821 0.12890066 0.2739955 -0.34819493 0.34613955 0.117009796
0.30836955 -0.19426142 -0.079929814 0.12258023 0.045730777 -0.23973048 0.048141737 0.44893616
0.39835757 0.28920028 0.23947155 0.16030246 -0.18028435 -0.41764626 0.36613774 -0.05936813
-0.023777433 -0.48623866 0.015532246 0.007868713 -0.13915616 -0.054291457 0.2643162 0.002555619
0.044378504 -0.12632127 -0.22843574 -0.23243186 0.27998415 0.04817969 0.08511096 -0.33300218
0.17300227 -0.08352078 0.2889271 -0.107092336 -0.16459258 -0.16985399 0.07498879 0.13217294
-0.2895895 -0.20434937 0.067673825 0.10306431 -0.28328717 -0.0646148 0.3421142 -0.17795086
0.15216218 -0.12276646 -0.29414806 -0.1664422 0.078186646 0.13493185 -0.0831165 -0.15191093
-0.20035733 0.21569379 -0.44196212 -0.085699126 0.37092203 -0.24642587 -0.29756474 -0.7016059
-0.3155719 0.15701547 -0.11023154 -0.21261516 0.12884128 0.062634766 0.31581467 0.25761127
0.16958064 -0.088069394 -0.34144273 -0.42095622 -0.068511255 0.4296183 -0.09107281 -0.16940309
0.4915329 -0.38059795 -0.12882836 -0.25269577 0.07384201 0.23237248 0.20189112 0.05501604
-0.0012814754 0.07368389 -0.15137434 0.46661198 0.016413402 0.2406309 0.27774504 -0.2749325
-0.061213534 -0.26487735 -0.31898272 -0.22823678 0.3227818 0.24915868 -0.007322297 -0.110159405
0.19958137 -0.32060084 0.0005010076 -0.22135277 -0.31452602 0.043783963 0.0099459095 0.04370747
-0.43455216 0.57031995 -0.30721143 0.44118908 -0.05314134 0.2631753 -0.13833036 -0.11100693
0.11998726 -0.24849883 0.22171448 -0.5746041 -0.21384281 -0.30653653 0.2753816 -0.15019156
0.028251234 -0.15284222 0.027072344 0.4718093 -0.21104193 -0.05328771 -0.0028290055 0.13984095
-0.4087612 0.5045249 -0.23914273 -0.33903775 0.14794427 0.2961722 -0.32455754 0.37134033
-0.2637032 0.07835285 0.39296806 -0.1048451 -0.5608659 -0.2227676 0.35937828 -0.22285232
-0.24170686 -0.3887899 0.40958464 -0.12064377 0.17376179 0.1968774 -0.108100094 -0.04162271
-0.28459045 -0.4715215 -0.030362386 -0.05202688 -0.0941184 0.08266581 0.32432285 -0.023022218
-0.26312932 -0.13290508 -0.09883591 -0.24496758 0.06474509 -0.22264522 -0.19944312 -0.13244821
-0.216243 -0.12252772 -0.3667299 -0.3601102 0.6058133 -0.12041029 -0.36512774 -0.14698574
-0.30062428 0.26250345 0.31670642 -0.21050964 -0.40523276 0.25457373 -0.2723797 0.2105626
0.2890188 0.13191755 -0.07076619 -0.3225023 -0.26997542 0.49283102 -0.037061267 -0.21796493
-0.45906645 -0.2397004 -0.37127545 0.09660106 -0.22163269 -0.1779056 0.3707737 0.047466613
00000000: 2107 6dbe 51a7 6dbe 6001 963e f8a3 e7be
00000010: ce69 40bc 6ce6 283e 9b36 e53c 07d0 12bd
00000020: f156 55be a33e 0cbe 2b99 34be 2a51 75be
00000030: 3439 c8bd fd9a 6b3e b42c 203e 8c1f da3e
00000040: cc19 8dbe 0d28 c1bd 3ed1 0cbe 1f92 f63e
00000050: ae2a 663d 8e51 03bf e644 2cbe e400 d4bd
00000060: 3130 ad3d f88d 833e 2f46 aabe 734d 8f3e
00000070: 5d80 6b3d a98e acbe b981 bc3d d576 a53e
00000080: 8f00 cd3d a9e9 c1be a75b ba3e bfef b73d
00000090: dd60 c63d 92cf 62be 57c7 a8be 313e b5bd
000000a0: 1bbc b83e 3506 8b3e 4b47 043e 89fe 033e
000000b0: 2349 8c3e 9b46 b2be 3439 b13e d5a2 ef3d
000000c0: 9de2 9d3e 77ec 46be 3eb2 a3bd 580b fb3d
000000d0: 3250 3b3d e87b 75be 4530 453d f6da e53e
000000e0: 86f5 cb3e 0f12 943e 0838 753e 5426 243e
000000f0: 769c 38be bbd5 d5be 6876 bb3e ff2b 73bd
00000100: e4c8 c2bc 46f4 f8be f67a 7e3c c6eb 003c
00000110: f47e 0ebe b860 5ebd 7454 873e 2c7c 273b
00000120: 3cc6 353d 5d5a 01be 0feb 69be 9e02 6ebe
00000130: 155a 8f3e 1158 453d a84e ae3d 437f aabe
00000140: 8227 313e f10c abbd 41ee 933e 3a53 dbbd
00000150: f58a 28be 34ee 2dbe b993 993d 5858 073e
00000160: 1345 94be f640 51be 9398 8a3d 6213 d33d
00000170: 040b 91be c454 84bd 9829 af3e c038 36be
00000180: 67d0 1b3e fb6c fbbd 939a 96be d36f 2abe
00000190: 5220 a03d 932b 0a3e fc38 aabd 8a8e 1bbe
000001a0: 792a 4dbe d5de 5c3e dc48 e2be 0683 afbd
000001b0: 7ee9 bd3e 1057 7cbe 685a 98be 729c 33bf
000001c0: a492 a1be aac8 203e 13c1 e1bd cab7 59be
000001d0: f8ee 033e a846 803d 76b2 a13e a0e5 833e
000001e0: 8ca6 2d3e ba5d b4bd 95d1 aebe 9387 d7be
000001f0: a14f 8cbd eef6 db3e 6284 babd 0178 2dbe
00000200: 33aa fb3e bcdd c2be 95eb 03be 5761 81be
00000210: 7b3a 973d 0df3 6d3e 8cbc 4e3e 8058 613d
00000220: 2ef7 a7ba 94e7 963d e001 1bbe c4e7 ee3e
00000230: 6675 863c f267 763e 9934 8e3e f4c3 8cbe
00000240: 0bbb 7abd 019e 87be b451 a3be e7b6 69be
00000250: a843 a53e 7423 7f3e e1ef efbb 419b e1bd
00000260: 0f5f 4c3e cb25 a4be 0d56 033a 4daa 62be
00000270: 8e09 a1be d056 333d 2bf4 223c 9b06 333d
00000280: 9f7d debe 7d00 123f d14a 9dbe 89e3 e13e
00000290: bcaa 59bd eabe 863e 79a6 0dbe 9a57 e3bd
000002a0: e1bb f53d 7a76 7ebe 1f09 633e 4119 13bf
000002b0: 9cf9 5abe 5bf2 9cbe d1fe 8c3e d1cb 19be
000002c0: 226f e73c ac82 1cbe d2c6 dd3c fd90 f13e
000002d0: 601b 58be 3744 5abd d666 39bb 7732 0f3e
000002e0: 2649 d1be 8b28 013f d5e1 74be 5b96 adbe
000002f0: b47e 173e e2a3 973e 682c a6be 5220 be3e
00000300: 1b04 87be 7677 a03d 1c33 c93e 07b9 d6bd
00000310: e894 0fbf 311d 64be 6e00 b83e 6633 64be
00000320: 0182 77be 780f c7be 14b5 d13e 1514 f7bd
00000330: 9cee 313e 3b9a 493e 9563 ddbd 937c 2abd
00000340: d7b5 91be 446b f1be 8aba f8bc 231a 55bd
00000350: 26c1 c0bd b14c a93d a50d a63e 1799 bcbc
00000360: e3b8 86be 4518 08be 7b6a cabd c8d8 7abe
00000370: 1399 843d 1cfd 63be d13a 4cbe 81a0 07be
00000380: ce6e 5dbe d0ef fabd 05c4 bbbe 5d60 b8be
00000390: 9516 1b3f ac99 f6bd 06f2 babe 6e83 16be
000003a0: 6deb 99be da66 863e 5827 a23e d78f 57be
000003b0: ab7a cfbe 7d57 823e 5a75 8bbe b99d 573e
000003c0: 46fa 933e 6515 073e dded 90bd 051f a5be
000003d0: 383a 8abe 5954 fc3e 8ecd 17bd 3332 5fbe
000003e0: c20a ebbe 0674 75be d117 bebe c7d6 c53d
000003f0: aef3 62be e32c 36be 0dd6 bd3e 5a6c 423d

transformer_encoder.layers.0.linear1.bias f4 [2048]
-0.12629227 -0.4328481 -0.38307512 -0.29406944 -0.12652332 -0.3400384 -0.37499186 -0.186138
0.092963606 0.08041278 -0.27187958 -0.08893358 0.11655018 -0.30604327 -0.22801949 -0.1566462
0.3340493 -0.43972194 -0.15739016 -0.3475994 -0.32582632 -0.21273488 0.27098134 -0.26612303
-0.025482427 -0.39765316 -0.40721995 0.07845617 -0.25789982 -0.18020122 0.26271373 -0.2780006
-0.20073046 -0.12618734 -0.22402346 -0.1735588 0.004330503 0.19845437 0.15981069 -0.35378528
-0.1879399 -0.02512129 0.16490954 0.07761275 -0.12897483 -0.12765765 -0.44662738 0.22913778
-0.080392204 0.3108435 -0.27535003 -0.22020769 0.2109708 -0.025503034 0.22288828 0.32137358
0.35388875 -0.3634021 0.32883596 -0.24459535 0.08493093 -0.33978528 -0.20270507 -0.016423667
0.19406013 -0.16480963 -0.20954141 0.0683235 -0.23477605 0.21329556 0.22059019 -0.018874014
0.12861662 -0.035423845 -0.30863535 0.01644709 -0.36178774 0.16541201 0.14734913 0.13853064
-0.29264048 -0.17114681 -0.10972446 0.05563896 0.15452038 -0.2866164 -0.00075507216 0.42390722
0.07123631 -0.08413974 -0.31425035 -0.061038848 -0.30298415 -0.21305674 -0.019788336 -0.36009422
-0.26774895 0.10248909 0.034795593 0.0735767 0.107872725 -0.27963218 0.22875333 -0.111991726
-0.011603956 -0.30829653 -0.2809695 0.15155342 0.016056025 -0.05115508 -0.35376787 -0.17922159
-0.07029803 -0.32979685 0.2645892 -0.21682556 -0.2852121 0.35205653 -0.14250581 0.2451856
-0.2520523 -0.18100366 -0.03368329 0.28212422 0.3388381 0.13369371 0.09011348 0.07375131
0.23924442 0.2159827 0.056538828 -0.24633367 0.12428851 0.2902903 0.29192102 0.29655054
-0.22901945 0.28778785 -0.15650955 0.08512345 -0.05073571 -0.17603323 -0.05681328 -0.39280114
0.25993073 0.20395534 -0.19992045 0.14481317 -0.2262218 -0.035923608 -0.09892915 -0.24903066
0.31272236 -0.14538458 -0.018888082 -0.07291394 0.22519659 -0.27554658 -0.037172984 0.06832721
0.063072525 0.11988281 0.1915086 -0.112947844 0.21163267 -0.025257848 0.20282437 -0.34101638
-0.10199937 -0.37456712 -0.35328698 -0.34921414 0.049228676 0.0719868 0.022963826 -0.18869057
-0.014934479 -0.23582841 -0.14831048 0.14398278 -0.1577959 0.16693042 -0.07436614 -0.3600957
0.18722197 0.13845694 -0.29216528 -0.3715926 0.20704873 0.19065776 -0.101006895 0.13385652
-0.4328323 0.29133642 0.22081503 -0.23094042 0.1714249 -0.12894434 -0.44176844 -0.37058064
0.09639877 0.20759125 0.24518307 0.24091469 0.023928793 -0.16480246 -0.03511434 0.3275351
-0.16752942 -0.28316197 -0.054803956 -0.018207721 -0.111015886 -0.15513898 -0.013683128 0.04342696
0.226429 -0.14780635 -0.087090164 0.23218228 -0.050361343 -0.28732654 0.28485298 -0.13988908
0.28295627 -0.035273187 -0.053192385 -0.083488785 -0.38586742 0.34871593 -0.31882432 -0.024560085
0.09778545 0.042275883 -0.056867056 -0.31979436 0.28952277 -0.07779401 0.2597656 -0.1817024
-0.33780417 -0.08350423 -0.218924 -0.023189003 0.13577998 -0.03326618 0.37028825 -0.38603875
-0.35185018 -0.20872489 -0.021691421 -0.25612664 -0.21112695 0.25396693 0.19742821 0.26979256
00000000: c352 01be 449e ddbe 6c22 c4be 4590 96be
00000010: 548f 01be 8319 aebe effe bfbe f69a 3ebe
00000020: b463 be3d 75af a43d cd33 8bbe cf22 b6bd
00000030: dcb1 ee3d b4b1 9cbe f17d 69be dd67 20be
00000040: 8308 ab3e 3c23 e1be e32a 21be 8cf8 b1be
00000050: b5d2 a6be 2cd7 59be 11be 8a3e 4741 88be
00000060: 86c0 d0bc 3299 cbbe 227f d0be a1ad a03d
00000070: 720b 84be ab86 38be 6a82 863e 1856 8ebe
00000080: 498c 4dbe 4137 01be 6866 65be 66b9 31be
00000090: e4e6 8d3b 9f37 4b3e 6aa5 233e 5823 b5be
000000a0: 5173 40be 2acb cdbc 0cde 283e 6ff3 9e3d
000000b0: fa11 04be b0b8 02be 58ac e4be 18a3 6a3e
000000c0: aba4 a4bd e126 9f3e aefa 8cbe 207e 61be
000000d0: bb08 583e bdeb d0bc d33c 643e 148b a43e
000000e0: e830 b53e d70f babe 305d a83e 3477 7abe
000000f0: 44f0 ad3d 56f8 adbe eb91 4fbe ed8a 86bc
00000100: b3b7 463e dbc3 28be 0692 56be 31ed 8b3d
00000110: 2269 70be 276a 5a3e 65e2 613e ad9d 9abc
00000120: 13b4 033e 9818 11bd 7405 9ebe 0cbc 863c
00000130: 3e3c b9be c461 293e b1e2 163e fada 0d3e
00000140: f9d4 95be 1c41 2fbe 38b7 e0bd aee5 633d
00000150: 973a 1e3e 63bf 92be 09f0 45ba 5e0a d93e
00000160: 58e4 913d 7551 acbd 6ce5 a0be df03 7abd
00000170: bd20 9bbe 8c2b 5abe 261b a2bc 455e b8be
00000180: 6416 89be cde5 d13d d385 0e3d 62af 963d
00000190: 60ec dc3d f32b 8fbe 503e 6a3e eb5b e5bd
000001a0: 851e 3ebc 0bd9 9dbe 3cdb 8fbe d230 1b3e
000001b0: ed87 833c fd87 51bd 1021 b5be dd85 37be
000001c0: 6af8 8fbd 22db a8be 3c78 873e 8507 5ebe
000001d0: 5207 92be c140 b43e 0bed 11be ef11 7b3e
000001e0: 000d 81be 0659 39be 7df7 09bd 9672 903e
000001f0: 307c ad3e 01e7 083e 6b8d b83d ed0a 973d
00000200: 7dfc 743e 922a 5d3e 4295 673d e53e 7cbe
00000210: f98a fe3d eea0 943e ac76 953e 79d5 973e
00000220: 1384 6abe ee58 933e 0a44 20be 3455 ae3d
00000230: 3fd0 4fbd 0e42 34be 0bb5 68bd 3b1d c9be
00000240: a415 853e abd9 503e f2b7 4cbe e749 143e
00000250: b0a6 67be a224 13bd 5e9b cabd e501 7fbe
00000260: 251d a03e b2df 14be 2ebb 9abc e753 95bd
00000270: ef99 663e 7114 8dbe b342 18bd 23ef 8b3d
00000280: 2b2c 813d 1e85 f53d d51a 443e 3351 e7bd
00000290: 3cb6 583e 8ce9 cebc 31b1 4f3e b399 aebe
000002a0: 0ce5 d0bd 43c7 bfbe 08e2 b4be 32cc b2be
000002b0: 02a4 493d d16d 933d a21e bc3c 1a38 41be
000002c0: bfaf 74bc 017d 71be b4de 17be 3970 133e
000002d0: 4095 21be cfef 2a3e 464d 98bd 775e b8be
000002e0: 1eb7 3f3e a8c7 0d3e b096 95be 6341 bebe
000002f0: 9504 543e ca3b 433e b4dc cebd af11 093e
00000300: 329c ddbe 0c2a 953e 561d 623e a57b 6cbe
00000310: 028a 2f3e fc09 04be 792f e2be bfbc bdbe
00000320: b86c c53d cd92 543e 4511 7b3e 57b2 763e
00000330: 5106 c43c fac1 28be 0ed4 0fbd aeb2 a73e
00000340: d58c 2bbe 9bfa 90be 1d7a 60bd 5c28 95bc
00000350: 4c5c e3bd c1dc 1ebe 332f 60bc 78e0 313d
00000360: 01dd 673e 8c5a 17be 545c b2bd 31c1 6d3e
00000370: b247 4ebd 771c 93be 40d8 913e 153f 0fbe
00000380: a5df 903e 9e7a 10bd 42e0 59bd 2bfc aabd
00000390: 6a90 c5be e58a b23e f13c a3be 3b32 c9bc
000003a0: bd43 c83d 7a29 2d3d 6eed 68bd 16bc a3be
000003b0: 543c 943e 7752 9fbd ffff 843e 3210 3abe
000003c0: abf4 acbe 4404 abbd 9d2d 60be ddf6 bdbc
000003d0: e809 0b3e 1e42 08bd 6c96 bd3e dfa6 c5be
000003e0: b525 b4be fabb 55be 35b2 b1bc 0823 83be
000003f0: aa31 58be f407 823e 9f2a 4a3e 4022 8a3e

transformer_encoder.layers.0.linear2.weight f4 [6, 2048]
-0.2509248 0.019753782 0.031671535 -0.13443388 0.012245563 -0.13252243 0.059270766 -0.19910876
0.0036760715 0.018091403 -0.12816446 -0.03471055 -0.01399896 0.15402743 0.0446328 6.5167405e-05
-0.008447691 0.00016343614 0.13130994 -0.008874147 0.2409443 0.06973043 -0.01533626 0.011344031
-0.020257382 -0.07377238 -0.017908728 -0.010046476 -0.15354292 0.1581605 -0.003268874 -0.029586252
0.05037509 0.1348295 -0.07139555 -0.002152328 0.023779904 -0.012981754 0.0659067 -0.0026448348
0.26102108 0.12894034 0.00020795564 0.020071676 -0.18157919 -0.1700418 0.036883324 -0.04781981
0.0169595 0.02314019 0.00047334906 -0.16329457 0.087500244 -0.14914376 -0.03552906 0.024576992
-0.0022735102 -0.02372047 0.020650372 -0.013873677 -0.06878458 -0.5440453 -0.012453959 -0.11120145
-0.04734523 0.053900603 -0.24716257 0.009416136 -0.11509619 -0.0075755846 0.016723197 0.020233316
0.014071792 -0.21061298 -0.028714625 -0.00085361424 -0.015120689 0.022321941 -0.0006692314 0.009229726
0.12222579 0.0049005733 -0.011760302 -0.34693235 0.0016219435 -0.14769895 -0.09498232 0.07084267
0.03520887 -0.02282497 -0.0071331994 -0.049552612 -0.026319861 0.11685764 0.0059903604 -0.12815061
0.020704452 0.18479505 -0.0018489019 -0.0037097642 -0.003104832 -0.059934165 0.1633605 0.27800474
0.084944434 0.01065092 0.28878996 0.007767948 0.018991793 0.13112538 -0.0028836064 0.18943542
0.14330342 -0.13619927 0.0015315354 0.2973142 0.005864978 -0.007750662 0.030482342 0.0060966574
0.027280463 -0.028897723 0.062279463 0.0029997814 -0.011587629 0.058326717 -0.13920365 0.023099769
-0.03813103 0.0537846 -0.10608455 0.0024017252 -0.0028248483 0.006839664 0.020431379 0.027954886
-0.27941042 0.012961659 0.0328182 -0.14327773 0.029506128 -0.0036082298 0.02137536 -0.22141811
-0.39115325 -0.01863119 0.0047828862 -0.01654154 0.0065515446 -0.0944686 -0.011919887 -0.20918995
-0.16615239 0.014784688 0.0054866555 0.014561979 -0.07610444 -0.0018675418 0.0031676353 -0.16931216
0.025418097 0.09875644 -0.13679515 0.14716983 -0.080148 -0.014567276 -0.051243614 -0.015410947
0.18688399 0.049449082 0.23882322 -0.011541138 -0.023833167 0.0118823415 0.012726682 -0.07911263
-0.013279403 0.011181884 0.22999053 -0.0042494508 0.11494728 0.0044289557 -0.19058219 -0.0809045
-0.090038285 -0.006482354 -0.009999761 0.0047774287 -0.20841105 0.102249995 -0.048875313 0.0043580583
-0.005341472 0.00018995693 0.012826584 -0.007402844 -0.038196128 -0.13312101 0.0022887108 -0.0070267697
-0.20572925 -0.124938376 -0.29170248 -0.009098065 -0.010186718 -0.01989233 0.10502622 0.23971403
-0.10280447 -0.0020284448 -0.20226604 0.07225243 0.01015812 -0.16220583 -0.11106587 0.007544529
-0.00615258 -0.012059449 0.2358558 0.06599957 0.018574758 0.011679856 -0.019387124 -0.051720675
0.036390282 0.23908165 0.0007740109 0.009833001 -0.2545977 -0.06811922 0.04278007 0.003681599
-0.19327088 0.26882142 -0.18609042 0.010950401 -0.0033854097 0.0021587014 0.035468396 0.4193254
-0.011413072 0.0047811517 -0.21717215 0.018354153 -0.023560315 0.15340768 0.021022556 0.009656446
-0.214512 0.00084855064 -0.26437542 -0.12953709 0.103431694 -0.15001789 0.0017643668 -0.017720634
00000000: 3779 80be afd2 a13c 03ba 013d 09a9 09be
00000010: 9da1 483c f6b3 07be e7c5 723d 2be3 4bbe
00000020: 3fea 703b 6c34 943c 8b3d 03be a62c 0ebd
00000030: e55b 65bc 5eb9 1d3e e2d0 363d 7caa 8838
00000040: 2f68 0abc 0e60 2b39 1d76 063e df64 11bc
00000050: 1aba 763e d4ce 8e3d f044 7bbc 51dc 393c
00000060: cff2 a5bc f915 97bd 53b5 92bc f999 24bc
00000070: 5b3a 1dbe d3f4 213e 9b3a 56bb de5e f2bc
00000080: 1c56 4e3d bf10 0a3e d537 92bd 120e 0dbb
00000090: 13ce c23c 6cb1 54bc 18fa 863d f754 2dbb
000000a0: 8ea4 853e f008 043e ab0e 5a39 5b6d a43c
000000b0: e5ef 39be 701f 2ebe f812 173d b5de 43bd
000000c0: a6ee 8a3c 7f90 bd3c d62b f839 b136 27be
000000d0: 5433 b33d 24b9 18be eb86 11bd b055 c93c
000000e0: 2cff 14bb 6e51 c2bc f82a a93c 6b4e 63bc
000000f0: eede 8cbd 8e46 0bbf b10b 4cbc 96bd e3bd
00000100: 12ed 41bd e1c6 5c3d 2f18 7dbe 2346 1a3c
00000110: 8db7 ebbd 9c3c f8bb 16ff 883c 57c0 a53c
00000120: 608d 663c eeaa 57be ef3a ebbc 15c5 5fba
00000130: c4bc 77bc 81dc b63c 5c6f 2fba 4738 173c
00000140: 8451 fa3d fd94 a03b 48ae 40bc 1ea1 b1be
00000150: 6597 d43a 653e 17be 1786 c2bd f615 913d
00000160: 2d37 103d 6efb babc 9dbd e9bb aef7 4abd
00000170: c09c d7bc 0f53 ef3d c94a c43b ea39 03be
00000180: 629c a93c ea3a 3d3e da56 f2ba 841f 73bb
00000190: 707a 4bbb 877d 75bd fa47 273e a356 8e3e
000001a0: 59f7 ad3d 3281 2e3c 47dc 933e 458a fe3b
000001b0: ad94 9b3c bb45 063e e3fa 3cbb 5cfb 413e
000001c0: 22be 123e d277 0bbe cdbd c83a 9139 983e
000001d0: 002f c03b 44f9 fdbb 1bb6 f93c 78c6 c73b
000001e0: 477b df3c ebba ecbc c018 7f3d fb97 443b
000001f0: 0ada 3dbc ffe7 6e3d 678b 0ebe ba3b bd3c
00000200: 482f 1cbd 3e4d 5c3d db42 d9bd 4366 1d3b
00000210: 1721 39bb 431f e03b b55f a73c a501 e53c
00000220: e20e 8fbe 235d 543c 606c 063d 66b7 12be
00000230: d6b6 f13c 0d78 6cbb 611b af3c 6ebb 62be
00000240: 3d45 c8be 70a0 98bc c2b9 9c3b 2082 87bc
00000250: 57ae d63b c178 c1bd a14b 43bc e435 56be
00000260: da23 2abe 7a3b 723c 67c9 b33b 5e95 6e3c
00000270: a5dc 9bbd 4ec8 f4ba 1a98 4f3b 2b60 2dbe
00000280: 9d39 d03c d140 ca3d 0714 0cbe b0b3 163e
00000290: a224 a4bd 96ab 6ebc d3e4 51bd 327e 7cbc
000002a0: 845e 3f3e 1f8b 4a3d 138e 743e 0b17 3dbc
000002b0: c63d c3bc 27ae 423c 9383 503c cd05 a2bd
000002c0: da91 59bc 3934 373c a382 6b3e fa3e 8bbb
000002d0: 7b69 eb3d c620 913b fa27 43be 42b1 a5bd
000002e0: fe65 b8bd ed69 d4bb 0ad6 23bc fa8b 9c3b
000002f0: b569 55be 7268 d13d 7b31 48bd 0bce 8e3b
00000300: 8407 afbb 2d2f 4739 9826 523c 8e93 f2bb
00000310: 8b73 1cbd e050 08be 32fe 153b d140 e6bb
00000320: b0aa 52be b1df ffbd 075a 95be 0d10 15bc
00000330: 31e6 26bc 3df5 a2bc fd17 d73d 9877 753e
00000340: 268b d2bd a8ef 04bb d41e 4fbe 15f9 933d
00000350: 3e6e 263c 4919 26be 8176 e3bd 1938 f73b
00000360: 959b c9bb ff94 45bc 2f84 713e c82a 873d
00000370: 172a 983c de5c 3f3c bfd1 9ebc 0fd9 53bd
00000380: fa0d 153d d2d1 743e fee6 4a3a 981a 213c
00000390: a15a 82be 1782 8bbd 283a 2f3d fb46 713b
000003a0: cde8 45be f6a2 893e 7d8e 3ebe 5069 333c
000003b0: c0dd 5dbb 0079 0d3b 4f47 113d d2b1 d63e
000003c0: e5fd 3abc 35ab 9c3b 6062 5ebe 735b 963c
000003d0: 9001 c1bc e716 1d3e 7f37 ac3c 1236 1e3c
000003e0: 09a9 5bbe 4571 5e3a 375c 87be 5fa5 04be
000003f0: ffd3 d33d 4a9e 19be 5342 e73a dd2a 91bc

transformer_encoder.layers.0.linear2.bias f4 [6]
0.014498253 -0.0009917411 -0.013711503 0.022349529 0.0112491725 -0.007492209
00000000: 158a 6d3c 4ffd 81ba 36a6 60bc 5c16 b73c
00000010: 734e 383c 3481 f5bb

transformer_encoder.layers.0.norm1.weight f4 [6]
1.0119237 0.9879682 1.0470368 0.97251254 1.0260876 1.1370131
00000000: b786 813f 7ceb 7c3f 4d05 863f 95f6 783f
00000010: d756 833f a589 913f

transformer_encoder.layers.0.norm1.bias f4 [6]
0.031121068 0.070311084 0.015643273 -0.08566396 -0.02682276 0.014438206
00000000: 9cf1 fe3c 42ff 8f3d 5226 803c 9670 afbd
00000010: 68bb dbbc 3a8e 6c3c

transformer_encoder.layers.0.norm2.weight f4 [6]
0.9660521 1.1216409 0.94228387 1.0246042 1.0610477 1.0969094
00000000: 314f 773f ee91 8f3f 8439 713f 3b26 833f
00000010: 69d0 873f 8767 8c3f

transformer_encoder.layers.0.norm2.bias f4 [6]
0.07891535 0.1295407 0.009337621 -0.12478259 -0.084552206 0.045709237
00000000: 5f9e a13d 51a6 043e d2fc 183c 048e ffbd
00000010: b529 adbd 9c39 3b3d

transformer_encoder.layers.1.self_attn.in_proj_weight f4 [18, 6]
0.35028106 -0.11113561 0.74360025 -0.17218493 0.3072664 -0.3503979 -0.4066763 -0.49953467
-0.06815889 -0.037904333 0.41917175 -0.45215932 -0.064062886 -0.3610925 -0.51349276 0.16703965
-0.10156286 -0.051722646 -0.45743012 0.27749047 0.25482303 -0.2065996 0.39980808 -0.032102875
0.014714051 -0.08000951 0.43435392 -0.4749274 0.45131296 -0.10919573 0.107554466 -0.016231993
-0.24571876 -0.48611647 0.1626066 0.33893627 -0.46702302 0.14801022 -0.14472893 0.5385359
-0.18994015 0.31487966 -0.40819138 0.49021012 0.12251933 -0.51652217 -0.31568015 0.44625592
0.5533244 0.36404315 0.2310511 -0.23745798 0.034833197 0.22881813 0.1345794 0.55078787
-0.15370016 0.45161468 0.36839965 0.4147536 -0.13483422 0.23105136 0.35287777 -0.20843191
-0.20871197 -0.45143047 0.1203293 0.49436834 0.5101782 0.13334899 -0.13446705 -0.07922696
-0.25795662 0.3966016 0.3463653 0.46943563 -0.19695672 0.052611005 -0.40777218 -0.05046776
-0.39742678 0.47704586 0.1982376 -0.5721838 0.3910077 0.043104615 -0.26801777 0.43771243
-0.62025523 0.4289325 -0.6234881 -0.38960695 -0.2690749 -0.36214378 0.17408532 -0.30070254
0.07598213 -0.5004926 -0.077116445 -0.18086092 -0.27566507 0.6698822 0.38807848 -0.29599324
-0.18749107 -0.25803038 0.3262725 0.12044399
00000000: 0a58 b33e 119b e3bd 965c 3e3f 3f51 30be
00000010: 0652 9d3e 5b67 b3be e037 d0be 02c3 ffbe
00000020: e396 8bbd 9341 1bbd ae9d d63e 6d81 e7be
00000030: 6733 83bd 1ee1 b8be 4374 03bf 710c 2b3e
00000040: 3000 d0bd 20db 53bd 4834 eabe 3b13 8e3e
00000050: 2a78 823e d88e 53be a5b3 cc3e 4e7e 03bd
00000060: 3413 713c 07dc a3bd a363 de3e af29 f3be
00000070: 7e12 e73e 03a2 dfbd 8445 dc3d f5f8 84bc
00000080: b39d 7bbe 42e4 f8be 5882 263e 0e89 ad3e
00000090: a41d efbe fe8f 173e d233 14be 7ddd 093f
000000a0: ac7f 42be e837 a13e 76fe d0be d2fc fa3e
000000b0: 6aeb fa3d cc3a 04bf d4a0 a1be a87b e43e
000000c0: aba6 0d3f dd63 ba3e a998 6c3e 2f28 73be
000000d0: 41ad 0e3d 4d4f 6a3e 2fcf 093e 6f00 0d3f
000000e0: 9363 1dbe 0a3a e73e e19e bc3e 955a d43e
000000f0: fb11 0abe ba98 6c3e 65ac b43e 2d6f 55be
00000100: 97b8 55be e521 e7be 356f f63d d91d fd3e
00000110: 0a9b 023f a38c 083e bbb1 09be bf41 a2bd
00000120: e412 84be 5d0f cb3e cb56 b13e de59 f03e
00000130: 06af 49be a37e 573d 84c7 d0be 48b7 4ebd
00000140: 867b cbbe 5b3f f43e ccfe 4a3e a37a 12bf
00000150: 2932 c83e 778e 303d a039 89be d81b e03e
00000160: 0cc9 1ebf 0a9d db3e eb9c 1fbf 907a c7be
00000170: 2fc4 89be e96a b9be 6c43 323e aff5 99be
00000180: 859c 9b3d 4820 00bf 3aef 9dbd 9b33 39be
00000190: f923 8dbe 667d 2b3f 39b2 c63e 6d8c 97be
000001a0: a9fd 3fbe 8f1c 84be 300d a73e 57ab f63d

transformer_encoder.layers.1.self_attn.in_proj_bias f4 [18]
-0.11859071 -0.0038612492 0.0021430156 -0.013541936 -0.22787698 -0.17060842 0.0003871803 0.000454525
0.0010617888 -0.0010285472 -0.0024013452 -0.0010297665 0.054228168 -0.06497156 0.02437851 -0.09434162
0.013760873 -0.07671662
00000000: b0df f2bd 030d 7dbb d671 0c3b ffde 5dbc
00000010: 9558 69be f9b3 2ebe 76fe ca39 504d ee39
00000020: b82b 8b3a 51d0 86ba e35f 1dbb 3bf9 86ba
00000030: 5b1e 5e3d cf0f 85bd 71b5 c73c 2e36 c1bd
00000040: 4975 613c 9a1d 9dbd

transformer_encoder.layers.1.self_attn.out_proj.weight f4 [6, 6]
-0.26052257 0.260544 -0.24071273 -0.040667374 -0.58579487 -0.45020205 0.1424982 -0.040146675
0.051286843 0.007894605 0.39474922 -0.0015539775 0.28470832 -0.46234223 0.32735988 -0.4200538
0.01291567 -0.46545938 0.057709087 -0.26745605 -0.40454376 -0.029614147 -0.1497921 0.15036096
0.5151125 0.32557356 0.35163397 -0.43534762 0.0102114985 0.01130273 -0.008150735 0.38318846
0.14618354 -0.2617331 0.38699868 0.018594924
00000000: 3763 85be 0666 853e 667d 76be d592 26bd
00000010: a7f6 15bf e280 e6be 0ceb 113e d770 24bd
00000020: 2712 523d 6058 013c 921c ca3e d5ae cbba
00000030: 4ac5 913e 1fb8 ecbe b79b a73e 4b11 d7be
00000040: 3f9c 533c b150 eebe 5d60 6c3d 00f0 88be
00000050: 5c20 cfbe 5e99 f2bc 1a63 19be 39f8 193e
00000060: 6ade 033f 94b1 a63e 5e09 b43e e2e5 debe
00000070: 214e 273c 162f 393c a98a 05bc 4731 c43e
00000080: 23b1 153e e201 86be b124 c63e 6254 983c

transformer_encoder.layers.1.self_attn.out_proj.bias f4 [6]
-0.0038113624 0.107522935 0.055676684 -0.033226542 -0.0514625 -0.0139353145
00000000: 0dc8 79bb fc34 dc3d 3c0d 643d 8e18 08bd
00000010: 58ca 52bd f250 64bc

transformer_encoder.layers.1.linear1.weight f4 [2048, 6]
-0.38010266 -0.20611611 0.32526487 -0.23327026 -0.06909755 0.13651013 0.104750775 -0.009371677
-0.19194986 -0.2784209 -0.31338847 -0.19584855 0.051797096 0.23719947 0.15887044 0.3798415
-0.21817532 -0.08874727 -0.15382466 0.30435926 -0.006891364 -0.26784465 0.05508121 -0.17404568
-0.0178864 0.19870457 -0.29717508 0.29552877 0.0842022 -0.32575402 -0.03472166 0.24142891
-0.006471198 -0.2912327 0.61108184 -0.016455894 -0.0805286 -0.25869444 -0.22068638 0.014708931
0.34303734 0.29971412 0.054079812 0.18333367 0.06047656 -0.20400488 0.45301768 0.018784482
0.18517086 -0.257372 -0.092290364 0.1708128 0.08861089 -0.20630518 0.024679977 0.26346385
0.48608735 0.29963365 0.25582218 0.11898238 -0.17490941 -0.46633112 0.5890827 -0.23313515
0.07849635 -0.47649398 -0.14934707 -0.07261588 -0.08620227 -0.058078427 0.28890482 0.1853196
0.08550887 -0.12170839 -0.29027873 -0.17585304 0.28648156 -0.043049466 0.15758887 -0.42210314
0.18797135 -0.11399559 0.27321687 -0.13099457 -0.14615454 -0.09316749 0.02401745 0.12678748
-0.25476095 -0.20001985 -0.07518262 0.080157466 -0.32776168 -0.028849386 0.35331446 -0.15757447
0.15874626 -0.16645384 -0.2898776 -0.2329862 0.112244755 0.12999988 -0.17357261 -0.22888365
-0.27145904 0.24292728 -0.28328434 0.014929677 0.44190893 -0.12996188 -0.27219814 -0.26699778
-0.3807231 -0.19450553 -0.043961234 -0.38769197 0.08542344 0.07886052 0.42149776 0.2931716
0.08550001 -0.27572265 -0.16535492 -0.34130192 0.012664504 0.5374132 -0.007139756 0.05007044
0.45583344 -0.23091842 -0.33054262 -0.31752864 0.07197101 0.25920206 0.19222277 0.051129784
-0.01564744 0.0705321 -0.16056263 0.3270255 -0.063484415 0.28562576 0.39195162 -0.29566523
-0.2898175 -0.31652147 -0.23606302 -0.24373959 0.37794772 0.3490759 -0.04954403 -0.25537834
0.4970002 -0.1815728 0.07703099 -0.46565607 -0.4449176 0.22977892 -0.09950465 0.07569764
-0.4072109 0.24284728 -0.30267864 0.30548662 -0.10959709 0.29364297 -0.060518254 -0.13261022
-0.0046197823 -0.12156283 0.20987011 -0.41229692 -0.14898957 -0.25892243 0.32111922 -0.21301031
0.241459 -0.064616464 0.0423792 0.36496806 -0.27379158 -0.053394932 -0.029014077 0.15148476
-0.3235425 0.50225204 -0.32643816 -0.16843633 0.0831439 0.33929065 -0.29115674 0.23283482
-0.41569626 0.14501873 0.7199313 -0.17635354 -0.35178024 -0.22461975 0.28025487 -0.13433851
-0.18208237 -0.36738393 0.32506666 -0.26278532 0.24466169 0.18292066 -0.13997303 -0.08387932
-0.39535558 -0.28119147 -0.07906034 -0.041249055 -0.076365076 0.050033145 0.32141167 -0.03936051
-0.3939459 -0.0909088 -0.12689303 -0.2645506 0.07974457 -0.13027933 -0.20907228 -0.15937653
-0.21334322 -0.1079283 -0.37111798 -0.33384705 0.36085913 -0.0030551786 -0.18055417 -0.12138104
-0.40071166 0.09732954 0.26073238 -0.23927425 -0.3402223 0.23673327 -0.24704736 0.19274254
0.22993052 0.4033646 0.3388305 -0.045868453 -0.27841702 0.15411259 -0.075275846 -0.060481332
-0.3347552 -0.24039069 -0.43716624 -0.21771058 -0.33551827 -0.13246018 0.43597758 0.028571818
00000000: d19c c2be 1a10 53be 1e89 a63e 66de 6ebe
00000010: 0483 8dbd 50c9 0b3e 9387 d63d aa8b 19bc
00000020: 818e 44be 2f8d 8ebe 7474 a0be 868c 48be
00000030: 3129 543d 6be4 723e efae 223e 967a c23e
00000040: 5a69 5fbe 21c1 b5bd 3684 1dbe fad4 9b3e
00000050: f4d0 e1bb ef22 89be d69c 613d 0839 32be
00000060: 8086 92bc 3679 4b3e 5527 98be 8c4f 973e
00000070: 3472 ac3d 3bc9 a6be 4d38 0ebd 2439 773e
00000080: 580c d4bb 741c 95be dc6f 1c3f 83ce 86bc
00000090: 2eec a4bd 9973 84be 9cfb 61be bafd 703c
000000a0: 97a2 af3e 2174 993e cb82 5d3d d2bb 3b3e
000000b0: 45b6 773d a8e6 50be eff1 e73e eae1 993c
000000c0: 6e9d 3d3e 43c6 83be bb02 bdbd 8de9 2e3e
000000d0: a079 b53d aa41 53be aa2d ca3c bce4 863e
000000e0: 71e0 f83e 9569 993e 20fb 823e 09ad f33d
000000f0: 741b 33be f4c2 eebe 20ce 163f fbba 6ebe
00000100: b2c2 a03d 05f7 f3be 70ee 18be a2b7 94bd
00000110: d18a b0bd a5e3 6dbd 55eb 933e 6cc4 3d3e
00000120: 461f af3d 4042 f9bd 6a9f 94be d212 34be
00000130: b6ad 923e a354 30bd fa5e 213e e71d d8be
00000140: 907b 403e 8576 e9bd 15e3 8b3e 7123 06be
00000150: 89a9 15be 99ce bebd 3ec0 c43c 94d4 013e
00000160: 0770 82be 01d2 4cbe 58f9 99bd 9929 a43d
00000170: 61d0 a7be 8c55 ecbc a2e5 b43e 345b 21be
00000180: 618e 223e e072 2abe d66a 94be ef93 6ebe
00000190: 94e0 e53d b01e 053e 05bd 31be 7a60 6abe
000001a0: aefc 8abe eec1 783e a50a 91be 9b9b 743c
000001b0: e341 e23e ba14 05be 8e5d 8bbe efb3 88be
000001c0: 23ee c2be 752c 47be b210 34bd 907f c6be
000001d0: 7cf2 ae3d a081 a13d 8ece d73e 971a 963e
000001e0: a11a af3d 852b 8dbe cd52 29be 20bf aebe
000001f0: c87e 4f3c e993 093f 9df4 e9bb a916 4d3d
00000200: 0063 e93e e175 6cbe e23c a9be 1d93 a2be
00000210: 8965 933d 22b6 843e 0cd6 443e 776d 513d
00000220: 0f2f 80bc 2273 903d 886a 24be e36f a73e
00000230: 1e04 82bd 8a3d 923e e2ad c83e 6f61 97be
00000240: f662 94be 1a0f a2be 81ba 71be df96 79be
00000250: 5d82 c13e 14ba b23e aeee 4abd f3c0 82be
00000260: cf76 fe3e 38ee 39be 6cc2 9d3d 796a eebe
00000270: 3dcc e3be 2a4b 6b3e 18c9 cbbd 5d07 9b3d
00000280: f27d d0be f5ac 783e b2f8 9abe be68 9c3e
00000290: 7074 e0bd 5f58 963e fde1 77bd f9ca 07be
000002a0: 8b61 97bb eff5 f8bd 31e8 563e 9518 d3be
000002b0: b990 18be 7b91 84be bd69 a43e 601f 5abe
000002c0: 0741 773e a355 84bd d095 2d3d 18dd ba3e
000002d0: 692e 8cbe a5b4 5abd eeae edbc d21e 1b3e
000002e0: 5da7 a5be 9793 003f e722 a7be 937a 2cbe
000002f0: 5947 aa3d 81b7 ad3e 7f12 95be 406c 6e3e
00000300: 24d6 d4be ca7f 143e 6b4d 383f 0696 34be
00000310: 8a1c b4be b802 66be 917d 8f3e 0990 09be
00000320: cd73 3abe bf19 bcbe 236f a63e cc8b 86be
00000330: 9888 7a3e 8e4f 3b3e 1755 0fbe ecc8 abbd
00000340: 0c6c cabe 54f8 8fbe 63ea a1bd c5f4 28bd
00000350: 4b65 9cbd 8eef 4c3d 1290 a43e 7c38 21bd
00000360: 47b3 c9be 652e babd 3ff0 01be 2d73 87be
00000370: 1f51 a33d f267 05be 0b17 56be 9a33 23be
00000380: a576 5abe 8309 ddbd 2d03 bebe 00ee aabe
00000390: 87c2 b83e 6439 48bb 31e3 38be 9f96 f8bd
000003a0: 142a cdbe b654 c73d b77e 853e 4f04 75be
000003b0: 9e31 aebe 356a 723e fcf9 7cbe 4d5e 453e
000003c0: e872 6b3e ce85 ce3e 317b ad3e 8fe0 3bbd
000003d0: ad8c 8ebe b1cf 1d3e 392a 9abd 46bb 77bd
000003e0: 0965 abbe fa28 76be 41d4 dfbe 86ef 5ebe
000003f0: 0dc9 abbe a4a3 07be 7438 df3e 720f ea3c

transformer_encoder.layers.1.linear1.bias f4 [2048]
-0.12950364 -0.43288052 -0.44200215 -0.40911826 -0.13294068 -0.27573335 -0.37569815 -0.19309177
0.0971237 0.0595265 -0.27061427 -0.11084882 0.15509517 -0.2928822 -0.2423565 -0.14504503
0.3071891 -0.38310546 -0.25734338 -0.2731429 -0.33440626 -0.36548033 0.23573281 -0.23616375
-0.06296226 -0.24292131 -0.4057088 0.1080871 -0.21259199 -0.25024247 0.2791332 -0.24855313
-0.24407955 -0.19899912 -0.29139835 -0.19459127 -0.004392933 0.20626618 0.17649317 -0.37481874
-0.42733866 -0.06674177 0.11600242 0.013879667 -0.11021861 -0.23162255 -0.41617543 0.1774155
-0.050541967 0.23504013 -0.31122562 -0.3921631 0.16334395 0.005011704 0.23529468 0.30625072
0.31652042 -0.2599343 0.35319892 -0.29157236 0.06253612 -0.3562304 -0.2783874 0.0041210875
0.21842824 -0.16443041 -0.09457077 0.10616771 -0.30305365 0.27989638 0.22635095 -0.015481478
0.06296981 -0.07116581 -0.3326242 0.046012893 -0.3888282 0.21840994 0.124063276 0.16619177
-0.42880175 -0.16086161 -0.093520805 -0.06694609 0.13112094 -0.2558876 -0.041142564 0.37121737
0.15400209 -0.13760002 -0.2746864 0.008414885 -0.34449217 -0.21035886 -0.016559463 -0.44504488
-0.26828688 0.049142048 0.009757489 0.10983075 0.112418085 -0.30931818 0.12682173 -0.20058398
-0.013496104 -0.27681446 -0.36150354 0.16785385 0.025482452 -0.0126440795 -0.32023424 -0.088415176
-0.04894224 -0.3316916 0.18390957 -0.14801784 -0.31401923 0.27699214 -0.18345296 0.30325174
-0.34637702 -0.20797952 -0.08211969 0.2987118 0.27059093 0.026562762 0.14283593 0.19222504
0.35870034 0.18081811 0.10100481 -0.23183796 0.116613515 0.265041 0.29810846 0.28066945
-0.23563144 0.29365847 -0.1543802 -0.009954352 -0.06678024 -0.20686784 -0.12351193 -0.3194811
0.24182092 0.206657 -0.16719568 0.13730305 -0.18636267 -0.026747392 -0.13909608 -0.19792964
0.26253504 -0.19541243 -0.07890611 0.010458332 0.22796687 -0.29677987 -0.06909892 0.059038457
-0.01423344 0.16952835 0.08068566 -0.16887435 0.1889922 -0.014277108 0.16460127 -0.3360577
-0.45291018 -0.375115 -0.3184541 -0.36309493 0.018980576 0.017359609 -0.022108356 -0.11102712
-0.03742569 -0.29072043 -0.17815468 0.12516245 -0.19845827 0.25408423 -0.09992183 -0.39136887
0.16922532 0.14084896 -0.32664534 -0.34554836 0.1424322 0.24850895 -0.058475796 0.16355383
-0.39457682 0.26604423 0.19339891 -0.22933467 0.16993205 -0.1409507 -0.41788572 -0.35121682
0.029363519 0.2897396 0.18553789 0.19141151 0.054732848 -0.16212778 -0.009377868 0.1479229
-0.14339627 -0.297524 -0.0602681 0.00403882 -0.082929164 -0.25664926 0.09639914 -0.024369773
0.23614125 -0.10563161 -0.073176935 0.22291782 -0.07197062 -0.31235668 0.23691744 -0.14674914
0.18849808 -0.056180686 0.0064668814 -0.1406067 -0.37009317 0.40011707 -0.31095424 -0.04164567
0.03196612 -0.061223775 -0.20658721 -0.3064772 0.25845814 0.00037257688 0.2552662 -0.23833682
-0.37623203 -0.08517382 -0.2090979 0.02063943 0.14263286 -0.03324723 0.31234172 -0.37826616
-0.44275865 -0.124077864 -0.050533347 -0.31180125 -0.26209882 0.15451469 0.16769926 0.25542724
00000000: 9a9c 04be 84a2 ddbe 1b4e e2be f377 d1be
00000010: 9a21 08be ec2c 8dbe 825b c0be d9b9 45be
00000020: cae8 c63d 0fd2 733d f48d 8abe b504 e3bd
00000030: 45d1 1e3e a8f4 95be 4d2c 78be af86 14be
00000040: e447 9d3e 6626 c4be 83c2 83be 63d9 8bbe
00000050: 4c37 abbe 3d20 bbbe f163 713e e9d4 71be
00000060: 5bf2 80bd 5dc0 78be 10b9 cfbe c55c dd3d
00000070: b7b1 59be c81f 80be 8cea 8e3e b684 7ebe
00000080: fdef 79be 6dc6 4bbe 2a32 95be ef42 47be
00000090: 98f2 8fbb 7137 533e a0ba 343e 3ee8 bfbe
000000a0: 22cc dabe e9af 88bd ad92 ed3d 8b67 633c
000000b0: 4bba e1bd 762e 6dbe f214 d5be 69ac 353e
000000c0: 1805 4fbd 5cae 703e f758 9fbe 9ac9 c8be
000000d0: a343 273e 3839 a43b 17f1 703e e5cc 9c3e
000000e0: f70e a23e 1c16 85be 7dd6 b43e f948 95be
000000f0: f012 803d d563 b6be cb88 8ebe 300a 873b
00000100: a7ab 5f3e 7260 28be 52ae c1bd 756e d93d
00000110: d929 9bbe 944e 8f3e 8bc8 673e 06a6 7dbc
00000120: 51f6 803d 61bf 91bd b84d aabe 0478 3c3d
00000130: 7d14 c7be dba6 5f3e e314 fe3d 2d2e 2a3e
00000140: e78b dbbe e8b8 24be d687 bfbd 081b 89bd
00000150: 9144 063e b303 83be 1b85 28bd 3410 be3e
00000160: b9b2 1d3e 05e7 0cbe b2a3 8cbe 96de 093c
00000170: 4761 b0be 5068 57be b6a7 87bc ecdc e3be
00000180: e65c 89be 2c49 493d e0dd 1f3c f2ee e03d
00000190: 743b e63d f45e 9ebe 8edd 013e e365 4dbe
000001a0: c31e 5dbc a0ba 8dbe fe16 b9be e1e1 2b3e
000001b0: 93c0 d03c 1d29 4fbc bef5 a3be 0413 b5bd
000001c0: a977 48bd 7bd3 a9be ca52 3c3e fd91 17be
000001d0: 21c7 a0be ead1 8d3e 18db 3bbe d043 9b3e
000001e0: 5458 b1be 95f8 54be 5e2e a8bd c1f0 983e
000001f0: e58a 8a3e 269a d93c 9543 123e a4d6 443e
00000200: 92a7 b73e 6228 393e 9cdb ce3d ee66 6dbe
00000210: 11d3 ee3d 74b3 873e aca1 983e e8b3 8f3e
00000220: 5e49 71be 675a 963e d815 1ebe 9417 23bc
00000230: 14c4 88bd 2ad5 53be d3f3 fcbd 0793 a3be
00000240: e79f 773e e59d 533e 5835 2bbe 2c99 0c3e
00000250: dbd5 3ebe 591d dbbc 346f 0ebe 11ae 4abe
00000260: fe6a 863e 321a 48be 8799 a1bd 6c59 2b3c
00000270: 2670 693e 88f3 97be bc83 8dbd 4fd2 713d
00000280: 6033 69bc d798 2d3e 863e a53d 66ed 2cbe
00000290: 2c87 413e 88ea 69bc 3c8d 283e c10f acbe
000002a0: d8e3 e7be 130f c0be 6a0c a3be 94e7 b9be
000002b0: 277d 9b3c bd35 8e3c 951c b5bc 3062 e3bd
000002c0: ae4b 19bd 4fd9 94be 2e6e 36be 962a 003e
000002d0: a538 4bbe 5417 823e d1a3 ccbd 8061 c8be
000002e0: 6749 2d3e b63a 103e 0f3e a7be b7eb b0be
000002f0: bfd9 113e 2179 7e3e 5184 6fbd a87a 273e
00000300: f905 cabe f336 883e 5d0a 463e b5d6 6abe
00000310: ab02 2e3e 6155 10be 1ef5 d5be b1d2 b3be
00000320: c38b f03c c058 943e a5fd 3d3e 6101 443e
00000330: 8d2f 603d d304 26be a1a5 19bc 1a79 173e
00000340: 79d6 12be 1155 98be afdb 76bd 1458 843b
00000350: c4d6 a9bd 8867 83be ea6c c53d 1ea3 c7bc
00000360: 03cf 713e 6355 d8bd cadd 95bd 9244 643e
00000370: 5565 93bd 37ed 9fbe 7c9a 723e 6845 16be
00000380: a405 413e b81d 66bd 22e8 d33b 34fb 0fbe
00000390: da7c bdbe 25dc cc3e 6535 9fbe a694 2abd
000003a0: e8ee 023d c8c5 7abd 998b 53be 94ea 9cbe
000003b0: a054 843e 6c56 c339 40b2 823e 910e 74be
000003c0: 7ca1 c0be 9d6f aebd c31d 56be 0614 a93c
000003d0: 590e 123e 3f2e 08bd 41eb 9f3e 1aac c1be
000003e0: 43b1 e2be 891c febd 0efc 4ebd 6aa4 9fbe
000003f0: d131 86be 1939 1e3e 5bb9 2b3e 5cc7 823e

transformer_encoder.layers.1.linear2.weight f4 [6, 2048]
-0.0954634 0.0017219221 -0.0065266727 0.01341976 0.014970136 -0.008014504 -0.08653142 -0.021785717
-0.0044310563 0.026620949 0.038581803 -0.05009119 -0.015139379 0.031322792 0.00092629256 -0.012642916
-0.022225402 0.003769329 -0.09300028 -0.10649256 0.2475614 0.06809533 -0.006603795 0.004174047
-0.04337587 0.07122802 0.14122765 0.002985442 -0.015541314 0.18989843 0.016072962 0.017801771
-0.028602742 -0.005613597 0.017596522 -0.014346374 -0.03827686 0.0044361143 -0.038298745 0.011563086
0.015503398 -0.040543284 -0.00018445139 -0.03376686 -0.024862092 -0.007933526 0.0011369413 0.019079108
0.00079648464 -0.0035102249 0.0351744 -0.042676337 -0.02428834 -0.1160173 -0.093412355 0.030766824
0.01843389 0.13746667 -0.050257023 0.013861843 0.0284512 0.007335356 -8.2152044e-05 0.057357974
-0.00034935566 -0.037938032 -0.27692807 0.013327608 0.005545682 -0.0034012876 -0.009286854 -0.016714409
0.0009947923 0.06220891 0.18869881 0.003454921 -0.16698729 0.017303273 0.0037906324 0.014384645
-0.00580236 0.03379642 0.0062908484 -0.041775655 0.0014787775 -0.02028712 -0.120414674 0.008316694
0.04318624 -0.010142263 0.0054081515 0.045316964 -0.005213481 -0.012986009 0.01927184 -0.029519657
0.040417906 0.0045510614 -0.0024876543 -0.004294195 -0.0070817685 0.06378875 -0.014511338 0.08252577
-0.051340263 -0.011062404 0.235589 0.03747291 0.0063961544 0.019889588 0.011156808 0.0076280213
0.012773574 0.14265674 0.005756664 0.053214666 0.15407988 -0.004951965 -0.06152747 0.01650719
0.028565574 -0.07029549 -0.026809765 -0.050608553 -0.021213505 -0.055589266 0.07082782 -0.0782682
0.046833433 0.017557833 0.005108347 -0.022264168 0.0038251835 0.018631358 0.016570963 0.02450103
0.13849063 0.022787161 -0.012863541 -0.030384349 -0.013131598 0.0003540864 -0.006285049 0.009982641
0.011594206 -0.024845602 0.0026455058 -0.013410572 0.064185165 -0.120124176 0.0063885036 -0.15869306
0.015198913 -0.03213582 -0.01148228 0.029772645 0.0028671776 0.17084329 0.0008173836 -0.047163296
0.00895217 -0.056671653 0.029884767 -0.038792893 -0.04942203 0.002582364 -0.014838236 -0.021950023
-0.042139173 0.05177987 -0.087132476 0.0039596283 -0.018489545 0.015939115 -0.0008949478 0.016839992
-0.008768903 -0.059221007 -0.054931138 -0.015357249 -0.015503697 0.015182131 -0.03000414 -0.008989771
0.033485293 0.0007295241 0.027443236 -0.14364848 0.031244183 0.027577167 -0.010182838 -0.09001587
-0.024257677 0.025333883 0.035731297 0.046477538 0.020659177 -0.08068734 0.05037073 0.015484724
-0.051822845 0.029721292 -0.015640374 -0.01585919 0.013554596 -0.03927635 0.0019675551 -0.011796891
-0.001960583 0.0021589878 0.049167525 -0.005800491 -0.025602119 0.28766555 0.022981966 -0.024350071
0.0037099796 0.041624956 -0.073192 -0.03692538 0.05894619 0.06712622 -0.009631367 -0.09966908
0.011668308 0.097546615 0.015421944 -0.04482235 0.11396947 0.0077429865 0.0030837436 -0.015472988
-0.0132763125 -0.004788661 0.05153718 0.019851688 0.03491921 0.009536798 0.018759042 0.057562493
0.0050919675 0.017082913 -0.09689996 0.026357535 -0.0117495395 0.10049812 0.015167426 0.042449236
0.13102196 0.009994369 -0.00025900287 -0.11305213 -0.0092884805 0.0015372947 0.0034396504 0.00395988
00000000: 5182 c3bd 1eb2 e13a b3dd d5bb 8ede 5b3c
00000010: 4d45 753c 444f 03bc 6337 b1bd f677 b2bc
00000020: 6532 91bb 2d14 da3c f407 1e3d 6b2c 4dbd
00000030: 280b 78bc 544c 003d 71d2 723a 3c24 4fbc
00000040: 0c12 b6bc d906 773b ee76 bebd c518 dabd
00000050: bc80 7d3e 9075 8b3d a664 d8bb 72c6 883b
00000060: e5aa 31bd ffdf 913d fb9d 103e 68a7 433b
00000070: ffa0 7ebc bc74 423e 72ab 833c 05d5 913c
00000080: 4c50 eabc 44f2 b7bb 9526 903c 0e0d 6bbc
00000090: 32c8 1cbd d35c 913b 25df 1cbd 1973 3d3c
000000a0: f701 7e3c b710 26bd 4b69 41b9 1e4f 0abd
000000b0: 96ab cbbc 9ffb 01bc 6b05 953a ca4b 9c3c
000000c0: 2ecb 503a cd0b 66bb 0813 103d 62cd 2ebd
000000d0: 57f8 c6bc 7a9a edbd fa4e bfbd b50a fc3c
000000e0: ab02 973c 10c4 0c3e 4fda 4dbd c91c 633c
000000f0: 7e12 e93c 6d5d f03b 0b49 acb8 32f0 6a3d
00000100: b929 b7b9 e964 1bbd 84c9 8dbe 0a5c 5a3c
00000110: 8db8 b53b 23e8 5ebb e427 18bc a8ec 88bc
00000120: b163 823a c5ce 7e3d 433a 413e f56b 623b
00000130: b7fe 2abe 98bf 8d3c 426c 783b 93ad 6b3c
00000140: b921 bebb 1d6e 0a3d 7623 ce3b f31c 2bbd
00000150: 8ad3 c13a 2d31 a6bc f89b f6bd be42 083c
00000160: 0ee4 303d bc2b 26bc dd36 b13b 489e 393d
00000170: d9d5 aabb 45c3 54bc fadf 9d3c 35d3 f1bc
00000180: 3f8d 253d 1221 953b ea07 23bb 52b6 8cbb
00000190: 2e0e e8bb ada3 823d f7c0 6dbc 4503 a93d
000001a0: 2b4a 52bd 163f 35bc 3e3e 713e 327d 193d
000001b0: d596 d13b 7def a23c 0bcb 363c 7bf4 f93b
000001c0: 4148 513c 9c14 123e 66a2 bc3b 9ff7 593d
000001d0: 1ec7 1d3e 1844 a2bb 3a04 7cbd 163a 873c
000001e0: 5a02 ea3c 15f7 8fbd 27a0 dbbc ea4a 4fbd
000001f0: f2c7 adbc 92b1 63bd 2d0e 913d 144b a0bd
00000200: 6ad4 3f3d 72d5 8f3c ec63 a73b 5863 b6bc
00000210: eeaf 7a3b caa0 983c d4bf 873c 62b6 c83c
00000220: 7dd0 0d3e 24ac ba3c 9ac1 52bc 99e8 f8bc
00000230: ea25 57bc aca4 b939 d0f2 cdbb 3b8e 233c
00000240: a0f5 3d3c 0189 cbbc 3960 2d3b 04b8 5bbc
00000250: 8373 833d aa03 f6bd a756 d13b 6f80 22be
00000260: dd04 793c d9a0 03bd 2c20 3cbc c3e5 f33c
00000270: 42e7 3b3b 8bf1 2e3e af45 563a 4d2e 41bd
00000280: 1fac 123c 8920 68bd e6d0 f43c 4ce5 1ebd
00000290: c16e 4abd e13c 293b 131c 73bc 89d0 b3bc
000002a0: 209a 2cbd 2117 543d 8372 b2bd c5bf 813b
000002b0: 6377 97bc bf92 823c ee9a 6aba 06f4 893c
000002c0: 72ab 0fbc ba91 72bd 79ff 60bd f99c 7bbc
000002d0: 3803 7ebc 79be 783c 3ecb f5bc d549 13bc
000002e0: e027 093d 893d 3f3a a3d0 e03c 9618 13be
000002f0: cdf3 ff3c 83e9 e13c ebd5 26bc 3e5a b8bd
00000300: 09b8 c6bc 0189 cf3c fb5a 123d 3b5f 3e3d
00000310: 6f3d a93c 673f a5bd 8a51 4e3d a4b3 7d3c
00000320: 3144 54bd 117a f33c 3e20 80bc 22eb 81bc
00000330: 1914 5e3c 3de0 20bd 19f2 003b bf47 41bc
00000340: 207d 00bb ce7d 0d3b e363 493d 0c12 bebb
00000350: 89bb d1bc e648 933e ad44 bc3c cd79 c7bc
00000360: 2123 733b ee7e 2a3d b0e5 95bd 113f 17bd
00000370: 8f71 713d 7979 893d e2cc 1dbc 4d1f ccbd
00000380: 6e2c 3f3c 85c6 c73d 52ac 7c3c a497 37bd
00000390: d368 e93d e1b8 fd3b a218 4a3b 6a82 7dbc
000003a0: e484 59bc 33ea 9cbb a618 533d 02a0 a23c
000003b0: 7207 0f3d 3b40 1c3c 90ac 993c a6c6 6b3d
000003c0: 85da a63b 77f1 8b3c 7c73 c6bd c2eb d73c
000003d0: 2481 40bc f5d1 cd3d cc80 783c 40df 2d3d
000003e0: 9f2a 063e 6cbf 233c c7ca 87b9 e087 e7bd
000003f0: b62e 18bc 0d7f c93a c26b 613b e2c1 813b

transformer_encoder.layers.1.linear2.bias f4 [6]
0.0148019185 0.009629721 -0.011966637 0.0245155 0.00093795755 -0.01650262
00000000: bf83 723c fac5 1d3c b70f 44bc bbd4 c83c
00000010: 44e1 753a 8130 87bc

transformer_encoder.layers.1.norm1.weight f4 [6]
1.0482935 1.0823354 1.0152332 0.94791853 1.009331 1.0476876
00000000: 7b2e 863f f789 8a3f 29f3 813f caaa 723f
00000010: c231 813f a11a 863f

transformer_encoder.layers.1.norm1.bias f4 [6]
0.045140006 0.09206442 -0.008218919 -0.09698232 -0.040227484 -0.006284141
00000000: bae4 383d 458c bc3d a5a8 06bc ab9e c6bd
00000010: 93c5 24bd 32eb cdbb

transformer_encoder.layers.1.norm2.weight f4 [6]
1.0112967 1.2100937 1.1623592 1.253099 1.2849177 1.0935278
00000000: 2c72 813f 5ae4 9a3f 30c8 943f 8c65 a03f
00000010: 2f78 a43f b8f8 8b3f

transformer_encoder.layers.1.norm2.bias f4 [6]
0.012333463 -0.034109563 0.077305794 -0.04539329 0.122387946 -0.02420956
00000000: 4b12 4a3c 78b6 0bbd 8052 9e3d 51ee 39bd
00000010: 88a6 fa3d 2153 c6bc
