DU_model/Transformer/best_model_final_hd_tr.3.40.pth (torch, 474276 bytes, 29 tensors)

norm.weight f4 [6]
0	0x3f800000	1.0
1	0x3f800000	1.0
2	0x3f800000	1.0
3	0x3f800000	1.0
4	0x3f800000	1.0
5	0x3f800000	1.0

norm.bias f4 [6]
0	0x00000000	0.0
1	0x00000000	0.0
2	0x00000000	0.0
3	0x00000000	0.0
4	0x00000000	0.0
5	0x00000000	0.0

transformer_encoder.layers.0.self_attn.in_proj_weight f4 [18, 6]
0	0x3cc131be	0.02358329
1	0xbeeece3b	-0.46641716
2	0xbe96c75d	-0.29448977
3	0x3ea66b97	0.3250396
4	0xbe2fb625	-0.17159326
5	0x3ebee4e4	0.37284005
6	0xbdb3812f	-0.08764874
7	0x3deb5ad6	0.11491935
8	0xbea73a18	-0.3266151
9	0xbc06a5fe	-0.008218287
10	0xbf0c7569	-0.54866654
11	0xbe101fc6	-0.1407462
12	0xbea0de43	-0.31419572
13	0x3e0ed77a	0.13949385
14	0xbee95b0f	-0.45577285
15	0x3df9067a	0.121594384
16	0xbf016858	-0.5054984
17	0xbe9a1afe	-0.30098718
18	0x3e63df0a	0.22253051
19	0x3f0c33e8	0.547667
20	0x3ec68100	0.38770294
21	0xbeae19ce	-0.34004062
22	0xbcc23932	-0.023708913
23	0x3dfc93fe	0.12332915
24	0x3df3ed85	0.11910538
25	0xbe8a4c5c	-0.27011383
26	0xbeaa75cf	-0.33293006
27	0x3ed17163	0.4090682
28	0x3e977a4b	0.2958549
29	0x3eed02f7	0.46291324
30	0xbedd3487	-0.43204138
31	0xbecd8022	-0.4013682
32	0xbe89aebd	-0.26891127
33	0xbe94fae7	-0.29097673
34	0xbed940c7	-0.42432234
35	0x3ee47b5c	0.44625366
36	0xbf008bbb	-0.5021321
37	0xbeccecb2	-0.40024334
38	0x3eea7a09	0.4579623
39	0x3e5865c3	0.21132569
40	0xbef4e235	-0.47828832
41	0xbe06edbd	-0.13176627
42	0xbe8fd5c4	-0.28092778
43	0xbcc4f472	-0.024042342
44	0xbecd1e7a	-0.40062314
45	0x3df3243a	0.11872144
46	0xbcfec46f	-0.031099526
47	0xbee3a562	-0.44462115
48	0x3c057f19	0.008147978
49	0x3e3568a2	0.17715696
50	0xbcdd8291	-0.027039798
51	0xbe6e5481	-0.23274423
52	0xbe0fdff9	-0.14050283
53	0x3ef3a094	0.4758345
54	0x3ca205e1	0.019778194
55	0xbdd00d1e	-0.10158752
56	0x3c78a699	0.015176439
57	0xbe457614	-0.19283324
58	0x3e9c92b3	0.30580673
59	0xbce73638	-0.028224096
60	0x3d1538b0	0.036431015
61	0xbed2677e	-0.41094583
62	0xbdea8b26	-0.11452322
63	0x3e7212af	0.2363994
64	0x3c0473c8	0.008084245
65	0xbe9bab0b	-0.30403933
66	0x3ea48f1e	0.3214044
67	0xbef31db1	-0.4748359
68	0x3e3e3368	0.18574297
69	0x3ee7a57d	0.45243445
70	0xbe6a4620	-0.22878313
71	0x3ebcf15d	0.36902896
72	0xbfd44538	-1.6583624
73	0xbc160537	-0.009156517
74	0xbf6b2b75	-0.91863185
75	0x3eb9c08d	0.36279717
76	0xbef98980	-0.48737717
77	0xbe3a957b	-0.18221085
78	0xbff1c20f	-1.8887347
79	0x3ed49a68	0.41524053
80	0x3f413962	0.75478184
81	0xbef13f3c	-0.47118556
82	0x3f9db5ca	1.2321103
83	0xbf6f067a	-0.9336926
84	0x4011715d	2.2725441
85	0x3dfd6be7	0.12374096
86	0x3f976bc7	1.1829766
87	0xbde997ab	-0.114058815
88	0x3f3f6f88	0.7477956
89	0x3f253d98	0.6454711
90	0x3f3ab914	0.72938657
91	0xbd56db7b	-0.052455407
92	0x3f1b077a	0.60558283
93	0x3e288a64	0.16459042
94	0xbe80e1af	-0.25172183
95	0xbf06c7f2	-0.5264884
96	0x40447c62	3.0700917
97	0x3e7d2fd2	0.24725273
98	0xbc970a4b	-0.018437525
99	0x3d8783b2	0.06616916
100	0xbea6fbd2	-0.32614
101	0x3fd52b95	1.6653925
102	0xc03370aa	-2.8037515
103	0xbe5b095b	-0.21390288
104	0x3de3402a	0.11096223
105	0x3d894609	0.06702811
106	0x3ee39ee3	0.44457158
107	0xbfb49831	-1.4108945

transformer_encoder.layers.0.self_attn.in_proj_bias f4 [18]
0	0x3bac2c12	0.005254277
1	0x3d003f5b	0.03131042
2	0xbd8383ed	-0.06421647
3	0x3db429d3	0.0879704
4	0xbdbc22c4	-0.091863185
5	0xbd69b8f0	-0.057061136
6	0xbdcb3492	-0.09922136
7	0x3db3f8cc	0.087876886
8	0x3dc8a840	0.09797716
9	0xbde7b788	-0.11314303
10	0xbce9dfc6	-0.028549086
11	0x3ca87e41	0.020568015
12	0xbf7d1503	-0.98860186
13	0x3f4444fa	0.7666775
14	0x3f5de619	0.86679226
15	0x3ed06a64	0.4070617
16	0x3e21b1c4	0.15790468
17	0xbebef6e1	-0.3729773

transformer_encoder.layers.0.self_attn.out_proj.weight f4 [6, 6]
0	0x3d57f707	0.052725818
1	0x3d56c7d9	0.052436683
2	0x3ed78ca0	0.42099476
3	0x3e9c7da9	0.3056462
4	0xbc3be8fa	-0.01146912
5	0x3c68aa16	0.014200708
6	0x3e948669	0.29008797
7	0xbe20d17d	-0.15704913
8	0xbf0305ad	-0.51180536
9	0xbe419e8f	-0.18908142
10	0xbd9a40cf	-0.075318925
11	0x3dd2af29	0.102873154
12	0xbe6f28c6	-0.23355398
13	0xbec52fc4	-0.38513005
14	0xbf18817b	-0.5957257
15	0x3e411ee3	0.18859439
16	0x3eb5edf6	0.35533112
17	0xbe319e02	-0.17345431
18	0x3e0b27d7	0.13589416
19	0x3dc507b4	0.0962061
20	0x3d965b3b	0.073416196
21	0x3ce93388	0.028466955
22	0xbf02160d	-0.50814897
23	0x3ee4ee8d	0.4471325
24	0xbe816640	-0.25273323
25	0x3e04d358	0.12971246
26	0xbe08051d	-0.132832
27	0xbccc6598	-0.024950787
28	0x3e99f664	0.30070794
29	0x3e4acd54	0.19804889
30	0x3f0d38e3	0.5516493
31	0xbdd6217b	-0.10455605
32	0x3e0b21e1	0.13587143
33	0xbee22865	-0.44171444
34	0x3ccacd4b	0.024756094
35	0x3e020249	0.12696184

transformer_encoder.layers.0.self_attn.out_proj.bias f4 [6]
0	0xbe438f13	-0.19097547
1	0xbfc032c8	-1.5015497
2	0xbea106ac	-0.31450403
3	0x3f26ce33	0.65158385
4	0x3f355159	0.7082725
5	0xbf7ca8f9	-0.9869533

transformer_encoder.layers.0.linear1.weight f4 [2048, 6]
0	0x3ea8d867	0.32977602
1	0x3e1624b9	0.14662446
2	0x3c5d441d	0.013505009
3	0x3e31b318	0.17353475
4	0xbe4ad0a6	-0.19806156
5	0x3e021d59	0.12706508
6	0x3e6624e1	0.22475006
7	0x3e0deb55	0.13859303
8	0x3ebfe18a	0.3747676
9	0x3e0386ed	0.12844439
10	0xbeb5075b	-0.35357174
11	0x3eb11792	0.34588295
12	0xbd648210	-0.0557881
13	0xbc897b2a	-0.016782362
14	0xbe2d8aee	-0.16947529
15	0x3e645bf2	0.223007
16	0x3ea19a67	0.31563112
17	0xbe2cdacc	-0.1688034
18	0x3ed2fcf3	0.4120861
19	0xbea47008	-0.32116723
20	0xbe7ef7d7	-0.24899231
21	0x3e1e549c	0.15461963
22	0xbd343239	-0.04399321
23	0xbeab2a75	-0.3343083
24	0x3e0a0883	0.1347981
25	0x3f48a10d	0.78370744
26	0xbddf7cab	-0.109124504
27	0x3d40bbc0	0.047054052
28	0x3e87c8e0	0.26520443
29	0xbe2adeec	-0.166866
30	0x3efce5e7	0.49394152
31	0xbe0fd2a2	-0.14045194
32	0xbdcf70d4	-0.10128942
33	0x3d0ea7c4	0.034827963
34	0xbde8dd99	-0.113703914
35	0x3f42d1c4	0.76101327
36	0xbd86bd9c	-0.06579134
37	0x3d3aa880	0.04557085
38	0x3ec3479d	0.38140574
39	0xbdf0b4a9	-0.11753208
40	0x3d859b90	0.06523812
41	0xbe1141ca	-0.14185253
42	0x3ccba3d3	0.02485839
43	0xbbeb9300	-0.0071891546
44	0xbef604fa	-0.48050672
45	0xbd96b3ef	-0.07358538
46	0xbe563664	-0.20919186
47	0x3ec9b9a8	0.39399457
48	0xbea707fc	-0.3262328
49	0x3f32439e	0.69634426
50	0xbdc8aab4	-0.09798184
51	0xbe89eb21	-0.26937202
52	0xbec8a047	-0.39184782
53	0xbde618ca	-0.11235197
54	0x3c274c14	0.0102110095
55	0x3eefb756	0.46819562
56	0xbd83e107	-0.06439405
57	0xbf9c9f88	-1.2236185
58	0x3d142800	0.03617096
59	0xbdd7a5ee	-0.105296955
60	0xbece68e7	-0.4031441
61	0x3f3b21ab	0.7309825
62	0x3d77174e	0.06032496
63	0xbe373834	-0.17892534
64	0x3e846d62	0.25864702
65	0x3e3fa572	0.18715456
66	0xbcea2dd2	-0.028586302
67	0x3dec8e72	0.11550607
68	0xbe19869a	-0.14992753
69	0x3e3a565c	0.18197006
70	0x3ec34f16	0.38146275
71	0x3ed183bd	0.4092082
72	0xbe5b080a	-0.21389785
73	0xbeaf9396	-0.34292287
74	0x3f184958	0.59486914
75	0xbe3994e5	-0.18123205
76	0x3dcc5805	0.09977726
77	0xbe89f6d6	-0.26946133
78	0x3e9af618	0.3026588
79	0x3d3cd93d	0.046105612
80	0xbe95d12f	-0.29261157
81	0x3e6e4690	0.23269105
82	0x3def84fa	0.11695285
83	0x3ce2ba22	0.027676646
84	0x3eeac282	0.45851523
85	0x3e915a3a	0.2838915
86	0xbedbcc15	-0.4292914
87	0x3ebe41bf	0.37159535
88	0x3e6754bc	0.22590917
89	0xbde0eca1	-0.109826334
90	0x3e641dda	0.22277012
91	0x3cb97c5e	0.02264231
92	0x3f0b44af	0.5440168
93	0xbe57aac5	-0.21061237
94	0xbedecc54	-0.43515265
95	0x3d750406	0.05981829
96	0x3dcede77	0.101010256
97	0xbcc1920b	-0.023629209
98	0x3e88d090	0.2672162
99	0xbebaa948	-0.36457276
100	0xbd4774c5	-0.048695344
101	0x3f0bab8d	0.5455864
102	0xbe85e877	-0.2615392
103	0x3ef7b50d	0.48380318
104	0xbeb7879f	-0.35845658
105	0xbdb82c65	-0.089928426
106	0xbda3d77a	-0.08000083
107	0xbd7c022d	-0.061525512
108	0x3d48b49b	0.049000364
109	0xbee39a54	-0.4445368
110	0xbf03e930	-0.5152769
111	0x3c9b034c	0.01892247
112	0xbe27b11d	-0.16376157
113	0x3e8b36a3	0.27190122
114	0x3ecb4f30	0.39708853
115	0xbdb7e775	-0.08979694
116	0xbea5b3a0	-0.32363605
117	0xbe303ca3	-0.17210631
118	0xbea1c5d1	-0.31596234
119	0xbd2092d2	-0.03920252
120	0xbe0e7294	-0.13910896
121	0x3deee70c	0.116651624
122	0x3e69179d	0.22762914
123	0x3e6045ac	0.21901578
124	0xbe7adc8c	-0.24498194
125	0x3e27159e	0.1631684
126	0xbe9a101f	-0.30090424
127	0xbe5bbc93	-0.21458654
128	0x3e2fad0b	0.17155854
129	0xbf30d32b	-0.69072217
130	0x3f24fabb	0.64445084
131	0xbe3b180d	-0.18270893
132	0xbd8ae4db	-0.06781932
133	0x3df6adac	0.12044844
134	0xbe9fe4fd	-0.31229392
135	0xbe894a51	-0.2681451
136	0xbe72151b	-0.23640864
137	0xbe730263	-0.23731379
138	0xbec2c22f	-0.38038775
139	0x3e7c6523	0.24647956
140	0x3e43c39c	0.19117588
141	0xbe4fb74c	-0.20284766
142	0x3d18bdf4	0.03729053
143	0x3f372a43	0.7154886
144	0xbec992ee	-0.3936991
145	0x3ee46224	0.44606125
146	0xbe67ef25	-0.2264982
147	0x3e1f5b6d	0.1556222
148	0x3e6e98f7	0.23300539
149	0x3ecfabeb	0.4056085
150	0xbf07c8ed	-0.53040963
151	0xbeb1a2c4	-0.34694493
152	0x3f05f736	0.5233034
153	0xbeb686ef	-0.3564982
154	0x3e13b812	0.14425686
155	0xbecdd05b	-0.40198025
156	0xbee8d857	-0.45477554
157	0x3ee1a6c9	0.4407256
158	0x3ea26553	0.3171793
159	0xbe8f6d0d	-0.28012887
160	0x3d337a64	0.043817893
161	0x3e884e2a	0.26622134
162	0xbe725344	-0.23664576
163	0x3eeab050	0.4583764
164	0xbd8cb899	-0.06871147
165	0x3e4cd14e	0.20001718
166	0x3f0acf36	0.5422243
167	0x3eb586be	0.35454363
168	0x3e9b5c84	0.3034402
169	0xbf09b12d	-0.53785974
170	0x3e86a72c	0.26299417
171	0xbee82d74	-0.45347178
172	0xbe84beab	-0.25926718
173	0x3db352fd	0.08756063
174	0xbd89437f	-0.06702327
175	0x3d99b3f7	0.07505029
176	0xbdc98419	-0.09839649
177	0x3e87baf3	0.26509818
178	0x3eb38273	0.35060462
179	0x3ed7a3a9	0.4211705
180	0x3f0c0d20	0.5470753
181	0x3e7361bd	0.23767753
182	0xbdd09b98	-0.10185927
183	0x3dc8f5b8	0.09812492
184	0xbde36dce	-0.11104928
185	0x3db815cf	0.08988535
186	0x3eded545	0.43522087
187	0x3f0316f0	0.51206875
188	0x3d530617	0.05151948
189	0xbf8afea8	-1.0858965
190	0x3da28b85	0.079367675
191	0x3db0d8de	0.08635114
192	0x3e118c02	0.14213565
193	0xbe6398b3	-0.22226219
194	0x3dc763e3	0.09735849
195	0x3d3bfb99	0.04589424
196	0xbc654309	-0.013993033
197	0x3dd6792f	0.10472333
198	0xbec88960	-0.3916731
199	0x3f035a38	0.5130954
200	0xbede9da3	-0.43479642
201	0xbe7d2a0d	-0.24723072
202	0xbe74c2f6	-0.23902497
203	0xbe18e9b0	-0.14932895
204	0xbe2ffb71	-0.17185761
205	0xbdb6771e	-0.089094386
206	0xbd1a3b6b	-0.03765432
207	0xbc73cdf3	-0.014880645
208	0x3e826fd9	0.25475958
209	0x3e92e504	0.2869035
210	0x3dce1d09	0.10064132
211	0xbe01740e	-0.12641928
212	0xbdb719db	-0.089404784
213	0xbf5cad28	-0.86201715
214	0xbea089b6	-0.31355065
215	0x3e930b83	0.2871972
216	0xbe475ab4	-0.19468194
217	0x3c25645e	0.01009473
218	0x3e8a01f9	0.2695463
219	0x3dd2a3ca	0.102851465
220	0x3e48ea6c	0.19620675
221	0x3bdac842	0.0066767046
222	0xbe8e3a8e	-0.2777905
223	0x3d307ac9	0.043085847
224	0x3eb6b6af	0.35686252
225	0xbea7bbf3	-0.3276058
226	0x3e0b9275	0.13630088
227	0x3e5e635f	0.21717595
228	0x3e8c3d86	0.2739069
229	0xbc8a1a72	-0.016858313
230	0xbd2333e5	-0.039844412
231	0xbf87fd27	-1.0624131
232	0x3e64d50e	0.22346899
233	0x3f118b02	0.56852734
234	0xbeb301f9	-0.34962443
235	0x3f485c3d	0.78265744
236	0x3d859a9f	0.06523632
237	0xbd33bcf0	-0.043881357
238	0xbe221053	-0.1582654
239	0x3e662301	0.2247429
240	0x3ec4177a	0.3829916
241	0x3e85b026	0.26110953
242	0x3dd38780	0.10328579
243	0xbf0352d6	-0.5129827
244	0x3c5bef08	0.013423689
245	0xbe25c7cc	-0.16189498
246	0xbeaa832f	-0.3330321
247	0xbea53104	-0.32263958
248	0xbe672538	-0.22572792
249	0x3dfe3c5d	0.12413857
250	0x3ea091b8	0.31361175
251	0xbe107ba0	-0.14109659
252	0xbe41a9b1	-0.18912388
253	0x3f2cf2a9	0.6755777
254	0x3dfc848f	0.12329971
255	0xbe817b50	-0.25289392

transformer_encoder.layers.0.linear1.bias f4 [2048]
0	0xbe0071c2	-0.12543395
1	0xbebdbecb	-0.37059626
2	0xbda621fd	-0.081119515
3	0xbd340d85	-0.043958206
4	0xbe52add4	-0.20574123
5	0xbe4ea20f	-0.20179008
6	0x3e550caa	0.20805612
7	0xbda3d727	-0.080000214
8	0xbe363e6a	-0.17797247
9	0xbe8a4d69	-0.27012184
10	0x3ed1c33f	0.40969273
11	0x3e1828b3	0.14859276
12	0xbe9587c3	-0.2920514
13	0xbd132ef9	-0.03593347
14	0xbe7fe612	-0.24990109
15	0x3d838ae4	0.06422976
16	0x3e7a1890	0.24423432
17	0xbd95161e	-0.07279609
18	0xbe1a5c1a	-0.15074196
19	0x3ea19e48	0.31566072
20	0xbef504d9	-0.4785526
21	0xbdf38a17	-0.11891573
22	0x3defd9cf	0.117114656
23	0xbe4723c7	-0.19447242
24	0xbe54f1cb	-0.20795362
25	0x3e1982f0	0.14991355
26	0x3eb7e4d4	0.3591677
27	0x3e23bd85	0.15990265
28	0x3dce2f56	0.10067622
29	0x3bbd1922	0.0057708183
30	0x3d678381	0.056521896
31	0xbe599643	-0.21248727
32	0x3da58223	0.08081462
33	0xbd623ef6	-0.055235825
34	0x3e286edc	0.1644854
35	0xbeb9262f	-0.36161944
36	0xbdfec436	-0.12439768
37	0x3ea588a7	0.3233082
38	0x3eb6a9f9	0.35676554
39	0xbe72a141	-0.23694326
40	0xbf0134af	-0.50471014
41	0xbdb3f200	-0.08786392
42	0xbd892db7	-0.066981725
43	0x3c1571e4	0.009121392
44	0xbe8373a3	-0.2567416
45	0xbe50c470	-0.20387435
46	0x3d2bfb13	0.04198749
47	0x3e9b1b7b	0.30294403
48	0xbe36e227	-0.17859708
49	0x3dae01aa	0.08496411
50	0x3e6d46e2	0.23171571
51	0xbeb5d830	-0.355165
52	0x3db44f02	0.08804132
53	0x3e22d031	0.15899731
54	0xbdde70f9	-0.108613916
55	0x3e5d5aa7	0.21616612
56	0x3e95d7e4	0.29266274
57	0x3da90aab	0.08253988
58	0x3e989293	0.29799327
59	0x3ec0cd14	0.37656462
60	0x3e7e5536	0.24837193
61	0x3ea4df20	0.3220148
62	0xbec44756	-0.38335675
63	0x3ea0e0f0	0.31421614
64	0xbe7ef76e	-0.24899074
65	0xbec2edba	-0.38071996
66	0x3d533d59	0.051572178
67	0xbef5a9c2	-0.47981077
68	0xbc45fb64	-0.012083862
69	0x3e6e1ed9	0.23253955
70	0x3e9f960b	0.3116916
71	0x3d95305f	0.07284617
72	0x3e8f5c73	0.2800022
73	0xbdc23b4e	-0.09483968
74	0xbd9df1a1	-0.07712103
75	0x3d4bc40e	0.04974752
76	0xbda5d04a	-0.080963686
77	0x3d998a1a	0.07497044
78	0x3e100d57	0.14067589
79	0x3e280968	0.16409838
80	0x3e593086	0.21209916
81	0xbe9dfd41	-0.3085728
82	0x3e904aa9	0.2818196
83	0xbcc2e136	-0.02378903
84	0xbec9c032	-0.39404446
85	0x3eac8477	0.33694813
86	0xbe974dee	-0.29551643
87	0x3ec27042	0.3797627
88	0x3eb3f5e6	0.35148543
89	0xbd802e0f	-0.06258785
90	0xbec58023	-0.38574323
91	0xbe3718b0	-0.17880511
92	0xbe4fd8d3	-0.20297556
93	0xbe681e90	-0.22667909
94	0xbd3a577d	-0.04549359
95	0xbe0c15b1	-0.1368015
96	0xbe0e2820	-0.13882494
97	0x3e34ff33	0.17675476
98	0x3d880114	0.06640831
99	0xbd86d9ab	-0.065844856
100	0xbddabbfa	-0.10680385
101	0x3e7de24c	0.24793357
102	0x3eb97217	0.36219856
103	0x3d33c4c1	0.04388881
104	0x3d0d2333	0.034457397
105	0x3b97ce07	0.0046327147
106	0xbe198be8	-0.14994776
107	0xbe43a52b	-0.19105975
108	0x3db98110	0.0905782
109	0x3c9b95d1	0.018992336
110	0xbeb14f79	-0.34630945
111	0xbe1aac3f	-0.15104769
112	0xbe36aaf1	-0.17838646
113	0x3e8e263f	0.27763554
114	0x3ebf07a8	0.3731053
115	0xbe9c6cae	-0.30551666
116	0x3e67d072	0.2263811
117	0xbe7868af	-0.24258684
118	0xbe1637af	-0.14669679
119	0x3e0b7f12	0.13622692
120	0xbebbf588	-0.36710763
121	0x3e34e179	0.17664136
122	0x3e4f9a72	0.2027376
123	0x3e6736e7	0.22579537
124	0x3e1929a6	0.14957294
125	0xbe6b0fe8	-0.22955287
126	0xbdb98577	-0.090586595
127	0xbe81f282	-0.2538033
128	0xbe6f0bb2	-0.23344305
129	0xbc1bdfe0	-0.009513825
130	0xbec65e12	-0.38743645
131	0x3e7be47a	0.24598876
132	0xbe4d88f4	-0.20071775
133	0x3e67c7ed	0.2263486
134	0xbeae04b4	-0.33987963
135	0x3b4f5025	0.0031633463
136	0xbec00175	-0.37501112
137	0x3cf6b4f5	0.030115584
138	0xbe9926d6	-0.29912442
139	0xbedcae77	-0.43101856
140	0x3e77572a	0.24154344
141	0xbebd09dc	-0.36921585
142	0xbebcc93b	-0.36872277
143	0x3eaef40f	0.34170577
144	0x3d898a31	0.06715811
145	0x3e1e88a9	0.15481819
146	0xbe10d1a0	-0.14142466
147	0x3e729c57	0.23692451
148	0xbee523f4	-0.44753993
149	0xbeafac41	-0.34311107
150	0xbeb6d52e	-0.35709518
151	0xbeac94da	-0.33707315
152	0x3eaacd43	0.33359727
153	0x3e3aebdc	0.18254036
154	0xbec96f6e	-0.39342827
155	0xbe59d60d	-0.2127306
156	0xbeb42fb6	-0.3519265
157	0xbe97d9d3	-0.29658374
158	0x3eca4257	0.39503738
159	0xbc8f876e	-0.017520633
160	0x3e7faac6	0.24967489
161	0xbe978e34	-0.2960068
162	0x3e99fd90	0.30076265
163	0xbe0a5f51	-0.13512923
164	0xbc900c52	-0.017584
165	0x3d4132f0	0.04716772
166	0x3e947442	0.28994948
167	0x3e930a9e	0.28719038
168	0xbe373aba	-0.17893496
169	0x3ea13a73	0.31489906
170	0x3edaffc7	0.42773268
171	0x3e854be8	0.26034474
172	0xbe661869	-0.22470249
173	0xbdfccc85	-0.123436965
174	0x3dc8b5db	0.09800311
175	0x3d923b7f	0.07140254
176	0xbe6b4188	-0.22974217
177	0xbe854611	-0.2603002
178	0xbe9731ce	-0.29530185
179	0x3d7b2fdd	0.061324943
180	0xbe3d7729	-0.18502487
181	0xbeed5c17	-0.4635932
182	0x3dbc2e47	0.09188514
183	0xbe191b85	-0.14951904
184	0xbdc14dc0	-0.09438658
185	0xbe62ad02	-0.2213631
186	0xbdbed28b	-0.09317502
187	0x3cbd657d	0.023119682
188	0xbe0b479c	-0.13601536
189	0xbe33292f	-0.17496179
190	0x3e99b8a8	0.30023694
191	0xbe7f3cd0	-0.24925542
192	0xbedea169	-0.4348252
193	0x3ebfdadf	0.37471673
194	0xbe9e337c	-0.30898654
195	0xbdf3a542	-0.11896755
196	0x3e978b3a	0.2959841
197	0xbde7dca8	-0.11321384
198	0xbcd3baa3	-0.025845831
199	0x3eb6e096	0.3571822
200	0xbae1f57e	-0.00172393
201	0x3e2e8e80	0.17046547
202	0x3da68ed0	0.08132708
203	0x3ce4a884	0.027912386
204	0xbed84723	-0.42241773
205	0xbe3256fe	-0.17415997
206	0x3dccafbd	0.09994457
207	0x3ec6518f	0.387341
208	0xbe131bb1	-0.14366032
209	0xbe9e44ca	-0.30911857
210	0x3e91bc5c	0.2846402
211	0x3a809643	0.0009810406
212	0xbb7d5d02	-0.0038660173
213	0x3e0c960b	0.13729112
214	0x3e2be3fe	0.16786191
215	0xbe879550	-0.26481104
216	0xbe3454bf	-0.17610453
217	0x3e444d9e	0.19170234
218	0xbe7779ed	-0.24167605
219	0xbe14c01e	-0.14526412
220	0x3dc3d5cb	0.09562262
221	0xbec4df5a	-0.38451654
222	0xbe0ef59c	-0.1396088
223	0xbec7c7d9	-0.3901966
224	0xbe98f8a0	-0.29877186
225	0xbe976395	-0.29568163
226	0x3ee1f82b	0.4413465
227	0x3e96dd43	0.29465684
228	0xbd46af7e	-0.048507206
229	0xbc7d16b6	-0.015447309
230	0xbe841672	-0.25798374
231	0x3e146c5d	0.14494462
232	0xbc1745bd	-0.0092329355
233	0xbebf7d54	-0.37400305
234	0x3dc9be02	0.09850694
235	0x3e46a0d9	0.19397296
236	0xbeaebf6f	-0.34130427
237	0xbdc71db9	-0.09722466
238	0xbea5a1b9	-0.32349947
239	0xbda9d7eb	-0.08293136
240	0x3e1080ca	0.14111629
241	0x3e47d294	0.19513923
242	0x3e0afe1d	0.13573499
243	0xbe9b3f8c	-0.3032192
244	0x3eb85ae2	0.36006838
245	0xbd1852ae	-0.037188224
246	0xbdbdfb41	-0.092764385
247	0x3e8bae5a	0.27281457
248	0x3e2d69f3	0.16934948
249	0xbc9cbb46	-0.019132268
250	0x3d4a5900	0.049401283
251	0xbced77d0	-0.028987795
252	0xbd157039	-0.036483977
253	0xbeb148f9	-0.34625986
254	0xbe9b598a	-0.3034175
255	0x3e16a9db	0.14713232

transformer_encoder.layers.0.linear2.weight f4 [6, 2048]
0	0xbc0654eb	-0.008198957
1	0xbcb59b4f	-0.022168783
2	0x3cf4b264	0.02987022
3	0xbd1e7ae1	-0.038691405
4	0xbe3b842d	-0.1831214
5	0xbea858db	-0.3288029
6	0x3d0ea08d	0.034821082
7	0xbd371d04	-0.044705406
8	0x3cff5bc7	0.031171693
9	0xbf364521	-0.7119923
10	0x3d512e01	0.051069263
11	0x3bbe7f6e	0.0058135306
12	0xbe875063	-0.26428518
13	0x3d29d83b	0.04146598
14	0x3d5419cf	0.051782425
15	0xbc6c63ea	-0.014428118
16	0xbb650e61	-0.0034951197
17	0x3d1f42d1	0.03888208
18	0x3c74c40b	0.014939318
19	0xbcc914b4	-0.024546005
20	0x3d2baf75	0.041915376
21	0xbe87e664	-0.26542962
22	0xbd2cc825	-0.04218306
23	0xbe7b570e	-0.24544927
24	0x3d08b370	0.03337425
25	0xbce897b0	-0.028392643
26	0x3bbb48eb	0.0057154796
27	0x3b15e119	0.0022869764
28	0xbe8f67b7	-0.28008816
29	0x3d27e787	0.040992286
30	0xbb746a9b	-0.0037294987
31	0xbf16549f	-0.5872287
32	0x3d071ead	0.03298824
33	0x3d9d33b9	0.07675881
34	0x3c9673a6	0.018365692
35	0xbf15738a	-0.58379424
36	0x3cc9601d	0.024581963
37	0xbe7fa74d	-0.24966164
38	0xbf0e48e4	-0.5557997
39	0x3d05647b	0.03256653
40	0x3e4c526b	0.19953315
41	0x3c7bf367	0.015377856
42	0xbe9c0676	-0.3047368
43	0x3c3411e2	0.010990592
44	0xbc1cb303	-0.009564164
45	0xbc243ce4	-0.010024283
46	0xbe4dc59b	-0.20094912
47	0xbe21783d	-0.15768524
48	0x3d197472	0.037464567
49	0xbc47882e	-0.012178464
50	0xbe17ac93	-0.14811926
51	0xbe8b0d58	-0.27158618
52	0xbd6169e3	-0.055032622
53	0xbbae619e	-0.0053216955
54	0xbeab930c	-0.33510625
55	0xbcb7bc68	-0.022428706
56	0xbe450eb9	-0.19243897
57	0x3cdc34c2	0.026880626
58	0x3a6bab1c	0.0008990036
59	0xbea5155c	-0.32242858
60	0xbda9bd53	-0.08288064
61	0x3d6737cc	0.056449696
62	0xbe9f0456	-0.31057996
63	0xbe8d0195	-0.2754027
64	0xbe49a1b5	-0.19690593
65	0x3d3bb137	0.045823302
66	0xbe6308fa	-0.22171393
67	0x3c648e66	0.013949966
68	0xbb8bc90a	-0.004265909
69	0x3cbc5163	0.022988027
70	0x3dac6283	0.08417227
71	0x3d8305ab	0.063975655
72	0xbc840e85	-0.016120205
73	0xbe8e8ed9	-0.2784336
74	0xbe6bd20a	-0.23029342
75	0xbbbd4b13	-0.005776772
76	0x3ce30f29	0.02771719
77	0xbcb1cb16	-0.021703284
78	0x3c567886	0.013090258
79	0x3c862fdb	0.016380241
80	0xbaa7cfc4	-0.0012803008
81	0xbeacd805	-0.3375856
82	0x3c73a09e	0.014869837
83	0xbdc9e615	-0.09858338
84	0x3ce14c46	0.02750219
85	0xbde97003	-0.11398318
86	0xbe672cc8	-0.22575676
87	0xbeb9f31f	-0.363183
88	0xbc98a597	-0.018633647
89	0x3d604ff1	0.054763738
90	0x3da7e26c	0.081974834
91	0x3cd7d59a	0.02634697
92	0x3ebe5391	0.3717313
93	0xbeb93473	-0.36172828
94	0x3c23ddba	0.010001594
95	0xbe28f699	-0.1650032
96	0xbe2225fa	-0.158348
97	0x3a91c48a	0.0011121195
98	0x3c838677	0.016055329
99	0x3d03d4f5	0.032185514
100	0x3cf3d99e	0.029766854
101	0x3c89369e	0.016749676
102	0x3d818251	0.06323684
103	0xbd1a6670	-0.03769535
104	0x3be4c073	0.0069809495
105	0xbe41119f	-0.18854378
106	0x3cdd3788	0.027004018
107	0x3cc7fca3	0.024412459
108	0xbed17360	-0.40908337
109	0xbf01fb7c	-0.5077436
110	0x3eaf3d74	0.34226573
111	0xbe316f81	-0.17327692
112	0xbd577701	-0.052603725
113	0xba6a1366	-0.0008929282
114	0xbcf3f345	-0.029779086
115	0xbd828b12	-0.06374182
116	0x3d18a057	0.037262287
117	0xbe11d36b	-0.14240806
118	0x3d251ffb	0.040313702
119	0xbdb1acc5	-0.08675531
120	0xbcb150e4	-0.021645017
121	0x3dab5da2	0.083674684
122	0x3aaa311e	0.0012984609
123	0x3c5c046d	0.01342879
124	0x3c7e0673	0.015504467
125	0x3d36c0e8	0.044617563
126	0x3c966ca1	0.018362345
127	0xbc393ebf	-0.011306464
128	0xbf0c80a3	-0.54883784
129	0xbd0d25d7	-0.034459915
130	0x3d823e7c	0.06359574
131	0xbdb11ac2	-0.08647682
132	0xbe9b2a48	-0.30305696
133	0xbdd1bd95	-0.10241238
134	0xbec386bf	-0.3818874
135	0xbead1072	-0.3380161
136	0xbe85774a	-0.26067573
137	0xbd647935	-0.055779655
138	0x3b86df37	0.0041159648
139	0x3e045cbc	0.12926
140	0x3ec6a4cc	0.38797605
141	0x3c458e75	0.01205789
142	0xbc6d1c65	-0.014472102
143	0x3d726a7b	0.05918358
144	0x3d06aed7	0.032881584
145	0xbe123a19	-0.14279975
146	0xbf072d36	-0.5280336
147	0x3c70bed1	0.014693932
148	0x3bbfe845	0.005856546
149	0x3c027d2d	0.007964415
150	0x3c9804fd	0.018557066
151	0xbf351813	-0.7073986
152	0x3d013b1a	0.031550504
153	0xbd19c888	-0.037544757
154	0xbcde8022	-0.027160708
155	0x3cadfb6c	0.021238051
156	0xbe9b38f5	-0.30316892
157	0xbe6e79cc	-0.2328865
158	0x3c665ed4	0.014060695
159	0x3dc09862	0.09404065
160	0xbca48a7b	-0.020085564
161	0x3d977b21	0.07396532
162	0xbc70092c	-0.014650624
163	0xbdd1a4a8	-0.10236484
164	0x3d035a26	0.032068394
165	0x3b08a988	0.0020853002
166	0xbd4766ea	-0.04868213
167	0x3b9c5e9c	0.0047720205
168	0x3d3ce2f2	0.04611487
169	0xbdc977d6	-0.0983731
170	0xbe1de22f	-0.15418313
171	0xbbb79d44	-0.0056034643
172	0xbf060402	-0.52349865
173	0xbe63cf60	-0.22247076
174	0x3cf11bf9	0.029432284
175	0xbdf15131	-0.11783064
176	0xba44c4f1	-0.0007506153
177	0xbf0603f8	-0.52349806
178	0xbc1728f3	-0.009226072
179	0x3c8df4ec	0.017328702
180	0x3e340ff6	0.17584214
181	0xbdd429eb	-0.10359558
182	0x3d34550f	0.04402643
183	0xbe119071	-0.14215256
184	0xbe5148b0	-0.20437884
185	0x3c0836e1	0.008313865
186	0x3c5126fd	0.012765643
187	0x3e1d7271	0.15375687
188	0xbe9e06eb	-0.30864653
189	0x3b0c7f0e	0.0021438035
190	0x3b92728e	0.0044692224
191	0x3d91668f	0.070996396
192	0xbf1ee75e	-0.6207179
193	0xbe1b1133	-0.1514328
194	0x3d84e910	0.06489766
195	0x3d41ee89	0.047346625
196	0x3bbfbe9a	0.005851579
197	0xbdaf3026	-0.085541055
198	0x3d160e0b	0.036634486
199	0xbafcab6a	-0.001927716
200	0xbe9057ba	-0.2819193
201	0xbd4b373d	-0.049613226
202	0xbd02f273	-0.0319695
203	0x3c708bf7	0.014681808
204	0x3c1be279	0.0095144445
205	0x3ccfab6b	0.025350293
206	0x3d3c8c0d	0.046032
207	0xbd6848bb	-0.056709986
208	0xbe7380d3	-0.23779611
209	0xbe5ca16e	-0.21545956
210	0x3d40cac6	0.04706838
211	0x3d15514a	0.036454476
212	0x3bca71c0	0.006178111
213	0x3a320761	0.00067912607
214	0xbe2242e9	-0.15845837
215	0x3d2d863d	0.042364348
216	0x3c43e09b	0.011955406
217	0xbdc362d9	-0.09540338
218	0xbeec1e18	-0.4611671
219	0x3d09b7c4	0.03362252
220	0xbca1c998	-0.019749448
221	0xbc96baec	-0.018399678
222	0x3d699892	0.057030268
223	0xbd077626	-0.03307166
224	0x3d1f057b	0.038823586
225	0xbf1b542b	-0.60675305
226	0xbbcf8b8f	-0.0063337754
227	0xbdeb5405	-0.11490635
228	0x3c5ec43e	0.0135965925
229	0xbcf15491	-0.02945927
230	0xbe0dace4	-0.13835484
231	0xbb3af322	-0.0028526266
232	0xbf34e9d7	-0.7066931
233	0x3d2a14d5	0.041523773
234	0x3c3fc124	0.011703763
235	0xbe7ffbb8	-0.24998367
236	0x3d74e8b9	0.059792254
237	0xbdb2b5a3	-0.08726051
238	0x3d612b0f	0.054972704
239	0xbe72b9b5	-0.23703654
240	0x3b86fce7	0.004119504
241	0xbb46e3d0	-0.003034819
242	0x3c228be0	0.009921044
243	0x3d833c4e	0.064079866
244	0xbd1903b5	-0.03735705
245	0xbdf37df1	-0.11889256
246	0xbe09db9c	-0.1346268
247	0xbe5c6f2e	-0.21526787
248	0x3c055d01	0.00813985
249	0xbb7cc743	-0.0038570918
250	0x3cdce5b9	0.026965009
251	0x3b6b0a17	0.0035864168
252	0xbdd188e0	-0.10231185
253	0xbf25f0f4	-0.6482079
254	0x3c901583	0.017588383
255	0xbd4549ed	-0.048166204

transformer_encoder.layers.0.linear2.bias f4 [6]
0	0x3c596aa1	0.013270051
1	0xbd43a259	-0.04776225
2	0xbcf1ebb9	-0.029531347
3	0xbdb3eb6e	-0.08785139
4	0x3d77c101	0.060486797
5	0x3d67920b	0.05653576

transformer_encoder.layers.0.norm1.weight f4 [6]
0	0x3f862364	1.047955
1	0x3fac32ad	1.3452965
2	0x3fa6c2ec	1.3028235
3	0x3f6c9ae3	0.9242384
4	0x3f8140b3	1.009787
5	0x3f883a03	1.0642704

transformer_encoder.layers.0.norm1.bias f4 [6]
0	0x3d613561	0.054982547
1	0xbcd2fe99	-0.025756167
2	0x3cae33f1	0.021265002
3	0xbdc98de0	-0.09841514
4	0x3d8cd2cb	0.06876143
5	0x3d895e18	0.067074

transformer_encoder.layers.0.norm2.weight f4 [6]
0	0x3f6108d8	0.8790412
1	0x3f87d121	1.0610696
2	0x3f8cfa50	1.1013889
3	0x3f857396	1.0425899
4	0x3f8998a3	1.0749706
5	0x3f772865	0.9654601

transformer_encoder.layers.0.norm2.bias f4 [6]
0	0x3e69700a	0.22796646
1	0xbd25ba65	-0.040460963
2	0x3caec9f9	0.021336542
3	0xbd531ab8	-0.051539153
4	0xbe290bdc	-0.1650843
5	0x3dd71746	0.10502486

transformer_encoder.layers.1.self_attn.in_proj_weight f4 [18, 6]
0	0x3efbed32	0.49204403
1	0xbecd6ca4	-0.4012195
2	0xbf1113b1	-0.5667067
3	0xbe1ac156	-0.15112814
4	0xbedde4d3	-0.43338642
5	0x3eb43a54	0.3520075
6	0x3e0de580	0.13857079
7	0x3f073631	0.52817065
8	0xbe39ed30	-0.18156886
9	0xbeafe53d	-0.34354582
10	0xbf81f78d	-1.0153672
11	0xbf04419c	-0.5166261
12	0xbe27f0d5	-0.16400464
13	0x3e5964b4	0.21229821
14	0xbef90616	-0.48637456
15	0x3d1012fa	0.035174347
16	0xbeaeab76	-0.3411519
17	0xbd265d8b	-0.040616553
18	0x3e444517	0.1916698
19	0x3ebbb15a	0.36658746
20	0x3ecd6c27	0.40121576
21	0xbe4c7a9d	-0.19968648
22	0x3e3f1c96	0.18663248
23	0x3e85a3fc	0.26101673
24	0xbc6338a8	-0.013868488
25	0x3e0c9ad4	0.13730937
26	0xbead7872	-0.33880955
27	0x3eeba9d8	0.46028018
28	0x3e598d03	0.21245198
29	0x3ed1586b	0.4088777
30	0x3deefa84	0.11668876
31	0xbe7c4aee	-0.24637958
32	0xbe8fffb2	-0.28124768
33	0xbe975138	-0.29554152
34	0xbf52a9af	-0.82290167
35	0x3d744ddd	0.05964457
36	0xbe0344e8	-0.12819254
37	0x3f17a787	0.5924
38	0x3ec656b7	0.38738033
39	0xbee7d1b7	-0.45277187
40	0xbfa44663	-1.283398
41	0xbed63c96	-0.41843098
42	0xbf0b1085	-0.5432208
43	0x3d81af83	0.06332304
44	0xbe9b78b5	-0.3036553
45	0x3ed502a7	0.41603586
46	0xbe5523bd	-0.20814414
47	0xbf50f3fd	-0.81622297
48	0xbed6e2cd	-0.4196991
49	0x3ef65c6f	0.48117396
50	0x3e1af1e6	0.1513134
51	0x3d315b29	0.043299828
52	0x3d3e490d	0.046456385
53	0xbd3f0868	-0.046638876
54	0x3e1e4a53	0.1545804
55	0x3ea42a22	0.32063395
56	0x3d9b89d1	0.07594646
57	0x3c9713e7	0.018442107
58	0xbda84637	-0.082165174
59	0xbe7b1110	-0.24518228
60	0xbdaaa8fe	-0.08333014
61	0xbe8c0e05	-0.27354446
62	0xbeba1070	-0.36340666
63	0x3e95fdbf	0.29295155
64	0x3e064b1d	0.13114591
65	0xbd77f62d	-0.060537506
66	0x3f55294a	0.8326613
67	0xbedd9dc2	-0.43284422
68	0x3d626f63	0.055282008
69	0x3c0bf833	0.008543062
70	0xbe52eb6d	-0.2059762
71	0x3f17b315	0.5925763
72	0x3e656037	0.22399984
73	0x3e1c21c2	0.15247253
74	0x3e10a8cc	0.14126891
75	0x3f40754b	0.75178975
76	0x3f0772ef	0.5290975
77	0x3d005033	0.031326484
78	0xbf2a0755	-0.6641744
79	0x3d61640f	0.055027064
80	0x3e903398	0.28164363
81	0xbeae450a	-0.34037048
82	0x3d153c7d	0.03643464
83	0xbe39bb79	-0.18137921
84	0xbf03db12	-0.5150615
85	0xbe921149	-0.28528813
86	0x3f12f31f	0.57402223
87	0x3a36c649	0.0006972296
88	0xbe5b1f62	-0.2139869
89	0xbeb76c4f	-0.3582482
90	0xbf321dda	-0.695768
91	0x3ecc86f4	0.3994671
92	0x3ea26a34	0.31721652
93	0x3e49e166	0.19714889
94	0xbde71d2a	-0.112848595
95	0xbf0c0e6f	-0.54709524
96	0x3e1470ef	0.14496206
97	0x3f2937b6	0.66100633
98	0xbdc34c05	-0.09535984
99	0x3e2a70c1	0.16644575
100	0xbec6bcee	-0.38816017
101	0x3dea6276	0.11444561
102	0x3c84a3fb	0.016191473
103	0x3e2806c2	0.16408828
104	0x3eecb4f8	0.46231818
105	0x3c91d2d7	0.017800732
106	0x3ee0d2db	0.4391087
107	0xbedc3026	-0.43005484

transformer_encoder.layers.1.self_attn.in_proj_bias f4 [18]
0	0x3e318e66	0.17339477
1	0xbdb8b6c8	-0.09019238
2	0x3eea5721	0.457696
3	0x3ef5e47a	0.48025876
4	0xbe067cfd	-0.13133617
5	0x3ef0d8cf	0.47040412
6	0x3b16fe9e	0.0023039947
7	0x3a89542f	0.0010477359
8	0x393fe9b6	0.00018302244
9	0x3b129938	0.0022369158
10	0xb81459b5	-3.5369496e-05
11	0x3abf0fc4	0.0014576842
12	0x3d82dc4f	0.06389677
13	0x3d0be932	0.03415794
14	0xbd561d8f	-0.052274283
15	0xbdfcc587	-0.12342363
16	0xbda65d23	-0.08123233
17	0x3d5aab69	0.053386126

transformer_encoder.layers.1.self_attn.out_proj.weight f4 [6, 6]
0	0x3ea48a60	0.32136822
1	0x3ea1243d	0.3147296
2	0x3f0341dd	0.51272374
3	0x3ec6b813	0.38812312
4	0xbe90ad8d	-0.2825741
5	0xbe4a4af7	-0.1975516
6	0x3e9d612c	0.307382
7	0xbdfd8d28	-0.12380439
8	0xbefecd28	-0.49765897
9	0xbe8721d1	-0.26392987
10	0x3d8d3330	0.06894529
11	0x3ead2389	0.33816174
12	0xbed466ce	-0.41484684
13	0xbeebd197	-0.46058342
14	0xbc59ec6b	-0.013300995
15	0x3df93dc4	0.12169984
16	0x3e569d82	0.20958522
17	0x3ee03676	0.4379155
18	0x3e92f84f	0.2870507
19	0xbd239289	-0.03993467
20	0xbe9fa0ad	-0.31177273
21	0xbe250b65	-0.16117628
22	0xbed87678	-0.42277884
23	0x3e0b59da	0.13608494
24	0xbe1e608d	-0.15466519
25	0xbca7844a	-0.020448823
26	0x3eb3aaaa	0.35091144
27	0x3d65f142	0.056138285
28	0x3ec613f5	0.386871
29	0xbed24e4b	-0.41075358
30	0x3dd777c7	0.105208926
31	0x3e2400fc	0.16016
32	0x3e43565d	0.19075914
33	0xbed016ff	-0.40642545
34	0xbebaddcc	-0.36497343
35	0x3d1d8632	0.038458057

transformer_encoder.layers.1.self_attn.out_proj.bias f4 [6]
0	0xbdc5f6b2	-0.09666194
1	0xbd7ecb1e	-0.062205426
2	0xbd6a68b1	-0.057228748
3	0x3b86a9cb	0.0041095964
4	0xbdc63ec2	-0.09679939
5	0x3d1e5cb7	0.03866264

transformer_encoder.layers.1.linear1.weight f4 [2048, 6]
0	0x3e82c934	0.2554413
1	0xbd5a6ae9	-0.053324614
2	0xbbc1672a	-0.0059021907
3	0x3e9fe48c	0.31229055
4	0xbe4314a4	-0.19050843
5	0x3de82807	0.113357596
6	0x3bc97899	0.0061484096
7	0x3e32648f	0.17421173
8	0x3dc28a29	0.09499008
9	0x3e59e1cf	0.21277545
10	0xbe8b19c6	-0.271681
11	0x3f191aa5	0.5980628
12	0xbe80ae49	-0.2513297
13	0x3d3693a0	0.04457438
14	0xbd093569	-0.0334982
15	0x3e7b7902	0.2455788
16	0x3ea3c80f	0.3198857
17	0xbea0ab5b	-0.31380734
18	0x3eb17e96	0.3466689
19	0xbebcfa8a	-0.36909896
20	0xbe7d5da3	-0.24742751
21	0x3e0d5c8f	0.1380484
22	0x3d7e9b62	0.062159903
23	0xbe850f38	-0.25988173
24	0x3d4e686f	0.050392564
25	0x3f0d2ba2	0.55144703
26	0xbe0eb8be	-0.13937661
27	0x3ce4f55c	0.027949028
28	0x3e9aa1d1	0.3020158
29	0xbde6e1c7	-0.11273532
30	0x3e72ba6a	0.23703924
31	0xbba44c0e	-0.0050139492
32	0xbc7101df	-0.014709919
33	0x3dafbc42	0.08580829
34	0xbd895841	-0.06706286
35	0x3ea026f9	0.31279734
36	0xbe7da966	-0.24771652
37	0xbe814bad	-0.2525305
38	0x3e6ae642	0.22939399
39	0x3dafe9d9	0.08589525
40	0x3d602851	0.05472595
41	0xbda329a6	-0.07966928
42	0xbdb468db	-0.08809062
43	0x3ccb34e8	0.024805501
44	0xbec37bf5	-0.3818051
45	0x3ceb3639	0.028712379
46	0xbde0230b	-0.10944184
47	0x3af12822	0.0018398801
48	0xbe8c1177	-0.27357075
49	0x3dc658ed	0.0968493
50	0xbe39a8a5	-0.18130739
51	0xbdf600c0	-0.12011862
52	0xbe9c7197	-0.30555412
53	0xbe042542	-0.12904838
54	0xbdb2da9f	-0.08733105
55	0x3ec14fa8	0.37756085
56	0xbb873cbc	-0.004127113
57	0xbeacf236	-0.33778542
58	0x3de41da0	0.11138463
59	0xbe1958f0	-0.14975333
60	0xbee55abd	-0.4479579
61	0x3eb0059f	0.3437929
62	0xbb6ae50f	-0.0035842096
63	0xbcc2d2c7	-0.023782147
64	0x3e208629	0.15676178
65	0x3d614928	0.055001408
66	0xbea0e1f9	-0.31422403
67	0x3dc7af04	0.097501785
68	0xbdc82b0d	-0.09773836
69	0x3e788061	0.24267723
70	0x3e8032c9	0.25038746
71	0x3ef48cf1	0.4776378
72	0xbe7d2dd3	-0.24724512
73	0xbee2f992	-0.44331032
74	0x3e74ffe8	0.23925745
75	0x3dce9185	0.100863494
76	0x3e2a5831	0.16635205
77	0xbe56bc18	-0.2097019
78	0x3c73f9f2	0.014891135
79	0xbd0afa37	-0.03393003
80	0xbdbfa548	-0.09357697
81	0x3eac457f	0.3364677
82	0x3d867e4e	0.065670595
83	0xbd8c7ae6	-0.068593785
84	0x3e1b043d	0.15138336
85	0x3eb4e18d	0.35328332
86	0xbf3b0438	-0.7305331
87	0x3f013e25	0.5048545
88	0x3ee7bfdd	0.45263568
89	0x3c2a6b23	0.01040152
90	0x3bdcf0d0	0.0067425743
91	0x3cd5af1e	0.026084479
92	0x3dc59a39	0.09648556
93	0x3bcbaa7a	0.0062153907
94	0xbe1d8a69	-0.1538483
95	0x3e3f0882	0.18655589
96	0x3d3f71f6	0.04673954
97	0xbdd1c80e	-0.102432355
98	0x3df22456	0.11823337
99	0xbdc201c8	-0.09472996
100	0x3dfe2382	0.12409116
101	0x3e086395	0.13319238
102	0xbec410c8	-0.38294053
103	0x3e246942	0.16055778
104	0xbddb9359	-0.10721464
105	0xbcb40607	-0.02197553
106	0xbe58a045	-0.21154888
107	0xbd9a434a	-0.075323656
108	0xbdecef16	-0.115690395
109	0xbeb8815c	-0.36036193
110	0xbe969d3e	-0.2941684
111	0x3e0c4f79	0.13702191
112	0xbe152d1a	-0.14567986
113	0x3e4400b6	0.19140896
114	0x3df7ca3f	0.12099122
115	0xbe388de7	-0.18022881
116	0xbed5f650	-0.41789484
117	0x3d73b057	0.059494343
118	0xbe1a1a38	-0.15049064
119	0xbde2ec41	-0.11080218
120	0xbee023cf	-0.4377732
121	0x3dfce52d	0.12348399
122	0x3e6a24ac	0.22865552
123	0x3d86b207	0.06576925
124	0xbe912641	-0.28349498
125	0x3ec2513b	0.379526
126	0xbde674fb	-0.11252781
127	0xbdf55b0e	-0.11980258
128	0x3cf9a7d3	0.030475533
129	0xbefcc06c	-0.49365556
130	0x3eca83f4	0.39553797
131	0xbd99fda9	-0.07519085
132	0xbe82b787	-0.25530645
133	0xbdb7046e	-0.08936392
134	0xbea9cf6e	-0.3316607
135	0xbe2e746a	-0.17036596
136	0xbdd3a421	-0.103340395
137	0xbe08a0bf	-0.1334257
138	0xbe9f0031	-0.31054834
139	0x3ea58605	0.3232881
140	0xbcf41d01	-0.029798986
141	0xbe435e61	-0.19078971
142	0x3d63c6e8	0.055609614
143	0x3eb6edc0	0.35728264
144	0xbeb58c79	-0.35458735
145	0x3ef0f21e	0.4705972
146	0xbef4b76f	-0.477962
147	0x3e336737	0.17519842
148	0xbd894f3f	-0.06704568
149	0x3edd86e2	0.4326697
150	0xbee729a5	-0.4514896
151	0xbf15d70c	-0.5853126
152	0x3e1d4b61	0.15360786
153	0xbea161ca	-0.3151992
154	0x3ecad30d	0.39614144
155	0xbe4ed4a8	-0.2019831
156	0xbecab404	-0.39590466
157	0x3e8aeae5	0.27132335
158	0x3e7f7fed	0.24951144
159	0xbe198440	-0.14991856
160	0x3e0bf096	0.13665995
161	0x3ea059d3	0.3131853
162	0xbebc727b	-0.36806092
163	0x3eb2944a	0.3487876
164	0xbe111d22	-0.1417127
165	0x3ed2f499	0.41202238
166	0x3e797ea7	0.2436472
167	0x3dd78461	0.10523296
168	0x3e2c2384	0.16810423
169	0xbe7c1ff8	-0.2462157
170	0xbdb5f49d	-0.08884547
171	0xbe461722	-0.19344762
172	0x3c02abb1	0.007975505
173	0xbd4424f7	-0.047886815
174	0xbe904482	-0.28177267
175	0x3e0117a1	0.1260667
176	0xbe2059f5	-0.15659316
177	0x3ede6df3	0.4344326
178	0x3e6f4f5b	0.23370115
179	0x3ebde450	0.3708825
180	0x3e076643	0.13222603
181	0x3de92cb5	0.1138548
182	0xbd3ba0a7	-0.045807507
183	0x3e8bc76b	0.2730058
184	0xbdbded5b	-0.092737876
185	0x3df65110	0.1202718
186	0x3e75f648	0.2401973
187	0x3e41e187	0.18933688
188	0x3e2cba23	0.1686788
189	0xbe3606b7	-0.17775999
190	0x3e32951d	0.17439695
191	0x3e0d81c8	0.13819039
192	0x3d39b95b	0.045342784
193	0xbe793775	-0.24337561
194	0xbd004551	-0.031316105
195	0x3d0729ef	0.032998975
196	0x3e369ca5	0.17833193
197	0x3dff6335	0.12470094
198	0xbecc7c82	-0.39938742
199	0x3d9ed5c9	0.0775562
200	0xbef28cea	-0.47373134
201	0xbe263c23	-0.16233878
202	0xbe7f5f8b	-0.2493879
203	0xbde2d6ae	-0.11076103
204	0xbed8b4ec	-0.42325532
205	0xbd82e9c9	-0.06392247
206	0xbe007a3d	-0.1254663
207	0x3dded221	0.10879923
208	0x3d877546	0.06614165
209	0x3eb74206	0.3579256
210	0x3d461ecc	0.048369214
211	0xbe637f2b	-0.2221648
212	0xbde20eb8	-0.11037964
213	0xbe033605	-0.12813576
214	0xbecd2968	-0.40070653
215	0x3d92f63a	0.0717587
216	0xbdff68de	-0.12471174
217	0xbe135c4d	-0.14390679
218	0x3e742148	0.23840821
219	0x3e3e7a59	0.1860136
220	0x3e1cc083	0.15307812
221	0xbd22a91c	-0.039712057
222	0xbe36ac72	-0.1783922
223	0x3e0c1da5	0.13683183
224	0x3dccd2af	0.10001122
225	0xbe2048fd	-0.15652843
226	0x3de08ac1	0.10963965
227	0x3d28b99e	0.041192643
228	0x3e78deec	0.24303788
229	0xbe30794d	-0.17233773
230	0xbe474091	-0.19458224
231	0xbd9b9f52	-0.07598747
232	0x3ea25ca2	0.31711298
233	0x3e1989bd	0.14993949
234	0xbf027d0b	-0.5097205
235	0x3e9d3780	0.30706406
236	0x3d920d10	0.07131398
237	0x3e6f34c8	0.23359978
238	0xbe4bf5e9	-0.19918026
239	0x3e96c420	0.29446507
240	0x3da1b493	0.0789577
241	0x3e74e135	0.23914035
242	0x3e4c95db	0.1997904
243	0xbe717554	-0.23579913
244	0x3e98cd70	0.29844236
245	0xbe681b65	-0.226667
246	0xbeabd6af	-0.33562228
247	0xbefe4b6d	-0.4966692
248	0xbe335f47	-0.17516814
249	0x3e1365df	0.1439433
250	0x3ea5a39f	0.32351395
251	0xbe1acb55	-0.15116628
252	0xbddc9458	-0.10770482
253	0x3e72fd6b	0.23729484
254	0x3dd3c737	0.103407316
255	0xbdcbfdfa	-0.099605516

transformer_encoder.layers.1.linear1.bias f4 [2048]
0	0xbe27a1f8	-0.1637038
1	0xbf1df835	-0.6170686
2	0xbdb4dc40	-0.08831072
3	0xbe0ab277	-0.13544641
4	0xbe66400a	-0.22485366
5	0xbe080f25	-0.13287027
6	0x3e1b27b2	0.15151861
7	0xbe883e91	-0.26610234
8	0xbe52ebf1	-0.20597817
9	0xbf0f377e	-0.5594405
10	0x3eaf71af	0.3426642
11	0x3e775199	0.24152221
12	0xbec5094f	-0.38483664
13	0xbd2f6026	-0.042816304
14	0xbe9a3801	-0.30120853
15	0xbe4981ed	-0.19678469
16	0x3dbe0ce8	0.092798054
17	0xbb31be28	-0.0027121399
18	0xbe75d093	-0.24005346
19	0x3e2d2f84	0.16912657
20	0xbf12d3e5	-0.57354575
21	0xbeac659f	-0.3367128
22	0x3cfd0fa7	0.030891253
23	0xbed627b7	-0.41827175
24	0xbe6a5f0e	-0.22887823
25	0xbd8b672c	-0.06806788
26	0x3e13a7d9	0.14419498
27	0x3e962e00	0.2933197
28	0xbdfb2829	-0.12263519
29	0xbcc37fbd	-0.023864621
30	0x3b414767	0.0029492022
31	0xbe7441ee	-0.23853275
32	0x3d19ec9f	0.037579175
33	0xbe2a1208	-0.16608441
34	0x3e2c3ab3	0.16819267
35	0xbef8cf35	-0.48595586
36	0xbdb57691	-0.08860505
37	0x3dbf1276	0.09329693
38	0x3e7524ed	0.23939867
39	0xbe87b1d3	-0.26502857
40	0xbedd3138	-0.43201613
41	0xbe34fd6b	-0.17674796
42	0xbe203d64	-0.15648419
43	0x3e144132	0.14477995
44	0xbec5390f	-0.38520095
45	0xbe0b095d	-0.1357779
46	0xbd5b5667	-0.053549197
47	0x3e08fff2	0.13378885
48	0xbe8163aa	-0.2527135
49	0x3cfd4899	0.030918406
50	0xbd2ddc65	-0.042446513
51	0xbf015fe9	-0.5053697
52	0xbe4e3ef7	-0.20141207
53	0xbbb19811	-0.005419739
54	0xbe1ecdf6	-0.15508255
55	0xbb51d1bc	-0.003201588
56	0xbd572311	-0.052523676
57	0x3e0c37eb	0.13693206
58	0x3e8130da	0.25232583
59	0x3d5d7622	0.05406774
60	0xbd154c02	-0.03644944
61	0x3e06187a	0.13095275
62	0xbebd9249	-0.3702567
63	0x3e13f6ff	0.1444969
64	0xbeb775e3	-0.35832128
65	0xbed8a5e5	-0.42314067
66	0xbcaf6afa	-0.021413315
67	0xbefc05bb	-0.49223122
68	0x3daad13d	0.0834069
69	0x3e34eefa	0.17669287
70	0x3e741f7b	0.23840134
71	0x3d4508c1	0.04810405
72	0x3e14a21d	0.14514966
73	0xbe0d2b64	-0.13786083
74	0xbdb20419	-0.08692188
75	0x3dc961e9	0.09833128
76	0xbe7647c3	-0.24050812
77	0xbd8283c0	-0.063727856
78	0x3e7847f6	0.24246201
79	0x3e9f2b9c	0.3108796
80	0xbd1d73dd	-0.038440574
81	0xbefa1339	-0.4884279
82	0x3d98f5e0	0.07468772
83	0xbe889e50	-0.26683283
84	0xbedb8ede	-0.42882437
85	0xbcf2529a	-0.029580403
86	0xbeb5166b	-0.35368666
87	0x3e989169	0.2979844
88	0x3e1a323e	0.15058228
89	0xbd0d1bd2	-0.03445036
90	0xbe942dd4	-0.28941214
91	0xbea4fe9c	-0.32225502
92	0xbe97d6d7	-0.29656097
93	0xbeb6b791	-0.35686925
94	0x3d982c3d	0.07430313
95	0xbebdb21d	-0.37049952
96	0xbe3909c6	-0.18070135
97	0x3d8780e6	0.06616382
98	0x3dd5bd52	0.104365006
99	0xbe2fb55a	-0.17159024
100	0xbe4c10c8	-0.19928277
101	0x3eb8fa7d	0.36128607
102	0x3dc1c073	0.09460535
103	0xbea9ae1b	-0.33140644
104	0xbccec507	-0.025240434
105	0xbe11bcf6	-0.14232239
106	0xbd7614c5	-0.0600784
107	0xbed5d6bd	-0.41765395
108	0xbe2808bd	-0.16409583
109	0xbe81d2db	-0.25356182
110	0xbec3e691	-0.38261846
111	0xbe70b036	-0.23504719
112	0xbe6406e5	-0.22268255
113	0x3df47694	0.119366795
114	0x3e893a6f	0.26802394
115	0xbf071838	-0.5277133
116	0x3e793bb0	0.24339175
117	0xbe93ea96	-0.28889912
118	0xbe9727dd	-0.295226
119	0x3ca6e08a	0.02037074
120	0xbee5e796	-0.4490325
121	0xbd96b706	-0.07359128
122	0x3d9a1b8a	0.07524784
123	0x3e1a5e4f	0.15075038
124	0x3dcf5b80	0.10124874
125	0xbeaa877c	-0.3330649
126	0xbd97e213	-0.07416167
127	0xbec7e5bc	-0.3904246
128	0xbe756382	-0.2396374
129	0x3b9f50f6	0.004861946
130	0xbed87a51	-0.4228082
131	0xbcc2b7f9	-0.023769366
132	0xbebadfa3	-0.36498746
133	0x3c788baa	0.015170017
134	0xbf076750	-0.5289202
135	0xbe079eb7	-0.13244139
136	0xbed1f4d0	-0.4100709
137	0x3c8511ac	0.016243778
138	0xbe979f8f	-0.2961392
139	0xbef49c68	-0.47775578
140	0x3e43cdba	0.19121447
141	0xbe92ff0e	-0.28710216
142	0xbee193a2	-0.44057947
143	0x3e477f42	0.19482139
144	0x3dccd88f	0.10002243
145	0xbd6ca4fb	-0.057774525
146	0xbd856f68	-0.0651539
147	0x3e643b3e	0.22288224
148	0xbed7e15c	-0.42164123
149	0xbefa3e03	-0.48875436
150	0xbed0ceb9	-0.40782717
151	0xbeb43417	-0.3519599
152	0x3e8f9424	0.2804271
153	0xbd1c97d0	-0.038230717
154	0xbee389e7	-0.4444115
155	0xbe71bcda	-0.23607197
156	0xbe958f2a	-0.29210788
157	0xbeec9bde	-0.46212667
158	0x3e6a24ed	0.22865649
159	0xbe94ed2e	-0.29087204
160	0x3d39c672	0.045355268
161	0xbe5d1312	-0.21589306
162	0x3e517061	0.20453025
163	0xbeacc6e9	-0.33745506
164	0xbc055b27	-0.008139408
165	0x3d9dca6b	0.07704624
166	0xbcf925a9	-0.030413466
167	0x3ce618bf	0.028087972
168	0xbe763699	-0.24044265
169	0x3e4c4734	0.19949037
170	0x3e44332e	0.19160149
171	0x3ea03e74	0.31297648
172	0xbe9ca1b8	-0.30592132
173	0xbe10ea04	-0.1415177
174	0x3dea2ff0	0.114349246
175	0xbdeb0786	-0.11476044
176	0xbea18a96	-0.31551045
177	0xbe8f7ad5	-0.280234
178	0xbe237c66	-0.15965423
179	0xbd9a189b	-0.07524224
180	0xbe283ce8	-0.16429484
181	0xbec29ec7	-0.38011762
182	0xbd8b3e95	-0.06799046
183	0x3b906000	0.0044059753
184	0xbe43d480	-0.19124031
185	0xbea1234b	-0.3147224
186	0xbd01da27	-0.031702187
187	0xbd0d56b3	-0.03450651
188	0xbea3679e	-0.3191499
189	0xbe9bd466	-0.30435485
190	0x3e6311f3	0.22174816
191	0xbeafcc5f	-0.3433561
192	0xbede5fe8	-0.43432546
193	0x3dde9c20	0.10869622
194	0xbe50e2ee	-0.20399067
195	0xbe0b7472	-0.13618639
196	0x3e843a80	0.25825882
197	0xbeac940c	-0.337067
198	0xbe1ab639	-0.15108575
199	0x3e0473a6	0.12934741
200	0xbe7c433e	-0.24635026
201	0x3df66c2a	0.120323494
202	0x3d6db868	0.05803719
203	0xbbb4b8a4	-0.005515175
204	0xbef6d7d1	-0.4821153
205	0xbe9a2dad	-0.30112973
206	0x3cab7b10	0.020932704
207	0x3e1a3760	0.15060186
208	0xbe508727	-0.20364057
209	0xbeb4c5b7	-0.35307094
210	0x3cc440e0	0.023956716
211	0xbe183eba	-0.14867678
212	0xbddf99bb	-0.10917994
213	0x3dac92e8	0.08426458
214	0x3c1db91e	0.009626655
215	0xbebe833a	-0.37209493
216	0xbe803ec5	-0.2504789
217	0x3dc9ae39	0.098476835
218	0xbed8cab3	-0.42342147
219	0xbee1c9e5	-0.44099346
220	0xbdf521a5	-0.11969308
221	0xbed65b59	-0.41866568
222	0xbe865984	-0.2624017
223	0xbedf7cd6	-0.4364993
224	0xbea57b90	-0.32320833
225	0xbf0dd08e	-0.55396354
226	0x3d9c9852	0.0764624
227	0x3ecef475	0.4042088
228	0xbd67c133	-0.056580734
229	0xbd9e0cbe	-0.07717274
230	0xbee730bb	-0.45154366
231	0x3e375898	0.1790489
232	0xbdd80cc5	-0.105493106
233	0xbe9a5247	-0.30140898
234	0x3e2be440	0.16786289
235	0xbcd3b430	-0.025842756
236	0xbec7cec9	-0.39024952
237	0xbe9969e2	-0.29963595
238	0xbedb9791	-0.42889073
239	0xbe442645	-0.19155224
240	0x3e79e182	0.2440243
241	0x3d99f186	0.0751677
242	0x3e56dc82	0.20982555
243	0xbeb40274	-0.35158122
244	0x3e6dd401	0.23225404
245	0xbe649af2	-0.22324732
246	0xbe9909bc	-0.2989024
247	0xbbc1666e	-0.005902103
248	0x3df5cd5b	0.12002059
249	0x3ca756ea	0.020427186
250	0xbdf6d7a1	-0.12052847
251	0xbc8bae35	-0.017050842
252	0xbe14c157	-0.14526878
253	0xbeee78df	-0.46576592
254	0xbead721a	-0.33876115
255	0x3d7c73b6	0.061633788

transformer_encoder.layers.1.linear2.weight f4 [6, 2048]
0	0x3d01cbdf	0.031688567
1	0xbe33fe72	-0.17577532
2	0xbdbc5e44	-0.09197667
3	0xbd83889e	-0.06422542
4	0xbe23174c	-0.15926856
5	0xbc86834d	-0.016420031
6	0x3ca4bcb7	0.020109517
7	0x3d753791	0.059867445
8	0x3cb4b830	0.022060484
9	0x3df47576	0.119364664
10	0x3d01a879	0.03165481
11	0xbd6b2208	-0.0574055
12	0xbd9e1bf3	-0.07720175
13	0x3c821d74	0.015883185
14	0xbe2617ce	-0.16220018
15	0x3c2533ec	0.01008318
16	0xbc4e1584	-0.012578372
17	0x3d52e3ad	0.05148666
18	0xbd4a1493	-0.049336027
19	0x3c7e96d7	0.015538893
20	0xbba72110	-0.005100377
21	0xbd059113	-0.032609057
22	0x3ccde611	0.025134118
23	0x3e110324	0.14161354
24	0x3e92d555	0.28678384
25	0xbcef775c	-0.02923172
26	0xbd168705	-0.03674986
27	0xbc978ac6	-0.01849879
28	0x3bb3dcf4	0.005488986
29	0xbd22fc2d	-0.039791275
30	0xbb4cbf97	-0.0031242126
31	0xbb681ef6	-0.0035418845
32	0x3d869ff8	0.0657348
33	0x3d892b00	0.06697655
34	0xbdc8d9da	-0.09807177
35	0xbc0086b1	-0.007844613
36	0xbcf4f20c	-0.029900573
37	0xbcba37a0	-0.022731602
38	0xba0e34aa	-0.00054247177
39	0xbda6b490	-0.08139908
40	0x3d30723f	0.043077704
41	0x3d9c483b	0.07630964
42	0x3ad11f49	0.0015954758
43	0x3c9b6e04	0.018973358
44	0x3d4f9da8	0.050687462
45	0x3bd74aef	0.006570212
46	0xbd10c24a	-0.03534154
47	0xbcb9bab1	-0.02267203
48	0x3d440f8a	0.04786638
49	0x3bcf76c0	0.006331295
50	0xbbd3a84a	-0.0064592706
51	0x3e2f8073	0.17138843
52	0x3ced73a8	0.028985813
53	0xbb9fe708	-0.004879836
54	0xbdc94330	-0.09827268
55	0xbb32ba0d	-0.002727154
56	0xbbd4a474	-0.006489331
57	0x3c99b00e	0.018760707
58	0xbc55a6c2	-0.013040246
59	0xbc2d1787	-0.010564691
60	0xbb8bb0db	-0.004263026
61	0xbc932bc6	-0.017965209
62	0x3d331086	0.04371693
63	0xbc1b2410	-0.009469047
64	0xbc3f10fe	-0.011661766
65	0x3bf8b1ba	0.007589546
66	0x3cf4cb12	0.029881988
67	0x3d816d97	0.06319731
68	0xb816a8d5	-3.5920024e-05
69	0xbd4c6ea0	-0.049910188
70	0x3933d37b	0.00017149553
71	0x3d5db817	0.05413064
72	0x3d4d1515	0.050068934
73	0x3c9aa058	0.018875286
74	0x3c25e04d	0.010124278
75	0x3c6979a1	0.01425019
76	0x3d9fbc0d	0.0779954
77	0xba728541	-0.0009251424
78	0xbd95ac36	-0.07308237
79	0x3c19791b	0.009367253
80	0x3c7f662a	0.015588323
81	0x3c15d0ba	0.009144003
82	0x3b415238	0.002949847
83	0x3ce19330	0.027536005
84	0x3dede404	0.11615756
85	0x3c55424e	0.013016297
86	0x3c5e6122	0.013572963
87	0xbc71d8ce	-0.014761163
88	0x3c77065b	0.015077199
89	0x3d23a14a	0.03994874
90	0x3dbaad57	0.09115093
91	0x3e52b9ca	0.20578685
92	0x3c37e885	0.011224871
93	0x3d9fcca6	0.078027055
94	0x3c1caf1d	0.009563235
95	0x3d37c82d	0.044868637
96	0xbb65a707	-0.0035042183
97	0xbc0e8587	-0.008698828
98	0x3c4acc06	0.012377745
99	0xba89722f	-0.00104863
100	0x3cd16ef5	0.025565604
101	0xbbcfce34	-0.00634172
102	0xbcd0d033	-0.025489902
103	0xbcd85055	-0.026405493
104	0xbc411b97	-0.011786363
105	0xbce37164	-0.02776403
106	0x3d9ac172	0.07556428
107	0x3ddfd1c0	0.109286785
108	0x3c28df51	0.010307149
109	0xbc8e9252	-0.017403755
110	0x3d81320c	0.06308374
111	0x3c0dca69	0.008654215
112	0xbd4de2ec	-0.050265238
113	0xbccf81d6	-0.025330465
114	0x3cfb9ed3	0.030715382
115	0x3d8f4874	0.06996241
116	0x3c750fa8	0.014957346
117	0x3ccc7c3f	0.024961589
118	0xbc6f04b2	-0.014588522
119	0xbd1d9b6d	-0.038478304
120	0xbc59a2ff	-0.01328349
121	0xbc77313b	-0.015087421
122	0x3c7caee0	0.015422553
123	0xbc12c078	-0.008957021
124	0xbb551dc4	-0.0032518962
125	0x3da6caac	0.08144125
126	0xbddad3ed	-0.10684953
127	0xbe2fc608	-0.17165387
128	0x3cabca1d	0.020970399
129	0x3d62dc72	0.055386014
130	0x3e259506	0.16170129
131	0x3ba7c828	0.005120296
132	0xbdae7cbe	-0.085198864
133	0xbba08ff3	-0.0048999726
134	0xbdefcb30	-0.11708677
135	0xbc2b8dab	-0.010470788
136	0xbd6dce1e	-0.058057897
137	0xbc8e98c9	-0.017406838
138	0x3dd3af23	0.10336139
139	0xbc205728	-0.009786405
140	0xbc8ea68d	-0.017413402
141	0x3d8fe491	0.070260175
142	0xbd8251aa	-0.063632324
143	0x3bef0493	0.0072942465
144	0xbd27fcac	-0.04101245
145	0xbc670aaf	-0.014101668
146	0xbd35af4d	-0.044356633
147	0x3ceb15f9	0.028697
148	0xbc726451	-0.014794425
149	0xbc7588d6	-0.0149862375
150	0x3d5e0c05	0.05421068
151	0x3dddccc9	0.10830075
152	0x3be57b90	0.007003255
153	0xbd27ae57	-0.040937748
154	0xbbb3b60b	-0.0054843477
155	0xbd1a73f2	-0.03770823
156	0x3d448abe	0.047983877
157	0x3d98ecbd	0.07467029
158	0xbb8a4ba6	-0.004220444
159	0x3da204ad	0.07911048
160	0x393625f3	0.0001737101
161	0x3d0d6788	0.034522563
162	0xbc219cb7	-0.009864024
163	0x3c1d1fc4	0.009590093
164	0xbc636760	-0.013879627
165	0x3caaadc8	0.020834818
166	0xbc0b2c3a	-0.008494431
167	0xbc081cba	-0.00830763
168	0xbd965c21	-0.07341791
169	0xbc77c39c	-0.0151223205
170	0xbbd67cbc	-0.006545631
171	0xbdd5ab5f	-0.10433077
172	0x3b668f49	0.003518062
173	0xbc600493	-0.013672966
174	0xbacdd6cf	-0.0015704277
175	0x3c3759c7	0.011190838
176	0xbd2fa8d3	-0.042885613
177	0x3d4fb82d	0.050712753
178	0x3d80eb3a	0.06294866
179	0x3dd992d6	0.1062371
180	0xbda7a429	-0.08185608
181	0xbb664148	-0.0035134126
182	0xbce5fff1	-0.028076144
183	0xbcd33c77	-0.025785668
184	0x3bd93843	0.0066290214
185	0xbc995b8e	-0.018720414
186	0x3d34b49e	0.044117562
187	0xbb9fa827	-0.0048723402
188	0x3ca7f745	0.02050365
189	0x3d53d36e	0.051715307
190	0xbab3ba26	-0.0013712093
191	0x3e38ffc3	0.18066315
192	0x3d8674e4	0.06565264
193	0xbc987212	-0.01860908
194	0x3e16748d	0.14692898
195	0xbd7524f2	-0.059849687
196	0xbc87a27b	-0.016556969
197	0x3ceaf71b	0.028682282
198	0xbd64f2fe	-0.055895798
199	0xbc9c7f3d	-0.01910364
200	0xbb25943a	-0.0025265352
201	0x3dcdc94b	0.10048159
202	0x3c43f6bd	0.011960682
203	0x3c6262ea	0.013817528
204	0x3cc88178	0.024475798
205	0xbc1c00b7	-0.009521655
206	0xbaf9dcae	-0.001906296
207	0xbc03e88e	-0.008051051
208	0x3d9c6557	0.076365165
209	0xbcaa76a7	-0.020808531
210	0xbb47c194	-0.0030480372
211	0xbc1050c1	-0.008808316
212	0xbc3cd94b	-0.011526416
213	0x3b36ecdd	0.0027912178
214	0xbd2c061f	-0.041998025
215	0x3c88d83e	0.016704675
216	0x3d8b050b	0.06788071
217	0xbbd531d3	-0.0065061837
218	0x3cc1235c	0.023576431
219	0xbe1d6c79	-0.1537341
220	0xbc70abff	-0.014689445
221	0xbd0a3b2b	-0.033747833
222	0x3d4c2547	0.049840238
223	0x3d8c09a2	0.06837775
224	0x3cef70f5	0.029228667
225	0xbcaf6e0a	-0.021414775
226	0xbbfbd20a	-0.0076849507
227	0x3c40cc6e	0.01176749
228	0xbd7911e9	-0.060808096
229	0x3d7bee95	0.061506826
230	0x3d2236d4	0.03960307
231	0xbc35a39b	-0.01108637
232	0x3d3bb09f	0.045822736
233	0x3d885cc5	0.066583194
234	0xbd1f7d90	-0.038938105
235	0xbca14a50	-0.019688755
236	0x3e0e3af1	0.13889672
237	0x3e24f4ff	0.16109084
238	0x3a344353	0.0006876487
239	0x3d612959	0.054971073
240	0x3cb0a2f9	0.021562086
241	0xbd0e4d31	-0.034741584
242	0xbd14720c	-0.036241576
243	0x3d8a005a	0.06738348
244	0xbcc41608	-0.023936287
245	0xbd08b7d4	-0.033378437
246	0x3ba7e661	0.005123899
247	0xbb341733	-0.0027479648
248	0xbd10cbea	-0.035350718
249	0x3cd11c8e	0.025526311
250	0x3d5e7d81	0.05431891
251	0xbc03e677	-0.008050553
252	0x393954be	0.00017674544
253	0xbd6beb95	-0.057597715
254	0x3e8c65de	0.27421468
255	0x3d819e5b	0.06329032

transformer_encoder.layers.1.linear2.bias f4 [6]
0	0xbc4c89c3	-0.012484017
1	0xbd57f46a	-0.052723326
2	0x3b7ec86f	0.0038876792
3	0xbcab409e	-0.020904835
4	0x3c8c069f	0.017093001
5	0x3d43e35c	0.04782425
