DU_model/Transformer/best_model_prod3_tr.2.32.pth (torch, 425022 bytes, 29 tensors)

norm.weight f4 [6]
00000000: 0000 803f 0000 803f 0000 803f 0000 803f
00000010: 0000 803f 0000 803f
1.0 1.0 1.0 1.0 1.0 1.0

norm.bias f4 [6]
00000000: 0000 0000 0000 0000 0000 0000 0000 0000
00000010: 0000 0000 0000 0000
0.0 0.0 0.0 0.0 0.0 0.0

transformer_encoder.layers.0.self_attn.in_proj_weight f4 [18, 6]
00000000: 18c9 d43e c613 d63e 0a56 da3d d262 dc3e
00000010: 9846 0a3e ac2d c0be 2592 893d 7586 42be
00000020: f974 ae3e e1f9 95be 1e4e 3ebe 18f5 bc3b
00000030: b071 c2bd d193 91be b574 59be 208e f43e
00000040: 8898 f63c 50ae 8dbd 19e0 753e e05f 70be
00000050: 5541 fabe 5ba4 df3c 20bf de3e 444f b83e
00000060: 922e 5cbe 010a 1bbe 42d4 e53d 39ed 81be
00000070: 7290 763e 7652 ccbd e93f bd3e b4a7 903e
00000080: 9884 08be bc63 20be 6a8f b7be 3e7b e13e
00000090: 839b bd3e 1efb 47be d4d6 243e 0dca 08bf
000000a0: 82bc 8b3e 6ed4 8a3e 97f3 febe b533 a23e
000000b0: 97ce e93e 98a7 47be 9b16 533c 292c ccbe
000000c0: 495f 9a3e 6a46 f93c e548 00bf e2d9 81be
000000d0: 2732 e1be f059 99bd 9c6f b5be 1f39 3cbe
000000e0: 54ee 023f ec9a 96be 776e 19be 9e0f aabc
000000f0: 438f 9a3e aeb6 95be 5514 edbd 78c5 b1be
00000100: fc5f 1d3e 488e 39bd fb3b ec3e e232 363e
00000110: 26f9 a5bb 27ae 9ebe bc6e ffbe 0a49 983d
00000120: 90cd 34bf 1b10 723e f714 cfbd d3a3 f9be
00000130: 16cb 8d3f fbb8 90be 1ac1 9ebf a8b7 75be
00000140: c9d5 26be 5a56 47be 6ee1 0cbe d114 f3be
00000150: 7e55 a03f 474f cc3b 4ec8 54bf 92e4 aabd
00000160: 0aa8 9abe 42e7 eabd 04e6 b0bf 7580 b63e
00000170: e69f 0b3f b749 f13e 923d 48bd 310a 093e
00000180: fdc6 b4be 4b72 9d3e cc44 123f 5b23 77be
00000190: f3d0 e03e 6bc6 37be 1d07 403f 9a32 0e3e
000001a0: 95de 32bf cd3f b13e 6a60 c93c 45d6 b6be
0.41559672 0.4181196 0.10660942 0.43044144 0.13503492 -0.37534845 0.06717328 -0.18996604
0.34073618 -0.29292205 -0.18584487 0.005766522 -0.094943404 -0.28433087 -0.21235926 0.47764683
0.03010203 -0.06918013 0.24011268 -0.23474073 -0.4887797 0.02730005 0.43505192 0.35997975
-0.2150214 -0.15140535 0.112221256 -0.253763 0.24078539 -0.09976666 0.36962822 0.28252947
-0.1333183 -0.15663046 -0.35851604 0.4403934 0.3703271 -0.19529387 0.16097575 -0.53433305
0.27292258 0.27115196 -0.4979522 0.31680074 0.45665428 -0.19497526 0.0128838075 -0.39877442
0.30150822 0.030429084 -0.5011123 -0.25361544 -0.43983576 -0.07487857 -0.35436714 -0.18381165
0.5114491 -0.2941507 -0.14983545 -0.0207594 0.30187425 -0.29240936 -0.11576144 -0.3472097
0.15368646 -0.045301706 0.4613951 0.17792848 -0.005065101 -0.30992243 -0.4988917 0.07435806
-0.70626163 0.23638956 -0.101114206 -0.487578 1.1077602 -0.2826613 -1.240268 -0.2399584
-0.1629249 -0.19466534 -0.1375787 -0.4747682 1.252609 0.0062350365 -0.8311814 -0.083443776
-0.3020633 -0.1146989 -1.3820195 0.3564488 0.5454086 0.47126552 -0.048886843 0.13382794
-0.35308066 0.3075126 0.57136226 -0.24134581 0.43909416 -0.17946784 0.75010854 0.1388649
-0.69870883 0.3461899 0.024582107 -0.3571035

transformer_encoder.layers.0.self_attn.in_proj_bias f4 [18]
00000000: ce8a 183d 00f8 d4bb f779 15bd 0675 0fbd
00000010: b5f3 843d 9caa 28bc 60c5 88bd e416 963d
00000020: 01cf 1dbd 0cd0 c03c 9c6e d5bc b313 c4bc
00000030: c0a2 9b3e b98c 2dbe 8f7f c9be ddd4 fd3e
00000040: b1f0 ba3e 3005 c8be
0.03724175 -0.0064992905 -0.036493268 -0.03502371 0.06491796 -0.010294583 -0.06678271 0.07328585
-0.038527492 0.023536704 -0.02605372 -0.023935175 0.30397606 -0.16948213 -0.39355132 0.49576464
0.36511758 -0.39066458

transformer_encoder.layers.0.self_attn.out_proj.weight f4 [6, 6]
00000000: 87bc d53c 33a3 c63e 981b b43d c492 cf3d
00000010: 7407 bebc d9b8 11be 042e 043e ef4a d63d
00000020: 0d71 a7be 7d5c e7bd 9385 78bd e6d2 9ebe
00000030: 41e7 2d3d 55fb 8b3d 62be c1be da38 153e
00000040: e023 f13d 9ed2 01be 5e5c ca3d 138c 9d3e
00000050: 779e d6be 60d3 9a3d 22d4 fe3e 13cb 7d3e
00000060: f83c fabd 39ca 1b3e 31ef 693d 9dcc 3cbe
00000070: 95f1 16be 095d 803e 2c1c bdbe 6cee ebbe
00000080: 7463 c3bd 3a0c 8fbd c3ca 803e 0d20 f03d
0.026090873 0.38796386 0.087943256 0.10135415 -0.023196913 -0.1423067 0.12908179 0.10463511
-0.32703438 -0.112969376 -0.06067426 -0.31020278 0.04245687 0.06835047 -0.37840563 0.14572468
0.11774421 -0.12678 0.09880899 0.3077093 -0.41917774 0.07559848 0.4977122 0.24784498
-0.1221866 0.1521386 0.057112876 -0.18437429 -0.14740594 0.2507098 -0.36935556 -0.4608034
-0.095404536 -0.06984754 0.25154695 0.11724863

transformer_encoder.layers.0.self_attn.out_proj.bias f4 [6]
00000000: 4c0b 0bbf b99b 83be cac4 023f 2a4f 07be
00000010: ff18 b1be cd29 0ebe
-0.5431411 -0.25704744 0.51081526 -0.13213792 -0.34589383 -0.13883133

transformer_encoder.layers.0.linear1.weight f4 [2048, 6]
00000000: 55c8 9f3e 8697 5a3e 8ed4 b1bd 5f7b 95be
00000010: eefd a0be c02b 7d3d 211c d3bd e790 9a3e
00000020: d4aa 603e a01b 143e 1b23 b53d 0ae7 afbe
00000030: 3055 1bbe d681 c23e b16e bd3e 9bdc 6dbe
00000040: 4856 543e 9364 0bbd a88c babe ecdf 983d
00000050: 2684 193d d69e f7bd a07a a13e 89ab c9be
00000060: b017 0ebf d7e3 a4be ac70 ff3d 7662 83be
00000070: bc9c d6be 768d 8d3c 0402 3fbe 1dad 0bbe
00000080: 6ca5 52be fd20 d2be 37cb cc3e 0cd3 a0be
00000090: 9b32 2bbf 5734 0dbf 0b1e f43e a24b 2dbd
000000a0: ce60 01be e642 28be 0bd6 9abe 59de b0be
000000b0: d6b7 813e 72ea 913d e248 b13e c166 6cbe
000000c0: c124 ccbd b783 f5bd 3f98 aabe c5e2 913e
000000d0: 1d02 b53e 5ccc c13e 3ef7 373e 4478 96be
000000e0: 7323 7ebe 6a6e 573e be01 393e 66a3 e53e
000000f0: f928 a3be 1f1d 893e 782d 163e b891 b23d
00000100: 2122 ddbe 470d e03d 5b92 82be 8136 1a3e
00000110: 3c2b 043e 8994 6c3e 010d 9a3e 50b8 a6bd
00000120: b60e c0be 5dea 32be a1a6 d33e 9e5b 3c3e
00000130: 6553 9a3e fc57 f8bd 5ce5 3cbe 71e9 953d
00000140: b0cf 5a3e 3901 83be b4f8 12bf 741f 433d
00000150: c9e3 8b3d 5770 c43e ac1f 5b3e 5ad6 adbd
00000160: 2ea4 893d 4eb6 91bd 461f 08bb e0a4 67be
00000170: b437 a03e e636 0f3e 1e2c d6bd 3eb3 13be
00000180: 9405 d23e ac1a 96be d42c 50be a687 0a3e
00000190: b471 36bd 031d 543d 7398 b2be 2350 6e3e
000001a0: d403 9e3e b522 953e f4d3 84bc afb9 a23e
000001b0: bbe0 07be d466 2dbd 973d df3e 8f82 ddbd
000001c0: d746 8a3e 89f2 a2be d79a bd3e 5c5d c83e
000001d0: d59f 27be 6690 be3e f5b0 abbe 0ecd 97be
000001e0: f9b3 91be acfb 0c3f c071 1cbe 40d0 04bf
000001f0: 9a41 923e 9478 07bc 2ed7 253c 9664 f23d
00000200: 5c4b 633d 5f85 8e3e a13c 1b3e 159b aabe
00000210: c033 e53e 98d8 683d c34c e3bd bdcf 4d3d
00000220: dea2 59be 73dd febd da0c 68be e74e 7f3e
00000230: 2817 97bd 7388 02bf 56f0 c6be 8fd2 fb3d
00000240: 2b3a 38be 80b8 c5bd d28c 31be e5a4 b8bc
00000250: 12b4 143e 0fb5 e13d 3aa8 76be b793 273e
00000260: 4eb5 d43c 136e 943e c489 ec3e b42a 903e
00000270: b174 f8be 7c18 87be d1b3 f4bd bf56 afbe
00000280: c1e4 c73e b791 d93c 6be1 c93e 9f87 2bbc
00000290: 1ad1 4ebe a54f 5ebe 8e4a bebe 7e74 523e
000002a0: b550 04bd f956 7f3e 79b1 af3e cf9c 31be
000002b0: 683b c7bd 2961 73be 16e2 f93d 081d 2a3e
000002c0: 0251 a0be 2e27 68be 57fd 88bc d2bd bc3d
000002d0: b0a9 23bd 4b13 94bd f6e9 23be 4d91 d73d
000002e0: 3940 f83c 45a0 63bd 08a9 b33e 65ba c83e
000002f0: bc3d 5cbe aafe 9c3e 124b e8bd 6cfa 973e
00000300: 6f3f e9bd 3a03 8b3e 0c97 8ebc c52f a73e
00000310: 8ec0 0cbd a5bd e7bd 48a9 3dbe 52c1 fc3d
00000320: 90d5 dbbe 08f8 5abe 75dd 8ebe 6a53 843d
00000330: 3460 083f a0d4 9a3e f031 a73e 9177 9bbe
00000340: 4a23 b63e 642b 253c 27ad 1b3e 94d4 7a3d
00000350: 7970 9d3d 2473 86bc ba8a 24be 4054 513c
00000360: 515b 93be 4aa0 9f3d bd1f 9a3e c938 933d
00000370: e795 cd3d d52f 3ebd 86fe f23e 1f60 32be
00000380: dec7 633e abc2 abbd 67bd 84be 47db 2fbe
00000390: eb74 9dbd 9e59 43bd 2370 95be 9f95 063e
000003a0: 0829 06be 0d6d b83e f8f6 bdbe eafd ca3e
000003b0: 424c cbbe 64ce 5e3e 70a3 bc3e bdbd 44be
000003c0: 1d26 62be a981 e13d 74a8 5f3e 1fcb 433e
000003d0: 020b a83e ecb0 863e 4727 353e c5ad 49be
000003e0: 23e0 313e e63a 0fbf 4659 273e 9434 0a3f
000003f0: 85e7 1f3d a654 b73e 05c0 bf3e 099d 4a3e
0.3120753 0.21346864 -0.0868312 -0.29195687 -0.31443733 0.0618093 -0.103080995 0.30188677
0.21940166 0.14463663 0.088445865 -0.34355956 -0.15169215 0.37989682 0.36998513 -0.23228686
0.20736039 -0.034031462 -0.36435437 0.07464585 0.037479542 -0.120908424 0.31538868 -0.39388683
-0.55504894 -0.32205078 0.12472662 -0.25661057 -0.41916454 0.017279368 -0.18653113 -0.13640256
-0.20570916 -0.41040793 0.3999879 -0.31411016 -0.6687409 -0.5515799 0.4767917 -0.042308457
-0.12634584 -0.1643177 -0.30241427 -0.34544638 0.25335568 0.07124795 0.34625918 -0.23086073
-0.09967948 -0.11988013 -0.3331928 0.28493324 0.35353175 0.37851226 0.17965409 -0.2938863
-0.2481821 0.21038213 0.18067071 0.44851226 -0.31867197 0.2678003 0.14665782 0.087192
-0.431901 0.109400325 -0.25502285 0.15059854 0.12907118 0.23103537 0.30088046 -0.081406236
-0.37511224 -0.17472215 0.41338065 0.18394324 0.3014175 -0.12126157 -0.18446869 0.07319916
0.21368289 -0.2558687 -0.5741074 0.047637418 0.06830556 0.38366958 0.213988 -0.0848815
0.06720768 -0.0711485 -0.0020770594 -0.22621489 0.31292498 0.13985786 -0.104576334 -0.14423844
0.4101988 -0.29317224 -0.203296 0.13528308 -0.04454203 0.05178548 -0.34881935 0.23272757
0.30862296 0.29128042 -0.016214348 0.3178229 -0.13269322 -0.042334393 0.43601677 -0.10815918
0.27007172 -0.31825665 0.37032196 0.39133728 -0.16369565 0.37219542 -0.33533445 -0.29648632
-0.2845762 0.5507152 -0.15277767 -0.51880264 0.28565675 -0.008268494 0.010122104 0.118355915
0.05549179 0.2783613 0.15159847 -0.33321443 0.44766045 0.056847185 -0.110986255 0.050246943
-0.21253535 -0.12444582 -0.22661152 0.24932443 -0.073774636 -0.50989455 -0.38855237 0.1229602
-0.1799094 -0.09654331 -0.17338875 -0.022539565 0.14521816 0.11020862 -0.24087611 0.16364942
0.025965359 0.2899023 0.46198857 0.2815758 -0.48526528 -0.26385868 -0.1194836 -0.3424587
0.39041713 0.02655874 0.39429793 -0.010469346 -0.20196953 -0.2171007 -0.37166256 0.2055225
-0.03230353 0.24935521 0.34315088 -0.17344974 -0.09728128 -0.23767532 0.122013256 0.16612637
-0.31311804 -0.22671196 -0.016722364 0.09215893 -0.03995675 -0.07230242 -0.16007218 0.10525761
0.030304061 -0.055572767 0.35089898 0.39204708 -0.21507925 0.30663043 -0.113424435 0.29683244
-0.11389052 0.271509 -0.01740601 0.32653633 -0.034363322 -0.11315469 -0.18521607 0.123415604
-0.42936373 -0.21383679 -0.27903333 0.064612225 0.53271794 0.30240345 0.32655287 -0.3036466
0.35573798 0.010081146 0.15202771 0.061237887 0.07687468 -0.016412325 -0.16068545 0.012776434
-0.28780606 0.077942446 0.3010234 0.07188565 0.10038357 -0.046432335 0.4745981 -0.1741948
0.22244212 -0.08386739 -0.25925753 -0.17173491 -0.07688316 -0.047692887 -0.29187116 0.13143013
-0.1310159 0.360207 -0.37102485 0.39646846 -0.39706618 0.2175842 0.36843443 -0.19213004
-0.22084852 0.11011059 0.21841604 0.19120453 0.32820898 0.26306856 0.17690764 -0.19695194
0.17370658 -0.55949247 0.16342649 0.5398648 0.039039154 0.3580677 0.37451187 0.19786467

transformer_encoder.layers.0.linear1.bias f4 [2048]
00000000: f6cd c7bc 5250 793e e0e4 57bd f1d2 2f3e
00000010: 3f7a 733d b60d 4cbd 89ee d5bd 8682 7fbe
00000020: 5279 71be 4962 73be b1c3 2c3c 538c e2bd
00000030: edfb a9be 632a 1b3d b9d5 6bbe 0c11 853e
00000040: cd3c d4bd 8615 6cbe 4c20 b83e cc16 89be
00000050: a541 063e 50a5 743e 45dd 583e 7ab2 8a3e
00000060: ef23 f63d a4a7 19be 411b 413d acf4 a2be
00000070: 138c c9be 0d1b c0be 67f7 4bbe 7e8a 45be
00000080: 5ee1 7f3d f360 d03e 8085 2c3e e4a0 afbe
00000090: 0402 4e3e bb47 49bd 906c c6be 9612 c8be
000000a0: 7fba ad3e 981a 79bc 0d11 c63e 3be2 7b3e
000000b0: bea4 b33e f483 0c3e ed16 f8bd 35e3 6dbe
000000c0: 075f a3be f167 d0be 4c0a bcbe 9c9f 39bc
000000d0: 15f4 69bc 6305 913e fa3b 71be bc58 413e
000000e0: 0723 0dbe 9de5 5ebe 1327 b3be bbe8 483d
000000f0: fdb9 623d fba8 a83e 3eec 283e 8f65 58be
00000100: 6ed3 a53e e5e4 69be fba4 b53d 52c1 a1be
00000110: 8621 f13d ec77 77be 70d6 6abe a0e6 0f3e
00000120: e1a7 85bd 7676 e83d fe1d 9fbe 69ae cabe
00000130: b5fb a13e b6e1 0f3e 39c3 c33d b538 a6be
00000140: 699e 63be cca0 ad3b 02a9 c7bd 35b7 f23d
00000150: 0342 4abe f5ce 9dbe fbf7 7f3e caa7 ce3e
00000160: 7d1d 96be c176 943d 1d75 333d ae6a ae3d
00000170: a1e1 fcbd 583c 5cbd 4ea3 813e 4fee 663e
00000180: ddc9 53be 7f45 c7be 41b2 89be 969b 3b3e
00000190: dbbd 4cbe 349e 64be 3790 85be a08b 143e
000001a0: 0f28 423a ce80 7cbe 0d07 85bd b974 8d3e
000001b0: c35b cc3e 4cab 5f3d 1c68 c93e a185 01be
000001c0: 1988 5a3e bb62 bdbd 9bb0 0c3e 9993 a53e
000001d0: f0ad 403e c119 253e 78f0 65bd 1eae 003e
000001e0: 7f8d adbe 8b2c a6be 7cc9 653d cc0b 2cbe
000001f0: fd92 bcbc 7c7f 78be c127 ccbd c573 2b3e
00000200: e91a b23e 51ca c1be 3cc9 04be 4498 f53e
00000210: 6332 84be 5bb8 81be bd10 583e a472 b43e
00000220: 9e96 63be e69b d4bd 1637 853e d5f8 183e
00000230: d100 91be 4a13 4abe 89b8 e2bd 6584 8b3c
00000240: 034e 6dbe 899c d4be 7f68 fabd c0c8 3abe
00000250: eeca d3bd e94d b7bd dfa0 ccbd 794e c23d
00000260: e848 ac3e a4ed 82be c620 7dbd 626b cb3d
00000270: b3b8 443d 7601 b4bd fa98 423e b69b 71be
00000280: 812d b53e e809 21bc 03c3 3dbe 67b7 c2be
00000290: 38b0 e7be e8c4 f4bd b715 5fbc e3ec 02be
000002a0: 90ae 283e f35b 793e 5afe 6a3e 208f 14be
000002b0: bad0 433e 276e b5bd 9a39 62be e732 bfbe
000002c0: df81 ac3d 78f1 6cbb 6214 a73e e883 b5be
000002d0: e0b1 89bc cff6 f83c 75e6 a53e 1f8a 40bd
000002e0: 7a12 b2bd 8f9e 9f3e ca48 113e 0db0 d4be
000002f0: 968f 50be ce03 873e 69a5 283c 2970 3ebe
00000300: 2623 b63e 0cbb 373e ac1b 8c3e e8e1 2abd
00000310: d907 82bb 09a4 933e 57c1 32be 2c96 b43e
00000320: 0f82 633e 32a2 a0be 3250 26be f074 923a
00000330: d971 8fbd 4305 b0be 34e5 ce3d 68b1 e23d
00000340: 8c4f b33d 9c60 13be 6ac6 96be f57d 75bd
00000350: 5a64 f93d b3d5 a53d 7127 e63d 09e5 01be
00000360: 0c9f e1bd 7d53 3ebe 79eb 283d 892f 75be
00000370: 838f c9be 258c 01bd 63e6 80bd 2067 cfbb
00000380: 0487 a83e b835 e0bd 27bc 7a3d c417 2c3e
00000390: a36e 973e dbda bf3d 0a25 693e b71d 34be
000003a0: 11b0 073e 329b c9be cae3 c83e 51c6 9a3d
000003b0: 58e7 fc3d 441c 3d3c c8d0 2b3e 5a11 fcbe
000003c0: 4056 afbe 554b 91be 6d4b 103e 888f 813e
000003d0: afc2 9cbe 4f19 b43c 172d a5be 1fbe 843e
000003e0: 7465 0e3d 4bb6 e9bd 5ce5 263d bdcf 97be
000003f0: a847 953e e110 cabc 3cf9 783e b9f9 c0be
-0.024390202 0.24347046 -0.052708507 0.17170312 0.059442755 -0.049817763 -0.104458876 -0.24952134
-0.23581436 -0.23767962 0.010544703 -0.11061921 -0.33200017 0.03788222 -0.23030747 0.25989568
-0.10363159 -0.23055086 0.3596214 -0.26775205 0.13110979 0.23891187 0.21178158 0.27089292
0.120185725 -0.15005356 0.047145132 -0.31827295 -0.3936468 -0.37520638 -0.19918595 -0.19291112
0.062470786 0.40698966 0.16847801 -0.34302437 0.20117956 -0.049140673 -0.38754702 -0.3907668
0.33931348 -0.015204094 0.38684884 0.24598019 0.35086626 0.13722211 -0.12113748 -0.23231204
-0.31908438 -0.407043 -0.36726606 -0.011329558 -0.014279385 0.28324422 -0.23558035 0.18881506
-0.13782893 -0.21767278 -0.3499075 0.049050074 0.055353153 0.32941422 0.16496369 -0.21132492
0.3238787 -0.22841223 0.08869358 -0.31592804 0.11773972 -0.2416684 -0.22933364 0.1405282
-0.06526161 0.1135072 -0.3107757 -0.3958619 0.3163735 0.14050946 0.0955872 -0.3246514
-0.22228397 0.0052987095 -0.097490326 0.1185135 -0.19751744 -0.30821958 0.24996941 0.40362388
-0.29319373 0.07249213 0.04381286 0.08516441 -0.12347723 -0.053768486 0.25319904 0.22551845
-0.20682473 -0.3892021 -0.2689381 0.1832107 -0.19994299 -0.22325975 -0.2608659 0.14506388
0.0007406482 -0.2465851 -0.064954855 0.27628115 0.3991376 0.05460672 0.39337242 -0.12648632
0.2134098 -0.09247347 0.13739245 0.3233917 0.18816352 0.16123106 -0.056137532 0.1256642
-0.33897015 -0.3245586 0.056100354 -0.16801375 -0.023019308 -0.24267381 -0.0996852 0.16743381
0.34786156 -0.37849668 -0.1296739 0.47967732 -0.25819692 -0.25335965 0.21100135 0.35243714
-0.22225425 -0.10381298 0.2601859 0.14938672 -0.28320935 -0.1973392 -0.110703535 0.017030904
-0.2317429 -0.41525677 -0.12226962 -0.18240643 -0.1034144 -0.08950407 -0.09991621 0.09487624
0.33649373 -0.2557193 -0.061798833 0.09932591 0.048027705 -0.08789341 0.19003668 -0.23594555
0.3538628 -0.009829022 -0.18531422 -0.3803055 -0.45251632 -0.119516194 -0.013616017 -0.12785678
0.1647284 0.24351482 0.2294859 -0.14507723 0.19122592 -0.088589005 -0.22092286 -0.37343523
0.084232084 -0.0036154669 0.32632738 -0.354522 -0.01680845 0.030391125 0.32402387 -0.047006723
-0.086949304 0.31175658 0.14187923 -0.41540566 -0.20367274 0.2637009 0.010293343 -0.18597473
0.3557369 0.17942446 0.27364862 -0.041719347 -0.0039682207 0.28836086 -0.17456566 0.35270822
0.22217582 -0.31373745 -0.1624153 0.0011173766 -0.070041366 -0.34379014 0.10102311 0.11068994
0.08755407 -0.14392322 -0.29448253 -0.059934575 0.12177344 0.080974005 0.112379916 -0.12685026
-0.11016664 -0.18586536 0.04124019 -0.23943914 -0.39367303 -0.031627793 -0.06293943 -0.006329432
0.3291551 -0.10947746 0.061214592 0.16805941 0.29576597 0.09367915 0.22768036 -0.1758946
0.13250758 -0.39376217 0.3923629 0.07557357 0.12348813 0.011542384 0.16778862 -0.49231988
-0.3424549 -0.28377786 0.14091273 0.25304818 -0.30617282 0.021984724 -0.32260963 0.259263
0.034764722 -0.11411723 0.040746078 -0.2965068 0.29156232 -0.024666252 0.24313825 -0.37690523

transformer_encoder.layers.0.linear2.weight f4 [6, 2048]
00000000: 3b3d afbd a51f 833c e4c8 98bd c7f2 0c3e
00000010: 966f 5fbb 7d36 babd 48c8 633c 5939 9d3b
00000020: 6151 633b 7825 3b3b c154 11be e6b9 04bb
00000030: 25cf 76bc 2027 60be ef2a b4bd 3814 14bc
00000040: d70d a13c 2055 82bd 307e c33b 48c6 873c
00000050: 36b6 d1bd bef2 20bb e887 5c3c dce4 f5bd
00000060: 633e ba3b d178 79bb ed2c e43c 59e6 ddbd
00000070: 3e39 8e3b 5e24 94bd 9191 0bbc a99e acbc
00000080: a3a8 b8bc b94a 973c 2c56 84be 0167 adba
00000090: 0d13 113c 43e3 033e 28d0 953c 1d00 323c
000000a0: 1277 53bc 5152 03be 890f 7bbc c376 f23d
000000b0: 10bc 583c 27b8 06be 7e95 30bb eaf7 4cbe
000000c0: 0c53 eabd 9ce3 f9bd e43e c53c 9c58 263c
000000d0: 4fed 9ebc 6e66 27bc fd39 473c 7171 e4ba
000000e0: bc61 123c 2549 20be cfd3 86bc 40a7 80bc
000000f0: f106 633c a378 bebd 8f87 4b3c 548e 1c3c
00000100: 41b3 b83d a98e 3dbd 85b2 4abe 195d 0cbd
00000110: a919 a2be a43b 27bd 2a77 24bb bc34 16bd
00000120: 2b5e 5d3c 320b 0ebc 90dd d1be fb72 7a3b
00000130: 760a 0d3e 97c7 3cbc fc55 6b3d 119c 39bc
00000140: 4e36 c9bd c11a de3c 02ec 0abd a07c a2bc
00000150: 3492 12bc bdbd afbe fa3f c7b9 10e3 0c3e
00000160: 81da 68bd 6ae6 943e a785 323c 2f9f bcbe
00000170: 0b4e 95be fbcd 6e3c 3f54 7e3c d899 5f3b
00000180: 1f81 13be 798b 88bd 5cdb 5cbd a042 28ba
00000190: da56 143e 76b6 21be 6e82 3cbc 5029 7cbc
000001a0: 2a20 ecbd 4cef edbd 1fb8 c0bc 6d4d edbc
000001b0: 6f3c cb3d 8538 64bc ec3b 99bb b584 27be
000001c0: 5a4b 04be 2b39 e8bd 69dd 183e f870 3abc
000001d0: 2eec 95bc 1764 e6bb 23bf 9fbd 7533 123c
000001e0: 1b6e 50be 25ac 4d3e e7e9 e3bb 620a b03c
000001f0: 5a67 5abd c5de 3b3e 2e61 acbd 88af 653b
00000200: c1e5 e73c 10bc 4bbb 7d59 2b3c eecc 72be
00000210: 1ed7 56bc f1c5 47bc 95b3 82bc 3373 d8bd
00000220: 11d1 4cbc 34a0 593e 9b7d 003d 7a4e 483c
00000230: 47f9 033d 0384 9f3d d0c5 4a3d ff06 82bc
00000240: 1c3d ecbc 77e8 903c 6478 c1bc 8def db3a
00000250: 4988 4ebe 405a 6d3c 8c71 97bc 1de8 b3ba
00000260: d386 133c 85e2 8abe a732 91bc dd66 94bc
00000270: 56ad ccbc 4e17 debd f8b3 683c 782f 1ebe
00000280: 0f0d 5f3b 2bf9 20bd a789 15be ba5d a93e
00000290: bb08 adbd b575 1f3e 34ed 583c 3c51 833c
000002a0: 43a6 023c 9c57 9e3c 8ac6 c5bd 8820 0a3e
000002b0: 408f 983d 3208 2fbc 30f1 99be e512 9dbb
000002c0: 6c9f b63c 3947 ec3c 830f 173c bb6f ec3d
000002d0: 09c1 7abd 7923 d13d 8aa1 2cbd e3ec 1cbb
000002e0: 1cda 21bb f2ba 6bbe 59b0 133e 8cd9 933d
000002f0: 9cef 63bc faca 0e3e 562c f23c 6bea 0d3e
00000300: 4239 c33c 750d a0bc 3090 91bc 8282 2bbc
00000310: bf83 cfbd bc14 f439 44b0 6f3e 0925 053a
00000320: 8550 81bb 6ce3 0abe 1379 d5bc b1c4 80bc
00000330: 77c3 913e 7f5d e7bd 10a8 d5ba e9e2 093c
00000340: 1c0b 393c cc9d b0bc bce7 03bd 0410 65be
00000350: 36ce a439 83f7 07be 4d94 2dbc e797 6cbc
00000360: f018 78bb 0a99 27bc d109 2fbe cd91 e83d
00000370: 9dfa 973e 677b 99bd cd5d 133b fc78 8d3d
00000380: 167c 55bc 86e3 b7bc 8072 41bc 2ef4 1d3c
00000390: 3c81 fc3c 7d83 a43c c4f5 4f3e e05c 4fbe
000003a0: b8ed 1abc 1e9a 0b3c 280e c2bd c2be 95bd
000003b0: c6be 4e3e 9629 a7bb e710 4d3d 3347 3abb
000003c0: e1a8 abbe 6a8b 5ebc 43a5 103e d3a1 b83b
000003d0: 4259 83bb 3ea0 dd3a 998c 14be 3fe0 1bbd
000003e0: ee9e 4ebd 54a6 b83e fd1d 753c 1c45 d0bc
000003f0: fecf 993a e016 19be a37f 793d b0d9 e13d
-0.08556601 0.0160063 -0.07460192 0.13764487 -0.003409361 -0.09092424 0.013902731 0.004798096
0.0034685957 0.0028556269 -0.14192487 -0.0020252406 -0.015064036 -0.21889925 -0.087972514 -0.009038024
0.01965992 -0.063638926 0.0059659705 0.01657404 -0.10239832 -0.0024558748 0.013460137 -0.12006542
0.0056837066 -0.0038066397 0.027853454 -0.10834951 0.00434032 -0.07233499 -0.008518592 -0.021071749
-0.02254135 0.018468248 -0.25846994 -0.001322955 0.00885464 0.12879662 0.018287733 0.010864285
-0.012906807 -0.1282437 -0.015323528 0.11839058 0.013228431 -0.13156186 -0.0026944573 -0.20016447
-0.11441621 -0.12201616 0.02407784 0.010152962 -0.019400267 -0.010217292 0.012159822 -0.0017428828
0.0089344345 -0.15652902 -0.01645842 -0.015704751 0.013856635 -0.093003534 0.012422456 0.009555418
0.09018565 -0.04627863 -0.19794662 -0.034268472 -0.31660202 -0.040828362 -0.0025095441 -0.036671385
0.013511221 -0.008669661 -0.4098935 0.0038215506 0.13773522 -0.011522195 0.057455048 -0.011328713
-0.09824811 0.027112367 -0.03391648 -0.019834816 -0.00894599 -0.34324446 -0.00038003904 0.13758492
-0.056849007 0.29082042 0.010896123 -0.36840197 -0.29161105 0.014575477 0.0155230155 0.0034118798
-0.14404725 -0.06667227 -0.053920135 -0.00064186193 0.14486256 -0.1579226 -0.011505706 -0.015390709
-0.11529572 -0.11617908 -0.023525296 -0.028967584 0.09923636 -0.013929491 -0.0046763327 -0.16359217
-0.1291937 -0.11339029 0.14928211 -0.011379473 -0.018301096 -0.0070309746 -0.07800128 0.008923401
-0.20354502 0.20085199 -0.0069553736 0.021489326 -0.05332122 0.18346699 -0.08416973 0.0035047252
0.028307797 -0.0031087436 0.010458347 -0.23710987 -0.013112811 -0.012193189 -0.015954772 -0.105688475
-0.012501017 0.21252519 0.031369787 0.0122257415 0.03222015 0.07788851 0.049505055 -0.015872477
-0.028837733 0.017688973 -0.023616977 0.0016779766 -0.20169176 0.014486849 -0.01848676 -0.0013725791
0.009004313 -0.27125946 -0.017724348 -0.018115455 -0.024984997 -0.10844289 0.014203064 -0.15447795
0.0034034883 -0.039300125 -0.14603291 0.3307932 -0.08448931 0.15572245 0.013240147 0.016029947
0.00797421 0.019328885 -0.09657009 0.13488972 0.07449198 -0.010683106 -0.30066824 -0.004793512
0.022292815 0.028842555 0.009220007 0.115447484 -0.06121925 0.10211844 -0.042146243 -0.0023944906
-0.0024696654 -0.23020533 0.1442274 0.07219228 -0.013912108 0.13944617 0.029562157 0.13858955
0.023831014 -0.019537667 -0.01776895 -0.010468127 -0.101325504 0.00046554755 0.23407084 0.0005079066
-0.0039463663 -0.13563317 -0.02605871 -0.01571879 0.2846944 -0.1129713 -0.0016300697 0.008415916
0.011294153 -0.021559618 -0.03220342 -0.2236939 0.00031434157 -0.13278012 -0.01059444 -0.014440513
-0.003785666 -0.010229358 -0.17093588 0.11355934 0.2968339 -0.0749424 0.002248633 0.069078416
-0.013030073 -0.022447359 -0.011807084 0.0096407365 0.030823343 0.02008223 0.20308596 -0.20250273
-0.009456091 0.008520631 -0.09475356 -0.07311775 0.20189962 -0.005101393 0.050064947 -0.0028423786
-0.33527282 -0.013583044 0.14125542 0.0056345253 -0.004008443 0.0016908718 -0.14506759 -0.038055655
-0.050444536 0.36064398 0.014960763 -0.025423579 0.001173496 -0.14950132 0.06091274 0.11027849

transformer_encoder.layers.0.linear2.bias f4 [6]
00000000: 0f15 a3bc 7a60 aebc e32f 443c 8ebd 05bc
00000010: 9b14 d3b9 ebd1 3dbc
-0.019907502 -0.021286238 0.011974308 -0.008162869 -0.00040260408 -0.011585693

transformer_encoder.layers.0.norm1.weight f4 [6]
00000000: 6df8 863f 0152 783f 6e59 833f 9f6e 693f
00000010: 89d3 903f b7e8 863f
1.0544564 0.9700013 1.0261667 0.9118442 1.1314555 1.0539769

transformer_encoder.layers.0.norm1.bias f4 [6]
00000000: 7109 ecbb 60a9 793d 5a25 613c 9431 bfbd
00000010: 7fb9 75bc c4c3 903c
-0.007203274 0.060952544 0.013741815 -0.09335628 -0.014997839 0.017671473

transformer_encoder.layers.0.norm2.weight f4 [6]
00000000: 4e44 843f 7059 7d3f 13c9 793f 1be9 683f
00000010: 1f6a 8e3f 392c 8b3f
1.0333345 0.98964596 0.9757244 0.9098069 1.1126136 1.0872871

transformer_encoder.layers.0.norm2.bias f4 [6]
00000000: 79a8 b9bc bdb3 7c3c ce0f ba3c e7c3 cebd
00000010: 468c c7bc e795 cf3a
-0.022663342 0.015423712 0.022712614 -0.10095959 -0.02435888 0.0015837521

transformer_encoder.layers.1.self_attn.in_proj_weight f4 [18, 6]
00000000: 27d7 f23e e2bc f63e 4aa9 503e e6ee b23e
00000010: 03fd 303d 79fb 0ebf 0466 443e 45e4 6cbd
00000020: f088 be3e 2c6a a4be 5c6d 07bd f003 b0bd
00000030: cd29 f6bd ad7c dabe 879f a2be 98e5 bb3e
00000040: 7dc4 3d3e 8b3e 363e b168 a03e 7d39 5fbe
00000050: f2c8 c3be 8e70 47bd cdcc 0a3f 1f94 be3e
00000060: 687f 08bf e957 87be ccde e0bd 0a75 8d3b
00000070: 4d4a 883d 1418 51be cdda 9d3e f0a2 8c3e
00000080: 4181 f3bc 97bf 17be 3e98 88be f757 0b3f
00000090: 7dfa e33e 0331 08bf b9de ab3e 8d37 dabe
000000a0: 66fc a23e e19b 1d3e cca2 a1be 8d93 573e
000000b0: 7b5b bb3e 74ad 98be 9690 d23d 7a43 1bbf
000000c0: 4ab3 663d d8a6 5a3e c667 ebbe aafa 17be
000000d0: 1d21 14bf e80e 6b3e 7486 c7be 689e 2ebe
000000e0: ee67 e43e 90f6 83bd 1cfa c0be ed7f babc
000000f0: f828 af3e 839b 92be a888 d8bd 0637 21bf
00000100: c0f1 cb3e 9c27 853d 9df5 783e 47d4 d23e
00000110: 489e fbbd 482f dcbd 8252 1cbf b031 023e
00000120: e708 be3e 1927 edbd eae2 e3be 84be f5be
00000130: 91d7 143f 642b af3d 964d 80be 2435 083e
00000140: 468d 40bd 3165 eebd 166d 8dbe 9cc4 b93d
00000150: c631 ad3e 16a3 ce3e 9f69 a0be 274e ba3d
00000160: 43a9 e5bd ee7d b23d feb2 abbe e0b7 b1bd
00000170: ae57 d23d 09f6 f73e 9e8a f7be 9a47 003e
00000180: 2023 053e 08b8 d4bd 9db8 7b3e a21d 68be
00000190: 4bf5 2d3b f8d5 3c3d eb03 4e3d e6fc f73e
000001a0: cbe3 83be 4c10 e03e 48a1 b13e c053 f4be
0.47429773 0.4819098 0.20377079 0.3494789 0.04321004 -0.55852467 0.19179541 -0.057834882
0.3721385 -0.32112253 -0.033063278 -0.08594501 -0.120196916 -0.42673245 -0.31762335 0.36698604
0.18531986 0.17797296 0.31329873 -0.21799274 -0.38239247 -0.048691325 0.5421875 0.37222382
-0.53319407 -0.26434258 -0.10979995 0.0043169307 0.06654797 -0.20419341 0.30830994 0.2746806
-0.029724719 -0.1481918 -0.26678652 0.544311 0.44527045 -0.53199786 0.3356836 -0.42620507
0.3183319 0.15391494 -0.31569517 0.2105238 0.36593232 -0.29819834 0.10281484 -0.60649836
0.056323327 0.21352708 -0.4597761 -0.14841715 -0.57863027 0.22954905 -0.38969767 -0.17052615
0.44610542 -0.064435124 -0.37690818 -0.022766078 0.34210944 -0.2863427 -0.1057294 -0.62974584
0.39832878 0.065016955 0.24312444 0.4117758 -0.12286049 -0.10751206 -0.61063397 0.12714267
0.37116167 -0.11579723 -0.4450906 -0.47996914 0.5814143 0.08553198 -0.25059193 0.13301522
-0.04700973 -0.116403945 -0.27622288 0.090707034 0.33827037 0.403588 -0.31330582 0.090969376
-0.11213925 0.087154254 -0.33534998 -0.086776495 0.1027063 0.48429897 -0.48347944 0.12527314
0.1300168 -0.10386664 0.24582143 -0.22667554 0.002654391 0.046102494 0.050296705 0.48435134
-0.2575973 0.43762434 0.3469336 -0.47720146

transformer_encoder.layers.1.self_attn.in_proj_bias f4 [18]
00000000: 0863 e2bd 6370 2fbe 8a9f 333e 80b0 b7bd
00000010: 4dd8 753e a6df 0d3b 65e9 a1b8 3f61 0b39
00000020: 65fa 2d39 f971 bb39 df49 4039 6beb fd39
00000030: 26c9 7e3d 52c7 38bc b57b 813c f2cc 80ba
00000040: f9af a03a c464 6abd
-0.11054045 -0.17132716 0.17541328 -0.089692116 0.24008293 0.0021648197 -7.7205514e-05 0.000132923
0.00016591845 0.00035752336 0.00018338066 0.0004843132 0.06220355 -0.01127799 0.015806058 -0.0009826703
0.0012259475 -0.057225004

transformer_encoder.layers.1.self_attn.out_proj.weight f4 [6, 6]
00000000: 0c7a 58bd 2f1a ce3e b5ae 4dbd ff0c bc3c
00000010: dbe3 8fbd 0fe3 423d 8d6b 8d3e 2271 083e
00000020: db4e 99be a4fd 81be 0fe5 9e3d e946 d3be
00000030: 7e1f 943d a49d 5f3d 4f2e 21be 0b6c fe3d
00000040: f3b2 113e 5670 63be de5e 613e 4cbc 7aba
00000050: 2e3b 96be ec7b 2c3b 94db 0c3f 58be a83e
00000060: 631d 4ebe eb47 1a3e a45e 4fbe d488 f2bd
00000070: 93b8 35be 8ac9 c03e 2227 81be b913 a8be
00000080: 029d 323d 1558 983c 86b3 813e b0fc 2b3d
-0.052850768 0.40254351 -0.05021544 0.022955416 -0.07025882 0.04757982 0.27621117 0.13324407
-0.29942974 -0.25388825 0.07758533 -0.41265038 0.07232569 0.054593697 -0.15740322 0.12422951
0.1422842 -0.22210822 0.22008845 -0.00095648016 -0.29342026 0.002631898 0.5502255 0.3295772
-0.20128398 0.15066497 -0.20250946 -0.11842504 -0.1774619 0.37653762 -0.25225168 -0.32827547
0.043606766 0.018596688 0.25332278 0.04198903

transformer_encoder.layers.1.self_attn.out_proj.bias f4 [6]
00000000: 6d76 febc fad8 2a3d 111f 883c 2c0e b7bc
00000010: c4ff 02bd 4bcc a5bd
-0.03106233 0.04171083 0.016616376 -0.022345625 -0.0319822 -0.080956064

transformer_encoder.layers.1.linear1.weight f4 [2048, 6]
00000000: bed7 e53d 8277 be3e d1b3 07be cc27 b5be
00000010: de98 47be 488c 423e f9ff d6bd 409b 9f3e
00000020: 5a08 283e 2e45 1c3e 4a4d 523d 4f4b 8bbe
00000030: 3862 1cbe c7aa af3e 2ce4 4e3e 53be 1abd
00000040: f186 a93e ede1 2cbe 2321 54be ff08 263d
00000050: 0fb3 503e 7818 3bbe 8325 763e c25a f3be
00000060: 8f57 9cbe 32a2 82be 32de 4ebd 2c1e c3be
00000070: 1fa7 83bd 4726 7b3d 0df9 8dbe c0ad 65be
00000080: 293a 88be aa28 96be 39e2 c33e 271f aebe
00000090: 609a aabe 8031 a2be f63e 543e 3041 a2be
000000a0: 40d2 933d 98b1 483e b30f b2be c6e5 c3be
000000b0: f40f 8c3e c01a ca3d e594 953e 3c37 90be
000000c0: 3d9f eabd af98 f8bd af4d b2be 1392 923e
000000d0: fd69 963e 74a6 b23e 2c86 b13d 52f8 ccbe
000000e0: 4cbb 44be 23b0 893e 13af 253c 6126 b83e
000000f0: ecc1 88be d3c3 7a3e 8cbd 0c3e e642 823d
00000100: 074f e3be 92c2 393e d9ea 80be 6127 273e
00000110: 737e b43d 8667 553e 445b 8e3e b694 90bc
00000120: d1bb b7be c9f3 1bbe fe57 c83e 444d 323e
00000130: 1369 a33e d282 e4bd f64c 0cbe 94ea 513e
00000140: 0971 e83d 431c 8ebe 94b7 1cbf 632f 403e
00000150: 72d2 a33b e514 d33e 817d b53e aed5 ed3c
00000160: 1771 5bbe f3ee 88bd 88c6 87bd 6640 a9be
00000170: b109 993e 91dc 493e 4741 35be ec02 93be
00000180: 5f3d de3e 44b0 9abe 17c0 81be 6e75 f23d
00000190: 4515 3fbd 73e1 cd3d 0454 a1be 4277 2c3e
000001a0: 17b4 a23e ef12 933e b6a7 913c 49cf 8f3e
000001b0: a19e 26be 454c 27bd 9e0f c83e 4c2c 93bd
000001c0: eb21 9d3e 28bf 7cbe c89f a23e aa19 d83e
000001d0: 915d 25be e51a c93e 2f26 a9be 97fe a5be
000001e0: fb04 c7be cf25 9d3e 5627 eabd d031 a5be
000001f0: 9b95 933e d329 b3bd c3f3 383d c5e3 3c3d
00000200: 12c1 ce3d efb1 693e 4a69 173e 6658 afbe
00000210: f1a8 c63e e8fc dc3c 3969 3dbe a053 b33d
00000220: c402 93be 4d4a 8bbd 88d0 2fbe 6942 1e3e
00000230: ff69 7dbd 6c94 d6be 0a80 fabe 261f cb3d
00000240: 2039 2fbe 735e 36be 460e 61be 1885 92bc
00000250: c6d5 d23d 41f7 1e3b 199e 9ebe af70 113e
00000260: 09b2 b8bd 9ba9 b83e 8b4f ba3e f097 613e
00000270: 24f5 b6be 322c 94be 4726 39be ff57 b3be
00000280: 8323 d13e 392e 42be 924d a93e 01fe c7bb
00000290: 6ebe a3be 38a0 84be fcbc a8be 2572 973e
000002a0: f015 8e3e 7f40 6a3e 29c9 ce3e b5e6 16be
000002b0: 6d8f 8bbd f4f1 01bf e34b a33d fa50 0c3d
000002c0: f8b0 b2be ded1 8ebe 4b15 fd3d 2dc7 f23d
000002d0: b16d 1cbe 1f2a 76be aab2 32be 6195 643e
000002e0: 3ee9 ebbd 08fe 7ebe 79ba 9e3e 3f78 8c3e
000002f0: 6c3b 42be 72da a53e 5bd1 36be 7ad1 bb3e
00000300: aa26 f2bd bea4 7b3e e3d3 63bc eede b33e
00000310: 6f57 373c 66d5 7ebe 9006 20be c8a5 3e3e
00000320: 8aa0 bfbe d00b 86be 44f0 69be f9a4 1a3c
00000330: bb5a 7f3e 4a8e 143f 19d8 0ebe 0070 fabd
00000340: a862 483e 698a e13d ca7f 1f3e 0a34 58bd
00000350: 0a07 903e 41b1 83bd c71c b9be 0bde fb3d
00000360: f103 84be b6d7 dc3d 1297 703e 051c 883d
00000370: 224d d73d 2089 3fbd cf25 e43e a466 77be
00000380: fd9a 0b3e 993b 92bd 4360 a0be 349b ffbd
00000390: f520 cfbd 4a1f b9bd 28ea 99bd 21e8 cb3d
000003a0: 3fa9 99be 3758 b33e 6d68 babe 389b eb3e
000003b0: 3a9c d2be b0fc 463e c60f b73e 08c4 61be
000003c0: b8c9 70be 644a 943d 79a2 563e 5dc7 623e
000003d0: 2fe6 8f3e 4c21 0d3e 97d5 223e e928 83be
000003e0: a225 253e 7473 98be 558d e93d e095 9d3e
000003f0: 3515 b13c 00b5 933e c282 c83e f312 693e
0.1122279 0.37200552 -0.13252188 -0.35381925 -0.19491908 0.18998826 -0.10498042 0.31173134
0.16409436 0.15260765 0.05134324 -0.27205893 -0.15271842 0.3430998 0.20204228 -0.037779164
0.33110765 -0.16883059 -0.20715766 0.040535923 0.20380805 -0.18271053 0.24037747 -0.4753018
-0.30535552 -0.2551437 -0.05050487 -0.38108957 -0.0642836 0.0613158 -0.27729073 -0.22429562
-0.26606873 -0.293279 0.38258532 -0.34008142 -0.33320904 -0.3167839 0.20727143 -0.3169036
0.072178364 0.19598997 -0.34777603 -0.3826124 0.2735592 0.098683834 0.2921516 -0.2816714
-0.114561535 -0.12138497 -0.34824893 0.2862707 0.29377738 0.3489262 0.086681694 -0.40033203
-0.19212073 0.26892194 0.010112542 0.3596678 -0.2671045 0.24488764 0.13744181 0.06360416
-0.4439623 0.18140629 -0.25179175 0.16323616 0.08813181 0.20840272 0.27804005 -0.017649036
-0.3588548 -0.15229715 0.39129633 0.17412287 0.31916103 -0.111577645 -0.13701233 0.2049964
0.11349685 -0.27755937 -0.6121762 0.18768077 0.0049994523 0.4122688 0.35447314 0.029032554
-0.21429859 -0.06686201 -0.06629664 -0.33056945 0.29890206 0.19713046 -0.17700683 -0.28713167
0.43406197 -0.30212605 -0.25341865 0.11838804 -0.046651144 0.10052767 -0.3150941 0.16842368
0.31778023 0.28725383 0.017780166 0.28087834 -0.1627145 -0.04084422 0.39074415 -0.07186183
0.3068994 -0.24682295 0.31762528 0.4220708 -0.16148974 0.3927833 -0.33036944 -0.324208
-0.38870987 0.30692908 -0.11433284 -0.32264566 0.28825077 -0.08748212 0.045154344 0.046115655
0.10095419 0.22821783 0.14786258 -0.3424713 0.38800767 0.026976064 -0.1849717 0.087561846
-0.28713048 -0.06801281 -0.17169392 0.15455021 -0.061868664 -0.41910112 -0.4892581 0.099180505
-0.17111635 -0.17809467 -0.21978101 -0.01788573 0.1029468 0.0024256262 -0.30979994 0.14203142
-0.090183325 0.360669 0.3638881 0.22030616 -0.35733902 -0.28939968 -0.18081008 -0.35028073
0.40847406 -0.18962945 0.33066994 -0.0061032777 -0.31981224 -0.25903487 -0.32956684 0.29579273
0.27751112 0.22876166 0.40387848 -0.14736445 -0.06814466 -0.50759816 0.079734586 0.034256913
-0.3490064 -0.2789449 0.12357577 0.11854396 -0.15276219 -0.24039505 -0.17450967 0.22322609
-0.11519097 -0.24901593 0.31001642 0.2743549 -0.1896798 0.32393223 -0.178533 0.36683255
-0.11823781 0.24574563 -0.013905498 0.3513102 0.011190279 -0.24886093 -0.15627503 0.18617928
-0.3742717 -0.26180887 -0.2284556 0.009438747 0.24936955 0.58029616 -0.13949622 -0.122283936
0.19568884 0.11012728 0.15576091 -0.052784003 0.2813037 -0.06430293 -0.36154768 0.12298211
-0.25784257 0.10783331 0.23495129 0.06645969 0.10512759 -0.046761632 0.44560096 -0.24160248
0.13633342 -0.071402736 -0.31323442 -0.124807745 -0.10113708 -0.09039171 -0.07515365 0.099563845
-0.30011937 0.3502824 -0.36407796 0.4601686 -0.41134816 0.1943233 0.35754222 -0.22047436
-0.2351445 0.072407514 0.20960416 0.22146364 0.28105304 0.13782233 0.1590179 -0.2561715
0.16127637 -0.29775584 0.1140391 0.30778408 0.021616558 0.2884903 0.3916226 0.22761135

transformer_encoder.layers.1.linear1.bias f4 [2048]
00000000: 74db 1cbd c3fb 653e d048 4d3c e16d d63d
00000010: 3f53 fcbd 4e0f 283d 6187 e9be 1bdc 66be
00000020: ac11 79be 535e 22be 24ae ffbb 0bfd 0dbe
00000030: 8b59 b5be 8f4b 82bd 9961 92bd c7f6 a33e
00000040: 22d4 c7bd 2471 6cbe 6159 bd3e aefe 73be
00000050: eff7 4e3e d651 7a3e 0c46 833e 5f36 913e
00000060: 2cf6 083e ecea c5bd 3dfd e33c 8ba2 8ebe
00000070: 4afb b4be 51f5 c0be e675 b2bd 3542 35be
00000080: e551 923d 0cea b83e fe22 023e 1ed1 6ebe
00000090: 2698 353e 169d 10bc 4cde d4be 3e01 d7be
000000a0: 0c3f b33e f72f 063c 22b7 cc3e a073 873e
000000b0: d71d c83e 686e dd3d 6654 f4bd ff8a 5cbe
000000c0: 413b 9fbe 33d4 cebe 9725 cebe 4ba6 acbc
000000d0: 13e1 0ebc f7ab 873e 0a51 6dbe e3da 3f3e
000000e0: 43f6 21be 11fd 0dbe 1327 b3be 9b38 623d
000000f0: 707d d53c d616 b23e 7cea 873d 4bc5 61be
00000100: 184c ab3e 55f6 99be 3e9d 0f3e a2ca 8ebe
00000110: 3b26 6bbc cc9a 94be 9e16 5abe a8fe dd3d
00000120: 8235 87bd 2500 c93d 5174 83be d0b2 d9be
00000130: 6e4a 953e 27d2 f93d 6ec6 fd3d c692 9ebe
00000140: 6921 6abe 2090 fa3b 0718 8fbd 8285 fb3d
00000150: dd11 55be 196e a6be f97a 853e 71e6 b83e
00000160: 52f2 afbe 046b 3e3b f2cb 2b3c 53bf 883b
00000170: edcc 7bbe 6a9a a3bd cbcb 873e ebb5 6e3e
00000180: fca8 53be ea00 d1be eb98 65be c3ae 7e3e
00000190: 68c2 77be dc1b 37be 83b8 82be e413 e03d
000001a0: 311f ae3d 2e7c dabd ab54 7abd 19f9 a13e
000001b0: ad55 c23e 3b0d cc3d 5edf b23e ba37 25be
000001c0: 7dfa 7f3e 9685 f1bd 8e23 4d3c 4afa b53e
000001d0: 6b5b 213e 1c9c 1e3e 9540 71be cd99 9d3e
000001e0: 9190 bbbe 4ce8 bdbe 1348 873d e093 0ebe
000001f0: 2e25 9bbc 7b4d 8dbe 99a3 e23c 9a55 283e
00000200: 35cb ab3e 0c10 b3be cb41 06be d0e9 b03e
00000210: aaec 6ebe 6bff 4fbe 72e7 6c3e 9afa 203e
00000220: d693 74be fb1b ecbd b020 5f3e bd0d 213e
00000230: 4d6a 78be 8da3 b3be dc7c 8dbd 14cd a23c
00000240: feca 59be 2baf abbe 1685 9c3d 2ea6 2fbe
00000250: 0170 9fbe 2826 b4bd 1058 64bd 1ba8 123d
00000260: fd29 9b3e 7cc3 78be a7ee 21bd c252 cc3d
00000270: 8acc 653d f838 03be ed95 3a3e ab60 3abe
00000280: 2ec2 b53e ef4f 8e3c a20f 6abe ebe0 c1be
00000290: c24c bdbe b8f0 7dbe 66ed f5bc afeb 04be
000002a0: b4a9 303e 462c 9e3e 3a5b 353e 0373 1dbe
000002b0: 84cc 6c3e df90 dabd 94ca 87be 758e b9be
000002c0: fddc f13d be96 423d e0ac a33e 08c5 bcbe
000002d0: ea17 98be ccbf 9b3d c364 2f3e 5bce 72bc
000002e0: 5d13 c4bd 449e 903e 7a92 003e 1c65 c9be
000002f0: cacf 33be 3e90 943e 311f b5bc d2ff 9cbe
00000300: f223 b03e ecdb 143e 6e4c 8c3e 3d54 47bd
00000310: 6f52 263e 0abf 9a3e 2c3e 4fbe b84a b73e
00000320: 266a 5c3e d236 c2be 3eb6 1ebe 5640 4ebc
00000330: 1941 14be 84d5 9cbe e6c1 a53c 9f64 ac3d
00000340: 671b d03d 1e27 efbd 548f 14be ada4 173d
00000350: adf6 103e 95b3 b83d eb6a a63d 39c3 0ebe
00000360: 01ea 85bd 574f 0bbe 75bb f93b 7460 8dbe
00000370: dd19 f9be 53b7 84bc af03 84bd e57e 973d
00000380: 2054 a93e 2ed7 00be d4e7 6a3d a99e 183e
00000390: c374 893e a7bb 7abb 6180 293e 79d7 c2bd
000003a0: d9a5 113e 5e84 abbe 321b a43e ba18 d53d
000003b0: 4724 683d d8f0 963c ea1a ae3d b28b c2be
000003c0: a244 e4be 9fb3 8bbe d976 a03d 5a54 913e
000003d0: 0e7a b8be ed67 383d b7aa 9cbe e0e5 983e
000003e0: 947b 43bc e4d6 25be c809 ea3c aa94 afbe
000003f0: 4762 a33e 9107 31be de17 223e 22aa 94be
-0.038295224 0.2245932 0.012529567 0.104701765 -0.123205654 0.04103022 -0.45611098 -0.22544901
-0.24323148 -0.15856294 -0.0078027416 -0.1386606 -0.35419878 -0.06362068 -0.071475215 0.32024214
-0.09757258 -0.23090035 0.36982253 -0.23827621 0.20211767 0.2444528 0.2563938 0.28361794
0.13375157 -0.096639484 0.027830714 -0.27858385 -0.35347968 -0.37687162 -0.087138936 -0.17701037
0.071445264 0.36116064 0.12708661 -0.2332196 0.17733821 -0.008826515 -0.4157585 -0.41993135
0.35009038 0.008190147 0.3998347 0.26455402 0.39085266 0.10812074 -0.1193016 -0.21537398
-0.31099895 -0.4039627 -0.40263054 -0.021075388 -0.008720654 0.26498386 -0.23175445 0.18735842
-0.15816598 -0.13866068 -0.3499075 0.055229764 0.02606079 0.34783047 0.06636521 -0.22047918
0.33456492 -0.3007075 0.14024827 -0.27888972 -0.014352377 -0.2902435 -0.2129769 0.108395875
-0.06602003 0.09814481 -0.2567468 -0.42519236 0.29158348 0.121982865 0.12391363 -0.30971354
-0.22864307 0.0076465756 -0.06987005 0.12281324 -0.20807596 -0.32505873 0.26070383 0.36113313
-0.34364563 0.0029055486 0.010485636 0.0041731982 -0.24589892 -0.079884365 0.2652267 0.23311584
-0.20669931 -0.4082101 -0.22421615 0.24871354 -0.24195254 -0.17881721 -0.25531396 0.10941294
0.08502043 -0.10668217 -0.061115902 0.3163536 0.3795599 0.09963461 0.3493604 -0.16134539
0.24997897 -0.117930576 0.012520684 0.35542518 0.1575753 0.15489239 -0.23559792 0.30781403
-0.36633733 -0.3709129 0.06605544 -0.13923597 -0.018938627 -0.27598175 0.0276659 0.16438904
0.33553472 -0.3497318 -0.13111036 0.34553385 -0.23332468 -0.20312278 0.23135164 0.15720597
-0.2388452 -0.11528774 0.21789813 0.15727897 -0.242593 -0.35085717 -0.06908581 0.01987318
-0.21268842 -0.3353208 0.07642572 -0.17153236 -0.3114014 -0.0879634 -0.055748045 0.03580485
0.30305472 -0.24293321 -0.039534237 0.09976722 0.056103267 -0.128147 0.18221255 -0.18200938
0.3549971 0.0173721 -0.22857526 -0.3786691 -0.36972624 -0.24798858 -0.030020427 -0.12980531
0.17252237 0.30893153 0.17710581 -0.15375905 0.23124892 -0.10672163 -0.26521742 -0.362415
0.11809728 0.04750704 0.3196783 -0.36869073 -0.29705745 0.07604942 0.17128281 -0.014819707
-0.09574006 0.28245747 0.12555876 -0.39334953 -0.17559734 0.29016298 -0.0221096 -0.30663925
0.34402424 0.14537019 0.2740206 -0.04866432 0.16242383 0.30223876 -0.2023856 0.35799193
0.21524867 -0.3793245 -0.15499207 -0.012588581 -0.14477958 -0.3063165 0.02023406 0.084176295
0.101614766 -0.11677383 -0.145078 0.03702228 0.141566 0.090186276 0.08125862 -0.13941659
-0.06538773 -0.13604484 0.0076212236 -0.2761265 -0.48652545 -0.016200697 -0.06446015 0.0739725
0.33071995 -0.12582085 0.057349995 0.14904274 0.26846895 -0.0038258822 0.16552879 -0.095137544
0.14223422 -0.33499426 0.32051998 0.10405107 0.05667522 0.01842539 0.08501227 -0.37997204
-0.44583613 -0.27285478 0.078351684 0.28384668 -0.3603062 0.045020986 -0.30598995 0.2986288
-0.011931319 -0.16195256 0.028569117 -0.3429311 0.31910917 -0.17288043 0.15829417 -0.2903605

transformer_encoder.layers.1.linear2.weight f4 [6, 2048]
00000000: 9c12 4bbc 99e4 e93b 4dbd 3cbc eb35 09b8
00000010: 1582 683b bd40 f9bb 2293 2fbc 5825 da3a
00000020: 63f0 79bc 6857 f6bb 0b17 73bd a268 af3c
00000030: ba74 f4bc 1310 01be 7a43 7bbc 8ed7 12bd
00000040: 62d6 563d ba76 4d3b be4b bf3b cedd 433c
00000050: 8ddf 693d 25a8 70ba b0ae 2a3d c5c4 4ebd
00000060: 7bec 3ebb 6aa9 6f3b dd1a b03c 386a 543d
00000070: a7e5 88bd 73f2 0bbc 6a00 46bc 9781 43bd
00000080: ecc1 e3bc e6a5 d539 15f1 acbc 55af 84be
00000090: 6915 553a 2a99 873b cf26 8bbd 8941 c03c
000000a0: f16d ddbc d8eb c03c 70f5 edbc c703 7a3d
000000b0: a1c7 d73b 9d77 ee3c 3c20 dbbc b01c 233c
000000c0: d4b5 5dbd 9647 54bc 6e38 c3bc e57f f7ba
000000d0: 6fa0 06bd 03db d4bb f31d 213d d539 f2bc
000000e0: 1d40 d5bc 11fb 963c cfd3 86bc 8f61 f83c
000000f0: 7c07 95bc c3ca 59bd ba60 023d fff4 1dbb
00000100: 4c72 b6bb f6e2 03bd b429 e83c 57a2 963e
00000110: 0ed3 15be dc15 91bd a9ec 4fbd f0c0 86bd
00000120: a2e7 183c 97e6 933b 8272 443d ec71 123a
00000130: cd89 e03b e12d a3bc 37fe cd3c 0bed 80bc
00000140: 1530 04be 568b 95bb 41b8 bdbc 61a8 abbc
00000150: 7962 97bb efbf 5ebe 2947 383b 7b63 6dba
00000160: 8525 e2bc 77aa 4abd a547 0fbc c6f9 b3bd
00000170: a8b9 253d 8d97 093c bc88 1a3c 5b17 953a
00000180: 6533 76bc f189 fcbc d080 d43d dcb5 f0bb
00000190: c969 583b e08c d5bd 090f 6d3c d162 b8bc
000001a0: a176 013d 8256 5b3e 0bfa bdbc d39c 0a3b
000001b0: c996 853c d199 cf3c a7c4 79bc 776e 093e
000001c0: 7af6 a13c 098f 90bc 57f3 e93c 6a6f 00bd
000001d0: a821 55bc 9d29 c2bc b692 51bd 2e75 b2bd
000001e0: 87ee 82bd b386 9c3b 10c1 193d a617 843d
000001f0: 9e20 a3bd 07c6 b53c 3dff 4c3b 7bc6 973b
00000200: 1672 5cbd 9991 9dbc a18a c2ba 47d4 d9bc
00000210: 5fee 2dbd b0c0 47bb 2022 13bd 2ace bd3c
00000220: 0513 07bc 9061 45bd 0124 c43c 962e da3c
00000230: 9846 cb3c ad36 0dbd 13a2 c23d ff92 d9bc
00000240: 0135 a6bc d654 df3d ac16 473d 11e8 49bd
00000250: 9fca 1cbe 9abb 9c3b b8e0 a6bc ca29 5cbc
00000260: a5c3 2fbc cce8 9fbe e375 54bc 287e 4bbd
00000270: 106c b9bc 7c27 5cbd 46fb 0a3b 8170 ba3b
00000280: aae6 b9bc 9e38 0c3a c38b aebd ceb0 80bc
00000290: 1939 2f3b 9a8d 05bd 4ec0 17bd b645 983c
000002a0: b98c 29bb 1f4d 783c 9a17 b1bb 8b08 7b3e
000002b0: af57 963d 5952 44bc 5534 66be f29b 98bc
000002c0: 748e 2a3d 066a 483c 5a08 af3b 17e6 133e
000002d0: 7224 65bc 076e 0abd d1c9 afbc 262b 83bc
000002e0: 8c02 f8bc 7849 a1bd 0f46 ee3c 6f32 0ebc
000002f0: c550 07bd 2ad6 b03b d3d7 953c 8aaa 043e
00000300: 96aa 243c 1ef8 bcbc 73e4 bcbc 9587 3a3c
00000310: 8d5d 223c fd17 0cbc edf7 1f3d 98e7 70bc
00000320: 487c 7dbc 1833 8ebc bb35 a0bc 4ef0 2ebc
00000330: 4719 553d 5938 673d c7fe a03b 3738 7dbc
00000340: 6db9 53bc 0ae4 0fbd 21af b23d 028e 203d
00000350: 8946 02bd 3d9b 833b 0498 b5bc e987 10bd
00000360: cf51 1abc 0ae8 2dbd e065 183d 6096 1bbd
00000370: 6f82 bcbd cbeb 7dbc dfb6 863c eeab b23c
00000380: b1ec 3e3c c1f6 43bd 8eeb 0dbc d9ba ed3a
00000390: a6fd 023d 0b30 d43b 7108 5cbd 08b5 c93c
000003a0: 508c e4bb 0db5 7c3c d10f 0bbd 703b b5bc
000003b0: 320d a03c 76da af3c e74d 813c f99d 2b3c
000003c0: cbdb 073e 11f5 35bd 8eaa a7bc a0d8 64bc
000003d0: 075f 2ebc 0b90 d2bb b072 08bd 918d 04bd
000003e0: 3cde 63bc 80af 4a3d c30a e63c a8dc ec3c
000003f0: 5e34 e23b c84e c4bb 9809 4ebb 2267 bfbd
-0.012394574 0.0071378467 -0.011519742 -3.271356e-05 0.0035477926 -0.0076065944 -0.010716232 0.0016643209
-0.015255067 -0.007517744 -0.059348147 0.021412198 -0.029840816 -0.12603788 -0.015335912 -0.0358501
0.052450545 0.0031351284 0.0058378866 0.011954738 0.05709796 -0.0009180329 0.0416705 -0.050480623
-0.0029132653 0.0036569485 0.021497184 0.05185911 -0.06684428 -0.008541691 -0.01208506 -0.04773101
-0.02780243 0.0004075013 -0.02111105 -0.25915018 0.00081284955 0.0041381316 -0.067945115 0.02346875
-0.027029963 0.023549959 -0.029047698 0.06103876 0.006585077 0.02910977 -0.026748769 0.00995557
-0.054128483 -0.012956521 -0.023830619 -0.001888272 -0.032867845 -0.006495835 0.039335202 -0.029568592
-0.026031548 0.018430265 -0.01645842 0.030319957 -0.018192045 -0.053171884 0.031830527 -0.0024102328
-0.0055678245 -0.03219887 0.028340198 0.2942073 -0.14631292 -0.070842475 -0.050762806 -0.06579769
0.009332569 0.0045135724 0.047960766 0.00055864337 0.0068523646 -0.019919338 0.025145633 -0.01573803
-0.12908967 -0.0045637293 -0.023159148 -0.020954313 -0.004619893 -0.21752904 0.0028118587 -0.0009055656
-0.027605781 -0.049478974 -0.008745109 -0.08787875 0.04046026 0.008397949 0.009432014 0.0011374758
-0.015026902 -0.030827494 0.103761315 -0.007345898 0.0033022037 -0.104272604 0.014468917 -0.022508057
0.031607274 0.21419719 -0.023190519 0.0021150603 0.016307252 0.0253419 -0.0152446395 0.13421045
0.01977085 -0.01764633 0.028558416 -0.031356253 -0.013008513 -0.023701483 -0.051165305 -0.087137565
-0.06393152 0.0047767996 0.037537634 0.06449823 -0.079652056 0.022189153 0.0031280064 0.004631815
-0.05381974 -0.019234465 -0.001484234 -0.02659048 -0.042463657 -0.003047984 -0.035921216 0.023169596
-0.008244281 -0.048188746 0.02394295 0.026633542 0.024813935 -0.03447597 0.095035695 -0.026559351
-0.020288946 0.10904853 0.048605606 -0.04929358 -0.15311669 0.004783106 -0.020370826 -0.013437698
-0.010727798 -0.31232297 -0.0129675595 -0.04968086 -0.022634536 -0.053748593 0.00212069 0.005689681
-0.022692997 0.0005349013 -0.08522751 -0.015709307 0.0026736914 -0.032605745 -0.03704863 0.018587928
-0.002587123 0.015155106 -0.005404425 0.24514978 0.07340943 -0.011982524 -0.224809 -0.018629048
0.04163976 0.012232309 0.0053415718 0.14443241 -0.01398574 -0.033796337 -0.021458538 -0.016011786
-0.030274652 -0.07875341 0.02908614 -0.0086790165 -0.033036012 0.005396624 0.01829139 0.1295568
0.0100504365 -0.02306753 -0.023058152 0.011384864 0.00991 -0.008550641 0.0390548 -0.014703654
-0.0154715255 -0.017358348 -0.01955687 -0.01067741 0.05202606 0.05645022 0.0049131843 -0.015455297
-0.012922627 -0.035129584 0.087248094 0.03919793 -0.03180555 0.0040163086 -0.022167213 -0.035285864
-0.009418919 -0.042457618 0.03720653 -0.037985206 -0.09204566 -0.015498112 0.016444622 0.021810498
0.011653111 -0.047842745 -0.008662118 0.001813735 0.03198018 0.0064754537 -0.053718988 0.024622455
-0.0069747344 0.015424025 -0.03395063 -0.022123069 0.019537542 0.021466475 0.015784217 0.010474675
0.13267438 -0.044423167 -0.020467069 -0.013967663 -0.0106427735 -0.0064258627 -0.0333125 -0.03236157
-0.013907965 0.049483776 0.028081303 0.02891381 0.0069032153 -0.005990837 -0.0031438824 -0.09345843

transformer_encoder.layers.1.linear2.bias f4 [6]
00000000: d110 f3bc ab83 95bc 940c 513c 7874 fdbb
00000010: 73d8 2139 9f3b 31bc
-0.029671105 -0.01825126 0.0127593465 -0.0077348314 0.0001543479 -0.010817437

transformer_encoder.layers.1.norm1.weight f4 [6]
00000000: 10a6 833f 2420 813f 5d23 7f3f c882 693f
00000010: 786c 923f 54be 833f
1.0285053 1.0087934 0.99663335 0.9121518 1.1439352 1.0292459

transformer_encoder.layers.1.norm1.bias f4 [6]
00000000: 1ba2 da3b e1d4 5c3d fb63 7c3c f1ff 3dbd
00000010: c824 56bc f1f7 b1bc
0.0066721565 0.053913955 0.015404697 -0.046386663 -0.013070293 -0.021724673

transformer_encoder.layers.1.norm2.weight f4 [6]
00000000: 5ebd 9c3f 263c a33f 9ea8 943f c1f3 903f
00000010: 082e 9b3f 5138 803f
1.224529 1.2752731 1.1613958 1.1324388 1.2123423 1.0017186

transformer_encoder.layers.1.norm2.bias f4 [6]
00000000: fe13 c3bc 7505 14bd 2daf 9dbd 3eb2 1b3d
00000010: 4142 a63d 4f73 94bc
-0.023813244 -0.036138017 -0.07699428 0.038011782 0.08118106 -0.01812139
