DU_model/Transformer/best_model_prod_only_tr.2.40.pth (torch, 474310 bytes, 29 tensors)

norm.weight f4 [6]
1.0 1.0 1.0 1.0 1.0 1.0
00000000: 0000 803f 0000 803f 0000 803f 0000 803f
00000010: 0000 803f 0000 803f

norm.bias f4 [6]
0.0 0.0 0.0 0.0 0.0 0.0
00000000: 0000 0000 0000 0000 0000 0000 0000 0000
00000010: 0000 0000 0000 0000

transformer_encoder.layers.0.self_attn.in_proj_weight f4 [18, 6]
0.111554645 -0.25547582 -0.31906474 -0.18086743 0.2701263 -0.049897965 0.15925986 0.39721003
-0.41967556 -0.33693713 -0.494663 0.35913098 0.0021316553 0.2769576 -0.047421932 -0.41448176
-0.13695422 -0.2898053 0.28481814 -0.2772597 -0.095232226 0.06709141 -0.45526674 0.34021914
-0.10953113 -0.029023604 0.5195665 0.3243121 0.27792382 0.11788834 0.115674615 -0.17305556
-0.2549772 0.38193163 -0.45805243 -0.34648547 0.062690526 0.15443054 0.31911805 -0.36928833
-0.30878723 0.029360699 -0.24957377 -0.10602922 -0.48121065 -0.43508804 0.25345835 0.43716583
0.11383486 -0.09168558 -0.30784658 0.39818555 -0.11142219 0.37009567 -0.0805189 -0.09249916
0.34568447 -0.16834836 0.4328307 -0.37228873 -0.23005608 -0.046387434 0.05857401 -0.19469845
0.5149868 0.04229918 -0.09920059 0.452302 -0.25455204 0.28641585 0.4368676 -0.34262264
0.63364494 0.42760536 0.5390698 -0.24921358 0.50317657 0.46052495 -1.1038021 -0.8796576
-1.2076447 -0.118029855 -0.64858294 0.4620274 -0.12623142 0.6611927 0.55044234 0.28716934
-0.06007636 -0.015039771 -0.7451763 -0.53927666 -0.6619576 0.32395446 -0.19520187 -0.109839156
0.16662414 -0.5963611 -0.7580277 0.3417997 -0.18943962 -0.38349462 0.37226665 0.5047125
0.46877462 -0.24782018 0.7215973 0.05566729
00000000: c376 e43d bacd 82be 745c a3be 5035 39be
00000010: ff4d 8a3e cf61 4cbd 0415 233e 1d5f cb3e
00000020: b7df d6be 0683 acbe 7844 fdbe 04e0 b73e
00000030: 3eb3 0b3b 63cd 8d3e 803d 42bd f436 d4be
00000040: ba3d 0cbe 5c61 94be afd3 913e fcf4 8dbe
00000050: 1d09 c3bd 3967 893d b918 e9be 3431 ae3e
00000060: db51 e0bd e9c2 edbc 4f02 053f 3c0c a63e
00000070: 084c 8e3e 716f f13d d0e6 ec3d 7a35 31be
00000080: 5f8c 82be 8b8c c33e d985 eabe 8b66 b1be
00000090: e463 803d 0a23 1e3e 7163 a33e 5c13 bdbe
000000a0: 5c19 9ebe d985 f03c 4490 7fbe d925 d9bd
000000b0: 3e61 f6be dcc3 debe 4bc5 813e 33d4 df3e
000000c0: 4022 e93d a6c5 bbbd 119e 9dbe fade cb3e
000000d0: 5131 e4bd 2e7d bd3e 18e7 a4bd 3370 bdbd
000000e0: 8efd b03e 8363 2cbe fc9b dd3e a19c bebe
000000f0: d293 6bbe c000 3ebd 4deb 6f3d 085f 47be
00000100: 2dd6 033f e841 2d3d ae29 cbbd 2194 e73e
00000110: a554 82be 19a5 923e 1cad df3e 3c6c afbe
00000120: 8e36 223f 17ef da3e 7a00 0a3f d831 7fbe
00000130: 2ed0 003f edc9 eb3e 6349 8dbf 3e31 61bf
00000140: 1a94 9abf a3b9 f1bd 8809 26bf db8e ec3e
00000150: cf42 01be ed43 293f cae9 0c3f dc07 933e
00000160: a112 76bd 5f69 76bc e0c3 3ebf 090e 0abf
00000170: 0e76 29bf 5cdd a53e 00e3 47be 5af3 e0bd
00000180: 859f 2a3e 1fab 18bf 1a0e 42bf 5f00 af3e
00000190: 76fc 41be 6859 c4be bc99 be3e d734 013f
000001a0: 3a03 f03e 93c4 7dbe 9aba 383f 6203 643d

transformer_encoder.layers.0.self_attn.in_proj_bias f4 [18]
-0.010711797 0.0014605382 0.002613475 0.022804718 0.025112763 -0.025166228 -0.0011027142 -0.0020594285
-0.0022224844 0.0091632735 0.049369086 0.049798552 0.69104385 -0.83335924 0.23509975 -0.7458072
-0.67369324 0.5444164
00000000: 8880 2fbc 886f bf3a d646 2b3b f6d0 ba3c
00000010: 48b9 cd3c 6829 cebc f388 90ba 7af7 06bb
00000020: 1aa7 11bb 8e21 163c 3d37 4a3d 91f9 4b3d
00000030: 40e8 303f 0857 55bf fdbd 703e 38ed 3ebf
00000040: 2977 2cbf e05e 0b3f

transformer_encoder.layers.0.self_attn.out_proj.weight f4 [6, 6]
-0.38435727 -0.02730156 -0.32267383 -0.4080412 0.14065257 0.30288658 0.36205804 -0.34337348
0.17986237 -0.35782757 0.16816238 -0.20730676 -0.390782 -0.2377721 0.16908136 -0.34129742
0.2641729 -0.12719856 0.36665872 -0.3863808 0.12226636 -0.29092717 0.3218147 0.099641286
-0.3253432 0.35487753 -0.029438825 0.019265838 0.39483255 -0.32771406 0.3662727 0.33712065
0.066913664 0.10159322 0.00017449386 -0.40851113
00000000: 7aca c4be 85a7 dfbc 8135 a5be c7ea d0be
00000010: 3a07 103e f313 9b3e ac5f b93e a6ce afbe
00000020: d72d 383e 2d35 b7be c232 2c3e 3948 54be
00000030: 9414 c8be 887a 73be aa23 2d3e 89be aebe
00000040: ac41 873e 5740 02be b1ba bb3e b4d3 c5be
00000050: c966 fa3d 68f4 94be e5c4 a43e bb10 cc3d
00000060: 6293 a6be 82b2 b53e b129 f1bc 64d3 9d3c
00000070: 7e27 ca3e 23ca a7be 1888 bb3e 149b ac3e
00000080: 080a 893d 1b10 d03d 57f8 3639 5f28 d1be

transformer_encoder.layers.0.self_attn.out_proj.bias f4 [6]
0.36826274 0.42889884 0.060680833 0.19043416 -0.86090046 0.17993833
00000000: ef8c bc3e a198 db3e 778c 783d 2c01 433e
00000010: f963 5cbf c141 383e

transformer_encoder.layers.0.linear1.weight f4 [2048, 6]
-0.23455523 0.3455956 0.38179946 -0.22590916 -0.41450796 -0.3430643 0.29967573 0.3390621
0.34018266 -0.6066969 -0.17206134 -0.25827187 0.13204251 0.40767664 0.21371946 0.12272085
0.17414288 0.10833655 -0.015713718 0.40979862 0.21154918 0.3168211 0.079118334 -0.11219852
0.016592689 0.22210868 0.383075 0.10106285 -0.073214576 -0.30799228 0.21377288 -0.06888242
0.302051 0.17029457 -0.053515837 -0.21099867 -0.37517238 -0.017006619 -0.04325043 -0.2927314
0.19573389 -0.13101864 0.37360018 -0.046031103 -0.15884106 -0.041367058 0.047522664 -0.07731877
-0.3694254 0.16702 -0.30738536 -0.37495872 0.35009843 -0.07796595 -0.01742698 -0.025821256
-0.21423866 -0.33034962 0.45429453 0.20770414 0.56955755 0.15983978 0.024631035 -0.35372356
0.2820147 -0.28301167 0.012782311 0.3098794 -0.37145025 0.3207488 0.17530191 -0.11673677
-0.020622479 -0.09475937 -0.13578692 -0.08009643 0.26464793 -0.35700423 0.24611318 -0.061109602
-0.25657424 0.042928606 0.45412204 -0.34318614 -0.4183494 0.025375672 0.38325268 -0.09656552
-0.46163908 0.32259107 -0.26138055 -0.03627796 0.2540399 0.06940814 -0.050686214 -0.05837527
-0.3207653 0.14168076 -0.35026705 -0.3094349 0.29961506 -0.34252316 -0.16436154 0.078942716
0.08909317 0.24500768 0.13293523 0.40074748 -0.0031934483 0.12318551 -0.061767817 0.18360631
0.45748466 0.25145456 -0.09500678 0.30557978 0.030541366 0.048203412 -0.009419623 0.25584897
0.1297607 -0.16288662 0.3115627 0.35397425 -0.3130909 0.33655158 0.010867759 -0.014180711
-0.11272075 0.16309182 -0.2430892 -0.13183632 0.30386734 -0.24800208 -0.031953815 0.37121558
-0.31377473 0.35241225 0.08661607 0.19115639 0.08958987 0.05435182 -0.38543093 -0.23879512
-0.23704363 -0.1387741 0.17365165 -0.30761296 -0.27845204 0.13569511 0.13910255 -0.033790708
0.3389518 0.3812966 0.2912339 0.33372778 0.22202747 0.069295175 -0.29576564 0.06931022
0.30819058 -0.34796676 0.0049875113 -0.12842372 -0.13016506 -0.060399722 0.14710492 0.048073307
0.15450627 -0.15468341 -0.15175493 0.027519176 0.41638297 0.18058598 0.16793638 0.09951214
-0.33390477 -0.2358417 0.20719066 0.44991323 0.015668103 -0.35891455 0.112560816 -0.030208927
-0.26686177 0.42330816 0.1777924 -0.3380099 0.3408222 -0.4425387 0.40795022 0.28582084
0.32640162 0.19516003 -0.053679068 -0.034900565 -0.248172 -0.42684454 -0.29024446 -0.28914142
-0.33497113 -0.031115606 -0.4554399 -0.12801088 0.32649085 0.25952825 -0.32949784 0.13081688
0.058154706 -0.14815848 -0.039351247 -0.28052697 0.24378212 -0.47601247 -0.25792632 0.1196645
-0.21211731 0.069040954 0.28423968 -0.43419728 0.1757375 0.09906101 0.25956193 0.31065214
-0.10045709 0.32304785 0.39420527 -0.22650513 0.2088114 -0.3007898 -0.39700943 -0.0040001487
-0.50375533 0.054462098 -0.20917706 0.31930655 -0.118211254 -0.02656943 0.3139276 0.43821225
-0.31994987 -0.07116553 0.004514709 -0.09051647 -0.21292447 -0.28492677 0.31350303 -0.35304955
0.2822143 -0.063218 0.096603595 0.16920842 -0.37181583 -0.078142926 -0.105809 0.10680234
00000000: 3f2f 70be e8f1 b03e 387b c33e bb54 67be
00000010: 633a d4be 20a6 afbe 196f 993e 8c99 ad3e
00000020: 6c2c ae3e 7d50 1bbf d930 30be 363c 84be
00000030: 2736 073e feba d03e 46d9 5a3e 1255 fb3d
00000040: 8352 323e 8edf dd3d 0eba 80bc 20d1 d13e
00000050: 59a0 583e 6036 a23e cb08 a23d 56c8 e5bd
00000060: 64ed 873c 7570 633e 6822 c43e 0afa ce3d
00000070: 86f1 95bd 2ab1 9dbe 47e7 5a3e 3a12 8dbd
00000080: 6ea6 9a3e b361 2e3e 6c33 5bbd 0910 58be
00000090: 9816 c0be 7751 8bbc 5d27 31bd e4e0 95be
000000a0: 776e 483e c029 06be 8648 bf3e 1c8b 3cbd
000000b0: 3ba7 22be 8170 29bd 20a7 423d 4e59 9ebd
000000c0: 5325 bdbe 4a07 2b3e 9d61 9dbe 97fa bfbe
000000d0: 1a40 b33e 9dac 9fbd 07c3 8ebc 1987 d3bc
000000e0: 6161 5bbe 9623 a9be 4b99 e83e 65b0 543e
000000f0: 86ce 113f 0aad 233e 06c7 c93c 411b b5be
00000100: 3b64 903e e8e6 90be e66c 513c 83a8 9e3e
00000110: ba2e bebe 3039 a43e 5882 333e b013 efbd
00000120: 79f0 a8bc 3311 c2bd ba0b 0bbe 9909 a4bd
00000130: ef7f 873e 42c9 b6be 1805 7c3e 104e 7abd
00000140: b35d 83be e8d5 2f3d af82 e83e 18b6 afbe
00000150: e431 d6be a4e0 cf3c b239 c43e 25c4 c5bd
00000160: f55b ecbe a82a a53e acd3 85be 3398 14bd
00000170: 8511 823e db25 8e3d 599c 4fbd e81a 6fbd
00000180: 593b a4be c314 113e 3456 b3be 406e 9ebe
00000190: 2567 993e 325f afbe 644e 28be b8ac a13d
000001a0: 7b76 b63d 4be3 7a3e 2c20 083e c62e cd3e
000001b0: 2c49 51bb af48 fc3d 4000 7dbd 4b03 3c3e
000001c0: 6e3b ea3e a7be 803e ea92 c2bd f474 9c3e
000001d0: e331 fa3c f170 453d c354 1abc a3fe 823e
000001e0: fddf 043e c0cb 26be 2585 9f3e 1d3c b53e
000001f0: 734d a0be 7d50 ac3e af0e 323c 3656 68bc
00000200: 23da e6bd 8b01 273e 60ec 78be 1a00 07be
00000210: 8094 9b3e 42f4 7dbe 01e2 02bd f80f be3e
00000220: 15a7 a0be 616f b43e c463 b13d 80be 433e
00000230: e57a b73d 04a0 5e3d 3457 c5be b586 74be
00000240: 91bb 72be cc1a 0ebe bdd1 313e 727f 9dbe
00000250: 4491 8ebe a9f3 0a3e e670 0e3e 2068 0abd
00000260: 178b ad3e 4f39 c33e 9c1c 953e 5ede aa3e
00000270: 2b5b 633e a1ea 8d3d 986e 97be 84f2 8d3d
00000280: 28cb 9d3e b328 b2be 476e a33b 8281 03be
00000290: fd49 05be b365 77bd aca2 163e 84e8 443d
000002a0: e436 1e3e 5465 1ebe a565 1bbe e56f e13c
000002b0: 2630 d53e 88eb 383e 84f7 2b3e 05cd cb3d
000002c0: 91f5 aabe 7d80 71be ca29 543e 075b e63e
000002d0: 655a 803c a6c3 b7be 4986 e63d b678 f7bc
000002e0: 1ba2 88be d9bb d83e 360f 363e a20f adbe
000002f0: 3f80 ae3e 6f94 e2be dade d03e 1c57 923e
00000300: 1d1e a73e 08d8 473e 95de 5bbd e5f3 0ebd
00000310: cd20 7ebe 5e8b dabe ec9a 94be 580a 94be
00000320: 5681 abbe 28e6 febc 6b2f e9be 4915 03be
00000330: cf29 a73e e3e0 843e f1b3 a8be dcf4 053e
00000340: a133 6e3d dbb6 17be c62e 21bd 3ba1 8fbe
00000350: 05a2 793e e8b7 f3be eb0e 84be a912 f53d
00000360: 4835 59be 5865 8d3d dd87 913e 1b4f debe
00000370: 88f4 333e 80e0 ca3d 4de5 843e cc0d 9f3e
00000380: 72bc cdbd 8766 a53e 46d5 c93e f6f0 67be
00000390: a8d2 553e 1f01 9abe d244 cbbe ae13 83bb
000003a0: 1cf6 00bf a613 5f3d 8332 56be 267c a33e
000003b0: be18 f2bd 22a8 d9bc 1ebb a03e 5b5d e03e
000003c0: 78d0 a3be 3cbf 91bd 20f0 933b b360 b9bd
000003d0: df08 5abe ece1 91be 7883 a03e e9c2 b4be
000003e0: 657e 903e 7078 81bd 1bd8 c53d f944 2d3e
000003f0: a55e bebe 6609 a0bd 64b2 d8bd 2fbb da3d

transformer_encoder.layers.0.linear1.bias f4 [2048]
-0.340319 -0.11458878 0.35911456 0.37037092 -0.17217419 0.056130763 0.19462492 0.38808236
0.3370654 0.031157585 -0.35047016 -0.13909909 -0.07699135 -0.028851138 -0.03876279 0.016384125
0.13649654 -0.3199737 -0.21860132 0.057712387 -0.13850929 -0.057697434 -0.1976211 -0.13631265
0.33437786 -0.028294595 -0.12719987 0.2661439 0.10046461 0.4012504 0.066418946 -0.10674269
0.17928037 -0.3507592 -0.12668966 -0.23800948 0.370444 -0.41388133 0.27324635 0.1755745
0.17600836 0.32973972 0.34228128 0.06422903 0.13721864 -0.10565204 0.12417827 -0.2868933
-0.14249364 0.097802356 0.15783954 0.39082614 0.3373183 0.25956404 0.23106095 0.13038515
-0.020202085 0.13791515 -0.023653377 0.016356137 0.18288553 -0.3392785 -0.09032047 0.3387855
0.13877489 -0.16487935 0.06800439 0.057162475 -0.38176098 -0.095712595 -0.40801215 -0.25906688
-0.33913806 0.1719989 -0.33168033 -0.14938165 0.12225552 0.08369419 0.10147288 0.36490318
-0.27667823 -0.04674329 0.21929713 0.26383036 0.1811102 0.06820467 0.35403416 -0.40573615
0.15568133 -0.40463713 -0.14758493 -0.24956979 -0.20154734 0.28789917 0.02769007 0.44232836
-0.039845683 -0.33798748 -0.100103214 0.28593627 -0.31412786 0.09231278 0.3782764 0.20967272
-0.3407338 0.1363884 -0.23439734 0.13218808 0.3151517 -0.35836503 0.3137954 0.24067146
0.08699362 0.279895 0.30504483 -0.2413201 0.044130974 -0.08047392 0.206657 0.20086113
-0.15131427 -0.3930622 -0.30662733 0.16574557 -0.3160294 0.0912818 0.28046775 -0.03297505
0.047440972 -0.12474398 0.3323351 -0.34559757 0.06664733 -0.19629087 -0.40914804 0.18221548
-0.16907074 0.07576097 -0.2128448 0.25890732 -0.1257671 0.14893122 0.33471948 0.004686315
-0.14571053 0.35204577 0.21026894 0.10663902 -0.3218814 -0.06421385 0.23956233 0.37753174
-0.11956885 0.22804579 0.050121192 0.14455192 0.14706044 -0.16665517 -0.2588186 -0.25035957
-0.32869437 -0.08345771 0.10678921 -0.29434523 -0.11046485 0.17112865 -0.38713926 -0.07503551
0.32368004 0.27886477 0.059807684 0.058505345 0.31804258 -0.13308038 -0.0067191287 0.090968885
-0.3382196 -0.25825745 -0.21862373 0.24580815 0.3508393 -0.0567665 0.14955594 -0.19810845
0.17158419 -0.0036930223 -0.011188608 -0.15661633 -0.16266647 -0.24868591 -0.3728376 0.15693982
-0.0652769 -0.012258663 -0.36708453 0.25258416 0.29035813 0.12221963 -0.11408029 -0.026032832
-0.28318438 0.34208426 -0.049880344 0.01249969 -0.3581951 0.3143423 0.16610487 0.2633258
-0.03928388 -0.335304 0.10570212 -0.035084303 -0.37449363 0.029117875 -0.08589524 -0.09437785
0.10259912 0.021961538 0.34867117 0.2326652 -0.21211568 0.14940785 0.20487823 0.13456751
-0.2408271 -0.05907167 0.09355187 0.11242552 0.10883404 0.2197976 -0.112862006 0.18579301
0.35873035 0.047108613 0.39815313 0.31887388 0.3497464 -0.078990795 -0.30279452 0.26148444
0.31786546 0.07396731 0.084655195 0.3431377 0.063569926 -0.03973134 0.18245663 0.18718366
0.05852106 0.023867294 -0.33062196 -0.017633293 0.30457476 0.16907917 0.18374608 0.24280779
00000000: 4b3e aebe 86ad eabd dddd b73e 42a1 bd3e
00000010: 6e4e 30be 5fe9 653d c14b 473e bbb2 c63e
00000020: d693 ac3e 313e ff3c d370 b3be fe6f 0ebe
00000030: a4ad 9dbd 3959 ecbc bbc5 1ebd 0038 863c
00000040: c0c5 0b3e 98d3 a3be 06d9 5fbe d363 6c3d
00000050: 61d5 0dbe 2554 6cbd 305d 4abe 8b95 0bbe
00000060: 9333 ab3e 11ca e7bc af40 02be 0344 883e
00000070: 64c0 cd3d b170 cd3e a806 883d e99b dabd
00000080: 4695 373e b696 b3be efba 01be c2b8 73be
00000090: d6aa bd3e 41e8 d3be f2e6 8b3e cdc9 333e
000000a0: 893b 343e a5d3 a83e 7e3f af3e 828a 833d
000000b0: 0b83 0c3e 1960 d8bd 2d51 fe3d aee3 92be
000000c0: dae9 11be 9a4c c83d b0a0 213e 5d1a c83e
000000d0: fcb4 ac3e 94e5 843e 3e9b 6c3e af83 053e
000000e0: d87e a5bc a139 0d3e bac4 c1bc 4efd 853c
000000f0: 5846 3b3e e9b5 adbe f0f9 b8bd 4b75 ad3e
00000100: 011b 0e3e 22d6 28be e345 8b3d 3323 6a3d
00000110: 2d76 c3be f704 c4bd f8e6 d0be 6aa4 84be
00000120: 81a3 adbe 7b20 303e 01d2 a9be 81f7 18be
00000130: 1a61 fa3d dc67 ab3d 03d1 cf3d 97d4 ba3e
00000140: c5a8 8dbe e475 3fbd 6d8f 603e c614 873e
00000150: f474 393e e4ae 8b3d f743 b53e a6bc cfbe
00000160: ed6a 1f3e 992c cfbe 8120 17be 398f 7fbe
00000170: 6d62 4ebe 8567 933e 49d6 e23c dd78 e23e
00000180: 3a35 23bd b20c adbe ea02 cdbd 3d66 923e
00000190: 5ed5 a0be 7c0e bd3d 72ad c13e 72b4 563e
000001a0: a974 aebe 67a9 0b3e db05 70be 505c 073e
000001b0: 905b a13e 9f7b b7be caa9 a03e 9472 763e
000001c0: b629 b23d 664e 8f3e d62e 9c3e 9e1c 77be
000001d0: aec2 343d 83cf a4bd e59d 533e 8aae 4d3e
000001e0: 21f2 1abe 733f c9be 42fe 9cbe 35b9 293e
000001f0: 9bce a1be f4f1 ba3d 7899 8f3e d910 07bd
00000200: 7751 423d c679 ffbd d427 aa3e 2af2 b0be
00000210: 657e 883d 7900 49be da7b d1be b296 3a3e
00000220: e120 2dbe 9128 9b3d fdf3 59be 808f 843e
00000230: 17c9 00be 6d81 183e 5a60 ab3e a98f 993b
00000240: 2435 15be 583f b43e be50 573e 8f65 da3d
00000250: a4cd a4be 8d82 83bd d44f 753e d74b c13e
00000260: 83e0 f4bd d684 693e e14b 4d3d 6b05 143e
00000270: 0397 163e a7a7 2abe df83 84be 212f 80be
00000280: a14a a8be e0eb aabd 4db4 da3d 6bb4 96be
00000290: 653b e2bd 593c 2f3e 1e37 c6be 38ac 99bd
000002a0: 64b9 a53e 5dc7 8e3e e7f8 743d 4da3 6f3d
000002b0: 7ad6 a23e 3946 08be 232c dcbb e54d ba3d
000002c0: 1f2b adbe 523a 84be e6de 5fbe 22b5 7b3e
000002d0: 35a1 b33e fd83 68bd 3125 193e f1dc 4abe
000002e0: c4b3 2f3e a206 72bb 6c50 37bc 0860 20be
000002f0: 0a92 26be 85a7 7ebe 92e4 bebe d5b4 203e
00000300: e5af 85bd 8fd8 48bc 81f2 bbbe b652 813e
00000310: d2a9 943e 494e fa3d eda2 e9bd ce42 d5bc
00000320: 8bfd 90be ab25 af3e 554f 4cbd 80cb 4c3c
00000330: 5965 b7be 79f1 a03e 6517 2a3e a4d2 863e
00000340: 22e8 20bd f7ac abbe 5a7a d83d 8fb4 0fbd
00000350: a1bd bfbe 9c88 ee3c d8e9 afbd 2d49 c1bd
00000360: 7d1f d23d afe8 b33c 0785 b23e c93f 6e3e
00000370: da34 59be 5ffe 183e 99cb 513e 11cc 093e
00000380: 619b 76be 23f5 71bd 1f98 bf3d 5a3f e63d
00000390: 62e4 de3d 9f12 613e 3224 e7bd 8640 3e3e
000003a0: 81ab b73e f6f4 403d bada cb3e 7043 a33e
000003b0: f611 b33e edc5 a1bd e207 9bbe 4ae1 853e
000003c0: 43bf a23e 2c7c 973d b45f ad3d bfaf af3e
000003d0: f330 823d 54bd 22bd e9d5 3a3e 13ad 3f3e
000003e0: c7b3 6f3d 5885 c33c 4847 a9be b273 90bc
000003f0: 39f1 9b3e 1723 2d3e ef27 3c3e 9ba2 783e

transformer_encoder.layers.0.linear2.weight f4 [6, 2048]
0.10797965 0.04727981 -0.020949543 0.015464031 -0.02568471 0.0031547477 -0.030743666 -0.046424296
-0.06905533 0.07037968 0.12381253 0.018418286 -0.0033859354 -0.12928283 -0.08814416 0.015842695
-0.041290782 0.0028823456 -0.05696781 -0.07051904 0.02596743 0.010284147 0.03998615 -0.07280569
0.0021120228 -0.016427418 -0.07829469 -0.001549943 -0.027697464 0.16397493 -0.075367376 0.046430163
-0.06688412 0.062388297 -0.16581355 0.03024728 0.08594979 -0.14112283 0.08497164 -0.01998243
-0.0148808565 -0.05213202 0.0135006625 -0.0017421643 -0.0074794926 -0.096435055 0.008487514 0.0031904874
0.101881504 0.010817381 -0.09119844 0.0067371777 -0.015681123 0.05663997 -0.015245255 0.0042847884
0.046228293 -0.012829864 0.015401549 -0.0015022318 -0.094849214 -0.02769014 0.026705887 -0.052999064
-0.015521226 0.050710086 0.05546566 -0.0016036725 -0.0073252274 0.18925625 -0.08018471 0.0935341
0.05736919 -0.01183597 0.04348628 0.12094137 0.097479604 -0.10079929 -0.052339833 -0.0037765894
-0.055701733 0.13058868 0.00051873864 0.15772393 0.016670706 -0.05106415 0.085379094 -0.09657365
0.0039849905 -0.014591725 0.012111076 -0.02697471 0.06529549 0.06683542 -0.00053132774 -0.10113314
0.020895174 0.074667215 0.007562232 -0.10644154 0.11844663 -0.16295733 0.0033233678 0.0046875845
-0.060279775 0.02456338 -0.0065484266 -0.043033734 -0.0146253435 0.034977816 -0.0034951612 0.005943255
0.027591705 0.0027131196 -0.004469849 0.014640218 -0.056307435 0.17917496 0.09088595 0.10514422
-0.00132159 -0.03257388 -0.016329506 -0.017259337 0.084797494 0.033974852 0.103627644 -0.1436248
0.08125017 0.06379887 0.007934437 0.002703931 -0.016732516 -0.0106013315 0.006868556 0.0115544945
0.012975447 -0.07550238 0.0474304 -0.0060877753 0.087081924 -0.012933498 0.014067062 -0.016773196
0.009097283 0.016200991 0.0098516205 -0.033416823 0.04705808 0.10918479 0.0024758144 -0.006174416
0.017182257 -0.021231197 0.0064327284 0.009888408 -0.08536446 0.14929113 -0.023080686 0.02493825
-0.07103649 0.009895606 0.075748034 0.002146497 0.09708656 -0.09125709 -0.068147264 -0.01616926
0.0044218926 -0.015184301 0.11534106 -0.0048135715 -0.014520637 0.10144037 0.018131211 0.11901207
-0.091367714 -0.07718163 -0.016460268 -0.054214112 0.0053178445 -0.068989426 0.0059848237 -0.10614462
0.20886977 0.081081495 0.11773663 0.018980213 -0.012368496 0.06759053 0.124051794 0.011939454
0.025879646 0.039250135 -0.06254378 0.08151524 -0.008928703 -0.016142257 -0.006112 0.016890798
0.008141379 0.08170555 -0.019102257 -0.0047230967 0.049413163 -0.004854094 -0.04430559 0.0052792868
-0.045851365 -0.07329732 0.0070182267 0.008650022 0.11259082 -0.009623478 0.102232866 0.06091821
0.015828764 0.07304405 -0.07284696 -0.0041780015 0.058098592 0.04215651 0.060997922 0.00088814535
0.033125598 -0.036342952 0.11488128 0.08511209 0.01417306 -0.006874883 -0.0743263 -0.06736508
-0.0077986824 0.09868252 -0.029012956 0.08295167 -0.0036014167 0.008125876 -0.0038424223 -0.064850375
-0.05847321 -0.021158125 0.13820733 0.01255876 -0.001730482 0.01900806 0.08233622 -0.0029997702
-0.033290356 -0.0063051684 0.062453985 -0.01695155 -0.1766316 0.06516654 0.12055621 -0.008716259
00000000: 6f24 dd3d 79a8 413d 609e abbc d95c 7d3c
00000010: be68 d2bc e2bf 4e3b 24da fbbc 6727 3ebd
00000020: e16c 8dbd 3923 903d 6c91 fd3d f2e1 963c
00000030: 92e6 5dbb b862 04be ed84 b4bd 8ac8 813c
00000040: 8620 29bd bce5 3c3b 1457 69bd 496c 90bd
00000050: a6b9 d43c d77e 283c 84c8 233d 261b 95bd
00000060: dd69 0a3b cb92 86bc f758 a0bd 7527 cbba
00000070: cbe5 e2bc 0be9 273e 365a 9abd 8e2d 3e3d
00000080: 8bfa 88bd df8a 7f3d 07cb 29be 25c9 f73c
00000090: 7206 b03d 8182 10be 9c05 ae3d 31b2 a3bc
000000a0: d6ce 73bc 6388 55bd e231 5d3c 5559 e4ba
000000b0: 8816 f5bb be7f c5bd 370f 0b3c 7f17 513b
000000c0: 40a7 d03d 623b 313c 3fc6 babd 8bc3 dc3b
000000d0: b375 80bc 50ff 673d 3cc7 79bc 6967 8c3b
000000e0: e159 3d3d 5a34 52bc c756 7c3c 89e6 c4ba
000000f0: 4e40 c2bd 6fd6 e2bc 4ec6 da3c 8c15 59bd
00000100: be4c 7ebc 61b5 4f3d f62f 633d 5232 d2ba
00000110: 7608 f0bb 64cc 413e e237 a4bd ce8e bf3d
00000120: f5fb 6a3d a8eb 41bc ab1e 323d 1cb0 f73d
00000130: 63a3 c73d dc6f cebd 4b62 56bd a880 77bb
00000140: 8027 64bd 0ab9 053e f6fb 073a 6282 213e
00000150: 0191 883c a428 51bd 3cdb ae3d 68c8 c5bd
00000160: 8694 823b 2112 6fbc 896d 463c 11fa dcbc
00000170: a4b9 853d 02e1 883d cd48 0bba e41e cfbd
00000180: 5b2c ab3c 20eb 983d 9acc f73b 06fe d9bd
00000190: 2694 f23d 49de 26be dccc 593b 4f9a 993b
000001a0: ede7 76bd 2439 c93c 2f94 d6bb 2444 30bd
000001b0: 239f 6fbc e644 0f3d 130f 65bb a3bf c23b
000001c0: 0008 e23c 98ce 313b d077 92bb 86dd 6f3c
000001d0: a0a2 66bd a479 373e 6a22 ba3d da55 d73d
000001e0: 3439 adba 306c 05bd 75c5 85bc 7463 8dbc
000001f0: 4faa ad3d 3729 0b3d bb3a d43d 6112 13be
00000200: 7d66 a63d fba8 823d 71ff 013c 6f34 313b
00000210: a112 89bc 35b1 2dbc a011 e13b 104f 3d3c
00000220: f896 543c fea0 9abd 6146 423d f67b c7bb
00000230: 0258 b23d 06e7 53bc 8979 663c f167 89bc
00000240: c50c 153c f1b7 843c b168 213c 14e0 08bd
00000250: f9bf 403d 469c df3d 4641 223b c152 cabb
00000260: cec1 8c3c 0ced adbc a3c9 d23b fd02 223c
00000270: 90d3 aebd c6df 183e b513 bdbc 4d4b cc3c
00000280: 947b 91bd 2e21 223c c921 9b3d 3eac 0c3b
00000290: 52d5 c63d ffe4 babd cb90 8bbd 6575 84bc
000002a0: 86e5 903b 93c7 78bc ef37 ec3d 2abb 9dbb
000002b0: f7e7 6dbc f8bf cf3d e887 943c 9abc f33d
000002c0: ff1e bbbd 6711 9ebd afd7 86bc 9e0f 5ebd
000002d0: 5041 ae3b 544a 8dbd 571c c43b 5a62 d9bd
000002e0: f5e1 553e 0e0e a63d e71f f13d 647c 9b3c
000002f0: 3ba5 4abc e76c 8a3d de0e fe3d b39d 433c
00000300: 8d01 d43c c0c4 203d f416 80bd 76f1 a63d
00000310: b249 12bc c43c 84bc 2c47 c8bb 925e 8a3c
00000320: 6b63 053c 3d55 a73d 567c 9cbc 35c4 9abb
00000330: 7565 4a3d 170f 9fbb c779 35bd defd ac3b
00000340: a4ce 3bbd e81c 96bd 27f9 e53b d2b8 0d3c
00000350: 0496 e63d cbab 1dbc 775f d13d 5f85 793d
00000360: 53ab 813c 1e98 953d c930 95bd 9ee7 88bb
00000370: caf8 6d3d 4eac 2c3d f5d8 793d 6dd2 683a
00000380: b5ae 073d 59dc 14bd e046 eb3d 3f4f ae3d
00000390: 1f36 683c b346 e1bb 6338 98bd b4f6 89bd
000003a0: 178c ffbb 101a ca3d 94ac edbc 91e2 a93d
000003b0: bf05 6cbb 6522 053c 26d1 7bbb 46d0 84bd
000003c0: 9b81 6fbd ce53 adbc 3986 0d3e 42c3 4d3c
000003d0: 57d1 e2ba cbb6 9b3c e49f a83d cb97 44bb
000003e0: 785b 08bd 969b cebb c0cf 7f3d fadd 8abc
000003f0: eade 34be 0976 853d 2de6 f63d a4ce 0ebc

transformer_encoder.layers.0.linear2.bias f4 [6]
-0.009208712 0.01795684 -0.018479092 0.008507185 -0.010443316 -0.009698902
00000000: 23e0 16bc 391a 933c 7761 97bc b861 0b3c
00000010: 711a 2bbc 25e8 1ebc

transformer_encoder.layers.0.norm1.weight f4 [6]
0.9924325 1.0214816 1.0514616 0.9869026 1.1025776 1.0214716
00000000: 0e10 7e3f e9bf 823f 4b96 863f a6a5 7c3f
00000010: 4321 8d3f 95bf 823f

transformer_encoder.layers.0.norm1.bias f4 [6]
0.01855186 0.022754338 -0.010423553 -0.027196502 -0.000112824644 0.03239267
00000000: 12fa 973c 4e67 ba3c 8dc7 2abc 33cb debc
00000010: 459c ecb8 2dae 043d

transformer_encoder.layers.0.norm2.weight f4 [6]
1.0267696 1.0202148 1.1382147 0.9274657 1.0276959 0.96544963
00000000: 306d 833f 6696 823f 05b1 913f 646e 6d3f
00000010: 8a8b 833f b527 773f

transformer_encoder.layers.0.norm2.bias f4 [6]
0.044582453 -0.049214832 -0.0418286 -0.04701708 0.037473198 0.0011957305
00000000: 179c 363d 7e95 49bd 7754 2bbd fb94 40bd
00000010: 7f7d 193d 0fba 9c3a

transformer_encoder.layers.1.self_attn.in_proj_weight f4 [18, 6]
0.018856727 -0.3591705 -0.27199 -0.069002144 0.43801653 -0.1446515 0.40084347 0.50569385
-0.47317302 -0.40823334 -0.5260086 0.39857677 0.06446899 0.38916925 -0.058793053 -0.556316
-0.38997674 -0.22056954 0.15036166 -0.35216594 -0.31697813 0.17087337 -0.33527666 0.4740812
-0.04808048 0.06980615 0.5448971 0.207291 0.20818087 -0.04136107 0.22280103 -0.059772052
-0.1855602 0.3235716 -0.49991977 -0.4441835 -0.049768843 0.27841276 0.42372525 -0.43864644
-0.32522583 -0.00231834 -0.37878233 -0.27049056 -0.59386855 -0.22111486 0.39633575 0.4586085
0.16690731 -0.2572527 -0.44205135 0.5599885 -0.031095017 0.45627677 -0.0013738931 -0.0492718
0.37231565 -0.27462456 0.3261443 -0.42387477 -0.22887513 -0.17740978 -0.026299937 -0.108294554
0.49833286 0.17726661 -0.09210903 0.37190148 -0.3182445 0.31245407 0.38813132 -0.2656954
0.1573218 -0.3348554 -0.19310166 -0.32291144 -0.2624285 0.44026545 -0.48112437 -0.094861396
-0.4602388 0.06893917 0.2201862 0.38314384 0.18010047 0.42706493 0.38555077 0.18149625
-0.28379083 0.2380364 -0.070276156 0.22630973 -0.022213988 0.33571798 0.44616845 0.2552888
0.3668824 0.029655274 -0.33019775 0.31791744 0.42131537 -0.10633528 -0.24851336 0.039032098
0.27669498 -0.27634433 0.05892976 -0.35502866
00000000: 6c79 9a3c 32e5 b7be 4642 8bbe ff50 8dbd
00000010: b443 e03e 861f 14be 5b3b cd3e 2775 013f
00000020: bc43 f2be f603 d1be 80a8 06bf 4112 cc3e
00000030: 5108 843d 3141 c73e fcd0 70bd ba6a 0ebf
00000040: 08ab c7be fbdc 61be 68f8 193e 184f b4be
00000050: f54a a2be 6ef9 2e3e 62a9 abbe c5ba f23e
00000060: 0af0 44bd 87f6 8e3d 607e 0b3f 1844 543e
00000070: 5e2d 553e 3a6a 29bd f425 643e 8ad3 74bd
00000080: 7e03 3ebe 2dab a53e 7cf5 ffbe 056c e3be
00000090: 6ada 4bbd 1e8c 8e3e 84f2 d83e 4496 e0be
000000a0: 0084 a6be 4aef 17bb c2ef c1be bd7d 8abe
000000b0: c507 18bf ef6b 62be 85ec ca3e bcce ea3e
000000c0: c0e9 2a3e a0b6 83be 8e54 e2be 685b 0f3f
000000d0: faba febc 1c9d e93e 3414 b4ba 3ad1 49bd
000000e0: 28a0 be3e 979b 8cbe 63fc a63e 1d06 d9be
000000f0: 3e5e 6abe e9aa 35be f772 d7bc 89c9 ddbd
00000100: 7c25 ff3e 6185 353e a9a3 bcbd df69 be3e
00000110: f1f0 a2be fbf9 9f3e 26b9 c63e 3a09 88be
00000120: f718 213e 2b72 abbe 71bc 45be a654 a5be
00000130: 075d 86be 796a e13e ef55 f6be b146 c2bd
00000140: 6ca4 ebbe fb2f 8d3d 7e78 613e 6e2b c43e
00000150: 426c 383e 41a8 da3e e966 c53e 27da 393e
00000160: 084d 91be d0bf 733e f2ec 8fbd bdbd 673e
00000170: 1cfa b5bc 3ae3 ab3e 3170 e43e 37b5 823e
00000180: 03d8 bb3e 9eef f23c ae0f a9be 13c6 a23e
00000190: a6b6 d73e 50c6 d9bd 497a 7ebe 1fe0 1f3d
000001a0: f7aa 8d3e 017d 8dbe 5560 713d 51c6 b5be

transformer_encoder.layers.1.self_attn.in_proj_bias f4 [18]
0.13827766 -0.12996134 -0.12656981 0.036952805 -0.13650809 -0.09407225 4.9520306e-05 -0.0013632319
-0.00026466593 -0.0001531764 -4.39322e-05 3.0588028e-05 -0.002011403 0.01273818 -0.03192492 -0.07121361
-0.07378266 0.03466682
00000000: a998 0d3e 9614 05be 849b 01be d35b 173d
00000010: c7c8 0bbe f4a8 c0bd 06b4 4f38 79ae b2ba
00000020: dcc2 8ab9 fa9d 20b9 d743 38b8 a54b 0038
00000030: bed1 03bb cdb3 503c b4c3 02bd 71d8 91bd
00000040: 5d1b 97bd ccfe 0d3d

transformer_encoder.layers.1.self_attn.out_proj.weight f4 [6, 6]
-0.4612487 0.017661022 -0.35794833 -0.42573628 0.023750657 0.4913175 0.4142364 -0.36172888
0.17013189 -0.3026257 0.30348697 -0.3537568 -0.39576593 -0.1324148 0.112269044 -0.28445154
0.28577116 -0.112695485 0.3848974 -0.59736484 0.2861817 -0.3470323 0.35101008 -0.09967734
-0.32527825 0.4377043 -0.018935861 -0.023930822 0.30011904 -0.30801216 0.48552543 0.45951545
-0.06864886 0.13250984 0.05555145 -0.3322507
00000000: ca28 ecbe d9ad 903c 0145 b7be 1bfa d9be
00000010: bd90 c23c f88d fb3e cb16 d43e 8734 b9be
00000020: 0e37 2e3e c1f1 9abe a562 9b3e 9c1f b5be
00000030: d5a1 cabe bf97 07be 50ed e53d a2a3 91be
00000040: 9950 923e e4cc e6bd 4611 c53e e7ec 18bf
00000050: 6886 923e 38ae b1be 98b7 b33e a223 ccbd
00000060: df8a a6be c71a e03e 611f 9bbc 920a c4bc
00000070: 34a9 993e c5b3 9dbe ca96 f83e 9c45 eb3e
00000080: c697 8cbd a9b0 073e eb89 633d c41c aabe

transformer_encoder.layers.1.self_attn.out_proj.bias f4 [6]
0.041953076 0.014531346 -0.058954623 -0.035171166 -0.04134188 0.03379501
00000000: fdd6 2b3d e214 6e3c 677a 71bd a40f 10bd
00000010: 1a56 29bd a36c 0a3d

transformer_encoder.layers.1.linear1.weight f4 [2048, 6]
-0.07568689 0.47754648 0.2913259 -0.26862407 -0.39145416 -0.3428659 0.42353925 0.28278098
0.28329253 -0.3913634 -0.3408763 -0.2937305 0.11638645 0.40384445 0.21306466 0.13781467
0.17560637 0.11078777 -0.012759402 0.36431473 0.23160976 0.32577986 0.1462359 -0.12773089
0.04939415 0.30975974 0.3363672 0.08604222 -0.1802749 -0.2963858 0.20351453 -0.09431681
0.3070914 0.16456868 -0.020083228 -0.20005669 -0.4165967 -0.01190673 -0.05028092 -0.26133093
0.16051221 -0.15471251 0.4343392 0.011903331 -0.19136536 -0.054790854 -0.025219766 -0.025065977
-0.37945127 0.19595909 -0.24053763 -0.3690104 0.29413515 -0.102679946 -0.0034656215 -0.0030578072
-0.27128023 -0.298632 0.3485136 0.38803497 0.34415695 0.041496716 0.11373882 -0.1978548
0.30888647 -0.31642923 0.024623223 0.2992583 -0.36633644 0.3394467 0.1866857 -0.1253742
-0.03171629 -0.119789444 -0.084481806 -0.07197891 0.23054542 -0.3621344 0.31645265 0.0045891316
-0.16697347 -0.046604667 0.3463239 -0.22747593 -0.39522558 0.10065875 0.38401952 -0.110446155
-0.36391756 0.2865051 -0.27035427 -0.07384341 0.2849813 0.073704384 -0.033846073 -0.099920705
-0.28601545 0.1464423 -0.30077285 -0.32841277 0.2958942 -0.3277374 -0.24013269 0.09676113
0.22486562 0.24014035 0.17189664 0.34045467 0.012022494 0.18617098 0.06252375 0.11408379
0.41314617 0.3098183 -0.14324364 0.3016667 0.0541502 0.06322353 0.107484914 0.25485274
0.09780655 -0.16747126 0.27745718 0.35423806 -0.23476624 0.3407145 0.00011352756 0.01424378
-0.20809576 0.18496151 -0.2689097 -0.18993345 0.31221235 -0.29153624 0.035026707 0.37915987
-0.1605811 0.3226476 0.24486482 0.2797974 0.034220327 -0.034705818 -0.39053142 -0.15855627
-0.27526358 -0.16550125 0.20298745 -0.2688267 -0.26446155 0.10876477 0.10404055 -0.017713029
0.30249912 0.3900343 0.2629744 0.33665714 0.21996225 0.057262465 -0.3788579 0.09575081
0.2426429 -0.28091434 0.00881166 -0.15720704 -0.06132348 -0.06307929 0.21549839 0.01843943
0.12995146 -0.16523056 -0.0937673 0.062045198 0.34022748 0.13712983 0.3114622 0.055858813
-0.2985658 -0.16176954 0.062319588 0.34239548 0.20854375 -0.33230424 0.040839262 -0.09527616
-0.1796875 0.35466155 0.18546028 -0.3418224 0.4047632 -0.4191473 0.37151095 0.24175228
0.37136903 0.23759311 -0.08331142 -0.12491717 -0.21039549 -0.35611734 -0.3029227 -0.26266444
-0.2798405 -0.041395303 -0.40572542 -0.10345009 0.3824774 0.15371722 -0.4070476 0.121429525
0.11721948 0.018212998 -0.055454757 -0.25647107 0.182092 -0.3214586 -0.28771785 0.16748339
-0.23526634 0.09191159 0.27965578 -0.30276394 0.11178614 0.036538403 0.30569276 0.34867346
-0.07104314 0.3112254 0.1957382 -0.1455868 0.31152323 -0.2812309 -0.33449456 -0.08397001
-0.34031513 0.16465649 -0.24639378 0.26550972 -0.044742845 0.011077952 0.34416518 0.3964492
-0.32654524 -0.06447793 0.01681934 -0.07453051 -0.23313262 -0.31152508 0.31745172 -0.30435887
0.27429506 -0.06783882 0.05041384 0.1675915 -0.3457101 -0.10120899 -0.084934615 0.116117455
00000000: ba01 9bbd f980 f43e ab28 953e 1889 89be
00000010: ae6c c8be 1f8c afbe 23da d83e abc8 903e
00000020: b80b 913e c960 c8be 5787 aebe d863 96be
00000030: 055c ee3d b3c4 ce3e 9f2d 5a3e 4a1f 0d3e
00000040: 28d2 333e b3e4 e23d d00c 51bc 7687 ba3e
00000050: 1c2b 6d3e 9ecc a63e ddbe 153e e3cb 02be
00000060: 8551 4a3d d498 9e3e 5238 ac3e e736 b03d
00000070: fc99 38be e1bf 97be 1d66 503e 2c29 c1bd
00000080: 153b 9d3e b184 283e 9585 a4bc a9db 4cbe
00000090: 2a4c d5be 7214 43bc 5ef3 4dbd 2bcd 85be
000000a0: 505d 243e f56c 1ebe b561 de3e 3006 433c
000000b0: 48f5 43be 606c 60bd af99 cebc 2a57 cdbc
000000c0: 7047 c2be 80a9 483e 7f4f 76be eeee bcbe
000000d0: e298 963e dd49 d2bd 7b1f 63bb 7e65 48bb
000000e0: 3ee5 8abe 4be6 98be 6070 b23e 85ac c63e
000000f0: 5735 b03e 76f8 293d e6ef e83d 739a 4abe
00000100: 5e26 9e3e 0303 a2be a4b6 c93c 6238 993e
00000110: 7390 bbbe f5cb ad3e 892a 3f3e 1862 00be
00000120: f1e8 01bd 2b54 f5bd cc04 adbd ae69 93bd
00000130: 1914 6c3e ae69 b9be 1506 a23e 6d60 963b
00000140: 18fb 2abe 89e4 3ebd 5e51 b13e 73ef 68be
00000150: 025b cabe 2d26 ce3d 359e c43e 9831 e2bd
00000160: 6753 babe ccb0 923e e06b 8abe 373b 97bd
00000170: 12e9 913e 53f2 963d 2ea2 0abd 3aa3 ccbd
00000180: 9e70 92be f8f4 153e e6fe 99be b825 a8be
00000190: 727f 973e 32cd a7be 58e5 75be b32a c63d
000001a0: 2c43 663e 5ae7 753e ac05 303e 1350 ae3e
000001b0: fff9 443c 9ba3 3e3e 740c 803d c3a4 e93d
000001c0: e587 d33e 81a0 9e3e 76ae 12be 0f74 9a3e
000001d0: 9acc 5d3d 577b 813d 0d21 dc3d 0f7c 823e
000001e0: cd4e c83d 967d 2bbe de0e 8e3e b15e b53e
000001f0: 9066 70be 2272 ae3e a515 ee38 be5e 693c
00000200: 0e17 55be 8d66 3d3e 88ae 89be ea7d 42be
00000210: 4cda 9f3e 3d44 95be 2a78 0f3d 3e21 c23e
00000220: 5f6f 24be 1132 a53e d8bd 7a3e 9b41 8f3e
00000230: 9d2a 0c3d b027 0ebd bcf3 c7be 935c 22be
00000240: 59ef 8cbe 2979 29be f1db 4f3e a7a3 89be
00000250: 8167 87be 10c0 de3d 3613 d53d ea1a 91bc
00000260: 2ae1 9a3e 93b2 c73e 95a4 863e 535e ac3e
00000270: c93d 613e 0c8c 6a3d aaf9 c1be 0019 c43d
00000280: 6177 783e 01d4 8fbe c85e 103c e2fa 20be
00000290: 542e 7bbd b72f 81bd 9cab 5c3e 4a0e 973c
000002a0: ff11 053e 3332 29be 1209 c0bd 1b23 7e3d
000002b0: 4c32 ae3e c36b 0c3e f977 9f3e 36cc 643d
000002c0: 9edd 98be eaa6 25be d342 7f3d 764e af3e
000002d0: 7e8c 553e c823 aabe 1247 273d 2620 c3bd
000002e0: 0000 38be 3396 b53e 4de9 3d3e 5803 afbe
000002f0: 1f3d cf3e 7a9a d6be af36 be3e e98d 773e
00000300: 1524 be3e 9c4b 733e 2e9f aabd 93d4 ffbd
00000310: ea71 57be 0355 b6be af18 9bbe f47b 86be
00000320: 4147 8fbe 1f8e 29bd 3ebb cfbe a4dd d3bd
00000330: 14d4 c33e 0c68 1d3e 8b68 d0be 0bb0 f83d
00000340: c410 f03d 6d33 953c 8724 63bd 2d50 83be
00000350: 5376 3a3e 3996 a4be c14f 93be c480 2b3e
00000360: a9e9 70be 253c bc3d 0b2f 8f3e e003 9bbe
00000370: 22f0 e43d 4ba9 153d c383 9c3e 5485 b23e
00000380: 117f 91bd f058 9f3e 986f 483e b514 15be
00000390: f97f 9f3e 7ffd 8fbe df42 abbe 78f8 abbd
000003a0: c93d aebe b69b 283e a74e 7cbe e4f0 873e
000003b0: 4644 37bd 4c80 353c 6b36 b03e 64fb ca3e
000003c0: f030 a7be 010d 84bd b6c8 893c 74a3 98bd
000003d0: 51ba 6ebe 3780 9fbe 0889 a23e edd4 9bbe
000003e0: 6770 8c3e 14ef 8abd be7e 4e3d 1b9d 2b3e
000003f0: ea00 b1be a946 cfbd 33f2 adbd fdce ed3d

transformer_encoder.layers.1.linear1.bias f4 [2048]
-0.3885377 -0.1494341 0.3563503 0.38345823 -0.18872978 0.045410376 0.20664352 0.33578497
0.33944592 -0.03247906 -0.33629754 -0.13041241 -0.07653233 -0.12245117 -0.07801135 0.032383867
0.117464006 -0.30368453 -0.26181892 0.060004212 -0.14896597 -0.07070505 -0.20773776 -0.2127121
0.3381304 -0.034120232 -0.12192954 0.26925853 0.12928635 0.31816998 -0.02556762 -0.12272749
0.10545198 -0.36539194 -0.11895989 -0.31218666 0.39324746 -0.4366012 0.23253052 0.20032278
0.17017147 0.30681118 0.34239274 0.06890375 0.14100115 -0.20009919 0.14396282 -0.2174523
-0.1448836 0.08746341 0.09638336 0.38728872 0.32470784 0.25360587 0.27933794 0.13999686
-0.09329304 0.14832836 -0.0028617936 0.0053399066 0.12917851 -0.34837922 -0.069819115 0.27420685
0.17297137 -0.18934774 0.03562687 0.079074524 -0.36487865 -0.10958196 -0.4617788 -0.35528594
-0.33728182 0.1475175 -0.37536722 -0.21358271 0.046985153 0.027487304 0.09931784 0.344281
-0.30997273 -0.0019051047 0.21195003 0.23612446 0.16980551 0.04982022 0.30460498 -0.43651453
0.09786647 -0.38404015 -0.21464582 -0.21855062 -0.19628604 0.3323319 -0.010140463 0.37534305
-0.009492234 -0.33478403 -0.08816357 0.18523508 -0.35705036 0.055895567 0.41001943 0.18673196
-0.25688976 0.18366723 -0.20857884 0.16834784 0.3134692 -0.34112623 0.2981752 0.24434261
0.0841611 0.3118245 0.31404948 -0.2445043 0.05951396 -0.115243025 0.2170243 0.19031145
-0.25786 -0.4271124 -0.2710823 0.17040227 -0.3433668 0.06888814 0.22409163 -0.04066698
0.020507783 -0.17066635 0.31159323 -0.3073723 0.09243835 -0.14571238 -0.39015752 0.20418882
-0.16578491 -0.008068881 -0.27585953 0.2551789 -0.11860655 0.15325814 0.34673432 -0.022722583
-0.19385575 0.32857147 0.25979745 0.085849755 -0.3020586 -0.04872405 0.24643274 0.34969947
-0.14004351 0.22796656 0.037851695 0.15359712 0.12375859 -0.13405845 -0.25728664 -0.20079502
-0.4266826 -0.12083913 0.059755325 -0.27355412 -0.1264139 0.15418857 -0.3956129 -0.0454868
0.33219495 0.30684787 0.068001375 0.058706906 0.30305538 -0.12892759 0.009120248 0.016829921
-0.385301 -0.32590878 -0.24023215 0.2354374 0.3454438 -0.09060712 0.15229686 -0.26322138
0.047138203 -0.03630391 -0.031097785 -0.17989859 -0.1806096 -0.24324313 -0.38860518 0.16062327
-0.063716605 -0.0670221 -0.39563653 0.22160842 0.2932288 0.12740818 -0.11919352 -0.0449062
-0.28980142 0.28988984 -0.04695705 0.0064977244 -0.43367788 0.31190303 0.08503877 0.29400387
-0.016481081 -0.32345986 0.117406696 -0.02936784 -0.33127663 0.02913983 -0.097452626 -0.10764592
0.07408923 0.06451062 0.33568665 0.21936384 -0.29557228 0.13367458 0.16078335 0.14174183
-0.23245408 -0.060439296 0.048807308 0.11570381 0.14668798 0.23331805 -0.15971965 0.14728627
0.34298235 -0.008370023 0.38542256 0.3297423 0.35781747 -0.059423044 -0.29906988 0.22002307
0.19371688 0.032506056 0.04521464 0.35636812 0.078388914 -0.038257837 0.21541052 0.17307448
0.034972418 0.03011706 -0.28345078 0.0029683632 0.21326019 0.14331982 0.17118195 0.2568185
00000000: 6aee c6be 4105 19be 8c73 b63e a354 c43e
00000010: 6142 41be 3b00 3a3d 5c9a 533e 02ec ab3e
00000020: dbcb ad3e c308 05bd 312f acbe d58a 05be
00000030: fbbc 9cbd aec7 fabd 6ac4 9fbd f2a4 043d
00000040: f890 f03d 8a7c 9bbe 210d 86be fac6 753d
00000050: 898a 18be cfcd 90bd 35b9 54be 33d1 59be
00000060: 6e1f ad3e a8c1 0bbd 32b6 f9bd 41dc 893e
00000070: a463 043e 2de7 a23e 2f73 d1bc 8d58 fbbd
00000080: 35f7 d73d a714 bbbe 3ea1 f3bd eed6 9fbe
00000090: bb57 c93e 318a dfbe 7b1c 6e3e 6a21 4d3e
000000a0: 6e41 2e3e 5b16 9d3e 1a4e af3e 691d 8d3d
000000b0: 9b62 103e cde6 4cbe fd6a 133e d1ab 5ebe
000000c0: 5e5c 14be 0420 b33d a464 c53d b54a c63e
000000d0: 1b40 a63e a1d8 813e 6205 8f3e 565b 0f3e
000000e0: 6c10 bfbd 64e3 173e ee8c 3bbb 62fa ae3b
000000f0: 5f47 043e c35e b2be 53fd 8ebd d764 8c3e
00000100: 681f 313e 60e4 41be 7bed 113d d3f1 a13d
00000110: 60d1 babe 826c e0bd 456e ecbe 0ae8 b5be
00000120: 34b0 acbe d40e 173e 2230 c0be 6db5 5abe
00000130: 8173 403d 0e2d e13c 2767 cb3d 9945 b03e
00000140: bfb4 9ebe b5b4 f9ba 6e09 593e 9cca 713e
00000150: 7fe1 2d3e 4910 4c3d 2ff5 9b3e d57e dfbe
00000160: 376e c83d e9a0 c4be 1dcc 5bbe bccb 5fbe
00000170: 35ff 48be 6827 aa3e 2f24 26bc f72c c03e
00000180: 5185 1bbc d068 abbe 1a8f b4bd 44ae 3d3e
00000190: 4ecf b6be c0f2 643d 11ee d13e aa36 3f3e
000001a0: 0e87 83be 4313 3c3e b195 55be 6063 2c3e
000001b0: 097f a03e 19a8 aebe 6baa 983e f334 7a3e
000001c0: a85c ac3d 76a7 9f3e 18cb a03e 565f 7abe
000001d0: e9c4 733d 8904 ecbd 9e3b 5e3e 01e1 423e
000001e0: 3a06 84be 7aae dabe 4dcb 8abe ef7d 2e3e
000001f0: c6cd afbe 3a15 8d3d 4778 653e 6b92 26bd
00000200: f0ff a73c 29c3 2ebe 2689 9f3e e75f 9dbe
00000210: 5150 bd3d a035 15be bac2 c7be e016 513e
00000220: 85c3 29be 5733 04bc 763d 8dbe cfa6 823e
00000230: fee7 f2bd b4ef 1c3e 2987 b13e b624 babc
00000240: 1f82 46be 853a a83e 2c04 853e ffd1 af3d
00000250: 6da7 9abe df92 47bd dd58 7c3e cf0b b33e
00000260: 9167 0fbe 1170 693e 610a 1b3d 9048 1d3e
00000270: 2575 fd3d 9e46 09be 13bb 83be 369d 4dbe
00000280: 2476 dabe 817a f7bd 00c2 743d 490f 8cbe
00000290: a572 01be 9ce3 1d3e c68d cabe 5e50 3abd
000002a0: 7515 aa3e 2a1b 9d3e 4e44 8b3d a776 703d
000002b0: 132a 9b3e 9805 04be 186d 153c e7de 893c
000002c0: 2c46 c5be 84dd a6be 6bff 75be 8016 713e
000002d0: 02de b03e 3a90 b9bd b5f3 1b3e f4c4 86be
000002e0: fd13 413d 69b3 14bd c8c0 febc 5637 38be
000002f0: b9f1 38be ba14 79be 42f7 c6be 6d7a 243e
00000300: da7d 82bd e242 89bd df90 cabe 51ed 623e
00000310: 1622 963e 4a77 023e bb1b f4bd 90ef 37bd
00000320: da60 94be 716c 943e 0956 40bd ddea d43b
00000330: 070b debe c1b1 9f3e cf28 ae3d ad87 963e
00000340: 5503 87bc 889c a5be ec72 f03d d394 f0bc
00000350: 179d a9be a7b6 ee3c 3e95 c7bd 7775 dcbd
00000360: 18bc 973d 251e 843d 1fdf ab3e eaa0 603e
00000370: 4055 97be fde1 083e 64a4 243e c524 113e
00000380: 7108 6ebe 328f 77bd 2cea 473d 1ef6 ec3d
00000390: 6035 163e edea 6e3e 8c8d 23be 36d2 163e
000003a0: 629b af3e 6c22 09bc 1b56 c53e fcd3 a83e
000003b0: da33 b73e 9465 73bd b01f 99be ba4d 613e
000003c0: b85d 463e 1225 053d fd32 393d e275 b63e
000003d0: 5e8a a03d 40b4 1cbd 9394 5c3e 703a 313e
000003e0: 3d3f 0f3d 0db8 f63c 7620 91be df88 423b
000003f0: e160 5a3e 6ec2 123e 524a 2f3e b77d 833e

transformer_encoder.layers.1.linear2.weight f4 [6, 2048]
-0.05668152 -0.020844378 -0.024720348 0.011703234 -0.019646274 0.0045506377 -0.029701723 0.016675964
-0.031871025 -0.019669889 0.0012820363 0.027532484 0.020226818 0.006057885 -0.00029664833 0.02024711
-0.0071314196 -0.03837807 -0.04198084 -0.044662945 0.0063510416 -0.006500505 0.0203957 -0.028180443
0.0119886445 -0.010144701 0.039429616 0.0031073831 -0.0151151195 0.029092342 0.0043253973 0.020522391
-0.010797752 -0.01708217 0.09496192 0.014367229 -0.012707257 0.0101238405 0.0007846986 -0.015808126
-0.01765799 0.007163841 0.0158122 -0.01892823 -0.0011944112 0.018898994 0.012980041 -0.047794897
0.026129704 -0.038055632 0.010783151 0.0065199216 -0.009480124 -0.03833393 0.0302945 -0.014094972
-0.0037612212 -0.009422359 0.021605233 0.00082466047 -0.036342043 -0.0015707039 -0.01817435 0.008718294
-0.013928257 -0.0006636459 -0.0018075131 0.0055391714 -0.004985392 0.099268585 0.004884956 0.0067115747
0.0387252 -0.011423222 0.021155195 0.02298519 0.0065559587 -0.04453753 0.015601646 -0.0072494023
-0.026513703 0.05292172 0.0038209693 -0.04241545 0.025687233 -0.026500484 0.009860521 -0.0036603564
-0.0019902606 -0.03602154 0.006943463 -0.05021096 0.05965205 0.030436577 0.005583375 -0.018811995
0.025980681 -0.033713292 -0.0032533456 -0.002811865 0.04926526 -0.06382718 -0.030538758 0.02330541
0.3290763 0.013331989 0.002008988 -0.03327145 -0.021610845 0.006792527 -0.001651601 0.018300492
0.031342834 0.004337063 -0.021153938 0.028053062 -0.021974603 0.04118627 -0.00910412 -0.00032424676
-0.008284585 -0.030741937 -0.029059276 -0.012545264 -0.03805 0.04066307 -0.028223138 0.06066074
0.00096809794 0.020887807 -0.00036113596 0.06968645 -0.01655308 0.0829261 0.014439451 0.010395673
-0.008774255 0.020746717 0.004721548 -0.01046905 -0.0050959447 -0.02652265 0.012187318 -0.040186793
0.0048746616 0.009482051 0.015004705 -0.0024349766 0.042877212 0.054943204 0.0106556 0.00673015
0.041208487 -0.0071917707 -0.009004514 0.01502376 0.12841545 0.010199189 -0.0071439873 0.026842782
0.025475256 0.005773169 -0.029023873 0.0077587636 0.015445594 0.018517273 0.01297151 -0.026099455
0.011765416 0.01810008 0.009987912 -0.015710995 -0.0033163563 -0.012087891 0.018258195 0.016383123
-0.008449392 -0.01194953 -0.0083166305 0.012146845 0.011126032 0.0045950324 0.004307122 -0.04072542
0.08473436 0.015768845 0.025594505 0.004466198 -0.02150067 0.03909673 0.020726252 0.00099742
0.03679485 -0.009765748 0.02697319 0.006533332 -0.01596097 -0.022944847 -0.0060579833 0.008631347
0.01134527 0.0088944435 -0.017089536 -0.0113314865 0.036195695 -0.011588131 0.01919232 0.011329622
-0.013353668 -0.04661015 0.008026748 0.026878268 -0.042915758 -0.025180958 0.09475455 -0.02649924
0.015391516 0.040069688 0.023538725 -0.011670429 -0.021654537 0.0018125209 0.010147832 0.010322744
-0.06698557 0.023513941 0.026988514 -0.018450953 -0.025490021 -0.0062376587 -0.001956493 0.010435766
-0.0010007563 -0.026792618 -0.012121814 0.025245234 -0.011181618 -0.00892483 0.02016227 0.01109863
-0.0037152155 -0.0089238295 0.017921368 0.009705508 0.011685867 0.025593637 -0.014144256 -0.0023888727
0.009117876 -0.0013732498 0.017036926 -0.039580137 -0.03378857 0.04216111 -0.015751854 0.006019188
00000000: e22a 68bd d4c1 aabc 5482 cabc ecbe 3f3c
00000010: 39f1 a0bc 841d 953b 0751 f3bc 089c 883c
00000020: 318b 02bd bf22 a1bc 000a a83a ce8b e13c
00000030: b6b2 a53c 3981 c63b 7787 9bb9 44dd a53c
00000040: afae e9bb 5332 1dbd 1af4 2bbd 7ef0 36bd
00000050: 661c d03b 3002 d5bb e214 a73c acda e6bc
00000060: 056c 443c f635 26bc f380 213d 3da5 4b3b
00000070: 68a5 77bc 1053 ee3c 10bc 8d3b 931e a83c
00000080: 0ee9 30bc e8ef 8bbc 657b c23d 8764 6b3c
00000090: 1932 50bc 77de 253c 3bb4 4d3a 0b80 81bc
000000a0: 7da7 90bc a7be ea3b 9688 813c 600f 9bbc
000000b0: ca8d 9cba 10d2 9a3c 3daa 543c 95c4 43bd
000000c0: f60d d63c 39e0 1bbd d0ab 303c 11a5 d53b
000000d0: 8652 1bbc 0a04 1dbd 2c2c f83c 99ee 66bc
000000e0: d27e 76bb 3d60 1abc 75fd b03c 072e 583a
000000f0: 65db 14bd 14e0 cdba 60e2 94bc 2dd7 0e3c
00000100: 5833 64bc 86f8 2dba 13ea ecba f081 b53b
00000110: 805c a3bb 544d cb3d fb11 a03b c5ec db3b
00000120: 519e 1e3d 7728 3bbc a94d ad3c 704b bc3c
00000130: 5ed3 d63b fc6c 36bd 0c9e 7f3c 658c edbb
00000140: 4433 d9bc 72c4 583d 3a69 7a3b d3bb 2dbd
00000150: 086e d23c 8b17 d9bc 068e 213c 97e2 6fbb
00000160: 086f 02bb 538b 13bd fd85 e33b 02aa 4dbd
00000170: b555 743d 2156 f93c bff4 b63b 9d1b 9abc
00000180: 70d5 d43c f316 0abd 1536 55bb 4447 38bb
00000190: 5fca 493d d3b7 82bd 6b2c fabc fdea be3c
000001a0: b07c a83e 6a6e 5a3c 3aa9 033b a547 08bd
000001b0: 3a09 b1bc d993 de3b 897a d8ba eaea 953c
000001c0: 5861 003d ec1d 8e3b 064b adbc 89cf e53c
000001d0: 1504 b4bc efb2 283d 7229 15bc aaff a9b9
000001e0: 11bc 07bc 84d6 fbbc b80d eebc a78a 4dbc
000001f0: 51da 1bbd 528e 263d 3634 e7bc 6577 783d
00000200: f4c7 7d3a e81c ab3c d956 bdb9 c5b7 8e3d
00000210: 539a 87bc 29d5 a93d 7293 6c3c 9d52 2a3c
00000220: e5c1 0fbc 05f5 a93c 37b7 9a3b 6186 2bbc
00000230: e2fb a6bb 0746 d9bc 51ad 473c e89a 24bd
00000240: a0bb 9f3b 9b5a 1b3c 4bd6 753c 2194 1fbb
00000250: 04a0 2f3d 200c 613d d394 2e3c 9788 dc3b
00000260: 3bca 283d f2a8 ebbb ab87 13bc 3726 763c
00000270: 577f 033e 801a 273c 1c18 eabb 65e5 db3c
00000280: 7cb1 d03c da2c bd3b 79c3 edbc 3a3d fe3b
00000290: 840f 7d3c 89b1 973c 7586 543c 86ce d5bc
000002a0: bbc3 403c 9e46 943c 57a4 233c 58b4 80bc
000002b0: 3a57 59bb 4a0c 46bc 3692 953c e635 863c
000002c0: 526f 0abc f6c7 43bc 7a42 08bc 9003 473c
000002d0: f649 363c ed91 963b c222 8d3b b3cf 26bd
000002e0: 3589 ad3d aa2d 813c 91ab d13c 2f59 923b
000002f0: 2c22 b0bc e523 203d 1aca a93c ddbb 823a
00000300: 32b6 163d 8400 20bc e1f6 dc3c 9015 d63b
00000310: 95c0 82bc d5f6 bbbc 0c82 c6bb 7e6a 0d3c
00000320: 83e1 393c 00ba 113c 5bff 8bbc b3a7 39bc
00000330: f041 143d 25dc 3dbc 3639 9d3c e19f 393c
00000340: 58c9 5abc 49ea 3ebd 9f82 033c d02f dc3c
00000350: 6fc8 2fbd 4c48 cebc ac0e c23d ef14 d9bc
00000360: b22c 7c3c 1d20 243d 49d4 c03c 5435 3fbc
00000370: db64 b1bc 1c92 ed3a 1843 263c ba20 293c
00000380: bb2f 89bd 4fa0 c03c 0417 dd3c 7426 97bc
00000390: 73d0 d0bc 4665 ccbb 8138 00bb c6fa 2a3c
000003a0: cf2b 83ba 317c dbbc 939a 46bc 18cf ce3c
000003b0: 1b33 37bc 7339 12bc 582b a53c 07d7 353c
000003c0: f97a 73bb 4135 12bc d5cf 923c da03 1f3c
000003d0: 1476 3f3c bfa9 d13c 4fbd 67bc a28e 1cbb
000003e0: 2563 153c 9efe b3ba 0691 8b3c c81e 22bd
000003f0: e265 0abd 21b1 2c3d 080a 81bc 9c3c c53b

transformer_encoder.layers.1.linear2.bias f4 [6]
-0.009722581 0.022194173 -0.022679746 0.006415945 -0.011166548 -0.008428181
00000000: 764b 1fbc 8ed0 b53c e0ca b9bc d93c d23b
00000010: e6f3 36bc 5a16 0abc

transformer_encoder.layers.1.norm1.weight f4 [6]
1.0285231 0.9910635 1.07347 0.98998326 0.9198866 0.95872337
00000000: a5a6 833f 56b6 7d3f 7767 893f 8b6f 7d3f
00000010: b07d 6b3f e56e 753f

transformer_encoder.layers.1.norm1.bias f4 [6]
0.022905828 0.019808937 -0.0445082 -0.03124298 -0.04651193 0.03826482
00000000: 01a5 bb3c 5a46 a23c 3b4e 36bd 47f1 ffbc
00000010: 4b83 3ebd 92bb 1c3d

transformer_encoder.layers.1.norm2.weight f4 [6]
1.0930552 1.1442524 1.1514331 1.1478845 1.337907 1.1196619
00000000: 3ce9 8b3f dd76 923f 2962 933f e1ed 923f
00000010: 8940 ab3f 1551 8f3f

transformer_encoder.layers.1.norm2.bias f4 [6]
0.039808545 -0.025570832 -0.030541861 -0.029482204 -0.041801576 -0.010984776
00000000: 490e 233d ec79 d1bc ed32 fabc aa84 f1bc
00000010: 2138 2bbd 7df9 33bc
