DU_model/Transformer/best_model_t7jul_lat_ext_9jul1_2_3_5_5_6_tr.2.64.pth (torch, 623342 bytes, 29 tensors)

norm.weight f4 [6]
000000 00 00 80 3f 00 00 80 3f 00 00 80 3f 00 00 80 3f
       1.0 1.0 1.0 1.0
000010 00 00 80 3f 00 00 80 3f
       1.0 1.0

norm.bias f4 [6]
000000 00 00 00 00 00 00 00 00 00 00 00 00 00 00 00 00
       0.0 0.0 0.0 0.0
000010 00 00 00 00 00 00 00 00
       0.0 0.0

transformer_encoder.layers.0.self_attn.in_proj_weight f4 [18, 6]
000000 5c de 41 3c 79 d4 a0 3e ca c1 dc be cf 7f 15 bd
       0.0118328 0.31412104 -0.431166 -0.03649884
000010 da 85 b6 be e0 11 0d be 28 c0 e1 3e 62 47 2a 3e
       -0.35648996 -0.1377635 0.44091916 0.16628793
000020 86 94 4a be 48 ae 9d 3e 68 b2 98 3e 46 f6 5e 3e
       -0.1978322 0.3079703 0.29823613 0.21773633
000030 92 d3 2c be 03 94 31 3e fb 7f b6 be e7 fd d5 be
       -0.16877583 0.17341618 -0.35644516 -0.41795275
000040 b0 de 03 3e 48 e4 d1 3e f1 b1 ae be 68 93 8b be
       0.12877917 0.40994477 -0.34120134 -0.272609
000050 f7 b8 23 bd 19 eb 05 bf 58 35 a8 3e 36 2a aa 3e
       -0.039971318 -0.52311856 0.32853198 0.3323533
000060 64 b6 1f 3e b0 7d c7 be f9 af 99 be 25 0f e3 3d
       0.1559692 -0.3896308 -0.3001707 0.11086873
000070 69 f4 80 be f2 5d 88 3e 13 3c 48 3e 54 98 51 3c
       -0.2518647 0.26634175 0.19554166 0.0127926655
000080 16 6f 0d be 1b ef 0d be 15 0b d7 3e 16 51 e0 be
       -0.13811907 -0.13860743 0.42000642 -0.43811864
000090 4a 62 8a 3e 42 f4 d3 3d f2 3b 2a 3e 51 bd 33 be
       0.27028114 0.10349323 0.1662443 -0.17552687
0000a0 54 60 83 be f2 21 d4 bd 93 3a 86 be aa 35 d1 be
       -0.2565943 -0.10358037 -0.26216564 -0.40861255
0000b0 29 7a b2 3e 87 35 82 3e 63 4f 69 be 23 35 fb 3e
       0.34858826 0.25431463 -0.2278419 0.49063978
0000c0 e7 da 93 be 37 42 fe 3d 90 c6 bb be 41 ce a6 3b
       -0.28877947 0.12414973 -0.3667493 0.0050905054
0000d0 c1 d9 dc be d2 5f 99 3e f7 a2 85 be 9b c1 05 be
       -0.43134883 0.29955918 -0.26100895 -0.13062136
0000e0 b2 46 dc 3e ee 8b 99 be 9a ba 21 be 52 88 b3 bd
       0.43022686 -0.2998957 -0.15793839 -0.087662354
0000f0 67 d0 c9 3e 9c c2 e0 bc be e3 ea 3e 83 fe bf be
       0.3941681 -0.027436547 0.45876878 -0.37498865
000100 d4 bd 14 be bd 49 01 bf 0e fc ec bd 74 e5 ca 3c
       -0.14525539 -0.5050314 -0.11571513 0.024767615
000110 57 ff b1 3e 54 6e 14 3e 6d 04 7d 3e 40 5f 4d 3c
       0.3476512 0.14495212 0.2470872 0.012534916
000120 45 d2 49 40 9e 85 95 3e 55 aa 3e 3f 33 5a 8b be
       3.1534588 0.29203504 0.74478656 -0.27217254
000130 a3 d0 2e bf 22 02 21 3f ea 93 b7 be a5 28 94 3e
       -0.68287104 0.6289388 -0.35855037 0.2893726
000140 da d8 c4 bd 86 f9 27 be 04 c6 49 3f 44 e6 59 bf
       -0.09611674 -0.1640378 0.7881777 -0.8511698
000150 f9 f1 8c 3f 6e e0 f2 be c4 56 55 bf ee 19 45 3e
       1.1011344 -0.4743685 -0.8333552 0.19248173
000160 0e 43 86 bf 7c 76 6f bf 17 db 87 3f a9 79 2b 3e
       -1.0489213 -0.9354017 1.0613736 0.16745628
000170 d6 98 2d bf b7 37 43 3e e3 e5 19 bf 11 b3 d7 3c
       -0.67811334 0.19064222 -0.60116404 0.026330503
000180 9c b9 22 c0 d7 a7 6e bf b3 a0 13 bf c4 b2 92 3e
       -2.5425787 -0.93224853 -0.5766708 0.28652012
000190 47 4a 8b 3f 01 37 91 bd 1f 0f 77 3f 55 e3 c0 3f
       1.0882043 -0.07090569 0.9650745 1.5069376
0001a0 3e ba 00 40 84 f3 b7 bc 0d 0c 97 3f 01 bc a1 be
       2.0113673 -0.022454984 1.1800553 -0.31588748

transformer_encoder.layers.0.self_attn.in_proj_bias f4 [18]
000000 cf 08 59 bd 8d 88 04 bd 22 7e 7d bd b4 9c 18 bd
       -0.052986916 -0.032356787 -0.061887868 -0.03725882
000010 ad 39 df bc 01 27 3c 3d ae bc 43 3e c2 31 c4 be
       -0.027249182 0.045935635 0.19114944 -0.38319212
000020 16 54 c2 3e 5f e8 87 bd c5 7f 35 3d 72 68 18 bd
       0.37954777 -0.06636118 0.044311304 -0.03720898
000030 ee 59 64 3f 91 ce 1e 3d 58 6c 95 bf 4f 3f 1b be
       0.8919972 0.038771216 -1.1673689 -0.15160869
000040 55 9f 3a bf ab ff d8 3f
       -0.7289937 1.6953024

transformer_encoder.layers.0.self_attn.out_proj.weight f4 [6, 6]
000000 a7 fa f5 be ee 77 9f be 53 6a 1b bc c2 7b 31 3c
       -0.48042795 -0.31146187 -0.009485799 0.010832729
000010 5f f8 3a bc 25 ca 59 3e 3d 6d 79 3e 7d 8c f2 be
       -0.011411755 0.21268518 0.24358077 -0.4737281
000020 2f ca cb bd 3d e1 b6 be f6 cd b5 be d0 74 3e 3e
       -0.09950673 -0.35718718 -0.35508698 0.18599248
000030 30 fc 15 3e dc 4e b7 bd a5 f1 04 3e 2e e3 a3 3e
       0.14646983 -0.08950588 0.12982805 0.32009262
000040 4b 86 49 be e5 10 2f 3e 2d 69 ac 3c d2 af 92 3d
       -0.19680135 0.17096289 0.021046245 0.07162441
000050 19 eb b2 3d 1f 79 29 3e e8 de c8 bd d7 a4 32 3e
       0.087362476 0.1655011 -0.09808141 0.17445694
000060 ca 5c 53 3d e4 eb 9f 3e 6d 6a 82 be 76 22 af 3d
       0.051602162 0.31234658 -0.2547182 0.08551495
000070 67 1e af 3e d6 48 9d bd dd 19 1f be 57 cf 71 3d
       0.34202883 -0.07679908 -0.1553721 0.059035625
000080 6d bf b4 3e 5d 9b 5e 3e e9 5d f8 bd f8 8d 39 bf
       0.35302296 0.21738954 -0.12127287 -0.7248225

transformer_encoder.layers.0.self_attn.out_proj.bias f4 [6]
000000 eb f3 65 bf 5c 98 6f 3e 9c 16 bc 3f e0 82 81 3e
       -0.89825314 0.23397964 1.46944 0.25295162
000010 5c 1f 33 bf fb a6 08 c0
       -0.69969726 -2.1351917

transformer_encoder.layers.0.linear1.weight f4 [2048, 6]
000000 f7 36 fc bd 61 52 5e bd ed 78 a2 be e6 1c 16 bf
       -0.12315171 -0.05427778 -0.31732884 -0.58637846
000010 2f 16 c2 be 6c 00 92 3d 67 8e 62 bd a1 03 91 3e
       -0.3790755 0.07128987 -0.055311587 0.2832308
000020 e9 75 a5 3d 6f ef 25 3d a5 90 2d 3e 10 8d 98 be
       0.0807913 0.040511545 0.16949709 -0.29795122
000030 4b 87 2e be 93 31 92 3e d6 c7 b1 bd 0a f9 c4 3d
       -0.17043798 0.28553447 -0.08680694 0.09617813
000040 bd c2 a1 3e 49 ad fb 3c 4b 24 55 be 3a 86 f4 3e
       0.31593886 0.030722277 -0.20814626 0.47758657
000050 2e 90 34 bd f6 45 d9 bc 7b 1f 46 be fc ec ad 3e
       -0.044082813 -0.026522618 -0.19347946 0.33969867
000060 51 c7 c7 3e 15 ea 14 be f9 1f e7 3c fa dd af be
       0.39019254 -0.1454242 0.028213488 -0.34349042
000070 e4 89 f7 3e b5 24 c7 3e 5b e3 c3 be f5 96 fd 3c
       0.4834739 0.38895193 -0.38259396 0.030955771
000080 83 ff dc bc f7 8a ed bb df 81 7b be d1 5d b8 be
       -0.026977306 -0.007249232 -0.2456126 -0.36009076
000090 29 00 45 bd be bb 9d bd df ae 0c 3f b5 cb ec 3c
       -0.048095856 -0.077018246 0.5495433 0.028905729
0000a0 df 2e 68 3e 9f d6 3f 3e 1e 09 49 3e 46 ad ae bd
       0.2267413 0.18734215 0.19632384 -0.08529143
0000b0 ac d4 cd 3d e8 68 55 3d cc 6d c2 bc 97 9d dd bc
       0.100503296 0.052102 -0.023733996 -0.027052684
0000c0 5a 90 5d 3f 19 4b a7 3e fb 9a f1 bd 53 66 b2 3d
       0.8654839 0.32674482 -0.11797138 0.08710923
0000d0 41 78 2f 3e 75 7b bd be 10 79 ab be bd e1 c3 bb
       0.17135717 -0.37008253 -0.334908 -0.005977838
0000e0 5c d2 4b 3d f9 92 de bd a1 9e cb 3e 17 eb 52 be
       0.04976116 -0.108678766 0.39769462 -0.20597492
0000f0 1d 89 04 be 53 4d 8d bc 5a 6d c1 3e 19 ce 8f bf
       -0.1294293 -0.017248785 0.3777874 -1.1234771
000100 23 a1 10 bd 8a a9 92 3e 7d 19 13 3f a8 53 64 3d
       -0.035309922 0.28644973 0.5746077 0.055743843
000110 7f 99 22 3e 1b a5 e6 bd 49 54 81 be 3a 10 1e 3e
       0.15878867 -0.1126196 -0.25259617 0.15435877
000120 85 b1 a1 be 38 1a 30 3e d9 39 8d 3b 9a 47 c3 bc
       -0.3158075 0.17197502 0.0043098745 -0.023837853
000130 ec 53 6d 3e b0 b6 49 be d0 d7 0d bf 5f 8d ab be
       0.23176545 -0.19698596 -0.5540743 -0.33506295
000140 3a 2d 90 3d e4 7f eb bd 7c 2d 21 bc 63 5a c1 be
       0.07039876 -0.114990026 -0.0098375045 -0.37764272
000150 95 dc be be 18 16 41 3d 1e e6 dc 3e e0 77 1d bf
       -0.37277666 0.04714021 0.43144315 -0.6151104
000160 40 94 1a 3f 56 cc 43 3f cd 54 a2 be 1f aa d1 be
       0.6038246 0.76483667 -0.31705323 -0.40950105
000170 6e 4c 29 bd fe de 18 bf be 91 44 3f a2 59 7d 3e
       -0.041332655 -0.5971526 0.76784885 0.24741223
000180 39 87 8b 3e 10 7f c9 bd a3 d1 0e 3f 12 17 cd 3d
       0.27251604 -0.098386884 0.5578863 0.10014166
000190 c9 b6 b0 bd 50 2d 8b 3d 14 6f 44 3e a5 81 63 3e
       -0.086286135 0.06795752 0.19182998 0.22217424
0001a0 59 92 b4 be 44 cb d9 be 20 29 00 be 01 91 e0 3e
       -0.35267904 -0.42537892 -0.12515688 0.4386063
0001b0 4a ef a6 3e b9 b6 5e be 1b 99 f5 3e 2a 55 7e bd
       0.32604438 -0.2174939 0.47968373 -0.062092938
0001c0 6a 2f a4 be a5 96 49 3e 7d d5 f3 3e d4 bc 91 3d
       -0.32067424 0.19686373 0.47623816 0.07116094
0001d0 7e 60 d6 bc af 0f 80 bd d4 ec 07 be 07 b8 ab 3d
       -0.026169058 -0.062529914 -0.13273937 0.0838471
0001e0 88 a5 cf 3e 03 c8 a7 3e ff 08 33 3e 08 d3 3f bf
       0.40555978 0.32769784 0.174839 -0.74931383
0001f0 ef 51 27 be 2c ce 1f 3e b5 3a ea be 6c 8e bc 3d
       -0.16339849 0.15605992 -0.45747915 0.09206852
000200 4e 32 92 be 49 d1 96 bd e8 b2 39 be a2 5b 3e 3f
       -0.28554004 -0.07364137 -0.18134654 0.7435857
000210 f0 16 39 bd 3f 9f d3 bd d2 58 65 3e 16 94 4c 3e
       -0.04518789 -0.10333108 0.22397164 0.19978365
000220 af f7 64 3d 81 4f 23 3b 4b 7f c8 bd 38 f4 0b be
       0.055900272 0.0024919214 -0.09789904 -0.13667381
000230 b8 20 b1 3e 6e 1a e2 bd 1d 78 cc 3d e4 ee 59 bc
       0.34595275 -0.11040197 0.09983847 -0.013301585
000240 00 20 c7 3d 3b 36 99 be 3c 72 8b 3e 18 13 c8 bd
       0.097229004 -0.29924187 0.2723559 -0.09769267
000250 e4 9f dc 3e 2c 68 64 3e 4e 1d 15 be b7 e3 98 bd
       0.43090737 0.22305363 -0.1456196 -0.07465308
000260 c2 11 f7 3e d7 87 aa bf ed fc 2c be 43 8c d1 3e
       0.48255736 -1.3322705 -0.16893359 0.40927324
000270 f5 af 60 be 4c 6c 74 3e f7 74 c4 3d f0 ba 38 3d
       -0.21942122 0.23869437 0.09592622 0.045100152
000280 90 df af 3a f6 ec a4 3c 8b 29 38 be a3 55 83 3e
       0.0013418067 0.020132523 -0.17984597 0.25651273
000290 d8 f2 96 3e 2b bc 39 3e 69 86 fd 3d 1e 16 da 3d
       0.2948215 0.18138187 0.12379152 0.1064875
0002a0 3d e3 6a be 62 7e e5 3d a1 2a 1d 3d e9 93 b7 bd
       -0.22938247 0.11205746 0.038370732 -0.089637585
0002b0 f7 2a 5e 3e 62 f1 c1 be e7 8d b3 3e 21 d4 b7 3e
       0.21696077 -0.37879473 0.350692 0.3590403
0002c0 67 f1 ae 3c 6f e8 f7 3d fb 6e 69 be 0d 57 23 bd
       0.021355344 0.1210488 -0.22796242 -0.03987794
0002d0 6f e5 bc bd a1 ca 61 be 15 58 9e be 90 1f 02 bc
       -0.092234485 -0.22049953 -0.30926576 -0.007942095
0002e0 35 8d 57 3e cc db 06 3f ae 37 63 bd fe d1 a6 3e
       0.2104996 0.52679133 -0.055473022 0.32582086
0002f0 57 3e a8 3d 25 ae 43 3e 11 f7 99 be 69 ed 88 be
       0.082150154 0.191094 -0.3007131 -0.2674363
000300 10 57 f1 3d f6 b5 0e 3f 25 01 85 3d 2b d4 b7 be
       0.11784184 0.557464 0.06494359 -0.3590406
000310 90 51 1b bc c7 84 48 be dd 68 c0 bc ff 49 00 3e
       -0.009479895 -0.195819 -0.023487503 0.12528227
000320 d7 9d f4 3c 80 3d 53 3e b4 fa dc 3e 2c 38 05 be
       0.02986042 0.20628929 0.4316002 -0.13009709
000330 e3 99 91 3c a7 f1 86 be 38 c2 2b 3f 66 e7 0e be
       0.017773574 -0.2635624 0.6709323 -0.13955459
000340 c7 e4 bc be 03 9f 24 bd 73 33 57 be 96 29 6d 3e
       -0.36893293 -0.040190708 -0.2101572 0.23160395
000350 7d f3 a8 3e b6 a2 fb 3d 3a a4 11 be a6 18 97 be
       0.32998267 0.12286894 -0.14222804 -0.29510993
000360 18 c7 f6 be 9e be 89 be 81 af f7 be 87 80 9c be
       -0.4819877 -0.26903242 -0.48376086 -0.3056681
000370 fd f0 fd 3e 8f fa a5 be aa 3c 5d 3e 83 66 12 ba
       0.49597922 -0.32417724 0.21605173 -0.00055847334
000380 49 0f ed bd 46 de 20 3e 3c 79 85 3e 6b 17 f5 3e
       -0.11575181 0.1570979 0.26069057 0.4786943
000390 68 af 3c 3e 77 b7 97 3e 9c 1a a2 be 79 59 89 be
       0.18426287 0.2963216 -0.31660926 -0.26826075
0003a0 99 eb 11 3d 44 12 e3 3e 47 48 f6 3d 19 01 8a 3e
       0.035625074 0.44349873 0.120255046 0.26953962
0003b0 d6 1c 22 3e b0 4d 90 bf c1 3d f2 3e 73 9a 5b bc
       0.15831313 -1.1273708 0.4731274 -0.013403523
0003c0 70 85 33 3e ba 8d 92 3e be 48 8f be 94 24 9e bd
       0.17531371 0.28623754 -0.27985185 -0.077218205
0003d0 88 d3 ec 3e ee 19 2f 3f e4 97 93 be a0 1f 43 be
       0.46255136 0.6839894 -0.2882682 -0.19055033
0003e0 f9 91 40 3e 6e f0 90 bf 27 45 fb 3e 81 15 f3 bd
       0.18805684 -1.1323373 0.49076197 -0.11869336
0003f0 a2 cd f7 3d 58 ed ba bd b7 13 b0 3d 0c ee 5c 3c
       0.12099768 -0.09127301 0.0859751 0.013484489

transformer_encoder.layers.0.linear1.bias f4 [2048]
000000 ff bc 74 be ac b9 9c 3e 5c bc 50 3e 26 e8 55 3e
       -0.23900221 0.30610406 0.20384353 0.20889339
000010 9f 26 87 be 77 2e ce bd cd a1 1c 3d 5d c3 2d bd
       -0.26396653 -0.10067456 0.038240243 -0.04242264
000020 ac 52 15 be 50 fc e7 bd 9e 44 51 bd 46 61 d4 bc
       -0.14582318 -0.11327422 -0.05109083 -0.02592529
000030 00 5a a1 3e e1 6c b2 be fa 29 d5 bd a4 34 21 3e
       0.31513977 -0.34848693 -0.10408397 0.15742737
000040 e8 ef 89 bd a1 5f 13 be d9 0b 51 3d 62 bb f3 3d
       -0.067352116 -0.14391948 0.05103669 0.11900975
000050 92 27 96 be 08 7b 44 be 1a 10 c3 be 01 f3 45 3e
       -0.29327065 -0.19187558 -0.38098222 0.1933098
000060 65 56 b3 3e 51 5a 82 be b7 74 05 3c 32 51 c6 bd
       0.3502685 -0.2545953 0.008145503 -0.096834555
000070 10 f0 bd 3e 05 70 c5 bb 25 c0 40 bd e9 ea 15 be
       0.37097216 -0.0060253167 -0.047058243 -0.14640392
000080 23 db 7a bd 93 d3 02 be 51 1a ea be 1c fd 15 bd
       -0.06124414 -0.12776022 -0.45723203 -0.036618337
000090 a3 4d 30 be c1 ca 05 be 34 c1 a6 be 4a 5e ce 3e
       -0.17217116 -0.13065626 -0.32569277 0.40306312
0000a0 f1 cb 10 3a 44 f5 95 3e 2e af 57 be b2 89 c7 be
       0.00055235537 0.29288685 -0.2106292 -0.3897224
0000b0 61 33 ac be 5e ef c9 be 85 c9 eb bd c4 23 42 be
       -0.3363295 -0.39440435 -0.11513046 -0.18958956
0000c0 03 f6 e1 bd dd f6 7c be 1e 8f 5d be 56 e0 6f 3e
       -0.11033251 -0.24703546 -0.21636626 0.23425421
0000d0 55 9b a7 be ec b8 d7 3c f5 6b 91 3e 01 a6 f7 bd
       -0.32735696 0.026333295 0.28402677 -0.120922096
0000e0 21 dc ae bd e6 34 e0 3d 61 ce 21 3e 50 89 5b be
       -0.0853808 0.109475896 0.15801384 -0.214391
0000f0 a5 9d 05 3e b1 ae b9 bd 5f bc 24 bd 9d 80 8b bd
       0.13048418 -0.09066523 -0.040218707 -0.068116404
000100 a4 37 ec be fa c4 54 3e ac fe 9d 3e d1 54 8f be
       -0.461362 0.20778266 0.30858362 -0.27994397
000110 d5 9b c6 3d e9 f9 c6 be 84 b9 14 be 4f 63 20 be
       0.09697691 -0.3886254 -0.14523894 -0.15662883
000120 03 6f 2b 3e 82 5e c4 bc c4 25 9c be 6c ba e3 be
       0.16741566 -0.023970846 -0.30497563 -0.44478166
000130 12 c5 f5 bc 9e a8 59 3e f2 ad 9f 3d 18 fb b0 3c
       -0.030001197 0.21255729 0.07796849 0.021604106
000140 a2 2a 9f be 1a ac c0 bd 33 10 99 3e 08 05 22 3d
       -0.31087214 -0.09407826 0.29895172 0.03955558
000150 b3 a4 e2 3d 09 f5 82 be 21 f8 a1 bc e8 89 9c be
       0.1106657 -0.25577572 -0.019771637 -0.30573964
000160 53 1a cb be fc 1d 7e be ce 1a 35 3d 55 1c ab be
       -0.3966852 -0.24816126 0.044215016 -0.33420053
000170 c7 2a a2 3d 72 ef aa bd 18 4f 50 be 16 92 50 3e
       0.079183154 -0.08346452 -0.20342672 0.20368227
000180 ef 85 48 3e df fc c9 ba 5c 31 1d bd f2 00 a7 be
       0.19582342 -0.0015410444 -0.03837715 -0.3261791
000190 16 ac 5e 3e 28 46 ad bd 98 37 3a be bf 56 53 3d
       0.21745333 -0.08460647 -0.1818527 0.0515964
0001a0 82 d1 95 3d 96 01 cc be 31 d1 08 3e 90 96 d4 3e
       0.07315351 -0.3984496 0.1336105 0.4152112
0001b0 e3 86 bd be f2 9c 7d be b8 89 d5 bd 48 2a 3b 3e
       -0.37016973 -0.24766901 -0.104266584 0.18277848
0001c0 e2 3e 1b 3e 76 64 6e 3d 02 e1 d4 be 9f c8 70 3e
       0.15160707 0.058201276 -0.41577917 0.23514031
0001d0 97 d1 44 3e cb 63 e2 3d db e6 b9 be e8 91 b8 bc
       0.19220577 0.1105419 -0.3630894 -0.022530511
0001e0 25 ef 5a 3e 53 e0 83 be a3 2a 02 3e a7 8a cb bc
       0.21380289 -0.25757083 0.12711577 -0.024846388
0001f0 a8 41 59 3e f0 19 b0 3e 8a 7e b7 3e aa e9 3b be
       0.21216452 0.3439479 0.3583873 -0.18350855
000200 38 f9 57 3e 2e f3 6d bd 92 ad cb 3d 7e 6c 4b bd
       0.21091163 -0.058093242 0.09945215 -0.049664013
000210 7f 38 64 3d 72 83 b4 be e1 07 fb 3d 04 c9 7b 3e
       0.05571794 -0.35256535 0.12257362 0.245884
000220 58 90 c6 3e 1e f0 f4 3c c7 70 9c 3c 77 8b ca 3a
       0.38782 0.029899653 0.019096745 0.0015452941
000230 7b 8a ec be 7a 29 36 be 30 49 8e 3d ec cf 6d 3e
       -0.46199402 -0.1778926 0.06947553 0.23223847
000240 24 23 96 bd 73 01 b4 be 87 7d 87 be 8d 37 5a be
       -0.07330921 -0.35157356 -0.26462957 -0.21310253
000250 c7 b2 7d 3e 8b 1d b4 bc 7c aa 98 3d ab 13 26 be
       0.2477523 -0.021986743 0.07454392 -0.1621844
000260 de a0 be be c2 b8 88 3e b6 64 28 be 25 4f c8 3e
       -0.37232107 0.2670346 -0.16444668 0.39122882
000270 b1 34 b3 be a2 6f 0f 3e 91 e7 98 3e b3 ff 81 be
       -0.35001138 0.14007428 0.2986417 -0.25390396
000280 22 dd a1 be d7 50 b1 3e b2 d1 26 be 57 9a 12 3e
       -0.31614023 0.34631988 -0.1629093 0.14316688
000290 c3 fa 0d 3e 03 e1 1d bd 68 47 ee 3d 14 8d 7e be
       0.13865189 -0.038544666 0.116347134 -0.24858505
0002a0 f7 7f 3d 3e c7 d9 a0 3e ab 57 9b 3d 33 a5 b9 3e
       0.18505846 0.3141615 0.07585081 0.3625885
0002b0 a2 95 c5 be aa fc ec bc a3 eb 2d 3d 56 40 73 be
       -0.38590723 -0.028929073 0.04246105 -0.23755011
0002c0 63 80 8f 3e ca c4 87 3d 03 cf cd 3d 7e b7 8e be
       0.2802764 0.066293314 0.1004925 -0.27874368
0002d0 1d af 5f 3e 2f 3c 48 3e b1 fb d4 be af 50 ba 3d
       0.21844144 0.19554208 -0.41598275 0.090974204
0002e0 2f 05 69 be e3 04 ff bd 30 a5 59 3c d7 b7 c5 bc
       -0.22755884 -0.12452104 0.013284013 -0.024135513
0002f0 7f ad 4a be c5 5e b1 3e 3d f6 18 3e 37 a8 18 3c
       -0.19792746 0.34642616 0.14937682 0.009317449
000300 df a4 5b bd 0b b4 54 be 10 31 3a bd 2a 29 10 be
       -0.05362403 -0.20771806 -0.045456946 -0.14078203
000310 21 39 5c be d8 1a 81 3e a3 cf 39 be 3c 9d 45 3d
       -0.21506168 0.25215793 -0.18145613 0.048245654
000320 c8 cd 54 3e c2 bd 59 be a1 78 76 bc 6c d8 35 bc
       0.20781624 -0.21263793 -0.015043409 -0.011098962
000330 c3 f4 3e b9 f1 50 14 3e 8c e5 89 3e 19 34 30 be
       -0.00018210993 0.14484002 0.26932943 -0.17207374
000340 b4 a2 b1 bc 59 c4 bb be 28 fb 3c 3e 2a 60 25 3e
       -0.021684028 -0.3667324 0.18455184 0.16149965
000350 09 a5 d6 be 60 ba 23 3e 45 81 fe 3d 03 9d d9 3d
       -0.41922787 0.15989065 0.12427 0.10625651
000360 48 a9 8c 3d 7d a2 09 bf 0f 3d a1 be 3f 87 88 be
       0.06868225 -0.5376356 -0.31491897 -0.26665685
000370 93 fb 61 3e 86 2f c7 be c8 b1 61 3e e3 50 c3 be
       0.22068624 -0.38903445 0.22040474 -0.3814765
000380 63 a7 33 3e 55 7d f5 be 74 5b 52 3e 45 f1 40 be
       0.17544322 -0.47947183 0.20542699 -0.18842037
000390 7a 12 3f bd 42 0a 0a ba 85 da 92 be a8 9b 4d be
       -0.04664848 -0.0005265811 -0.28682342 -0.2007891
0003a0 f7 7c 95 3c 6c 17 a0 be f2 30 bd bd 8a ce 61 3c
       0.018248064 -0.3126787 -0.09237851 0.013782153
0003b0 fa 2d b3 3e 21 e5 43 be 47 43 f7 bd 8d 11 80 be
       0.34996015 -0.19130374 -0.12073379 -0.2501339
0003c0 8c a2 c4 be 31 a1 bc bc cb 86 53 be ee 1e ac 3e
       -0.38405263 -0.02302608 -0.20656888 0.33617347
0003d0 a5 37 13 3e 82 32 84 be 46 c4 21 3e 0f d2 78 be
       0.14376695 -0.25819784 0.15797529 -0.24298881
0003e0 b5 c8 8e 3e f8 4b 0f be 40 4a 3e 3e a4 8c cb be
       0.27887502 -0.13993824 0.18583012 -0.39755738
0003f0 47 68 fa 3d 5f a0 0b bc 8b 30 a3 3e a2 17 be be
       0.122269206 -0.008522122 0.31872973 -0.37127405

transformer_encoder.layers.0.linear2.weight f4 [6, 2048]
000000 c1 4d c2 bd f0 c5 1e bd 03 8e 9a bc ec 63 cd b9
       -0.09487487 -0.038762987 -0.018866545 -0.00039175095
000010 0f de 90 3e ec cf b5 bc e3 b0 2b be e6 3a a9 bb
       0.28294417 -0.022193871 -0.16766696 -0.005164492
000020 43 71 10 3e af 38 81 3e b3 a3 03 3e 3b 45 93 3d
       0.14105706 0.2523856 0.12855415 0.07190939
000030 30 81 76 bd 8a c6 16 3e de 71 05 bf 43 46 69 be
       -0.060181797 0.14724174 -0.5212687 -0.22780709
000040 e3 55 1e bc 5d c5 66 3d b0 6f 12 3c 70 3d 26 3d
       -0.009664032 0.056340564 0.008937761 0.040585935
000050 c4 08 27 be 74 0a af 3e 26 32 5d bb 4e 56 95 bb
       -0.16311938 0.34187663 -0.0033751815 -0.0045574075
000060 96 88 55 3c 1f 58 90 3e 5a a5 b1 bc 16 3b 4c 3b
       0.013033053 0.2819223 -0.021685291 0.0031163148
000070 b1 83 2b bd de ed a3 3c 97 1c 06 bc 9a c0 79 bc
       -0.041873638 0.020010885 -0.008185527 -0.015243674
000080 23 4d 02 be 8d 96 42 bb 60 1f 16 3f c1 ad b6 bd
       -0.12724738 -0.0029691786 0.58641624 -0.0891986
000090 d5 24 32 3e cf e4 35 3c 4c 04 a1 3c bb ed 8c be
       0.17396863 0.0111019155 0.01965537 -0.27525124
0000a0 98 92 db 3e 92 17 0e bf dd 8a a0 bc 5c a2 fd ba
       0.4288528 -0.55504715 -0.019597465 -0.0019350755
0000b0 19 26 0b bd cd 0f 19 bf 65 15 8a bb dd b2 35 bc
       -0.03397188 -0.59789735 -0.004213976 -0.011090008
0000c0 7d a9 06 bf 86 6b e2 bc f0 a6 4a 3e 0f 3e 27 3d
       -0.5260237 -0.027639162 0.19790244 0.040830668
0000d0 c8 ee b0 be 49 dd 4e bd e3 c8 19 bd d3 b0 7e bc
       -0.34557176 -0.050504003 -0.037545096 -0.015545088
0000e0 56 ec 07 ba 20 cc 01 3f 2b fe 80 3c 9d a7 0e bf
       -0.0005185058 0.50702095 0.015746197 -0.5572451
0000f0 5a 45 7c bb 1d 71 03 3c 49 fc e7 ba 24 ed 4a 3e
       -0.0038493485 0.008022574 -0.0017699088 0.19817024
000100 2a 46 6b bd 06 e1 06 bf b9 e4 5c 3e f4 d0 fb bc
       -0.05743996 -0.5268711 0.21571626 -0.030739285
000110 cf e1 d8 bb e9 7e fd bc c7 7b 2f 3b 9f 0a 75 bc
       -0.0066187154 -0.030944305 0.0026776658 -0.014956146
000120 48 50 bf 3c e8 43 14 bd 01 ca 6e 3d d5 ea 09 bd
       0.02335371 -0.036197573 0.058298115 -0.03367122
000130 6d 21 ef 3c 98 28 d0 3e 3b 57 35 3d 10 ec 01 bd
       0.029190743 0.4065597 0.044272643 -0.031719267
000140 fa 0e 5a bb 4d 65 10 bf c4 49 91 3e 9b 04 07 bc
       -0.0033273087 -0.5640457 0.2837659 -0.008240844
000150 7f 74 1e 3e f5 55 53 bc 8f 60 be 3b 4d 83 2d 3f
       0.15474127 -0.012898912 0.0058098505 0.67778474
000160 fd c7 84 3a 6e 8b ba be 2f 62 90 bb a2 64 13 3f
       0.0010130402 -0.364345 -0.0044062356 0.5757543
000170 c4 bf 5c 3e bc 95 b1 3e 46 58 6e 3d 69 fd 50 bb
       0.21557528 0.3468455 0.058189653 -0.0031889325
000180 c9 ac 02 bd 81 cb 96 3e 8f 8c 71 3d 18 5e 22 3d
       -0.031903062 0.29452136 0.058971938 0.039640516
000190 1f 18 02 3b 72 b1 14 bf 59 f9 1a ba 26 cc 9f 3d
       0.0019850803 -0.5808326 -0.00059117895 0.0780261
0001a0 04 10 32 bd 56 e7 38 be d3 bc ad bc 3c 51 9f be
       -0.043472305 -0.18056998 -0.021208202 -0.31116664
0001b0 02 d3 ad bc 83 27 1a bd 07 ba af 3e f1 81 e8 3e
       -0.02121878 -0.037635338 0.34321615 0.45411637
0001c0 24 9a 6a bd 9e b3 80 3e 87 ea 82 bc 0f b9 a3 b9
       -0.057275906 0.25137037 -0.015980972 -0.00031227662
0001d0 38 b9 6d 3e f6 56 99 3e 95 7c ab 3e 9e 1e 77 bc
       0.23215187 0.29949158 0.33493486 -0.015082983
0001e0 c2 30 a4 bc 48 ea 2c be ef a5 4f 3c 18 a4 eb be
       -0.02004278 -0.16886246 0.012673839 -0.4602363
0001f0 5d 7a 84 bc 30 e0 0f be e5 f0 19 3f ba e9 69 3d
       -0.016171629 -0.14050364 0.601332 0.057107665
000200 08 5d 71 3e 24 87 b9 be 77 02 dd ba 0a e8 76 bc
       0.23570645 -0.36235917 -0.0016861696 -0.015069971
000210 a5 a9 ab bc 69 d0 a1 3d 0a 05 2f bd da c0 24 3e
       -0.020954916 0.07901079 -0.042729415 0.16089192
000220 58 03 cd 3d 8e f1 59 be df 5c 81 3d f3 18 09 bc
       0.100104034 -0.21283552 0.06316542 -0.008367765
000230 d5 e0 2b 3d a1 ac 26 3d 47 08 4e b9 3a 87 04 3b
       0.041962463 0.040691976 -0.00019648774 0.0020222203
000240 3a c4 60 be e8 c2 36 bc 9c 8a ab 3b 89 90 4d bd
       -0.21949854 -0.011154868 0.0052350294 -0.050186668
000250 82 f1 58 3e e4 50 d1 3c 1d bc 42 3c 42 98 4a bd
       0.21185878 0.025551267 0.01188567 -0.04946161
000260 fb 61 95 3e 32 33 96 be 1d 89 39 3e 13 50 da 3e
       0.29176316 -0.29335934 0.18118711 0.42639217
000270 d4 94 c9 bc e8 3d 1b 3e 63 07 17 bd 15 4b ed bb
       -0.0246071 0.15160334 -0.03687228 -0.0072416165
000280 69 6f 23 bd d7 4b ce 3d b8 06 12 3b d6 1c ce b8
       -0.03990117 0.10073059 0.0022281837 -9.8282166e-05
000290 bc 7e 80 3d af 30 06 bb 85 ca 96 3d c9 f4 46 3d
       0.06274173 -0.0020475795 0.07362846 0.04857329
0002a0 d9 53 6c 3d 53 a7 d0 bb 1d be ad 3c 3d a9 d9 bc
       0.05769715 -0.006367603 0.021208817 -0.026569957
0002b0 68 4b 5c bc 02 76 9c be 52 99 51 3d ec d2 4b 3c
       -0.013445713 -0.30558783 0.05117161 0.012440424
0002c0 33 36 95 3d 62 8c ab 3b f7 89 62 bb 60 38 97 3d
       0.07285728 0.005235241 -0.0034567097 0.073837996
0002d0 d0 e0 ce 3b 8d be b7 3e bb c5 a3 3e f7 a9 17 bb
       0.006313421 0.35887566 0.31986794 -0.0023142078
0002e0 4a e7 05 bd 0e f6 b4 3b 58 00 9e 3e 66 4b 62 3e
       -0.032691278 0.005522496 0.30859637 0.22099075
0002f0 ac 04 59 be 67 3a 1c 3e 12 56 9a bd a0 9c b3 be
       -0.21193188 0.15256654 -0.07535948 -0.35080433
000300 63 fa 31 3c d5 bb c4 bc 06 ba 8b 3e 23 8c 08 3e
       0.0108629195 -0.024015347 0.27290362 0.13334708
000310 48 f4 ac 3c 57 ab cf 3d 6d bf c6 bc 94 32 4d 3e
       0.021112576 0.10140102 -0.0242612 0.20038825
000320 c0 b2 9e be d6 64 3c 39 db 74 0e bd bc b1 99 3e
       -0.3099575 0.00017966641 -0.03477941 0.30018413
000330 95 bd 03 bf fd 10 dc bd 9b f6 f3 bd 68 4f fa be
       -0.51461154 -0.10745428 -0.11912271 -0.48888707
000340 be e1 8d 3c 44 a2 b0 3c 99 03 da bd 46 f1 66 ba
       0.017319556 0.02156175 -0.106452174 -0.0008809756
000350 dc 74 bd 3d 73 a4 20 3c f8 9c 09 bc 80 8b 47 3e
       0.09250805 0.009804833 -0.008399241 0.19486809
000360 4f b9 a8 bd 90 96 03 bc 1e 7f 5d bc 14 2f 45 be
       -0.0823847 -0.008031502 -0.013519077 -0.1925624
000370 19 38 6d 3c 39 01 75 be 22 3f 9e 3e 44 09 63 bc
       0.014478707 -0.23926248 0.30907542 -0.01385719
000380 3f ff 80 3e 0f e6 b4 3d 35 54 2e 3e 81 de 2e bd
       0.25194737 0.08832943 0.1702431 -0.042692665
000390 4a d7 1f bb 10 2a 3f 3e cf d5 a1 3e c6 3a fa 3c
       -0.0024389797 0.1866839 0.31608436 0.030545603
0003a0 81 6b 49 3e 25 aa f2 3d 90 72 19 3e 9c 99 83 3e
       0.19669916 0.11848859 0.14985108 0.25703132
0003b0 45 79 57 3e fb 2a cd be 17 7a 6c be 23 e1 82 3b
       0.21042354 -0.40071854 -0.23093449 0.0039941235
0003c0 63 ef fa bb f2 43 22 bc 4d 2d c7 be 0d 17 ff bc
       -0.0076579317 -0.009903895 -0.3890175 -0.031138921
0003d0 fd d2 37 3e d8 92 17 3d d7 8d 8b bb 56 32 0a bc
       0.1795158 0.037005275 -0.004258852 -0.008434853
0003e0 e8 fb 90 bc 43 74 61 3d eb a1 40 3c 5d a7 13 3a
       -0.017698243 0.055042516 0.011757354 0.0005632544
0003f0 a4 fb 81 3e ad 62 05 3d be 64 26 3e f8 2d 29 3e
       0.253873 0.032564808 0.16249368 0.16521442

transformer_encoder.layers.0.linear2.bias f4 [6]
000000 3a 48 7c bd eb 49 3c 3d 47 39 d4 3c 0b 9f b2 3c
       -0.061592318 0.04596893 0.025906218 0.021804353
000010 9d dd 24 3d 50 5c e6 bc
       0.04025041 -0.02812019

transformer_encoder.layers.0.norm1.weight f4 [6]
000000 8a 55 9e 3f bf 18 6d 3f bd 39 8e 3f e2 b5 6c 3f
       1.2369854 0.92615885 1.111137 0.9246503
000010 e4 35 84 3f 39 f2 9f 3f
       1.0328946 1.2495795

transformer_encoder.layers.0.norm1.bias f4 [6]
000000 46 61 72 bd 9e 3c a7 3d 5d bd 2a 3d af 28 e2 bd
       -0.0591748 0.08165859 0.041684497 -0.11042916
000010 59 29 5b 3d 3d 4d f5 3b
       0.05350623 0.007486014

transformer_encoder.layers.0.norm2.weight f4 [6]
000000 fc 20 8f 3f 64 1c 88 3f ca f6 94 3f c4 26 6b 3f
       1.1181941 1.0633664 1.1637814 0.91856027
000010 24 a1 b5 3e 89 d8 a0 3f
       0.35474503 1.2566081

transformer_encoder.layers.0.norm2.bias f4 [6]
000000 3c 45 8c bd b5 76 d9 3c a3 25 76 3b 87 f5 65 be
       -0.06849143 0.026545862 0.0037559054 -0.22456942
000010 4a dc 80 3e 2c 00 02 3a
       0.25168067 0.0004959132

transformer_encoder.layers.1.self_attn.in_proj_weight f4 [18, 6]
000000 c2 dd 06 3f 41 15 41 3e ca 00 4b bf 91 bd 85 3d
       0.52682126 0.18855764 -0.7929808 0.065302975
000010 a2 f2 02 bf c6 47 73 3e 84 b0 17 3f 6b d0 12 3f
       -0.5115148 0.23757848 0.59253716 0.5734927
000020 94 0d 26 3e df 67 85 3d 4b 7c 83 3e ec 12 a0 3e
       0.16216117 0.065139525 0.25680766 0.31264436
000030 1f 0e 52 bf ea c4 ad 3e dc 13 41 3e ea c6 78 be
       -0.820528 0.33939296 0.18855232 -0.2429463
000040 84 b7 ef 3e 96 7d a7 3c 3e 5f 9b be 43 a3 2c be
       0.468197 0.020445626 -0.30346102 -0.16859154
000050 17 02 9d 3e dd b0 11 bf e3 89 6e 3e 4e eb 18 3f
       0.30665657 -0.56910497 0.23294787 0.59734046
000060 c5 01 ea 3e 38 72 ec be 0c ca 0e be 97 d1 14 3e
       0.45704475 -0.46180892 -0.13944262 0.14533077
000070 16 17 49 3e eb eb f3 bd 56 63 f5 3d 46 0f 85 3d
       0.19637713 -0.11910232 0.119818375 0.06497054
000080 be 6d 06 3e d9 50 a3 be 79 01 e2 3d 73 5c 2d be
       0.13127801 -0.3189762 0.11035437 -0.16929798
000090 11 13 12 3e c3 0b 40 3f 42 bc 0f bd 4b d6 ad be
       0.14265086 0.75017947 -0.035091646 -0.33952555
0000a0 c2 1f ac be 83 5e cb be 0c 4d 06 bd d1 a1 ed 3e
       -0.3361798 -0.39720544 -0.03278832 0.4641252
0000b0 2c 70 00 3f 2f 0d 80 3d 1c 41 b2 be d5 66 18 3f
       0.5017116 0.062525146 -0.348153 0.5953191
0000c0 b4 d2 0e bf fc 6b 6b bf b2 ea a6 3d fd ab 3e ba
       -0.5579026 -0.91961646 0.08150233 -0.0007273553
0000d0 fc cd 9d 3c 90 45 69 3e f6 ca c9 bd 87 dd ad be
       0.01926326 0.22780442 -0.09853165 -0.33958074
0000e0 b8 ed 04 3f 96 c5 a5 bd da 87 24 be 31 6d f4 be
       0.5192523 -0.08094327 -0.16067448 -0.47739556
0000f0 60 74 8f 3e ae 63 87 3e c5 7b fe 3e 13 24 21 bf
       0.28018475 0.26443237 0.49703804 -0.6294567
000100 be 64 bb be 82 66 22 be b9 e5 44 3e 28 d9 b8 bd
       -0.36600298 -0.15859416 0.19228257 -0.09025794
000110 39 dc a4 3e 4a 3f 15 3e c5 c4 40 3d 7a dc 53 bd
       0.32199267 0.14574924 0.047062654 -0.051723935
000120 f5 3b f4 3e e2 69 9a be 96 c6 86 bc 13 ea c7 be
       0.47701994 -0.30158907 -0.016452115 -0.39045772
000130 02 83 82 be ea 9b ba 3e f7 c5 e1 3e 5f e2 91 3e
       -0.25490576 0.36447078 0.44096348 0.2849302
000140 8e 8e b5 be b3 ea 41 be bb 94 fc 3e 98 e0 ff be
       -0.35460323 -0.18937187 0.49332222 -0.4997604
000150 d2 83 02 3e d2 eb ed 3e b8 64 ea 3e cc fe 6c 3e
       0.12745598 0.4646898 0.45779967 0.23144072
000160 f9 c9 ec 3e 41 b2 28 bf d2 bb 7c be de b8 1b 3f
       0.46247843 -0.65896994 -0.24681023 0.6082896
000170 7a f5 09 bf 8e 53 93 3d 16 a8 e3 bd 26 c7 5d 3e
       -0.5389019 0.07193671 -0.11116044 0.21658
000180 4e cc fc be e9 10 9b be 99 16 0c 3c b7 3b e9 3e
       -0.49374622 -0.3028634 0.00855031 0.4555337
000190 05 dd 19 3e b3 b2 d1 3d 23 07 9f be 6d a0 f5 3d
       0.15025719 0.10239162 -0.31060132 0.119934894
0001a0 ce 75 9a 3e d8 ef d3 3d 5d a6 c6 3c 0f 12 85 be
       0.30168003 0.10348481 0.02424925 -0.2599034

transformer_encoder.layers.1.self_attn.in_proj_bias f4 [18]
000000 cf 9a d0 ba 93 21 8d be de a6 32 3d 25 37 02 be
       -0.0015915277 -0.27564678 0.04361617 -0.12716348
000010 15 0c 0b 3e 73 da 1a be ac d7 d0 3a 1e 06 5e 3b
       0.13578828 -0.15122394 0.0015933416 0.0033878158
000020 c7 16 e0 38 0c d8 51 3a 5f e1 a0 3b 42 ea 7c bb
       0.00010685395 0.0008004911 0.004909679 -0.0038591777
000030 5a af 2b 3d a4 28 ea 3c 28 3c ef bb ba fd 8c bd
       0.041915275 0.028583832 -0.0073008724 -0.06884332
000040 83 90 a4 bc f0 d9 ec 3d
       -0.02008844 0.11565006

transformer_encoder.layers.1.self_attn.out_proj.weight f4 [6, 6]
000000 19 97 b1 be 10 37 cf be 9b f8 34 be 43 63 9f 3d
       -0.3468559 -0.40471697 -0.1767296 0.077826045
000010 b0 c1 b5 3d b7 43 ce 3e 34 c2 b3 3e 98 99 11 bf
       0.088748336 0.40286037 0.35109103 -0.5687499
000020 c3 f7 eb be 52 f0 c0 be 69 ea ce 3c 6a ca 09 bd
       -0.46087465 -0.3768335 0.02525826 -0.033640303
000030 3e c8 f8 3d de 06 6b 3d 01 0d 3c 3e c5 c8 8e 3e
       0.12147568 0.057379596 0.18364336 0.2788755
000040 35 ad 90 be 59 30 6f bc 63 57 bb 3c 09 28 d6 3d
       -0.28257146 -0.014598929 0.022868818 0.10456855
000050 cd 79 5f 3e d3 88 cd be 91 90 9e be 82 66 50 bd
       0.21823807 -0.4014345 -0.3096967 -0.05087901
000060 5c 50 e1 3e 45 77 18 3f 77 af f0 be 6c a1 f3 3d
       0.44006622 0.5955699 -0.4700887 0.11896023
000070 a9 96 76 3e 1b 81 2b 3d 74 6e 04 be 8a ea 89 3d
       0.2408091 0.04187117 -0.1293276 0.06734188
000080 6a 3c 51 3e c4 3e df 3e 5d 92 52 be 25 4c a5 be
       0.20433202 0.43602574 -0.20563646 -0.32284656

transformer_encoder.layers.1.self_attn.out_proj.bias f4 [6]
000000 4a df 08 bd 2d 55 80 3d 7a 9e 63 3d 0d a7 a6 3d
       -0.03341607 0.06266246 0.055571057 0.08137331
000010 8d e9 b7 3d 1a 76 74 bd
       0.08980093 -0.059682943

transformer_encoder.layers.1.linear1.weight f4 [2048, 6]
000000 18 f4 7f be 4f 8a d4 bd 76 38 b8 be ac cd 20 bf
       -0.24995458 -0.10377943 -0.35980576 -0.6281383
000010 cd 67 b5 be 81 fa 5f 3e 1e 77 83 3d fb 14 b5 3e
       -0.35430756 0.21872903 0.06419204 0.3536757
000020 09 92 a0 3d f3 7e 36 bc 7b 6e 39 3e d4 92 7b be
       0.07840354 -0.0111386655 0.18108551 -0.24567729
000030 b7 5b 06 be de 04 af 3e 9c 70 ad bc a7 91 86 bc
       -0.13120924 0.341834 -0.02117186 -0.016426874
000040 1e aa 8c 3e c1 8e f5 3d 7f fd 8c be db 64 1a 3f
       0.2747354 0.11990119 -0.27537152 0.60310143
000050 b6 06 c7 bd f8 6c 26 bd c7 30 90 be ee 63 cd 3d
       -0.09718077 -0.040631264 -0.28162214 0.10028826
000060 4d 12 98 3e f0 4a 7f bc 38 1d fe 3e 02 26 5f bd
       0.29701462 -0.015581831 0.49631667 -0.054479606
000070 3f 93 43 3e 71 f9 e6 3a 85 66 a5 be 59 a8 e5 bc
       0.19099139 0.0017621947 -0.3230478 -0.028034376
000080 60 55 cf 3e 2b 0c 29 be 3f 75 49 be 22 db 47 be
       0.40494823 -0.16508548 -0.19673632 -0.19517186
000090 64 22 f1 bc cf 61 21 3d 62 3d 57 3e e3 47 3d bd
       -0.029435344 0.03939992 0.2101951 -0.046211135
0000a0 ca af 4a 3e ce e4 1d 3e a9 6c 66 3e 50 23 ff bd
       0.1979362 0.15419313 0.22502388 -0.12457907
0000b0 45 c5 df bd e1 f5 08 3e 4e d6 bb be 6b d2 c5 bc
       -0.10926298 0.13375045 -0.3668694 -0.024148187
0000c0 ab de 85 3e af 17 f3 3e 47 26 42 bd 51 a4 00 bd
       0.26146445 0.47479007 -0.047399785 -0.031406704
0000d0 d7 ac ee 3d e6 de a3 be 1c 07 ec bd 7a f4 1f bd
       0.1165406 -0.32005996 -0.115247935 -0.03905151
0000e0 0f 49 ae 3d 11 43 2d be 48 79 37 3e aa b8 45 be
       0.085100286 -0.16920115 0.17917359 -0.19308725
0000f0 ab 31 31 3d 2b 1c 7a 3d 2b df 84 3d 58 bd 2e bf
       0.043260258 0.06106202 0.064878784 -0.68257666
000100 50 22 d3 be 43 2d a6 3e 2e 5e 06 3f 72 74 35 bd
       -0.41237116 0.32456407 0.52487457 -0.044300504
000110 f7 00 7f 3e b7 e5 3f bc 04 b2 f6 be aa 7b 05 3c
       0.24902712 -0.011712483 -0.4818269 0.00814716
000120 14 ce 79 be 64 7f 78 3e b7 ea 97 3e 60 f7 68 be
       -0.24395019 0.24267346 0.2967126 -0.22750616
000130 04 7b 91 3e b9 40 95 bd 6a f9 88 be c0 43 92 be
       0.28414166 -0.072877355 -0.26752788 -0.28567314
000140 11 90 1b be 79 ab ff bd 92 ff 25 bd 7f ec b2 be
       -0.15191676 -0.12483878 -0.040526934 -0.34946057
000150 30 4e 53 be 44 24 a6 3e 94 bf f7 3e 17 47 ac be
       -0.20635295 0.32449543 0.4838835 -0.33647987
000160 6d 2d cc bc 68 e9 e3 3d 79 c8 2e be ec 9f 8b be
       -0.024924004 0.11128503 -0.17068662 -0.27270448
000170 c9 38 41 3e bf 4d fb be 6e a6 38 3e 73 20 a9 3d
       0.18869318 -0.49082753 0.18032238 0.08258142
000180 59 8c d1 3e f0 47 09 be 05 c6 5c 3e 2e 44 2f 3e
       0.4092739 -0.13406348 0.21559913 0.17115852
000190 3a 28 0b be b8 8d b8 bd f8 03 b3 3d 6a 66 39 3e
       -0.13589564 -0.09011406 0.08740991 0.18105474
0001a0 78 34 b4 bc c0 ee 0a bf 55 be 22 be b1 1d e6 3e
       -0.021997675 -0.54270554 -0.15892918 0.44944528
0001b0 6f fa 37 3f 27 ae ae be 46 db 3c 3e cc 2a eb bd
       0.71866506 -0.34117243 0.18443021 -0.11482772
0001c0 14 bf 83 bd 48 64 9b 3e 74 6c e5 3e 4d f8 a3 bc
       -0.0643293 0.30349946 0.44809306 -0.02001586
0001d0 41 26 26 bd 6e 0f 32 bd 87 c4 93 3c 64 bb 75 3e
       -0.040563826 -0.043471746 0.018038047 0.23997265
0001e0 44 84 47 3e b9 8d 0e 3f 65 f3 8b bc d8 f4 ef be
       0.19484049 0.55685 -0.017083833 -0.46866488
0001f0 1e b4 cb 3c 69 3d ee 3b ea b3 e7 be 67 5b 8e 3d
       0.02486616 0.0072705043 -0.4525445 0.06951027
000200 be 92 c4 bd d7 4a 3b be 79 4f 51 bd 0e 06 dc 3e
       -0.09598301 -0.18290268 -0.05110118 0.4297337
000210 14 1a 1f bd a1 f5 52 bd 83 65 54 3d 3b d2 19 3e
       -0.03884323 -0.05150378 0.05185462 0.15021603
000220 01 14 fa 3d b9 14 25 3d 00 14 14 bd 0a 01 0b be
       0.12210847 0.040302966 -0.036151886 -0.13574615
000230 f3 be 75 3e 98 c0 5d be ef 1e a7 bd 4c 13 c2 3d
       0.23998623 -0.216555 -0.08160197 0.09476337
000240 00 3e 02 3f 2d 59 2c be 10 c3 5b 3e 48 4a 97 be
       0.50875854 -0.16830893 0.21461129 -0.2954886
000250 67 dc 50 3e 17 58 ed 3e 21 26 ed be 50 51 c9 bd
       0.20396577 0.4635627 -0.46318153 -0.09829962
000260 90 20 f3 3e bb 38 51 be 51 d1 b4 be c4 6d 14 3f
       0.4748578 -0.20431797 -0.35315946 0.5797999
000270 06 01 24 be 2a b6 10 3e f2 43 09 3e 49 6d 4e bd
       -0.16016015 0.1413199 0.13404825 -0.05039719
000280 b7 26 26 3d 50 ae a3 3e ca 32 97 bd ed 1b 7d 3e
       0.040564265 0.31968927 -0.07382734 0.24717684
000290 62 4f 4d 3e fc a7 40 3e c5 e7 2a be 06 86 8e bc
       0.20049813 0.18814081 -0.16689976 -0.017397892
0002a0 fa 09 d4 bd c0 8a 27 3e 5b 9e 8a 3e ca 5d 8d be
       -0.103534654 0.16361523 0.2707394 -0.27610618
0002b0 be 4a 71 3e 0c c7 15 be 35 ad 60 3e 90 73 de 3e
       0.23563668 -0.14626712 0.21941073 0.43447542
0002c0 ad 21 92 3d 52 74 3b 3e ef 02 fd be 43 e9 29 be
       0.071353294 0.18306091 -0.494163 -0.16592889
0002d0 47 ed 27 be f7 29 63 be 90 cc b5 3c ca b4 a7 bd
       -0.16399108 -0.22183977 0.02219227 -0.0818878
0002e0 3f f0 1c be a5 2c e7 3e de 95 6a 3e 05 8e 07 3f
       -0.15326022 0.4515125 0.22908732 0.5295108
0002f0 62 3c 8b 3e cc aa d1 3d d1 14 e9 be 3e 9f 5e be
       0.27194506 0.10237655 -0.45523694 -0.21740434
000300 88 6d 31 be 43 be 00 3f e4 e0 0d 3e 65 7a be be
       -0.17326939 0.50290316 0.1385532 -0.37202755
000310 ea 18 90 3e 72 3b 9f be a0 74 30 be 9e 27 20 3e
       0.28144008 -0.3110004 -0.17231989 0.15640113
000320 08 fa c9 bd 93 f5 54 3e 2b a0 14 3e 0a ea 87 bd
       -0.09862143 0.20796804 0.14514224 -0.06636436
000330 11 59 51 3e d9 f4 cf bc cb 9a 92 3e 72 4f ea bd
       0.20444132 -0.025385307 0.28633723 -0.11440934
000340 74 82 d9 be 4b e6 1d be bc f4 be bd 75 0e 0c 3e
       -0.4248234 -0.15419881 -0.09324023 0.1367739
000350 dc ca 2c 3f 18 18 12 bd 28 8b dd 3c 5c da 16 bd
       0.6749704 -0.03566751 0.027043894 -0.036829337
000360 55 c4 0b bf 48 f1 8b be f4 15 71 bb a8 aa d8 be
       -0.54596454 -0.2733252 -0.0036786767 -0.423177
000370 5f 47 3e be b5 f2 31 bd 7e 67 5a 3e 40 d4 93 bc
       -0.18581913 -0.043444354 0.21328542 -0.018045545
000380 d8 17 4c bc 9e 5a 3e 3e b3 49 42 be c6 ab 9d 3e
       -0.012456857 0.18589255 -0.18973427 0.30795115
000390 3d af b4 3e 77 f4 c5 bb 8c 01 45 be 0a 1a 16 3d
       0.35289946 -0.0060411054 -0.19238871 0.036645927
0003a0 71 b0 4f 3e b5 9e 20 3f 85 ca 1c be 31 b7 55 3e
       0.20282151 0.6274217 -0.1531163 0.20870663
0003b0 a0 97 df 3e a8 c7 d6 be 7f 60 b7 3e 9d ee 5d be
       0.43670368 -0.419492 0.35815808 -0.21673055
0003c0 8a 39 e8 bc 39 55 96 3e 17 ca cc 3e 03 e8 1e 3e
       -0.02834775 0.29361895 0.39997932 0.15518193
0003d0 9e 73 9d 3e ca dc 9d 3e de 04 ae be 8f 67 8e 3d
       0.3075227 0.3083251 -0.33988088 0.06953346
0003e0 6a 20 24 3e 5f 07 e4 be e1 a1 6e 3e 20 2b 8b be
       0.1602799 -0.44536874 0.2330394 -0.2718134
0003f0 7c 86 56 3e 48 70 5d be 33 18 31 be 92 0b 9d 3d
       0.20949739 -0.21624863 -0.17294388 0.076682225

transformer_encoder.layers.1.linear1.bias f4 [2048]
000000 a2 45 64 be dc 93 54 3e f2 ba da 3d 13 8b 8a 3e
       -0.22292188 0.20759529 0.10680188 0.2705923
000010 78 e3 bd be 9f d1 7c be 22 64 bd bd 1f 3e 16 ba
       -0.37087607 -0.24689339 -0.092476144 -0.00057313027
000020 06 ec 75 be 44 b6 47 be bc 17 ea bd 9b 10 80 3d
       -0.24015817 -0.19503123 -0.11430308 0.06253167
000030 08 e8 2f 3e e3 7f d2 be a4 67 0c bf f8 c4 a0 3c
       0.17178357 -0.41113195 -0.54845643 0.019625172
000040 36 fe 9f bc 02 e7 9c be fc 4f 85 3d 94 e4 b7 3d
       -0.019530397 -0.30644995 0.065093964 0.08979145
000050 a0 09 99 be c7 44 8c be 8c 30 c6 be 7d 5f 07 3e
       -0.29890156 -0.27396223 -0.38708913 0.1322002
000060 d1 a8 19 3e 67 93 d8 bc a0 e8 63 bb 17 06 02 be
       0.15005805 -0.026437474 -0.0034776106 -0.12697636
000070 d8 fe 41 3e 91 5b 42 3d 98 bc 0c be d9 86 81 be
       0.18944871 0.047450606 -0.13743818 -0.25298193
000080 e9 38 35 be 53 d5 04 be 6d b0 bd be 2b 1c f5 bd
       -0.17697491 -0.12972002 -0.37048665 -0.11968263
000090 00 b8 91 be f0 41 08 be 0a d4 b6 be b1 6d 87 3e
       -0.28460693 -0.13306403 -0.35708648 0.26450875
0000a0 b9 50 cb 3d 18 1d 9b 3d 4c 84 0b be ec 0b bb be
       0.09927506 0.075739086 -0.13624686 -0.36532533
0000b0 af a1 b6 be 90 ae 87 be 5a a2 8f bd e4 ee 76 be
       -0.3567023 -0.26500368 -0.07013388 -0.24114567
0000c0 bf d4 ae be 20 9a a8 be dd 0b 6a be 75 d4 68 3e
       -0.34146687 -0.32930088 -0.22856088 0.22737296
0000d0 47 ac ea be 8d ba e5 bd fd 85 49 3e cb 09 05 be
       -0.45834562 -0.11217222 0.19680019 -0.12992017
0000e0 e5 33 25 be 36 0f d0 3d 03 71 d1 3c af 59 6a be
       -0.16133077 0.10159151 0.025566583 -0.22885774
0000f0 88 8a 08 3e 32 ce ce bd 94 81 4d 3d 2c e6 0a 3e
       0.13334095 -0.100979224 0.050172403 0.13564366
000100 2b f0 06 bf 02 90 4d bb 36 e5 4e 3e 55 a1 f3 be
       -0.5271022 -0.0031366353 0.20204625 -0.47584024
000110 5d eb c8 3c 03 f7 b2 be f8 65 0a be de 31 28 be
       0.024526292 -0.3495408 -0.1351546 -0.16425273
000120 ab 0b 62 3e 1a 07 11 be 9c a8 b4 be 34 6c 0b bf
       0.22074763 -0.14162865 -0.3528489 -0.5446198
000130 dd 99 08 3e ba d9 db 3d 4d 21 f4 bd ff 84 5b be
       0.13339944 0.107348874 -0.11920414 -0.21437453
000140 c8 1e b5 be 48 5d 11 be 64 84 83 3e 43 7b f9 bb
       -0.35375047 -0.1419574 0.25686944 -0.007613571
000150 0c 60 6c 3e 56 fa 89 be 96 82 15 bd 23 57 e1 be
       0.23083514 -0.26948804 -0.03650149 -0.44011793
000160 4b 41 d4 be 32 0f a2 be 38 ca 9d 3d b6 db de be
       -0.41456065 -0.31652218 0.07704586 -0.43527
000170 33 4a 46 bc 51 44 eb bd d2 82 a2 be c4 db 1e 3e
       -0.012102651 -0.1148764 -0.31740433 0.15513521
000180 26 6a 47 3e d2 e5 49 be 67 bf 0f be 52 2a 9d be
       0.19474086 -0.19716576 -0.14037858 -0.3069635
000190 63 d8 6c 3d 71 07 ce be b7 c4 65 be aa a9 58 be
       0.05782355 -0.40240052 -0.22438322 -0.21158472
0001a0 d0 11 94 bc d3 07 c3 be 50 5d f5 3c 59 45 ce 3e
       -0.0180749 -0.38091907 0.029951721 0.40287283
0001b0 d4 8c f7 be 43 65 c2 be 73 88 cd bc cb e6 7a bc
       -0.4834963 -0.37967882 -0.025089478 -0.015313814
0001c0 69 bb d6 3d a1 de 86 3d 60 cf a4 be 65 41 e0 3d
       0.104849644 0.06585432 -0.32189465 0.10949973
0001d0 b5 dd 8d 3d bd 87 23 3e 33 b9 d9 be 53 a6 0d be
       0.06927053 0.15969749 -0.42524108 -0.13832979
0001e0 53 88 2d 3e e3 f7 2b be 1b 22 b8 3c 40 4e c8 bd
       0.16946535 -0.1679378 0.0224772 -0.0978055
0001f0 f0 c4 3c 3e 95 14 d3 3e 74 27 90 3e 3d b6 0f bc
       0.184345 0.4122664 0.281551 -0.008771476
000200 df 8c 0c 3e 8b d3 b1 bd d2 70 8e 3d e1 b1 95 bd
       0.13725613 -0.08682927 0.069551125 -0.07309318
000210 1b f4 4b 3d 79 8b c0 be 38 6d e2 3d e3 b7 a0 3e
       0.049793344 -0.3760641 0.11055988 0.31390294
000220 f1 81 bc 3e 9b e7 4f bd 71 1b 19 3d c9 6f 13 3e
       0.36817887 -0.050757986 0.037379686 0.14398111
000230 79 66 eb be b6 88 ee bd 27 60 e5 3d 50 03 e6 3d
       -0.45976618 -0.11647169 0.1119998 0.112311006
000240 3a 27 fc bc 93 c2 c4 be 1a 20 c5 be 9f da 87 be
       -0.030780423 -0.38429698 -0.38501054 -0.26533982
000250 a3 45 42 3e ea 29 32 bd 14 f9 7f bc 1c 52 36 be
       0.18971877 -0.043497004 -0.01562335 -0.1780476
000260 5c fa bb 3d c0 03 5c 3e 19 a0 9e be ae 34 69 3e
       0.09178612 0.21485806 -0.3098152 0.22774002
000270 07 9e 8c be 20 fe f9 3d 54 2b 15 3e 10 60 9d be
       -0.27464315 0.122066736 0.1456731 -0.30737352
000280 92 77 f0 be 67 52 77 3e e0 dd 1d be 50 7c 78 3e
       -0.46966225 0.24152528 -0.1541667 0.24266171
000290 8c 66 d9 3d de 96 94 bd 2c ae de 3d 08 6f 8f be
       0.106152624 -0.07255338 0.108730644 -0.28014398
0002a0 55 1e 65 3e 78 13 83 3e 77 af 9f bc e0 4c 99 3e
       0.22374852 0.2560079 -0.019492848 0.29941463
0002b0 66 e8 00 be 69 25 9c 3a 1e 55 7e 3d b4 2e 5b be
       -0.12588653 0.0011913005 0.062092893 -0.21404535
0002c0 5f 06 61 3e 44 22 ea 3d 34 f7 69 3d ed 92 91 be
       0.21975087 0.11432317 0.057120517 -0.28432408
0002d0 de 88 09 3e 04 b8 20 3e c1 a1 d0 be 02 19 ba 3d
       0.13431117 0.15695196 -0.40748408 0.09086801
0002e0 fe d4 ab be 67 23 01 be d8 e0 16 3d 47 1c 72 ba
       -0.33560938 -0.12611161 0.03683552 -0.0009235781
0002f0 9b de 89 be a9 ee 8e 3e 77 d2 09 3e 4f 1e 7b 3c
       -0.26927647 0.27916458 0.13459192 0.01532705
000300 7d d6 60 bd ef 74 8b be be 6b 45 be 70 f9 bb be
       -0.054892052 -0.2723765 -0.19279382 -0.36713743
000310 7f 8c 6c be 8d 77 d6 3e 5f 96 30 be 69 c5 33 be
       -0.2310047 0.41888085 -0.17244862 -0.17555775
000320 76 a8 81 ba 2e 46 80 be 12 b5 86 bd bc 7a 26 be
       -0.0009892124 -0.25053543 -0.06577505 -0.16257757
000330 e2 9a 7c bd 7a 67 bf 3d 70 14 67 3e 69 25 bb be
       -0.061671145 0.093459085 0.2256639 -0.3655198
000340 23 79 53 bd 8e 60 c9 be d4 aa 92 3d 66 46 fe 3d
       -0.051629197 -0.39331478 0.07161489 0.12415771
000350 4b fb de be 5c 32 26 3e 47 2b 7c be 33 f6 cd 3a
       -0.43551096 0.16230148 -0.24625884 0.0015713632
000360 d7 57 55 3d d8 10 d2 be 9a 71 9a be 4a bb b4 be
       0.052085724 -0.41028476 -0.30164796 -0.3529914
000370 fd 9e 72 3e 56 57 a9 be 12 8a 5d 3e 13 7e ca be
       0.23693462 -0.33074445 0.21634701 -0.39549312
000380 09 ed 83 bd 06 5e 9e be 7b 1d 6e bb 1f 32 87 be
       -0.06441695 -0.3093111 -0.003633349 -0.26405427
000390 c9 cc 27 bd ee 25 0a be 77 9f 8c be 5c 40 9a be
       -0.040966783 -0.13491032 -0.27465412 -0.30127227
0003a0 9b 47 39 be a6 51 ef be 63 ae 68 be 1f 73 3d 3c
       -0.18093722 -0.4674198 -0.22722773 0.011563092
0003b0 b9 3f a1 3e d6 3e 25 be 83 2c 5f be c6 62 92 be
       0.3149393 -0.16137251 -0.21794324 -0.28590983
0003c0 80 7d b1 be 5c 1c 4f bd b7 fe 72 be d0 f4 4d 3e
       -0.3466606 -0.050564155 -0.23729979 0.2011292
0003d0 b1 6d e9 bc 72 2e 78 be 1a 8a 25 3d 74 91 9a be
       -0.028494688 -0.24236467 0.040414907 -0.30189097
0003e0 de 6d d8 3d 98 89 82 be 76 1a 25 3e 71 af e6 be
       0.105678305 -0.254956 0.16123375 -0.45055726
0003f0 41 fd 2d bd ad f4 25 be a4 19 f3 3d 4e 3d c7 be
       -0.04247785 -0.16206618 0.11870125 -0.3891396
