DU_model/Transformer/best_model_prod1_tr.2.40.pth (torch, 474174 bytes, 29 tensors)

norm.weight f4 [6]
0	0x3f800000	1.0
1	0x3f800000	1.0
2	0x3f800000	1.0
3	0x3f800000	1.0
4	0x3f800000	1.0
5	0x3f800000	1.0

norm.bias f4 [6]
0	0x00000000	0.0
1	0x00000000	0.0
2	0x00000000	0.0
3	0x00000000	0.0
4	0x00000000	0.0
5	0x00000000	0.0

transformer_encoder.layers.0.self_attn.in_proj_weight f4 [18, 6]
0	0xbcbd1a72	-0.0230839
1	0x3e00435e	0.12525699
2	0xbeb8490a	-0.35993224
3	0x3dd148b7	0.102189474
4	0x3d36ce86	0.04463055
5	0x3d2f4e19	0.04279909
6	0xbea1b6b8	-0.31584716
7	0x3d3e9ffb	0.046539288
8	0xbe79f558	-0.24409997
9	0x3eef314f	0.46717307
10	0xbedbdf83	-0.42943963
11	0xbefc683a	-0.4929827
12	0x3deb6a29	0.11494858
13	0xbca339d2	-0.019925032
14	0x3e85830a	0.26076537
15	0xbd469530	-0.04848212
16	0x3e676275	0.22596152
17	0x3ec6bae0	0.3881445
18	0xbeb889a5	-0.36042514
19	0xbe51eecd	-0.20501252
20	0xbe0b4b01	-0.1360283
21	0xbe7f020d	-0.24903126
22	0x3e85b443	0.2611409
23	0xbe44a240	-0.19202518
24	0x3e8bad35	0.27280584
25	0xbef1488f	-0.4712567
26	0x3e9e4e05	0.309189
27	0x3ed6970d	0.41912118
28	0x3ee2c00b	0.44287142
29	0x3ecb5214	0.39711058
30	0x3e0ba8c5	0.13638599
31	0x3d9fa855	0.07795779
32	0xbbab769b	-0.0052326447
33	0xbea6729a	-0.3250931
34	0xbe77f176	-0.24213204
35	0xbeeecee9	-0.46642235
36	0x3f004115	0.5009931
37	0x3ec4d9da	0.38447458
38	0xbe790665	-0.24318846
39	0x3ef1cfb7	0.47228786
40	0x3e488a48	0.19584
41	0x3eb86f2b	0.36022314
42	0x3eedf9f0	0.4647975
43	0x3d8cb0f3	0.06869688
44	0xbef243b5	-0.4731728
45	0xbe219a33	-0.15781479
46	0xbe142b94	-0.14469749
47	0x3e88712e	0.2664885
48	0x3e61abaa	0.22038141
49	0x3dea2a5c	0.11433861
50	0x3de3251f	0.11091065
51	0x3eb268f1	0.3484569
52	0xbdf59c27	-0.11992674
53	0x3ea1eba4	0.31625092
54	0xbe9bebdd	-0.30453387
55	0x3e8306bb	0.25591072
56	0x3c0222fb	0.00794291
57	0xbeee2715	-0.46514192
58	0xbede7d4f	-0.43454978
59	0x3dcf2168	0.101137936
60	0x3de8e01f	0.11370873
61	0xbe468e9a	-0.19390336
62	0x3eda1651	0.4259515
63	0xbe9dd547	-0.3082678
64	0x3e5d13fa	0.21589652
65	0xbd895ed5	-0.06707541
66	0x3dead5af	0.11466538
67	0xbea743e3	-0.3266898
68	0xbe81f41c	-0.25381553
69	0x3ed14d16	0.40879124
70	0x3e4f2102	0.20227435
71	0xbe305ca4	-0.1722284
72	0xbe3af62f	-0.18257974
73	0xbf00994d	-0.5023392
74	0x3ec2e680	0.38066483
75	0xbe1b05bb	-0.15138905
76	0x3e95fdb7	0.29295132
77	0x3e7b03bc	0.24513143
78	0x3f3a9f23	0.72899073
79	0xbe1232b4	-0.14277154
80	0xbef939ff	-0.4867706
81	0x3e3af7b0	0.18258548
82	0xbedd5ed1	-0.43236402
83	0xbe830f78	-0.2559774
84	0xbf0b51bf	-0.5442161
85	0xbec8cb4c	-0.39217603
86	0xbef7cdfc	-0.4839934
87	0xbe85da2e	-0.2614302
88	0xbf1a6991	-0.6031733
89	0xbed8d35f	-0.42348763
90	0xbf0cd022	-0.55005085
91	0xbe139a99	-0.14414443
92	0xbec21717	-0.3790824
93	0xbe4fc9c0	-0.20291805
94	0x3ec231c1	0.37928584
95	0x3e311803	0.17294316
96	0xbc8f77e3	-0.017513221
97	0xbc329b38	-0.010901265
98	0xbd8996a3	-0.06718185
99	0xbe7b49be	-0.24539849
100	0x3f0d5473	0.55206984
101	0x3f02ca4a	0.5108992
102	0x3e835b08	0.2565539
103	0xbefdb108	-0.49549127
104	0x3d827011	0.06369031
105	0xbf138e50	-0.57639027
106	0xbf34ca4f	-0.706212
107	0x3ec8a964	0.39191735

transformer_encoder.layers.0.self_attn.in_proj_bias f4 [18]
0	0x3d15c00c	0.036560103
1	0xbd2d54cd	-0.0423172
2	0x3d9f7cc6	0.077874705
3	0x3b45f320	0.0030204728
4	0x3c5e3c22	0.0135641415
5	0xbb917a0a	-0.004439597
6	0x3c0c62d3	0.008568483
7	0x3aa87089	0.0012850921
8	0xbc2e3caa	-0.010634581
9	0xbce04e3a	-0.027381051
10	0x3c823a18	0.015896842
11	0xbcdad1ff	-0.026711462
12	0xbdd03cf2	-0.101678744
13	0xbe970ac8	-0.29500413
14	0xbe3c146e	-0.18367168
15	0x3d0800af	0.033203777
16	0x3e74b05d	0.23895402
17	0xbdce35e5	-0.10068873

transformer_encoder.layers.0.self_attn.out_proj.weight f4 [6, 6]
0	0xbde83816	-0.113388225
1	0x3e64a944	0.22330195
2	0xbb63aa00	-0.003473878
3	0xbe99211b	-0.2990807
4	0xbea0bf0c	-0.31395757
5	0x3d7a8ada	0.061167575
6	0x3dbf5484	0.09342292
7	0x3e144dfa	0.1448287
8	0xbdd297d9	-0.10282869
9	0xbda8e7ef	-0.08247363
10	0x3eb9cd40	0.36289406
11	0xbcadd837	-0.021221263
12	0xbe7c7c34	-0.24656755
13	0x3d261615	0.040548403
14	0xbeb410be	-0.35169023
15	0xbe31d58c	-0.17366618
16	0x3e9b26e4	0.3030311
17	0x3e12d04a	0.14337268
18	0x3ebca767	0.36846468
19	0xbe61d8e2	-0.2205539
20	0x3ebd908c	0.37024343
21	0x3e939dfc	0.2883147
22	0xbe7a4315	-0.24439652
23	0x3ebad3d4	0.36489737
24	0xbe637732	-0.22213438
25	0x3eef484e	0.46734852
26	0x3d545666	0.05184021
27	0xbd9ae8ef	-0.0756396
28	0xbea20ab6	-0.31648797
29	0x3ea9ac68	0.33139348
30	0x3c50a08f	0.012733593
31	0x3ece2d8c	0.40269125
32	0xbec1cfbf	-0.3785381
33	0xbdbf45df	-0.09339499
34	0x3ea58d65	0.32334438
35	0x3ea17c58	0.3154018

transformer_encoder.layers.0.self_attn.out_proj.bias f4 [6]
0	0xbe43f398	-0.19135892
1	0xbef0ae08	-0.47007775
2	0x3eb6dc7a	0.35715085
3	0x3da6049e	0.081063494
4	0xbeb3347f	-0.3500099
5	0xbe8f13c3	-0.27944764

transformer_encoder.layers.0.linear1.weight f4 [2048, 6]
0	0x3e975f83	0.29565057
1	0x3e8c5569	0.27408913
2	0x3ccb9c8f	0.024854926
3	0xbf258961	-0.6466275
4	0xbe61ecfa	-0.22063056
5	0x3dd69e01	0.104793556
6	0xbe73af07	-0.23797236
7	0xbd09a074	-0.033600286
8	0xbd26fee1	-0.040770415
9	0xbd9f0977	-0.07765477
10	0x3e3f5b40	0.18687153
11	0xbe9b9f03	-0.30394754
12	0xbe895d46	-0.26828974
13	0xbeaa6cbd	-0.33286086
14	0x3ebebf1c	0.3725518
15	0x3e427b9e	0.18992469
16	0x3ee685b8	0.45023894
17	0xbd55ee51	-0.05222923
18	0x3bd7bc79	0.006583747
19	0x3edfe046	0.43725795
20	0xbf16c8d6	-0.589002
21	0xbee36408	-0.44412255
22	0x3ea8d3b5	0.3297402
23	0xbdb5be90	-0.088742375
24	0x3e065e10	0.1312182
25	0xbe9b38e2	-0.30316836
26	0x3eb19cef	0.34690043
27	0x3e495f11	0.19665171
28	0x3ec7ad2d	0.3899931
29	0xbdc3e9aa	-0.09566052
30	0x3eca0c6b	0.394626
31	0x3eb6d66e	0.35710472
32	0xbe4c2324	-0.1993528
33	0x3dabd4e1	0.08390213
34	0x3e762e00	0.24040985
35	0xbe3a2daf	-0.1818149
36	0x3e7bfda0	0.24608469
37	0x3da99cbc	0.08281848
38	0x3cb802d3	0.022462284
39	0x3e081555	0.13289388
40	0x3dc546b1	0.09632624
41	0xbe574a23	-0.21024375
42	0x3d6b8b0b	0.05750565
43	0x3e77af27	0.24187909
44	0x3e98f4a5	0.2987415
45	0xbf304573	-0.6885597
46	0xbd3bfa1e	-0.045892827
47	0x3e8cf33f	0.27529332
48	0xbe968614	-0.29399168
49	0xbeb087d1	-0.3447862
50	0x3e23adc7	0.1598426
51	0x3e7f956e	0.24959347
52	0x3e68f877	0.22751032
53	0xbd4801b5	-0.048829753
54	0xbe0f70b9	-0.14007844
55	0xbdaaa77e	-0.08332728
56	0x3ef44791	0.4771085
57	0x3dbd6190	0.09247124
58	0xbee9f2d0	-0.45693064
59	0xbe0213e5	-0.12702902
60	0x3df42ed4	0.11922994
61	0x3defcec6	0.11709361
62	0xbe9f4279	-0.31105402
63	0x3e4c6053	0.1995862
64	0xbc9003e1	-0.017579975
65	0x3e3301e0	0.17481184
66	0xbc1c7933	-0.0095503805
67	0x3eb0fa53	0.34565982
68	0xbee88a08	-0.4541781
69	0xbf052072	-0.5200263
70	0xbe5f1d27	-0.21788464
71	0x3ea59a6a	0.3234437
72	0x3eb2b507	0.34903738
73	0xbdf27ca4	-0.118401796
74	0xbe949216	-0.29017705
75	0xbdc755de	-0.09733175
76	0x3e91e1ac	0.28492486
77	0xbd2a3cbe	-0.041561835
78	0x3eb13372	0.34609562
79	0xbeaba5fa	-0.33525068
80	0x3e9b6af5	0.3035504
81	0x3e44b13d	0.19208236
82	0x3ea68f67	0.32531282
83	0xbe5a4e49	-0.21318926
84	0x3e4a15b7	0.19734846
85	0xbe7b4627	-0.2453848
86	0xbe771091	-0.24127413
87	0x3eb651f4	0.356094
88	0x3dbd4d2a	0.092432335
89	0x3d87958f	0.06620323
90	0x3edcaf4a	0.43102485
91	0x3ed17eb0	0.40916967
92	0xbeea406c	-0.45752275
93	0xbe6e16c8	-0.23250878
94	0x3db301d4	0.08740583
95	0x3e945077	0.2896764
96	0xbe078b79	-0.13236798
97	0xbde15b7e	-0.11003779
98	0xbe956c64	-0.29184258
99	0xbd8ddeac	-0.06927237
100	0x3dbe6738	0.09297031
101	0xbec07c94	-0.37595046
102	0x3eb13159	0.34607962
103	0x3ee08607	0.43852255
104	0x3df03fc2	0.11730911
105	0xbe4cd10e	-0.20001623
106	0xbe8a467c	-0.270069
107	0x3eb0dae0	0.34541988
108	0xbec14882	-0.37750632
109	0x3e6a17b4	0.22860605
110	0x3e83cb11	0.25740865
111	0xbd3ac4db	-0.045597892
112	0x3e865c3d	0.26242247
113	0xbe15b9f1	-0.14621712
114	0x3e3dbe6d	0.18529673
115	0xbdf847f0	-0.12123096
116	0x3e3d25b6	0.18471417
117	0xbe165258	-0.14679849
118	0x3e8279ed	0.25483647
119	0x3e9ea927	0.30988428
120	0x3eca6d7e	0.3953666
121	0x3e7a09e6	0.24417838
122	0x3ea9bf20	0.3315363
123	0xbedc94b1	-0.43082193
124	0x3eac12eb	0.33608183
125	0xbe8e05e3	-0.27738866
126	0x3e98ba85	0.29829803
127	0xbe475a40	-0.19468021
128	0xbea22aa0	-0.31673145
129	0xbe1bd755	-0.15218861
130	0x3d364bb7	0.0445058
131	0xbddc5c60	-0.10759807
132	0x3e855946	0.26044673
133	0x3ea84e70	0.32872343
134	0x3ed3629c	0.4128617
135	0xbee5331d	-0.4476556
136	0x3e259bc7	0.16172706
137	0x3eb1ff90	0.3476529
138	0x3dbf5a32	0.09343375
139	0x3ec35adc	0.38155258
140	0xbea5aabc	-0.32356822
141	0x3e969c8c	0.2941631
142	0x3ecdccb5	0.40195242
143	0xbc018bee	-0.007906897
144	0x3d9dd05d	0.07705758
145	0x3ec56fe2	0.38561922
146	0xbdbba52c	-0.091623634
147	0x3e8aecfa	0.27133924
148	0x3c1991a7	0.009373105
149	0x3e504df5	0.20342238
150	0x3ed6de50	0.41966486
151	0x3e92dc8d	0.28683892
152	0xbc90e969	-0.017689424
153	0xbe65212a	-0.22375932
154	0xbe81f079	-0.2537878
155	0x3de96658	0.11396474
156	0x3eb712c5	0.35756508
157	0x3e85cd5f	0.26133248
158	0xbe8cafa0	-0.2747774
159	0x3eb24bc8	0.34823442
160	0x3ce292de	0.027657922
161	0xbcd8354f	-0.026392607
162	0x3eb56ad6	0.35433072
163	0xbebc3daa	-0.36765796
164	0x3e62c4c5	0.22145374
165	0x3db59040	0.08865404
166	0x3ecf335c	0.40468872
167	0xbdd57fdb	-0.10424777
168	0x3e537615	0.20650513
169	0x3ccbf9c5	0.024899373
170	0x3edaff61	0.42772964
171	0x3e395264	0.18097836
172	0xbc844f8a	-0.016151208
173	0x3efe3891	0.49652532
174	0xbe5474ff	-0.20747755
175	0xbdb7dbcd	-0.089774705
176	0x3e4af5f2	0.19820383
177	0xbf0dfb75	-0.5546182
178	0x3bbd2eef	0.005773417
179	0x3e52cb4a	0.20585361
180	0xba6e6da8	-0.00090953195
181	0x3e0f7058	0.140077
182	0x3e73aa80	0.2379551
183	0xbe178740	-0.14797688
184	0xbe19da3b	-0.15024655
185	0xbef2d7bb	-0.47430214
186	0xbeb1f9e6	-0.3476097
187	0xbeb8b727	-0.36077234
188	0xbd58e614	-0.052953795
189	0xbe4f609a	-0.20251694
190	0x3d901222	0.070347086
191	0x3dc54519	0.0963232
192	0x3d984b11	0.07436193
193	0xbe2d5e55	-0.16930516
194	0xbd1b4f43	-0.037917387
195	0x3d024c3a	0.031810977
196	0xbd8d0266	-0.06885223
197	0xbe02aca9	-0.12761177
198	0xbeb60317	-0.35549232
199	0xbe6dbbba	-0.23216143
200	0x3cb82c6a	0.022482116
201	0x3e6bca1f	0.23026322
202	0xbe64d405	-0.22346504
203	0xbeb082dc	-0.34474838
204	0x3ecef58c	0.40421712
205	0xbd93ea95	-0.07222477
206	0xbea554a3	-0.32291135
207	0x3e0ec2db	0.13941519
208	0xbe36a1a4	-0.17835099
209	0x3e86bb1e	0.26314634
210	0xbd16408d	-0.036682654
211	0xbe8c8697	-0.27446434
212	0xbeaad6ca	-0.33366996
213	0x3dd05252	0.10171951
214	0xbe43b706	-0.19112787
215	0x3db2121c	0.0869486
216	0x3e784375	0.24244483
217	0xbe493e62	-0.19652703
218	0x3e26728b	0.16254632
219	0xbef9a6e5	-0.48760143
220	0xbd550070	-0.05200237
221	0xbe876968	-0.26447606
222	0x3e85d262	0.26137072
223	0xbd81a46f	-0.06330191
224	0x3e153fde	0.14575145
225	0x3ebe4136	0.37159127
226	0x3e657e63	0.22411494
227	0x3ec39cc5	0.38205543
228	0xbd975795	-0.07389752
229	0x3e374bed	0.17900057
230	0x3e950dc2	0.2911206
231	0x3ea78482	0.32718283
232	0x3e908394	0.28225386
233	0xbdfc1003	-0.123077415
234	0x3cc6b263	0.024254983
235	0xbe89794d	-0.26850358
236	0x3ea1c6e1	0.31597045
237	0xbdf00a63	-0.11720731
238	0xbe214b4e	-0.15751383
239	0x3e84bb0f	0.25923964
240	0xbe284847	-0.16433822
241	0x3e971824	0.29510605
242	0xbe713c56	-0.23558173
243	0xbeb0f1d5	-0.34559503
244	0x3e14be50	0.14525723
245	0xbf020129	-0.5078302
246	0xbcbe30f8	-0.02321671
247	0x3e9ac562	0.30228716
248	0xbdc6388d	-0.09678755
249	0x3e8a7dde	0.27049154
250	0xbe32e533	-0.17470245
251	0xbeab9d39	-0.3351839
252	0xbe00489c	-0.12527698
253	0xbe8a22de	-0.26979727
254	0x3d9f46a3	0.07777145
255	0xbf200a0d	-0.62515336

transformer_encoder.layers.0.linear1.bias f4 [2048]
0	0x3e624442	0.22096351
1	0x3cccfa3a	0.025021661
2	0x3e903c4c	0.28171003
3	0x3ef9b0d1	0.48767713
4	0xbe613f0a	-0.21996704
5	0x3e0122ec	0.12610978
6	0x3e9d3a07	0.30708334
7	0x3d9c102c	0.07620272
8	0xbece4f05	-0.40294662
9	0xbea1cf7f	-0.3160362
10	0xbe9c6a4c	-0.30549848
11	0x3c194c47	0.009356565
12	0x3ebe9532	0.37223202
13	0x3e1ffe3b	0.15624325
14	0xbdf589cc	-0.11989173
15	0x3e08b6b2	0.13350943
16	0xbe2b426c	-0.16724557
17	0xbed88c9c	-0.42294776
18	0x3dabfa1f	0.08397316
19	0xbe87a48a	-0.2649272
20	0x3deb017a	0.11474891
21	0x3ea5b621	0.32365516
22	0xbcc7c1d4	-0.024384417
23	0x3e2ba01f	0.167603
24	0xbe27e0e4	-0.16394383
25	0xbdae4d9c	-0.085108966
26	0xbe4ac326	-0.19801006
27	0x3d85af8e	0.06527625
28	0x3e6d6ba1	0.23185588
29	0xbec82506	-0.39090747
30	0xbd4c79a4	-0.049920693
31	0x3ea34228	0.3188641
32	0xbe086862	-0.13321069
33	0x3e17704a	0.14788929
34	0x3eae29ae	0.34016174
35	0x3e7470e7	0.23871194
36	0xbe8d6a8c	-0.2762035
37	0x3e450c53	0.19242983
38	0xbeb7fbda	-0.35934335
39	0x3ec18990	0.37800264
40	0x3ecfbf9e	0.4057588
41	0xbe3844c2	-0.17994979
42	0xbdf340a7	-0.11877566
43	0xbb0dacb0	-0.0021617822
44	0xbe05bbcd	-0.13059922
45	0xbc5dee7d	-0.01354563
46	0x3c9944a3	0.018709486
47	0x3e8b2216	0.27174443
48	0x3da35911	0.079759724
49	0x3e9fa6b5	0.31181875
50	0xbe4f8149	-0.20264162
51	0x3e12a8e2	0.14322236
52	0xbd64b5f4	-0.055837587
53	0xbe4436d0	-0.19161534
54	0x3e8f8dc2	0.2803784
55	0xbe01e019	-0.12683143
56	0x3e8338fe	0.2562942
57	0xbe0989ee	-0.13431522
58	0x3dcbb817	0.09947222
59	0xbddd5862	-0.10807873
60	0x3d34f09b	0.04417477
61	0xbe96c038	-0.29443526
62	0xbd065ac8	-0.03280142
63	0x3e4acf12	0.19805554
64	0x3e90cab8	0.28279662
65	0xbcab833b	-0.020936599
66	0xbdbb0e91	-0.09133638
67	0x3dcddca3	0.10051849
68	0x3eb90194	0.36134017
69	0xbe851b3e	-0.25997347
70	0xbe7e038c	-0.2480604
71	0xbe89bee8	-0.26903462
72	0xbe925747	-0.28582212
73	0xbeb0caf6	-0.34529847
74	0xbe4aca1d	-0.19803663
75	0x3cf4da24	0.029889174
76	0x3e1a96bf	0.15096568
77	0xbe849756	-0.2589671
78	0xbedf7496	-0.43643636
79	0xbe6c676e	-0.2308633
80	0xbecede07	-0.40403768
81	0xbea9e733	-0.33184204
82	0x3e18225c	0.14856857
83	0x3e6b850b	0.2299997
84	0x3e9e07f8	0.30865455
85	0x3c63a8c4	0.013895217
86	0xbdc298c4	-0.09501794
87	0xbe727193	-0.23676138
88	0x3e00b082	0.12567332
89	0xbde1d49f	-0.110268824
90	0xbdc6a254	-0.096989304
91	0xbe77a580	-0.24184227
92	0x3d8167c4	0.0631862
93	0xbeb0b2d2	-0.3451143
94	0xbd23d31d	-0.039996255
95	0x3e3ca69a	0.18422928
96	0xbcfb7174	-0.030693747
97	0xbe60a462	-0.21937707
98	0x3ca2d3d9	0.019876407
99	0x3e3feef6	0.187435
100	0xbe1f4662	-0.15554193
101	0x3d86469b	0.06556436
102	0x3e9c7567	0.3055832
103	0x3d33bd68	0.043881804
104	0xbe934084	-0.2876016
105	0x3e917427	0.2840893
106	0x3e72146a	0.236406
107	0x3ea99fbd	0.33129683
108	0xbb5869a6	-0.0033021956
109	0xbe4c7118	-0.19965017
110	0x3e5fe8ac	0.21866101
111	0x3e4aface	0.19822237
112	0xbe4a08a1	-0.19729854
113	0x3e66d04b	0.22540395
114	0xbe54f136	-0.2079514
115	0x3e389b42	0.18027976
116	0xbe9430c5	-0.28943458
117	0xbe1253d7	-0.14289795
118	0xbe744150	-0.2385304
119	0xbe83b318	-0.25722575
120	0x3e7ebc07	0.24876414
121	0x3ef5cd73	0.48008308
122	0x3e687ad6	0.22703108
123	0x3ccaf69a	0.024775792
124	0x3e32a00f	0.1744387
125	0x3db5ca50	0.08876479
126	0x3e99912f	0.2999358
127	0x3e589f2d	0.2115447
128	0xbe3bc352	-0.18336228
129	0x3e6899e1	0.2271495
130	0x3e742174	0.23840886
131	0x3e7fa775	0.24966224
132	0xbdb08096	-0.08618276
133	0xbded7b28	-0.11595756
134	0x3cbb22d3	0.022843754
135	0x3dab2af1	0.083578
136	0x3eab4dde	0.33457845
137	0x3e7e8473	0.24855213
138	0x3e16d43e	0.14729401
139	0xbe569dbd	-0.2095861
140	0xbd2f77de	-0.042838924
141	0x3c2458fc	0.010030981
142	0xbe603189	-0.21893896
143	0x3e1228f1	0.1427343
144	0x3e1631a5	0.14667375
145	0xbe3b71ef	-0.18305181
146	0xbeae16a9	-0.34001663
147	0xbeabc694	-0.3354994
148	0x3e846e3c	0.25865352
149	0xbec0f59c	-0.37687385
150	0xbeaf77d8	-0.3427112
151	0xbd96c0e9	-0.073610134
152	0x3e74ca20	0.2390523
153	0x3cbce1ea	0.023056943
154	0x3ea20f77	0.31652424
155	0x3d8ebdd6	0.06969802
156	0xbc970cb4	-0.018438675
157	0x3db9c2a1	0.09070326
158	0x3d8d8045	0.06909231
159	0x3db83786	0.08994965
160	0x3e7c40b0	0.24634051
161	0x3e871215	0.26380983
162	0x3e05f7f6	0.13082871
163	0xbe71d419	-0.23616065
164	0x3e206f9d	0.15667577
165	0x3ec31035	0.38098302
166	0x3c74c7b8	0.014940195
167	0xbdbc7420	-0.092018366
168	0xbe56e4db	-0.20985739
169	0xbe34553f	-0.17610644
170	0xbe1afd7d	-0.1513576
171	0x3eb8544c	0.36001813
172	0x39e0352e	0.0004276423
173	0x3e94d66f	0.2906985
174	0xbb26993d	-0.0025420927
175	0x3d94d9d4	0.0726811
176	0x3ebdaa12	0.37043816
177	0x3d8caaf6	0.06868546
178	0x3ce7553b	0.028238883
179	0xbedcbc8c	-0.431126
180	0xbe5ff0f2	-0.21869257
181	0x3c022322	0.007942947
182	0xbe876651	-0.2644525
183	0xbd7d0ec9	-0.06178168
184	0x3d76fbee	0.060298853
185	0x3e97d355	0.2965342
186	0xbd956347	-0.07294326
187	0x3cedb278	0.029015765
188	0x3ea018ed	0.31269017
189	0xbe440a2c	-0.19144505
190	0xbe9af944	-0.302683
191	0x3eb09e0f	0.3449559
192	0xbd464dc1	-0.048413996
193	0x3d9c6414	0.07636276
194	0xbe923a11	-0.28559926
195	0x3ddc9052	0.107697144
196	0x3e2a90e3	0.16656832
197	0x3e6ddc5f	0.23228596
198	0xbe2f3b6c	-0.17112511
199	0x3ea7cc8d	0.32773247
200	0x3d5d6059	0.054046962
201	0xbe8019f6	-0.25019807
202	0xbe3de23f	-0.18543337
203	0xbdbd31f3	-0.09238043
204	0xbe627064	-0.22113186
205	0x3dde578c	0.10856542
206	0x3dca4430	0.09876287
207	0x3e4b4c20	0.19853258
208	0xbcb9e083	-0.022690063
209	0xbe09f9bb	-0.13474171
210	0x3e06f60e	0.131798
211	0x3db7c5c8	0.08973271
212	0x3ea8c1be	0.32960314
213	0xbea7df6c	-0.32787645
214	0xbe82443b	-0.2544268
215	0x3de833aa	0.11337979
216	0x3e13abd4	0.14421016
217	0x3e4bf27e	0.19916722
218	0x3e96dd64	0.29465783
219	0xbe7e4949	-0.24832644
220	0x3d966dff	0.07345199
221	0x3e3904a0	0.1806817
222	0xbe280b20	-0.16410494
223	0x3e34b889	0.1764852
224	0xbe5abdb9	-0.21361436
225	0xbdeccd83	-0.11562636
226	0xbce636a8	-0.028102234
227	0x3e72db09	0.23716368
228	0x3ebf8349	0.3740485
229	0x3ec33cec	0.38132417
230	0x3ce61a8b	0.028088829
231	0xbe3b17ac	-0.18270749
232	0xbc621023	-0.013797793
233	0x3e8dcccd	0.27695313
234	0xbe5aa838	-0.21353233
235	0x3d8ec5ba	0.06971307
236	0xbd066aec	-0.032816812
237	0xbe878da7	-0.2647526
238	0x3db453bc	0.088050336
239	0x3e5c3524	0.21504647
240	0xbe11340c	-0.1418001
241	0x3dd29c71	0.10283745
242	0xbd1ac746	-0.0377877
243	0x3d4685fd	0.048467625
244	0xb83cad3b	-4.4984026e-05
245	0xbe23876b	-0.15969627
246	0x3cc1074d	0.023563052
247	0xbe8c0f13	-0.2735525
248	0x3dbe117a	0.09280677
249	0xbdb9f534	-0.09079972
250	0xbe058a24	-0.13040978
251	0x3e9bba55	0.30415598
252	0xbde94703	-0.113904975
253	0x3dc83f26	0.097776696
254	0xbe98959f	-0.29801652
255	0xbe9cf5a7	-0.30656168

transformer_encoder.layers.0.linear2.weight f4 [6, 2048]
0	0xba713bcb	-0.000920233
1	0x3c4f29e8	0.012644269
2	0x3b863081	0.0040951376
3	0xbe818672	-0.25297886
4	0x3aa73ebe	0.0012759787
5	0x3c8c7549	0.01714577
6	0x3c72305b	0.014782037
7	0x3d2a3ae4	0.04156007
8	0xbbcc5984	-0.006236257
9	0xbe036c92	-0.12834385
10	0xbd7ed875	-0.06221815
11	0xbe208697	-0.15676342
12	0x3e63b524	0.22237068
13	0x3c415c73	0.011801827
14	0x3cc7a182	0.024369005
15	0xbe71eaed	-0.23624773
16	0x3d22978b	0.039695304
17	0x3dabaaa8	0.083821595
18	0xb9b8f7fa	-0.00035279972
19	0xbb554b18	-0.003254598
20	0x3c8cb9a5	0.017178366
21	0x3c823ee5	0.015899131
22	0x3b786c2f	0.003790628
23	0x3c62aadf	0.013834684
24	0x3960703a	0.00021404112
25	0x3c5544a0	0.01301685
26	0x3ca68840	0.020328641
27	0x3caa0f7c	0.020759337
28	0xbbcbb8b5	-0.006217087
29	0xbd0bdb8c	-0.034144923
30	0xbe16786e	-0.14694378
31	0xbd0c3fe1	-0.034240607
32	0x3c4ab502	0.012372257
33	0x3ccb0dfd	0.024786944
34	0x3caabb0d	0.020841146
35	0x3c9f7c2c	0.01946839
36	0xbd47a0e6	-0.04873743
37	0x3be46f9c	0.0069713127
38	0x3ae3ee24	0.0017389697
39	0xbdd4a695	-0.103833355
40	0xbdec8150	-0.11548102
41	0xbc0fd962	-0.008779855
42	0xbc191f5b	-0.009345855
43	0x3b62aef4	0.0034589143
44	0xbd0e7893	-0.034782957
45	0xbd203526	-0.039113186
46	0x3cd473c1	0.025934102
47	0xbdd66e0c	-0.104702085
48	0xbd05973f	-0.032614943
49	0xbc51b9ea	-0.012800673
50	0x3b191624	0.0023359144
51	0x3c563896	0.013075015
52	0xbda3d9b6	-0.080005094
53	0xbcb5f20e	-0.022210147
54	0x3cb9566a	0.022624213
55	0xbc62e7d9	-0.013849222
56	0xbdc04796	-0.09388654
57	0xbdeb92d4	-0.115026146
58	0xbc522773	-0.012826788
59	0x3b958161	0.0045625423
60	0x3c803902	0.015652183
61	0xbe15b808	-0.14620984
62	0x3c7f2af0	0.015574202
63	0xbd648fd2	-0.05580122
64	0x3a245739	0.00062691007
65	0x3cfae6b4	0.030627586
66	0x3a71b7e6	0.00092208234
67	0xbcd3af18	-0.025840327
68	0x3cb94057	0.022613687
69	0xbd2d6e95	-0.042341787
70	0x3c6f5d0f	0.014609589
71	0x3a46f69e	0.00075898494
72	0x3cbc8217	0.02301125
73	0xbe06d60d	-0.13167591
74	0x3d9462a2	0.07245375
75	0xbe1d25ae	-0.15346405
76	0xbcba4fcd	-0.02274313
77	0x3d080544	0.033208147
78	0x3cda1b77	0.026624424
79	0x3d9d6cb5	0.0768675
80	0xbba889ea	-0.0051433938
81	0x3d566167	0.052338984
82	0xbc855f45	-0.01628078
83	0x3b0ec311	0.002178375
84	0xbdca3dae	-0.09875046
85	0xbc9dd460	-0.019266307
86	0x3ce97fd3	0.028503334
87	0x3db21bde	0.086967215
88	0xbd93f9a6	-0.07225351
89	0xbcb14e19	-0.021643685
90	0xbd8213d2	-0.06351437
91	0xba2a085f	-0.0006486233
92	0x3cd606e1	0.026126327
93	0x3c0644af	0.008195086
94	0xbd983cfe	-0.07433508
95	0xbd96c234	-0.0736126
96	0xbb99e69a	-0.0046966793
97	0xbdc5cd24	-0.09658268
98	0x3cb6c843	0.02231229
99	0xbc978a32	-0.018498514
100	0xbcf15134	-0.029457666
101	0xbddc7c30	-0.107658744
102	0xbc501bb5	-0.012701918
103	0x3c7746da	0.015092576
104	0x3be9422a	0.007118483
105	0xbcaa198e	-0.020764139
106	0xbc870dde	-0.016486105
107	0x3bf57a3c	0.007491378
108	0x3e0c0907	0.13675319
109	0xbdb4c745	-0.0882707
110	0x3cbc3920	0.022976458
111	0xbdd9e862	-0.10640027
112	0xbcd7c94b	-0.026341101
113	0xbde5ca20	-0.11220193
114	0x3d37e497	0.044895735
115	0xbbbd5e1c	-0.005779041
116	0xbd91ce25	-0.07119397
117	0x3d6a7d63	0.057248484
118	0xbd56e822	-0.052467473
119	0xbd207793	-0.039176535
120	0x3c84b35b	0.016198805
121	0xbb43788c	-0.002982649
122	0xbc87fa23	-0.016598767
123	0xbc74a86c	-0.014932733
124	0xbc33aae7	-0.010966039
125	0xbbefa4b3	-0.007313335
126	0x3beeff26	0.0072935997
127	0x3e1b061a	0.15139046
128	0x3d4563bc	0.048190817
129	0xbbaf25bb	-0.005345074
130	0x3cba86d9	0.022769378
131	0x3c65b9f5	0.014021386
132	0x3b872c83	0.0041251793
133	0xbc9c8db1	-0.019110532
134	0x3d0cae4a	0.034345903
135	0xbbd3f88a	-0.006468837
136	0xbc1df4ef	-0.009640916
137	0x3c78e848	0.015192099
138	0x3c64d310	0.013966337
139	0xbba88e3a	-0.005143908
140	0xbd20b1be	-0.03923201
141	0x3c99d13b	0.018776527
142	0xbd7572ed	-0.059924055
143	0x3cc36123	0.02385003
144	0x3c8df0b2	0.017326687
145	0xbbd5d5c2	-0.006525726
146	0xbbae5c18	-0.005321037
147	0x3ce02a66	0.027363967
148	0xbcc6166f	-0.024180619
149	0x3c112e1e	0.008861093
150	0xbde134fc	-0.10996434
151	0xbc72ff6e	-0.014831407
152	0xbc243275	-0.0100217955
153	0xbd86a216	-0.06573884
154	0xbc4d2d5d	-0.0125230225
155	0x3acb1ba2	0.0015495906
156	0x3c8e9f70	0.01741001
157	0xba8adb13	-0.0010593854
158	0xbdb321ad	-0.087466575
159	0xbe75c584	-0.24001127
160	0x3cc335d7	0.023829384
161	0x3c031b32	0.008002089
162	0xbe24f561	-0.1610923
163	0x3d36f5bf	0.044667955
164	0xbe4832e1	-0.19550659
165	0x3c6fe2bd	0.014641461
166	0xbd5bc93c	-0.05365871
167	0xbccda47d	-0.025102848
168	0xbdc09a23	-0.09404399
169	0xbd6f4626	-0.05841651
170	0x3c9d80ba	0.01922642
171	0x3d025db0	0.03182763
172	0xbe140921	-0.14456607
173	0x3ca79770	0.020457953
174	0xbdc1e1a7	-0.09466868
175	0x3c9e8461	0.019350233
176	0x3c862eae	0.01637968
177	0x3e4e40fc	0.20141977
178	0xbe8da751	-0.27666715
179	0x3cb8f205	0.022576341
180	0xbc0cfadc	-0.008604731
181	0xbcd865be	-0.026415702
182	0xbc502a8c	-0.012705456
183	0x3c69065d	0.0142227085
184	0x3ceb33bf	0.028711198
185	0x3c3c8d0b	0.011508237
186	0x3cc5cdc2	0.024145965
187	0xbb6440a1	-0.003482856
188	0xbcfd7f1b	-0.030944398
189	0xbe0e84f5	-0.13917907
190	0x3c92fda1	0.017943205
191	0xbb7309ab	-0.003708462
192	0x3e126c7d	0.14299197
193	0xbd79c9b5	-0.06098338
194	0xbe0e369a	-0.13888016
195	0xbd16f3e7	-0.036853697
196	0x3b9efd25	0.0048519545
197	0xbd172d21	-0.036908273
198	0xbdba79f1	-0.0910529
199	0xbc278ab5	-0.010225941
200	0xbcfe4ce1	-0.031042518
201	0x3c875f2b	0.016524872
202	0x3976e188	0.00023544405
203	0x3d11a627	0.035558846
204	0x3c9f70fa	0.019463051
205	0xbcab269e	-0.020892438
206	0xbc8f3a8a	-0.017483968
207	0x3c2a20d3	0.0103838025
208	0x3ca11dac	0.019667469
209	0xbb4285a8	-0.0029681716
210	0xbe28ddc9	-0.16490854
211	0xbcd3e36f	-0.025865285
212	0xbc2923b0	-0.01032345
213	0xbdef6df6	-0.11690895
214	0x3e11aff1	0.14227273
215	0xbd142e30	-0.03617686
216	0xbc06e9df	-0.00823447
217	0xbbd984d0	-0.006638147
218	0xbdc4d40a	-0.09610756
219	0xbd41bd3a	-0.0472996
220	0x3cd228c6	0.025654208
221	0xbf037314	-0.5134747
222	0xbdfa5b55	-0.122244515
223	0xbdfa7bef	-0.1223067
224	0xbd317ca8	-0.043331772
225	0xba9e99dd	-0.0012100298
226	0x3c89b6a3	0.01681072
227	0x3cbc9762	0.023021404
228	0xba7573dd	-0.0009363273
229	0x3c3a71df	0.011379688
230	0xbd626a08	-0.0552769
231	0xbd138470	-0.036014974
232	0xbc068d55	-0.008212407
233	0x3c949e19	0.018141793
234	0x3d108f2d	0.035292793
235	0xbe33c6a9	-0.17556252
236	0x3b8168e9	0.003949274
237	0x3d10e794	0.0353771
238	0xbb3f27b3	-0.002916795
239	0xbb022006	-0.0019855513
240	0x3c74de0b	0.014945517
241	0xbde11875	-0.10990993
242	0xbdf6eeae	-0.12057243
243	0x39a9a544	0.00032357324
244	0x3b3c4ca6	0.002873221
245	0xbdb33a02	-0.087512985
246	0xbbb487f8	-0.005509373
247	0x3c3426f5	0.010995616
248	0xbc1f0d41	-0.00970775
249	0xbe4be1ae	-0.19910309
250	0x3be69888	0.007037226
251	0x3c834fd5	0.016029278
252	0xbe366ebc	-0.1781568
253	0x3c0e42cf	0.008682921
254	0x3d0a0ca6	0.03370347
255	0x39ebc451	0.0004496896

transformer_encoder.layers.0.linear2.bias f4 [6]
0	0xbc2eb25d	-0.010662642
1	0x3b7cab24	0.0038554156
2	0x3c1808da	0.009279454
3	0xbcacf9a3	-0.02111513
4	0xbcab4501	-0.020906927
5	0x3c46f60d	0.012143624

transformer_encoder.layers.0.norm1.weight f4 [6]
0	0x3f741a60	0.95352745
1	0x3f805a69	1.0027591
2	0x3f84cbc8	1.0374689
3	0x3f78371e	0.969591
4	0x3f8222c2	1.0166857
5	0x3f838113	1.0273765

transformer_encoder.layers.0.norm1.bias f4 [6]
0	0x3c03f773	0.008054602
1	0x3c72a641	0.014810146
2	0xbc16858a	-0.009187112
3	0xbd714bae	-0.058910064
4	0x3c186b32	0.009302901
5	0x3c5f415e	0.013626425

transformer_encoder.layers.0.norm2.weight f4 [6]
0	0x3f6e07e9	0.9298082
1	0x3f7e8112	0.99415696
2	0x3f857fd4	1.0429635
3	0x3f799d2d	0.97505456
4	0x3f8ef245	1.1167685
5	0x3f74361d	0.9539507

transformer_encoder.layers.0.norm2.bias f4 [6]
0	0xbbf5f089	-0.0075054807
1	0xba05445a	-0.00050837325
2	0x3b2027fe	0.00244379
3	0xbcae4344	-0.02127231
4	0x3d2d755c	0.04234825
5	0x3cd74d16	0.026281875

transformer_encoder.layers.1.self_attn.in_proj_weight f4 [18, 6]
0	0xbe805632	-0.25065762
1	0xbe234a8f	-0.1594641
2	0xbe08b57e	-0.13350484
3	0x3e2335c9	0.15938486
4	0x3e200e09	0.15630354
5	0xbdd33674	-0.103131205
6	0xbf05bdda	-0.52242815
7	0xbe97e344	-0.29665577
8	0x3e35c2d4	0.17750102
9	0x3f12361f	0.5711383
10	0xbdc8ba68	-0.09801179
11	0xbf168d69	-0.58809525
12	0xbc117a6b	-0.008879284
13	0xbe19b919	-0.15012015
14	0x3e5acc99	0.2136711
15	0xbe024e36	-0.12725148
16	0x3e81a0d3	0.25318012
17	0x3e9ce091	0.3064008
18	0xbe362dc6	-0.17790899
19	0xbe2cda96	-0.16880259
20	0xbe2d4150	-0.16919446
21	0xbe91dbb8	-0.28487945
22	0x3e3b6a52	0.18302277
23	0xbe0ec6f2	-0.13943079
24	0x3ebfc28d	0.37453118
25	0xbf232927	-0.6373467
26	0x3f0857a1	0.5325871
27	0x3ed98d9a	0.42490846
28	0x3ee9cc86	0.45663851
29	0x3de4a78a	0.11164768
30	0xbc6f4db4	-0.014605928
31	0x3d4c19ba	0.049829222
32	0x3d59d48d	0.05318122
33	0xbe6d39e1	-0.2316661
34	0xbe8f0e3d	-0.2794055
35	0xbf101af0	-0.56291103
36	0x3f0d5b8f	0.5521783
37	0x3ea2ebc9	0.31820515
38	0x3b85a624	0.0040786434
39	0x3f09095c	0.53529906
40	0x3e6e2a48	0.23258317
41	0x3e976ba1	0.29574302
42	0x3ed2ee2f	0.41197345
43	0x3ea73d55	0.3266398
44	0xbf0cfd69	-0.55074173
45	0xbe62db1e	-0.22153899
46	0xbde6d28f	-0.112706296
47	0x3eda4bab	0.42635855
48	0x3efb2f14	0.49059355
49	0x3d170954	0.03687413
50	0xbdd60298	-0.104497135
51	0x3eda5acf	0.42647406
52	0xbe67eb43	-0.22648339
53	0x3e4f07d2	0.20217827
54	0xbe611d72	-0.21983889
55	0x3db502fe	0.08838461
56	0x3df1a985	0.117999114
57	0xbed4042c	-0.41409433
58	0xbed3139b	-0.41225895
59	0x3d8f8471	0.07007683
60	0xbdc08a47	-0.09401374
61	0xbec26a48	-0.3797171
62	0x3efade67	0.48997805
63	0xbeb4b12c	-0.3529142
64	0x3ea8097c	0.32819736
65	0xbe6af882	-0.2294636
66	0x3da60536	0.08106463
67	0xbe8dc6cf	-0.2769074
68	0xbe8dcf39	-0.2769716
69	0x3e976b09	0.2957385
70	0x3ecc626f	0.3991885
71	0xbd8e03ee	-0.06934343
72	0x3e937af0	0.2880473
73	0xbf058604	-0.52157617
74	0x3f03e9bd	0.5152853
75	0xbe4d07b8	-0.20022476
76	0x3f1e33c4	0.6179774
77	0x3ed482a2	0.41505915
78	0x3e1c8056	0.15283331
79	0x3e6d3a3d	0.23166747
80	0xbe9d28cc	-0.30695188
81	0x3e2bcf19	0.1677822
82	0xbee6be73	-0.45067176
83	0xbeb2dafd	-0.349327
84	0xbed16096	-0.40894002
85	0xbea28aa7	-0.31746408
86	0xbe7481f6	-0.23877701
87	0xbe8c1596	-0.2736022
88	0xbec7cfe2	-0.3902579
89	0xbe5d1286	-0.21589097
90	0xbe34bc5a	-0.17649975
91	0xbe3dcaea	-0.18534437
92	0xbeb5037d	-0.35354224
93	0xbe3df1b9	-0.18549241
94	0x3ee4b9a8	0.44672894
95	0x3eba2291	0.36354497
96	0x3e87dcce	0.26535648
97	0xbe437fa8	-0.19091666
98	0xbea0c490	-0.31399965
99	0xbe63bb7a	-0.22239485
100	0x3ed28a97	0.4112136
101	0x3e38e803	0.18057255
102	0xbe57a683	-0.21059613
103	0xbe718020	-0.23584032
104	0x3d2c869e	0.04212057
105	0xbefcb94b	-0.49360117
106	0xbf2c5924	-0.6732352
107	0x3e8cf22c	0.27528512

transformer_encoder.layers.1.self_attn.in_proj_bias f4 [18]
0	0xbdccafec	-0.09994492
1	0xbcebf32f	-0.028802482
2	0xbd14b0a6	-0.036301278
3	0xbd629b0d	-0.05532365
4	0x3e108bc6	0.1411582
5	0x3d45f6a6	0.048330925
6	0xb990b588	-0.00027601072
7	0xbaa37774	-0.0012471513
8	0x38b52389	8.6373715e-05
9	0x37c9c310	2.40519e-05
10	0x38da3e0b	0.000104066065
11	0x390b0554	0.00013258058
12	0x3d27ce2a	0.040968098
13	0xbca70aa6	-0.02039082
14	0x3c837cce	0.016050722
15	0x3d28a168	0.041169554
16	0x3c6a4120	0.014297754
17	0xbba7bbdc	-0.00511883

transformer_encoder.layers.1.self_attn.out_proj.weight f4 [6, 6]
0	0x3d85f16f	0.065401904
1	0x3d017721	0.03160775
2	0xbd629d6c	-0.05532591
3	0xbe733b38	-0.23753059
4	0xbe93e4dd	-0.28885546
5	0x3db32f65	0.08749274
6	0x3e7bee66	0.2460266
7	0x3cdd356e	0.027003016
8	0xbe28e3bd	-0.16493125
9	0xbd864d2a	-0.065576866
10	0x3ed2ea75	0.41194502
11	0xbcb3ec74	-0.021963336
12	0xbeb3e49c	-0.35135353
13	0x3e02bbde	0.12766978
14	0xbe9d8c72	-0.30771214
15	0xbe36975b	-0.17831175
16	0x3e7e0fb2	0.24810675
17	0x3e0046fa	0.12527075
18	0x3eb35251	0.3502374
19	0xbe1bfa39	-0.15232171
20	0x3e647c2c	0.22312993
21	0x3e37d940	0.17953968
22	0xbebdf12d	-0.37098065
23	0x3e502095	0.20324929
24	0xbe5d7fa0	-0.21630716
25	0x3ee588b7	0.44830868
26	0x3e0a421b	0.1350178
27	0xbdefd031	-0.11709631
28	0xbe9d7882	-0.30756003
29	0x3ecf1a49	0.4044974
30	0x3d310c2a	0.04322449
31	0x3eae91a6	0.34095496
32	0xbe8b4c19	-0.27206495
33	0xbd8d41b5	-0.06897298
34	0x3ece33bb	0.40273842
35	0x3e8e1fdf	0.2775869

transformer_encoder.layers.1.self_attn.out_proj.bias f4 [6]
0	0xbd099891	-0.033592764
1	0x3ccce7e5	0.02501292
2	0xbc421f6b	-0.011848311
3	0x3bf9a0fd	0.0076180683
4	0x3a6bd4af	0.0008996231
5	0x3bd47df5	0.006484742

transformer_encoder.layers.1.linear1.weight f4 [2048, 6]
0	0x3e8f689b	0.28009495
1	0x3ea9233d	0.33034697
2	0xbd2f7ef2	-0.042845674
3	0xbec4a8ce	-0.38410038
4	0xbe44983b	-0.19198696
5	0x3e188b34	0.14896852
6	0xbe0d8b57	-0.13822685
7	0x3bfaadde	0.007650121
8	0xbd95db3a	-0.07317205
9	0xbe15e8c8	-0.1463958
10	0x3e7afee8	0.24511302
11	0xbe5d8612	-0.21633175
12	0xbe8bc936	-0.2730195
13	0xbedb8c63	-0.42880544
14	0x3ec99ce5	0.39377514
15	0x3e1a6c5b	0.15080397
16	0x3f0397f7	0.51403755
17	0xbde6eb4c	-0.11275348
18	0xbe3b3fe8	-0.18286097
19	0x3e75d5cb	0.24007337
20	0xbeb0addc	-0.34507644
21	0xbea46005	-0.32104507
22	0x3e64d7c8	0.22347939
23	0x3e07b748	0.1325351
24	0x3e0ac99f	0.13553475
25	0xbed405e6	-0.4141075
26	0x3eb7e67a	0.35918027
27	0x3e547bb5	0.20750315
28	0x3ecc29fc	0.39875782
29	0xbdcea555	-0.10090128
30	0x3eb7e3a0	0.35915852
31	0x3ea5c865	0.3237945
32	0xbe34531d	-0.1760983
33	0x3d9cde47	0.076595835
34	0x3e8839c2	0.26606566
35	0xbe3529a1	-0.17691661
36	0x3e5cd9d2	0.21567467
37	0x3d97b6dd	0.07407925
38	0xbd43d58d	-0.04781108
39	0x3e13dd19	0.14439811
40	0x3d79ce32	0.06098766
41	0xbe66d96d	-0.22543879
42	0xbc4fc486	-0.012681132
43	0x3e749c6c	0.23887795
44	0x3e770790	0.24123979
45	0xbee5b00a	-0.4486087
46	0xbe2a816a	-0.1665093
47	0x3e6cd6a1	0.2312875
48	0xbe07b3fc	-0.13252252
49	0xbeea4689	-0.4575694
50	0x3e303b95	0.17210229
51	0x3e78a394	0.2428115
52	0x3e8b1e7e	0.271717
53	0xbdfc901d	-0.12332175
54	0xbe779cbc	-0.24180883
55	0x3d1ae541	0.03781629
56	0x3ec9f587	0.39445135
57	0x3da415f5	0.080120005
58	0xbead4599	-0.3384216
59	0xbd6030c7	-0.054734018
60	0x3d99a41b	0.07502004
61	0x3e1e995b	0.15488188
62	0xbe76bf58	-0.2409643
63	0x3e373292	0.17890385
64	0xbb058b9d	-0.0020377405
65	0x3e6ff7ed	0.2343442
66	0xbe07c62f	-0.13259195
67	0x3eb0489d	0.344304
68	0xbeb2f3a3	-0.34951505
69	0xbed7608d	-0.4206585
70	0xbe382d0c	-0.17985934
71	0x3e635471	0.2220018
72	0x3e6c10c9	0.23053278
73	0xbd80e734	-0.062940985
74	0xbe3c79f5	-0.18405898
75	0xbdc20390	-0.09473336
76	0x3ecc3d31	0.39890435
77	0x3d82ad4f	0.06380712
78	0x3e90fd3a	0.28318197
79	0xbe91ae4f	-0.284533
80	0x3e899af2	0.26876026
81	0x3e1535cf	0.14571308
82	0x3e9233dd	0.28555194
83	0xbe35168c	-0.17684382
84	0x3e23582b	0.15951602
85	0xbe9e0427	-0.30862543
86	0xbe76c234	-0.2409752
87	0x3ec6b57b	0.38810334
88	0x3a8273fe	0.0009952781
89	0x3d226256	0.03964456
90	0x3e313b7a	0.17307845
91	0x3e939fa6	0.2883274
92	0xbe3b88f5	-0.18313964
93	0xbd8381eb	-0.06421264
94	0x3e02b16c	0.12762994
95	0x3ec34fcd	0.3814682
96	0xbdda02d5	-0.106450714
97	0xbdf7b63a	-0.12095304
98	0xbe63a44d	-0.22230645
99	0xbe02e9a4	-0.1278444
100	0x3e1ef4d8	0.15523088
101	0xbec31d6c	-0.38108385
102	0x3e6a07c3	0.22854523
103	0x3ec461ac	0.38355768
104	0x3e07d596	0.1326507
105	0xbe9168fa	-0.28400403
106	0xbe9a4ff3	-0.3013912
107	0x3ecaa13f	0.39576146
108	0xbea4373e	-0.32073396
109	0x3e7ded02	0.24797443
110	0x3e932640	0.2874012
111	0xbe29b29c	-0.1657204
112	0x3ec7b840	0.3900776
113	0xbdbca6ce	-0.09211503
114	0x3e57d15a	0.21075955
115	0xbe5214fd	-0.20515819
116	0x3e055d0e	0.13023779
117	0xbe7f0e93	-0.24907903
118	0x3e25690d	0.16153355
119	0x3ec534fc	0.38516986
120	0x3ea53511	0.3226705
121	0x3e65f717	0.22457539
122	0x3eb2b1f0	0.3490138
123	0xbe27b1d0	-0.16376424
124	0x3e638918	0.22220266
125	0xbea3ea3f	-0.32014653
126	0x3e6c0530	0.23048854
127	0xbe3e4ef2	-0.18584803
128	0xbeac998c	-0.33710897
129	0xbe33bb39	-0.17551889
130	0x3d9a58a2	0.075364366
131	0xbda5c4c1	-0.080941685
132	0x3e8cc342	0.2749272
133	0x3eb6e089	0.35718182
134	0x3eb19101	0.34680942
135	0xbe822d56	-0.25425214
136	0x3df1515e	0.11783098
137	0x3ed0b570	0.40763426
138	0x3da13ac5	0.078725375
139	0x3eb56241	0.35426524
140	0xbea9e054	-0.3317896
141	0x3e953819	0.29144362
142	0x3ed3635a	0.41286737
143	0xbd27be33	-0.040952872
144	0x3d453fd7	0.048156586
145	0x3eb56c04	0.35433972
146	0xbe0836bd	-0.13302131
147	0x3ea539d3	0.3227068
148	0xbd30e8c4	-0.043190733
149	0x3e3a3202	0.18183139
150	0x3e517f11	0.20458628
151	0x3e4efb0c	0.20212954
152	0xbd4bb09f	-0.049728986
153	0xbea75b41	-0.3268681
154	0xbe12c519	-0.14333
155	0x3e78d451	0.24299742
156	0x3eaf3ffb	0.342285
157	0x3e6903d6	0.2275537
158	0xbe70b071	-0.23504807
159	0x3ecd310a	0.40076476
160	0xbd1260bf	-0.035736796
161	0xbd4e5179	-0.050370667
162	0x3eb259b4	0.34834063
163	0xbec8c72e	-0.39214462
164	0x3e3c7d13	0.18407087
165	0x3e1aec45	0.15129192
166	0x3e87b2aa	0.26503497
167	0xbe0473bf	-0.12934779
168	0x3df6ac58	0.12044591
169	0xbe065d7c	-0.13121599
170	0x3eb5c93f	0.355051
171	0x3e88b092	0.26697212
172	0xbd6638cd	-0.056206513
173	0x3ed87efb	0.42284378
174	0xbea59b89	-0.32345226
175	0xbe7b9338	-0.24567878
176	0x3ed9554e	0.42447895
177	0xbeac388c	-0.33636892
178	0x3dd97b4f	0.106192224
179	0x3e192b4c	0.14957923
180	0xbca5ba9b	-0.020230582
181	0x3e0e5e1a	0.13903084
182	0x3df86efa	0.12130542
183	0xbdb662c9	-0.089055605
184	0xbe290c04	-0.1650849
185	0xbec35f2d	-0.3815855
186	0xbebacd81	-0.36484912
187	0xbedc6854	-0.43048346
188	0x3d0aabbf	0.033855196
189	0xbe6c7c8e	-0.23094389
190	0xbc983b01	-0.018582823
191	0x3da285ab	0.079356514
192	0x3d0d2dd5	0.034467537
193	0xbe64c5d2	-0.22341087
194	0xbdbe86e6	-0.093030736
195	0x3e0f4aaf	0.13993333
196	0xbe55dcfd	-0.20885082
197	0xbe476a37	-0.19474111
198	0xbebc6f38	-0.36803603
199	0xbe815597	-0.25260612
200	0x3ceecc3c	0.02915012
201	0x3e70ebbe	0.23527429
202	0xbe7a9bb4	-0.24473459
203	0xbeb35902	-0.35028845
204	0x3ec2fe04	0.38084424
205	0xbda7d86b	-0.08195575
206	0xbebd1e28	-0.3693707
207	0x3e2b1465	0.16706999
208	0xbe41c0b2	-0.18921164
209	0x3e7a33fe	0.24433896
210	0xbe19d4a9	-0.1502253
211	0xbea9751f	-0.3309717
212	0xbebe350f	-0.37149855
213	0x3e2d4376	0.16920266
214	0xbe8337f9	-0.2562864
215	0x3d8a084e	0.06739865
216	0x3e623ff6	0.22094712
217	0xbdfcde66	-0.12347107
218	0x3dcbf782	0.09959318
219	0xbea8285e	-0.32843298
220	0x3c9bd003	0.019020086
221	0xbe695410	-0.22785974
222	0x3e482b2d	0.1954772
223	0xbdf12946	-0.117754504
224	0x3d77558c	0.06038432
225	0x3ebeb6ab	0.3724874
226	0x3e6f05e7	0.23342095
227	0x3ec5cb3b	0.38631615
228	0xbd1a140e	-0.037616782
229	0x3d4f38b6	0.050591193
230	0x3e822c64	0.25424492
231	0x3e8c94a4	0.27457154
232	0x3ec4fc06	0.3847353
233	0xbe21b6e1	-0.15792419
234	0x3d38bba6	0.04510083
235	0xbe4c8e97	-0.19976269
236	0x3e524243	0.2053309
237	0xbdfcbaf0	-0.12340343
238	0xbe12a35e	-0.14320132
239	0x3e863dde	0.26219076
240	0xbebe5057	-0.3717067
241	0x3e734af3	0.2375906
242	0xbe8e9b0d	-0.2785267
243	0xbecf450e	-0.40482372
244	0x3ddf002c	0.10888705
245	0xbea0c20d	-0.3139805
246	0xbdac05a7	-0.083995156
247	0x3e975db4	0.29563677
248	0xbe29664b	-0.16542928
249	0x3e9d31f4	0.30702174
250	0xbe501796	-0.20321497
251	0xbeb5101a	-0.35363847
252	0xbe5d9144	-0.21637446
253	0xbeeaba0f	-0.45845076
254	0x3e3544e2	0.17702058
255	0xbeb54f4f	-0.3541207

transformer_encoder.layers.1.linear1.bias f4 [2048]
0	0x3e23cb39	0.15995492
1	0xbcf48ab1	-0.02985129
2	0x3ea15505	0.31510177
3	0x3e9c7dc1	0.30564693
4	0xbe490916	-0.19632372
5	0x3df094a1	0.11747099
6	0x3ea05ba6	0.31319922
7	0x3de84f44	0.11343244
8	0xbec03f1e	-0.37548155
9	0xbed60db7	-0.4180734
10	0xbeac94e1	-0.33707336
11	0xbdc30539	-0.095224805
12	0x3e7d6adf	0.247478
13	0x3df89bf5	0.121391214
14	0xbdde981d	-0.10868857
15	0xbdcc2643	-0.09968235
16	0xbe41401b	-0.1887211
17	0xbec07014	-0.3758551
18	0x3da22588	0.07917315
19	0xbe744d3d	-0.23857589
20	0x3e08adcc	0.13347548
21	0x3e9d9217	0.3077552
22	0xbd882022	-0.06646754
23	0x3e39b618	0.1813587
24	0xbe128390	-0.14308
25	0xbe0445b8	-0.1291722
26	0xbe2d09b0	-0.16898227
27	0x3dc2edfd	0.09518049
28	0x3e973640	0.29533577
29	0xbe6971c7	-0.22797309
30	0xbdd1f895	-0.102524914
31	0x3ea4606b	0.3210481
32	0xbd8158e0	-0.0631578
33	0x3e0bf285	0.13666733
34	0x3eafe0d4	0.34351218
35	0x3e988c37	0.29794475
36	0xbeb2e873	-0.3494297
37	0x3e46fd56	0.19432577
38	0xbe975900	-0.2956009
39	0x3ebb9c9a	0.36642915
40	0x3eb2da5c	0.3493222
41	0xbe2a56a2	-0.1663461
42	0xbced28cb	-0.028950116
43	0x3d9ca427	0.07648497
44	0xbe12e4ec	-0.1434514
45	0xbb6ecc05	-0.0036437523
46	0x3cc623c6	0.02418698
47	0x3e4694d9	0.19392718
48	0xbe0620e3	-0.13098483
49	0x3ea47e64	0.32127678
50	0xbe3114ee	-0.1729314
51	0x3e16daec	0.1473195
52	0xbe5d38b3	-0.2160366
53	0xbe476506	-0.19472131
54	0x3e9eca2e	0.31013626
55	0xbe1aa980	-0.15103722
56	0x3e6a3edb	0.2287554
57	0xbeb7fb3f	-0.35933873
58	0x3e0330a7	0.12811528
59	0xbe063b57	-0.13108574
60	0x3cfa1869	0.030529218
61	0xbeb2e8f9	-0.3494337
62	0xbd59f67d	-0.053213585
63	0x3e3a7566	0.18208846
64	0x3e8fcf96	0.28088063
65	0xbd9b5ff1	-0.07586659
66	0xbdf0ed91	-0.11764062
67	0x3da7161a	0.081585124
68	0x3eadffe3	0.3398429
69	0xbe81482c	-0.25250375
70	0xbea1a5cb	-0.31571802
71	0xbe8781ac	-0.2646612
72	0xbea77799	-0.32708433
73	0xbeb3ac7c	-0.35092533
74	0xbe8ae4cf	-0.27127692
75	0xbbe48176	-0.0069734408
76	0x3e229ce7	0.15880166
77	0xbe85bcc1	-0.2612057
78	0xbed0f20e	-0.40809673
79	0xbe9c45b7	-0.30521938
80	0xbeae56f0	-0.34050703
81	0xbebf93ba	-0.37417394
82	0x3e1008e1	0.14065887
83	0x3e5c9a05	0.21543129
84	0x3e70830b	0.23487489
85	0x3c878a57	0.016545458
86	0xbd6a5d64	-0.05721797
87	0xbe68eb28	-0.22745955
88	0x3e097108	0.13422024
89	0xbde26416	-0.11054246
90	0xbd9c6b5e	-0.07637666
91	0xbe33cfff	-0.17559813
92	0x3dd52944	0.104082614
93	0xbea907c2	-0.3301373
94	0xbd0eb417	-0.034839716
95	0x3e043443	0.12910561
96	0xbd4e14e4	-0.05031289
97	0xbe8635fc	-0.26213062
98	0x3cbf0c09	0.023321168
99	0x3e0f540e	0.13996908
100	0xbe421959	-0.18954982
101	0xbe44f6aa	-0.1923472
102	0x3e9f02e4	0.31056893
103	0x3d305f23	0.04305948
104	0xbeb3c96a	-0.35114604
105	0x3e911a43	0.2834035
106	0x3e613703	0.21993642
107	0x3e8e028b	0.27736315
108	0xbdb7589c	-0.08952448
109	0xbe80b671	-0.25139192
110	0x3e578683	0.21047406
111	0x3e0ee714	0.13955337
112	0xbeb24fad	-0.34826413
113	0x3e22b8ee	0.15890858
114	0xbdcbba0f	-0.09947597
115	0x3e703add	0.23459955
116	0xbeacfe06	-0.33787555
117	0xbe749b1f	-0.23887299
118	0xbe37c7b8	-0.1794728
119	0xbe748ca2	-0.23881772
120	0x3e8ef970	0.2792468
121	0x3eb1e80a	0.34747344
122	0x3e8d759b	0.27628788
123	0xbc9c693f	-0.019093154
124	0x3e4f5f9a	0.20251313
125	0x3db6d708	0.08927733
126	0x3e9f1443	0.31070146
127	0x3e8975f8	0.26847816
128	0xbdcd1f55	-0.10015742
129	0x3e385a89	0.18003286
130	0x3e8521c7	0.26002333
131	0x3ea5b101	0.32361606
132	0xbd9edc43	-0.07756855
133	0xbdae99e4	-0.08525446
134	0x3c8363d5	0.016038815
135	0x3ded1811	0.11576856
136	0x3ea9ff15	0.33202425
137	0x3e7b9062	0.24566796
138	0x3df729b1	0.12068499
139	0xbe5af225	-0.21381433
140	0xbdea23ff	-0.11432647
141	0x3d5cc5ba	0.053899504
142	0xbe3f4546	-0.1867877
143	0x3e3ae610	0.18251824
144	0x3e15c100	0.14624405
145	0xbe2f3e00	-0.17113495
146	0xbeb08c04	-0.34481823
147	0xbee8ea01	-0.4549103
148	0x3d9dee70	0.07711494
149	0xbec35d00	-0.3815689
150	0xbe9e3b52	-0.30904633
151	0xbe81d3cd	-0.25356904
152	0x3e7f0027	0.24902402
153	0xbe0ac8e3	-0.13553195
154	0x3e9fc4ad	0.3120474
155	0x3d8a93b3	0.06766453
156	0xbd75965b	-0.059957843
157	0x3dc92707	0.09821897
158	0x3b72a6fd	0.0037025802
159	0xbdd92890	-0.1060344
160	0x3e563e7f	0.20922278
161	0x3e9c1c1d	0.304902
162	0xbd8e6125	-0.069521226
163	0xbea5a979	-0.3235586
164	0xbd550123	-0.052003037
165	0x3eca5c53	0.39523563
166	0xbd04c182	-0.032411106
167	0xbe109654	-0.14119846
168	0xbe8c0da7	-0.27354166
169	0xbe0d4c36	-0.13798603
170	0xbe21b56d	-0.15791865
171	0x3eb1e41f	0.34744355
172	0xbe04ec27	-0.1298071
173	0x3eafc2fd	0.34328452
174	0xbd8f42be	-0.06995152
175	0x3dc0b125	0.09408788
176	0x3ec97028	0.3934338
177	0x3cd793b4	0.026315548
178	0xbe350ef1	-0.17681481
179	0xbe8e48eb	-0.27790007
180	0xbe6270da	-0.22113362
181	0xbcdb583c	-0.026775472
182	0xbe8ee942	-0.27912337
183	0xbd758cf1	-0.059948865
184	0x3c06db41	0.008230985
185	0x3eb86df9	0.36021402
186	0xbce9a454	-0.02852074
187	0x3cfb12a6	0.03064854
188	0x3e787d1b	0.24266474
189	0xbe8e00e9	-0.2773507
190	0xbe967ed3	-0.29393634
191	0x3ec7cfc5	0.39025703
192	0xbddb42f5	-0.107061304
193	0xbd223100	-0.03959751
194	0xbed73cef	-0.42038676
195	0xbbc2a846	-0.00594047
196	0x3e64b349	0.22334017
197	0x3e7fef87	0.24993716
198	0xbe596e90	-0.21233582
199	0x3ec52394	0.38503706
200	0xbd123091	-0.035690848
201	0xbe579014	-0.21051055
202	0xbe2c08d1	-0.16800238
203	0xbe084738	-0.13308418
204	0xbe9527e4	-0.29131997
205	0x3e03ae7c	0.1285953
206	0x3e036d1e	0.12834594
207	0x3e2c1a18	0.16806829
208	0xbcdbcd65	-0.026831338
209	0xbdb256d0	-0.087079644
210	0xbd8120b1	-0.063050635
211	0x3db4704a	0.0881048
212	0x3e9eaf46	0.30993098
213	0xbebd573b	-0.36980614
214	0xbeb79b14	-0.35860503
215	0x3e0a2c9b	0.13493578
216	0x3e2f516e	0.17120907
217	0x3e83b907	0.25727102
218	0x3e9e9e10	0.30979967
219	0xbea66856	-0.32501477
220	0x3e0572d2	0.13032082
221	0x3d2d9674	0.04237981
222	0xbe467b59	-0.19382991
223	0x3df58846	0.11988883
224	0xbe3b5de1	-0.1829753
225	0xbdc2e11a	-0.09515591
226	0xbe54a15e	-0.20764682
227	0x3e44a5bf	0.19203852
228	0x3eb71d8d	0.35764733
229	0x3ecf90b0	0.40540075
230	0xbd9e482c	-0.077286094
231	0xbe8cc3e7	-0.27493212
232	0xbbdd70eb	-0.0067578456
233	0x3e934e67	0.28770754
234	0xbd8d8878	-0.06910795
235	0xbd7f1bcf	-0.06228238
236	0xbd636109	-0.05551246
237	0xbe7c0ea4	-0.2461496
238	0x3de8eee3	0.11373689
239	0x3e696d35	0.22795565
240	0xbe06a49e	-0.13148734
241	0xbde75448	-0.11295372
242	0xbe0b32d5	-0.1359361
243	0x3da8341d	0.08213065
244	0xbdb3f5bf	-0.08787107
245	0xbe18f4d4	-0.14937145
246	0x3e066955	0.13126118
247	0xbe7d2ad1	-0.24723364
248	0x3e10bb49	0.14133944
249	0xbe6c40bf	-0.23071574
250	0xbe21fa99	-0.15818252
251	0x3e916c30	0.28402853
252	0xbe288fdf	-0.16461132
253	0x3d82ea3f	0.06392335
254	0xbea08d74	-0.3135792
255	0xbe88ecf6	-0.26743287

transformer_encoder.layers.1.linear2.weight f4 [6, 2048]
0	0xbb7be92c	-0.0038438542
1	0xbcedd1b0	-0.02903065
2	0xbd2d76ca	-0.042349614
3	0xbc940101	-0.018066885
4	0xbc2cd817	-0.010549567
5	0xb89bdfbb	-7.432649e-05
6	0x3ca511f4	0.020150162
7	0xbc83e34b	-0.016099593
8	0xbd912b28	-0.070883095
9	0x3d75059b	0.0598198
10	0x3d53cf42	0.05171133
11	0x3d2ed4c3	0.042683374
12	0xbc936c57	-0.017995996
13	0x3c013e31	0.007888363
14	0x3d49878f	0.049201544
15	0x3d2c38fd	0.042046536
16	0xbd1d49ec	-0.038400576
17	0xbcd829bf	-0.026387094
18	0xbd0ef911	-0.034905497
19	0xbd1a450f	-0.037663516
20	0x3c69fcb9	0.014281445
21	0x3c665d41	0.014060319
22	0xbd25b933	-0.040459823
23	0x3c8bfc02	0.01708794
24	0x3d23d904	0.040001884
25	0xbc1e66b7	-0.009668044
26	0x3cdf8d68	0.027289107
27	0x3bcdfebc	0.00628647
28	0x3d4e317e	0.05034017
29	0xbd38b273	-0.045092057
30	0x3b817c8c	0.0039516147
31	0xbd45bcf9	-0.04827592
32	0x3d09877f	0.033576485
33	0x3d77f401	0.060535435
34	0x3d5482ad	0.051882435
35	0x3d532980	0.05155325
36	0xbcbb2ec8	-0.022849455
37	0x3d415c3c	0.047207102
38	0xbd282c22	-0.041057713
39	0x3c27ef98	0.010249995
40	0x3b91603a	0.00443652
41	0x3c93b3cf	0.018030075
42	0x3d08c143	0.033387434
43	0x3cb34d30	0.021887392
44	0x3d889703	0.06669428
45	0x3dfcdc45	0.123467006
46	0xbdc9cf71	-0.098540194
47	0xbd66353d	-0.056203116
48	0xbcf015ce	-0.029307272
49	0xbc960972	-0.01831505
50	0x3dc6594d	0.096850015
51	0xbbc56456	-0.006023924
52	0x3c36f0d9	0.011165821
53	0x3cbb1824	0.02283866
54	0x3cdebe8d	0.027190471
55	0xbd4a9c9e	-0.049465768
56	0x3da27886	0.07933144
57	0x3d08983a	0.0333483
58	0x3c7641ec	0.015030365
59	0x3a52e796	0.0008045373
60	0x391e4fce	0.00015097784
61	0x3da8e2b1	0.08246363
62	0x3c1dc812	0.00963022
63	0x3d054b7d	0.032542694
64	0x3c7df531	0.015500353
65	0xbcfe2362	-0.031022731
66	0x3c061646	0.008184021
67	0xbcb45acc	-0.022015952
68	0xbcdc7cac	-0.026914917
69	0xbc4a246a	-0.012337783
70	0x3cbbbeac	0.022918068
71	0xbca5ab4c	-0.020223282
72	0x3cf13dc9	0.029448407
73	0x3cc3eb3f	0.023915885
74	0x3c5fb4d5	0.013653954
75	0xbc30ef7a	-0.010799283
76	0x3d0162c5	0.031588335
77	0x3c9f527b	0.01944851
78	0xbb7fc8a7	-0.003902951
79	0x3e03f62d	0.12886877
80	0x3de87471	0.113503344
81	0xbb8862d1	-0.0041621705
82	0x3de6271a	0.11237927
83	0xbc83fc88	-0.016111627
84	0xbcc1b4a7	-0.023645712
85	0x3cd6f288	0.026238695
86	0xbe176f58	-0.14788568
87	0x3d75c192	0.059999056
88	0xbd08e8ba	-0.03342507
89	0xbc969717	-0.018382592
90	0x3c8092ed	0.01569506
91	0x3d0dc429	0.0346109
92	0x3d85baa0	0.065297365
93	0x3b4ea403	0.0031530864
94	0x3cb78947	0.022404326
95	0xbd6c5b80	-0.05770445
96	0x3da15c47	0.07878929
97	0xbd0a1602	-0.033712395
98	0x3c0d1a5e	0.008612243
99	0xbc3f85a5	-0.011689578
100	0x3cdbf0fe	0.026848312
101	0x3c4f70f0	0.012661204
102	0xbd35701c	-0.04429637
103	0x3b9d649c	0.0048032533
104	0x3cb5aa93	0.022176063
105	0xbc71f573	-0.014767992
106	0x3e081058	0.13287485
107	0x3d40cb48	0.047068864
108	0xbd02b2fe	-0.03190898
109	0xbcd676a5	-0.026179621
110	0x3d26372d	0.040579963
111	0xbbda366b	-0.006659319
112	0xbce89eb6	-0.028395992
113	0x3c6107da	0.013734782
114	0xbd461c3a	-0.048366763
115	0xbc12c1ad	-0.008957309
116	0xbb16c602	-0.0023006205
117	0x3b286d32	0.002569985
118	0xbe2ae3bc	-0.16688436
119	0xbd775e4e	-0.06039267
120	0x3d774dd8	0.060376972
121	0x3d0b85f5	0.0340633
122	0xbde7dce7	-0.11321431
123	0x3d060c18	0.032726377
124	0xbbc6c523	-0.006065981
125	0xbd0884c7	-0.03332975
126	0x3cc94f78	0.024574026
127	0x3d251351	0.040301625
128	0x3c51f73a	0.012815291
129	0xbca1c277	-0.019746048
130	0x3d7d7e7b	0.0618882
131	0x3d1bcb41	0.038035635
132	0x3cf2f571	0.029658051
133	0x3dba4066	0.09094314
134	0x3bac97f6	0.0052671386
135	0x3cb960c5	0.022629151
136	0x3d0c6f8b	0.034286063
137	0x3d2f8f07	0.04286101
138	0xbc7b6360	-0.015343517
139	0x392243f4	0.00015474838
140	0x3d10850b	0.03528313
141	0xbd3d4799	-0.04621086
142	0xbd6d08dc	-0.057869777
143	0xbb49ef47	-0.0030812786
144	0x3cf718b3	0.030163145
145	0x3af9ee21	0.001906816
146	0x39059027	0.0001273757
147	0x3c969aac	0.0183843
148	0xbcb8d9a1	-0.022564711
149	0xb9c6992a	-0.0003787962
150	0xba52afac	-0.00080370414
151	0xbb7fd327	-0.0039035769
152	0x3d24f230	0.04027003
153	0x3baf822f	0.0053560953
154	0x3c998711	0.018741162
155	0x3d290388	0.041263133
156	0x3bcb9b75	0.0062136003
157	0xb889a85d	-6.564029e-05
158	0xbc4bade9	-0.0124316
159	0x3c1d5b6e	0.009604318
160	0x3d503127	0.050828125
161	0x3d143d87	0.03619149
162	0x3cbd5cbc	0.023115508
163	0xbb1b61d9	-0.0023709445
164	0x3d5e83b3	0.054324817
165	0x3d675e27	0.056486275
166	0xbcd87394	-0.0264223
167	0xbd650ee2	-0.055922396
168	0x3c124225	0.008926903
169	0xbd7cb9c1	-0.061700586
170	0x3cd87802	0.026424412
171	0x3c817d9b	0.015806964
172	0x3defb378	0.11704153
173	0x3d0385ec	0.03211014
174	0xbbe9d9a1	-0.007136539
175	0x3d137b65	0.03600635
176	0x3d446d77	0.047955956
177	0x3d315428	0.04329315
178	0x3c2bcf87	0.01048649
179	0xbdb2e70f	-0.08735477
180	0x3d34f948	0.044183046
181	0xbbe2ebdd	-0.0069250898
182	0xbd16a6a5	-0.03678002
183	0x3ba41781	0.0050076847
184	0x3c6303f9	0.013855928
185	0x3d40413f	0.046937224
186	0x3b27ff28	0.0025634263
187	0x3c7c04b3	0.01538198
188	0x3d8e5ab3	0.06950893
189	0x3d0589eb	0.032602232
190	0x3cccdc22	0.025007311
191	0x3cf01de9	0.029311137
192	0x3de2a7b5	0.11067144
193	0xbce17064	-0.027519412
194	0xbc76df3d	-0.015067873
195	0x3d0f1a3a	0.03493712
196	0x3cbd7172	0.023125384
197	0xbb1f3c59	-0.0024297445
198	0x3d9b8fb7	0.07595771
199	0x3c929845	0.017894873
200	0x3c2cadfe	0.01053953
201	0x3c838dc0	0.016058803
202	0xbcfbfba3	-0.030759638
203	0x3cb3795a	0.02190845
204	0xbd931924	-0.071825296
205	0x3cece222	0.028916422
206	0x3c549e45	0.0129771875
207	0x3c8d9eef	0.0172877
208	0x3be09a4c	0.006854331
209	0x3d8ba942	0.06819393
210	0x3d76306a	0.060104765
211	0xbcd34726	-0.025790762
212	0x3b899078	0.00419813
213	0xbc506c3d	-0.0127211185
214	0x3d559bd1	0.05215055
215	0xbd326b53	-0.043559384
216	0x3c052bd5	0.008128126
217	0xbdd9b456	-0.106300995
218	0xbdeb1e5e	-0.114804015
219	0xbcff922b	-0.031197628
220	0x3d1d99fc	0.03847693
221	0x3dad7920	0.084703684
222	0xbbba38bc	-0.005683033
223	0x3d37e7b9	0.044898722
224	0xbe203771	-0.15646149
225	0xbc61fcde	-0.013793198
226	0x3c80c3a2	0.015718285
227	0x3d236eb5	0.0399005
228	0x3bca50b3	0.006174171
229	0x3d0f7f13	0.035033297
230	0x3bf823c0	0.007572621
231	0x3d37831a	0.044802763
232	0x3c785362	0.015156599
233	0x3d4b1f50	0.04959041
234	0xbd78e1c7	-0.060762193
235	0x3e07dcef	0.13267873
236	0x3d61caf8	0.055125207
237	0xbd87b004	-0.06625369
238	0x3b3f3942	0.0029178415
239	0x3bb7962a	0.0056026177
240	0xbd581c81	-0.05276156
241	0x3d69346e	0.056934766
242	0x3d0f19eb	0.034936827
243	0x3ceba1e5	0.02876372
244	0xbd3d6553	-0.04623921
245	0x3cf7e582	0.030260805
246	0xbd2822bb	-0.041048747
247	0x3cc457f9	0.02396773
248	0x3cf6aa42	0.030110482
249	0xbbb05c68	-0.0053821094
250	0xbbdfb240	-0.006826669
251	0x3d9095ac	0.07059798
252	0x3e471181	0.19440271
253	0x3d98c69e	0.07459758
254	0x3c939777	0.01801656
255	0x3d9d6fe6	0.076873586

transformer_encoder.layers.1.linear2.bias f4 [6]
0	0x3bf9f87e	0.0076284995
1	0xba6fb5d3	-0.00091442204
2	0x3c4fcf22	0.012683662
3	0xbccfdf99	-0.025375174
4	0xbcc59030	-0.024116606
5	0x3bec2371	0.0072063734
