DU_model/Transformer/best_model_combined4_tr.3.32.pth (torch, 425158 bytes, 29 tensors)

norm.weight f4 [6]
1.0 1.0 1.0 1.0 1.0 1.0
00000000: 0000 803f 0000 803f 0000 803f 0000 803f
00000010: 0000 803f 0000 803f

norm.bias f4 [6]
0.0 0.0 0.0 0.0 0.0 0.0
00000000: 0000 0000 0000 0000 0000 0000 0000 0000
00000010: 0000 0000 0000 0000

transformer_encoder.layers.0.self_attn.in_proj_weight f4 [18, 6]
-0.014328398 -0.48644665 -0.018096246 -0.14990157 -0.25352606 -0.41413534 -0.3177241 -0.11172711
-0.25766307 0.12695386 -0.25792348 -0.28223994 -0.25395358 -0.3452002 -0.3564436 -0.23246318
-0.03251293 0.24868838 0.2491348 -0.33972588 0.0025290796 -0.1428616 0.09207748 0.4621226
0.3656211 -0.06385625 0.24833135 -0.21249071 -0.5247829 0.057373025 0.0522629 0.49542296
-0.20387906 -0.29558584 -0.017611057 0.034074187 -0.22446924 0.19813308 0.20679669 -0.4933403
0.29789194 -0.21265873 0.3497698 0.21193288 -0.21078204 0.43233314 -0.2120695 0.099997215
-0.36343467 -0.37767977 0.20268503 -0.38396773 -0.067977935 0.004594439 0.45127183 -0.37818128
0.23032773 0.18709333 -0.23595703 -0.0046345517 0.23178537 -0.474958 -0.12966289 0.27517954
-0.26005802 0.27158466 -0.42941055 -0.46742404 0.43424526 -0.38373333 -0.3492435 -0.23941846
-0.639308 0.370338 -0.01867776 0.11530036 -0.2944832 -0.5690829 -0.6171349 -0.30285326
-0.6171066 0.09595502 -0.14955239 0.1024982 0.06732529 0.2953323 -0.50595474 -0.38472468
-0.49156007 0.12332604 0.8552456 0.3588462 0.113943376 -0.31154975 0.03299771 1.0517638
-0.72121805 -0.29983056 -0.6308872 0.35341877 -0.5424653 -0.56346023 0.7247318 -0.74365276
-0.994447 0.42570612 -0.6773193 -0.17133126
00000000: a8c1 6abc 890f f9be 943e 94bc cc7f 19be
00000010: 2bce 81be 8c09 d4be bcac a2be 2fd1 e4bd
00000020: 6aec 83be 3100 023e 8c0e 84be c181 90be
00000030: 3406 82be 15be b0be c77f b6be d40a 6ebe
00000040: 472c 05bd 2ba8 7e3e 311d 7f3e 8df0 adbe
00000050: eabe 253b 504a 12be 1e93 bc3d 559b ec3e
00000060: b032 bb3e 11c7 82bd 934a 7e3e 2a97 59be
00000070: 2c58 06bf faff 6a3d 9f11 563d 14a8 fd3e
00000080: acc5 50be 0757 97be 1045 90bc 6091 0b3d
00000090: 44db 65be 66e3 4a3e 83c2 533e 1a97 fcbe
000000a0: 4b85 983e 36c3 59be 0715 b33e ef04 593e
000000b0: 3fd7 57be c55a dd3e bf28 59be 57cb cc3d
000000c0: 1c14 babe 3e5f c1be aa8c 4f3e 6b97 c4be
000000d0: 0438 8bbd f38c 963b 1a0d e73e faa0 c1be
000000e0: 08db 6b3e 6595 3f3e b89e 71be 70dd 97bb
000000f0: 2559 6d3e b22d f3be 59c6 04be 55e4 8c3e
00000100: 5326 85be 250d 8b3e b3db dbbe 3452 efbe
00000110: 6555 de3e b278 c4be 0bd0 b2be 1d2a 75be
00000120: b0a9 23bf f19c bd3e 1a02 99bc 9822 ec3d
00000130: 81c6 96be 6baf 11bf 8efc 1dbf 950f 9bbe
00000140: b3fa 1dbf 1184 c43d 4324 19be 94ea d13d
00000150: d7e1 893d cc35 973e 4086 01bf a2fa c4be
00000160: c3ad fbbe 5d92 fc3d 60f1 5a3f b0ba b73e
00000170: 255b e93d 7383 9fbe 9b28 073d 32a0 863f
00000180: bfa1 38bf 6483 99be d381 21bf 4ef3 b43e
00000190: 02df 0abf ee3e 10bf 0688 393f 0760 3ebf
000001a0: 1494 7ebf 27f6 d93e cc64 2dbf 7671 2fbe

transformer_encoder.layers.0.self_attn.in_proj_bias f4 [18]
-0.017138563 0.017754178 -0.008597715 -0.0355904 -0.026177159 0.04542889 -0.009820775 0.009696849
-0.10363403 -0.09597179 -0.0075567407 9.100391e-05 -0.20507568 -0.18491508 -0.10039679 0.5485875
-0.338036 -0.88184494
00000000: 2c66 8cbc 3671 913c 6edd 0cbc 3dc7 11bd
00000010: 7b71 d6bc a513 3a3d 51e7 20bc 88df 1e3c
00000020: 143e d4bd dc8c c4bd 899e f7bb 5ad9 be38
00000030: 5cff 51be 615a 3dbe d59c cdbd 3b70 0c3f
00000040: 0e13 adbe 97c0 61bf

transformer_encoder.layers.0.self_attn.out_proj.weight f4 [6, 6]
0.22792844 0.2538987 -0.12566857 -0.230082 0.105340295 -0.07263836 -0.11296552 0.10406277
0.253119 0.063806966 0.095408276 0.21994951 0.069578305 0.16013852 0.017607061 -0.018453369
0.09949802 -0.3303456 -0.17831552 -0.30338892 -0.16975293 0.13568683 0.19539335 -0.11797514
-0.43816778 -0.046381973 0.035836805 -0.4263275 0.18922685 -0.18450092 -0.048428748 -0.02310145
0.06804882 -0.23792116 0.29828084 0.30029175
00000000: 1366 693e 03ff 813e 43af 00be 9e9a 6bbe
00000010: a7bc d73d 6cc3 94bd 775a e7bd dd1e d53d
00000020: d098 813e 3aad 823d 6a65 c33d 723a 613e
00000030: 127f 8e3d 5afb 233e af3c 903c 852b 97bc
00000040: 9ec5 cb3d 0f23 a9be 5898 36be cb55 9bbe
00000050: b6d3 2dbe 7df1 0a3e 3215 483e f39c f1bd
00000060: 8757 e0be 06fb 3dbd 9dc9 123d 9947 dabe
00000070: afc4 413e cfed 3cbe 395d 46bd 413f bdbc
00000080: 2e5d 8b3d 9ba1 73be 44b8 983e d7bf 993e

transformer_encoder.layers.0.self_attn.out_proj.bias f4 [6]
-0.63637805 -0.15957147 0.9707922 0.47996616 -0.29115218 -0.44950777
00000000: ace9 22bf b466 23be d685 783f 20be f53e
00000010: e611 95be e225 e6be

transformer_encoder.layers.0.linear1.weight f4 [2048, 6]
0.0871742 0.29775828 0.20930657 0.37111488 0.3103612 0.14955059 -0.1736989 0.24065937
-0.006468046 0.14177154 0.3252234 0.29180545 -0.30310473 -0.28037602 0.17631683 -0.45605937
-0.16503607 -0.16465676 -0.298729 -0.26204574 0.09968502 0.22526413 -0.34247288 -0.06583081
-0.044955645 0.20441419 -0.18617256 0.11652628 -0.19693199 0.010508938 -0.1772364 0.11832346
-0.10641908 -0.06338661 0.1674407 0.17961647 0.50449044 0.058695633 -0.27126846 -0.15583298
-0.1474788 -0.28444546 0.16343367 -0.2969422 -0.030547468 -0.16679604 -0.40273118 0.13791898
-0.37166083 0.2910337 -0.17505608 -0.13393942 -0.24445389 0.20377335 -0.09671168 -0.38751623
-0.16651273 -0.32713458 -0.058862753 0.33053732 -0.19486749 0.21428105 -0.34669623 -0.6797717
0.63955057 -0.053723365 -0.15625347 0.111144125 -0.206376 0.08707653 -0.35386118 0.010751364
0.30785874 -0.46143866 0.30470476 0.054137297 -0.15617491 -0.22431408 0.13978375 -0.0452471
0.23308781 0.21218678 -0.31998333 -0.42227075 -0.090365075 -0.269105 0.0654189 0.3422646
-0.029546838 0.11097714 0.39129326 0.19881915 -0.35418433 -0.33562592 0.66892934 -0.41965806
-0.24785607 -0.11891615 0.6471232 -0.2879153 0.4452281 0.026198395 0.2620611 -0.21897063
-0.076871544 0.24091385 0.16627802 -0.2411925 -0.32125738 -0.32752022 -0.38733792 -0.09748681
0.26111898 0.16191734 -0.09390405 -0.37885475 0.39155313 0.15407526 -0.27117753 -0.104522094
0.22432713 0.104673326 -0.094713755 -0.04965136 0.12315692 -0.090433575 0.01501042 0.21106537
0.15837692 -0.5785098 0.6206704 0.0201518 -0.11475937 0.39983246 -0.031419866 0.047199793
-0.37543195 0.34687412 -0.2781538 0.45571178 -0.33651704 0.12337089 0.2159133 -0.2745747
0.09418433 -0.27568716 0.09321607 -0.049441684 -0.2441098 0.084651075 -0.38723502 -0.10444478
0.10601483 0.2817949 -0.03205495 0.122380435 -0.10055345 0.29875278 0.0927426 -0.07934985
-0.3720506 -0.07477644 -0.14728373 -0.17182711 0.14521417 -0.09597528 -0.24853076 -0.1392677
-0.34868413 -0.23747651 0.09272533 0.060091104 0.27688885 -0.41542402 0.4882373 -0.30057436
-0.011603199 -0.39237395 -0.32363644 0.09961762 -0.2825013 0.0029444876 -0.13161094 0.37129033
0.11877931 -0.16036955 0.2604879 -0.117173046 -0.2520542 -0.06956221 0.049785018 -0.28431806
0.5160971 -0.23263034 -0.19702226 -0.21641877 0.33669144 -0.32711795 -0.03671781 0.388852
0.39684397 0.26901093 0.1821377 0.2691994 -0.23564222 0.114627406 -0.10281964 0.2677217
-0.2349394 0.3052893 -0.38183737 -0.2684081 0.31369576 -0.4592538 0.06732491 0.26732764
-0.5031191 0.35848817 -0.20548074 -0.25310504 0.59032553 0.41429886 0.39404684 0.16713801
0.25796872 0.06603817 -0.327912 -0.0650233 -0.3091746 0.32860136 -0.26451 0.19925006
0.17559908 0.055774502 -0.45235083 -0.16627717 0.54368347 -0.31591308 0.20557415 0.15725923
0.45752743 -0.11964197 0.041243564 0.013543867 -0.20180456 -0.024991158 -0.41150758 -0.30899656
0.17113101 -0.006637595 -0.005155925 0.2238934 0.008177005 -0.29978314 0.4258812 -0.23161884
00000000: 6388 b23d c673 983e 7654 563e c502 be3e
00000010: aae7 9e3e ca23 193e 20de 31be 696f 763e
00000020: e7f1 d3bb 8f2c 113e ae83 a63e 8667 953e
00000030: 8b30 9bbe 728d 8fbe 668c 343e 9d80 e9be
00000040: 37ff 28be c89b 28be 02f3 98be dc2a 86be
00000050: a927 cc3d a4ab 663e 9b58 afbe 4ed2 86bd
00000060: 6923 38bd f451 513e 05a4 3ebe 55a5 ee3d
00000070: 8aa8 49be ae2d 2c3c 757d 35be 9253 f23d
00000080: 3ff2 d9bd d7d0 81bd 9375 2b3e 61ed 373e
00000090: 4926 013f d56a 703d b3e3 8abe ae92 1fbe
000000a0: af04 17be d6a2 91be 285b 273e cf08 98be
000000b0: af3e fabc 95cc 2abe c832 cebe a23a 0d3e
000000c0: 544a bebe 5e02 953e e741 33be 6a27 09be
000000d0: 1f52 7abe f6a9 503e c610 c6bd 8768 c6be
000000e0: 5082 2abe 2f7e a7be 121a 71bd 303c a93e
000000f0: 588b 47be 7e6c 5b3e 2b82 b1be 8505 2ebf
00000100: 96b9 233f 080d 5cbd e900 20be 889f e33d
00000110: 3b54 53be 2e55 b23d 4b2d b5be 7d26 303c
00000120: a99f 9d3e b041 ecbe 4302 9c3e 12bf 5d3d
00000130: 51ec 1fbe 97b2 65be 7923 0f3e 0655 39bd
00000140: 92ae 6e3e 7e47 593e dbd4 a3be df33 d8be
00000150: 5311 b9bd 21c8 89be 58fa 853d 4e3d af3e
00000160: 360c f2bc fc47 e33d 9757 c83e 3f97 4b3e
00000170: a657 b5be 29d7 abbe f43e 2b3f 6cdd d6be
00000180: fbcd 7dbe 4f8a f3bd dea9 253f a269 93be
00000190: f0f4 e33e 049e d63c df2c 863e d639 60be
000001a0: d46e 9dbd 1fb2 763e c944 2a3e 2bfb 76be
000001b0: d97b a4be bbb0 a7be 2851 c6be 2aa7 c7bd
000001c0: 63b1 853e a9cd 253e c450 c0bd 40f9 c1be
000001d0: a779 c83e e8c5 1d3e c8d7 8abe ae0f d6bd
000001e0: 03b6 653e f85e d63d 49f9 c1bd 395f 4bbd
000001f0: b239 fc3d 3d35 b9bd 44ee 753c 8521 583e
00000200: 8f2d 223e 3819 14bf 41e4 1e3f 6315 a53c
00000210: f606 ebbd d7b6 cc3e 1eb2 00bd 9254 413d
00000220: 9e38 c0be 7c99 b13e 2d6a 8ebe 0e53 e93e
00000230: f64b acbe e1a9 fc3d 6018 5d3e 0e95 8cbe
00000240: b7e3 c03d de26 8dbe 11e8 be3d 5d83 4abd
00000250: ebf7 79be 8b5d ad3d ab43 c6be 25e7 d5bd
00000260: 4e1e d93d 6c47 903e 0d4c 03bd 98a2 fa3d
00000270: f8ee cdbd 20f6 983e d5ef bd3d 2d82 a2bd
00000280: 6b7d bebe 6424 99bd 8cd1 16be 72f3 2fbe
00000290: 06b3 143e b08e c4bd d97e 7ebe 319c 0ebe
000002a0: ba86 b2be 0b2d 73be c7e6 bd3d 1722 763d
000002b0: 60c4 8d3e 75b2 d4be 3dfa f93e e2e4 99be
000002c0: 581b 3ebc 3de5 c8be adb3 a5be 5304 cc3d
000002d0: 03a4 90be 4ef8 403b 05c5 06be c419 be3e
000002e0: 9142 f33d ea37 24be ac5e 853e 6cf8 efbd
000002f0: 400d 81be a276 8ebd 60eb 4b3d 2392 91be
00000300: f11e 043f a636 6ebe 34c0 49be e29c 5dbe
00000310: d262 ac3e 017c a7be 6a65 16bd 9c17 c73e
00000320: 222f cb3e cdbb 893e 4e82 3a3e 81d4 893e
00000330: 324c 71be c6c1 ea3d 1a93 d2bd d212 893e
00000340: f493 70be e14e 9c3e 3080 c3be c96c 89be
00000350: bb9c a03e 5023 ebbe a4e1 893d 2bdf 883e
00000360: 6acc 00bf c38b b73e 8b69 52be fc96 81be
00000370: 931f 173f fb1e d43e 82c0 c93e 3a26 2b3e
00000380: 7a14 843e 053f 873d 15e4 a7be f02a 85bd
00000390: 224c 9ebe 703e a83e db6d 87be 3508 4c3e
000003a0: 3fd0 333e ce73 643d 879a e7be 9044 2abe
000003b0: d72e 0b3f 5cbf a1be 0882 523e 9008 213e
000003c0: 0941 ea3e d906 f5bd 03ef 283d 18e7 5d3c
000003d0: dba5 4ebe 42ba ccbc 1fb1 d2be cc34 9ebe
000003e0: f83c 2f3e 2f80 d9bb 09f3 a8bb 5044 653e
000003f0: d8f8 053c 2d7d 99be 1a0d da3e 7d2d 6dbe

transformer_encoder.layers.0.linear1.bias f4 [2048]
-0.3024845 -0.0050249044 0.105660394 -0.06395803 -0.068606056 0.14984633 -0.09135763 -0.026084214
0.1303365 0.09623845 -0.017889252 0.27760103 -0.18056606 0.06771815 -0.18923578 0.050365686
0.042758122 -0.29705063 -0.3548274 0.11434155 -0.22875093 0.34325603 0.09819381 -0.07191175
0.032914553 -0.40112486 0.17844062 0.30243647 0.25627077 -0.31743965 -0.09418579 -0.049089786
-0.40203416 0.22663535 0.23689061 -0.15533486 -0.13995238 -0.09769771 0.072469935 -0.10477378
0.24421509 -0.15488327 0.15721472 -0.35000312 -0.2181596 0.19999725 -0.20555444 0.20989609
0.35535458 0.16738833 -0.017022148 0.03092521 0.13913587 0.088797376 -0.36547473 -0.16628763
0.06917904 -0.17455463 0.03265072 0.25884703 -0.37179276 -0.2092752 -0.111194484 0.058149382
0.10155053 0.39162308 -0.23651332 0.08064764 -0.13994482 0.12165175 0.0979997 0.2184779
0.10198019 -0.078148045 0.13395023 -0.08003485 0.111453086 0.077273026 -0.16777423 0.20191939
0.07009433 -0.07138457 0.042661455 -0.27163294 -0.15812913 -0.25533915 -0.15874298 0.08802704
-0.4132977 0.23472905 -0.2550495 -0.4295173 0.36624274 0.3159812 -0.18121922 -0.2383891
-0.3603216 0.37480295 0.24184214 0.2359212 -0.3618164 -0.1439416 0.26188105 0.17666066
0.35756078 0.18268819 -0.31726292 0.11630165 -0.14541925 0.4218005 0.32448894 0.34447157
0.31284896 -0.3732899 0.33921033 -0.06247785 0.31897864 0.29538468 0.13217582 0.34230894
0.32941216 0.18762888 0.19089277 0.22331856 -0.1553097 0.2657333 0.15088901 -0.20927267
0.16248125 -0.27321267 -0.17505378 0.22320698 0.25263715 0.25407022 -0.13206737 0.21411093
-0.08814522 0.06594557 -0.11602092 -0.16234441 -0.056120597 0.15657072 0.1620738 0.26272032
-0.30167964 -0.23799759 0.2642751 0.14823076 -0.2058675 -0.29613304 -0.068333074 -0.20239672
-0.2878795 -0.09850048 0.12240389 -0.29341626 -0.39475903 0.2653859 -0.15187205 0.35761955
0.34849587 0.25331393 -0.12604524 -0.030655101 -0.1203422 0.24151276 -0.36688155 0.019082598
-0.10379167 -0.18801416 0.2976879 0.2211856 0.030731022 0.023642065 -0.33622828 -0.3823247
0.32049686 -0.06885008 -0.121353455 -0.09270914 0.012652013 0.18133532 -0.32283396 -0.33291635
-0.28160936 0.18260112 0.084847964 -0.27680054 -0.14409721 0.16362213 0.34956616 0.002054673
0.036504626 0.4082721 0.39787975 0.37759662 0.25369266 -0.18948752 -0.19558093 0.20766331
-0.12544483 -0.01274974 0.27709705 0.2501959 -0.151003 0.11866476 -0.21253552 0.086134
0.343387 0.10782191 -0.20643525 0.37039548 0.28815967 0.040619183 0.2594256 0.08631165
-0.32777408 -0.23697154 0.10285498 0.2757121 -0.08983637 0.04328282 -0.060380246 0.36194038
0.20912048 -0.2170891 0.16903578 0.5096021 -0.09623281 0.120815925 0.09754598 0.35906652
-0.13941815 0.21656522 -0.27192256 0.1319934 -0.3277923 0.22207993 0.022947371 -0.18520328
-0.35961345 -0.027500533 0.23998576 0.35622156 -0.08745095 -0.09109518 0.09319951 0.33395123
0.34716865 0.3245151 -0.2838243 -0.077367626 -0.34070665 0.11953889 -0.38344994 0.06899727
00000000: 40df 9abe f4a7 a4bb 7a64 d83d 6dfc 82bd
00000010: 5581 8cbd 5171 193e b619 bbbd 90ae d5bc
00000020: ee76 053e aa18 c53d 7b8c 92bc b921 8e3e
00000030: 4fe6 38be d0af 8a3d 06c7 41be 404c 4e3d
00000040: 2423 2f3d 0517 98be f0ab b5be e72b ea3d
00000050: af3d 6abe 41bf af3e d619 c93d 7846 93bd
00000060: 69d1 063d 3d60 cdbe 23b9 363e f4d8 9a3e
00000070: ec35 833e 7387 a2be 7be4 c0bd 5f12 49bd
00000080: 6cd7 cdbe 1913 683e 7493 723e 1a10 1fbe
00000090: ad4f 0fbe bd15 c8bd 1e6b 943d a393 d6bd
000000a0: 8513 7a3e b899 1ebe e5fc 203e 9c33 b3be
000000b0: 3b65 5fbe 14cc 4c3e dd7c 52be 00ef 563e
000000c0: 09f1 b53e d967 2b3e 0872 8bbc de56 fd3c
000000d0: a279 0e3e 66db b53d 811f bbbe 4e47 2abe
000000e0: bead 8d3d 73be 32be c3bc 053d 9987 843e
000000f0: 9f5b bebe 3d4c 56be efb9 e3bd 0c2e 6e3d
00000100: b9f9 cf3d d282 c83e 8c30 72be 972a a53d
00000110: b24d 0fbe 8d24 f93d 11b4 c83d acb8 5f3e
00000120: fdda d03d 150c a0bd 402a 093e 50e9 a3bd
00000130: 8441 e43d 5241 9e3d 02cd 2bbe f5c3 4e3e
00000140: 9e8d 8f3d 1332 92bd c7bd 2e3d 7913 8bbe
00000150: 9aec 21be d0bb 82be 858d 22be 8547 b43d
00000160: c29b d3be d05c 703e d995 82be b1e9 dbbe
00000170: 2b84 bb3e 4ac8 a13e 8891 39be 461c 74be
00000180: 137c b8be 2ce6 bf3e 77a5 773e 5495 713e
00000190: 0040 b9be 6d65 13be 4615 863e 88e6 343e
000001a0: 3512 b73e 9d12 3b3e 4970 a2be 8f2f ee3d
000001b0: c9e8 14be 3cf6 d73e 6a23 a63e 945e b03e
000001c0: bd2d a03e db1f bfbe faac ad3e c6e8 7fbd
000001d0: 2b51 a33e a93c 973e 1959 073e 1e43 af3e
000001e0: b6a8 a83e c921 403e 6579 433e 9fad 643e
000001f0: 8209 1fbe 320e 883e a682 1a3e 934b 56be
00000200: 7c61 263e 88e2 8bbe 4c41 33be 5f90 643e
00000210: a859 813e 7e15 823e ab3c 07be e53f 5b3e
00000220: 7b85 b4bd 790e 873d 609c edbd 9d3d 26be
00000230: b6de 65bd 1354 203e adf6 253e 4783 863e
00000240: c175 9abe a4b5 73be 114f 873e cec9 173e
00000250: eece 52be c09e 97be 36f2 8bbd 1641 4fbe
00000260: f164 93be 9fba c9bd e4ae fa3d a83a 96be
00000270: db1d cabe a9e0 873e 5984 1bbe e919 b73e
00000280: 0d6e b23e 5db2 813e 0112 01be 6820 fbbc
00000290: f975 f6bd 1f4f 773e e6d7 bbbe 1c53 9c3c
000002a0: ba90 d4bd c986 40be 8c6a 983e 7a7e 623e
000002b0: a0bf fb3c 01ad c13c 1d26 acbe 10c0 c3be
000002c0: 2a18 a43e 4501 8dbd 2988 f8bd 4ade bdbd
000002d0: 644a 4f3c f7af 393e 7e4a a5be 0374 aabe
000002e0: 1a2f 90be cafb 3a3e c5c4 ad3d cdb8 8dbe
000002f0: 388e 13be 8f8c 273e 56fa b23e b1a7 063b
00000300: e085 153d 0a09 d13e e5b6 cb3e 5854 c13e
00000310: 01e4 813e 0409 42be 5e46 48be b1a5 543e
00000320: 9c74 00be 49e4 50bc aadf 8d3e ad19 803e
00000330: 88a0 1abe 8206 f33d e9a2 59be 0667 b03d
00000340: 6cd0 af3e bcd1 dc3d c363 53be 7aa4 bd3e
00000350: aa89 933e 4d60 263d 6fd3 843e 2ac4 b03d
00000360: 01d2 a7be aba8 72be a2a5 d23d 232a 8d3e
00000370: 21fc b7bd 5449 313d 4751 77bd 4050 b93e
00000380: ae23 563e 9b4c 5ebe b717 2d3e 4975 023f
00000390: b515 c5bd 576e f73d 30c6 c73d 91d7 b73e
000003a0: a2c3 0ebe 46c3 5d3e 6f39 8bbe 4729 073e
000003b0: 64d4 a7be ec68 633e 20fc bb3c eea5 3dbe
000003c0: 411f b8be cc48 e1bc d4be 753e ac62 b63e
000003d0: 7c19 b3bd 1c90 babd 62df be3d a8fb aa3e
000003e0: 17c0 b13e d826 a63e 6b51 91be eb72 9ebd
000003f0: 1a71 aebe ced0 f43d 8d53 c4be 714e 8d3d

transformer_encoder.layers.0.linear2.weight f4 [6, 2048]
0.08620293 0.04463434 0.22374354 -0.00967144 0.0108598685 0.077570125 0.11293477 0.026034094
0.06164033 0.016367184 -0.39186752 0.014036645 0.06828928 0.007885742 -0.02196718 -0.13252321
0.24998887 -0.010355308 0.034825668 0.0049215835 0.021558788 -0.22343048 0.021162996 0.023803687
0.006109873 -0.02241936 0.04346366 0.004254353 -0.0061628628 -0.004354578 -0.00034149422 0.024110544
-0.10488761 -0.017745387 -0.0106333345 0.31123006 -0.24148971 0.20955917 -0.0105235325 0.3378395
0.004875897 0.10466678 0.054634217 0.0038513788 0.027491972 0.080419116 0.075683385 0.0019455712
0.029417895 -0.00038529624 -0.062597 -0.010396553 0.1115544 0.008114955 -0.11917489 -0.023199838
-0.23161033 -0.078711085 -0.1545538 -0.008332318 0.0050564916 -0.017087363 -0.0010593093 0.31599852
0.0020915577 0.02088023 0.0987524 -0.016499871 0.008387919 0.27340648 0.044156168 -0.00502043
0.021703562 -0.0024401105 -0.012979868 -0.011309198 0.09889768 -0.0018126407 0.035942383 -0.041367147
-0.2442352 -0.0075917994 0.04363569 0.049052726 -0.0107586505 -0.14509441 0.041328598 0.13621941
0.0052577597 -0.0044215424 -0.09615308 -0.013820793 -0.0015546147 -0.005437026 0.09036577 0.0053379317
-0.055682924 -0.02077631 0.026010584 0.0036212748 0.0106959855 -0.16074398 0.07401353 0.007200374
-0.026685672 -0.018700771 -0.0009949082 0.14736785 -0.008158301 -0.07949541 -0.01205943 -0.02174524
-0.17205964 0.0011655003 -0.018509896 -0.0401713 0.0013988978 0.005318108 -0.002900402 -0.06392888
0.099416554 0.14137262 0.0115521215 -0.017766891 0.05632481 -0.015422511 -0.013705833 0.035212565
0.116161555 -0.12351204 -0.049103767 0.02789745 -0.016540097 0.0029549259 0.0038613533 0.04175379
-0.00477651 -0.009487818 0.011783827 0.050547622 0.006376399 0.083502054 -0.039496608 -0.00083283224
-0.1529921 -0.026342532 -0.036062866 0.020328728 0.09493855 -0.004357633 0.004522181 0.048934042
0.1448342 -0.014797281 0.00092869846 -0.0035232434 0.00068513694 0.03830567 0.007513103 0.031567886
-0.026181877 -0.0048194053 -0.010330964 0.11956828 -0.032092027 0.0071383296 0.06197912 0.0811732
0.02812455 0.00527259 0.013408935 0.037909918 -0.011451396 -0.0030327872 -0.024796579 0.009314326
0.0057598767 0.038489256 0.00559464 0.01689272 0.012810422 0.022811435 0.12657884 -0.097148776
0.06825315 0.020513492 0.009413873 0.10344327 -0.005901365 0.06071369 -0.008161657 0.0111703025
0.30902368 -0.14853364 0.18261962 0.041714065 0.006856009 0.0931476 0.016205411 -0.0034256075
0.0021093811 0.05004884 -0.18657368 0.14287785 -0.0019897965 -0.009516136 0.30659223 0.16898164
0.0041904207 -0.0056830947 0.115942895 -0.24379028 -0.0048801224 0.041793846 -0.012426332 -0.00625402
-0.0038916273 0.31077892 -0.013578303 -0.009828637 0.011199444 -0.012476002 -0.06545647 -0.19190587
-0.036332976 0.1122414 -0.022934515 -0.050286736 -0.10631937 -0.004929528 -0.012378837 0.07874748
0.005291857 0.03260004 0.044015974 0.06247408 0.08456462 -0.011866169 -0.01062492 -0.042120464
0.061644122 -0.03490537 0.015951557 0.0005684486 0.08293569 -0.03885696 0.052470427 0.013150006
0.0010716835 -0.0151055185 0.14929093 0.01138711 -0.0052964194 -0.017787764 0.027053392 -0.016523782
00000000: 298b b03d 7fd2 363d 071d 653e f674 1ebc
00000010: 97ed 313c 16dd 9e3d 584a e73d 7445 d53c
00000020: 927a 7c3d 7914 863c dca2 c8be f5f9 653c
00000030: 40db 8b3d 3333 013c 84f4 b3bc 2ab4 07be
00000040: 15fd 7f3e 4fa9 29bc 5ca5 0e3d 3c45 a13b
00000050: 0e9c b03c f6ca 64be 055e ad3c f3ff c23c
00000060: 5435 c83b cea8 b7bc f306 323d 1a68 8b3b
00000070: d7f1 c9bb d9b0 8ebb 940a b3b9 7a83 c53c
00000080: 51cf d6bd c65e 91bc 7037 2ebc 8c59 9f3e
00000090: 1449 77be ae96 563e e56a 2cbc 4df9 ac3e
000000a0: fdc5 9f3b 895b d63d 21c8 5f3d 6a67 7c3b
000000b0: d836 e13c c7b2 a43d e4ff 9a3d 8902 ff3a
000000c0: ccfd f03c 9601 cab9 db32 80bd 4e56 2abc
000000d0: a276 e43d 97f4 043c f711 f4bd 960d bebc
000000e0: 422b 6dbe 4733 a1bd 5a43 1ebe 4684 08bc
000000f0: edb0 a53b ccfa 8bbc 86d8 8aba 8fca a13e
00000100: 8412 093b 040d ab3c b33e ca3d bd2a 87bc
00000110: 7b6d 093c effb 8b3e 19dd 343d 6b82 a4bb
00000120: abcb b13c 43ea 1fbb 83a9 54bc 374a 39bc
00000130: de8a ca3d 2196 edba 5238 133d 9970 29bd
00000140: cb18 7abe a1c4 f8bb 56bb 323d 83eb 483d
00000150: 0d45 30bc a193 14be 2d48 293d 1a7d 0b3e
00000160: 4949 ac3b 96e2 90bb e8eb c4bd 9b70 62bc
00000170: 37c4 cbba 1429 b2bb b011 b93d d1e9 ae3b
00000180: c713 64bd 1433 aabc 2614 d53c e952 6d3b
00000190: 373e 2f3c 129a 24be 6894 973d 1df1 eb3b
000001a0: e99b dabc 5c32 99bc 9467 82ba 99e7 163e
000001b0: 65aa 05bc 7dce a2bd ea94 45bc 1323 b2bc
000001c0: 6730 30be b3c3 983a 11a2 97bc a98a 24bd
000001d0: 395b b73a 8643 ae3b ac14 3ebb 25ed 82bd
000001e0: e89a cb3d fcc3 103e 1c45 3d3c df8b 91bc
000001f0: d8b4 663d b3ae 7cbc 6e8e 60bc 0d3b 103d
00000200: 1ce6 ed3d e1f3 fcbd 0821 49bd 3189 e43c
00000210: 197f 87bc 6ea7 413b c20e 7d3b 0606 2b3d
00000220: 4584 9cbb cb72 1bbc f410 413c 060b 4f3d
00000230: 1df1 d03b 2003 ab3d 32c7 21bd 6d52 5aba
00000240: f6a9 1cbe 4bcc d7bc a8b6 13bd 6f88 a63c
00000250: 246f c23d 7aca 8ebb ce2e 943b 106f 483d
00000260: 6b4f 143e 4b70 72bc e673 733a 37e6 66bb
00000270: c39a 333a 68e6 1c3d 7a30 f63b 544d 013d
00000280: 607b d6bc 1aec 9dbb 3443 29bc 37e0 f43d
00000290: ee72 03bd a6e8 e93b d1dd 7d3d 223e a63d
000002a0: 7565 e63c b1c5 ac3b 26b1 5b3c 6e47 1b3d
000002b0: a39e 3bbc bac1 46bb 3222 cbbc 1d9b 183c
000002c0: 59bd bc3b e9a6 1d3d 3e53 b73b 9a62 8a3c
000002d0: cee2 513c 0cdf ba3c e29d 013e f0f5 c6bd
000002e0: 4fc8 8b3d e90b a83c a53c 1a3c 11da d33d
000002f0: 3d60 c1bb ebae 783d 78b8 05bc a503 373c
00000300: 5a38 9e3e 3419 18be a300 3b3e 5edc 2a3d
00000310: 5fa8 e03b 2bc4 be3d 36c1 843c 2880 60bb
00000320: 8b3d 0a3b 0300 4d3d 2c0d 3fbe 924e 123e
00000330: 3f67 02bb 91e9 1bbc a8f9 9c3e 8609 2d3e
00000340: cc4f 893b 4139 babb 7873 ed3d 29a4 79be
00000350: 6fe9 9fbb 0630 2b3d d097 4bbc 86ee ccbb
00000360: ac0a 7fbb 6a1e 9f3e 8877 5ebc 4b08 21bc
00000370: df7d 373c 2568 4cbc 0b0e 86bd f982 44be
00000380: e3d1 14bd d2de e53d 2ae1 bbbc 77f9 4dbd
00000390: f8bd d9bd e187 a1bb 9bd0 4abc 5c46 a13d
000003a0: 5067 ad3b 9f87 053d 184a 343d d2e4 7f3d
000003b0: 3730 ad3d 526a 42bc 2514 2ebc 8286 2cbd
000003c0: 8c7e 7c3d eff8 0ebd d7ac 823c f103 153a
000003d0: 30da a93d 7a28 1fbd 3beb 563d 1f73 573c
000003e0: bb77 8c3a 237d 77bc b9df 183e 0091 3a3c
000003f0: 968d adbb a5b7 91bc 139f dd3c e25c 87bc

transformer_encoder.layers.0.linear2.bias f4 [6]
0.0010666791 0.013796855 0.022576075 0.0049134255 -0.00032131418 0.005644591
00000000: d0cf 8b3a 340c 623c 76f1 b83c cd00 a13b
00000010: 0f76 a8b9 43f6 b83b

transformer_encoder.layers.0.norm1.weight f4 [6]
1.105925 1.0675468 1.0080472 0.97379535 1.0801055 1.048288
00000000: f38e 8d3f 60a5 883f b107 813f a74a 793f
00000010: e640 8a3f 4d2e 863f

transformer_encoder.layers.0.norm1.bias f4 [6]
0.009519684 0.012088426 0.018530475 -0.039188378 0.04655064 -0.0017116809
00000000: 73f8 1b3c 890e 463c 39cd 973c fe83 20bd
00000010: e2ab 3e3d 7b5a e0ba

transformer_encoder.layers.0.norm2.weight f4 [6]
1.1104817 1.0182934 0.91497976 0.923243 0.9444758 1.2280823
00000000: 4424 8e3f 7057 823f 1d3c 6a3f a759 6c3f
00000010: 2bc9 713f cd31 9d3f

transformer_encoder.layers.0.norm2.bias f4 [6]
-0.037481003 0.060871333 0.031755496 -0.1779109 0.0029035278 -0.04837161
00000000: ae85 19bd 3854 793d 0d12 023d 462e 36be
00000010: 1d49 3e3b 4f21 46bd

transformer_encoder.layers.1.self_attn.in_proj_weight f4 [18, 6]
-0.3825078 -0.3709005 0.18997544 0.10595246 -0.25450435 -0.73444456 -0.36097428 -0.008799894
-0.2603853 0.10640026 -0.3929836 -0.32878935 -0.49964982 -0.3902327 -0.42420754 -0.008050473
0.03851609 0.13981965 0.4010392 -0.37000337 -0.03800054 -0.18350025 0.095037006 0.5318837
0.38969186 0.15250781 0.5586645 -0.43165275 -0.3482934 0.040773083 0.05414154 0.6392776
-0.04466534 -0.4752742 0.158288 -0.043603245 -0.2162853 0.28633833 0.4362251 -0.6373051
0.2559046 -0.28477272 0.44580755 0.16180211 -0.16667682 0.18154596 -0.23228356 0.38404423
-0.51574165 -0.04631597 0.1995676 -0.19009556 -0.32740015 -0.15593025 0.32205102 -0.1795671
0.19924898 0.44153926 -0.24176605 -0.19540536 0.055338062 -0.36252838 -0.23703526 0.45777145
-0.30123386 -0.028774744 -0.6700269 -0.32006896 0.4138214 -0.19882157 -0.42230415 -0.5838781
-0.34914052 0.51765203 0.16548671 0.21481284 -0.11380068 -0.61191297 -0.0420646 -0.1973772
-0.49125096 0.20106225 0.065582335 0.16175395 -0.5556477 0.4430023 -0.44014466 -0.23145442
-0.45166638 -0.57573956 -0.10198627 -0.0837284 -0.34316352 -0.26894546 -0.4814167 0.44209933
-0.38373882 -0.019635327 -0.23182315 0.17444493 -0.25070688 -0.15233237 0.19745038 0.12017631
-0.18329296 0.46512187 0.1480378 -0.21617708
00000000: 10d8 c3be ace6 bdbe ec88 423e 9afd d83d
00000010: 654e 82be 8f04 3cbf 9fd1 b8be 6e2d 10bc
00000020: 3951 85be 61e8 d93d 2535 c9be 1457 a8be
00000030: 1ad2 ffbe 95cc c7be bb31 d9be 22e6 03bc
00000040: 0cc3 1d3d e22c 0f3e 0355 cd3e 1571 bdbe
00000050: 74a6 1bbd 7de7 3bbe c3a2 c23d 8829 083f
00000060: b185 c73e 022b 1c3e a304 0f3f 9701 ddbe
00000070: 8353 b2be ad01 273d 85c3 5d3d b2a7 233f
00000080: 01f3 36bd 2457 f3be 4016 223e 5199 32bd
00000090: e579 5dbe f09a 923e e558 df3e 6d26 23bf
000000a0: ed05 833e bbcd 91be e340 e43e 74af 253e
000000b0: 54ad 2abe 2fe7 393e bedb 6dbe 72a1 c43e
000000c0: a507 04bf d1b5 3dbd 735b 4c3e 69a8 42be
000000d0: fea0 a7be 2eac 1fbe dfe3 a43e 70e0 37be
000000e0: ed07 4c3e 6f11 e23e 8591 77be 5818 48be
000000f0: 2aaa 623d 529d b9be 5fb9 72be 0561 ea3e
00000100: 533b 9abe 03b9 ebbc e286 2bbf 14e0 a3be
00000110: 66e0 d33e e297 4bbe 4038 d8be 0979 15bf
00000120: 8cc2 b2be d884 043f 5975 293e e6f7 5b3e
00000130: 5510 e9bd 54a6 1cbf ee4b 2cbd 401d 4abe
00000140: 3f85 fbbe 43e3 4d3e 0850 863d d4a2 253e
00000150: ed3e 0ebf 33d1 e23e a45a e1be 6302 6dbe
00000160: d140 e7be ab63 13bf 2dde d0bd cc79 abbd
00000170: 21b3 afbe 38b3 89be 407c f6be d85a e23e
00000180: 6a79 c4be 44da a0bc 0c63 6dbe b1a1 323e
00000190: a75c 80be 04fd 1bbe 6f30 4a3e ff1e f63d
000001a0: 26b1 3bbe 7424 ee3e 3997 173e 865d 5dbe

transformer_encoder.layers.1.self_attn.in_proj_bias f4 [18]
-0.05075638 -0.00515471 0.1244049 0.059651494 -0.1097017 -0.21820167 -0.00015866815 -0.0003197857
-0.00022171545 0.0004823911 -0.0008341172 -0.0009514734 0.021958299 0.03971659 0.047483154 0.016363103
-0.060497206 -0.001384782
00000000: ece5 4fbd d7e8 a8bb ffc7 fe3d 2055 743d
00000010: 49ab e0bd 4270 5fbe 2860 26b9 e9a8 a7b9
00000020: 4a7c 68b9 70e9 fc39 a8a8 5aba 4d6c 79ba
00000030: e4e1 b33c ddad 223d b27d 423d ea0b 863c
00000040: ebcb 77bd 9381 b5ba

transformer_encoder.layers.1.self_attn.out_proj.weight f4 [6, 6]
0.30439398 0.10676736 0.03698707 -0.22901109 0.076585844 -0.1733148 -0.024285477 -0.025448265
0.3147539 0.015632948 0.13632366 0.2866666 0.14721419 0.1852494 0.14756905 -0.05008174
0.124539964 -0.37612987 -0.3438799 -0.41136113 -0.12622467 0.22802599 0.1463537 -0.15047121
-0.60830635 0.05764992 -0.082683675 -0.14987393 -0.0062106554 -0.22621591 -0.043584354 -0.0372383
-0.008631878 -0.24311014 0.2120608 0.19682162
00000000: 87d9 9b3e d8a8 da3d c17f 173d e281 6abe
00000010: 0ad9 9c3d 6f79 31be 56f2 c6bc e178 d0bc
00000020: 6c27 a13e ab10 803c 6e98 0b3e f7c5 923e
00000030: 51bf 163e 05b2 3d3e 571c 173e 8322 4dbd
00000040: cf0e ff3d 1894 c0be 0711 b0be ed9d d2be
00000050: 0a41 01be a57f 693e bfdd 153e 2015 1abe
00000060: f7b9 1bbf 5322 6c3d 0f56 a9bd 8d78 19be
00000070: c182 cbbb 25a5 67be 8285 32bd 3087 18bd
00000080: b86c 0dbc ddf1 78be 7726 593e 9b8b 493e

transformer_encoder.layers.1.self_attn.out_proj.bias f4 [6]
-0.003794139 0.029977001 0.020313911 -0.048897363 -0.0076087746 -0.03385162
00000000: 17a7 78bb 5492 f53c 5c69 a63c 9a48 48bd
00000010: 0753 f9bb ffa7 0abd

transformer_encoder.layers.1.linear1.weight f4 [2048, 6]
0.17094219 0.33044556 0.14881861 0.40787262 0.21728094 0.13160323 -0.17868757 0.3173672
0.07005545 0.10896399 0.33820492 0.2328846 -0.26921445 -0.024511144 0.1643316 -0.35511482
-0.27680972 -0.44816372 -0.22135441 -0.30883068 0.042570274 0.22625333 -0.37459564 0.0019990676
-0.092353344 0.2546847 -0.14611371 0.103406705 -0.2512861 -0.042066846 -0.1249993 0.2220553
0.0041444157 -0.14827642 0.15610342 0.07414323 0.395563 0.124893405 -0.15646681 -0.24134171
-0.18986478 -0.24518384 0.19803606 -0.24673778 -0.040373325 -0.17893183 -0.39231494 0.05633649
-0.2816795 0.44963858 -0.077557415 -0.2526708 -0.19822827 0.103172876 -0.059041608 -0.32399327
-0.10283543 -0.3576658 -0.08659421 0.25451958 -0.33142748 0.19440857 -0.20391615 -0.41171655
0.3116531 -0.0946701 -0.2618613 0.12939271 -0.14121555 0.08667284 -0.37993014 -0.023758063
0.364024 -0.4416555 0.2794954 0.03398671 -0.020224165 -0.14388666 0.16817306 -0.07230581
0.19620804 0.22670369 -0.31693456 -0.36253223 -0.074819736 -0.29949242 -0.0010123857 0.36376005
-0.03834034 0.16787863 0.33807465 0.35675988 -0.28345084 -0.36789683 0.28872553 -0.47529152
0.07566763 0.14625753 0.32427663 -0.5012713 0.16127372 -0.02041286 0.36294857 -0.25422353
-0.14830983 0.24426325 0.19292364 -0.1901922 -0.29314238 -0.31288517 -0.2682751 -0.2388331
0.45842558 0.08962542 -0.03556352 -0.37847996 0.35047224 0.13639735 -0.24340744 -0.03861141
0.11182394 0.33912632 -0.01787793 -0.117308766 0.01559509 -0.09821122 0.046311613 0.13580152
0.35137314 -0.31043908 0.20341292 -0.0702801 -0.1852243 0.4383818 -0.017461583 0.09036001
-0.3817318 0.2724566 -0.36114085 0.518517 -0.30172235 0.15295328 0.15701543 -0.32510555
0.09459979 -0.3098931 0.07899691 -0.045795143 -0.24804965 0.12936553 -0.3201462 -0.1387446
0.075570785 0.2373151 0.011265951 0.20137191 -0.13468176 0.3936044 0.17409 -0.10434407
-0.3424722 -0.17871274 -0.09420037 -0.20645346 0.1192159 -0.091708496 -0.25843933 -0.10415954
-0.3040565 -0.27882934 0.050360348 0.05402811 0.2666433 -0.2900748 0.37420538 -0.13323987
0.06358323 -0.39824948 -0.34898642 -0.013904457 -0.27015105 0.01826625 -0.1375056 0.378479
0.113175064 -0.19921842 0.20685229 -0.110941924 -0.2689787 -0.04739205 0.13090536 -0.33376694
0.44904417 -0.31273323 -0.21409705 0.0015247919 0.14347903 -0.18467239 -0.02434336 0.3353228
0.44395107 0.2603593 0.17806892 0.33304954 -0.27478793 0.04383814 -0.18684173 0.33044466
-0.29686928 0.35494494 -0.19292812 -0.24344693 0.37829807 -0.3269639 -0.0017047593 0.11012519
-0.40616772 0.35878825 -0.006498729 -0.32761228 0.30503508 0.33264747 0.30646712 0.03604427
0.46748072 0.024502063 -0.2273559 -0.05608048 -0.34568545 0.31920454 -0.19457 0.21682037
0.13959831 -0.004868382 -0.3127921 0.022456333 0.23159754 -0.37480927 0.05337967 0.18932712
0.4166697 -0.105419934 0.10163999 -0.013926847 -0.23845948 -0.06833341 -0.25585783 -0.3142985
0.18187466 -0.040980507 0.18041134 0.18903568 0.039155643 -0.22248524 0.3019068 -0.30902538
00000000: 780b 2f3e 2930 a93e e863 183e aed4 d03e
00000010: e57e 5e3e ffc2 063e e0f9 36be f47d a23e
00000020: 3b79 8f3d 8328 df3d 3229 ad3e 4d79 6e3e
00000030: 7ad6 89be 98cb c8bc 8b46 283e 9cd1 b5be
00000040: 01ba 8dbe b775 e5be bbaa 62be 0e1f 9ebe
00000050: 2b5e 2e3d f4ae 673e 00cb bfbe ca02 033b
00000060: c023 bdbd 0866 823e d59e 15be e5c6 d33d
00000070: 92a8 80be 494e 2cbd a2ff ffbd 7762 633e
00000080: e1cd 873b c6d5 17be 93d9 1f3e 68d8 973d
00000090: 3c87 ca3e 1dc8 ff3d d638 20be 4822 77be
000000a0: ea6b 42be 7911 7bbe f7c9 4a3e d4a8 7cbe
000000b0: 805e 25bd e839 37be 81dd c8be 17c1 663d
000000c0: 4c38 90be 0737 e63e 6cd6 9ebd 115e 81be
000000d0: 5afc 4abe 4d4c d33d 9dd5 71bd 72e2 a5be
000000e0: 629b d2bd f91f b7be 4e58 b1bd 6450 823e
000000f0: ddb0 a9be 0a13 473e 65cf 50be 83cc d2be
00000100: ff90 9f3e 66e2 c1bd af12 86be 867f 043e
00000110: cf9a 10be 8881 b13d 3486 c2be 45a0 c2bc
00000120: 5b61 ba3e ab20 e2be 051a 8f3e a635 0b3d
00000130: 26ad a5bc 0657 13be 8f35 2c3e 1215 94bd
00000140: c3ea 483e 0325 683e 3f45 a2be d39d b9be
00000150: 173b 99bd 1257 99be 07b2 84ba c23e ba3e
00000160: c30a 1dbd 60e8 2b3e 1f18 ad3e 3ba9 b63e
00000170: 7820 91be f95c bcbe d5d3 933e 6959 f3be
00000180: a1f7 9a3d 89c4 153e 9607 a63e 5153 00bf
00000190: f024 253e df38 a7bc 65d4 b93e 9629 82be
000001a0: 88de 17be 2520 7a3e c68d 453e bec1 42be
000001b0: c216 96be 7c32 a0be 5b5b 89be aa90 74be
000001c0: c2b6 ea3e 888d b73d 0eab 11bd 20c8 c1be
000001d0: 1971 b33e bfab 0b3e cd3f 79be ff26 1ebd
000001e0: f303 e53d f7a1 ad3e bd74 92bc 943f f0bd
000001f0: 8c82 7f3c f722 c9bd 3fb1 3d3d 8e0f 0b3e
00000200: 2ee7 b33e dff1 9ebe 7a4b 503e 03ef 8fbd
00000210: 70ab 3dbe 9473 e03e 980b 8fbc ab0e b93d
00000220: 5a72 c3be 6e7f 8b3e 74e7 b8be 88bd 043f
00000230: 5a7b 9abe c99f 1c3e a7c8 203e 3c74 a6be
00000240: 89bd c13d 4faa 9ebe 22c9 a13d b093 3bbd
00000250: ba00 7ebe 6678 043e 34ea a3be 1013 0ebe
00000260: dbc4 9a3d bb02 733e d394 383c 7034 4e3e
00000270: 04ea 09be 8486 c93e a644 323e 58b2 d5bd
00000280: 8458 afbe 7900 37be 20ec c0bd 8968 53be
00000290: 7727 f43d aad1 bbbd 2952 84be 9951 d5bd
000002a0: 4bad 9bbe b8c2 8ebe a746 4e3d 944c 5d3d
000002b0: 7885 883e af84 94be d997 bf3e 0870 08be
000002c0: ed37 823d 5be7 cbbe 59ae b2be 85cf 63bc
000002d0: 3d51 8abe 1aa3 953c 45ce 0cbe 00c8 c13e
000002e0: 54c8 e73d eaff 4bbe 16d1 533e 8535 e3bd
000002f0: 93b7 89be 2b1e 42bd 0e0c 063e 80e3 aabe
00000300: 1ee9 e53e 921e a0be 423c 5bbe 87db c73a
00000310: 2bec 123e c21a 3dbe ba6b c7bc 6eaf ab3e
00000320: 8e4d e33e d04d 853e b357 363e 7885 aa3e
00000330: 01b1 8cbe 9f8f 333d 7053 3fbe 0b30 a93e
00000340: 40ff 97be 58bb b53e f38e 45be 274a 79be
00000350: 49b0 c13e d067 a7be 3b72 dfba 5189 e13d
00000360: 37f5 cfbe 18b3 b73e 4af3 d4bb ccbc a7be
00000370: 8f2d 9c3e c550 aa3e 42e9 9c3e 28a3 133d
00000380: a259 ef3e 8db8 c83c fccf 68be a5b4 65bd
00000390: affd b0be c76e a33e 5c3d 47be 2906 5e3e
000003a0: dcf2 0e3e f386 9fbb 4926 a0be 58f6 b73c
000003b0: e827 6d3e 00e7 bfbe a4a4 5a3d f8de 413e
000003c0: bb55 d53e 68e6 d7bd a128 d03d 6e2d 64bc
000003d0: b92e 74be 63f2 8bbd ccff 82be bceb a0be
000003e0: 5a3d 3a3e 2ddb 27bd c0bd 383e 9292 413e
000003f0: ab61 203d 2cd3 63be 8793 9a3e 9338 9ebe

transformer_encoder.layers.1.linear1.bias f4 [2048]
-0.2761241 -0.04191344 0.12416689 -0.03931311 -0.08607695 0.079533614 -0.1600625 -0.055751853
0.063436896 0.049086425 -0.14787886 0.2558096 -0.23764214 0.07931626 -0.16177705 -0.018024316
-0.054021843 -0.2803056 -0.4570438 0.111383975 -0.26721752 0.24974973 0.10380562 -0.057629403
0.03546258 -0.4464265 0.14509307 0.32514063 0.2693029 -0.4010368 -0.10685395 -0.05347911
-0.38693103 0.22667594 0.30166715 -0.21008281 -0.2340587 -0.10272929 0.067999475 -0.1862419
0.20141307 -0.16143668 0.12603673 -0.32475585 -0.20176125 0.12449938 -0.18605715 0.2204221
0.3659659 0.18495777 -0.19218369 0.02968756 0.063898295 0.07881033 -0.34685966 -0.17538524
-0.041533798 -0.12554714 0.03318858 0.29097632 -0.38985372 -0.23019579 -0.11841041 -0.05450021
0.09441819 0.37765464 -0.32215944 0.09988224 -0.17937933 0.14888066 0.114207104 0.13654117
0.08933593 -0.16840449 0.17705737 -0.18251283 0.055892877 0.11788729 -0.15938914 0.10926574
-0.12578495 -0.15340874 0.018562537 -0.29830614 -0.12499267 -0.2181579 -0.13251293 0.007890309
-0.38621894 0.25455093 -0.26673445 -0.42639515 0.33823112 0.343431 -0.15319933 -0.2711059
-0.42514032 0.3571429 0.19394666 0.23053807 -0.41041183 -0.13826077 0.20976122 0.17158467
0.38166443 0.19172429 -0.38938114 0.10249784 -0.16335543 0.38641524 0.32795882 0.3034715
0.24673097 -0.3675877 0.34692296 -0.10729656 0.29663458 0.30781204 0.14969163 0.23147707
0.33128124 0.1954651 0.17971942 0.2342914 -0.20987631 0.29702833 0.08858044 -0.26836306
0.010789701 -0.28747138 -0.21903636 0.20609988 0.279385 0.2595281 -0.098887615 0.19237745
-0.07350383 0.074142314 -0.13435596 -0.12990879 -0.11703997 0.13492246 0.1620985 0.21858257
-0.33842593 -0.29151 0.24203348 0.1234359 -0.27067485 -0.2797118 -0.07848791 -0.21043725
-0.36549363 -0.14746924 0.1321677 -0.3075639 -0.3839801 0.22274113 -0.21760638 0.28406927
0.25837708 0.25703692 -0.10725167 -0.019371249 -0.09481281 0.26547015 -0.32898566 -0.0025525973
-0.06639848 -0.19537148 0.3129044 0.15219523 -5.440339e-05 0.029331254 -0.25022393 -0.47211897
0.30260292 -0.17406203 -0.19970475 -0.13213642 0.0042115413 0.20701212 -0.31680784 -0.31392032
-0.3597085 0.16298461 0.06688272 -0.18226287 -0.17838599 0.14677082 0.3413116 0.005930737
-0.09450352 0.35618442 0.3766136 0.2075341 0.26225615 -0.23855019 -0.20694658 0.22055127
-0.102277964 -0.07840855 0.20248395 0.20339872 -0.14869083 0.13522466 -0.3259527 0.07488226
0.347571 0.05870798 -0.22301069 0.3360418 0.3101574 0.020377455 0.29367647 0.118106574
-0.39519647 -0.20617184 0.13245709 0.23249254 -0.056601405 0.054262277 -0.1169805 0.26691875
0.20760211 -0.22422075 0.20535296 0.38772255 -0.16943479 0.10907587 0.08131672 0.39828345
-0.14163531 0.13643415 -0.29868236 0.10368384 -0.39734277 0.23356138 -0.008629223 -0.2003151
-0.3960261 -0.009353995 0.20946442 0.34805262 -0.12126423 -0.18328612 0.073223785 0.36304417
0.308939 0.3064641 -0.2355354 -0.103454486 -0.34331268 0.14960383 -0.35503185 0.09246417
00000000: 2360 8dbe 6dad 2bbd 364b fe3d c906 21bd
00000010: 1d49 b0bd 85e2 a23d 6de7 23be 0e5c 64bd
00000020: 34eb 813d d90e 493d 8e6d 17be 7af9 823e
00000030: 7658 73be 9070 a23d e2a8 25be bba7 93bc
00000040: 0246 5dbd 3784 8fbe a501 eabe 481d e43d
00000050: bcd0 88be 65be 7f3e 0a98 d43d cf0c 6cbd
00000060: 3641 113d 0492 e4be 4793 143e d578 a63e
00000070: 12e2 893e b254 cdbe 3ed6 dabd e90c 5bbd
00000080: d31b c6be bd1d 683e 1e74 9a3e f31f 57be
00000090: 15ad 6fbe bc63 d2bd 4f43 8b3d 32b6 3ebe
000000a0: 3a3f 4e3e a84f 25be c60f 013e 6646 a6be
000000b0: 809a 4ebe 88f9 fe3d c485 3ebe 55b6 613e
000000c0: e25f bb3e 9265 3d3e cdcb 44be 5333 f33c
000000d0: 1cdd 823d 4f67 a13d 9797 b1be 3098 33be
000000e0: 581f 2abd 6e8f 00be c0f0 073d d9fa 943e
000000f0: e89a c7be 72b8 6bbe 2881 f2bd 9d3b 5fbd
00000100: 535e c13d f35b c13e 15f2 a4be 0f8f cc3d
00000110: 37af 37be 2c74 183e 6ae5 e93d 73d1 0b3e
00000120: c2f5 b63d 3a72 2cbe 874e 353e a5e4 3abe
00000130: eeef 643d e46e f13d e836 23be b7c6 df3d
00000140: c5cd 00be 2e17 1dbe 7610 983c 95bb 98be
00000150: 28fc ffbd c964 5fbe 78b1 07be 5b46 013c
00000160: 7dbe c5be 8054 823e 6b91 88be 7750 dabe
00000170: a12c ad3e 30d6 af3e 49e0 1cbe 64ce 8abe
00000180: feab d9be 6fdb b63e f499 463e 2c12 6c3e
00000190: 8021 d2be 3b94 0dbe a5cb 563e e4b3 2f3e
000001a0: 8569 c33e 5f53 443e f75c c7be 63ea d13d
000001b0: a546 27be 38d8 c53e 38ea a73e 9e60 9b3e
000001c0: 0ba7 7c3e 7434 bcbe e39f b13e 4dbe dbbd
000001d0: 7de0 973e 8a99 9d3e c348 193e 5308 6d3e
000001e0: b29d a93e 0128 483e 5e08 383e 16ea 6f3e
000001f0: d1e9 56be 1914 983e a969 b53d e266 89be
00000200: 49c7 303c 732f 93be 114b 60be d90b 533e
00000210: 8d0b 8f3e dee0 843e 9785 cabd 98fe 443e
00000220: 2d89 96bd edd7 973d 9c94 09be cf06 05be
00000230: a7b2 efbd 1d29 0a3e 26fd 253e 1cd4 5f3e
00000240: 2a46 adbe cc40 95be a0d7 773e f6cb fc3d
00000250: e595 8abe 6336 8fbe 45be a0bd dd7c 57be
00000260: fb21 bbbe 2d02 17be f856 073e 0479 9dbe
00000270: 0a99 c4be 4016 643e 35d4 5ebe 8771 913e
00000280: 004a 843e 589a 833e c3a6 dbbd 74b0 9ebc
00000290: 382d c2bd b4eb 873e cf70 a8be 7a49 27bb
000002a0: edfb 87bd 760f 48be 0135 a03e 11d9 1b3e
000002b0: 322f 64b8 1948 f03c 5a1d 80be 94b9 f1be
000002c0: c5ee 9a3e 513d 32be 677f 4cbe c54e 07be
000002d0: f800 8a3b fcfa 533e a334 a2be 2aba a0be
000002e0: b62b b8be 70e5 263e cff9 883d 1ea3 3abe
000002f0: d1aa 36be 174b 163e 65c0 ae3e a156 c23b
00000300: 108b c1bd ce5d b63e 7fd3 c03e d283 543e
00000310: 7046 863e 8046 74be cee9 53be 31d8 613e
00000320: 1c77 d1bd a994 a0bd f457 4f3e c147 503e
00000330: 6942 18be 5578 0a3e 46e3 a6be df5b 993d
00000340: d3f4 b13e c777 703d ea5c 64be ac0d ac3e
00000350: f3cc 9e3e 9fee a63c c35c 963e dce1 f13d
00000360: 3157 cabe b61e 53be d5a2 073e 8612 6e3e
00000370: e0d6 67bd 1f42 5e3d 7993 efbd 93a9 883e
00000380: a695 543e 209a 65be 0c48 523e 9283 c63e
00000390: 5080 2dbe 2b63 df3d 6189 a63d cfeb cb3e
000003a0: d908 11be 65b5 0b3e e5ec 98be 3158 d43d
000003b0: 8370 cbbe b72a 6f3e 9661 0dbc 671f 4dbe
000003c0: efc3 cabe 8041 19bc d77d 563e f433 b23e
000003d0: 6159 f8bd 5baf 3bbe 5af6 953d ede0 b93e
000003e0: 412d 9e3e dde8 9c3e 3130 71be f2df d3bd
000003f0: aec6 afbe bf31 193e bcc6 b5be db5d bd3d

transformer_encoder.layers.1.linear2.weight f4 [6, 2048]
-0.08151199 0.03816603 -0.018030759 -0.0017342392 0.05844915 -0.0031786065 0.04358446 0.011088402
-0.03296291 -0.022311807 0.022208892 0.020226205 0.042793572 0.020870898 -0.026489295 0.02281487
-0.033269007 -0.039362993 0.026667258 0.011621272 0.2113431 -0.01544899 0.038887907 -0.00061479484
0.017997589 -0.025765175 -0.00323201 0.013702768 0.007531995 -0.0441994 0.014303896 -0.041067667
-0.06576561 -0.009060943 -0.009254515 -0.019025559 -0.013354785 -0.026406182 0.008613135 -0.030041914
0.014514438 0.04944853 -0.056924295 0.0043067373 0.058350854 0.011970942 0.07340519 -0.0080950735
0.009618833 0.0077002095 0.048495222 -0.016743083 -0.0077823587 0.020231558 -0.10335627 -0.054313824
0.07630655 0.08754546 0.016839838 -0.0074497056 0.026730899 0.0127014285 0.017482344 0.0595281
0.0019283966 0.009307447 0.027908174 0.0014603311 0.013806171 0.05875482 0.029017523 -0.016772013
0.019658688 -0.033377264 0.010864252 0.016660752 -0.005859448 0.01525907 0.03638904 -0.0053554615
0.047833044 0.026316836 0.10997905 -0.114715114 0.0799126 0.046661302 -0.07860898 0.07347058
-0.020812016 -0.01790789 -0.016845366 0.04649423 0.0017573714 -0.006966934 0.010946373 0.042214494
0.019776152 -0.016045572 0.005205777 -0.011451098 0.028493082 0.016839156 0.010194077 0.024786433
0.009144832 -0.0035869123 0.04103314 0.074640445 -0.021285584 0.031604458 -0.015567494 -0.029026624
-0.015444356 0.012017515 -0.011819307 -0.017603502 -0.004115381 0.027061172 -0.024759863 -0.05540436
0.015315155 0.024154896 0.014770394 -0.026759418 0.03391815 -0.01733123 -0.016316611 0.020436812
0.012450708 0.028140834 -0.052890476 0.014575623 -0.025890607 -0.0035306301 0.01943505 -0.107603766
0.002019245 -0.015339695 0.018177897 0.04115471 -0.043119792 -0.0017597246 -0.03095129 -0.01133687
0.0044681462 -0.021036394 -0.03983017 -0.004385158 0.0019451359 -0.009253245 -0.01228588 -0.035562642
0.031590734 -0.000196996 0.007537696 -0.037424535 0.006321668 -0.011999814 0.020960854 0.0019090803
0.027152175 0.009650569 -0.029248744 0.047437146 0.0020867165 0.025208969 0.009188265 0.0252857
-0.00014701969 -0.0062704 0.029014697 0.0033800825 -0.01648243 0.022571165 -0.15354939 0.046298735
0.0016024027 -0.003199806 -0.017526438 -0.018243974 -0.0012792157 0.025209308 0.0500601 0.054539178
0.033000182 0.010035322 -0.004227961 0.066692345 -0.017659802 0.002177006 -0.008902213 0.05380509
0.028162712 0.004870285 0.025206346 -0.00814818 0.0021584271 0.004522898 0.0071865222 -0.011680724
0.0037696105 -0.10177153 -0.018974833 -0.08354041 -0.004026954 0.01614148 -0.08150219 -0.0053225528
0.007821185 -0.019452767 0.038543813 -0.040547516 0.0043298006 0.036596123 -0.0020089427 0.013430799
-0.007883538 0.030488057 -0.003054996 -0.016990792 -0.022374207 -0.029127901 -0.015427369 0.010431551
0.018162383 0.08123381 -0.02736933 0.015445919 0.03835042 0.00026062044 -0.014011381 0.011947265
-0.0033327718 0.0020079606 0.009213458 -0.034195784 -0.01461169 -0.013102346 -0.010333488 -0.01482322
0.05076967 -0.0278521 0.014315913 0.003585999 0.038150746 -0.010448016 0.022191094 -0.00796141
0.00090373884 -0.016934197 -0.03882295 -0.022585252 0.06861049 -0.0122232875 -0.057859674 -0.024198547
00000000: c2ef a6bd fc53 1c3d 3eb5 93bc 694f e3ba
00000010: 6068 6f3d 2b50 50bb 9e85 323d 21ac 353c
00000020: 1e04 07bd 40c7 b6bc 6cef b53c 6db1 a53c
00000030: 5048 2f3d 72f9 aa3c 1400 d9bc 40e6 ba3c
00000040: 1545 08bd 173b 21bd 4b75 da3c 2667 3e3c
00000050: 536a 583e c31d 7dbc ed48 1f3d 2f2a 21ba
00000060: ae6f 933c 7d11 d3bc 21d0 53bb 9381 603c
00000070: f4ce f63b 6e0a 35bd e35a 6a3c 9236 28bd
00000080: 1fb0 86bd 5974 14bc 40a0 17bc 7ddb 9bbc
00000090: 07ce 5abc c751 d8bc 1b1e 0d3c 761a f6bc
000000a0: f7cd 6d3c 8b8a 4a3d 7329 69bd 881f 8d3b
000000b0: 4e01 6f3d c521 443c 7655 963d 33a1 04bc
000000c0: 4f98 1d3c 0a52 fc3b eda2 463d ca28 89bc
000000d0: 2803 ffbb a7bc a53c 74ac d3bd 2c78 5ebd
000000e0: 9c46 9c3d 094b b33d b3f3 893c a91c f4bb
000000f0: c2fa da3c a719 503c 2237 8f3c bdd3 733d
00000100: 41c2 fc3a 437e 183c af9f e43c 9568 bf3a
00000110: 4733 623c e5a8 703d 28b6 ed3c 7665 89bc
00000120: 420b a13c 99b6 08bd faff 313c 217c 883c
00000130: 9d00 c0bb 2e01 7a3c ad0c 153d de7c afbb
00000140: 95ec 433d 6896 d73c b23c e13d c2ef eabd
00000150: 38a9 a33d ec1f 3f3d bffd a0bd be77 963d
00000160: f67d aabc 91b3 92bc 4bff 89bc bc70 3e3d
00000170: 9957 e63a e14a e4bb 6b58 333c 1be9 2c3d
00000180: 9901 a23c 0172 83bc 3995 aa3b 639d 3bbc
00000190: 536a e93c 45f2 893c 0f05 273c eb0c cb3c
000001a0: 35d4 153c 6712 6bbb 5e12 283d 17dd 983d
000001b0: 1b5f aebc ad73 013d cd0e 7fbc 3ec9 edbc
000001c0: 530a 7dbc 1ce5 443c c4a5 41bc 3835 90bc
000001d0: 51da 86bb 64af dd3c 32d5 cabc afef 62bd
000001e0: 6aec 7a3c 7de0 c53c 86ff 713c 9136 dbbc
000001f0: c2ed 0a3d 39fa 8dbc 6aaa 85bc 1a6b a73c
00000200: 0efe 4b3c 9b87 e63c afa3 58bd 98ce 6e3c
00000210: 8a18 d4bc 2562 67bb 4136 9f3c 5d5f dcbd
00000220: 4f55 043b 5853 7bbc d0e9 943c d791 283d
00000230: 619e 30bd 8fa6 e6ba 8f8d fdbc 47be 39bc
00000240: 8769 923b 8454 acbc f624 23bd 5fb1 8fbb
00000250: eef3 fe3a ec9a 17bc b74a 49bc 22aa 11bd
00000260: 4965 013d b690 4eb9 c7fe f63b 784a 19bd
00000270: ff25 cf3b de9a 44bc 19b6 ab3c 1b3a fa3a
00000280: 3d6e de3c 6c1d 1e3c 109b efbc 744d 423d
00000290: 4bc1 083b 0a83 ce3c 608a 163c f523 cf3c
000002a0: 4c29 1ab9 ed77 cdbb 3bb0 ed3c 6084 5d3b
000002b0: 2906 87bc 2ae7 b83c 0d3c 1dbe bea3 3d3d
000002c0: b607 d23a d6b3 51bb 9b93 8fbc 6374 95bc
000002d0: 5bab a7ba c083 ce3c d20b 4d3d 7964 5f3d
000002e0: 332b 073d 316b 243c b58a 8abb ff95 883d
000002f0: 4aab 90bc 1aac 0e3b 96da 11bc ba62 5c3d
00000300: 7db5 e63c e996 9f3b 8a7d ce3c f27f 05bc
00000310: 6674 0d3b d134 943b eb7c eb3b 8260 3fbc
00000320: 920b 773b 986d d0bd 1c71 9bbc 3c17 abbd
00000330: 8af4 83bb 233b 843c 9fea a6bd cf68 aebb
00000340: 6d24 003c 695b 9fbc 1ee0 1d3d 2715 26bd
00000350: 00e1 8d3b d1e5 153d 77a8 03bb db0c 5c3c
00000360: f429 01bc 17c2 f93c 5436 48bb 4630 8bbc
00000370: 1d4a b7bc a39d eebc 13c3 7cbc 19e9 2a3c
00000380: 47c9 943c e95d a63d a535 e0bc e110 7d3c
00000390: 5415 1d3d e2a3 8839 fe8f 65bc 76be 433c
000003a0: a26a 5abb fd97 033b 0bf4 163c e110 0cbd
000003b0: df65 6fbc 39ab 56bc ca4d 29bc 17dd 72bc
000003c0: dcf3 4f3d 162a e4bc 4b8d 6a3c 1403 6b3b
000003d0: f543 1c3d 282e 2bbc 19ca b53c 9370 02bc
000003e0: e3e8 6c3a 96b9 8abc d004 1fbd b504 b9bc
000003f0: a883 8c3d 2f44 48bc 44fe 6cbd 083c c6bc

transformer_encoder.layers.1.linear2.bias f4 [6]
0.001535546 0.010880216 0.02052349 0.006920898 -0.0017179317 0.0073279757
00000000: 6044 c93a ef42 323c e120 a83c b3c8 e23b
00000010: 392c e1ba 841f f03b

transformer_encoder.layers.1.norm1.weight f4 [6]
1.125074 1.0275115 0.9663582 0.9640246 0.987211 1.0465484
00000000: 6d02 903f 7f85 833f 4063 773f 51ca 763f
00000010: dcb9 7c3f 4cf5 853f

transformer_encoder.layers.1.norm1.bias f4 [6]
-0.0017022719 0.041353248 0.04231596 -0.07725191 0.0075834165 -0.015160842
00000000: c41e dfba 0662 293d 8053 2d3d 4036 9ebd
00000010: 4f7e f83b 2e65 78bc

transformer_encoder.layers.1.norm2.weight f4 [6]
1.2597017 1.2535511 1.4112215 1.2329266 1.3224299 1.3723865
00000000: e83d a13f 5d74 a03f e8a2 b43f 8ad0 9d3f
00000010: 6245 a93f 5caa af3f

transformer_encoder.layers.1.norm2.bias f4 [6]
-0.028971123 0.10277184 -0.055915184 -0.06591535 -0.14722255 0.06289384
00000000: d954 edbc 0b7a d23d 5207 65bd a1fe 86bd
00000010: 82c1 16be 7cce 803d
