DU_model/Transformer/best_model_combined4_tr.3.40.pth (torch, 474310 bytes, 29 tensors)

norm.weight f4 [6]
00000000: 0000 803f 0000 803f 0000 803f 0000 803f
00000010: 0000 803f 0000 803f
1.0 1.0 1.0 1.0 1.0 1.0

norm.bias f4 [6]
00000000: 0000 0000 0000 0000 0000 0000 0000 0000
00000010: 0000 0000 0000 0000
0.0 0.0 0.0 0.0 0.0 0.0

transformer_encoder.layers.0.self_attn.in_proj_weight f4 [18, 6]
00000000: d3d2 f5bd 27ee 9cbd f8dc 5fbe d8c3 98be
00000010: 85a9 0a3e 2714 e33e 262d c0be ccc2 643e
00000020: 18a6 cdbe dc3e f8be 40c2 cbbe fcd1 a2be
00000030: 37dd 033f 4206 f5bd 38f1 883c fce7 573e
00000040: b0b2 c0be 791e 8f3e 59f5 f0bc 742b 113e
00000050: 0e7d 1ebe c3ef 98be 1653 0cbe c1f6 313e
00000060: 57b3 00bf 41fd c7be be1a a8be 29e2 e9be
00000070: 91ec f1be b3f6 d53d 92a1 94be c5f3 8bbe
00000080: 8cc9 973e c359 10bd e642 983e 24af 5b3d
00000090: 7200 bdbe c003 0fbe ddfb fabe 7180 34be
000000a0: 4092 c8be b545 a03e 49e5 353e 0fa9 e83e
000000b0: cc2c d9ba 5773 ecbe 45b8 08be a824 00be
000000c0: ba3f c23d 63d7 643c afd9 db3e fe0e ac3e
000000d0: efc9 ec3e 7b90 f43e bc3b f8be cbe6 f1be
000000e0: c919 b23e e173 d43e a224 08bf 5928 b73e
000000f0: 66a9 923e 00bf 103e 37e7 bb3e 169c 49bd
00000100: 8f3e b7be 1bc7 c13c ca08 273f de06 373e
00000110: f51d b5be 7ca8 9a3e 3913 8abe 2ab9 b6bd
00000120: 4dd8 883e 56b4 a1be e104 973e baae fbbe
00000130: 449e 793d 6fda 913d 51be 98be abf9 78be
00000140: 8f8a 8dbe a8df 0f3e 5a89 cd3e 52a1 dabe
00000150: 24ba 5a3e 3ab7 0cbf 4c75 b3bd 043d 5e3e
00000160: 4c40 61bf a050 323e c62c 153b a8dc 0e3e
00000170: e65c 86bd fe8e cebe a6c1 9fbe 967b 183e
00000180: 256d d7bf 8401 a0bd 094f fabe 69dc 463e
00000190: 90de 8b3f 6eef f1bf f73c 993f b6aa cdbe
000001a0: 6977 9dbf f939 803d bd38 42bf 307f bd3e
-0.12003102 -0.076626115 -0.21861637 -0.29836917 0.13541229 0.44351313 -0.37534446 0.22339934
-0.40165782 -0.48485458 -0.39796638 -0.3180083 0.5150942 -0.11964084 0.016716585 0.21084589
-0.37636328 0.27952936 -0.029413866 0.14176732 -0.15477392 -0.29870424 -0.1370357 0.17379285
-0.5027365 -0.39060405 -0.32832903 -0.4568036 -0.47250798 0.10447445 -0.29029518 -0.2733442
0.29645956 -0.035241853 0.2973854 0.053633824 -0.36914402 -0.13966274 -0.4902028 -0.17627122
-0.3917408 0.31303182 0.17763247 0.4544148 -0.0016569137 -0.46181747 -0.13351543 -0.12513983
0.09484811 0.013967368 0.42939517 0.33605188 0.46247813 0.4776648 -0.48483074 -0.47246394
0.34785298 0.4149466 -0.531809 0.3577297 0.28644866 0.1413536 0.3669984 -0.04922112
-0.35789916 0.023654511 0.65247786 0.17873713 -0.35374418 0.30206668 -0.2696779 -0.08922036
0.26727524 -0.31582898 0.2949591 -0.49156743 0.06094195 0.07121741 -0.298327 -0.24313991
-0.27644774 0.14050162 0.40143853 -0.42701203 0.2136007 -0.5496708 -0.08762607 0.21702963
-0.87988734 0.17413568 0.0022762283 0.13951361 -0.06560688 -0.4034347 -0.3120243 0.14890894
-1.6830183 -0.07812789 -0.48888424 0.19420017 1.0927296 -1.8901193 1.197173 -0.40169305
-1.2302066 0.062610574 -0.75867826 0.370111

transformer_encoder.layers.0.self_attn.in_proj_bias f4 [18]
00000000: 45a1 8bbb db81 a33b 5a2c 233c 9a9b 853b
00000010: 5314 43bd 2271 753d 1ebe 1dbb f5f0 2bbb
00000020: 06d7 cc3b a73a 25bc be55 af3b 6208 1abc
00000030: d0ac 2bbc 2226 0e3b d248 00be 64dd 6f3d
00000040: d427 62bf 1c34 8cbf
-0.004261168 0.004989845 0.009959305 0.004077387 -0.047626805 0.059922345 -0.0024069618 -0.002623615
0.0062512187 -0.010084785 0.0053507974 -0.009401413 -0.010478213 0.002169021 -0.12527779 0.058560744
-0.8834202 -1.0953403

transformer_encoder.layers.0.self_attn.out_proj.weight f4 [6, 6]
00000000: 55b3 9fbb 0a85 973d ff1b cd3e 3af0 6c3d
00000010: f13a f6be 5ee6 d23e fa63 e3bd d36a 26be
00000020: 98ab 843e 2656 933e 090b 8f3d fdf0 d83e
00000030: 5b1c 95be c93a ecbe 3a80 973e af0e 8d3e
00000040: aed0 5bbe 9b52 47bd 2157 37be 1854 42be
00000050: 54fa 763e f2d9 023e ea85 a0be 79b3 3dbe
00000060: ab54 c23c b5e9 b43d a4a5 1e3d 7edd 00bf
00000070: 3bba c4bd ab86 a6be 1d13 01bf 1a6b 003f
00000080: 714a 543e 59cc 0cbe ae76 71be 0055 9c3d
-0.004873673 0.07398422 0.40060422 0.057846285 -0.48091844 0.4119138 -0.111030534 -0.16251688
0.25912166 0.28776664 0.06984527 0.4237136 -0.29123196 -0.461386 0.29590017 0.27550265
-0.21466324 -0.048662763 -0.17904331 -0.18977392 0.2411893 0.12778452 -0.31352168 -0.18525495
0.023722013 0.088336386 0.038732186 -0.5033797 -0.09605833 -0.32524619 -0.5041979 0.50163424
0.20731522 -0.13749827 -0.23580429 0.076334

transformer_encoder.layers.0.self_attn.out_proj.bias f4 [6]
00000000: 13c1 a3bf bc8c 1bc0 0f92 0b40 d95c 1e3e
00000010: cc96 a03f d9ba 00c0
-1.2793297 -2.4304647 2.1807897 0.15465106 1.254602 -2.0114043

transformer_encoder.layers.0.linear1.weight f4 [2048, 6]
00000000: e435 7e3e e854 b5be 7f26 91bd 63bd a93d
00000010: d2e2 043e 9145 85be 87be 97be c4bb 8f3d
00000020: 016b d33d c31a ec3d 4db5 0fbe 7127 9fbb
00000030: ae3a b3be 52c7 db3e 24df 2c3d ce91 2a3e
00000040: 2c65 9f3e e833 5d3d a707 96bd 9631 89be
00000050: f06d 7bbe c6a6 01bd d6b6 e43c 9b33 b3be
00000060: 1d97 4dbe 4bf7 a6bd e7d7 b7be fcae 38be
00000070: 6e03 2c3e edaa 5cbe 4400 02bd 67c3 7dbd
00000080: 3d0c e83e 976c 083d 9de5 e0bd c0da 673e
00000090: df99 373e cbef 6fbd b217 2f3e 1eb6 303d
000000a0: 76c5 8cbe cfee 9c3d 6413 b23e a061 f73d
000000b0: 87da a93e b1b2 63be e32b db3e c076 77be
000000c0: 4433 f63d e104 e7bd 42cc b73d dbe3 803e
000000d0: 5e1f 5ebd 0bdd 09bf 4d41 c63e a55d 473e
000000e0: c9a1 743e b330 a93e 9f3e 073d 5e6e 93be
000000f0: d7ce d93e 3ff7 50bd fc00 813c ebb5 763e
00000100: 4308 cfbc eeb5 0dbf 2501 6abe ad94 7bbe
00000110: 79f1 153e c14e 9a3e 660c 783e 0c9c f6be
00000120: 93eb 583e 74ed 123f 9b64 8e3e 2cff 723d
00000130: 0ad5 e23e 6d0a c5be 74fb 203e e3d1 88be
00000140: 18f9 f93e 9791 7d3d 15b9 813e 2c14 763d
00000150: b28f 20be 3cfb c33d 1ebf 6ebd e4bf 61be
00000160: f726 7cbe 3af1 afbd 79df 99be 8935 5dbe
00000170: 8ec0 483e 31d6 063e be8c c6bd ccb2 c83d
00000180: 6750 c03e 0d9e 3cbe 8390 bc3d bd5c af3e
00000190: dea6 d1bd 951e 02bf ad76 d23c f1f7 103e
000001a0: 4e5e 22be 6f9a 2bbe 5629 50bd dd13 8e3e
000001b0: 73cb bdbe 4154 9ebe 1d00 af3d 9788 87bc
000001c0: 0cff 5b3c 3b6d b4be 53f0 f73e 055f ac3e
000001d0: 467d b6be 9375 413e a683 54be f1d8 663e
000001e0: a186 003d b42b e4be 5cca 073f 2ea6 dfbe
000001f0: acf0 443e 0964 073e f3b0 dbbc f363 3ebe
00000200: 0b27 d33d ea8f 8d3d 9bb8 133e 8482 db3d
00000210: 6e6f cc3e 6f51 ddbd 92e9 003f 07f8 c2be
00000220: 3750 a83e 4d14 83be ab9d 45be a417 b9be
00000230: 3246 ce3e 097b bb3e 026e 513d 7429 eabe
00000240: d0a1 88be a6ca de3e 6a4f 0d3c 9f68 e33c
00000250: a125 babc e679 3cbe a57d c1bd 9cf4 9f3e
00000260: cd24 b03e 81a3 9ebd 6ca6 cb3e 2d20 e9be
00000270: 591c ebbe 5e3a 4fbe b3ae 7b3d 1e5e 4a3c
00000280: 156a 7a3e 431a 0c3d c523 043e d904 dbbd
00000290: 5653 2abe 5146 4f3e dc57 c73d f7a1 0fbd
000002a0: 3120 553e 73a3 ac3e 2b8a f4bc c246 093e
000002b0: 15f2 8cbe 7e0c 523e 0888 443e 7ed4 dbbe
000002c0: 47e4 013f 3424 ffbe 5d6f 9a3e e6c2 a7be
000002d0: 99d6 8ebd da8a 41be 926b 163e db05 813e
000002e0: d5ab a63e 00d5 febe 5acd 4f3d 4a66 1e3b
000002f0: e657 933b ada4 87be e462 da3d 30e5 ac3e
00000300: 781d 873e ee2e 54be 5144 f93e 4c43 a43d
00000310: 3eb8 abbe 04ba 8b3e b269 5d3e b002 79be
00000320: 4cfb 093f 4e0c 86be 60a1 06bc ab0e 9cbe
00000330: a938 843e 07f2 8a3e f8c9 623e 794f fdbe
00000340: 883b aa3e 20ff 13bf 2142 b43e 82f4 32be
00000350: 9339 993d 3c18 053e 6b4e 8dbe 2c93 aebe
00000360: e943 c3be 1cbd fcbd f5ad 42be 334a 103e
00000370: e56f a83e 7b2f abbe 2d31 833e f28a 9fbe
00000380: aa7b 9a3e fd8f d03d 2cb5 e5ba 154a 0a3e
00000390: 1d94 a33e 1018 413e 8235 08bf 1b3c 39bd
000003a0: e742 d03e 37e6 9f3d 4298 1bbe a1a9 213f
000003b0: faa1 d53e 9e36 26be 4459 123f 572b cd3d
000003c0: 2513 e53e a9bd d3be 3281 053f b1b1 f33d
000003d0: 08cc cfbe 6618 043d 130c 60bd 8def 96be
000003e0: 837c 22be 745d 92be 14db 6b3e 6fc8 f83c
000003f0: 5285 a03d 653d 873e 0d26 8ebe 2260 083e
0.24825245 -0.3541634 -0.07087421 0.08288076 0.1297715 -0.26029637 -0.29637548 0.07018235
0.10323144 0.11528542 -0.14034005 -0.0048569967 -0.35005707 0.42925507 0.04220499 0.16657183
0.31131876 0.05400458 -0.07325678 -0.26795644 -0.24553657 -0.03165319 0.027919214 -0.3500031
-0.20077176 -0.08152636 -0.35906908 -0.18035501 0.16798183 -0.21549578 -0.031738535 -0.06195393
0.45321837 0.033306684 -0.10981295 0.2264204 0.17929791 -0.058578294 0.17098883 0.04314243
-0.274944 0.076627366 0.3478042 0.12079167 0.33174536 -0.22236134 0.4280692 -0.24166393
0.12021497 -0.112802275 0.08974506 0.2517384 -0.054229133 -0.5385291 0.38721696 0.19469316
0.23889841 0.33044967 0.033018705 -0.2879514 0.4254062 -0.051017042 0.01574754 0.24092834
-0.025272494 -0.5535573 -0.22851999 -0.24568434 0.14642896 0.3013821 0.2422348 -0.4816593
0.21183614 0.57393575 0.2781113 0.059325382 0.4430316 -0.38484517 0.15720922 -0.2672263
0.48822856 0.061906423 0.2533652 0.06007783 -0.15679815 0.095694035 -0.058287732 -0.22045857
-0.24624239 -0.08590932 -0.3005331 -0.21602453 0.19604704 0.13167645 -0.09694813 0.09799728
0.37561342 -0.18419667 0.09207251 0.3425044 -0.102369055 -0.50827914 0.025691355 0.14157082
-0.15856287 -0.1675813 -0.05082067 0.2774953 -0.37069282 -0.30923656 0.085449435 -0.016544623
0.013427507 -0.35239586 0.4842554 0.33666244 -0.3564245 0.18892507 -0.20753345 0.22543694
0.031378392 -0.44564593 0.5304315 -0.43681473 0.19232434 0.13221754 -0.026817774 -0.18592815
0.10310181 0.06912215 0.1442589 0.10718253 0.39928764 -0.10806548 0.503564 -0.38079855
0.328737 -0.25601426 -0.19298427 -0.3615085 0.4028793 0.36617306 0.051130302 -0.4573475
-0.26685953 0.43513983 0.008624891 0.027759848 -0.022723021 -0.18405876 -0.09447793 0.3124131
0.34403077 -0.0774603 0.39775407 -0.4553236 -0.45920065 -0.20237109 0.061445903 0.012351541
0.2445453 0.034204733 0.1290427 -0.10694284 -0.16633353 0.20241667 0.09733555 -0.03506657
0.20813061 0.33718452 -0.02985104 0.13405898 -0.27528444 0.20512578 0.19192517 -0.42935556
0.5073895 -0.49832308 0.30163088 -0.32765883 -0.06974525 -0.18900624 0.14689472 0.2519978
0.32552972 -0.4977188 0.050732948 0.0024169856 0.0044965623 -0.26492825 0.10663393 0.33768606
0.2638967 -0.20721027 0.48684934 0.08020648 -0.33539003 0.27290356 0.21622351 -0.24317431
0.53899074 -0.26181263 -0.008217186 -0.3047994 0.25824478 0.27137777 0.22147357 -0.49474695
0.33248544 -0.57811165 0.35206702 -0.17476085 0.074816845 0.12997526 -0.2759889 -0.34096658
-0.3813775 -0.12340757 -0.19011672 0.14090805 0.3289787 -0.33434662 0.25623456 -0.31160694
0.30172473 0.101837136 -0.0017525307 0.13504823 0.3194894 0.18856835 -0.53206646 -0.045223337
0.40676042 0.07807582 -0.151948 0.6314946 0.4172514 -0.16231772 0.5716746 0.10018032
0.4474117 -0.41355637 0.5215026 0.11899126 -0.4058535 0.03224983 -0.054699015 -0.29479638
-0.1586781 -0.28586924 0.2303279 0.030369012 0.07837929 0.26414028 -0.27763405 0.13317922

transformer_encoder.layers.0.linear1.bias f4 [2048]
00000000: f6b6 ed3c 8c62 19be 7e2a 26be c81c adbd
00000010: 4d2e fd3c 2108 f93d e2b1 04be 6acc b7be
00000020: 8cb0 803c 4547 48be 3770 3fbc bdd3 a1be
00000030: f321 793e da0a ab3e 5c77 f23d eb76 f6be
00000040: 3325 ffbb be6c 043e 1891 40be 9c49 1bbe
00000050: 9592 89be 9e73 25be dd8f 7c3e 2712 bdbe
00000060: 944c 453e 441d 483e 2340 9bbe 2d8a c6be
00000070: c342 bfbc 3c8f 7ebe d404 f3bc 2748 6d3e
00000080: dd0f e4bd ade9 1fbe 06be 813e a280 d93c
00000090: 683c 96be e846 c7bc 0c66 993d 39e5 5bbe
000000a0: d151 9cbd eecb 523e abf2 9c3e 36f2 85be
000000b0: 63bf 3fbe 6e84 dcbe d855 033e d901 97be
000000c0: 2321 fcbd d7c9 1cbc 0ecf d0be 913b d13c
000000d0: dc0c e13d ea17 b8be e725 a5be 6e7e 4d3e
000000e0: 7f5f fb3d d64d 0e3e b4b4 743c b4fa aa3e
000000f0: e4fb d73d 1dfc 04be b676 81bd bf02 9cbe
00000100: 0b9a c43e eacc 70be cc2a 113e 6499 b23e
00000110: be1e b2be 9e6c 9cbd ecb2 953d d8ad e13d
00000120: 9ee8 1dbe 31a3 923e 6e17 ecbd 4177 cabd
00000130: a8c3 cdbe 5670 6f3d 9678 7dba 4815 14be
00000140: 4de1 8d3e 2a56 163e 5dbc 143e bc0b 91bd
00000150: 2e0e 8fbe 9687 a03d 6f4d 69be f93d 6fbe
00000160: ee58 c6bd e90e a1be d094 aebd 9fad 7f3b
00000170: 17a4 583e e198 78be e708 b0be 68b4 2dbe
00000180: 93e3 14be f438 9b3e c2cf c4bd 0708 80be
00000190: a4bb 0f3e 4175 4cbd 2a0f cf3c 43b1 0f3d
000001a0: e489 a83e ade9 4cbe 87f6 8fbe b1ae c4be
000001b0: 929c cabe 8ef1 3cbb af60 8e3d 1139 a8be
000001c0: 2526 58be 279e d7be c6c1 823e 414b cf3e
000001d0: a1d6 953e 39be dbbc baf0 833e 15f5 b13d
000001e0: 92ca b43e 17de b93e 0c02 bebd 462d 87bd
000001f0: 36a2 a8be 6e6c 27bb e595 d23d 3cef 513e
00000200: b7e1 8fbe da25 823d 873b b2be a2f4 a83d
00000210: 697a 2f3e fc5b 953e bd4e 113e 793a b5bd
00000220: 4387 e4bd dfac 3abe 6db2 053e 2f58 d03d
00000230: 4313 fdbd 2cee 38be 524e d63d 197e 60bd
00000240: 1b63 27be 9eee ba3e 23df 183e 770b 9ebe
00000250: f2ff 73be 53e7 85be bcb1 68be 2395 df3d
00000260: da07 d0bc 5029 c7be 6471 f3bd 617e 17bd
00000270: 0e1b b4be 9bab 253d d98a 4f3e 3874 b0be
00000280: f575 ffbe a06d be3e 09e0 4dbe ae28 39be
00000290: b7fe 54be 2f0c 53be 03ae 043e 626f 3d3d
000002a0: dc9d edbd f81b 4a3e 0afc d63e dbc0 3ebd
000002b0: 878d ccbd 99c3 2dbd a81f 283e da7d 003e
000002c0: 54e9 b53b 9c8b 8c3e 94ed f5bc 0c66 a53d
000002d0: 8f6a 9e3d 5aa8 8abe a627 3cbe 176a 4ebe
000002e0: 6499 26be 35d7 0ebe 48fc 6d3e 60da cd3d
000002f0: 8e89 e43d 894b e3bc b0ab 7cbe 9579 ca3d
00000300: 6896 e83d 4950 b13e 425b bfbe d187 23be
00000310: 2555 32bd 3474 ff3d d8bc 34be 7878 97be
00000320: b618 f03d 2181 f4bd 34a0 9bbd a159 5b3d
00000330: 847f 9b3e 17d3 0e3e 090c b3be 7a30 1dbe
00000340: c303 cabd ba91 eb3c cd8e 4d3e 9ce6 413d
00000350: b36d c7bd d4f5 6ebe 2aff 10be 53eb 953e
00000360: 23c9 b93d 4c59 cebe 66a3 0c3e 71b2 103e
00000370: 60b4 8abe 00e6 803d 7d92 003d 715e 243d
00000380: 42cb d33d 5d68 8abe a4ed 473e 8d3e a83b
00000390: 7e6b 703e f222 073c e0f6 edbd 4488 19bd
000003a0: 4605 0b3e 29a4 8ebd 5b5f c0be 50af 5ebe
000003b0: 41a3 cbbe 9047 4d3e ee93 0cbe 1d2a a7bd
000003c0: 64cc f63d 4067 953e 047a 6d3e 85f3 10be
000003d0: 7cc3 663d 0c5e 57be 0bae 5d3d b0f6 993d
000003e0: f64e efbd a1da 2a3e cce5 ad3c 33df f83e
000003f0: 4443 783e 2f5a aabe 5383 7f3e 95c5 953e
0.029017907 -0.14978999 -0.16227147 -0.08452755 0.030905867 0.121597536 -0.12958482 -0.35898143
0.015709184 -0.19558437 -0.011684469 -0.31606856 0.24329357 0.33406717 0.11839172 -0.48137602
-0.007786417 0.12932107 -0.18805349 -0.15164798 -0.26869646 -0.16157386 0.24664254 -0.36927912
0.19267493 0.19542414 -0.3032237 -0.38777295 -0.023347264 -0.24859327 -0.029665388 0.23172055
-0.11135838 -0.15616484 0.2534029 0.026550595 -0.2934296 -0.024325803 0.07490167 -0.2147416
-0.07632793 0.20585606 0.3065389 -0.26161355 -0.18725352 -0.43069786 0.12825716 -0.29493597
-0.12311008 -0.009569607 -0.4078297 0.025541099 0.10988781 -0.35955745 -0.3225548 0.2006776
0.12274074 0.1389688 0.014935661 0.33394396 0.10546091 -0.12986799 -0.063214704 -0.30470845
0.38398775 -0.23515669 0.14176482 0.34882653 -0.3478908 -0.076379046 0.07309517 0.11019486
-0.15420768 0.2864013 -0.11527906 -0.09886027 -0.40188336 0.05845674 -0.0009669153 -0.14461243
0.27710953 0.14681306 0.1452498 -0.07082316 -0.27940506 0.07838361 -0.22783445 -0.23363484
-0.09684931 -0.31456688 -0.085244775 0.0039013398 0.21156345 -0.24277069 -0.34381792 -0.16963351
-0.14539938 0.3031689 -0.09609939 -0.25006124 0.14036423 -0.04991651 0.025275785 0.03508116
0.32917702 -0.20011015 -0.28117773 -0.3841453 -0.3957258 -0.0028830501 0.06952035 -0.32856038
-0.21108301 -0.42112848 0.25538462 0.40487102 0.2926531 -0.026824104 0.25769597 0.08689324
0.353108 0.36302254 -0.09277734 -0.06600432 -0.32936257 -0.0025546807 0.10282496 0.20501417
-0.28101894 0.06354876 -0.3481104 0.08249785 0.1713654 0.2917174 0.14190193 -0.088490434
-0.111586116 -0.18230008 0.13056345 0.1017307 -0.123571895 -0.18059605 0.10464157 -0.054807756
-0.163464 0.36510175 0.1492887 -0.30868122 -0.23828104 -0.2615305 -0.2272405 0.109171174
-0.025394369 -0.38898706 -0.11886862 -0.03698576 -0.3517689 0.04044686 0.2026781 -0.34463668
-0.49894682 0.37193012 -0.20104994 -0.18081924 -0.20800291 -0.20610116 0.12957005 0.0462488
-0.11602375 0.19737232 0.41989166 -0.04657064 -0.09987932 -0.042422865 0.16418326 0.12548009
0.0055514965 0.27450264 -0.030020513 0.080761045 0.07735168 -0.27081567 -0.183745 -0.20157658
-0.16269451 -0.13949282 0.23240769 0.10051417 0.11159049 -0.027745979 -0.24674869 0.09886471
0.11356813 0.34631565 -0.37374312 -0.15969779 -0.04353823 0.12473336 -0.17650163 -0.29584098
0.11723463 -0.11938692 -0.07598916 0.053552274 0.30370724 0.13947712 -0.3497012 -0.15350524
-0.09863999 0.028756011 0.20074005 0.047339067 -0.0973772 -0.23335963 -0.14159837 0.292811
0.09071567 -0.40302503 0.13734207 0.1413057 -0.2709074 0.06293869 0.031389702 0.04012913
0.10341503 -0.27032748 0.19524246 0.0051344098 0.23478505 0.008248078 -0.11619353 -0.03748347
0.1357623 -0.06964905 -0.3757275 -0.21746564 -0.3977299 0.2004683 -0.13728306 -0.08162329
0.12050703 0.29180336 0.23191077 -0.14155395 0.056338772 -0.2103197 0.05412106 0.07517755
-0.116849825 0.16684963 0.02122774 0.48607787 0.2424441 -0.3327193 0.2495244 0.29252306

transformer_encoder.layers.0.linear2.weight f4 [6, 2048]
00000000: ee84 933d 4063 5fbb c3ea 83be 8c78 913d
00000010: 7f60 053c def9 24bc 369c 32bc dfc6 80be
00000020: e919 043d 3389 283d a3f7 23bd a365 5a3d
00000030: e109 cebd 96fc 03bd cdec 84bb 61fb 513b
00000040: 3cf4 a53d b000 dcb9 ea3e 03bc d136 363c
00000050: 3f79 2c3e a9a6 72bb 7f44 b43d ccae 653c
00000060: 838f 46bc 17a2 fabd 1fef 5abd df15 d53c
00000070: 847b afbb ef3a 383e f764 1f3d 1917 013e
00000080: 1c7c 92bd f35b 2f3e 90a2 fcbc 25d8 583d
00000090: 1b7f 9e3c b7b0 fabc 6db4 ae3e 0d8f d03e
000000a0: b68b b2be 5598 e63d ec4f 663d 7a7b 92bd
000000b0: 68b3 23bc c15b 613e ce27 4cbc 482e d9bb
000000c0: 3d31 4a3e 7a75 08be 0206 82bd 3040 193e
000000d0: 1233 2d3e 28e3 8e3e ace0 e7bd b643 1cbd
000000e0: 346e aabc 108f f03b 96a8 813c c9e1 d5bd
000000f0: ede7 59bd ea69 b7bd f8cb 053b 068a 29bc
00000100: 7895 26bc 6407 753c 100e a53c 250d 2ebe
00000110: 0a4b 22be b328 8a3e 873d 08bd 1124 04be
00000120: 0847 28be eeef 5d3d 6898 46bd de78 c4bd
00000130: 9b6e 0c3c c4c1 ecbc 9cfd 83bd 9d55 0dbb
00000140: 4ef9 143d de69 e83d 4822 203e 9a88 f9bd
00000150: bec6 d43d 0022 c53c cf5c 12be 2190 b6bc
00000160: d6e6 01be 1563 2abf d73c 63be 2a33 f43b
00000170: 6f6a 9f3c ac3c 5e3e 1ef4 a2bc 356c 67be
00000180: 79a7 df3b b6da b73c 7ec2 db3a 0bed be3c
00000190: 28b2 bcbc 3bf7 043d 59c7 32bc a2a9 0dbe
000001a0: 99c3 d03d 9187 303d 7ae8 863e 906e f63d
000001b0: abec b03d 41ce e2bc 3f6f 1c3c 73dd f4bc
000001c0: da49 b23c ee24 a7bc 7e42 f5bb 9d21 a1be
000001d0: b11f a63c cc1f 08bd f9de a2bb bf50 753d
000001e0: a37a 383e 013e fb3d b011 e03d 4737 643d
000001f0: 5f7e 9e3d fbce bf3d 8de6 afbc 3fa8 2fbe
00000200: ac63 e9b9 8d2f ddbb 2e2b 82be 45c7 c83c
00000210: 759e be3b c131 c83d 9599 4ebc bd8b be3c
00000220: 99a3 e5be 9fbd 133e 5a3c 963e 75b2 85bc
00000230: 0fa5 a1bd a08e 16bd 2cee f3bc d349 e13d
00000240: 4462 97bb 0230 a03d cc33 03be 74fc 5f3d
00000250: 5126 e4bd 69f8 0fbe 0065 85be 84b5 2fbb
00000260: 2b22 583d 6720 9d3e 7669 833c 9b0e 81bd
00000270: 92fc 0fbe 4e3d e2bc dc52 b23b b0be ba3c
00000280: f4f6 e13c 1c7e a13d 0aaf 4ebd f44a f1bc
00000290: 4ee0 513e ad67 14be 941a f8bc e823 adbe
000002a0: 279a f03c fd99 3dbd 0352 07be 13d8 4b3c
000002b0: 4594 893d 5914 693e 7e55 843c 4a14 a63c
000002c0: ab46 e83d 918c 8a3c 7a7d db3c dfc8 163e
000002d0: 428e 78bc af38 473d 0ed1 62bd c183 cc3d
000002e0: de78 283d 8c65 d5bc 764a bf3c cf70 223d
000002f0: a312 043d b208 59be b81a 49bc c049 c8ba
00000300: d44b 3b3e 3f0d 7fbd b27e 30bd a78f 903c
00000310: 5704 13bf b765 813b 1f3c bb3d 2c17 c83e
00000320: 229b 743d 2910 523d b413 e3be 1c12 d53a
00000330: e141 c53c 629b 24bc 9fe2 b13d 085b 7f3b
00000340: 9fc2 83be c849 62be 9d62 edbe 0a2d c23c
00000350: f136 c4bc 3935 2f3d 6f54 13be f4b7 373b
00000360: 5990 6abc b6fb 9d3d 6b27 08bd 415b f23d
00000370: 4c89 bd3c 5331 2ebc 0deb 43bc a7f2 093e
00000380: 0630 a4bc dbf8 c5bd 2cf8 1dbe 756b 7fbc
00000390: 6490 38bd ddef cb3c 2d96 76bc bf20 ee3c
000003a0: b8f3 c4bd e5ef 713b 558b 9bbd 2c60 ab39
000003b0: 81b3 5e3d 293a b43a c3d2 acba a546 30bf
000003c0: db9b a7be e959 77bd e866 ac3c b98e 1abf
000003d0: 2e72 da3c ab36 223e 7b2f ff3e 97a0 443d
000003e0: a06a 7cbe d3fe 6f3d eb69 88bc ceb8 73be
000003f0: df9d 4a3d c5b2 04bc 5f7e 8f3c 252f cbbb
0.07203089 -0.0034086257 -0.25765046 0.071030706 0.008140682 -0.010069339 -0.010901501 -0.25151727
0.032251272 0.04114647 -0.040031087 0.053319585 -0.10060478 -0.032223307 -0.004056549 0.0032040703
0.08103225 -0.00041962182 -0.008010605 0.011121468 0.16843127 -0.0037025607 0.08802127 0.014018726
-0.012119177 -0.122379474 -0.0534507 0.026011406 -0.0053553004 0.17991231 0.038914647 0.12606467
-0.07152578 0.1712492 -0.030839235 0.052940506 0.019347718 -0.030601842 0.3412203 0.4073414
-0.34872216 0.11259524 0.056228563 -0.071524575 -0.009991504 0.22007658 -0.012460662 -0.0066278316
0.19745345 -0.13326064 -0.06348802 0.14965892 0.16914013 0.2790768 -0.1132215 -0.03815051
-0.020804502 0.007341273 0.015827458 -0.10443456 -0.053199697 -0.089557484 0.0020415764 -0.010347849
-0.010167472 0.014955375 0.020148307 -0.16997202 -0.15848938 0.26984176 -0.033261802 -0.12904383
-0.16433346 0.054183893 -0.04848519 -0.09593366 0.008571292 -0.028900988 -0.064448565 -0.0021565922
0.036370568 0.113483176 0.15638077 -0.12184258 0.103894696 0.024064064 -0.14293216 -0.022285523
-0.12685713 -0.6655744 -0.22191177 0.0074523883 0.019459931 0.21702832 -0.019891795 -0.22599871
0.006825384 0.022443157 0.0016766337 0.02330639 -0.02303417 0.03246234 -0.010911786 -0.13834241
0.10193557 0.043098036 0.2634924 0.12032807 0.08638891 -0.02768624 0.0095480075 -0.029890751
0.02176373 -0.020403352 -0.007484733 -0.31470957 0.020278784 -0.03323345 -0.004970428 0.05989146
0.18015532 0.12267686 0.109408736 0.05571678 0.07738947 0.0936565 -0.02147224 -0.17154025
-0.00044515484 -0.0067500533 -0.25423568 0.024509082 0.0058172294 0.09775115 -0.012609859 0.023259992
-0.44851378 0.14427803 0.2934292 -0.016320447 -0.078928106 -0.03675711 -0.029776655 0.11000409
-0.0046198685 0.07821657 -0.12812728 0.054684117 -0.11140121 -0.14059605 -0.2605362 -0.0026811073
0.05276696 0.30688784 0.016041499 -0.06301614 -0.14061192 -0.027617123 0.0054420065 0.022796005
0.027583577 0.078853816 -0.0504599 -0.029454686 0.20495722 -0.14492674 -0.030286111 -0.33816457
0.02937038 -0.046289433 -0.13214879 0.012441653 0.06717733 0.22761668 0.016154047 0.020273346
0.11341604 0.01691273 0.02679323 0.14725064 -0.015170636 0.048638042 -0.05537515 0.099860676
0.041130893 -0.026049398 0.023350935 0.039658364 0.032244336 -0.21194723 -0.012274437 -0.0015280768
0.18290645 -0.06226849 -0.043089576 0.017646624 -0.574285 0.003948893 0.091423266 0.3908018
0.05971826 0.051284943 -0.4435097 0.0016256007 0.024079265 -0.010046812 0.08685803 0.003896417
-0.25734422 -0.22098458 -0.46364298 0.023703117 -0.02395198 0.042775366 -0.14387678 0.0028033229
-0.014316642 0.07714026 -0.033240717 0.118338116 0.023136757 -0.010631877 -0.011957896 0.13471471
-0.02004243 -0.09666606 -0.15426701 -0.015589585 -0.045059577 0.02489465 -0.015050453 0.029068349
-0.09616798 0.003691667 -0.07594935 0.00032687315 0.054370407 0.0013750243 -0.001318537 -0.68857795
-0.32736096 -0.06038848 0.021045163 -0.6037403 0.026665773 0.15841167 0.49840912 0.048004713
-0.24650049 0.05859263 -0.016652068 -0.23800966 0.049466964 -0.008099263 0.017516313 -0.0062006884

transformer_encoder.layers.0.linear2.bias f4 [6]
00000000: 5119 90ba 37ba 563d fe83 e43b a7b2 42bd
00000010: f878 97bc 1e46 923c
-0.0010993873 0.052423682 0.0069737425 -0.047533657 -0.0184903 0.0178557

transformer_encoder.layers.0.norm1.weight f4 [6]
00000000: a5d6 813f 532f 843f da95 8a3f 865a 593f
00000010: dd1c 873f 4a61 893f
1.0143629 1.0326942 1.0826981 0.8490375 1.0555683 1.0732815

transformer_encoder.layers.0.norm1.bias f4 [6]
00000000: 7a19 863d 4bc1 e03c 7b89 313c 69f8 1ebe
00000010: ad45 303d 71e1 8abc
0.06547828 0.02743592 0.010836001 -0.15524448 0.043035198 -0.016953202

transformer_encoder.layers.0.norm2.weight f4 [6]
00000000: c108 7f3f 00d6 7a3f 982a 953f b141 7c3f
00000010: e36f 783f a55b 793f
0.9962273 0.9798279 1.1653624 0.9853774 0.97045726 0.97405463

transformer_encoder.layers.0.norm2.bias f4 [6]
00000000: b73e 203d d316 88bd 45bc 243e 90b5 2ebe
00000010: 0336 55bd b0db 8d3d
0.03912231 -0.066449784 0.16087444 -0.17061448 -0.052053463 0.06926668

transformer_encoder.layers.1.self_attn.in_proj_weight f4 [18, 6]
00000000: b091 cabe 4f31 43bb 52c8 77be 5f94 0bbf
00000010: 47e6 e43e ac3b 1b3f ab18 78be 5e33 f9bd
00000020: 69a5 a0bd 3ade 46bd 2c4c 8dbf 94c6 8cbe
00000030: 3284 803e 6148 0cbe 88f9 493e f376 8a3e
00000040: d67a 19bf e719 b33e 4a24 c43d c38c 853e
00000050: 0e6f 67bd 9c73 e7be 62a3 9dbe 876c bc3d
00000060: 03f3 07bf 773c 38be 3957 13be 1675 c4be
00000070: 84ef 04bf 80d0 d3bc d1f4 27be ed56 f4be
00000080: cf8b 2b3e 31c6 8bbd a258 743e 07d9 123e
00000090: 6c8f d8be 9358 d0be 8d7b 99be a29c 06bc
000000a0: 14ad 24bf 991f 683f 7cb7 043f 6425 be3e
000000b0: c76f 14be f71e 15bf 870b 65be 3fae 8fbd
000000c0: 9b0f 363e 0e4a dabd 4078 0d3f bf32 6d3e
000000d0: 20f7 d83e 861e 0e3f c30c 8fbe 5bc4 1fbf
000000e0: cedd 903e b1d0 403f 29ae 18bf d3a6 76bd
000000f0: 0287 8b3e 0a61 613e f9e1 f53d dcd6 6b3d
00000100: 744a cbbe 63e0 e43e 30e8 5e3d d5fb a73e
00000110: 5ca3 e7be 5be0 ae3d 834f 00be c431 453e
00000120: cb37 d53e ccb3 a6be c251 7b3e 044a fabe
00000130: cdf1 4dbd 64dd bdbd 79eb 0abf cd7c fcbd
00000140: 0b49 4bbe 8009 1fbe 110e ef3e 46ce c1be
00000150: 13c3 1dbd 2848 a8be 78e4 35bd 269d 103e
00000160: abe0 103f 913a 163e 54fd 943e 722c 1e3e
00000170: d816 89be 6499 15bf a072 64be 08cb 74be
00000180: f8de 2c3c 43d8 f63e a772 543d 9723 ba3d
00000190: 21f5 4a3f 4f3b d4bd da40 543e 88ab 963e
000001a0: a309 07bf c4bd 493e ea43 0a3d 92ae 24bc
-0.39564276 -0.002978403 -0.2419751 -0.5452327 0.44706938 0.6063793 -0.2422816 -0.12168001
-0.078440495 -0.048551776 -1.1038871 -0.27495253 0.25100857 -0.13699485 0.19724095 0.27043876
-0.5995306 0.349807 0.09577234 0.26083955 -0.056502394 -0.4520539 -0.30788714 0.092003874
-0.5310518 -0.17991816 -0.14388742 -0.3837058 -0.5192797 -0.025856256 -0.16401984 -0.4772257
0.16752551 -0.068249114 0.23861936 0.14340602 -0.42296922 -0.40692577 -0.29977074 -0.008216055
-0.64326596 0.90673214 0.51842475 0.37137902 -0.14495765 -0.58250374 -0.22367679 -0.07015657
0.1777939 -0.10658656 0.5526161 0.2316389 0.4237604 0.55515325 -0.27939424 -0.6240899
0.28294224 0.7531844 -0.5964075 -0.06021769 0.2725144 0.22009674 0.120059915 0.057577953
-0.3970524 0.44702443 0.05442065 0.3280932 -0.4524182 0.08538886 -0.12530331 0.19257265
0.4164413 -0.3255905 0.24542907 -0.48884594 -0.050279427 -0.092707425 -0.5426555 -0.12328491
-0.19852082 -0.15530968 0.4669042 -0.37852687 -0.038516115 -0.3286755 -0.044407338 0.14122447
0.56592816 0.14670779 0.29099524 0.15446642 -0.2677524 -0.5843718 -0.22309351 -0.23905575
0.010551207 0.4821187 0.051867153 0.090888195 0.7928029 -0.10362875 0.20727864 0.29427743
-0.5274908 0.19701296 0.033756174 -0.010051386

transformer_encoder.layers.1.self_attn.in_proj_bias f4 [18]
00000000: 9566 923e 5727 a23d 3435 bd3d e57b 49bc
00000010: ada5 cebd 865b 0abd 76e9 983b 2c11 d0b9
00000020: e7e2 7b39 1d51 e3ba df0b 0a3b 9c21 8bbb
00000030: 65af a33d 1ab0 093d 76b6 9dbd ef1e e93c
00000040: 9be4 14bb 6c51 8cbc
0.2859389 0.0791766 0.09238663 -0.012297605 -0.10090194 -0.03377869 0.0046665026 -0.00039685646
0.00024021753 -0.0017342899 0.0021064205 -0.00424595 0.07992438 0.03361521 -0.07700817 0.028457133
-0.0022719267 -0.017128669

transformer_encoder.layers.1.self_attn.out_proj.weight f4 [6, 6]
00000000: 5529 f93c 6b82 f5bd 030b cd3e f257 e53d
00000010: 42eb 0bbf 3776 853e 03c9 72be 209b bebe
00000020: cd6f a13c a266 af3e 62cc cd3e 0cce 0b3f
00000030: 323f 88be e53a 07be 1900 b53e 5b0a d73e
00000040: d653 7dbd 7a3f 763e 6be2 00be b579 25be
00000050: 01f6 5dbe 48dd a63e b566 1cbf c00c 0bbe
00000060: 8be1 203e 3861 743e d6c5 2b3d 556c 16bf
00000070: 8044 91be 5790 e6be b311 34bf 1252 ce3e
00000080: 503d 8a3e 40c6 86be a418 cf3d cebc 78be
0.030415216 -0.11987766 0.40047464 0.11198415 -0.5465585 0.26066753 -0.23709492 -0.37227726
0.019706631 0.3425799 0.40194994 0.5461128 -0.26610714 -0.1320606 0.35351637 0.42000088
-0.06184753 0.24047652 -0.12586372 -0.16159709 -0.21675874 0.325907 -0.6109422 -0.13579082
0.15711038 0.23865211 0.041936718 -0.5875905 -0.28372574 -0.45031998 -0.70339507 0.4029699
0.26999903 -0.26323128 0.10112122 -0.24290773

transformer_encoder.layers.1.self_attn.out_proj.bias f4 [6]
00000000: 1b49 1dbc 7348 ccbd fb72 36bd 4398 e3bc
00000010: 6190 17bd 05d2 b5bc
-0.009599949 -0.09974756 -0.044543248 -0.027782565 -0.037002925 -0.022194872

transformer_encoder.layers.1.linear1.weight f4 [2048, 6]
00000000: cd6b 873e 9e30 c2be a586 8abe f762 d33d
00000010: cf6f 9d3e 6657 51be 8983 9dbe 75a7 f63d
00000020: 1c5f 7abd 0227 253e d74d 95be 77df c53c
00000030: 7729 97be 449c e23e dae2 ce3c 3833 4c3e
00000040: e7e9 343e 04af a93d cab0 25be b634 93be
00000050: 744d 8bbe 088b 3cbe c9ef 953e 1b8f 5fbe
00000060: 332a 4bbe bf78 eabd fae2 b1be 9d9e 5abe
00000070: b6e0 983d f301 b6bd f23a e53d d100 4e3d
00000080: 0328 5c3e 3065 4d3c 3f20 86bd f663 0d3e
00000090: 74a0 493e 14d8 54bd 0b38 8a3d b22e f2bb
000000a0: 0d0a 69be bdbf 06bd d09a 803e e70d b53e
000000b0: 89b3 493e e755 b3be 30ae 093f ce62 503d
000000c0: 6beb acbc b4d8 113d f265 d2bc a0a2 9b3e
000000d0: 640f 28be adba 00bf 55d6 da3e acfd f9bd
000000e0: 9a8f db3e ed41 573e ae26 d7bd 9e74 e93d
000000f0: d279 ac3e 4e12 9b3d 79c2 043e f229 9c3e
00000100: 1086 bfbe ba23 96be f9eb 99bd b750 35be
00000110: a4b0 9e3e a1a8 6c3c 059e bb3e 2b06 2cbf
00000120: cb87 9f3e 2496 183e 5af1 753e 1302 5f3e
00000130: c993 5d3e cdf7 b0be ec65 3c3e f0fc 10be
00000140: 4d4d 763e 6600 163e 7563 fc3d 4c8f 123d
00000150: f84e 10be 7709 b0bd 9824 dfbc 60c8 1fbe
00000160: c7b5 57be 4c05 53be 9021 f1be ee26 96bd
00000170: d06d c43c 7163 553e 7b7f 36be ee28 5fbc
00000180: 0d4c 6e3e 524d ed3d 3f28 e03d 06f1 c53e
00000190: 7c54 bcbe ab26 ddbe 9e87 8c3d 8714 c2bb
000001a0: f759 5a3d 2b23 08bd f198 853d d486 aa3d
000001b0: cffc b6be c525 b0be 2570 d4bd 798e a13c
000001c0: 993b 583b cb7e 93be 1b15 b23e 4103 453e
000001d0: 11da 80be f244 b93e 25a4 57be eae1 0a3e
000001e0: 1256 6c3e 6f89 4abe 28f7 ad3d 7d09 5dbe
000001f0: 0ca1 f63d a47f 073c 6ffd abbc 836d 45be
00000200: 3146 87be 71a5 033e d4a8 bc3d 1c19 c43d
00000210: 67c4 cf3e c917 a7bd cae8 6d3e c0a6 a9be
00000220: ce22 833e 5010 f5bd 3427 0cbe 6f60 a3be
00000230: 5318 df3e 3ce8 a33e 4cd6 a3bd 499f cfbe
00000240: b28e bdbe 660a c23e 347c bf3d a068 9d3d
00000250: 7488 f9bd 1baa 84be def7 b83d 9874 803d
00000260: 5125 843e 2662 e3bc 2029 d13d 5b5d 54be
00000270: 5a92 98be b1bb b2be 111e 033e e186 083d
00000280: 69ef 813e 49f3 5b3d 7096 c7bc 515d 10be
00000290: c637 bdbe b016 c03e 2d26 36be 95cd d53d
000002a0: 7757 073e 8d9e 3e3e faf2 fe3c 33e6 5b3e
000002b0: 2ebe a0be ff9e 013e 98ef d03e 7776 2bbe
000002c0: 00f8 053d 08a7 f7be 189c 593e 1446 b1be
000002d0: 8d68 6e3c 43df 13be 5d36 ed3c d7f4 8f3e
000002e0: 9e25 583e fa7c 09bf e8bb db3a 4b6e ec3c
000002f0: d9e4 b13d a8fb 15be 58c3 5f3e 978e 513e
00000300: b78f 913e 3de4 32be 95cc 903e 819b c53c
00000310: 912f 9ebe af4e 893e cc77 233e ea52 5ebe
00000320: 8fb4 cb3e 46e9 a4be 0ef1 49be d220 78be
00000330: 35d9 5b3e 0df8 40bb 0b9d 083e d983 903e
00000340: 64d6 443e c941 03bf 6219 c03d 6663 2bbe
00000350: 39ae 7d3e f1d0 b63d 3c0a b2be 4163 52be
00000360: 17bf e2be a332 36be ae16 c0be 9abb 3f3e
00000370: 3da1 ad3e 8a9e 68be 4ea0 643e 7a31 4fbe
00000380: 036a 1e3e cb81 f03d 7722 19bd 429b 9c3d
00000390: 1fdb 953e ffb9 043e 7413 bebe 790f 2ebd
000003a0: 3d57 9c3e a8bf 81bd d41a a7be 318d c63e
000003b0: d9a1 c33e 507b 073e 7d5e d73e 2aa5 abbd
000003c0: 97d2 cd3e 5c9b cfbe 423a b93e 3e94 be3d
000003d0: c778 91be 7027 9dbd a6f5 af3b c30a 82be
000003e0: 7a5b aebd 2bd7 24be 1ab1 b13d a0a0 3fbe
000003f0: c376 15be 1dea 2c3e 5b25 80be 9f33 333e
0.26449433 -0.37927717 -0.2705585 0.103216104 0.30749366 -0.20443496 -0.30764416 0.12043659
-0.06112586 0.16128162 -0.2916095 0.024154408 -0.29523823 0.44259846 0.025254656 0.19941413
0.17667352 0.08285335 -0.16180721 -0.28751153 -0.2720753 -0.18412411 0.29284504 -0.21831934
-0.19840316 -0.11448812 -0.34743482 -0.21349569 0.07464735 -0.088870905 0.111928836 0.050293747
0.21499638 0.012536332 -0.06549119 0.13807663 0.19690114 -0.05196388 0.067489706 -0.0073908204
-0.2275774 -0.0328977 0.25118113 0.3536217 0.19697393 -0.35026476 0.53781414 0.050875477
-0.02110835 0.035607055 -0.025683377 0.3039751 -0.16412121 -0.50284845 0.42741647 -0.12206587
0.42882997 0.21021242 -0.105054244 0.11399196 0.33686692 0.07571851 0.1296481 0.30500752
-0.3740697 -0.29324132 -0.07515711 -0.17706572 0.3099414 0.014444501 0.36643997 -0.6719691
0.3115829 0.14901024 0.2401785 0.21778135 0.21638407 -0.34564057 0.18398255 -0.14158988
0.24052925 0.1464859 0.123236574 0.03578119 -0.14092624 -0.08595555 -0.027239129 -0.15603781
-0.21065436 -0.2060749 -0.4709592 -0.07331644 0.023978144 0.20838715 -0.17822067 -0.013620598
0.23271199 0.11587013 0.10945176 0.3866045 -0.36783206 -0.43193564 0.068618044 -0.005922857
0.053308453 -0.033236664 0.06523312 0.08326498 -0.35739753 -0.34403816 -0.10372952 0.019721257
0.0032994507 -0.28807673 0.34781727 0.19239523 -0.2516637 0.36185414 -0.2105871 0.13562742
0.23079708 -0.1977899 0.08494407 -0.2158565 0.12042436 0.008270178 -0.02099487 -0.19280057
-0.2642074 0.1285608 0.09211889 0.09575102 0.4057953 -0.081588335 0.23233333 -0.33135033
0.2561249 -0.11966002 -0.1368683 -0.3190951 0.43573245 0.32013118 -0.07999858 -0.40551212
-0.3702293 0.37898558 0.09349862 0.07685971 -0.121842295 -0.2591103 0.09031652 0.062722385
0.2580972 -0.027756762 0.10212922 -0.20738737 -0.29799157 -0.34908822 0.12804438 0.033331756
0.25377968 0.05369881 -0.024363726 -0.14098097 -0.36956614 0.3751731 -0.17788 0.10439602
0.13216959 0.1861517 0.03112172 0.21474533 -0.31395096 0.12658308 0.40807796 -0.1674441
0.032707214 -0.48369622 0.21250951 -0.34623778 0.014551294 -0.14440636 0.028956586 0.28116485
0.211081 -0.53706324 0.0016764374 0.028861186 0.08686227 -0.1464678 0.21851861 0.2046455
0.28429958 -0.17469878 0.28281084 0.024122002 -0.30895665 0.26817843 0.15963668 -0.21711317
0.39786193 -0.32209224 -0.19720861 -0.2423127 0.21469577 -0.0029444725 0.13341157 0.28225592
0.19222409 -0.51272255 0.093798414 -0.16737136 0.24773492 0.08926571 -0.34773433 -0.20545675
-0.44286415 -0.17792754 -0.37517303 0.18723908 0.33912078 -0.22716728 0.22326776 -0.20233718
0.15470128 0.11743506 -0.037386384 0.076468006 0.2926874 0.12961577 -0.37124217 -0.042495225
0.30535308 -0.06335384 -0.32637656 0.38779595 0.38209417 0.13230634 0.42064276 -0.08381112
0.4019973 -0.40548217 0.3617726 0.09305619 -0.28412458 -0.07673538 0.0053698597 -0.25398836
-0.085135415 -0.16097705 0.086763576 -0.18713617 -0.14596085 0.16886182 -0.250285 0.1750016

transformer_encoder.layers.1.linear1.bias f4 [2048]
00000000: 58ad a83a 007a 2dbe 5bd9 9cbe 313f 47be
00000010: aeae acbd ff82 28bd 2338 45be ce45 d4be
00000020: ce25 eebc a660 1bbe 1917 25be 2595 c3be
00000030: 9280 4a3e 23df 323e c5cd e83c 2136 ebbe
00000040: 02c4 32be d38a c8bd 77ce 6cbe ab7c 96be
00000050: 0d41 cbbe f902 c8bd f737 9b3e c09d e7be
00000060: 35c2 3b3e fba3 2e3e 7e27 c6be a0ee 83be
00000070: a9f5 9cbd 6db3 95be a32e dfbd 9bb5 c13d
00000080: 3625 03be 31bf 94bd 64c3 cb3d 135d 4f3d
00000090: 81fe b7be 9304 85bd b741 94bd c2e6 d1be
000000a0: 5d7a edbd cb73 813d e876 973e 3b63 9bbe
000000b0: 0a64 80be 52ac e0be e336 2c3b 7857 98be
000000c0: 022f fdbe f673 83be 16c3 c8be 92f8 1fbd
000000d0: e9d4 65bd 5353 bcbe e6dc acbe bfb1 fc3c
000000e0: b9ec 2bbd 1619 2d3e ae53 a2bd e9ab ce3d
000000f0: ffac 7fbd 2db1 38be b987 a0bd 0b7a 8cbe
00000100: d425 873e efdb acbe 0c55 bf3d c484 8d3e
00000110: 668e e2be 2cec aebe f81d 9d3d 706f dabd
00000120: 21da 95be 2a09 8c3d 9e00 70be cd6c 9ebd
00000130: 9b03 f0be ed5a 16bd 99ad 393d 6317 1fbe
00000140: d20b d43d a533 1c3d 0e93 ba3d 24ba 59be
00000150: f7ba 9dbe 6ae3 57bd 09a0 bebe 1564 56be
00000160: 8f05 3fbe 3419 dcbe cad9 22be 5308 efbd
00000170: 9c0d 12bd 6167 81be 0422 9fbe 67b2 2bbe
00000180: 1180 e2bd e50b 743e 38ab 85be 91ef 80be
00000190: e2dc 603d 4b55 41be b446 2dbd 9b6f 57bd
000001a0: 82c6 4e3e 865d 8ebe 9f7f b2be f63c b3be
000001b0: 04ce d4be 44e1 66be 94fe b9bd e0bd b8be
000001c0: ef5e 62be f2e0 f6be bc1b d23d b526 1c3e
000001d0: 9350 593e 3840 b2bd 0916 c23d d7e2 a0bd
000001e0: a4ae f63d 6240 e93d 470c 82be 6ae2 6cbe
000001f0: ea62 d1be ed1a b7bd 1853 853c bf36 cb3d
00000200: 9eb3 a6be 5aea 693d 0592 c1be 6fe4 233d
00000210: aecd c63d 14cb 213e 630a 92bd 476c 7dbe
00000220: b675 abbe a30f 97be e44d 26be a8c8 0bbd
00000230: 449e 58be d889 62be a156 9b3d 3d07 01be
00000240: 954b 1ebe 22cc 343e d9fc 0c3e e184 81be
00000250: 4ecc 55be a2b6 9cbe c4c3 74be d87b 82bd
00000260: d9f8 37bd 8532 98be 645b 99be 94b8 613a
00000270: ab54 a3be 8c92 473d 5f53 643e 4719 abbe
00000280: d745 d2be 0722 933e 065b 67be dd8c 91be
00000290: eea2 8cbe 5849 8dbe 9a12 593c 7903 3ebe
000002a0: 4212 bebe 89af a3bb ea72 383e a408 02be
000002b0: 762e 53be 9e28 32be 458f a93d daf2 19be
000002c0: ee79 efbd 5d60 5b3d 1266 f9bd 02d3 4bbe
000002d0: 4526 11be a505 96be 37ad 1bbe 52c1 87be
000002e0: 0715 dfbd f4f5 b3be d585 593e 831c 213d
000002f0: 7b0b a0bc a9bf f1bd 75c8 91be 9c41 d03c
00000300: 0645 f2bc bdea 773e 7714 e3be 27e9 70be
00000310: 4aa6 4dbe 01fe 0fbe 817c b6be 6e2a c5be
00000320: a746 593d 6c54 86bc 4f29 00be 32db d73c
00000330: bbcf 333e c90b 303e ed62 c0be 2dd4 79be
00000340: bc87 25be 8d50 33be 190c 9b3d b34f 74bd
00000350: 6515 bebd f928 98be c7b8 44be bb96 8e3e
00000360: 935b 953d 8ec4 bbbe 48cb 86bd f0b2 b13c
00000370: 88da bbbe 06ee 643d 2489 fdbd 8e96 4ebe
00000380: a3f5 1abc b75e a2be 29d4 1a3d 66d2 22bd
00000390: 30eb cd3d 8887 633d 4c3a 17be 1c17 cbbe
000003a0: cb2e 8e3c 1cb4 023d 72e6 05bf d75c 92be
000003b0: a13f 05bf c767 0c3e a110 2ebe b383 80be
000003c0: 35e1 3f3e 0264 063e e793 f73d 8b84 7dbe
000003d0: 6614 76ba ae34 9ebe 361a d0be b0db b7bd
000003e0: c251 b63a a97d d33d 8936 6d3c bde7 5c3e
000003f0: f397 0b3d caaa 72be d111 c73d 809a 4d3e
0.0012869043 -0.1694107 -0.3063458 -0.194577 -0.08431755 -0.041140553 -0.19259696 -0.41459507
-0.029070761 -0.15173587 -0.16122092 -0.38199726 0.19775608 0.17467932 0.028418431 -0.45939735
-0.17457584 -0.097921036 -0.23125635 -0.2939199 -0.39698067 -0.09766192 0.30316135 -0.4523754
0.18335803 0.17054741 -0.38702005 -0.25767994 -0.076640435 -0.29238454 -0.10897567 0.094584666
-0.12807164 -0.07263029 0.09949377 0.050625872 -0.3593636 -0.06495013 -0.072390966 -0.40996367
-0.115956046 0.06320914 0.29582906 -0.30349144 -0.25076324 -0.4388147 0.0026277832 -0.29754233
-0.49449927 -0.2567441 -0.3921134 -0.039055414 -0.05611125 -0.3678232 -0.33762282 0.030846475
-0.041973803 0.16904101 -0.07926117 0.10091383 -0.06242084 -0.18036337 -0.07838387 -0.2743686
0.26396048 -0.33761546 0.09342393 0.27640355 -0.44249266 -0.3416456 0.07671732 -0.10665786
-0.29267982 0.068376854 -0.23437735 -0.07735596 -0.4687775 -0.036707807 0.04533157 -0.15536265
0.10353817 0.03813519 0.0911008 -0.21262413 -0.30806705 -0.052707113 -0.37231472 -0.20936616
-0.18654464 -0.42987978 -0.15903392 -0.116715096 -0.03565751 -0.25274184 -0.3108064 -0.16767274
-0.11059583 0.23832662 -0.26107192 -0.25182775 0.05489815 -0.18880193 -0.042303756 -0.05259667
0.20192912 -0.27805728 -0.34862992 -0.35007447 -0.41563427 -0.2254687 -0.0908176 -0.36082363
-0.22106527 -0.48218495 0.10259196 0.1524914 0.21222143 -0.08703655 0.09476859 -0.07855766
0.12045029 0.11389233 -0.25399992 -0.23133245 -0.40895778 -0.089406826 0.016274974 0.09922551
-0.32558912 0.05710826 -0.37806717 0.040012773 0.09707199 0.15800124 -0.07130887 -0.24748336
-0.33488244 -0.29504117 -0.1624065 -0.034126908 -0.21154124 -0.22122896 0.075848825 -0.12600417
-0.1545852 0.17655995 0.13768329 -0.2529669 -0.20878717 -0.30608088 -0.23902804 -0.063712776
-0.044915054 -0.29726043 -0.29952538 0.0008610573 -0.31900534 0.048723742 0.22297429 -0.33417723
-0.4106891 0.28736898 -0.22593316 -0.28427783 -0.27468055 -0.2759502 0.013249064 -0.18556012
-0.37123305 -0.0049952907 0.18012586 -0.12698609 -0.20623192 -0.17398307 0.082792796 -0.15034047
-0.11693178 0.053558696 -0.121776715 -0.19904712 -0.14174755 -0.2930118 -0.15202795 -0.2651468
-0.108926825 -0.35148585 0.21242459 0.03933383 -0.019536724 -0.118041344 -0.2847325 0.02542191
-0.029573929 0.2421064 -0.4435155 -0.2352644 -0.20082965 -0.14061739 -0.35641864 -0.38508934
0.053045895 -0.016397677 -0.12515758 0.026349638 0.17559712 0.17191996 -0.37575474 -0.24397345
-0.1616506 -0.17511196 0.07570667 -0.05964632 -0.092814244 -0.2971876 -0.19211112 0.27849373
0.07292857 -0.36673397 -0.065817416 0.02169177 -0.36690164 0.05589106 -0.12379673 -0.2017462
-0.009457978 -0.31712887 0.037799988 -0.039751433 0.10054624 0.055549175 -0.14768332 -0.3966607
0.017356297 0.031910047 -0.52304757 -0.28586456 -0.52050215 0.13711463 -0.16998531 -0.2510048
0.18738253 0.13124087 0.12088757 -0.24757592 -0.0009387195 -0.30899566 -0.40644997 -0.08977449
0.0013909864 0.10326702 0.014478334 0.21572776 0.034080457 -0.23697963 0.09720195 0.20078468

transformer_encoder.layers.1.linear2.weight f4 [6, 2048]
00000000: 4c45 893d 92aa e5bb 7a2f 903c 6337 7c3e
00000010: c350 973d 402a bbbc 73a5 69bb 87ce 49be
00000020: 36bd a43a a78b 73bd 0339 04be e4d5 69bd
00000030: da2e ad3a 69f5 08bd 1065 40bc 14c3 00bc
00000040: efa2 d0bd 5b74 283d 802f 58bd 2a1f 903d
00000050: 1df3 e83c cf28 2c3c aff2 b93a 0e41 923b
00000060: e46b 0b3d d6b7 edbc 2bf4 d2bc f836 0ebc
00000070: 16ef bbbc 1255 81bd de68 40bd 078e bbbc
00000080: c259 99bd ebaa 873d 15eb 9ebd 41ab 80bd
00000090: ef29 5abd e465 0abd 7c1b 553d 1b57 81be
000000a0: 7e3b 84bd bc6a a03c c29b 943d e2e9 0d3c
000000b0: 38fb 39bc 4332 01bd 2dfd 19bd 71ef 063d
000000c0: d7ce fbbc d5f3 2b3e 3098 903c 8377 0dbc
000000d0: 59e6 23bd 21de 9c3d dc61 01ba a145 85ba
000000e0: be0f e13a f26e 06bc 1d53 6c3d 04b5 15bc
000000f0: 3929 48bc 4fa7 a1bd dcdf 763c aa70 37bd
00000100: b7f2 bdbc e883 8cbd 5e3b 923d bd56 333d
00000110: 4205 97bc ee1e 0abe 9687 99bc 44ba 3c3e
00000120: 83c6 f2bd d82e 353d 02a5 f53c 9645 3a3e
00000130: bd53 133e a522 94bd b027 aa3c e405 393d
00000140: de60 073d 7425 9c3d 565a 9bbc f7a5 8f3e
00000150: 42b9 333d 3eda 833d 2dbb 98bd f4f3 10be
00000160: b109 3c3e e6f6 8bbe 00b1 2fbe cc07 8039
00000170: b247 263d e13e 61bd 04e5 80bc e5d8 233e
00000180: 683d 94bb 3f67 643d 36b0 473c 902e 243d
00000190: abfa f5bd c0bf edbc 256a 47bc e567 2e3c
000001a0: de43 bc3d 03fc 033d 28be 30bd 7db3 a1bc
000001b0: 9226 54bd e65a aa3d ed49 123c 2bb8 32be
000001c0: 7429 0bbd 7b12 663c 92d1 883d bf3b a23c
000001d0: 76ff 233d 892b 193e e0cf 24bd 932e bebb
000001e0: 1825 2e3d 73df e6bb e508 8e3e 71d6 8ebd
000001f0: 21c4 58be 01e4 9dbd ba78 bbbc 7084 a3bb
00000200: 7595 d03c 9810 523c bab4 c53e a457 0d3e
00000210: b13c 96bc 279f 1b3d 0698 883c 792f d53c
00000220: c54d 63bd 64eb 9cbd 3f9c 8bbd 02c4 233c
00000230: 388c a8bc f48d 943c 41e0 2cbd a179 5a3d
00000240: 6513 f2bd e3c3 423d 3569 bfbc 5789 03bd
00000250: 6320 783d c0ed 8abd 96d5 5e3e 2ffe 263d
00000260: 21a2 fd3c f9d7 8d3e cc91 23bd 8209 52bd
00000270: 365a ca3d d880 2e3d 66b2 933c 5f6f fc3d
00000280: 6b85 3dbd 8994 ad3c 4160 28bd 4d7b a63e
00000290: d68f 27be de6e 42bd f7d2 24bd 5a38 aabd
000002a0: 31a6 493e 875e 6b3c eebf 3f3c 4b66 2b3e
000002b0: 66f7 5c3e d07c 0abc 2bc7 403d d7bb 1d3c
000002c0: 871a 89bd dd62 293d de17 4cbd 3f81 003e
000002d0: 0cd7 b13b cc33 b9bd 7ee3 afbe b4ae 883e
000002e0: 042b 7b3b a5b0 9bbd 82db 353d 97ca ef3d
000002f0: 98ad 783c 9bd0 80be 6e23 0c3e 0751 d03b
00000300: 22a0 8a3d f3c0 42bd cfdf 753c b016 7cbd
00000310: f981 f5bd c67d 403c 6a7d 24bb a727 fb3e
00000320: 5811 9b3d f43a 24bc 9807 143e 841e 09bd
00000330: 4976 823d 1add d4bc db28 45bd a945 cc3b
00000340: 1a57 8d3e 1cfb 4e3d 2b30 30bd 6fef c03d
00000350: 8b62 1fbd 9c9a 27be fa9c 32bd 0eff 173d
00000360: cea1 e4bc 1780 b33e 129e c2ba 4ef6 07bd
00000370: bb45 c63d e616 96bd f394 95ba 1e10 8a3d
00000380: 6e87 19bb 647e dc3e a4c5 48bc c995 a6bc
00000390: 6d8d a4bc f503 0f3d 26fe a33d 7986 ccbd
000003a0: d5ff 35bc 168d 473d ffc6 aabd 9d7e 11bc
000003b0: 7aa5 8abd a61f 843a 0b9a 43bb acd4 8d3d
000003c0: ee39 6bbd fdd1 8ebc 4d17 bdbb d000 3fbd
000003d0: 57a5 e6bd d36f 8bbd 2ed7 6f3e 11ce b4bc
000003e0: 3048 663d 50c6 a4bc 0262 0d3d 9f45 563d
000003f0: cdd3 af3d 4379 f9ba d992 32bc 7538 4c3d
0.067026705 -0.007008859 0.017600764 0.24630503 0.07388451 -0.022847295 -0.0035651594 -0.1970769
0.0012568596 -0.059459355 -0.12912373 -0.057088748 0.0013212815 -0.033437166 -0.011742845 -0.00785901
-0.10187327 0.04112659 -0.052779675 0.07037194 0.028436238 0.010507776 0.0014186705 0.0044633215
0.03403844 -0.029018324 -0.025751194 -0.008680098 -0.022941153 -0.06315054 -0.04697501 -0.022894872
-0.07487823 0.06624397 -0.07759682 -0.06282664 -0.053262647 -0.033788577 0.052028164 -0.2526177
-0.0645666 0.019582145 0.07256271 0.008661719 -0.011351399 -0.031542074 -0.037594963 0.032943193
-0.030738277 0.16792233 0.017650694 -0.008634451 -0.0400146 0.07659555 -0.00049355417 -0.0010167846
0.0017170829 -0.008205162 0.05769645 -0.009137396 -0.0122168595 -0.0789324 0.015068021 -0.04478518
-0.023187025 -0.068610966 0.0714023 0.043783892 -0.018435124 -0.13488361 -0.01874141 0.1843043
-0.11854269 0.044234127 0.029985908 0.18190607 0.14387412 -0.072331704 0.020770878 0.045171633
0.033051364 0.07624331 -0.018963974 0.2805631 0.043877847 0.06438111 -0.07457576 -0.1415556
0.18363072 -0.27336806 -0.17157364 0.00024419872 0.040595718 -0.054991607 -0.015734203 0.16000707
-0.0045239218 0.055762526 0.012188008 0.040083468 -0.12010702 -0.029022098 -0.012171303 0.010644888
0.09192632 0.03222276 -0.043150097 -0.019738907 -0.051794596 0.08318119 0.008928758 -0.17453067
-0.03397508 0.014042492 0.06680597 0.01980388 0.04003855 0.14958014 -0.040237308 -0.005803892
0.042515844 -0.00704568 0.2774116 -0.06974495 -0.21168567 -0.07709504 -0.022884715 -0.004990153
0.025461892 0.012821339 0.38614446 0.13802963 -0.018339487 0.037993576 0.016674053 0.026023613
-0.05549409 -0.07662085 -0.06816911 0.009995462 -0.020574674 0.018134095 -0.042206053 0.05333865
-0.118201055 0.047550093 -0.023365596 -0.0321134 0.06057776 -0.067836285 0.21761164 0.040769752
0.030961098 0.27703837 -0.039933965 -0.0512786 0.098804876 0.042603344 0.018029403 0.1232593
-0.046269815 0.021188991 -0.04110742 0.32515946 -0.16363463 -0.047469012 -0.040240254 -0.083115295
0.19692303 0.014365799 0.011703474 0.1673824 0.2157875 -0.008452609 0.04706494 0.009627304
-0.06694513 0.04135405 -0.04982745 0.12549303 0.005427247 -0.090430826 -0.3435325 0.26695788
0.00383252 -0.07602052 0.044398792 0.11708563 0.015178107 -0.25159153 0.1368539 0.0063573155
0.06768824 -0.047547292 0.015006973 -0.061545074 -0.11987681 0.011748737 -0.0025099167 0.4905369
0.075716674 -0.010023821 0.14456022 -0.033476368 0.06370217 -0.025984336 -0.048134666 0.00623389
0.27605516 0.050532445 -0.043014687 0.09420668 -0.038912337 -0.16367573 -0.043606736 0.037108473
-0.027909186 0.35058662 -0.0014848134 -0.03319388 0.09681269 -0.07328586 -0.0011412188 0.06741355
-0.002342667 0.43065178 -0.012254152 -0.020335095 -0.020086968 0.034915883 0.08007459 -0.09986586
-0.011108358 0.048718534 -0.08338737 -0.008880285 -0.067698434 0.0010080233 -0.0029846455 0.069253296
-0.057428293 -0.017434115 -0.0057706 -0.046631634 -0.11262005 -0.06808438 0.23421928 -0.022070916
0.056221187 -0.020114094 0.034517296 0.05231249 0.0858532 -0.0019033331 -0.010899269 0.04985853

transformer_encoder.layers.1.linear2.bias f4 [6]
00000000: 8163 c6bb 4ea7 e63b f0f1 033d 6c31 e7bb
00000010: 2a11 2cbc 1392 4639
-0.0060543423 0.0070389872 0.03221315 -0.007055452 -0.010502139 0.00018937168

transformer_encoder.layers.1.norm1.weight f4 [6]
00000000: 6dc3 733f 0f8d 6d3f 7da8 853f fafa 673f
00000010: 79d9 8a3f 8ebe 6c3f
0.9522007 0.92793363 1.0442044 0.90617335 1.0847617 0.92478263

transformer_encoder.layers.1.norm1.bias f4 [6]
00000000: d920 313d 013f d5bd 7672 1abd a9cd 14be
00000010: ceca 653d 2161 e53d
0.043244217 -0.10412408 -0.037706815 -0.14531578 0.056101613 0.112001665

transformer_encoder.layers.1.norm2.weight f4 [6]
00000000: facb 7c3f 775e 943f ce65 9a3f 2951 b33f
00000010: 7c1d 863f 81c4 b83f
0.98748744 1.1591328 1.2062318 1.4009143 1.0477748 1.4434968

transformer_encoder.layers.1.norm2.bias f4 [6]
00000000: cb41 673e a192 cdbe 08ed 003d 8208 2b3e
00000010: 4eb6 32bd 0064 dabd
0.22583692 -0.4015093 0.03147605 0.16702464 -0.04363089 -0.10663605
