DU_model/Transformer/best_model_t7jul_lat_ext_9jul1_2_3_4_5_6_tr.2.24.pth (torch, 377582 bytes, 29 tensors)

norm.weight f4 [6]
000000 00 00 80 3f 00 00 80 3f 00 00 80 3f 00 00 80 3f
       1.0 1.0 1.0 1.0
000010 00 00 80 3f 00 00 80 3f
       1.0 1.0

norm.bias f4 [6]
000000 00 00 00 00 00 00 00 00 00 00 00 00 00 00 00 00
       0.0 0.0 0.0 0.0
000010 00 00 00 00 00 00 00 00
       0.0 0.0

transformer_encoder.layers.0.self_attn.in_proj_weight f4 [18, 6]
000000 e3 85 1c bf 60 ac d0 be 69 28 6a be cd e7 1e 3f
       -0.61141795 -0.40756512 -0.22866978 0.6207245
000010 7d 69 0c bf 77 37 8e be 64 ca 54 3f c0 bf 5e be
       -0.5484846 -0.2777669 0.83121324 -0.21752834
000020 42 7b c6 be c6 a1 7a be cf 8e 88 be 38 30 1d 3f
       -0.38765913 -0.24475774 -0.26671454 0.614017
000030 5c d4 22 3e 60 79 d7 bc 41 7a 07 3f 84 f1 cf be
       0.15901321 -0.026302993 0.5292092 -0.4061395
000040 ac d1 11 3f 2b dd a1 3e 51 db 9d 3e d0 e4 c8 be
       0.5696056 0.3161405 0.30831388 -0.3923707
000050 ac fa 68 be 2c 7a fe 3e 47 f1 12 3f f6 f7 53 3c
       -0.22751874 0.49702585 0.5739941 0.012937536
000060 0f 47 c6 be 39 4b 30 be bc b2 a7 be c8 79 a3 3e
       -0.38726088 -0.17216195 -0.3275355 0.3192885
000070 2a b9 0c bf 6d 8a e8 3d ad 6d 2d 3f 26 2b 24 be
       -0.5497004 0.113545276 0.67745477 -0.16032085
000080 7a 28 37 3c 77 05 b0 be 8d a3 a1 bd fc da 10 3f
       0.011179084 -0.3437917 -0.07892523 0.56584144
000090 51 e4 3d 3d 0c 22 52 bd c6 54 b0 be ee b7 09 bf
       0.046360318 -0.051302 -0.34439677 -0.5379628
0000a0 0a 60 4c be aa 9b bc 3e dd a3 db be 78 b8 e6 3e
       -0.19958511 0.36837512 -0.42898455 0.45062613
0000b0 49 5d 8f 3e 86 74 8a 3e f3 49 d3 bd 10 88 b3 bd
       0.28000858 0.27042025 -0.10316839 -0.08766186
0000c0 a5 cf 3e be 03 88 55 3d ba 70 44 3e 2b 97 47 be
       -0.18633898 0.052131664 0.19183627 -0.1949126
0000d0 6d 81 6a 3e 47 dd e6 3e 8b bc cb bc 2d 6f c1 be
       0.22900935 0.45090696 -0.024870178 -0.37780133
0000e0 32 cc 3c be 42 7b 96 be 79 c4 2c 3e 85 e2 f4 3e
       -0.1843727 -0.29390913 0.16871823 0.4782907
0000f0 9c 7a 56 3b 35 81 da be 98 69 38 be 42 af 7b 3e
       0.003272689 -0.42676702 -0.18009031 0.24578574
000100 58 29 92 3e b0 4a 8c 3e 8a 94 2e bd b3 c3 60 3e
       0.28547168 0.27400732 -0.042622127 0.21949653
000110 67 a2 63 3d c5 07 7c bd 52 f0 04 bf 5f 6b 9a bd
       0.0555748 -0.061530847 -0.519292 -0.07540011
000120 7b b0 a5 c0 8e df 1d 3f d8 8a f0 3e af d5 a4 3e
       -5.177793 0.6166924 0.4698093 0.32194278
000130 2a c9 1a bf 13 6d 57 bf ed 65 6b 40 08 4d 26 bf
       -0.604632 -0.8415081 3.678096 -0.6496129
000140 48 29 c6 3d 6a b5 02 bf 3e 5c 3f be 24 d3 ad bc
       0.096758425 -0.51058066 -0.18687531 -0.021218844
000150 d6 0f 9c 40 90 e6 02 3f bf 6a f4 bd d2 3c a1 be
       4.876933 0.5113306 -0.11934423 -0.31491715
000160 a8 d6 d4 3f 76 06 af bf bb 63 4c bf bf b3 2c bf
       1.6628008 -1.3673847 -0.79839677 -0.6746177
000170 71 63 93 3d 98 1b 56 be 9a df 2f bd c6 54 10 bf
       0.07196701 -0.20908964 -0.042937852 -0.56379354
000180 a3 a1 36 3f cf 2f 58 3d 35 85 50 3e 38 e3 ae 3e
       0.7134039 0.05277997 0.20363314 0.3415773
000190 84 4c b7 bf e5 06 3d 3f 13 f9 ce 40 2d 3d ba 3d
       -1.4320226 0.73838645 6.4679046 0.090936996
0001a0 f1 c9 54 bb a0 13 d0 be dd 90 ca be 99 fd 53 40
       -0.0032469 -0.40639973 -0.39563647 3.3123534

transformer_encoder.layers.0.self_attn.in_proj_bias f4 [18]
000000 46 ec f7 bc cf 42 a9 3d a4 00 ce 3d c9 18 02 3e
       -0.030264031 0.08264696 0.10058716 0.12704767
000010 cd 76 05 be 1f bf 0b 3d 15 cc aa be dc a2 92 3e
       -0.130336 0.034117814 -0.33358827 0.28639877
000020 e2 b6 a1 3e 99 85 55 be 6b d7 45 be 59 5a 4d 3e
       0.3158484 -0.20851745 -0.19320457 0.20053996
000030 ee cd a3 3f 4d 4c 37 bf 25 bd 54 be 29 7c ca be
       1.279722 -0.716008 -0.20775278 -0.39547852
000040 b9 50 71 3d bb bb 38 bf
       0.058914874 -0.72161454

transformer_encoder.layers.0.self_attn.out_proj.weight f4 [6, 6]
000000 f3 c5 80 be 0e 50 09 3d 2d c7 a1 be 47 43 9b be
       -0.25151023 0.03352361 -0.31597272 -0.30324766
000010 1e 78 73 bd e4 34 e4 3d 34 26 52 3e cc 68 98 be
       -0.059440725 0.111429006 0.20522386 -0.29767454
000020 5b 7b e2 be bb 6b 23 3e f3 90 83 be 7d 63 b2 be
       -0.44234738 0.15959065 -0.25696525 -0.3484153
000030 4c 21 81 3d 10 2f 32 3e 42 42 ff 3d 70 df a1 be
       0.06305179 0.17400765 0.124638095 -0.31615782
000040 4b 6f 71 bc 3f 55 be bd eb 31 8c bd c2 63 f3 3c
       -0.014736007 -0.09293603 -0.068454586 0.029710654
000050 9b aa a8 bc 17 3e 8d bc ae e6 30 3e 34 3a e0 3d
       -0.020589164 -0.01724152 0.17275497 0.10948601
000060 2e 20 32 be 76 62 cf be 88 79 b5 3e 7f 8a b7 3e
       -0.17395088 -0.40504807 0.35444283 0.35847852
000070 88 ab ee be 8b 5c ad 3e ee b4 9a be 1c 4a bf be
       -0.46615243 0.33859667 -0.30216163 -0.37361228
000080 15 44 0f be dd 8e 30 be 65 15 78 3d 7e 88 9a bd
       -0.13990815 -0.17241998 0.06056728 -0.07545565

transformer_encoder.layers.0.self_attn.out_proj.bias f4 [6]
000000 ae 04 a4 bf 2d 84 95 3f 5a 89 79 3f 06 cf 09 bf
       -1.2813928 1.1680962 0.97475207 -0.5383152
000010 03 e6 48 bd 2b d1 d3 3e
       -0.04904748 0.4137052

transformer_encoder.layers.0.linear1.weight f4 [2048, 6]
000000 74 a3 80 bd cc 41 7b be fa d3 a7 bd 92 40 ee 3d
       -0.06281176 -0.24536818 -0.08194728 0.116334096
000010 f0 c8 0a 3e b4 15 23 bd 89 25 87 be 0e 2d ee be
       0.13553214 -0.03981562 -0.26395825 -0.4651875
000020 1c 89 2d 3e d7 c0 80 bd cc 1c a5 3e ed 94 92 3e
       0.16946834 -0.06286781 0.32248533 0.28629246
000030 6a b6 b8 3e 2f 5a f3 bd e8 ba 61 be 3f 59 64 3e
       0.3607667 -0.118824355 -0.22043955 0.2229967
000040 77 08 88 bd 41 80 36 3e 88 38 09 3e 4a 86 99 be
       -0.066422395 0.17822362 0.13400471 -0.29985267
000050 fd 1e ee be 61 04 c9 3c 77 af b3 3e 73 ec 8d 3e
       -0.46508017 0.02453822 0.35094807 0.2771946
000060 b3 a8 97 be 7b a9 e1 3e 0e ab ab be 06 4a c3 be
       -0.29620895 0.44074616 -0.33528942 -0.38142413
000070 51 7f 93 be a6 73 06 be 44 bd ba 3c af 11 ca be
       -0.28808072 -0.13130054 0.022795327 -0.39466617
000080 a7 19 89 be dd 19 c5 be 84 25 61 be 27 d8 10 3f
       -0.26777384 -0.38496295 -0.21986967 0.5657982
000090 d5 3e 8a be 3e 13 80 3e 80 ab ab bd b1 30 80 be
       -0.27001062 0.2501468 -0.083823204 -0.2503715
0000a0 d9 b1 c0 be 6f cf 06 be 2c f9 3d 3d 46 d8 00 bf
       -0.37635687 -0.13165067 0.046380207 -0.5033001
0000b0 57 1d 87 3d b5 35 40 bf a8 c6 07 3f 61 d2 36 be
       0.06597393 -0.7508195 0.530375 -0.1785369
0000c0 72 bb e9 3d 16 20 5b be b8 d5 80 3d 32 ca 16 be
       0.114127055 -0.21398959 0.062907636 -0.14725569
0000d0 ad 80 f7 be 4f 41 a9 3e 9f e8 c3 be 73 72 02 bf
       -0.4834036 0.3305764 -0.38263413 -0.50955886
0000e0 5f eb 09 bf 5c cb 88 be f6 f7 bb 3e ce 4f f0 3e
       -0.5387477 -0.2671765 0.36712617 0.46935886
0000f0 d9 13 c9 3d 7f ad d1 bd 9b f6 cc bd 87 b7 cf 3c
       0.09818239 -0.1023817 -0.10007974 0.025356067
000100 35 5d a7 bd 59 8f 4b be 98 e6 b7 be 10 46 d2 3d
       -0.08172075 -0.19878902 -0.35918117 0.102672696
000110 b8 66 e2 bc 26 7c 15 be 64 9f c8 3e 0f ea 2f 3d
       -0.02763687 -0.1459814 0.39184105 0.042947825
000120 f0 f2 f2 3e 52 6d d3 be 10 ff 83 3e d1 af 52 3e
       0.47450972 -0.41294342 0.25780535 0.20574881
000130 ca 33 9c be 53 ec ee bd 2b d7 62 3e 22 73 ac 3d
       -0.30508262 -0.11666169 0.22152393 0.08420397
000140 a9 82 cf bd 82 3d 04 3e 47 64 9c 3d 2a 4c 95 3e
       -0.10132343 0.12914088 0.07636314 0.2915967
000150 17 bb 0b 3e 77 d7 c2 3e 75 16 17 bf 62 4d 21 bf
       0.13645588 0.38055012 -0.5901864 -0.630087
000160 32 d0 f6 3e b9 e5 75 3d 09 65 2b 3d a7 3d 6a be
       0.48205715 0.060033534 0.0418444 -0.22875081
000170 47 59 b8 be 77 e3 85 3e 1c 0c 51 3e 38 44 10 3f
       -0.36005613 0.26150104 0.20414776 0.56354094
000180 f8 40 44 3e 4c 45 6a 3d 66 33 ac bd e0 4b 24 3e
       0.19165409 0.057194993 -0.08408241 0.16044569
000190 9b ab d3 3e b8 a6 82 3d 5a 7d aa 3d e2 79 81 be
       0.41341862 0.06379455 0.0832469 -0.25288302
0001a0 a0 b7 99 be 5f 89 05 be fd 61 db bd 5d 06 b9 be
       -0.30022907 -0.13040684 -0.10712049 -0.36137667
0001b0 14 ae ff 3e ca d9 8e bd d0 67 9f be 17 60 78 3e
       0.499375 -0.06975134 -0.3113389 0.24255405
0001c0 89 f0 19 be f2 bb 17 3d 3d f8 0b 3e c7 8d c3 3e
       -0.15033163 0.037044473 0.13668914 0.38194105
0001d0 66 1b 67 3e 10 c3 e8 3d a1 d9 05 3f 59 24 a5 3e
       0.22569045 0.1136533 0.522852 0.32254294
0001e0 79 97 bc be 97 19 3e be 6a 97 a6 3e 06 94 70 be
       -0.36834314 -0.18564449 0.32537395 -0.23493966
0001f0 cb 2a 79 be 12 75 75 be ee bb ca 3d 50 fe 00 bf
       -0.2433273 -0.2397044 0.09899126 -0.5038805
000200 31 c2 21 3d 14 a2 38 3d 3e 9c 38 bd ac e9 5c 3e
       0.039491836 0.045076445 -0.04507088 0.21573514
000210 c7 66 4c 3e 3f c6 05 3f 43 2d 5e be 02 83 3f bf
       0.19961081 0.52255625 -0.21696953 -0.7480928
000220 25 55 01 3f 2b 81 af bd be 19 e4 be 2e 32 c5 3e
       0.50520545 -0.08569559 -0.4455089 0.38514847
000230 cc 83 95 be 56 8d a8 be fa a4 0c 3e 1b c8 d7 bd
       -0.29202116 -0.3292033 0.13734809 -0.10536214
000240 ae 29 45 be fa ff 73 be 1a 48 2e be 5f 53 d4 3d
       -0.19254181 -0.23828116 -0.17019692 0.10367464
000250 71 2b 6e be fd e3 59 3d e4 6a 3a 3f f9 6b c5 3e
       -0.23258759 0.053195942 0.7281935 0.3855894
000260 d9 85 90 3e d4 dc 24 be f9 c0 1f 3e 4b ab ac 3e
       0.28227118 -0.16099864 0.15600957 0.33724436
000270 a4 11 21 3f 71 9b 9b 3e 04 32 e1 bb 61 35 09 be
       0.6291754 0.3039203 -0.0068724174 -0.13399269
000280 71 93 3d be 7f 2e 1f 3e 43 f6 a5 3e e4 3a 1d bd
       -0.18513276 0.1554508 0.32414445 -0.03838624
000290 3c d5 3b 3e 42 2a 22 3e 4a 15 31 bd 83 21 a9 3d
       0.18343061 0.15836433 -0.043233193 0.08258345
0002a0 97 3e c8 3e bb 43 0c 3f 9e 5d a2 be 25 96 c8 bd
       0.39110252 0.5479085 -0.3171205 -0.09794263
0002b0 04 a1 72 bd cc 68 4d 3d 86 02 eb 3e e0 a5 a0 be
       -0.059235588 0.05014877 0.45900363 -0.31376553
0002c0 c1 32 a3 3d e8 13 03 bd ea 1d 75 3d ae db 7c be
       0.07968665 -0.032001406 0.05984298 -0.24693176
0002d0 17 9a 2c 3f a4 06 f4 be cd 5b c3 3e 65 06 31 3e
       0.6742262 -0.47661316 0.38155976 0.17287596
0002e0 f5 e0 6b be 0b 4c 4e be 7e f9 14 3f fd c5 0b be
       -0.23035033 -0.20146196 0.58193195 -0.13649745
0002f0 10 84 45 be b4 ec de 3d 71 90 39 3b 5b 50 a2 3a
       -0.19288659 0.10884991 0.0028314854 0.0012383567
000300 b3 09 a0 3d eb ff f1 3d fc 78 0b bf a4 ba 0b bf
       0.0781435 0.118163906 -0.5448148 -0.54581666
000310 44 f7 f7 3e df 3a 8f 3e 1a eb 65 3e 78 91 1f 3e
       0.48430836 0.27974603 0.22452965 0.15582836
000320 c2 95 b2 3d 96 73 8f 3e b7 51 d6 3e e5 b4 66 3e
       0.0871997 0.28017873 0.41859218 0.22529943
000330 d7 74 13 3e 9e f2 11 bf ed 94 89 3e 94 ed db 3d
       0.1440004 -0.5701083 0.26871434 0.10738674
000340 0f e6 37 3e 4b cb 2c 3e de a2 3c 3d a6 6a 5c be
       0.17958854 0.16874425 0.04605376 -0.21525058
000350 6f db 22 3c e3 28 3e 3e f4 57 56 3e 56 53 de bd
       0.009940012 0.18570285 0.20931989 -0.10855739
000360 c3 14 90 3e 4e a0 18 bf 37 ed 0f 3e 36 d4 8d 3d
       0.2814084 -0.59619606 0.14055334 0.06925242
000370 d0 b8 4e be 8d 65 07 3e ed f3 d5 3e 68 26 c7 3d
       -0.20187688 0.13222332 0.41787663 0.09724122
000380 e2 f4 a5 3d 0b 6c 17 3d 02 ac 68 be 76 98 b2 3d
       0.08103348 0.036968272 -0.22721866 0.08720486
000390 e8 4a 41 3e 4c 85 43 bd e3 ae e8 3e 9b 4e 8b be
       0.1887623 -0.047734544 0.45445928 -0.2720841
0003a0 e7 48 54 3d c2 74 8a be 5b 62 cd 3e 7b a8 45 3c
       0.051827338 -0.27042204 0.40114102 0.012064095
0003b0 9b 2c be bd 6e 96 a8 3e f0 70 a3 3e 53 ed 28 3f
       -0.092858516 0.3292727 0.31922102 0.6598713
0003c0 75 af aa be f1 ca 41 3e b5 8b 95 3e 75 67 68 be
       -0.33336988 0.18925072 0.2920815 -0.22695716
0003d0 96 23 81 be 29 0d f9 bc f2 5a 94 3e 76 e3 5f be
       -0.25222462 -0.030401783 0.28975636 -0.21864113
0003e0 a0 40 52 be 1b 73 1e 3e c2 0d 92 bd f2 2e f5 bd
       -0.20532465 0.15473597 -0.0713153 -0.11971845
0003f0 fa dc 72 3e 1a 33 7c 3d 85 ac 85 3e 85 86 73 be
       0.23717108 0.06157217 0.26108184 -0.23781784

transformer_encoder.layers.0.linear1.bias f4 [2048]
000000 0c 98 eb bd a8 16 25 3e 19 94 d9 be 2a b3 17 be
       -0.1150361 0.16121924 -0.42495802 -0.1481444
000010 2f ec 42 be 12 cb 7a 3e 15 ad a9 be f4 f0 ca bd
       -0.1903541 0.24491528 -0.33139864 -0.099092394
000020 48 63 f9 bd 7a 70 d1 bd 01 e7 80 be 88 a2 c2 3e
       -0.121771395 -0.10226531 -0.25176242 0.38014627
000030 b6 4c d9 be 4a ac c7 bd d8 cd 75 be e8 16 8e be
       -0.42441338 -0.097496584 -0.24004304 -0.2775185
000040 93 60 85 3d c6 8e c7 be 92 ad ef be 31 b9 4b be
       0.06512561 -0.38976115 -0.4681211 -0.19894864
000050 3b f6 3e 3e 85 12 06 3e 78 33 49 be d1 95 d8 3d
       0.18648617 0.13093002 -0.1964854 0.1057545
000060 99 cf 0b bf dd af f1 3e ef f5 69 bd db 6f f0 bd
       -0.54613644 0.47204486 -0.057119306 -0.11740085
000070 81 39 03 be 64 cf 6f 3e 8d c2 56 be ef 23 05 bd
       -0.12814905 0.23418957 -0.20972653 -0.032504972
000080 ac e0 4a bc ca fc 11 be 98 d9 51 be 14 73 c8 bd
       -0.0123826675 -0.14256588 -0.20493162 -0.097875744
000090 64 e6 20 be 2d de 0c be 40 e4 d3 bd 18 16 53 bd
       -0.15712887 -0.13756628 -0.103462696 -0.051534742
0000a0 84 17 c2 bc 82 44 c8 be c4 c1 44 3e 27 33 93 bd
       -0.023692854 -0.39114767 0.1921454 -0.07187491
0000b0 e4 5e f8 be 5c 9e 42 be 4f d2 c3 be cd 8d 8a 3d
       -0.48509896 -0.19005722 -0.3824639 0.067653276
0000c0 b9 19 92 bd 0c 07 31 3e da ec 89 3e 09 b1 65 be
       -0.071338125 0.17287844 0.26938516 -0.22430815
0000d0 79 ed b4 3e f4 59 c2 be af 88 25 3e c6 b1 4a be
       0.35337427 -0.37959254 0.16165422 -0.19794378
0000e0 b0 2f e0 3d 74 e2 bf bd ec 12 f7 3d 17 25 a1 be
       0.10946596 -0.093693644 0.12064156 -0.3147361
0000f0 3b 0c 5f bd ed c1 4c be cf bb ac 3d d3 f3 08 3d
       -0.054455023 -0.19995852 0.08434259 0.033435654
000100 6d 40 6a be 5d 42 1a 3e 3f 8e 94 bc 96 c0 1e 3e
       -0.22876139 0.15064378 -0.018134234 0.15503153
000110 19 b6 27 bd f3 7b e8 3d 8b 63 96 bd 1f 72 4e bd
       -0.040945146 0.113517664 -0.07343205 -0.050401803
000120 5b fb 8a be 25 51 3e be 5d 2a 78 3e 53 56 67 3e
       -0.27144894 -0.18585642 0.2423491 0.22591524
000130 de c2 8b 3d 70 9d a7 be 20 5e c3 be d9 1c 4f be
       0.06824277 -0.32737303 -0.3815775 -0.20225848
000140 fc c2 c1 be 0a 90 75 be 3d ea 6e bd 72 ca c5 be
       -0.37844074 -0.23980728 -0.058328856 -0.38631016
000150 72 26 7a be bf 44 de bd ab 68 96 be ea af b7 3e
       -0.24428728 -0.10852956 -0.2937673 0.358764
000160 e2 8a 37 be 3c 79 55 be 7c e2 d0 3d 12 f3 35 be
       -0.17924073 -0.20847028 0.101994485 -0.17768505
000170 d4 99 0e 3c d0 2e 0a be 2d 5f b8 3d bc c6 a3 be
       0.008703668 -0.1349442 0.09002528 -0.3198756
000180 97 3a 8b 3e 46 1b 8e 3e 6d f3 e6 be fe cb 47 be
       0.27193138 0.27755183 -0.45107594 -0.1951141
000190 7e b1 20 3d 2f e1 4f be 25 4d bf 3d 2b d9 80 be
       0.03923177 -0.20300744 0.09340886 -0.25165686
0001a0 50 ed 91 3e e2 a4 ec be 3a 89 65 3d c2 f1 95 be
       0.28501368 -0.46219546 0.056039073 -0.2928601
0001b0 3a 9e 9e 3d 6a 57 7f be a7 de c6 be c3 01 89 be
       0.07745023 -0.2493569 -0.38841745 -0.26759157
0001c0 3c 78 5d bd 87 b0 cd 3d 22 26 95 3e 7e 19 a0 3e
       -0.054069743 0.100434355 0.29130656 0.3126945
0001d0 05 6f 13 be 33 c4 2b be 7f 9e c9 3e bb 1d 2d be
       -0.1439782 -0.16774063 0.39378735 -0.16905873
0001e0 a6 18 35 be fe 1f cf 3d 98 26 b7 3c 56 a1 70 be
       -0.17685184 0.10113524 0.02235727 -0.23499045
0001f0 9d da ad be 82 93 01 3b f1 9b 55 bd 89 5d fa bd
       -0.3395585 0.001977176 -0.05215067 -0.12224872
000200 76 0d 88 be 0e 69 c6 be a8 52 21 3e 13 ca a2 be
       -0.2657277 -0.38752025 0.15754187 -0.31794795
000210 a7 03 d0 bd dc bf 01 3e c1 26 aa bc e7 a4 87 3e
       -0.10156947 0.12670845 -0.020770432 0.26492998
000220 41 a2 52 be 3f ba 61 3b e1 32 02 3e 4c 7d 63 be
       -0.20569707 0.0034443287 0.12714721 -0.22215766
000230 a4 cf 01 be 80 31 37 3e fa 4c a2 bd 5b 25 b1 bd
       -0.12676865 0.17889977 -0.07924838 -0.08649703
000240 b5 df ac be 16 65 04 bc cd a7 ca be 12 a4 6f be
       -0.33764425 -0.008080741 -0.39581147 -0.23402432
000250 78 9f 4a be 9b d0 d2 bc 12 b3 a0 3c ad f0 61 3e
       -0.19787395 -0.025734236 0.019616637 0.22064467
000260 ab c1 78 be 4d 4a 19 3e 22 20 aa be 2a 3e 73 3b
       -0.24292628 0.1496975 -0.3322764 0.003711591
000270 9e e4 3e be fd c6 3e be d6 91 3f be 75 ee 3a bd
       -0.18641898 -0.18630596 -0.18707976 -0.045637567
000280 9c 08 d3 3d bf cc ba be 09 65 ce 3e 11 04 a2 3e
       0.103043765 -0.36484334 0.4031146 0.31643727
000290 55 f0 78 bd 50 ee 90 3e 85 32 ad bd b4 35 99 be
       -0.060776073 0.28306818 -0.084569015 -0.29923785
0002a0 5f 14 ab be 75 ff ea be 01 0c f8 3d 02 9a b3 be
       -0.3341398 -0.45898023 0.121116646 -0.35078436
0002b0 d1 d5 ff 3d 6c 51 30 be 96 6e d9 3c a9 7e 7a 3d
       0.12491954 -0.1721856 0.02654199 0.06115595
0002c0 bf 20 d5 be 93 5f a4 bb e4 64 4a bd 6a 8f 72 3e
       -0.41626546 -0.005016276 -0.049412623 0.2368752
0002d0 5f e5 ed 3d d2 5a 0f be 5b 64 69 be 1f 05 86 3e
       0.11616015 -0.13999489 -0.22792189 0.26175782
0002e0 0a 0d c6 bd b8 4d 76 be 9e a7 44 be 48 76 a4 be
       -0.09670456 -0.24053085 -0.19204566 -0.3212149
0002f0 22 84 3c bd f0 a3 9f bd 79 2a 99 bd 46 14 07 be
       -0.04602445 -0.077949405 -0.07478804 -0.13191327
000300 af f4 3f be 3f 7d 75 be 33 ac 62 be 6a 6c ac 3d
       -0.18745683 -0.23973559 -0.22136001 0.08419116
000310 5f a2 97 be 55 64 d4 bd 6f 17 e4 be 1a 8c 6b 3e
       -0.29616067 -0.10370699 -0.44549128 0.23002663
000320 fb 65 17 3e 89 be cf 3e f4 93 cd 3e 20 ec 78 be
       0.14784996 0.40575054 0.40151942 -0.24308825
000330 a2 f7 fa be 29 5d 1d 3d 67 5f be be d9 f4 ae be
       -0.49017054 0.038418923 -0.3718216 -0.3417118
000340 45 31 d3 bd 5c 98 96 3d 01 41 86 be 97 61 4e be
       -0.10312132 0.07353279 -0.2622147 -0.20154415
000350 70 e7 66 bd e2 6e c4 be 34 10 0c be f4 84 74 be
       -0.05637306 -0.38365847 -0.13678056 -0.23878843
000360 cf ef fb bd 2d 21 9e bd 71 71 70 be 4b 15 1e be
       -0.12301599 -0.077211715 -0.23480774 -0.1543781
000370 2a 52 ad 3e 19 2a 19 3e eb 84 47 3e d3 49 26 3e
       0.3385175 0.14957465 0.19484298 0.16239099
000380 11 58 bf 3d 9b af 37 bd 10 56 9a be cc 01 22 3e
       0.09342969 -0.044845205 -0.30143785 0.15820998
000390 26 98 6d 3e 78 65 4f be 07 69 b5 be 50 2e 19 be
       0.23202571 -0.20253551 -0.35431692 -0.14959073
0003a0 13 c2 b0 be be 9c ce be ae de 0e 3e 38 32 c2 3d
       -0.34523067 -0.4035396 0.13952133 0.09482235
0003b0 ec fb ba bd d6 4a 17 be 04 51 ea 3d 99 5f 77 be
       -0.091300815 -0.14774641 0.11441234 -0.24157561
0003c0 ab f1 32 3d e2 fe ac bd ad 09 87 3e 4b e3 cd be
       0.043687504 -0.084470525 0.2637457 -0.40212473
0003d0 17 0f 0b be ac 8e 2c bb eb 1e 29 be 43 c9 62 be
       -0.13579975 -0.0026330156 -0.165157 -0.22147088
0003e0 ae 1a 29 3e 9f eb 1d be 58 85 16 3e 4a 6d 94 be
       0.16514084 -0.15421914 0.14699304 -0.2898963
0003f0 94 c2 8c be a9 42 2f bd 80 b6 47 be 7b 58 76 3e
       -0.274922 -0.04278818 -0.19503212 0.2405719

transformer_encoder.layers.0.linear2.weight f4 [6, 2048]
000000 9c a1 e4 3c 6e be 92 be 16 db 09 bd fb 27 04 be
       0.027909093 -0.2866091 -0.033656202 -0.12905876
000010 8e 39 2c be d0 54 2e 3e c3 c7 84 be b0 f2 a9 3e
       -0.1681883 0.17024541 -0.25933656 0.33192968
000020 bb a7 fb 3d 65 34 b9 be 13 b1 18 3c d8 78 3d bd
       0.122878514 -0.36172786 0.0093195615 -0.046257824
000030 99 a4 a7 bd 69 b0 09 3c 7b 15 61 3e 41 d8 25 3d
       -0.081856914 0.008403876 0.2198085 0.04048944
000040 f5 7f 7d 3d 70 aa 40 bd 80 00 76 3c c8 83 b4 3d
       0.061889607 -0.047037542 0.015014768 0.08814198
000050 dd 87 92 bc 80 50 45 3c 14 16 3a 3e 98 d5 ba 3d
       -0.01788705 0.0120431185 0.18172485 0.09122771
000060 5d 0f 0f 3c 92 63 77 bd b2 39 d9 bc e9 64 aa bb
       0.00873169 -0.060397692 -0.02651677 -0.0052000177
000070 97 35 36 bf 80 a8 8c 3d 55 7f f9 bd 4c d1 9e 3c
       -0.7117552 0.06868076 -0.1218249 0.01938691
000080 b4 1f 9c 3e b9 ab 1c bb 36 c2 bb 3e 53 32 c2 3c
       0.30492938 -0.0023906066 0.3667161 0.023705637
000090 e6 d9 95 bd bb 79 14 be 9a 5a da 3e f6 ac 19 3d
       -0.073169515 -0.14499561 0.42647249 0.037518464
0000a0 05 a4 57 bd 34 7a 43 3d 2d ce c2 3d c9 db cb 3d
       -0.052646656 0.047723964 0.09511981 0.0995403
0000b0 1a 9f 06 bd ee ff d3 bd 06 10 73 3b 90 17 95 be
       -0.032866575 -0.10351549 0.0037088408 -0.2911954
0000c0 41 ca 91 3d 0a 66 ce bb 6a b5 d3 3c 65 0a 11 3d
       0.07118655 -0.006298785 0.02584334 0.035410304
0000d0 4f e3 8a be 67 04 e1 bc c1 d8 ca 3c 28 04 b9 3d
       -0.27126548 -0.02746792 0.02476156 0.09033996
0000e0 18 41 97 bd a6 fe 1f bc 78 43 5b 3c fd 39 27 bc
       -0.073854625 -0.009765303 0.013382785 -0.010206697
0000f0 40 9b d5 3c 54 17 86 3c 4f 24 a6 3b b7 74 da bb
       0.026075006 0.016368546 0.0050702463 -0.0066667455
000100 e7 30 8a bc 23 bb a1 3c 98 ff cf 3d 7d a9 83 3c
       -0.016869022 0.019742554 0.101561725 0.01607203
000110 b8 f7 f8 3b 83 c9 89 bd e2 3b 92 bb 74 2e 34 bf
       0.0075978898 -0.067278884 -0.004462705 -0.7038338
000120 f4 50 34 bf 76 af 03 bd f6 81 6e bd 60 1d 12 3c
       -0.70436025 -0.032149754 -0.05822941 0.008918136
000130 f2 3b 83 be df ba 2e 3d ae db a0 bb 17 a8 80 3d
       -0.25631672 0.042658683 -0.0049090004 0.062820606
000140 d7 d6 8c ba d1 72 73 bd 85 d4 41 bd 13 06 5f bd
       -0.001074518 -0.05943567 -0.047321815 -0.054449152
000150 fb 53 4e bd 3d 81 3b bc 51 b5 22 3c bb db fa 3d
       -0.05037306 -0.011444387 0.0099309245 0.122489415
000160 c4 eb 10 bd b6 a5 1a 3d 20 c3 3d 3c d4 42 08 3e
       -0.035381094 0.03775569 0.011582166 0.13306743
000170 be 74 af bd b3 ed 89 3d 1e 66 aa bd e9 60 cb bd
       -0.08567189 0.06734791 -0.083202586 -0.099305935
000180 38 4b f4 be ed 7f 27 bd 30 b6 8d 3d 78 b1 97 3d
       -0.47713637 -0.040893484 0.06919515 0.07406896
000190 9e b2 69 3e 4d c7 02 3c d0 dd 0c bf 42 50 cc be
       0.22822043 0.007982087 -0.5502596 -0.39904982
0001a0 46 38 a1 bc a3 a3 16 be d3 b8 51 3d 04 4e 7c 3e
       -0.019680154 -0.1471086 0.051201653 0.24639136
0001b0 5f b7 45 3d e2 36 8e be 99 e2 05 3d d6 86 10 bf
       0.04827058 -0.27776247 0.032686803 -0.56455743
0001c0 f1 9e 9c bb 0c d2 1d 3e 9e 26 ac be 18 43 ed bc
       -0.0047796895 0.15412158 -0.33623213 -0.028962657
0001d0 97 a8 d7 bd 97 69 fb 3d 89 05 ae 3e d7 4e 97 3c
       -0.10530203 0.12275999 0.33988598 0.018470211
0001e0 ac d2 22 bd ad 83 c6 3c d3 ed a3 3e fd 47 1d bf
       -0.039751694 0.02423271 0.32017383 -0.6143797
0001f0 b2 f7 8f 3e 58 83 6c bc f3 db 6f 3e 65 56 65 bc
       0.28118664 -0.014435612 0.23423748 -0.013997649
000200 31 9a c1 3c 60 ea ec bc 5b 7d 31 be b0 1d a7 3c
       0.023633095 -0.028920352 -0.17332976 0.020399898
000210 60 72 cd 3b 20 5e 05 3e 15 3a 64 bc f6 ab ce 3c
       0.006269738 0.13024187 -0.013929863 0.025228482
000220 4d 5a ee 3d 8e 67 34 be af f5 15 bc 3b 2a 01 bf
       0.11638317 -0.17617628 -0.009152814 -0.50455064
000230 b9 5a 01 bd ea 79 0c 3c ac f7 25 3e d2 ff 51 3d
       -0.03158066 0.008573988 0.1620776 0.05126936
000240 45 4d 42 bd 89 24 ac be 58 86 96 bc 94 ef ef be
       -0.04743697 -0.33621624 -0.018374607 -0.4686247
000250 06 e8 8b 3d 1f 83 c9 3a 59 a0 28 3d b8 6a 57 bd
       0.06831364 0.001537416 0.041168544 -0.05259201
000260 d5 25 65 bd 43 56 a2 be 81 19 eb 3d 38 c1 15 3e
       -0.055944283 -0.31706437 0.11479474 0.14624488
000270 87 3a 05 3d 8b 53 b8 be 26 fe 4f 3c 63 b3 43 3c
       0.03252652 -0.36001238 0.012694871 0.011944625
000280 ef 27 5a bc 3b e9 d9 3e 40 3b 3c bd 52 de be bc
       -0.013315185 0.42560753 -0.045954943 -0.02329937
000290 91 9a 1c 3e 98 f0 68 be 54 c9 0c bc 6d 97 a7 3c
       0.15293337 -0.22748029 -0.008592922 0.020457948
0002a0 5a 4f 5a bd 5d ea e9 bb 32 55 1d 3b 59 6a f0 ba
       -0.05329833 -0.007138534 0.002400708 -0.0018342241
0002b0 a6 0c 8a bd 44 33 5d 3e e8 99 bd 39 47 0e 89 3e
       -0.06740694 0.21601588 0.00036163558 0.26768705
0002c0 f1 b7 8b 3c 58 bc 80 be 97 10 b5 bb f1 be 82 bb
       0.017055484 -0.25143695 -0.0055256593 -0.003990047
0002d0 81 c5 6b bd 31 a2 b9 bd 62 4d 21 3e e6 72 fe bd
       -0.0575614 -0.09064139 0.15752175 -0.12424259
0002e0 64 c1 31 be 91 c2 f1 bc d3 04 e0 3d 88 1d 51 bd
       -0.17358929 -0.029511722 0.1093842 -0.051053554
0002f0 2a 5b ee bb 8e 84 90 3c b1 00 ae 3c 46 83 12 be
       -0.007274051 0.017641332 0.021240564 -0.1430789
000300 c4 c9 8e 3d 36 8c 3d 3c f5 ad a8 3d bb d6 81 3e
       0.069720775 0.011569073 0.08236305 0.2535914
000310 aa c9 03 be c5 79 a8 3e af 1f 0a bb 06 b9 0e be
       -0.12869897 0.32905403 -0.0021076014 -0.13937768
000320 9b b6 72 be 41 ed b4 3c ca bc 97 be a2 8e 0e 3d
       -0.23702471 0.022085788 -0.29636222 0.034803994
000330 8c e6 47 bd 97 1e d3 3b e4 c6 d5 b9 80 5b a6 bc
       -0.04880385 0.0064428556 -0.0004077471 -0.020307302
000340 64 33 93 bc c4 01 f2 38 d0 2d 71 3d c4 01 3b be
       -0.01796884 0.00011539788 0.05888158 -0.18262392
000350 46 61 7f bd eb ad 95 3c f9 97 89 3e 4d bb 2d 3b
       -0.062348627 0.018271407 0.26873758 0.0026509345
000360 f7 da 65 3e 54 28 b5 bd 8f 2c a4 bd 91 d4 07 3c
       0.2244681 -0.088455826 -0.080163114 0.008290426
000370 ed d6 c5 3d 8d 1e 80 bd 38 90 05 bc 61 70 5d bd
       0.096601345 -0.06255827 -0.00815206 -0.05406225
000380 82 2b 18 bd d4 7d 3d be ae 0a b1 3c 1d 8f 8b 3e
       -0.037150867 -0.18505031 0.021611538 0.27257624
000390 ac f2 60 bc e3 97 07 3e fc f3 84 3d 60 7e 99 3b
       -0.0137297325 0.13241534 0.06491849 0.0046842545
0003a0 9e d2 97 3d 92 ea 1a 3e 8a 10 0c bc 9d b3 bd be
       0.07413219 0.15128544 -0.008548865 -0.37051097
0003b0 ed 09 dc bc 69 88 a7 3c 46 8a 08 3d b3 df 1c 3e
       -0.026860202 0.020450788 0.033334993 0.1531971
0003c0 6b 9b be 3c 8e a2 16 bc d1 de ee 3b cc 90 c4 3c
       0.023267468 -0.0091940295 0.0072897454 0.023994826
0003d0 f0 12 bd 3d c0 c6 b6 be 6e 49 63 bb e0 a1 ec 3c
       0.09232128 -0.3569851 -0.0034681219 0.028885782
0003e0 c1 dc b1 3d 55 b6 35 3e 5d 5c 65 3c ec f3 f7 3c
       0.086846836 0.17745335 0.013999072 0.030267678
0003f0 27 68 ca 3b 32 14 94 bb 79 51 48 3e a8 61 33 be
       0.0061769667 -0.004519009 0.1956233 -0.17517722

transformer_encoder.layers.0.linear2.bias f4 [6]
000000 41 56 f6 3c 20 6a b5 bc 9b 0c 1a 3c 17 f5 8d 3b
       0.030070426 -0.02214533 0.009402419 0.0043321955
000010 38 25 33 bd 55 e2 48 bd
       -0.043736666 -0.049043972

transformer_encoder.layers.0.norm1.weight f4 [6]
000000 48 ad 9c 3f ec 1d 93 3f 61 4c 84 3f 61 78 74 3f
       1.2240381 1.1493506 1.0335809 0.95496184
000010 38 65 76 3f c9 e0 98 3f
       0.962482 1.1943599

transformer_encoder.layers.0.norm1.bias f4 [6]
000000 a7 fe ee 3d 9f b7 03 bd 08 f3 0e 3d fb 03 93 bd
       0.11669665 -0.032157537 0.03489974 -0.071784936
000010 7f b0 a4 3d 6b 33 95 bb
       0.080414765 -0.0045532486

transformer_encoder.layers.0.norm2.weight f4 [6]
000000 b7 7a 75 3f 56 da 94 3f 21 0e 84 3f 19 03 55 3f
       0.95890373 1.1629131 1.0316812 0.8320785
000010 8d 9b 74 3f 56 8a 96 3f
       0.9554985 1.1760967

transformer_encoder.layers.0.norm2.bias f4 [6]
000000 e3 2c 40 3e 8d 02 a3 be 07 4c 08 3e b5 87 5f be
       0.18767123 -0.31837884 0.13310252 -0.21829112
000010 5e 9c 8b bd 21 4c 04 3d
       -0.06816934 0.032299165

transformer_encoder.layers.1.self_attn.in_proj_weight f4 [18, 6]
000000 b9 2c 32 bc ef 0d 7e be af b5 2c be c3 54 ab 3e
       -0.0108749205 -0.24810003 -0.16866182 0.33463106
000010 98 1a 01 bf 46 4d 1d be 17 21 15 3f 92 05 a2 be
       -0.50431204 -0.15361509 0.58253616 -0.31644875
000020 2d 5b 87 be 83 89 f9 bd 88 6c d4 be 06 60 b0 bd
       -0.2643675 -0.121844314 -0.41489053 -0.08612065
000030 9c db df 3d d8 ce 72 be be 74 df 3e d0 a6 bc be
       0.10930559 -0.23711717 0.43643755 -0.36846018
000040 01 e8 a5 3e a5 b2 d8 3e fc c8 04 3e 38 32 ae be
       0.32403567 0.42323795 0.12967294 -0.3402269
000050 a9 a7 77 be 69 25 bf 3d b9 5c 83 3f 29 86 03 bf
       -0.24185051 0.09333307 1.0262672 -0.5137659
000060 81 ac 96 3d 02 a8 d3 be 5c 02 77 bc d8 c5 bd 3e
       0.07357121 -0.41339117 -0.015076246 0.37065005
000070 67 1d 3e bf a5 bc 54 3f 06 f8 b9 be 6e 6b bb 3e
       -0.74263614 0.8310035 -0.3632204 0.366054
000080 bc 15 0b bf bf a0 5c 3d b7 df f5 bc 9e 3b b5 3e
       -0.5433004 0.053864237 -0.030013902 0.35397047
000090 c7 e4 06 3d 23 6c 14 3e 7c a7 b5 be 18 49 11 bd
       0.032933023 0.14494376 -0.35479343 -0.0354701
0000a0 27 87 0c bf bb 3a ef 3e 03 04 0c bf 90 d0 11 3e
       -0.54893726 0.46724495 -0.5469362 0.14239717
0000b0 e3 e7 83 3e 0a 83 8e 3e 4e 66 3e be 24 45 05 3e
       0.25762853 0.2783435 -0.18593714 0.13014656
0000c0 3c 3a c4 3d a7 d3 ce be f1 56 c1 3e eb 06 db be
       0.0958142 -0.40395853 0.37761644 -0.42778715
0000d0 59 ff c5 bd bf 0c 1d 3e 39 86 83 bd 54 9b 56 be
       -0.09667844 0.15336893 -0.06422085 -0.2095769
0000e0 ba 6b db bd b2 2d 1e bf c6 58 57 3e 0d ef e4 3e
       -0.107139066 -0.61788476 0.21029958 0.4471363
0000f0 aa d6 f4 3e aa 82 1f bf cc 15 c6 3e 73 32 ed 3e
       0.47820026 -0.6230875 0.38688505 0.46327552
000100 50 55 12 be ce d1 00 be 55 60 5a bd 8d 05 12 3e
       -0.14290357 -0.12580034 -0.053314526 0.1425993
000110 81 b2 16 be 2b 11 b4 3e b0 2d 36 bf 4b 45 e1 bc
       -0.14716531 0.35169348 -0.71163464 -0.027498862
000120 1d bd bc 3c 8d c4 07 be a6 fe 44 be 11 51 cb 3e
       0.023039395 -0.13258572 -0.19237766 0.39710286
000130 50 17 dc 3e 02 b4 87 3e 69 ad 9b bd 78 00 c9 be
       0.42986536 0.26504523 -0.07601435 -0.3925817
000140 38 e6 de 3e d0 54 e5 be 37 80 02 bf 34 14 d2 3e
       0.43535018 -0.4479127 -0.5097689 0.4103104
000150 fd 45 69 be e3 65 06 3f 1f 49 e9 be 5e c0 ee be
       -0.22780605 0.52499217 -0.455636 -0.4663114
000160 ed 3b db bc 19 86 b8 3e 72 ed 18 3f 80 3a e5 be
       -0.026761973 0.36039808 0.5973731 -0.44771194
000170 df 4c 75 3e 23 13 41 be 70 4b 87 3e b1 4a 10 bf
       0.23955105 -0.18854956 0.26424742 -0.5636397
000180 f6 0b 0c bf 1a 3b b5 3e e7 1a 1c bd c5 4d 94 3e
       -0.5470575 0.35396653 -0.038111594 0.28965583
000190 24 8f fe bc 22 8b 64 be 4d 70 d3 3d 26 b4 8b 3e
       -0.031074114 -0.223187 0.10324154 0.2728588
0001a0 12 0c 71 be a3 6e 96 be 8a 6e 27 3e dc 19 69 3d
       -0.2353976 -0.29381284 0.16350761 0.056909427

transformer_encoder.layers.1.self_attn.in_proj_bias f4 [18]
000000 fb 17 6f 3e 96 b2 db 3e 9e 7e 2b be 71 50 e8 3b
       0.23348992 0.42909688 -0.1674752 0.0070896675
000010 48 57 7c be ab 00 82 3e 46 56 ff bb 96 d1 9f ba
       -0.2464267 0.25391135 -0.007792267 -0.0012193199
000020 51 87 fb 3b be 10 4c 3b ce 0a a0 bb d0 e7 50 bb
       0.007676043 0.0031137909 -0.0048841005 -0.0031876452
000030 ff fc b5 3b 7e 22 11 3e 50 30 3a bb 8b 47 94 3d
       0.005553841 0.14173314 -0.0028410144 0.07240208
000040 3c 20 bd bd 9c 86 1b 3e
       -0.09234664 0.15188068

transformer_encoder.layers.1.self_attn.out_proj.weight f4 [6, 6]
000000 a6 ee 39 3d 9f 14 22 3d 01 51 46 bf 43 47 d9 be
       0.04539361 0.039570447 -0.7746735 -0.4243718
000010 2c d1 0f 3e 46 e8 f8 bd 68 08 df 3c 27 28 75 bd
       0.14044636 -0.12153678 0.027225688 -0.059852745
000020 75 a5 10 be 7f 32 91 3e b6 5e c6 be b2 b8 a3 be
       -0.14125617 0.28358838 -0.38744134 -0.3197685
000030 34 62 ae be 04 7c b9 3e 22 44 78 3e 93 94 4c be
       -0.34059298 0.3622743 0.2424474 -0.19978552
000040 9e ea 7e bd 12 5c 40 be 9c 0b d8 bc b3 a5 14 3e
       -0.062235467 -0.18785122 -0.026372723 0.14516334
000050 93 bb d0 3e 4c 4c 91 bd d5 d5 f5 bc 4d cf 3b 3e
       0.40768108 -0.070946306 -0.03000919 0.18340798
000060 37 4b 3d be 9a 90 c5 be 9b 18 d7 3e ac c2 cc 3e
       -0.18485723 -0.38586885 0.4201096 0.39992273
000070 34 da a9 be 7e 01 38 3e e7 df 00 bf 07 c8 9c be
       -0.33174288 0.17969319 -0.5034165 -0.3062136
000080 96 74 e0 bd d6 6a 8c be 09 d6 81 3d 1e 30 18 3e
       -0.10959737 -0.2742526 0.06339652 0.14862105

transformer_encoder.layers.1.self_attn.out_proj.bias f4 [6]
000000 12 40 a1 bd 49 4a 3b bd 15 57 f4 3d bf 69 57 3c
       -0.078735486 -0.04572514 0.11930672 0.01314777
000010 4e 39 91 3d 79 17 1e bd
       0.07091008 -0.038596604

transformer_encoder.layers.1.linear1.weight f4 [2048, 6]
000000 65 26 9a bd de 8f 0a bf 69 d8 d8 bd 95 a4 2e 3e
       -0.075268544 -0.54125774 -0.10588152 0.1705497
000010 a7 0d ee 3d 71 30 91 bd cf cb 35 be 6e 4f 21 be
       0.11623698 -0.070893176 -0.17753528 -0.15752956
000020 6e 38 b2 3e 01 e9 a0 be f3 ac a6 3e 7b a0 0c 3d
       0.34808677 -0.31427768 0.32553825 0.034332734
000030 98 9c 5d 3e e4 88 de bd 36 31 31 be 0c b0 65 3e
       0.21641767 -0.108659536 -0.17303929 0.22430438
000040 a6 f2 8a bd 28 3f a6 3d d0 bc 1a bd 2f 19 c5 be
       -0.06784563 0.08117515 -0.037777722 -0.38495776
000050 69 a1 89 be dd 1e c8 3b 8a e4 18 3e f1 88 05 3f
       -0.2688096 0.006107195 0.1493093 0.5216208
000060 d2 be 54 be 68 8c 2b 3e 43 80 cf bd d6 a8 d4 be
       -0.20775917 0.1675278 -0.10131886 -0.41535062
000070 cd b9 c4 be f9 2e 9d 3e e6 4d f3 3b b5 00 87 be
       -0.38423005 0.306999 0.0074250577 -0.26367727
000080 91 60 92 be 26 ac f3 be a0 97 0a be 47 03 29 bd
       -0.285893 -0.47592276 -0.13534403 -0.04126289
000090 06 7e 65 be f9 7a 23 3e 03 fc 23 be ed ad 4f be
       -0.22411355 0.15964879 -0.16014104 -0.20281191
0000a0 76 c2 db be 9a 05 09 be a4 b4 6c be d2 16 87 be
       -0.429218 -0.13381043 -0.23115784 -0.26384598
0000b0 f1 5e 98 be cc 93 ab be 8f 3c 72 3f ae f3 a3 bd
       -0.29759935 -0.33511198 0.94623655 -0.080054626
0000c0 65 ac c9 bd 53 ed e4 3d 51 b0 bf bd 57 a1 b3 be
       -0.09847335 0.111780785 -0.093598016 -0.3508403
0000d0 a1 9d a1 be c7 f2 be 3e c5 0d f5 be 06 f7 f0 be
       -0.31565574 0.372946 -0.47862068 -0.47063464
0000e0 26 bf 46 be d8 59 b5 be 75 37 78 3e 9f 2d e2 3e
       -0.19408855 -0.35420108 0.24239905 0.4417543
0000f0 de 08 ee bd 58 6a 93 bd 49 06 0c be 9b dd d2 3c
       -0.11622785 -0.07198018 -0.13674273 0.025740435
000100 1f 89 03 be 79 da c7 bd 80 81 41 be 5c b9 1c 3d
       -0.12845276 -0.09758467 -0.18897057 0.03826271
000110 2b de b8 3d af 9d a0 be 09 84 d8 3e ef ba 3a 3e
       0.0902675 -0.31370303 0.42288235 0.18235372
000120 d2 9e 89 3e ca d5 12 be 19 68 96 3d 50 90 8c 3d
       0.26878983 -0.14339367 0.07344074 0.06863463
000130 c7 4b 76 be c6 b3 50 3e eb d0 37 3e bd 06 dd 3d
       -0.24052344 0.20381078 0.1795079 0.10792301
000140 14 8e 9c 3b fd ad 06 3e 69 f1 ed 3c 4e 0c 0c 3e
       0.004777679 0.13152309 0.029045777 0.13676569
000150 e7 3d ed 3e d4 32 c9 3e c4 6a fa be e5 6d cc be
       0.4633629 0.3929659 -0.4890958 -0.39927593
000160 bd f0 05 bc d4 b1 91 bc a0 f8 f9 bd e6 1f bf be
       -0.008175072 -0.01778499 -0.122056246 -0.37329024
000170 1e 24 af be f7 d2 75 3e ca 8e cb 3e 91 6f 4f 3e
       -0.34207243 0.24006258 0.39757377 0.20257403
000180 2c 0c 3c 3e b7 96 52 3e a6 e4 f9 bd 3a ff 1a 3e
       0.18364018 0.20565306 -0.12201814 0.15136424
000190 76 8d d6 3e 57 9f b3 bd 6c ad 47 3e 8f e4 9a be
       0.419048 -0.08770626 0.19499749 -0.302525
0001a0 f2 d2 00 bf c4 53 41 be c4 23 a5 bd ef 91 b2 be
       -0.50321877 -0.1887961 -0.080634624 -0.34876963
0001b0 79 5a 24 3e d6 0a 99 bd 86 f2 7c be b3 f5 84 3e
       0.16050138 -0.0747277 -0.2470189 0.25968704
0001c0 f0 af 2d be 73 6f a7 bd c8 e1 bf 3d d4 ef f4 3e
       -0.16961646 -0.08175554 0.09369236 0.47839224
0001d0 2b 05 16 3f a4 8b 1e be da 7c ee 3e 58 72 8b 3e
       0.58601636 -0.15482956 0.4657963 0.27235675
0001e0 d2 e6 b9 be dc 6b 45 3c d1 99 61 3e 92 9d 99 be
       -0.36308914 0.012049641 0.22031333 -0.3000303
0001f0 81 56 4c be e6 3f ae be c6 c6 0f bd 78 3d 6e bd
       -0.19954874 -0.34033126 -0.035101674 -0.05816409
000200 1d ab 6f bd 1b 5c ae bd 26 1f 59 bb 15 fb a4 bc
       -0.058512796 -0.085136615 -0.0033130138 -0.020139256
000210 01 a1 80 3e 81 27 ec 3e af 31 62 be e1 96 dd be
       0.25122836 0.4612389 -0.22089265 -0.43279174
000220 6d df 9a 3e 6c f1 28 bd e2 00 33 be 21 45 90 3e
       0.30248585 -0.041245863 -0.17480806 0.2817774
000230 f6 0e 76 be 1c 4d 18 bf 26 88 76 3e 24 29 8c be
       -0.24029145 -0.5949266 0.24075374 -0.27375138
000240 48 14 2e be bc 57 e2 be 5d ca 6d be ef 09 f0 3d
       -0.16999924 -0.4420756 -0.23221727 0.11720645
000250 5d c4 55 be a8 b2 8d bc f8 84 88 3e 99 06 a1 3e
       -0.20875688 -0.017297104 0.26663947 0.31450346
000260 84 46 53 3e 97 76 8a be 45 a2 ba 3e b8 d8 af 3e
       0.20632368 -0.27043602 0.36451927 0.3434503
000270 97 ce d1 3e d7 af 64 3e 1c d0 8d be 8e ae 1d be
       0.40977928 0.22332703 -0.27697837 -0.15398619
000280 ab d0 75 bd a1 99 83 bd fa 87 03 3e 84 1c aa bd
       -0.060013454 -0.06425787 0.1284484 -0.0830622
000290 6f 7e 0b 3e c3 f5 b5 3d f1 44 f3 bb e6 bc 65 3e
       0.1362245 0.08884766 -0.00742399 0.2243534
0002a0 0e 9f 1b 3f 5d 44 9a 3d 49 12 a7 be c8 68 2a be
       0.60789573 0.075325705 -0.32631138 -0.16641533
0002b0 df a7 e0 3c e8 77 c3 bd a9 ae 7b 3c f4 6a ea bd
       0.027423797 -0.09544355 0.015361466 -0.11446181
0002c0 fa fb 3d bc f9 04 36 ba 67 8d 76 3d 35 ad 4c be
       -0.01159572 -0.000694349 0.060193446 -0.19987948
0002d0 08 39 8b 3e 84 4b 3a be 4c a1 a2 3e 04 73 76 3d
       0.2719195 -0.1819287 0.31763685 0.06016828
0002e0 5d 18 44 be e2 4a 48 bd 9c 7a 29 3e f2 9c 97 bd
       -0.19149919 -0.04889954 0.16550678 -0.07402982
0002f0 0f 45 76 be 60 b4 a5 3d 32 cd 27 3d ee b3 c8 bc
       -0.24049781 0.080910444 0.040967174 -0.02449986
000300 f1 8e c8 3e fb e4 7e 3d dc 71 c4 be f1 e5 07 bf
       0.39171556 0.06223009 -0.38368118 -0.5308524
000310 b9 07 03 bc 72 67 50 3e 29 86 43 3e c8 06 e8 3e
       -0.007997447 0.20351961 0.19094147 0.45317674
000320 55 19 07 3d 03 a9 96 3e a1 b3 fb 3e 6f 0e d6 bd
       0.032983143 0.2942582 0.49160483 -0.10451972
000330 ba c7 57 3e a9 07 8b be 5d 91 da 3d 82 74 dd 3d
       0.21072283 -0.27154282 0.10672257 0.10813238
000340 2a 98 c2 3e f1 fb 40 3e b5 13 38 3d 6d e9 4b be
       0.38006717 0.18846108 0.04494067 -0.19913264
000350 fa d0 8e 3d d4 e9 ed 3d f4 c1 9b 3e 0b 6b 15 be
       0.06973453 0.11616865 0.30421412 -0.14591615
000360 a8 92 dc bc 5f 9a 05 bf 39 bd 02 3e 4b 60 03 3d
       -0.0269254 -0.52188677 0.12767495 0.032074254
000370 c7 d5 29 be 29 eb da 3e 57 20 bb 3e 74 fe 27 3e
       -0.16585456 0.42757538 0.3654811 0.1640566
000380 59 96 dc 3d e4 55 33 bd 23 21 24 be 16 57 98 3e
       0.10770864 -0.043783084 -0.16028266 0.2975394
000390 98 62 b3 bd bc e5 cf bd 87 69 36 3e e9 20 00 bf
       -0.0875904 -0.1015124 0.17813693 -0.50050217
0003a0 6b 68 22 3f cd 45 bc 3d 2a 21 9a 3e 68 fd 40 be
       0.6344058 0.09193001 0.30103427 -0.18846667
0003b0 0c a5 21 bc 61 e6 a3 3e 36 d8 de 3e bd 37 a2 3e
       -0.00986601 0.32011703 0.4352433 0.3168315
0003c0 f4 e5 1d be 5f 81 da bc bd 06 00 3e ee 27 27 be
       -0.15419751 -0.026673017 0.1250257 -0.16323826
0003d0 4a 35 61 be 91 e5 74 3d 36 0a d8 bd d7 08 16 be
       -0.21992984 0.059789244 -0.105488226 -0.1465181
0003e0 8d df 88 be 9d 20 3d 3e 07 14 b7 bd 59 3e 59 be
       -0.26733056 0.18469472 -0.08939367 -0.2121519
0003f0 8a df 13 3e f0 a8 a2 bc 89 76 aa 3d 40 6a ec be
       0.14440742 -0.019855946 0.0832339 -0.46174812

transformer_encoder.layers.1.linear1.bias f4 [2048]
000000 11 36 5a be a2 dd 88 3c 9e ee e7 be 01 bb 08 be
       -0.21309687 0.016707245 -0.45299238 -0.13352586
000010 a4 f7 60 be 39 52 bc 3d cd cd a8 be c8 c4 1e be
       -0.21969467 0.0919537 -0.32969514 -0.15504754
000020 d5 b3 44 be fb 2c 38 be 5e b8 93 be b5 d2 4b 3e
       -0.19209225 -0.17985909 -0.28851599 0.19904597
000030 d1 02 18 bf ed c7 e9 bd 1b 26 cd be ad 7c b6 be
       -0.593793 -0.11415086 -0.40068135 -0.35641995
000040 dc 9e be 3c ef f2 cc be 05 48 02 bf 21 94 54 be
       0.02326911 -0.40029094 -0.50891143 -0.20759632
000050 be 27 ae 3d d9 42 04 3c bd 88 ad be 57 aa 0c be
       0.08503674 0.008072578 -0.33893386 -0.13736854
000060 16 fc 14 bf 33 16 01 3e 82 89 9b be ca 96 84 be
       -0.5819715 0.12606125 -0.30378348 -0.25896293
000070 f5 da 5f be f6 06 5d 3e 6c c0 b4 be cd 16 e7 bd
       -0.21860869 0.21584687 -0.35303056 -0.11283646
000080 d5 e9 7d be 69 91 43 be 0d af b4 be cd 20 19 be
       -0.24796231 -0.19098438 -0.35289803 -0.14953919
000090 ca 95 95 be 20 e2 4c be 7b ec 99 be bd 97 d3 bd
       -0.29215842 -0.20008135 -0.30063233 -0.10331676
0000a0 43 d7 bb bc f1 19 c6 be 3e df 3b 3e 08 b8 e6 bd
       -0.022929793 -0.38691667 0.18346879 -0.1126557
0000b0 7d db 03 bf 9d fa 5c be 0d 5b b8 be 9a f2 01 bd
       -0.5150679 -0.21579976 -0.36006966 -0.031725504
0000c0 bb 12 87 bd 06 a2 5f 3c 2d 25 31 3e 07 4a 1a be
       -0.065953694 0.013649469 0.17299338 -0.15067302
0000d0 06 a7 8c 3e a6 b6 d3 be e2 04 98 3a 88 44 76 be
       0.2747118 -0.41350287 0.0011598135 -0.2404958
0000e0 69 87 f1 3b d4 e2 06 be 81 c2 2e 3e 2c c3 d2 be
       0.0073708785 -0.13172466 0.17066385 -0.4116453
0000f0 00 3d 37 be 45 e3 78 be 3e 0b 14 3d 23 86 7b 3d
       -0.17894363 -0.24305446 0.036143534 0.06140722
000100 b7 da 87 be 7b 5a 96 3d b6 b2 0a be d7 bb b6 bd
       -0.26534054 0.073414765 -0.13544735 -0.08922546
000110 ff 00 f7 ba 60 52 cf 3c db 7c 5f be 24 25 e7 bd
       -0.0018844901 0.025307834 -0.21824972 -0.11286381
000120 90 d8 bb be 70 fd d2 be 42 16 ce 3c fb 08 b1 3d
       -0.36688662 -0.41208982 0.025157098 0.08644291
000130 0a 92 b8 3c f8 06 d3 be d0 ae a2 be bb 93 95 be
       0.022530574 -0.41216254 -0.31773996 -0.29214272
000140 cf d8 9a be 29 8b a8 be be ca 63 be a9 1c e5 be
       -0.30243537 -0.3291867 -0.22245309 -0.44748428
000150 d2 8d aa be f5 9b 85 bd cc f4 bc be 47 00 20 3e
       -0.33311325 -0.06523887 -0.36905515 0.15625106
000160 17 96 aa be 37 b5 42 be 00 1b d0 3d de be 79 be
       -0.33317634 -0.1901444 0.101614 -0.24389216
000170 ac f0 1b be 53 4e 96 be 94 00 1b bc 03 b5 b2 be
       -0.15228528 -0.29356632 -0.009460587 -0.34903726
000180 0e cf 50 3e e6 20 b0 3c a0 73 92 be 06 ba 8f be
       0.20391485 0.021500062 -0.2860384 -0.28071612
000190 0c d2 4e be d7 58 94 be f1 ea ad bd a6 40 cf be
       -0.20197314 -0.2897403 -0.08492077 -0.4047901
0001a0 a0 77 25 3e b2 89 03 bf b5 f1 a3 bc 9a 49 f2 be
       0.16158915 -0.5138198 -0.020012716 -0.4732178
0001b0 4e f9 19 3c 6e de ba be 6f 94 cc be ab 66 b5 be
       0.009397818 -0.36497825 -0.39956996 -0.35429892
0001c0 3c 31 15 be 66 b8 c6 3c 2f 42 6e 3e a7 1c 7b 3e
       -0.14569563 0.02425785 0.23267435 0.24522649
0001d0 92 c2 71 be 63 cb 9a be 84 c7 ab bd b2 94 30 be
       -0.23609379 -0.30233297 -0.08387664 -0.17244223
0001e0 12 a4 a1 be 18 c4 57 be 9e 84 2a be 19 8b 9a be
       -0.31570488 -0.21070898 -0.16652152 -0.30184248
0001f0 59 98 f6 be 60 97 db 3c 6f bb 97 be e4 76 1c be
       -0.48163107 0.02680558 -0.29635188 -0.15279728
000200 6a a7 c6 be 05 d2 e0 be 46 85 03 bd 0c 18 0e bf
       -0.38799602 -0.43910232 -0.03210952 -0.5550544
000210 2a 6d ef bc 6d dc 09 bd 9f 1b ea bd b4 39 39 3e
       -0.029226858 -0.03365748 -0.114310496 0.18088418
000220 30 b9 4a be 40 0f 08 be fd e0 3f 3d d3 7a c5 be
       -0.19797206 -0.13287067 0.046845425 -0.3857027
000230 ef 19 bb be 27 2e 74 3d 5f b3 76 be 8d 64 75 be
       -0.36543223 0.059614327 -0.24091862 -0.23964138
000240 fd c7 b7 be 71 db 07 be 30 48 f2 be 91 14 bf be
       -0.35894766 -0.13267304 -0.473207 -0.37320378
000250 a2 f3 8c be 28 8b 28 be d5 2f bf bd 52 6e ce 3d
       -0.27529627 -0.16459334 -0.09335295 0.10079636
000260 00 26 ac be be 1c 89 3d c6 c0 52 be f4 06 af bc
       -0.33622742 0.06694935 -0.2058135 -0.02136562
000270 0b aa 2d be 15 f0 a3 be e3 c5 22 be 4a 86 6b bc
       -0.16959397 -0.32019106 -0.158958 -0.014375279
000280 1e 8a 9f bd 6a 89 eb be 66 3f 84 3c c6 93 46 3e
       -0.07790016 -0.46003276 0.016143512 0.19392309
000290 4a 13 af be 5d 17 06 3e 45 c9 91 be e5 ba ba be
       -0.34194404 0.1309485 -0.2847387 -0.36470714
0002a0 85 c4 bf be 4b 14 17 bf 6d e3 cd 3c 77 81 9d be
       -0.3745462 -0.5901534 0.02513286 -0.30762836
0002b0 00 3c 01 bd 20 d4 ec bd 83 c4 02 be c6 00 f3 3c
       -0.03155136 -0.11563897 -0.12770276 0.029663455
0002c0 1e d4 c7 be fa 46 03 bd eb f6 14 be ed 0b 1c 3e
       -0.3902902 -0.03205011 -0.14547317 0.15238924
0002d0 3f bd 93 3d 19 45 9b be a2 9d 98 be 5e e9 56 3e
       0.0721383 -0.30326155 -0.29807764 0.2098746
0002e0 f5 ff f7 bd c3 f9 79 be c4 84 ac be 4f e7 dd be
       -0.12109367 -0.24411683 -0.33695042 -0.43340537
0002f0 e5 26 17 be cd 28 88 bd c7 91 99 be 24 63 f9 bd
       -0.14760931 -0.06648407 -0.29994032 -0.12177113
000300 33 8c 63 be 4b d7 85 be 5d d3 95 be 15 3c e9 bd
       -0.2222145 -0.26140818 -0.2926282 -0.11388413
000310 8b 07 b2 be 65 0f 08 be 60 56 b9 be a0 52 11 3e
       -0.3477138 -0.13287123 -0.3619871 0.14191675
000320 4d 04 38 bc 8b ca 98 3e 4c 08 c4 3e 48 b1 b4 be
       -0.011231494 0.29842028 0.3828758 -0.35291505
000330 fc 06 01 bf b6 e5 1b bd d0 12 b0 be a0 90 02 bf
       -0.5040128 -0.038060866 -0.34389353 -0.5100193
000340 5f 46 5a be 5f c4 46 3c c6 2a 92 be 6e 57 9d be
       -0.21315907 0.012131779 -0.2854826 -0.30730766
000350 c0 19 22 be 07 ad 06 bf 81 76 6b be 30 b5 c1 be
       -0.15830135 -0.5260777 -0.22994424 -0.37833548
000360 f2 b3 be bd 1b 4c 04 be ee cf 5f be ff ef 77 be
       -0.093116656 -0.12919657 -0.21856663 -0.24212645
000370 3d 97 04 3e 24 dd e3 3d fa e7 09 3c 19 8a 70 bc
       0.12948318 0.111261636 0.008417124 -0.014681363
000380 3b 2e 2e bd 6d 8c 64 bc 28 75 97 be 4e b4 82 3c
       -0.042524558 -0.013949496 -0.2958157 0.015955117
000390 ca 0a fd 3c 45 34 65 be c6 be a2 be 35 3b 2b be
       0.030888934 -0.2238322 -0.31786174 -0.16721804
0003a0 32 29 bc be d9 de 08 bf 60 83 2b 3d 31 de 23 3d
       -0.3675018 -0.5346504 0.041873336 0.04000682
0003b0 6f 5d 76 be 1e f4 45 be 62 55 fc bc e1 e6 09 bf
       -0.2405908 -0.19331405 -0.030802432 -0.5386792
0003c0 60 f2 00 be de 70 33 be bd 7a f0 3d ae 16 dc be
       -0.12592459 -0.17523524 0.117421605 -0.42986053
0003d0 66 32 a2 be 32 07 6e bd 22 98 9f be aa 92 96 be
       -0.31679076 -0.05811233 -0.31170756 -0.2940877
0003e0 ab 61 75 3d 45 ba 88 be 9e 8d 8f 3b 84 c5 ab be
       0.059907597 -0.26704612 0.0043808958 -0.3354913
0003f0 b3 76 b6 be ca 72 1a bd c8 07 cf be 82 ca 4f 3e
       -0.35637435 -0.037707128 -0.40435624 0.20292094
