DU_model/Transformer/best_model_prod3_tr.3.32.pth (torch, 425022 bytes, 29 tensors)

norm.weight f4 [6]
000000 00 00 80 3f 00 00 80 3f 00 00 80 3f 00 00 80 3f
       1.0 1.0 1.0 1.0
000010 00 00 80 3f 00 00 80 3f
       1.0 1.0

norm.bias f4 [6]
000000 00 00 00 00 00 00 00 00 00 00 00 00 00 00 00 00
       0.0 0.0 0.0 0.0
000010 00 00 00 00 00 00 00 00
       0.0 0.0

transformer_encoder.layers.0.self_attn.in_proj_weight f4 [18, 6]
000000 5b b7 be be e6 87 56 3e 2f df 67 3c fd be 6e 3e
       -0.37249264 0.20950279 0.014152332 0.23315044
000010 29 49 82 3e e2 ff cd 3e 7d ce 9f be ad be 22 3e
       0.25446442 0.40234286 -0.31212226 0.1589305
000020 ed 18 1e bd 88 1f a3 bd d9 78 bb bd 36 04 e2 be
       -0.03859799 -0.079649985 -0.09153909 -0.44143838
000030 1d 00 ed 3e 46 eb 56 be 7d 85 5b 3c 6b 44 c9 bd
       0.4628915 -0.20988187 0.013398525 -0.09827503
000040 55 fe bf 3e 18 74 d1 be e9 f4 c8 be e0 9d 77 be
       0.37498727 -0.40908885 -0.39249352 -0.24181318
000050 9d 66 f2 be 93 b6 e2 be 92 8c bd 3b d5 68 31 bd
       -0.47343913 -0.44279918 0.0057845796 -0.043312866
000060 e3 5f 8d bd 32 7e 08 be a7 f2 8a 3e f0 0f eb 3e
       -0.069030546 -0.1332939 0.27138254 0.45910597
000070 46 be bc 3e c0 6d ab be af 7c 65 bd ff 34 0c be
       0.36863917 -0.3348217 -0.05602711 -0.13692091
000080 2c a9 b7 be d1 33 e9 be 29 04 8d be e4 05 b4 3e
       -0.35871255 -0.45547345 -0.27542236 0.35160744
000090 e7 11 a4 be 95 83 f2 3e cd 1d c0 be 66 3d af 3e
       -0.32044908 0.47366014 -0.37522736 0.3422653
0000a0 17 c7 f5 3e 14 99 0d 3d 61 34 fe 3e 16 3c 1b 3e
       0.48003456 0.034569815 0.49649337 0.1515964
0000b0 dc 67 74 bd da ff 13 3e 65 78 ba be f1 44 d3 3d
       -0.05966936 0.14453068 -0.3641998 0.10315884
0000c0 7a fb f2 3d 72 0e 63 be cd 01 f3 3e 86 ab 3e 3e
       0.118643716 -0.22173479 0.4746231 0.18620118
0000d0 b0 1a d7 3e 80 ee 68 3d 40 8a 9e be aa b5 41 be
       0.42012548 0.056868076 -0.3096485 -0.18916956
0000e0 2f 85 b8 be 1f 94 7e be 8b 41 d6 3e 35 13 76 3e
       -0.3603911 -0.24861191 0.4184688 0.24030764
0000f0 e0 88 54 be 0a 8f 60 3e c9 1c 3d 3e 0b e2 9a 3e
       -0.20755339 0.21929565 0.18468012 0.30250582
000100 b7 32 4a bd 72 76 a4 be 7b 6b 56 3d 21 54 c6 bd
       -0.04936477 -0.32121617 0.052348595 -0.09684015
000110 a1 b1 cd 3d b2 85 3f be d1 91 aa be f0 7b 81 3d
       0.10043646 -0.18703344 -0.33314374 0.06322467
000120 85 b2 8f 3e 5c 5f 34 39 c6 4d f4 3e ca db f3 bc
       0.28065887 0.00017201662 0.47715586 -0.02976789
000130 b9 8e 3c 3e ee 32 14 3f 39 3d a3 3d 33 97 0e bf
       0.1841382 0.5789021 0.07970662 -0.5569946
000140 fb 7e 4e bf e3 85 95 3e 24 da fe be 5e 08 31 3f
       -0.80662507 0.2920371 -0.49775803 0.6915339
000150 8f e2 bf bd ba c6 da bc 1d 72 77 3e c0 2b b1 3e
       -0.093693845 -0.026706088 0.24164625 0.3460369
000160 17 fc 1b bf 77 49 94 3d 85 d3 01 bf de 30 11 bf
       -0.60931534 0.07240575 -0.5071338 -0.5671519
000170 44 f2 3d 3e 9c 1f 70 3e aa d0 4b 3e 14 fb 86 3e
       0.18549448 0.23449558 0.19903818 0.26363432
000180 fb 02 ee 3c 3d ce 39 3f 0a f9 7b 3e 41 70 5e be
       0.029054156 0.7258032 0.2460672 -0.21722509
000190 d1 f8 08 3f 04 91 a4 be 68 a0 a5 3e a6 e7 f7 3c
       0.53504664 -0.32141888 0.32348943 0.030261826
0001a0 ef 51 91 be 45 16 83 be fb 63 4e be 22 21 88 3b
       -0.28382823 -0.25602928 -0.20155327 0.0041543404

transformer_encoder.layers.0.self_attn.in_proj_bias f4 [18]
000000 5c 39 3e bc 1e 16 13 bc 33 a2 87 3c 49 a3 d7 bb
       -0.011610355 -0.008977441 0.016556835 -0.0065807444
000010 8c da cc 3c 68 8d cf 3c 43 1e de 3c 28 80 74 bc
       0.025006555 0.025335982 0.02711404 -0.014923133
000020 61 9d 66 bc 1d 6a 12 bd fd 99 12 bd 60 4b 13 3d
       -0.014075608 -0.03574573 -0.035791386 0.035960555
000030 31 a2 e6 3e da e4 9b be 49 aa 56 be fc 76 4a be
       0.45045617 -0.30448037 -0.20963396 -0.19771951
000040 3e fe ab 3e 6e a4 6e be
       0.3359241 -0.23304912

transformer_encoder.layers.0.self_attn.out_proj.weight f4 [6, 6]
000000 bb 72 97 3e 96 28 ac be 79 7c 42 be 5c 2a c0 3e
       0.2957972 -0.33624715 -0.18992795 0.37532318
000010 9a 3e 4c be 45 d8 38 be 02 16 d1 bc 60 63 c4 be
       -0.19945756 -0.1805125 -0.02552319 -0.38357067
000020 3a 32 16 3e 35 76 96 3e 71 74 9d 3e 02 b0 4b bd
       0.14667597 0.2938706 0.307529 -0.0497284
000030 fa 69 f4 bd 05 29 97 3e 41 51 9b 3e 9e 32 82 3d
       -0.11934276 0.29523483 0.3033543 0.06357311
000040 a4 75 97 bb 81 6e bd 3e 8e c5 c6 3d fa c4 3b be
       -0.004622178 0.3699837 0.09705649 -0.1833686
000050 eb 00 d0 be ad 2c 97 bd cd db f4 bd ef fc 8d be
       -0.406257 -0.07381568 -0.11955986 -0.27732036
000060 31 07 67 3e 2b f0 24 be 32 6e bd be 23 48 ae 3d
       0.22561337 -0.16107242 -0.36998135 0.08509853
000070 89 ac 54 be 16 ad da 3e a4 ea 54 be e1 6b ba 3d
       -0.20768942 0.4271018 -0.20792633 0.091026075
000080 17 30 c9 3c 92 ea 56 3e 14 ec ac be d5 6e 95 3e
       0.024559064 0.20987919 -0.33773863 0.2918612

transformer_encoder.layers.0.self_attn.out_proj.bias f4 [6]
000000 be cc da 3c e2 22 61 3e 4a 6b 62 3e f5 27 6e 3e
       0.026708957 0.21985963 0.2211124 0.2325743
000010 96 fd 39 3e d3 eb bf be
       0.18163142 -0.37484607

transformer_encoder.layers.0.linear1.weight f4 [2048, 6]
000000 3d 43 a9 3d 0f 2c a2 3e 6d 57 c7 3d 92 05 04 3d
       0.08264778 0.3167424 0.09733472 0.032231875
000010 1d 50 d6 be fa 96 72 3d 60 58 50 be a6 16 1b be
       -0.41857997 0.059226014 -0.20346212 -0.15145358
000020 4a e2 d7 3e 51 03 96 be 36 18 8c bd a3 55 ba be
       0.42164832 -0.29299405 -0.06840555 -0.3639346
000030 fe 9d a2 bd 84 4d 96 3e 0e 40 ac 3e 89 e8 bd 3d
       -0.07940291 0.29356015 0.3364262 0.09272868
000040 b2 c4 af bc 1f 02 92 be c8 5f 8a 3e 23 0d a7 3d
       -0.021456096 -0.28517243 0.270262 0.081568025
000050 1d d0 00 bd 93 3d f9 be de 06 52 3e af 54 0d bd
       -0.031448472 -0.4867979 0.20510432 -0.03450459
000060 a1 87 f5 3d c6 83 a7 3e f0 fd 4e be 4f 3e 97 3d
       0.1198876 0.32717723 -0.20214057 0.07384931
000070 81 54 6f be cb 1b 99 be 33 a0 48 3e 76 8c c4 bd
       -0.2337208 -0.29904017 0.19592361 -0.09597103
000080 ef 2c 56 bc 3e 04 8d 3d 6e 79 9a be 99 ee be 3e
       -0.013072236 0.06885575 -0.30170768 0.3729141
000090 cf 80 51 bd 24 dc 48 be ef df 93 3e d9 53 5a 3e
       -0.051148232 -0.19615227 0.28881785 0.21321048
0000a0 df 10 1a 3e 72 71 66 be a4 3e 26 be a9 b1 a6 3e
       0.15045498 -0.22504213 -0.16234833 0.3255742
0000b0 6f de df be f9 0b 62 3e 1c d4 45 3e 50 bf 13 3c
       -0.4372439 0.2207488 0.19319195 0.00901778
0000c0 62 05 74 be 49 9a ad be d0 a6 88 bd d0 8c 99 3d
       -0.23830178 -0.33906773 -0.06672442 0.07497561
0000d0 89 e4 ac 3d 37 76 95 bd 71 f7 88 bd d3 fd d4 3e
       0.08442027 -0.07297938 -0.06687821 0.41599903
0000e0 25 f8 b0 3e c7 2d ef bd bf f0 64 be cb 2a 34 bd
       0.3456432 -0.11678653 -0.22357462 -0.043986123
0000f0 08 2a 17 be 4c ab a0 bd 00 2b 71 3e 70 15 5c be
       -0.14762127 -0.07845172 0.2355156 -0.21492553
000100 37 e5 b7 bc e7 93 80 be 69 2b 41 3e e5 57 b4 bc
       -0.022448165 -0.2511284 0.18864216 -0.022014568
000110 60 21 99 3e 26 84 95 3e 07 d6 01 3d f9 69 dc be
       0.29908276 0.29202384 0.031698253 -0.430496
000120 d7 33 9f be 34 9b d1 be 09 af 93 be d1 d2 94 3e
       -0.31094238 -0.40938723 -0.2884448 0.2906709
000130 94 31 99 3e df 4f 5a bd b3 36 98 be 9e d4 92 3e
       0.29920638 -0.053298827 -0.29729232 0.2867784
000140 65 a9 7f 3e 65 e9 3b be c1 69 cc 3d f8 91 ac 3e
       0.24966963 -0.18350752 0.099811085 0.33705115
000150 f4 aa 49 3d 3e 95 a7 be d0 9d 61 3e 6c 1d bf 3e
       0.0492353 -0.3273105 0.22032857 0.37327135
000160 e7 7b f0 3d 57 de e3 3e 4b c3 e6 be 22 f0 96 be
       0.117423825 0.4450557 -0.45070872 -0.29480082
000170 f5 c0 2d 3e da ea 4d be d5 cc 4c 3e 24 64 f4 3e
       0.16968139 -0.2010912 0.20000012 0.4773265
000180 5d 00 5e 3e 36 63 be 3e 00 48 79 be a4 bb 6d 3e
       0.21679826 0.37185067 -0.24343872 0.2321611
000190 90 8b 1f be ac b5 13 be 2c 0a 83 3d 31 07 86 be
       -0.15580583 -0.14424771 0.063984245 -0.26177362
0001a0 6e 2f a0 bb 47 30 87 3b d5 ac ba 3e 91 7d 39 3e
       -0.0048884666 0.004125628 0.36459985 0.18114306
0001b0 65 67 07 be 16 83 76 be 33 8e 81 bd 74 f5 b7 bd
       -0.13223036 -0.24073443 -0.063259505 -0.08982363
0001c0 b6 1b fc ba 1c a4 d6 bc af 8b f7 3e e0 67 70 be
       -0.0019234333 -0.0262013 0.48348758 -0.23477125
0001d0 df 77 a6 3e 2a 94 48 be ec b9 28 3e 57 2b e5 3d
       0.3251333 -0.1958777 0.16477174 0.11189907
0001e0 8b dc 7c bd 3c cf e9 bb db 84 00 be b1 d8 57 be
       -0.061733764 -0.0071353 -0.1255068 -0.21078755
0001f0 c8 3c 2b be 3b d9 6d 3d c3 dd df 3e ee c8 a7 3e
       -0.16722405 0.058068495 0.43723878 0.32770485
000200 aa 43 88 be 36 97 9d 3e fb c4 67 3e 51 50 6e be
       -0.26614124 0.30779427 0.22633736 -0.23272826
000210 a5 2f 9a 3e c0 cf 37 bb b0 19 ef 3e 36 a4 25 3e
       0.30114475 -0.0028047413 0.46699286 0.16175923
000220 13 7d c9 3e 38 23 dd be f7 40 8a 3e 00 7d 95 be
       0.39353237 -0.43190932 0.2700269 -0.2919693
000230 27 87 e9 bb 6e 5c 1b 3e ce fb bf be 8e fa f7 3e
       -0.007126707 0.15171978 -0.374968 0.48433346
000240 f4 14 c7 3e 73 44 98 bd b3 63 c8 3e ae dc cd 3b
       0.38883173 -0.07434931 0.39138564 0.0062824106
000250 48 ec 98 3c e8 5b b1 be 48 39 83 3e da 88 a2 be
       0.018667355 -0.3464043 0.2562964 -0.31745034
000260 04 5e a1 3e c4 17 f9 bd f4 7d ca 3d df 63 12 3e
       0.3151704 -0.12162736 0.09887305 0.1429591
000270 5b 18 c7 bd 83 c3 9a 3e b9 85 0a be 74 8f 6b 3e
       -0.09721442 0.3022729 -0.13527574 0.23003942
000280 13 d6 87 be e9 67 12 bd d1 f8 d6 3e 0d 77 99 3e
       -0.26530513 -0.035743628 0.41986707 0.2997364
000290 07 6f 4c be d3 d4 27 be bb 07 3e 3e 02 c8 27 3e
       -0.19964229 -0.1638978 0.18557636 0.1638489
0002a0 83 b8 b8 be 99 32 aa 3e d4 e6 72 3e b6 ce 89 be
       -0.3607827 0.33241728 0.23720866 -0.2691552
0002b0 e3 40 8b be 9d ab 32 be 3d 42 12 3d 40 e0 9f be
       -0.27197942 -0.17448278 0.0357077 -0.31225777
0002c0 0f 61 63 3e 39 7b 4c 3e 64 7a b4 be 13 5c c0 3d
       0.22204994 0.1996888 -0.35249627 0.09392562
0002d0 2f 6c a8 3e 02 ed 45 3e 0e 6b 5a 3e 5a bb 8b be
       0.32895038 0.19328693 0.213299 -0.27291375
0002e0 cc e1 4e 3e ad 87 e3 bd 19 3b 29 3e e0 62 6d 3e
       0.20203322 -0.111098625 0.1652645 0.23182249
0002f0 9c 9d 10 3d 38 ca af 3e b1 9b ca 3e 19 09 63 bd
       0.035306558 0.34333968 0.39571908 -0.055428598
000300 cb e0 63 be 4e 35 dc 3d 19 a3 f1 bd 52 c3 59 be
       -0.2225372 0.107523546 -0.117986865 -0.21265915
000310 9a 21 bc bd d5 cb 62 be 87 03 a3 be e4 04 78 3e
       -0.091860965 -0.22148068 -0.3183863 0.24220616
000320 0d a4 c9 3e f6 9e c9 3d 71 6f 94 bc 6b 25 d9 3e
       0.39382973 0.098447725 -0.018119546 0.4241136
000330 e3 f8 b5 3d b2 50 45 be f0 fa d8 be 91 6c 3f be
       0.08885362 -0.19269064 -0.4237895 -0.18693759
000340 2d 19 bd 3e a2 52 7e be 9f 47 ae 3d a3 93 e8 bd
       0.3693327 -0.2483621 0.085097544 -0.113562845
000350 8b 57 b4 be 1b 6d 13 bd c8 cf 9c 3e 37 de 30 be
       -0.3522304 -0.035992723 0.30627275 -0.17272268
000360 10 2f 88 3c 7b de d7 3e 43 90 88 3e cd ff 5d 3e
       0.016624004 0.42161927 0.26672563 0.21679612
000370 3a a1 7f be f1 af ab 3e 69 df 0e be 46 f8 01 3d
       -0.24963847 0.3353267 -0.13952412 0.031730913
000380 d3 9d d6 3d 40 5d 00 bf 9e 26 61 3e a9 ea 38 be
       0.10479321 -0.5014229 0.21987388 -0.18058266
000390 0b a2 5a 3e fe ac 0e be 3c 6f db 3e c8 b5 ae be
       0.21350877 -0.13933179 0.42858303 -0.34123063
0003a0 6f 44 17 be 5f 49 ed 3e cc ca ba 3e 8b 51 27 3e
       -0.14772199 0.4634504 0.36482847 0.163397
0003b0 96 a2 79 bd 00 d0 7d 3e 29 bf 33 3e 3c 32 b4 bd
       -0.06094607 0.24786377 0.1755339 -0.08798644
0003c0 b5 ae ad be 71 2b c5 be dc ef 88 3d fc 97 24 3d
       -0.33922353 -0.38509706 0.066863745 0.040184006
0003d0 f8 05 78 3e 36 6c 9c 3e fb 68 94 3e ed 63 2b 3e
       0.24221027 0.30551308 0.28986344 0.16737337
0003e0 0f e2 87 be 99 2c 0e 3e ca fc 99 3e 4a 33 dc 3d
       -0.26539657 0.138842 0.30075675 0.1075197
0003f0 92 e5 28 3e 26 5f d4 3e 81 1d 49 be df 6b e4 bd
       0.16493824 0.41478842 -0.19640161 -0.11153387

transformer_encoder.layers.0.linear1.bias f4 [2048]
000000 65 73 a7 be ad f1 a5 3e 41 9c 21 3e 9f c5 87 3e
       -0.32705227 0.32410946 0.15782262 0.2651796
000010 f7 f5 e8 3c 96 b1 d2 3d f3 4c 35 3e 4f 1d 90 3e
       0.028437598 0.10287778 0.17705135 0.2814736
000020 d3 54 a8 be 7b 7b 89 3d 9d 86 94 bd 63 27 57 3e
       -0.32877216 0.06713005 -0.07252238 0.21011119
000030 9c 89 a7 be aa dc 62 3e 59 5b 15 3e af 25 c9 3e
       -0.32722175 0.22154489 0.14585628 0.39286563
000040 2c e2 58 3e 6e a8 b3 3e 9a 6c 9b 3e 8b 5d 8d 3e
       0.21180028 0.3508944 0.30356294 0.2761043
000050 d4 89 18 be e5 e8 48 be f5 11 6d 3e 39 d3 81 3e
       -0.14896327 -0.19620092 0.23151381 0.25356463
000060 57 dc 58 3d e2 50 a6 3e 4c ad 6f 3e 06 c5 f7 bd
       0.052944507 0.32483584 0.23405951 -0.12098126
000070 d9 33 b3 3e 89 6c 07 be 0b cb 3b 3e 8d cc 9f 3e
       0.35000494 -0.13224997 0.18339173 0.31210747
000080 81 c0 bf 3e bf 02 0a 3e 42 85 a9 3d 88 51 cb be
       0.37451556 0.1347761 0.0827737 -0.3971064
000090 ea 86 c5 be 7b 81 af 3e 27 bf 8c be 11 32 46 3e
       -0.38579494 0.34278473 -0.27489588 0.19355036
0000a0 c9 f0 27 be 40 70 53 be d4 ed 04 3e c4 6f af 3e
       -0.16400446 -0.20648289 0.12981349 0.34264958
0000b0 5e 71 b1 be 3e b9 8a be 21 4c 18 be 3f 17 d9 bd
       -0.34656805 -0.27094454 -0.14872791 -0.10600137
0000c0 be d6 ab be de c5 ae be 58 16 ba be f7 cf fd bd
       -0.33562273 -0.34135336 -0.36345172 -0.12393182
0000d0 72 2e 9d be ad 23 4e bd 3d f4 94 bd 91 4d 0d be
       -0.30699497 -0.05032699 -0.07273147 -0.1379912
0000e0 e5 85 af be ed 7e c8 3e 6d aa 72 3d 72 20 0d be
       -0.3428184 0.39159337 0.059244562 -0.13781908
0000f0 43 2e 93 be 8a ec 9d be 5f 5b 1f be 07 77 65 bd
       -0.28746232 -0.30844527 -0.15562199 -0.056021716
000100 d3 00 8b 3e 8e e2 a6 3e a5 ff a2 3e d3 21 0d 3d
       0.27149066 0.32594723 0.31835666 0.034456085
000110 18 07 44 bd 5e 07 2d be 30 48 0a 3e 03 11 90 bd
       -0.047858328 -0.16897342 0.135041 -0.07034495
000120 09 3d 8b 3c ce 0f ee bd af f8 21 3e e0 54 98 3e
       0.016996877 -0.11624108 0.15817522 0.29752254
000130 e1 f6 3e bd d4 bb 72 bd 48 81 09 3d 89 d1 e0 3c
       -0.04662216 -0.059261158 0.033570558 0.027443664
000140 73 d9 77 3d 8a fb 47 be 32 44 7a 3e c0 3b 7f be
       0.06051011 -0.19529548 0.24440077 -0.24925137
000150 01 60 21 be 60 fc cd be f2 9b 02 be eb df 58 be
       -0.15759279 -0.4023161 -0.12754801 -0.21179168
000160 16 0c 1f bd 64 cd ba be 9c c2 8e bd 7c db c0 be
       -0.038829885 -0.36484826 -0.069707125 -0.37667453
000170 06 43 d0 3d a9 68 a9 be 22 d6 f3 3d ff ad 14 be
       0.10169034 -0.33087662 0.11906077 -0.14519499
000180 dd 87 34 bd 33 d1 a7 be 92 79 6d bd 5c 1f bd bc
       -0.04407488 -0.32776794 -0.057977267 -0.023086242
000190 bf 6f 8d be f3 78 f7 bc b5 0a 74 bc b5 0c b6 3e
       -0.27624318 -0.03020904 -0.014895131 0.3555657
0001a0 84 0c 00 bd 4b ed c7 bd 2b 9a ad 3e d0 23 65 be
       -0.031261936 -0.09762057 0.33906683 -0.22376943
0001b0 54 6e 9a 3c a3 2b 26 bd 3b a1 5a bd 27 f8 6d be
       0.018851437 -0.04056896 -0.053376418 -0.23239194
0001c0 86 04 a2 be 88 77 40 be 10 db 80 be 16 b4 70 3d
       -0.31644076 -0.18795598 -0.2516713 0.058765493
0001d0 ed 46 7a be 7a 07 86 3e 66 4b f6 3c dd 5d 01 3e
       -0.24441119 0.2617758 0.03006525 0.12633462
0001e0 d5 3e 79 be 68 a1 a3 be eb 74 e1 bc d4 62 aa be
       -0.24340375 -0.3195908 -0.027521571 -0.33278525
0001f0 c4 8b c1 3d 1f bb 25 3e ed 0d 56 3d ce ed 5c 3e
       0.09450486 0.16184662 0.052259374 0.2157509
000200 24 61 2f 3e d9 31 d8 be 20 6a d4 3d ae e0 7c 3c
       0.171269 -0.4222553 0.10371804 0.015434427
000210 42 78 0e be 1a 98 33 be 90 c2 5f bd 20 a5 24 3e
       -0.13913062 -0.17538491 -0.05462891 0.16078615
000220 b9 98 cd 3c 21 01 9f be 78 73 64 be 63 b9 03 be
       0.025097238 -0.3105555 -0.22309673 -0.12863688
000230 45 d7 1d 3e 42 41 64 bc 16 62 93 bc 44 fd 35 be
       0.1541415 -0.013931574 -0.017991107 -0.17772394
000240 6e 04 c8 3e 37 6b b3 bd 4d 02 9a be 75 b9 62 3e
       0.3906588 -0.08760684 -0.3007988 0.22141059
000250 ab 10 01 bd a7 10 3d 3e 9d a5 8d 3e ab 93 82 3e
       -0.031510036 0.18463384 0.27665415 0.25503287
000260 79 ca e1 3d b8 82 2c 3e 75 a7 8f 3e e0 6a 6e 3e
       0.11024947 0.1684674 0.28057447 0.23282957
000270 61 f7 6e 3c 84 52 d0 3e 6c f5 18 3e 09 d6 97 be
       0.014585347 0.40687954 0.14937371 -0.29655483
000280 34 81 ca be 21 2c 9b 3d 42 c9 71 3e df 50 6a be
       -0.395517 0.07576776 0.2361193 -0.22882412
000290 17 2f b6 3d 07 08 bd 3e 52 02 6a bd af d2 5e bd
       0.088957004 0.36920187 -0.05713112 -0.054400142
0002a0 e6 89 89 be 9a 07 51 3e c3 a1 b1 be b2 3f 95 3e
       -0.2686302 0.20413056 -0.34693727 0.29150158
0002b0 9a 20 6b bc 57 d0 a7 3e 68 a8 bd be 43 96 4b be
       -0.014351035 0.32776138 -0.37042546 -0.19881539
0002c0 5c a3 8b bd e0 20 9e 3e de 4a bf 3e a2 90 11 be
       -0.06818268 0.30884457 0.37361807 -0.1421533
0002d0 c2 95 be 3d 9d c9 27 be 96 ab f8 bd 34 2c 95 3e
       0.09305908 -0.16385503 -0.121421024 0.29135287
0002e0 10 73 12 be fc 0e 4f 3e 51 2c 86 be a5 45 89 bd
       -0.14301705 0.2022056 -0.26205686 -0.06702737
0002f0 ee ae a1 3e ee 7a 3f 3d 4d 25 c2 be e2 ec a5 3d
       0.31578773 0.046748094 -0.37919083 0.081018224
000300 1e f6 8e bd 06 37 b2 be 2d 0e d0 be 00 97 c1 3d
       -0.06980537 -0.34807605 -0.40635815 0.09452629
000310 ac 94 a4 be d6 fc 9c be 50 a5 23 3e 15 9e c8 3e
       -0.32144678 -0.3066165 0.1598103 0.39183107
000320 ac 1e 4f 3e df 81 34 be 5e 86 fa 3d a2 30 85 3e
       0.20226544 -0.17627667 0.1223266 0.26013666
000330 91 6d 98 3c de 25 1f be b3 49 ca 3d 37 50 b5 3e
       0.018606933 -0.15541789 0.09877338 0.35412762
000340 aa 3b 23 3e 24 7f 85 bb 77 5c 58 3c 98 c8 9a be
       0.15940729 -0.0040739942 0.013205639 -0.30231166
000350 69 5f c6 bd 77 7d 40 bd e6 b1 82 bd 75 1a 9c 3e
       -0.09686167 -0.046994653 -0.06381588 0.30488935
000360 c1 38 a4 3d aa 17 e3 3d 44 cc a5 3e f4 23 fd 3d
       0.080186374 0.11088498 0.32382405 0.12360373
000370 3a 78 e7 3d 4a 34 c6 be ca 23 aa 3e f7 5d 59 3e
       0.11302228 -0.38711768 0.3323043 0.21227251
000380 9c 67 74 be 61 24 78 be 29 d9 57 bc 77 ec e2 bd
       -0.23867649 -0.24232627 -0.013174334 -0.11080258
000390 ac 93 01 3e 04 88 a2 3e 6d f6 ac bd 4b a3 b2 be
       0.12653989 0.31744397 -0.084454395 -0.34890208
0003a0 fd c4 65 3e 07 e7 a3 3e 15 97 53 bd e2 21 7a 3e
       0.22438426 0.32012197 -0.051657755 0.24426988
0003b0 0b e3 2b be 33 af 8e 3e 04 9d ac 3d 79 8e 2c be
       -0.16785829 0.2786804 0.08428386 -0.16851224
0003c0 ae d6 b9 3d 72 26 03 be 18 45 89 bd 56 51 d7 bd
       0.0907415 -0.12807634 -0.06702632 -0.105135605
0003d0 73 a2 17 3e 71 12 bb bc 35 a2 1e 3e 20 9b 20 be
       0.14808063 -0.022835942 0.15491565 -0.15684175
0003e0 70 92 a9 3e e6 5d b0 3e 54 35 dc bd 08 b7 ba 3e
       0.33119535 0.3444664 -0.10752359 0.36467767
0003f0 9a 0c c6 bd fd 0b ae be f1 c5 19 be 93 5c 37 bd
       -0.09670372 -0.3399352 -0.15016915 -0.04476602

transformer_encoder.layers.0.linear2.weight f4 [6, 2048]
000000 bb ea 63 3e ed bd 2a 3d 47 30 77 3c da d0 b9 bd
       0.22257511 0.041685034 0.015087194 -0.090730384
000010 95 8b 6e bc bd f1 5e 3c fa 13 b2 bc 4b ac e1 bc
       -0.014559646 0.01360744 -0.021738041 -0.027547976
000020 a0 5e 8e 3d 69 25 4c 3d 5b c5 43 3c 84 5b 8f bc
       0.06951642 0.049840365 0.011948909 -0.017499693
000030 ad e8 25 bd c1 ad 13 3d 91 c2 91 bc 3b 7b 0d 3c
       -0.0405051 0.036054377 -0.017792972 0.008635337
000040 d4 69 0c bc 80 61 a9 3b ae 02 92 bc 47 9d 45 3c
       -0.008570153 0.0051690936 -0.017823543 0.012061424
000050 6b f4 b6 bc f0 20 c0 3d 3d 94 38 bd ba 83 47 bc
       -0.022333344 0.09381282 -0.045063246 -0.012177402
000060 dd 6e 4d 3e 31 3e 1d 3d 89 c0 8b bc f7 d4 e6 3c
       0.20061822 0.03838939 -0.017059581 0.028177721
000070 8f e6 c1 3c fa 72 95 3c 80 ac 05 be a0 d5 bf bc
       0.02366951 0.018243302 -0.13054085 -0.023417294
000080 3f 85 80 bb c9 b1 04 3c 2e 75 ae 3c 20 b3 6c 3b
       -0.003922134 0.008099028 0.02129611 0.003611751
000090 06 d3 42 3c 5d 8e d9 bc 50 73 f8 3b 79 7b 48 bc
       0.011891132 -0.026557142 0.0075821057 -0.012236469
0000a0 04 35 b5 3d 0d 09 0f 3d 1d 7c 0f 3e 4a 2b e8 3d
       0.088480026 0.03492074 0.14012189 0.11336382
0000b0 a5 a2 81 3d a1 ef 11 3c 3b 70 d6 3d 1a e8 c7 bc
       0.0632985 0.00890723 0.10470625 -0.024402667
0000c0 46 bb 2d 3d f2 79 14 3c bc 3d 25 3d 60 c5 ac 3a
       0.042414926 0.009062277 0.040342078 0.0013181381
0000d0 28 a1 d9 3c 3c a6 d2 bc 28 21 06 3c c1 dc a5 bb
       0.026566103 -0.025714032 0.008186616 -0.0050617163
0000e0 45 73 ae bb 9c f5 c6 3c 9f 96 6e 3c 19 7a e2 3d
       -0.0053238 0.024287038 0.014562278 0.110584445
0000f0 f3 5d 0a 3e 48 7f 32 3c aa b6 60 bb 6a 9e 58 3e
       0.13512401 0.010894604 -0.0034288564 0.2115418
000100 6c d6 1f 3e 69 ca 77 3b 7c f1 22 3a bc ae 99 3d
       0.15609139 0.0037809855 0.00062157935 0.07504031
000110 7a 48 18 3d 54 2c 32 3d 92 d6 f5 3c 1b 51 17 3d
       0.037178494 0.043499306 0.030009542 0.036942583
000120 4a 5c bb bd 04 2f d6 bb 98 5b f5 3b 3d eb c9 3a
       -0.09148462 -0.0065363664 0.0074877255 0.001540519
000130 24 a1 a7 3d 40 1f 1c 3e db 98 ea bb be 21 0e 3d
       0.08185032 0.15246296 -0.007159335 0.034700148
000140 ad 36 04 3b a0 79 03 bd e9 7c 51 3b ef 77 07 bc
       0.002017419 -0.032098413 0.0031965321 -0.0082683405
000150 52 18 05 3e ad 30 06 bd 4d 72 95 bc e8 2f 9e 3d
       0.12997559 -0.032761265 -0.01824298 0.07723981
000160 fb fe e7 3d 8e f8 87 bc 4e a7 7a bc 89 a7 dc 3d
       0.113279305 -0.016598012 -0.015298678 0.10774142
000170 f8 f1 13 3e 7b 86 14 3e 5c 24 ec 3b 74 f5 ad 3d
       0.14447773 0.14504425 0.007206483 0.08494082
000180 3e cb 0f bd 2c b8 88 3d 19 ae d8 bd 6e bd e1 3d
       -0.035105936 0.06675753 -0.105800815 0.11022459
000190 b5 0b 1f 3c e4 1a 4a 3e 22 14 23 bc 65 d7 68 b8
       0.009707381 0.1973682 -0.0099535305 -5.5513712e-05
0001a0 76 9d 82 bc 37 df ea bc 2c ea 11 bd e5 1b 39 3d
       -0.015944224 -0.02867089 -0.035623714 0.045192618
0001b0 a3 6c 7e bc 9b b1 b8 3d 68 85 bc 3d 6d 17 58 3e
       -0.015528831 0.090182506 0.09205133 0.21102686
0001c0 e5 72 32 bd 36 1b 00 bb c9 a9 83 3d 4f 9a 1d 3d
       -0.043566603 -0.001954747 0.06428868 0.03847724
0001d0 3f 73 0a bd e6 e3 19 39 c3 a9 f5 bc 0d 43 61 bd
       -0.033801313 0.00014676116 -0.029988175 -0.054995585
0001e0 07 97 43 3d 12 76 b8 3e 40 19 14 3d 48 84 86 bc
       0.047751453 0.3602758 0.036156893 -0.016420498
0001f0 55 9b ea 3c 9f f0 30 bc 55 3b 10 bd 77 df 8a bc
       0.028638521 -0.010799556 -0.035212833 -0.01695226
000200 1b 56 8f 3d 3e 97 2b bc cc a7 38 3e 2b b8 28 3c
       0.06998845 -0.010473071 0.1803276 0.010297815
000210 60 da 4d 3d f9 5a 5f 3e 07 28 b4 3b 68 f5 0a 3b
       0.050257087 0.21812047 0.0054979357 0.0021203402
000220 26 1a fc 3d c5 3c 0d 3d 5d d6 b1 3d db 0e a4 bd
       0.12309675 0.034481782 0.08683465 -0.08010646
000230 c8 58 19 3d 6c 37 54 3d 94 ec c9 bc 1c cd 23 bd
       0.037438184 0.051810667 -0.024648942 -0.03999053
000240 5b 86 26 3e f8 ff 75 bb 9a 57 79 bd a3 d9 01 3e
       0.1626219 -0.0037536602 -0.06087456 0.12680678
000250 38 90 40 bb d2 0c 22 bc 02 76 15 3e 6b 95 33 3d
       -0.0029382836 -0.009890752 0.14595798 0.043843668
000260 c2 7f 1d ba 78 ff 74 3d 62 b0 b4 bc 29 00 07 bc
       -0.0006008112 0.059813946 -0.022056762 -0.008239784
000270 49 d1 65 bb 12 8e 16 3d c6 c5 de 3d 8b 49 15 bd
       -0.003506737 0.036756583 0.10877566 -0.03644709
000280 63 0c 7b 3d f9 7c 47 3d f5 be a4 bc da 8c 9f 3d
       0.06129111 0.048703168 -0.020110587 0.07790537
000290 ae 42 56 3d 2f 73 8e bc 07 b2 09 bb b0 0c 4c bc
       0.052309684 -0.017388908 -0.0021010654 -0.012454197
0002a0 e0 18 70 bc bc a8 58 3c 19 47 f8 3d d5 1f e5 3d
       -0.014654368 0.013223823 0.12122936 0.11187712
0002b0 e4 b5 ee 3b fb 7c 25 3c 2b 70 8e 3b 8e e8 fa 3d
       0.0072848666 0.010100598 0.0043468676 0.122513875
0002c0 52 a5 59 bd 30 0e 8f 3c 2b 89 c2 3b 16 29 66 bd
       -0.053136177 0.01746282 0.005936762 -0.056191526
0002d0 bd b6 59 bb 09 15 89 ba 73 9d 7c 3d fb e0 d3 3c
       -0.0033220493 -0.001045854 0.061673593 0.025864115
0002e0 ec e8 b2 bb 04 5a 99 bc 78 d5 ec 3d 66 3d 68 3d
       -0.0054598954 -0.01871968 0.115641534 0.05669918
0002f0 37 d3 92 3b c0 a8 33 3c 0e 5e df bc 9e 57 70 bc
       0.004480745 0.010965526 -0.027266528 -0.014669327
000300 78 96 75 3e 6b 38 9b 3d ce 56 77 bc 19 78 0e bc
       0.2398318 0.0757912 -0.015096379 -0.008695626
000310 58 34 a0 bd c5 57 4c bc ba dc b3 bc 69 84 09 bc
       -0.07822484 -0.012472098 -0.021955837 -0.008393385
000320 e3 94 96 3a df 1b e4 3d 85 cd 00 bd 89 63 ab bc
       0.0011488463 0.111381285 -0.031446 -0.020921485
000330 6d ea 91 3c 81 88 a8 bd f7 90 09 bd 3f 5c 6d ba
       0.017811978 -0.08229161 -0.033585515 -0.0009054578
000340 de 6b 08 3d aa d0 55 bc cd 57 82 3d ca 2f 4b bc
       0.033305995 -0.013050238 0.06364403 -0.0124015305
000350 23 b9 3e bc 8d 63 37 3c 91 0a 54 3d 37 f7 47 3c
       -0.01164082 0.011193168 0.05176789 0.012204937
000360 77 bb b1 bd 54 9a 5a 3d c1 27 a3 3b 43 48 f5 3b
       -0.08678334 0.053369835 0.0049791043 0.007485421
000370 08 55 7a 3d d7 dc 5b 3d 05 86 8e 3c 00 14 a6 3d
       0.06111625 0.053677406 0.01739789 0.081092834
000380 e8 76 ed 3c e8 49 28 3d b9 56 8b 3d 86 c1 15 bd
       0.028987363 0.041086107 0.068036504 -0.03656151
000390 b6 c4 8a 3d 7d 81 bd bc b6 b1 2d 3d fb e9 7c 3e
       0.06775801 -0.023133034 0.042405806 0.24698631
0003a0 92 b6 4f 3c fc 73 aa bb b0 3b 9a 3d 71 4b 7a bc
       0.0126778055 -0.0052018147 0.07530916 -0.015276776
0003b0 4a e3 3b 3e 90 27 bd bc 97 28 08 3d 84 53 08 be
       0.18348423 -0.023090154 0.033241834 -0.13313109
0003c0 01 20 32 bc 62 ac 99 bc 6f 12 1e bd 79 c0 30 3d
       -0.010871888 -0.018758956 -0.0385918 0.043152306
0003d0 5b 5d 87 3b 7d 27 17 3e 6c 26 8a 3c d4 a2 22 3b
       0.004131002 0.14761157 0.016864024 0.0024816291
0003e0 ed c3 a3 3e 45 44 fe 3a c7 43 f4 3c 01 9f ca 3c
       0.31985417 0.0019399008 0.029817475 0.024734022
0003f0 27 0d 3c bc ef 7a b5 3d e6 c4 af 3d f3 88 f4 bb
       -0.011477745 0.08861338 0.08582477 -0.0074626147

transformer_encoder.layers.0.linear2.bias f4 [6]
000000 27 87 9d bc a3 9d 50 3c e6 82 4f bb 62 e0 1a bc
       -0.019229485 0.012732896 -0.0031663715 -0.009452911
000010 f7 cd db ba af 63 5b bb
       -0.0016769756 -0.0033476164

transformer_encoder.layers.0.norm1.weight f4 [6]
000000 ba 52 82 3f 9d 07 88 3f fe 92 82 3f e8 88 7d 3f
       1.0181496 1.0627323 1.0201108 0.9903703
000010 c0 57 7e 3f 3a 8b 91 3f
       0.99352646 1.1370614

transformer_encoder.layers.0.norm1.bias f4 [6]
000000 4a 9c e6 3b bf 28 87 3c 21 ec b7 38 6c ea b1 bc
       0.007037674 0.016498921 8.7701024e-05 -0.021718226
000010 a6 c3 09 3d 82 50 c2 bb
       0.03363385 -0.0059300074

transformer_encoder.layers.0.norm2.weight f4 [6]
000000 74 b9 8e 3f f0 66 6a 3f 21 6f 84 3f 1b 73 71 3f
       1.1150346 0.9156332 1.0346414 0.9431626
000010 cc 22 7a 3f 07 2f 88 3f
       0.97709346 1.0639352

transformer_encoder.layers.0.norm2.bias f4 [6]
000000 8b 3c 2f bc 9a ef 95 3c 1c 77 fc bb bd 6d 98 bd
       -0.010695587 0.018302727 -0.0077046286 -0.07442806
000010 69 13 19 3d 60 03 e0 38
       0.037372027 0.00010681781

transformer_encoder.layers.1.self_attn.in_proj_weight f4 [18, 6]
000000 56 30 60 be 44 c4 c9 3e c4 e2 22 3d 53 e3 f2 3d
       -0.21893439 0.3940755 0.03976704 0.11859765
000010 f4 a5 8b 3e 70 69 b9 3e bf 90 a3 be 4c a5 04 bd
       0.2727505 0.36213255 -0.3194637 -0.032384202
000020 d6 f3 63 bb 4a 65 0c 3d 39 6a 2c be d4 6d c7 be
       -0.0034782789 0.034276284 -0.16837396 -0.3895098
000030 60 51 fd 3e 83 be 7f be 82 98 3a bc b2 e8 a5 bd
       0.49476147 -0.24975018 -0.0113889 -0.08101024
000040 75 7c b5 3e 38 a0 02 bf bd d7 11 bf c1 44 5c be
       0.35446516 -0.51025724 -0.56969815 -0.21510603
000050 4c 8d e7 be cf 8f ed be d6 66 c6 bd 67 56 10 3d
       -0.45224988 -0.4639878 -0.09687583 0.03523865
000060 96 cd 0a 3d e8 3b 59 be 39 b0 98 3e 2c b0 15 3f
       0.03388747 -0.21214259 0.29821947 0.5847194
000070 63 f4 2a 3e 4b 2e b6 be ae 0d c3 bd 89 93 99 be
       0.16694789 -0.35582194 -0.095240936 -0.29995373
000080 1a 63 a3 be 47 84 e5 be b9 b7 9b be 87 c0 a8 3e
       -0.31911546 -0.44827482 -0.30413607 0.32959387
000090 f8 23 5d be 6a 43 d0 3e 6d 48 97 be 04 f9 9f 3e
       -0.21595752 0.40676433 -0.29547444 0.3124467
0000a0 31 76 46 3e 4e c5 a8 be cd f4 07 3f f0 99 f1 3d
       0.19381024 -0.32963032 0.5310791 0.117969394
0000b0 f2 7b 0b bd 64 1c 28 3c 95 21 70 be 82 d7 a4 3e
       -0.03405375 0.010260675 -0.2345031 0.3219567
0000c0 34 6a 33 3e 42 58 64 be 7b 66 02 3f aa 55 86 3e
       0.17520982 -0.22299293 0.5093762 0.26237231
0000d0 4c f2 9e 3e 6a ef 39 3d 8a f0 cd be 18 42 e7 bd
       0.31044233 0.04539434 -0.4022258 -0.11291903
0000e0 55 89 de be d1 49 74 be c3 ab e4 3e 9d 17 a8 3e
       -0.4346415 -0.23856284 0.44662294 0.32830516
0000f0 03 de 3f be 9c 61 1c 3e ce e7 5b 3e f4 9e d7 3e
       -0.18737034 0.1527161 0.21475145 0.4211346
000100 19 e3 f9 bd 50 16 a7 be 0f f8 81 3d 66 21 59 bd
       -0.122015186 -0.3263421 0.063461415 -0.053010367
000110 0b 41 00 3e cb 8d 93 be a2 c4 9f be 74 b1 ce 3c
       0.12524812 -0.28819117 -0.31204706 0.0252311
000120 80 4d c3 3d 66 2d fc be 8d bf 8d bc e0 cf fe 3b
       0.09536266 -0.49253386 -0.017303253 0.0077762455
000130 ad 44 14 be 84 5b 82 3e 31 dc c3 be 1b f0 2e be
       -0.14479323 0.25460446 -0.3825393 -0.1708378
000140 98 42 11 bf e0 f0 98 3e 69 0d f7 bd 06 4f 06 3f
       -0.5674224 0.29871273 -0.12063105 0.5246433
000150 91 9e a0 3d 81 9c 6a 3e 18 6b e4 3e 4f ae af 3e
       0.07842744 0.22911264 0.44612956 0.34312674
000160 a5 c3 e2 be e6 c7 5e 3e 27 34 79 be 49 ea b4 be
       -0.4428989 0.21755943 -0.24336301 -0.35334995
000170 56 1f 9f 3e e0 cb 8c 3e 26 f3 2d 3e 5c 8a e5 3e
       0.31078595 0.27499294 0.16987285 0.44832122
000180 57 ad c5 3e 18 bd c2 3e 91 2e a4 3c ff de 74 be
       0.3860881 0.38034892 0.020041736 -0.23913191
000190 22 d7 37 3e c5 06 ca be 99 de 44 be 75 74 93 3e
       0.1795316 -0.3945829 -0.1922554 0.28799787
0001a0 ab af 51 be 1f d4 80 be ca f6 41 3e 30 c6 80 bd
       -0.20477168 -0.25161836 0.18941799 -0.06287801

transformer_encoder.layers.1.self_attn.in_proj_bias f4 [18]
000000 7d 10 ec bd 5a e7 25 3e ad 21 ab bb 2b ab 59 3c
       -0.115265824 0.16201535 -0.0052225203 0.0132854385
000010 b9 a3 51 3d ec 25 27 3d f0 ab 30 ba 36 10 1b 39
       0.05118153 0.04080765 -0.0006739488 0.00014787991
000020 33 aa 09 3a 48 0a 3e b9 d8 89 d5 b9 d8 1e d2 38
       0.0005251497 -0.00018123642 -0.00040729227 0.000100193254
000030 47 40 0e 3d 30 a6 af bc c3 b5 0d bc 10 32 bb 3c
       0.03472927 -0.021441549 -0.008649292 0.02285102
000040 d8 67 23 bb 72 c4 e3 3c
       -0.0024933722 0.027803633

transformer_encoder.layers.1.self_attn.out_proj.weight f4 [6, 6]
000000 7f 18 38 3e de b7 8d be 97 f8 98 be 2f 98 c1 3e
       0.17978095 -0.27679342 -0.2987716 0.3781142
000010 f2 2e 46 be 3e f2 bc bc 73 6d fe 3d f2 96 dd be
       -0.19353846 -0.023064729 0.124232195 -0.43279225
000020 f8 3d 5c 3e 7f 2a ad 3e 0b 0c 63 3e df 76 8c be
       0.21508014 0.33821484 0.22172563 -0.2743444
000030 d2 a5 85 be f6 57 a0 3e a4 7f a8 3e da 58 ea 3d
       -0.26103073 0.3131711 0.32909882 0.11442728
000040 1f 71 d6 3c bf de f5 3e 88 bb 30 3d a5 ec 5e be
       0.026176987 0.48021504 0.043147594 -0.2176996
000050 5c f4 d2 be 12 b7 08 be d3 2c bc bd 3d f9 b7 be
       -0.41202056 -0.13351086 -0.09188237 -0.3593234
000060 dc d7 6f 3e 3f 8f aa bd 07 b0 bb be 22 3b e8 3d
       0.23422188 -0.08328103 -0.36657736 0.11339404
000070 ae 68 97 be de 7f ab 3e 8b dc e8 bd 29 64 48 3b
       -0.29572052 0.33495992 -0.1137019 0.0030577278
000080 e5 2a f0 3d 7e 00 21 3e 99 34 94 be 48 8f 92 3e
       0.117269315 0.15722844 -0.2894638 0.2862494

transformer_encoder.layers.1.self_attn.out_proj.bias f4 [6]
000000 e5 bf 2f bc 0b a5 03 3d 0f 4e a3 bc e2 5b 23 bd
       -0.010726904 0.03213982 -0.019934682 -0.03988255
000010 9b 2f 38 3d d6 aa ae 3b
       0.044967275 0.005330424

transformer_encoder.layers.1.linear1.weight f4 [2048, 6]
000000 27 a1 a5 3d f0 a3 7b 3e c4 89 db 3d ec ec 03 3d
       0.08087378 0.24574256 0.10719636 0.03220837
000010 08 3c d4 be 8f 37 5d ba 8e e1 71 be 2c 4d 3e be
       -0.4145205 -0.000843876 -0.23621199 -0.18584126
000020 6c 90 b8 3e 32 91 87 be 0a 00 27 bd 84 8f 7b be
       0.36047685 -0.26477963 -0.04077152 -0.24566466
000030 eb 93 e1 bd 45 d7 81 3e 91 03 ad 3e b7 55 ed 3d
       -0.11014541 0.2535955 0.33791783 0.115886144
000040 5d d5 bb bc de 7f 98 be 24 7b 39 3e ae b0 16 be
       -0.022928888 -0.29785055 0.1811338 -0.14715835
000050 ae 8c 12 bc 67 45 d8 be 87 39 32 3e d8 f1 b7 3d
       -0.008944673 -0.4224045 0.17404757 0.08981675
000060 01 a5 0d 3d 32 ab 89 3e c1 f2 65 bd d2 c7 ed 3d
       0.034581188 0.26888424 -0.05613971 0.11610378
000070 86 48 94 be fd 71 9b be 78 11 26 3e ac 3e 10 be
       -0.2896158 -0.30360404 0.16217601 -0.14086407
000080 eb 87 47 3d c2 5a cb 3d 7b dd a7 be de a0 99 3e
       0.048713606 0.0992942 -0.32786164 0.30005544
000090 98 43 bd bd da 92 19 be d2 fe 9b 3e 55 3e 42 3e
       -0.09241408 -0.14997426 0.3046785 0.1896909
0000a0 f9 e6 29 3e 33 3f 07 be 65 c0 31 be 6f ca ba 3e
       0.16592015 -0.13207702 -0.17358549 0.3648257
0000b0 a3 5e e6 be bc 2c 66 3e 84 bf 32 3e 65 e1 08 3e
       -0.44994077 0.22478002 0.1745587 0.13367231
0000c0 de 3e 80 be 64 ea 74 be e0 25 93 bd 1b 39 73 3d
       -0.25047964 -0.23917538 -0.071849585 0.059380632
0000d0 5e 76 8c 3d 2e b6 18 be a6 ce ed bd 11 27 cb 3e
       0.06858514 -0.14913246 -0.11611681 0.39678243
0000e0 83 49 d0 3e 5e 3d c1 bd b5 b3 8b be ff e6 1d 3e
       0.40681085 -0.09435533 -0.27285543 0.1542015
0000f0 84 c3 7b be 22 c7 8b 3d 73 84 7f 3e 5c 89 60 be
       -0.24586302 0.06825091 0.24952869 -0.21927398
000100 33 8e 9a 3d 8d 82 8e be d5 5a 48 3e c5 92 9d bb
       0.075466536 -0.27833977 0.195659 -0.004808756
000110 00 f1 a8 3e 72 d3 84 3e c4 86 46 3d 16 62 b5 be
       0.32996368 0.2594257 0.048468366 -0.35426396
000120 4c 3e 88 be eb 54 b5 be 9a ff 96 be 1e 7a 95 3e
       -0.2661003 -0.3541635 -0.29491884 0.2919473
000130 e9 85 9d 3e 48 1e 8a bd 7c c5 ac be 6c 57 a4 3e
       0.30766228 -0.06744057 -0.3374442 0.32097948
000140 f3 dc 64 3e 10 a6 0c be 4f ec 2a 3e cc 13 8c 3e
       0.2234991 -0.13735223 0.16691707 0.27358854
000150 5f ac a2 3c 80 60 9b be 2e b4 93 3e 00 fc c0 3e
       0.019857584 -0.3034706 0.28848404 0.3769226
000160 e3 c2 de 3d 18 b1 ae 3e 86 53 cf be d7 68 44 be
       0.108770154 0.34119487 -0.4049341 -0.19180618
000170 48 1d 56 3e 91 df 8e be fb 5e 8a 3e 28 12 9a 3e
       0.20909607 -0.27904943 0.2702559 0.30091977
000180 e2 cc 4f 3e 89 da b4 3e a2 43 3f be d7 87 5e 3e
       0.20293 0.3532298 -0.18678144 0.21731506
000190 0b 7c 23 be b7 00 58 be 74 8e 47 3d 1a 98 56 be
       -0.15965287 -0.21094023 0.04871984 -0.2095646
0001a0 d4 54 bb 3d e1 03 cb bc 60 9e a9 3e 86 70 9d 3d
       0.09147039 -0.024782123 0.33128643 0.07687478
0001b0 cb 5f 23 be 27 ad 55 be f1 95 19 3c b0 6d d6 bd
       -0.15954511 -0.20866834 0.009374128 -0.1047014
0001c0 03 ab d9 bc 8e 9f 14 bd a8 6e 80 3e 48 3c a7 be
       -0.026570803 -0.036284976 0.25084424 -0.32663178
0001d0 42 cd 97 3e 82 15 a9 bd 40 16 3d 3e 94 72 08 3e
       0.29648787 -0.082560554 0.18465519 0.13324958
0001e0 52 83 24 be 9c 3e d3 3c 4e 67 39 be 71 a0 be bd
       -0.1606572 0.02578669 -0.18105814 -0.093079455
0001f0 6c 10 25 be fa 01 c1 3d 01 da 74 3e 34 55 c9 3e
       -0.16119546 0.09424205 0.23911287 0.39322817
000200 a8 c7 59 be 1b f8 23 3e ef 16 f8 3e 8b 75 4c bc
       -0.21267569 0.16012613 0.48454997 -0.012479196
000210 f3 90 99 3e c7 d5 26 3c eb 52 e4 3e c2 da 5f 3e
       0.299934 0.010182804 0.4459451 0.21860793
000220 aa ec 9c 3e 07 35 c6 be d3 43 84 3e cb af 83 be
       0.3064931 -0.38712332 0.25832996 -0.25720057
000230 e7 11 fb 3c a6 ab 08 3e 51 5d bc be 4c fe cb 3e
       0.030648185 0.13346729 -0.36789945 0.3984245
000240 cc 89 ad 3e 2a 61 ec 3c 94 b3 9b 3e 22 d4 84 bd
       0.33894193 0.028854925 0.30410445 -0.064857736
000250 31 f6 bc 3d b4 91 77 be 75 de 20 3e 51 62 a7 be
       0.09226645 -0.24176675 0.1570986 -0.32692197
000260 35 f7 9e 3e 6e a1 00 be a8 4c 0e 3e 68 62 29 3e
       0.3104798 -0.1256158 0.1389643 0.16541445
000270 59 33 19 be cf a9 85 3e 0d c5 c1 bd fa 8b 73 3e
       -0.14960994 0.26106116 -0.094614126 0.23783866
000280 e0 86 96 be 56 a3 0b bd 0e 5f d7 3e 5d 2a b4 3e
       -0.29399776 -0.034091316 0.42064708 0.3518857
000290 33 4a 3d be a1 d2 d9 bd 1c 53 db 3d cd 1c 0e 3e
       -0.18485336 -0.106358774 0.10709211 0.13878174
0002a0 88 45 cf be e7 26 ad 3e 41 83 85 3e f4 1d 87 be
       -0.40482736 0.33818743 0.260767 -0.2639004
0002b0 65 13 8a be 82 bb 43 be 72 b0 61 bd b5 98 b3 be
       -0.26967922 -0.19114497 -0.055099912 -0.35077444
0002c0 f2 dd 69 3e fe ac 69 3e 0c db b0 be 30 a7 b4 3d
       0.22838572 0.22819898 -0.3454212 0.08820951
0002d0 34 da 95 3e ae 24 b8 3d 05 02 f7 3d 9a a0 16 be
       0.29268038 0.08991371 0.12060932 -0.14709702
0002e0 11 22 84 3e ca 66 b0 bd 88 62 28 3e 1a 0e 8a 3e
       0.2580724 -0.086133555 0.16443837 0.26963884
0002f0 4e f4 08 3c 8e d5 9c 3e ee 8c e1 3e 32 b0 a6 3d
       0.008359028 0.3063168 0.44052833 0.08139075
000300 1a 0c 84 be cb 83 00 3e dd 4e 16 be 10 2a 66 be
       -0.25790483 0.12550275 -0.14678521 -0.22476983
000310 32 16 82 bd 3a 0a c9 bd 70 11 af be b7 60 37 3e
       -0.0635189 -0.09816404 -0.3419299 0.17907988
000320 fd de e1 3e 64 2d fa 3d 68 0d a1 bd 13 e2 b1 3e
       0.4411544 0.12215689 -0.07863885 0.34742793
000330 fa 31 da 3c 9e 20 3f be 90 d8 b3 be 9c b6 49 be
       0.026635159 -0.18664786 -0.35126162 -0.19698566
000340 f1 7c c3 3e 53 c1 52 be 57 f6 fa 3b f3 f4 cd bc
       0.3818126 -0.2058156 0.0076587605 -0.025141215
000350 6e cb c9 be 66 ff 11 bd 46 e5 95 3e 7f 68 a6 bd
       -0.39413017 -0.035643958 0.29276484 -0.081254
000360 60 1a 78 3c 6e 5b bf 3e b4 ff 98 3e 43 dc 4b 3e
       0.015143007 0.37374443 0.29882586 0.19908242
000370 87 d4 7b be 70 47 98 3e 86 9a 90 be c1 01 d0 bd
       -0.24592791 0.29742002 -0.28242892 -0.101565845
000380 c1 05 1c 3e 68 e7 d6 be ff 69 6f 3e 83 4f 2c be
       0.1523657 -0.41973424 0.23380278 -0.16827206
000390 eb 24 34 3e 15 28 fb bd 41 8a f4 3e e0 c6 d1 be
       0.17592208 -0.122635044 0.4776173 -0.40972042
0003a0 e7 96 bf bd f0 13 ac 3e bc 28 b9 3e 9b 50 55 3e
       -0.09354954 0.3360896 0.3616389 0.2083153
0003b0 f8 7f bf bd b4 bc 5f 3e 7d 97 3b 3e 6a 36 6f 3d
       -0.0935058 0.21849328 0.18319507 0.058401503
0003c0 53 46 a4 be 6c a8 41 be 86 8f 4b bc 8b ba 8a bc
       -0.32084903 -0.18911904 -0.012424355 -0.016934654
0003d0 22 be aa 3e 53 f2 49 3e eb 9f 29 3e 89 ff 8f 3e
       0.33348185 0.19721346 0.1656491 0.28124645
0003e0 0a d0 90 be 2b 40 cd 3d 42 88 da 3e b4 0e 2f 3e
       -0.2828372 0.10022005 0.4268208 0.17095453
0003f0 02 d1 6b 3e a9 4d d1 3e b4 c4 a3 be 3f c3 52 be
       0.23028949 0.40879562 -0.3198601 -0.20582293

transformer_encoder.layers.1.linear1.bias f4 [2048]
000000 bf f7 ae be 5e fe af 3e 2d 5c 35 3e 9b 32 9c 3e
       -0.3417339 0.34373754 0.17710944 0.3050736
000010 72 8a 49 3d 86 64 f5 3d fb 22 1c 3e 91 15 95 3e
       0.049204297 0.11982064 0.15247719 0.29118016
000020 7c 93 b1 be f7 4c ae 3d 36 b8 37 bd 61 2e 41 3e
       -0.34682834 0.08510774 -0.04485341 0.18865348
000030 c0 3f aa be 5d 9e 57 3e 0e 61 19 3e 6b 17 be 3e
       -0.33251762 0.21056505 0.1497843 0.37127241
000040 21 aa 51 3e 65 10 af 3e be 9c 92 3e 13 63 98 3e
       0.20475055 0.34192196 0.2863521 0.29763088
000050 17 bf 11 be b2 34 ab be 73 60 7f 3e d1 93 6e 3e
       -0.14233051 -0.3343864 0.24939136 0.23298575
000060 79 b5 3f bd b3 10 9e 3e 83 a0 83 3e 1c f2 33 bd
       -0.046803925 0.30872115 0.25708398 -0.043932065
000070 ae fd b6 3e 7a d3 f9 bd a7 64 e8 3d 1d 20 8c 3e
       0.35740417 -0.12198539 0.11347323 0.2736825
000080 f8 c5 b1 3e 25 9e 2a 3e af 48 f0 3d c6 05 ca be
       0.3472135 0.1666189 0.11732613 -0.3945753
000090 c1 ca d5 be 06 52 85 3e 70 a1 9c be 26 7f 30 3e
       -0.4175625 0.2603914 -0.30591917 0.17236003
0000a0 2b 6b 5d be 0f 2b 4c be 29 c8 3e 3d ff e3 82 3e
       -0.21622913 -0.199383 0.046577606 0.25564572
0000b0 ef 07 9d be 65 d3 7c be d3 83 2b be d9 ed df bd
       -0.30670115 -0.24690016 -0.16749506 -0.10934038
0000c0 0b af a9 be 26 d5 af be 73 7d bf be 0d 03 4b be
       -0.3314136 -0.34342307 -0.37400398 -0.19825383
0000d0 af dc 89 be 12 ce 30 bd 2c 8c b0 bd db 11 1f be
       -0.2692618 -0.043165274 -0.08620486 -0.15534155
0000e0 a3 e4 a9 be e6 a3 c7 3e d6 72 19 3b dc 8e 10 be
       -0.33182248 0.38992232 0.0023414395 -0.14116997
0000f0 ac 6e a7 be ce 04 ad be 0b fc 26 be 90 f9 35 be
       -0.32701623 -0.33792728 -0.16307084 -0.17770982
000100 77 ef 78 3e f5 68 b0 3e a1 04 9f 3e b2 a3 29 bc
       0.24310099 0.34455076 0.3105822 -0.010353969
000110 43 b4 b2 bc 82 cb 51 be fe 5e 17 3e 20 8b ae bd
       -0.021814471 -0.20487788 0.1478233 -0.0852263
000120 f6 29 d0 3d 9c 0d 11 be c1 a3 39 3e 53 89 9e 3e
       0.101642534 -0.14165348 0.18128873 0.30964145
000130 49 d7 62 bd a8 51 d9 bd 60 ca fd bc 37 11 65 3d
       -0.055381093 -0.10611278 -0.030980289 0.05592462
000140 20 b2 b9 3d 0a f4 8e be 0c a9 6b 3e 3c 20 52 be
       0.09067178 -0.27920562 0.23013705 -0.20520109
000150 5c 3a 57 be 28 33 c1 be d1 2c dc bd 7d 82 14 be
       -0.21018356 -0.37734342 -0.107507356 -0.14502902
000160 92 f1 1d be 83 72 be be db 23 16 bd 99 34 c4 be
       -0.15424183 -0.3719674 -0.03665529 -0.3832138
000170 9c 16 32 3d bf c3 bc be ed ff c5 3d ef d8 32 be
       0.043478593 -0.36868092 0.096679546 -0.17465566
000180 9c f9 6d bd 69 e6 b6 be ef fb f5 bd 1e 04 0b be
       -0.058099374 -0.35722664 -0.12010943 -0.1357579
000190 ee ab 84 be 3d e4 0f be 31 1f ec bc e2 27 9c 3e
       -0.25912422 -0.1405191 -0.028823467 0.30499178
0001a0 8d b1 9f bc ba f6 c4 bd 65 d8 97 3e 18 c3 85 be
       -0.019493842 -0.09617372 0.29657283 -0.26125407
0001b0 27 76 02 3d 48 73 9c bd 5d b7 e1 bd b2 70 9b be
       0.03185096 -0.07639176 -0.11021302 -0.30359417
0001c0 56 ff d2 be 85 1b 5f be 88 5b 71 be c6 34 94 3d
       -0.4121043 -0.21787842 -0.23570073 0.07236628
0001d0 fb b7 6e be 97 83 85 3e 1f 7a bc bb 3e c7 09 3d
       -0.2331237 0.26076958 -0.0057518627 0.033637278
0001e0 47 d7 65 be 4c 8c d1 be 00 23 5b bd bf f2 9f be
       -0.22445403 -0.4092735 -0.053500175 -0.31239888
0001f0 36 08 db 3d 2e 1b 23 3e a2 9c 83 bc 54 04 62 3e
       0.106949255 0.15928337 -0.0160659 0.22071964
000200 c4 1c 0f 3e c0 13 d7 be 05 57 b1 3d 05 92 0c 3c
       0.13975817 -0.42007256 0.08659176 0.008579736
000210 59 ec d1 bd 9c 0d 60 be 99 e8 36 bd 34 c0 36 3e
       -0.10250158 -0.21880192 -0.044655416 0.17846757
000220 aa 24 96 bc ae 30 af be 01 f0 70 be 42 90 25 be
       -0.01832803 -0.34216827 -0.23529054 -0.16168311
000230 35 cd f8 3d 3e 26 97 bc cf 37 95 bc a6 41 7e be
       0.12148515 -0.018450852 -0.018215088 -0.2482973
000240 b9 3d ac 3e b3 d5 cf bd 8d ef 88 be e4 ee 31 3e
       0.3364084 -0.10148182 -0.26745263 0.17376286
000250 59 3b 8c bd 9a a9 2d 3e 8a 51 9a 3e b2 45 71 3e
       -0.06847257 0.16959229 0.30140334 0.23561743
000260 76 89 d2 3d dd ab 1d 3e 30 35 92 3e f2 d9 65 3e
       0.10280125 0.15397592 0.28556204 0.22446421
000270 5e 29 a0 3c 2b 13 8b 3e e8 4e f7 3d a5 c4 a4 be
       0.019550975 0.27163061 0.12075597 -0.32181278
000280 59 ad c3 be dd bc e3 3c e1 79 28 3e a4 8e 59 be
       -0.3821819 0.027800018 0.16452743 -0.2124582
000290 3e 95 4a 3d 2e 28 bf 3e 63 aa e8 bd dc fd cc bd
       0.049458735 0.37335342 -0.11360624 -0.10009357
0002a0 60 1b 81 be d6 71 3c 3e 8d f4 d2 be 90 44 5f 3e
       -0.25216198 0.184028 -0.41202202 0.21803498
0002b0 5a bb 2e bd 93 71 a5 3e 95 ee bf be 53 e7 9a be
       -0.04265914 0.32313213 -0.3748671 -0.3025461
0002c0 13 89 58 bd ae f6 a7 3e 39 bf be 3e 5e 10 d6 bd
       -0.0528651 0.3280539 0.37255266 -0.104523405
0002d0 df 03 4d 3d 13 39 ff bd c1 6d f9 bd 5d 74 6e 3e
       0.05005252 -0.12462058 -0.12179137 0.23286577
0002e0 54 e9 cc bd d3 3e 5b 3e 17 0b a7 be 0d 6c d1 bd
       -0.10005441 0.21410684 -0.32625648 -0.10225687
0002f0 60 d0 95 3e 4e 8d 36 3d f6 78 ae be 1d 0b 7d 3d
       0.2926054 0.044568352 -0.3407666 0.061778177
000300 cb 6e 3d be bc 5a cf be 0a f4 df be c9 0a f3 3c
       -0.18499295 -0.40498912 -0.43740875 0.029668229
000310 17 fd b3 be 6b 8a 72 be 8e 9d 35 3e 5f 27 c3 3e
       -0.3515403 -0.23685615 0.17735884 0.38115975
000320 99 3d 42 3e e9 48 5b be 1e 31 bf 3d 11 bc 86 3e
       0.1896881 -0.21414532 0.0933554 0.26315358
000330 60 60 f4 3c c7 6a 14 be 2a 00 bb 3d 99 bd a4 3e
       0.029831111 -0.14493857 0.09130891 0.32175902
000340 e6 3a 37 3e d1 a6 4f bd 1d c8 b0 bc 4f 4e 94 be
       0.17893562 -0.050696198 -0.021579796 -0.28965995
000350 65 43 bc bd d5 58 5f bd b4 71 bc bd 35 2f 92 3e
       -0.09192542 -0.054528076 -0.09201375 0.2855164
000360 57 77 e2 bc 48 75 aa 3d 8c d7 ab 3e fb ac 0e 3e
       -0.027644796 0.08323151 0.33562887 0.13933174
000370 27 6c 6e 3d 14 3e c6 be df de 86 3e ef dc 24 3e
       0.05820861 -0.38719237 0.26341912 0.16099904
000380 1e 1e 68 be df 8f 7f be e1 58 0b bd 52 db 39 be
       -0.22667739 -0.24957226 -0.03402031 -0.1815007
000390 18 87 e1 3d 58 5e 88 3e 89 3e 11 be f0 97 aa be
       0.11012095 0.2663448 -0.14184012 -0.33319044
0003a0 b4 35 5c 3e fc 2e a4 3e 94 4e bf bd 0c 6b 9b 3e
       0.21504861 0.32067096 -0.093411595 0.30355108
0003b0 bb d6 35 be d1 80 92 3e 72 5a 9c 3d 91 ae 46 be
       -0.17757694 0.28613904 0.076344386 -0.1940253
0003c0 98 83 b8 3d 6b 36 0a be b1 ff 4e bd 22 a3 ea bd
       0.090094745 -0.13497321 -0.050536815 -0.11456896
0003d0 9c dd 28 3e 11 48 7d bd 7e eb ed 3d 47 f4 11 be
       0.16490787 -0.061836306 0.11617182 -0.1425334
0003e0 34 1e 99 3e 37 99 b7 3e de 1c 0a be f0 d7 b8 3e
       0.29905856 0.3585908 -0.13487574 0.36102247
0003f0 a0 b5 1c be fb d9 ab be 40 75 32 be 93 6b ae bd
       -0.1530366 -0.33564743 -0.1742754 -0.08516612
