DU_model/Transformer/best_model_fin20_tr.3.40.pth (torch, 474174 bytes, 29 tensors)

norm.weight f4 [6]
00000000: 0000 803f 0000 803f 0000 803f 0000 803f
00000010: 0000 803f 0000 803f
1.0 1.0 1.0 1.0 1.0 1.0

norm.bias f4 [6]
00000000: 0000 0000 0000 0000 0000 0000 0000 0000
00000010: 0000 0000 0000 0000
0.0 0.0 0.0 0.0 0.0 0.0

transformer_encoder.layers.0.self_attn.in_proj_weight f4 [18, 6]
00000000: 0916 e4be 5349 1dbe 5ebc 65be a609 ff3d
00000010: fc36 64be 536c 21bc 164b 063e 98e7 a9be
00000020: f877 e83d 7aca 4a3d 8b5e 1abf 89ec a7be
00000030: 3327 e63d 8e85 023d bb37 dbbe c4f0 a03e
00000040: 4f8d 863b 0e41 033f 287b bfbd fae2 e4bd
00000050: d56c 83be c9cf 0f3c 5cc5 5abd dc1d 163c
00000060: 627a f33e fec9 9ebe c02a 5f3e d24b f5be
00000070: ca78 8fbe 47f3 b7be 3245 bb3e 328a dc3e
00000080: 59f6 533e 11f6 0abe 913e 81be 862d abbe
00000090: 1a33 10be dc45 943d 0ccb d2bd 1cf4 4f3e
000000a0: 54ae 2f3e 0713 1f3e ca7c 9b3b 4294 99be
000000b0: 2227 70be 2aca c13e 10fd 9b3e e386 aabe
000000c0: accc 5d3e 79e1 433e ebb5 323d c401 ee3e
000000d0: 9f5e 0c3e bbfc dfbe e14a b03d 255e 453d
000000e0: 0845 10be 85a4 bd3e b201 de3d d415 24be
000000f0: 5bec 62bd b383 6fbe abe8 edbe fd26 b03e
00000100: 2962 bfbe 19bd 2abe e40b e5bd c5ac c4bd
00000110: 67a1 903d e2ed afbe 8907 febe d57c 42be
00000120: df5e 92bf 3dfc 1abf ce4c 32bf 5896 9d3e
00000130: 60cd f2bd 7d13 90be 5c3a 253d c1b2 843e
00000140: 7f63 f73e a417 cebe 9675 7c3f b792 12bd
00000150: 117c 44bf f218 363e 7dc2 5b3f a085 5abd
00000160: c2ea d63d 04a8 60bf ddd8 4d3f a1c6 0c3f
00000170: 5842 a23e de1b e7be 228d 3b3f 4fb7 873c
00000180: c8c0 ad3f 907c fb3d 9067 da3e 9598 4b3d
00000190: 276f a23e 3e25 a83e 5134 f4bf 414d e0be
000001a0: 2d88 b33d ccb7 9abc f780 453e 72d5 8fbf
-0.4454806 -0.15360002 -0.22435138 0.12453012 -0.222866 -0.009852487 0.1311458 -0.33184505
0.11351007 0.049509503 -0.6030051 -0.3279765 0.112379454 0.03186565 -0.42815956 0.3143369
0.0041062008 0.5127114 -0.09349662 -0.11176105 -0.2566897 0.008777567 -0.053410873 0.0091623925
0.47554308 -0.31013483 0.21793652 -0.4790941 -0.28021842 -0.35927793 0.3657623 0.43074185
0.20699443 -0.1357043 -0.25243047 -0.3343317 -0.14081994 0.07239887 -0.10292634 0.20307964
0.17156345 0.15534602 0.0047451006 -0.29995924 -0.23452428 0.3784955 0.3046651 -0.33306035
0.21660107 0.1912898 0.04363052 0.46485722 0.1370797 -0.43747506 0.08608032 0.048185486
-0.14088833 0.3703958 0.10840167 -0.16023952 -0.055401187 -0.23390083 -0.46466574 0.34404746
-0.37379578 -0.16673698 -0.111839086 -0.09603266 0.07062035 -0.34361178 -0.49615124 -0.18992932
-1.1435202 -0.60541135 -0.69648445 0.30778766 -0.118555784 -0.28139868 0.04033886 0.25917628
0.48318097 -0.4025241 0.9861692 -0.03578445 -0.7675181 0.17782953 0.8584364 -0.05335009
0.10493995 -0.8775637 0.8040903 0.54990584 0.3169124 -0.45138448 0.73262227 0.0165669
1.3574457 0.12279618 0.42657137 0.04970606 0.31725428 0.32840914 -1.9078466 -0.4380894
0.08766208 -0.01888647 0.19287477 -1.1237013

transformer_encoder.layers.0.self_attn.in_proj_bias f4 [18]
00000000: 7068 b6bc 64f7 97bd 4012 94bc c692 82bc
00000010: e435 b8bd 0016 a73d c400 a5bd 6bc1 95bd
00000020: 04e0 92bb d28f 3b3c fa3b 953d cb03 1c3d
00000030: 4f29 09bf b13a 163f 99fd ed3e 6c49 f23e
00000040: 8cfd 803e 6b67 003b
-0.022266597 -0.07420233 -0.018075109 -0.015939128 -0.08994654 0.08158493 -0.08056787 -0.07312282
-0.004482271 0.011447864 0.0728683 0.038089555 -0.53578657 0.58683306 0.46482542 0.4732164
0.2519344 0.0019592892

transformer_encoder.layers.0.self_attn.out_proj.weight f4 [6, 6]
00000000: fc4d 1a3e 9a5b 45be 0b58 1c3c 1e26 2abe
00000010: 4fff 1b3e 8f77 073e 0825 003f 4830 883d
00000020: 778d 99be f1e0 823e b6a4 02bf b478 043e
00000030: f500 92be b332 bf3e f205 41bd 1ef1 493e
00000040: 14a1 26be 61cc 083e 8d77 513e 7bfe 323e
00000050: 092c b73e 7a5a 93bd 9bfb 27be 03f2 003f
00000060: 50a1 883e 1462 263e 9451 b43e 8d70 bd3e
00000070: be37 bf3d e246 23be a99f c1bd 15c8 cc3b
00000080: d157 67be 6a93 bdbe c7cd 46be 9a96 e03c
0.15068811 -0.19273224 0.009542475 -0.16616103 0.15234111 0.13229202 0.50056505 0.06649834
-0.29990742 0.25562242 -0.5103258 0.1293667 -0.28516355 0.37343368 -0.04712481 0.19720885
-0.16272384 0.13359214 0.20455761 0.17479889 0.35775784 -0.071949914 -0.16404574 0.5036928
0.26685572 0.16248351 0.3521849 0.36999932 0.09336804 -0.15945008 -0.09454281 0.0062494376
-0.22592093 -0.3702653 -0.19414435 0.027415562

transformer_encoder.layers.0.self_attn.out_proj.bias f4 [6]
00000000: 5468 623e 830c 24bf 953f 9b3f 0b28 5d3e
00000010: c666 223f 9beb 1dbf
0.2211011 -0.6408159 1.2128779 0.21597306 0.6343807 -0.6168763

transformer_encoder.layers.0.linear1.weight f4 [2048, 6]
00000000: 26f9 a8bb 9295 f3be f3e2 b93d 6bf1 a3bc
00000010: 8f10 8a3b 3944 143f 2d5c f23b e0ac 7a3e
00000020: 0503 cfbe fbf7 abbe e33b 0a3f dc27 03bf
00000030: 1fe7 8d3e 6b08 aa3d f331 f13e ba3b 0dbf
00000040: eb3a 343f 1adf 393e b332 52be 6ba0 873e
00000050: dd71 90be 46a4 a53d 0fa2 ff3e dc50 263e
00000060: 77bd eb3c a295 6c3e 1215 babe 4e11 c8be
00000070: 5ba8 0ebe 57ca 08be 78c0 b8be 81bd 0abe
00000080: fcbf 003e 5d91 a33d 91ab f7bc 5b99 0cbe
00000090: 8464 27bc 9cfa 10bd a9f1 db3e dc98 fd3d
000000a0: 45a9 59be 56c6 78bd cb83 f03c 18ca 7c3e
000000b0: 3033 433e e644 d1ba ae2b d8be 6104 fdbd
000000c0: 9f4e 903c df00 87be 6c87 9c3e 82c5 823e
000000d0: e95e 9c3d 7118 993d a457 8e3e be5c 823e
000000e0: 3921 b93d 52b6 1d3c 7311 cb3e fe87 06bf
000000f0: b9d1 94be dcdb 083e c7d3 d23e acfc c9be
00000100: 9888 c03d 7710 1abc 9885 b3be d404 33bd
00000110: 6fb8 0dbd 7661 99bd 5ca7 64be bb51 a9be
00000120: 10f7 b3be 3f8e 8dbe f6d5 03be 998d f23d
00000130: 5962 b7bc 38fb ecbe 801f 9bbe 67b9 a6be
00000140: 39e1 f83d 491d 3e3e 6e2b a1bd 2189 733e
00000150: 7520 8dbe 4c49 6dbe a1dc e23d 2551 083e
00000160: a8dd 4ebe 10da cebd 9130 3c3e b135 5e3e
00000170: 84d3 86be a69c 32bf 2b9c ca3d aacf e53d
00000180: 53c6 963e 7a2f 95be ad7d 8dbd d92c 1d3e
00000190: 0a82 fd3e 526e a3be ce70 7bbd 131c aa3e
000001a0: b088 c9be 0333 1bbd 4dbd 3abe 3a7c c5be
000001b0: 1f05 8dbe 03ce 6fbe ab67 be3e 3c5b c2be
000001c0: 08e5 f9bd fa4d 293d 6e65 a2bd 449b d43e
000001d0: 6629 823e 18f7 b43e 7bf4 b73e b1e9 55bc
000001e0: 33a8 44be 79b3 cebc 7717 893e f656 22be
000001f0: b26e c9bd f56d 74be 8ba9 b73e 74cc cb3d
00000200: dc55 6bbd 5453 5abf 52f9 813e ea3f 163e
00000210: 7bb7 71be 5230 af3e 89ff 403e 9558 b63e
00000220: 2ed5 0b3e dff3 ed3e d251 ea3d bd83 f73e
00000230: 8527 96be 1009 94bd 55a7 c8bc cb3e 943d
00000240: e4ae 68be 8581 993e 6ca9 c3be d35c 8fbe
00000250: f353 02be c0e9 f2be 795e 1d3e b81b 903c
00000260: 5396 413e a964 353e b86c b43c 7ed0 97be
00000270: 9186 ebbe be14 703e 57f3 4a3e c046 0abf
00000280: a3c4 b03e 26c3 bebd 536c 1cbe 1246 6dbd
00000290: 2cd9 88be 62d4 56bf 4fa9 6c3e 6665 023f
000002a0: ca45 8fbe 793f bdbd 76c8 97bc 2708 d53d
000002b0: 442d e43a a2c5 c0bd 3d47 963d 48ce e93d
000002c0: 094f 863e 9403 aabe c952 8fbe 4f15 063f
000002d0: b2d2 a0be f468 6a3d 14db d0bd fdbe 283e
000002e0: 0950 8b3e 435d 6e3e 2efd 84be 73f2 72be
000002f0: d8c4 81be 2627 46be 4ad0 ba3e 5ebb 09bd
00000300: e1d9 023e ab75 d3bd 63f8 8bbe 784c aebb
00000310: 6fe9 093e 65aa 773d 4c53 81be cd0e a4be
00000320: 7422 68be 2996 96be ef7e e83e 91e1 b0be
00000330: aa67 993e 1414 d8be 8b53 bf3e 163f adbe
00000340: 0707 a4be 1b65 8c3d 73f3 143e 4ce8 15be
00000350: 079b 47be e117 47bf 4231 d33e 46f7 6b3d
00000360: 68cc 39bd 6c32 563e b7da cd3e aa44 f9be
00000370: f459 4b3f c8e4 49be 9aae 08bf 7822 5ebe
00000380: 373c 023f 5323 e2bc 1fb5 a8be fc11 883e
00000390: dbfd 1dbe 832e 173c e5ce 35bd 4e65 783e
000003a0: b90e 5e3e 99e5 7dbe 2cfd 29bd 591f 17bd
000003b0: cbf4 973c f8ed 9fbd 78c4 fbbe 396a 313e
000003c0: dbfe 623d 93fa 39be 5dc7 383e 13fe 943e
000003d0: 7547 f03e 246c b0be cb88 bc3e d021 eebd
000003e0: 8ba5 9a3e 1a42 ba3d 09bd a23d 124c ca3e
000003f0: b14d a7bc 7e6d 98bc d967 143e 6496 eb3d
-0.005156654 -0.4757505 0.0907649 -0.020012578 0.0042133997 0.579166 0.007396242 0.24480009
-0.4043199 -0.33587632 0.5399763 -0.51232696 0.27715394 0.08302387 0.4710842 -0.5516926
0.704024 0.18151513 -0.20527153 0.26489577 -0.2821187 0.08087973 0.49928328 0.16241783
0.028776867 0.23103955 -0.363442 -0.39075702 -0.1393141 -0.13358437 -0.36084342 -0.13548853
0.12573236 0.0798671 -0.030233176 -0.13730375 -0.010216836 -0.03539525 0.4295781 0.12382671
-0.21255977 -0.060736023 0.029359719 0.24686468 0.19062495 -0.0015965968 -0.42220825 -0.12354351
0.017615614 -0.26367852 0.3057207 0.25541312 0.0763529 0.07475365 0.2780124 0.25461382
0.0903954 0.009625988 0.3966175 -0.5255126 -0.29066256 0.1336512 0.41177198 -0.39450586
0.09401053 -0.00940334 -0.3506286 -0.043705776 -0.034599718 -0.07489292 -0.22329468 -0.33070168
-0.3514943 -0.27647588 -0.12874588 0.11843414 -0.022385763 -0.46285415 -0.3029747 -0.32563326
0.12152333 0.18565859 -0.07869612 0.2378278 -0.27563825 -0.23172492 0.11077238 0.13312204
-0.20201743 -0.10100186 0.18377902 0.21700169 -0.2633325 -0.69770277 0.09893068 0.112212494
0.29448184 -0.29137784 -0.069087364 0.1534914 0.49513274 -0.31920105 -0.061386876 0.33224544
-0.39362097 -0.037890445 -0.18236275 -0.3857134 -0.2754297 -0.23418431 0.37188467 -0.3796023
-0.12201887 0.04133413 -0.079295024 0.41524708 0.2542221 0.35344768 0.3592871 -0.013056205
-0.19204788 -0.025232064 0.26775715 -0.15853485 -0.098355666 -0.2387007 0.3587154 0.09951106
-0.05745493 -0.852834 0.2538553 0.14672819 -0.23605148 0.34216553 0.18847479 0.35614458
0.1365554 0.4647512 0.11441387 0.48342696 -0.29327026 -0.07228291 -0.024493853 0.07238539
-0.22722965 0.29981628 -0.38215196 -0.28000507 -0.12727337 -0.47443962 0.1536807 0.017591342
0.18905 0.1771418 0.022024497 -0.29651254 -0.46001104 0.23445413 0.1981939 -0.54014206
0.34525022 -0.09314565 -0.15275697 -0.057928152 -0.2672819 -0.8391782 0.23111461 0.5093597
-0.27982932 -0.09240622 -0.018528204 0.104019456 0.001740851 -0.094126955 0.073378064 0.11416298
0.26232174 -0.33205855 -0.27992848 0.52376264 -0.31410748 0.057228997 -0.10198036 0.16479106
0.272095 0.23277764 -0.2597441 -0.237253 -0.25345492 -0.19350871 0.36487037 -0.033625953
0.12778427 -0.10325178 -0.27337942 -0.0053191744 0.13467954 0.060465235 -0.25258863 -0.32042542
-0.22669393 -0.29411438 0.45409343 -0.34547094 0.29961902 -0.42202818 0.37368426 -0.33837193
-0.3203661 0.06855222 0.14545994 -0.14639395 -0.19492732 -0.7777081 0.41248518 0.057608865
-0.045360953 0.20917672 0.4020593 -0.486852 0.7943413 -0.1971618 -0.5339142 -0.21692836
0.5087313 -0.027604735 -0.32950684 0.2657622 -0.1542887 0.009227398 -0.044386763 0.24257395
0.21685304 -0.24794616 -0.04150121 -0.03689513 0.018549344 -0.07809061 -0.4917333 0.17325677
0.05541883 -0.18161993 0.18044801 0.29100093 0.46929517 -0.34457505 0.36823115 -0.11627543
0.30204424 0.09094639 0.07946212 0.39511162 -0.020422788 -0.018606897 0.1449274 0.11503294

transformer_encoder.layers.0.linear1.bias f4 [2048]
00000000: a7b5 97bd fcd2 1cbe 57b3 c3bd 961a aa3c
00000010: 9bcc 803e 73f4 563e 80d7 a63d a762 30bd
00000020: 96c5 723e d313 3c3e e526 c6bd 7316 6f3d
00000030: 1f89 9ebe 4e95 56be b252 fbbd 3be2 9f3c
00000040: dbdf 013e 8ebf babe e43f 3c3d 2b4e c93d
00000050: 5fa8 29be be06 29be 6c3c 19be 8393 dbbd
00000060: 36e9 ac3d 60e8 4abd 439f 263e 1ff8 5cbe
00000070: 1771 943e 2be9 9fbe 24d2 c4bc d553 893e
00000080: 9cc3 97be 1b49 773e cdba b1bb db16 3dbe
00000090: d252 abbe 1005 a1be bf4c 5cbe 56f0 9bbe
000000a0: 041e 033e 0040 0e3e cf2b 55be f4c0 acbd
000000b0: 2530 bbbe b9e5 1d3e 4217 b8bd 2568 b5be
000000c0: 494b dbbd dd1b d1bd f0d8 4e3d dd22 dd3d
000000d0: 6eac 4dbd 28cd 733e 9d1f 93be 4c4d 04bd
000000e0: 8928 803e 0e3b 513e 767b 733e 31c9 70bd
000000f0: e40f 95be fba8 923e 5f1c ca3e a977 9f3e
00000100: 2bfb 893e c419 573c 77d6 91be d138 c2be
00000110: 6e5d 083e 365b 72be 66eb bbbc 8620 343e
00000120: a84a 8a3e 18e2 3bbe 5e10 543e d13f db3c
00000130: 0a7c b9be 8dea 2b3e a94b b93e 83bb c6be
00000140: b47c 46be ae07 1d3e b079 89be aa13 8c3e
00000150: 8dc3 6fbe 4cd4 e3bd d320 44be 76fa bdbe
00000160: 0cb7 9b3b bc82 b93e b32c aebe cb90 833e
00000170: bb71 19be b45b a93e ef9b afbe 59dc c33d
00000180: adbe 163e 3e59 b33d ac73 bdbe 77f0 d3be
00000190: 5098 223d c878 5fbe 903b 7c3d d543 5d3d
000001a0: bd3d dfbe e837 a2bd 027f 8dbc 3733 a53e
000001b0: 5438 e3be 2a95 e5bc 540d afbe 4502 26bc
000001c0: b9c4 553d 17b3 a93e a5f5 ce3d 2630 aebe
000001d0: 7b27 c0be 8391 983b 6835 523e d47f 353e
000001e0: 1205 0c3e ac4c 323c 9ecc af3e bec3 aabe
000001f0: ded8 c93c 2992 82be 3d6d b2be 3478 95be
00000200: 1aaa 7dbe ec46 35be a7bb b6be 8252 5abe
00000210: bbdf 8b3c ee06 a0bd 66d2 2fbe c727 b7be
00000220: 2280 763e f32f c73d 3527 b0bd e330 e23d
00000230: ac49 823e 67b6 ddbc d171 f5bd 69f1 dfbe
00000240: fc1f 953e f2cd 21be 7aa2 9abe bb00 4d3e
00000250: 4359 97bd 78b7 cabe e733 abbe 8a0b ab3d
00000260: 38ce 4b3e fb4c 8dbd aeb7 4ebe 44d6 8a3d
00000270: 67ee b5be 2eac a5bc c1d0 c53e 7cf2 a33e
00000280: 7a09 a53c 3726 bfbc 7c14 bdbe 801b 92be
00000290: 7e71 423e 3c6f 29bd 197a 623e dcc4 f43d
000002a0: 84eb 43be 1c07 663d 9263 a63e ca4c 84be
000002b0: 9e44 a2be 9064 bebc 91c7 41be 009c 98bc
000002c0: 1cba b2be 674c bbbe 70fa a3be 03c4 813c
000002d0: 92c5 1abe 0fd4 bf3e 8f2d cabe ebe9 8abe
000002e0: 1d09 60be 9320 793e ac71 65be 2e75 d6bd
000002f0: a26f 07be 3795 93be 3b17 8abc d8ed 923e
00000300: 994c bc3d a39c 453e fef1 7abe 29d6 6ebe
00000310: 2c68 e03c 53d7 923e 8086 a83d 7272 003c
00000320: d52f 4a3e 233f 2d3e 6a30 33bc 685c adbe
00000330: 0d7d eb3e 443e 1dbe 615e 043d 8d15 b13e
00000340: 73a1 6cbe 4bfc ec3d 5c65 b73e 9117 75be
00000350: 6645 d5bb a5a3 9cbe 18d4 c83d 6e60 a33e
00000360: 042f 5cbe 45cf 06be 556a b13e e81e 983e
00000370: 8ad0 2ebc c32c 99bd 92b5 00bf 8921 e13d
00000380: 1efe d83e dbe6 983e 163d 27bd e559 59be
00000390: 75cf 293e 7521 a83d ea2d 843e ba4d 643e
000003a0: 590a 603d 3779 05be 25cb bf3d 92b3 bfbe
000003b0: 7c69 3a3d c0e0 1c3e 1c93 6fbe fbce bb3d
000003c0: 73a0 50bd 8963 09be ef66 e23e c20e 65be
000003d0: 7e7f d6bc 3924 b8bd f1ab 4dbe 52e4 023e
000003e0: 8ccc fe3d 67a6 a2be 780c 35be 8242 0ebe
000003f0: 01d8 bbbc a9a9 5ebe 8c3c a63d ba67 183e
-0.07407694 -0.15314859 -0.09555691 0.02076463 0.25156102 0.20991687 0.08146572 -0.043062832
0.23708186 0.18366937 -0.09675387 0.05837102 -0.3096399 -0.20955393 -0.12271632 0.019517055
0.1268305 -0.3647427 0.04595937 0.098293625 -0.16568135 -0.16506478 -0.14964455 -0.10721495
0.08442919 -0.049538016 0.16271691 -0.21579026 0.2899253 -0.3123258 -0.024025984 0.2682177
-0.29641426 0.24148981 -0.0054238797 -0.1846575 -0.33461624 -0.31449175 -0.21513651 -0.304568
0.12804419 0.13891602 -0.20817493 -0.084352404 -0.3656017 0.15419663 -0.08988811 -0.35431018
-0.10707719 -0.102103926 0.050499856 0.10797665 -0.05021327 0.2380873 -0.28735057 -0.03230028
0.25030926 0.20432684 0.23777565 -0.05878562 -0.29113686 0.28644547 0.3947477 0.3114598
0.26949438 0.013128702 -0.28483936 -0.37933972 0.1331689 -0.23667607 -0.022939395 0.17590532
0.27010083 -0.18347967 0.20709369 0.026763828 -0.36227447 0.16788693 0.36190537 -0.38814935
-0.19383508 0.15334961 -0.26850653 0.27358752 -0.2341444 -0.11124477 -0.19153146 -0.3710515
0.0047520455 0.36232555 -0.34018478 0.25696406 -0.14984791 0.33077776 -0.34298655 0.09563512
0.14721175 0.08757256 -0.37002313 -0.41394398 0.039696038 -0.21823418 0.06158024 0.054019768
-0.4360179 -0.079208195 -0.017272476 0.32265636 -0.44378912 -0.028025229 -0.34189856 -0.010132377
0.052189562 0.33144447 0.10105447 -0.3402111 -0.3753012 0.004656018 0.20528185 0.17724544
0.13673809 0.010882538 0.34335798 -0.33352464 0.024639543 -0.25502136 -0.34848967 -0.2919327
-0.2477192 -0.17702836 -0.35690042 -0.21320537 0.017074456 -0.07813822 -0.17170104 -0.35772535
0.24072316 0.097259425 -0.08601228 0.11044481 0.25446832 -0.027064515 -0.119845994 -0.4373887
0.29125965 -0.15801218 -0.30202085 0.2001981 -0.07390072 -0.395931 -0.33438036 0.0835181
0.19902885 -0.068994485 -0.20187256 0.06779149 -0.3553345 -0.020223703 0.3863583 0.32020938
0.02014612 -0.023333652 -0.3692969 -0.28536606 0.18988606 -0.041365847 0.22116889 0.119516104
-0.19132811 0.056159124 0.3249784 -0.25839835 -0.31692976 -0.023241311 -0.18923785 -0.018629074
-0.34907615 -0.36581728 -0.32027006 0.015840536 -0.1511443 0.37466475 -0.39487883 -0.2713159
-0.21878476 0.24328832 -0.22406644 -0.10471569 -0.13226178 -0.2882478 -0.01685678 0.28697085
0.09194297 0.19298033 -0.24506375 -0.23323883 0.027393423 0.28679904 0.08228779 0.007839786
0.19744809 0.16918616 -0.010936836 -0.33859563 0.45993844 -0.15355784 0.03231657 0.34586754
-0.23108463 0.115715586 0.3581952 -0.23934771 -0.006508517 -0.305936 0.09806079 0.31909508
-0.2150231 -0.13165005 0.34651437 0.2971108 -0.010669837 -0.07479241 -0.50277054 0.109927244
0.42381376 0.2986363 -0.04082974 -0.21225698 0.16583045 0.082095064 0.2581628 0.22295275
0.05469737 -0.13034521 0.093649186 -0.3744169 0.045510754 0.1532011 -0.23395962 0.09170338
-0.050934266 -0.13416876 0.44219157 -0.22368911 -0.02618384 -0.08991284 -0.20085122 0.1278241
0.12441358 -0.3176758 -0.17680538 -0.13892558 -0.022930147 -0.21744408 0.08117017 0.14883319

transformer_encoder.layers.0.linear2.weight f4 [6, 2048]
00000000: f0ff 253e 8db2 3b3e 72f9 6bbe ab60 983c
00000010: 4504 a83b 652f 1d3b dafd 2bbc af89 273c
00000020: e356 22bc dcac 85bc 9f52 2cbe fbf6 20bc
00000030: 582f dbbc 4740 fbbc a502 1e3c c443 eabe
00000040: b25f 413c b741 e43c 12d3 babc 13ab 4bbc
00000050: 06c5 50bd 99a2 ffbe 0501 993d 5ee4 ccbc
00000060: 027c 173e 76a9 8fbc 5e68 79be d667 adbe
00000070: c794 53bc e1fe e93d 501b 7abc d290 093b
00000080: aae0 ccbc 8c2a 193f e69f 1e3e 78f4 03bf
00000090: a508 9bbe 715e 0a3c b483 e2bc a9a7 1ebd
000000a0: 37d5 36bd 89bf 0f3c b695 423e 1d04 143d
000000b0: c566 543d 8576 b83d 2ad4 50be efbf a8bd
000000c0: 5ba1 02be 5718 8cbe 6e61 f53e 6614 983c
000000d0: 7c58 523e ed86 9d3d 9476 afbe 8152 f8bb
000000e0: ffdd 443e 8c27 4139 887a 8f3d 18f2 823b
000000f0: fcde e63e eb84 36bc e2ba 07b8 e570 f0bc
00000100: 57e2 f0bc 3a24 a33e 77a8 a8be cc37 77bc
00000110: 51e3 2c3d 2498 c1bc e7d1 68be 0f18 c1ba
00000120: 6343 45bc 28e1 eb3d cc57 bdbc 0e74 d33c
00000130: 216a acbc 39e3 01bc cd90 25bd c424 6e3d
00000140: 45a6 07bd ca48 66be df5c 533d f2b7 c5bb
00000150: ec86 ed3d 0e7e 003f daaa 46be 3d4e b1bc
00000160: 3176 86be 6902 943c 253e a7bc bf62 c2bc
00000170: d3c4 98be 6cb7 69be f91e 1bbd 898f edb8
00000180: 7305 3ebd f501 8a3b 93b2 163e 9541 e9bc
00000190: 417c 7a3e 7215 d9bd fe5c 3c3d d5ea db3d
000001a0: f9d5 a93c 5520 a73e 50bf d0bc f44e 473d
000001b0: 5af9 f33c 863b e2bc e1dd 463d 8f17 a03d
000001c0: fe4a ccbc 8cbd 24be 55e2 873c 4e45 e1bb
000001d0: 5e13 cabc 54b9 a2bc 5596 9ebc c5ef 313d
000001e0: 7ba7 553c 64ce 073e ba09 31bc d9d2 503b
000001f0: c1a9 13bf 5204 97bc 7fe2 65ba 8817 7b3d
00000200: 44f1 4c3e 0f18 143d 5388 aebe 5728 37bd
00000210: 7bc8 81bc 5541 88bc 4dac c33e 2e09 eb3a
00000220: cac7 033d 82cd 45bd 112f b93d b6e6 ed3c
00000230: 655b 2cbd bc33 7b3b be9c bbbc ef38 c83e
00000240: 8491 23bd dbc7 2039 8681 a9bc 03f2 9a3c
00000250: 7caf ffb9 6007 adbb 41e8 56bd e80a 453d
00000260: 91f9 833b a9ea 7a3e 8947 0cba 98c7 95bc
00000270: 2a70 95bc b731 333e 5438 983d bdeb cbbe
00000280: eae9 12be 82d3 cd3b ee6e 133f 5cf7 02bc
00000290: ac6b 8dbe 6a34 c5bb 6c81 a63b ff6e 9bbb
000002a0: d75a 193c 6b83 19bd 345b 833b 6c67 82bc
000002b0: e91a 293c b552 c5be 1268 2f3b 3d2a 4ebc
000002c0: 5375 0e3b 2de0 3fbb 5230 f73c 7d74 11bd
000002d0: cb47 003f e5bb 97bc 10de 463c d98d cabb
000002e0: 5497 5bbc 8c11 883c 4fd6 8abc abef b23d
000002f0: 0000 113c ac9c 643e 1fb5 8abe 9ecd bbbe
00000300: 847c 98bb 9417 7e3d 1347 5fbe 7fcd a3bb
00000310: 8384 58bb 7b95 463c b3dd 3cbc 34fe 2e3e
00000320: 96c1 87be a3b7 603d f935 443e 46ec 733b
00000330: 86de 263e 84ed a63d c9d1 1c3c f487 b9bc
00000340: c74a 7cbe af94 dc3b ca81 443d 38e5 00bf
00000350: d053 01bd 44c9 ab3d 83a1 1e3e 006d 503b
00000360: 41ad bbbc fca3 00bf 78b3 ef3b 564e 57bc
00000370: dfdf ca3c 5399 303b d625 b8bb 233d 44bc
00000380: 9d7a 513e aa2d bf3e 251c 76be 2ada dfbe
00000390: 7a6f a4bb a2c2 0bbb d978 6fbd c384 babc
000003a0: e052 a3bb 9cd3 e7bc f7fa fb3e 6fbc 723c
000003b0: 9b12 cfbc ff5e cf3e e33e b3be 67c7 453e
000003c0: 8cd6 203b 2957 173e 3aca 9f3e c5ad b5be
000003d0: 4910 543e 9a1a b43d 9270 8dbe e513 0fbe
000003e0: 6b81 d5bd e8eb dbbd e690 fcbd 32a7 163b
000003f0: 0800 95bd ced9 e9ba eac2 f2bc edf6 ed3c
0.16210914 0.1832983 -0.23044375 0.018600782 0.005127462 0.0023984548 -0.010497535 0.010225697
-0.009908411 -0.016317777 -0.16828392 -0.00982451 -0.026755974 -0.030670298 0.009644185 -0.45754826
0.011802601 0.027863367 -0.022805724 -0.012430924 -0.050969146 -0.4992874 0.074708976 -0.025011238
0.14793399 -0.01753686 -0.24356219 -0.33868283 -0.012913889 0.114255674 -0.015265301 0.002099086
-0.025009472 0.59830546 0.15490684 -0.51544905 -0.30280033 0.008445368 -0.027650692 -0.038734112
-0.04463693 0.008773693 0.19002423 0.036136735 0.05185582 0.09006981 -0.20393434 -0.082397334
-0.12756865 -0.2736232 0.47925895 0.018564414 0.20541567 0.07691751 -0.34270155 -0.0075781946
0.1922531 0.00018420647 0.07005793 0.003996145 0.45092 -0.011140089 -3.2360556e-05 -0.029350707
-0.029404802 0.31863576 -0.32941028 -0.015088987 0.042208973 -0.023632117 -0.22736321 -0.0014731901
-0.012039992 0.115175545 -0.023113154 0.025812175 -0.0210467 -0.007927709 -0.040421296 0.05814053
-0.03311755 -0.22488704 0.05160224 -0.006033891 0.11598 0.50192344 -0.19401112 -0.021643752
-0.26262048 0.018067556 -0.020415375 -0.023728726 -0.29837665 -0.22823876 -0.037871335 -0.00011327776
-0.046391916 0.004211659 0.14716558 -0.028473655 0.24461462 -0.105997935 0.04598712 0.1073815
0.020731913 0.32641855 -0.02548185 0.04865928 0.029781986 -0.027616274 0.048551444 0.078169934
-0.024938103 -0.16087931 0.016587416 -0.006874717 -0.024667438 -0.019863762 -0.019358793 0.043441553
0.013040419 0.13262326 -0.010805542 0.0031863956 -0.576809 -0.018434677 -0.0008769407 0.061301738
0.2001391 0.036155757 -0.34088382 -0.044716205 -0.015842667 -0.016632715 0.38217393 0.0017931813
0.032172956 -0.04829169 0.0904218 0.029040676 -0.042079348 0.0038330397 -0.022901889 0.39105937
-0.039933696 0.00015333241 -0.020691644 0.018914228 -0.00048768136 -0.00528042 -0.05246759 0.048106104
0.0040275534 0.24503578 -0.0005351236 -0.01828365 -0.01824196 0.17499433 0.07432619 -0.39828292
-0.14347044 0.006281317 0.5759114 -0.007993545 -0.2762121 -0.006018211 0.0050813463 -0.0047434564
0.009360037 -0.037478846 0.004008675 -0.015918456 0.010321357 -0.38539663 0.0026764912 -0.012583313
0.002173741 -0.0029277906 0.030174408 -0.035511483 0.5010955 -0.018522212 0.012137905 -0.0061814603
-0.013402779 0.01660993 -0.016947893 0.08737119 0.008850098 0.2232539 -0.2709131 -0.3668031
-0.0046535153 0.062034205 -0.21804456 -0.0049988623 -0.0033037968 0.0121206 -0.011527467 0.17089158
-0.26514882 0.05486263 0.19161214 0.0037219687 0.16295823 0.08150771 0.009571501 -0.022647835
-0.246379 0.0067315917 0.04797534 -0.5034976 -0.03157407 0.08387998 0.154913 0.003180325
-0.022909762 -0.5025022 0.0073150955 -0.013141235 0.024764953 0.0026946857 -0.005619745 -0.011977467
0.2045693 0.37339526 -0.24034174 -0.43721133 -0.005018172 -0.0021325727 -0.05846486 -0.022768384
-0.0049842447 -0.028299145 0.49214908 0.014815434 -0.025277426 0.40502164 -0.35008916 0.19314347
0.0024541942 0.14779343 0.31208974 -0.35484138 0.20709337 0.08794136 -0.27624947 -0.13972433
-0.10425075 -0.10738355 -0.12332325 0.002298784 -0.072753966 -0.00178414 -0.029633958 0.029048407

transformer_encoder.layers.0.linear2.bias f4 [6]
00000000: f226 85bb c5e8 5b3a 3676 823c b718 043b
00000010: 6e4f 9c3c 58a8 ebbc
-0.0040634805 0.00083888724 0.015925508 0.0020156333 0.019080844 -0.028766796

transformer_encoder.layers.0.norm1.weight f4 [6]
00000000: 81d8 8e3f 6a65 923f 2c6a 7c3f 1567 753f
00000010: 25c1 843f 204d 9a3f
1.1159822 1.1437199 0.98599505 0.95860416 1.0371443 1.2054787

transformer_encoder.layers.0.norm1.bias f4 [6]
00000000: 41e4 2cbc 70c5 db3c d294 be3c 5d95 90bd
00000010: 2082 553d ea45 2abc
-0.010552467 0.026827544 0.023264322 -0.07059739 0.05212605 -0.010392645

transformer_encoder.layers.0.norm2.weight f4 [6]
00000000: 8b42 7d3f 7b39 593f dd59 8a3f cac9 7f3f
00000010: 0162 533f bec9 8a3f
0.9892966 0.84853333 1.0808674 0.9991728 0.8257142 1.0842817

transformer_encoder.layers.0.norm2.bias f4 [6]
00000000: ceba a83d 05fc 1e3e 8e12 873a 6820 61be
00000010: 65b5 143e d4fc 3ebd
0.08238755 0.15525825 0.0010305212 -0.21985018 0.14522322 -0.046627834

transformer_encoder.layers.1.self_attn.in_proj_weight f4 [18, 6]
00000000: 01e1 5abf 5f1d 16bd aeab ddbc c279 5a3e
00000010: fd83 f53d 332c a4be 7385 133d 611d bebd
00000020: 323e e03e 5b0e 1abe 5b54 6cbe af25 85be
00000030: 9d20 8e3e e847 de3e 0cf0 ddbe 5456 da3d
00000040: b123 1e3e 0d48 8e3e 8726 2f3d f69e 8a3e
00000050: edd5 84be 31ba 62be 387b 9d3d 2da7 5cbe
00000060: 1685 b93e 3703 253d fdc9 ce3e 2791 28bf
00000070: d4d9 b53d 6033 abbe 4b36 163f e504 9db7
00000080: f650 ae3d ec19 2bbe 8ddd 0cbf 8ab1 39be
00000090: 6524 43be be2c a53e 75a0 7ebf 23d2 123e
000000a0: 1f3f 1e3f e925 2c3e 5ce4 87bb 1f8f 82be
000000b0: 87ec 88be 3b5c 153f 0698 8c3e e46a 0ebf
000000c0: ff2b b43e 5c09 043f 807a e7be 5516 ac3e
000000d0: 2041 e03d 28b9 95be 1607 f83d eb70 293e
000000e0: 25b0 96be 7673 f93e 6fe6 e93d cd30 bcbe
000000f0: 736d 22be 94d2 2bbf feaa 9cbc 0816 e33e
00000100: 2d72 20be 4dfb 82be 3c98 8ebd 66c1 0cbf
00000110: 0688 af3e 1206 9cbe 17b8 b1be 73d2 57be
00000120: 0262 c7be 7ddb c23c 9e26 83be 367d 223e
00000130: 83e8 dbbe c5fc aa3e 92ad a53e e93f 0cbf
00000140: d20a 92bc 1078 fcbe da73 193f b9f7 8b3e
00000150: af37 17be 9a6d 76be 30b2 ec3e 79c4 123e
00000160: ef53 203e f6f3 9dbe 16fa f23e 4d69 57be
00000170: ead0 25be dda6 e5be 65b1 0fbc efac 62bd
00000180: 00be cabe ffb9 3e3e f34b d03d f827 ea3e
00000190: 93da 103f efda 41be b94d 1fbf a07f 76bc
000001a0: 5a98 863c b0a3 f33d 5766 393e edea 0ebf
-0.8549958 -0.036649104 -0.027059402 0.2133551 0.119880654 -0.3206497 0.03601594 -0.09282947
0.4379745 -0.15044539 -0.23079054 -0.26005313 0.27759257 0.43414235 -0.43347204 0.10660997
0.15443303 0.27789345 0.042761352 0.27074403 -0.25944462 -0.22141339 0.07689518 -0.21548147
0.3623435 0.04028627 0.4038848 -0.65846485 0.08879438 -0.33437634 0.58676594 -1.8718138e-05
0.08511536 -0.16709107 -0.5502556 -0.18134132 -0.19056852 0.32260698 -0.9946359 0.14337973
0.61815065 0.16811337 -0.0041470956 -0.25499818 -0.26742956 0.5834386 0.27459735 -0.5563185
0.35189816 0.5157678 -0.45210648 0.33610788 0.109499216 -0.29242826 0.121107265 0.16546981
-0.29431263 0.48720902 0.11420905 -0.36755982 -0.15862064 -0.6711819 -0.019124504 0.44352746
-0.15668555 -0.25582352 -0.0696263 -0.549826 0.34283465 -0.3047338 -0.34710762 -0.21076374
-0.38941962 0.0237863 -0.256154 0.15868077 -0.4295083 0.33395973 0.32358986 -0.5478502
-0.017827425 -0.4931035 0.599424 0.27337435 -0.14767335 -0.24065247 0.46229696 0.14332761
0.15657018 -0.3085019 0.47456425 -0.21036263 -0.16192976 -0.4485387 -0.0087703215 -0.055340704
-0.39598083 0.1862564 0.10170736 0.4573362 0.5658352 -0.18931173 -0.6222797 -0.015045077
0.016430069 0.11896455 0.18105446 -0.5582722

transformer_encoder.layers.1.self_attn.in_proj_bias f4 [18]
00000000: 3a5c 9abb 7cf9 10be 3edd bf3d 70c8 193e
00000010: 906f 833d 9321 e3bd c1f8 ca38 f5aa 0fba
00000020: 32c0 9bba 43b9 b938 27ac ab3a b10d 91b9
00000030: 0f70 01be f99e 523d 935e 833d aa36 473d
00000040: 0584 263c 488c 45bd
-0.0047107013 -0.1415767 0.093683705 0.15017867 0.06417763 -0.11090388 9.6784446e-05 -0.00054804917
-0.001188284 8.855995e-05 0.001309757 -0.00027666756 -0.12640403 0.05142114 0.06414523 0.048636116
0.010163312 -0.048229486

transformer_encoder.layers.1.self_attn.out_proj.weight f4 [6, 6]
00000000: 5faf 013f dce8 d2be 57ec 96be d09c 103d
00000010: 63e5 eb3d 3ddf 9d3e d1fd 513e 67ab 403e
00000020: 126b 6cbe a3e8 0a3e 1bf1 39bf d2c7 36be
00000030: fa92 14be cebb 903e b08a 73be 45a9 8c3d
00000040: 7a9c 1bbe a82d 7f3e 2c19 f83c 82d6 ca3e
00000050: 2ac2 423e cfdc fabe d609 5abe 678b 2d3e
00000060: 6c50 933e b82d 773e 03ed 463e 21d5 d33e
00000070: 7605 cabe 68e8 1ebe b0d8 54be feff 85bc
00000080: 9cfd c73c 6b32 70be 265f 26be 7c37 b83e
0.5065822 -0.41193283 -0.29477188 0.035305798 0.115183614 0.3083438 0.2050698 0.18815385
-0.23087719 0.13565306 -0.7263352 -0.17849663 -0.14509192 0.28268284 -0.23783374 0.06868223
-0.1519641 0.2491976 0.03028544 0.3961678 0.1901938 -0.4899659 -0.21292815 0.16947709
0.28772295 0.24138534 0.1942635 0.41373542 -0.3945729 -0.15518343 -0.20785785 -0.016357418
0.024412923 -0.23456733 -0.16247234 0.3597983

transformer_encoder.layers.1.self_attn.out_proj.bias f4 [6]
00000000: af7d fabd 8bb4 3dbc 672a 463d e844 33bb
00000010: 9bfd 7c3c 79fb 18bc
-0.122310035 -0.011578689 0.04838028 -0.0027354304 0.015441324 -0.0093372995

transformer_encoder.layers.1.linear1.weight f4 [2048, 6]
00000000: a6e5 aa3d ed2d dfbe 6955 a73d 3a91 29be
00000010: 8fc7 94bd 9b30 f23e 332b 15be 3a56 28bd
00000020: d1fa 63be 2dd9 b8be 3af1 a13e 23c9 3cbe
00000030: 02a1 c63d 3adb 4f3e 57a0 383f ce25 b3bd
00000040: 7853 b63e 99dc ad3d 4aaf 25be c1b4 4c3c
00000050: 7e70 3abe bc25 6d3d 1b8a 903e 39c3 8c3d
00000060: fb46 733d 77b6 6fbd c217 3fbe e286 a8be
00000070: 9ea2 59be 4f54 61be e38f 7bbe a814 6dbe
00000080: fab5 533e 8b1d 6e3d 1128 c8bd ab20 83be
00000090: e37b 85be 368e 853d aa32 003f 6b33 4a3d
000000a0: ef53 e2bd 979d 21be a068 943d f506 6f3d
000000b0: 6c4b 353e 4f98 88bb f35e 02bf f591 113e
000000c0: 2832 193e e7a3 8bbe 9c4a 9d3e deaf 8a3e
000000d0: 73ee afbd 1f57 c03d ac51 913e 3b2a 193e
000000e0: f938 d63d c88b 05bd 29c7 a53e c5d6 89be
000000f0: 89d7 18be 27ba 583d f1ae 273f bb41 a9be
00000100: 4494 8f3c 86aa e1bd 331b 2ebe ac85 26be
00000110: 7afc 93bc acbd 18bd 68a0 83be b566 a8be
00000120: 7112 43be afd1 58be f274 e5bd e7e9 063e
00000130: 697c 58be b4af ebbe 883c 22be 295c f0be
00000140: 598c da3d 4280 6b3e 1afa 8ebe 4e81 b83e
00000150: 178a f4bd a378 8dbe 9ac7 e33d 0c6b 233e
00000160: 0dc6 a4be 36b4 51be 1b25 ad3d a47b 0cbe
00000170: c99d 6ebe 4304 86be 40f2 453d dd5c ddbd
00000180: bf88 ca3e 3569 61be 5d11 363c c60a 4e3d
00000190: 0c11 823e a393 32be d5b0 943b 6f18 843e
000001a0: 3373 91be 0825 98bd 6461 bcbe 7dfd 88be
000001b0: d9db 00bd ef9a 9abe 2572 aa3e 453f b1be
000001c0: f534 a1be 19f6 60bd 965c 5c3d 7c03 a83e
000001d0: a9ba 923e a497 973e e608 943e 80c6 c33d
000001e0: 66ca b9be 1141 af3c 839d 713e 1a83 a0bd
000001f0: bb20 10be 8993 82be 1a75 823e 10aa 823d
00000200: eb95 2dbe 1ebe 69be e00a 843e d0a3 05bd
00000210: 583b a4be 7109 cb3e 5463 853e 77eb 923e
00000220: 35aa 133e 82bb a63e 48ce 2d3e 8ef9 573e
00000230: 8ac8 77be bd6d d5bc 09b6 f7bd 3d4e e03c
00000240: b26c afbe d876 863d 0a2d 68be 5f2e b0be
00000250: cb39 0fbe 025f afbe c78b d13d 11f6 a3bd
00000260: e4ec 743e 211d 623e 83b5 ccbd f7ad cabe
00000270: 0bf0 bdbe 947e 9a3e c56f 5a3e 682b 9fbe
00000280: 7684 523d ab37 45be 6ce8 7cbe 2c30 aa3d
00000290: c2a0 6fbe a9ae c5be 3dcf 3d3e 2e7f d43e
000002a0: 01dc 66be c78a 29be 2d77 0fbd 6fc3 0a3e
000002b0: 92a0 cbbd b3e2 a1bd 1f1f a9be 9216 a53e
000002c0: 154b e13e bb20 5fbe 9551 a53d fbca 5a3e
000002d0: 99c9 d9be a369 943c b106 7f3d 2317 bdbc
000002e0: e52c a93e 3a69 bf3e 6655 0ebe 22db a7be
000002f0: e90f 61be 560e 73be 4f6b 373e 6aee c13c
00000300: 1c3c 533e 1c9b 23be 34f0 8dbe c33e 573d
00000310: e9ce 54bd bb58 683d 04bf a7be 0428 86be
00000320: a37f 49bd 4798 bfbe d4c4 653e 42b8 26be
00000330: 3aad 9f3e f07f b5be b624 d13e 11d5 f4be
00000340: 5534 abbe 2599 91bd 9270 863e 161b 17be
00000350: 2061 e6bd 5139 bebe 8b87 d8bd 03a8 f93d
00000360: a1f8 5abe db16 eb3e 277b 7f3e b0ec d83d
00000370: cd47 c53e 053c 43be b45e edbe 4c1c b5be
00000380: 2f2f 043f f8a4 edbc 4c81 b4be 73cf 9a3e
00000390: e2d3 453c dd30 183c ac70 4c3b 0f34 393e
000003a0: 2e6a cb3d 133b 15be 4e66 663e d0eb edbd
000003b0: b557 3dbd 15f4 95be 17b5 b0be d331 8e3e
000003c0: e02b 063d 7a82 1cbe 471b 733e 35c8 7e3e
000003d0: 7bd0 b83e 3ab0 81be 8242 9f3e f402 e3bd
000003e0: 7052 af3e a2bf e53d 4c13 d43d 89c3 483e
000003f0: 75b7 e8bd 1dea a5bd cc37 c93e 5980 583d
0.08344583 -0.43589726 0.081705876 -0.16559306 -0.07264625 0.47302708 -0.1456726 -0.041097857
-0.22263648 -0.36103192 0.31629354 -0.18436103 0.096986786 0.20298472 0.7211966 -0.08747445
0.35610557 0.08489341 -0.16180149 0.012494267 -0.18206975 0.057897314 0.28230366 0.06873173
0.059393864 -0.05852362 -0.18661407 -0.32915407 -0.2125344 -0.22004817 -0.24566607 -0.23152411
0.20674887 0.058133643 -0.09773267 -0.2561086 -0.2607108 0.06521265 0.5007731 0.049365442
-0.11051165 -0.15782772 0.07246518 0.058356244 0.17704552 -0.004168547 -0.5092613 0.14215834
0.1496054 -0.27273485 0.30720985 0.270873 -0.085904025 0.09391617 0.28382623 0.14957516
0.104600854 -0.03260401 0.3237851 -0.2692167 -0.1492597 0.052911904 0.65501314 -0.3305796
0.017526753 -0.11018853 -0.17002563 -0.1626193 -0.018064726 -0.03729026 -0.25708318 -0.3289086
-0.19050004 -0.21173738 -0.11203946 0.13175164 -0.21141209 -0.46032488 -0.15843403 -0.46945313
0.106713004 0.22998145 -0.27925187 0.36036152 -0.11940401 -0.276311 0.11122055 0.15958804
-0.3218235 -0.20478901 0.08454343 -0.1371904 -0.23302378 -0.26175126 0.04832673 -0.10808728
0.39557454 -0.2201279 0.011112538 0.050303243 0.2540363 -0.17439131 0.0045376816 0.2579989
-0.28408203 -0.07428938 -0.36793053 -0.26755896 -0.031459663 -0.3019633 0.3329021 -0.34618583
-0.31485716 -0.054922197 0.053799234 0.32815158 0.28658035 0.2960788 0.2891304 0.09559345
-0.3628723 0.02139333 0.23595242 -0.07837506 -0.14074986 -0.25503185 0.25479966 0.06380093
-0.1695172 -0.2282643 0.25789547 -0.032626927 -0.32076526 0.3965564 0.26052344 0.2869527
0.14420398 0.32564932 0.16973221 0.21091291 -0.24197593 -0.026053304 -0.12095267 0.027381057
-0.34262615 0.065656364 -0.22673431 -0.34410378 -0.1398689 -0.34252173 0.102317385 -0.08005918
0.23918492 0.22081424 -0.09995558 -0.3958585 -0.370972 0.30174696 0.21331699 -0.31087804
0.051395856 -0.19259517 -0.24698037 0.08309969 -0.23401168 -0.38609818 0.18536086 0.4150328
-0.22544862 -0.16556846 -0.035025764 0.13551114 -0.09942736 -0.079045676 -0.33031556 0.32243782
0.44002596 -0.2178983 0.08072201 0.21366493 -0.4253662 0.018116778 0.06226224 -0.023082322
0.33042064 0.3738497 -0.13899764 -0.32784373 -0.21978725 -0.23735937 0.17912029 0.023673255
0.20628399 -0.15977138 -0.27722323 0.05255009 -0.051955137 0.056725245 -0.3276292 -0.26202404
-0.04919399 -0.37420866 0.22438365 -0.16281226 0.3118685 -0.3544917 0.4084832 -0.47818807
-0.33438364 -0.07109288 0.2625776 -0.14756426 -0.11248994 -0.37153104 -0.10572728 0.12190249
-0.21383907 0.45915875 0.24949323 0.105920196 0.38531342 -0.19065864 -0.46361315 -0.3537315
0.51634496 -0.029009327 -0.35254896 0.30236396 0.012074443 0.009288994 0.0031195087 0.18086265
0.099323615 -0.14573316 0.22499964 -0.11617243 -0.046226222 -0.29287782 -0.3451316 0.27772388
0.032756686 -0.15284148 0.23740874 0.2488106 0.36096558 -0.25329763 0.3110543 -0.11084548
0.34242582 0.11218192 0.10355243 0.1960584 -0.11363117 -0.08101294 0.39300382 0.052856777

transformer_encoder.layers.1.linear1.bias f4 [2048]
00000000: 1680 50be 32ed b3be da49 6cbe 7a71 95bd
00000010: 4e46 8d3d 4590 243e 6897 073c 3e77 adbd
00000020: ce3d 753e 4c49 263e 07c3 19be 100e 783d
00000030: 04d4 a5be 3a06 3cbe 5fa5 24be 5f24 20bd
00000040: 0477 2c3c c5b3 f6be a2d4 263e 4636 883d
00000050: c441 9abe 8193 eabd ea95 70be ab80 18be
00000060: 0db7 bfbd 69c5 c6bc 6d5c ff3d 1e2e 92be
00000070: ec53 9c3e b90d 03bf 6a27 45be 8a8b 453e
00000080: 3bd1 95be b037 f63d 22eb 45bc 7d4e a5be
00000090: 776f aebe c8f2 d9be 0f5c 90be 963f a9be
000000a0: b4ef 943d cb55 bb3d a8b6 81be 78e9 20bd
000000b0: 96f2 b4be 2269 583c 35f2 f9bd 8062 95be
000000c0: 9929 86be 66f2 563c 1d57 fd3d e2a0 923d
000000d0: 51a4 74bd 7039 753d ab8f 81be 318e 4abe
000000e0: 9cc3 013e 8aa7 3b3e e9c2 213e 6faa 8fbd
000000f0: 01d8 fdbe aa31 423e 766b 6e3e d2cc 713e
00000100: bc69 233e cf1f d1bc 4e98 0dbf 2d88 b3be
00000110: 18d4 ec3d ecac 7ebe f333 abbd c4c6 043e
00000120: 1584 2a3e 0e21 4abe 43ca cc3d 7d23 49bc
00000130: f8bc aebe 2832 953d 514d 2f3e 0684 cfbe
00000140: f87e 43be 289c be3d 98a0 04bf ff6c 393e
00000150: e59f 69be ef1d 51be 2a41 78be 9ca2 c3be
00000160: 0e5a 73bd 83ec 9e3e b571 a6be ac12 8b3e
00000170: 2434 51be 7924 863e 3f3c e7be cceb 3a3d
00000180: 7a29 763d a853 6a3c 3201 eebe 6d65 debe
00000190: 0777 5a3d 0bf1 9fbe 3538 d7bd 9fb2 87bd
000001a0: 3ab3 c6be 898b f8bd 842a fcbc 2049 6d3e
000001b0: 33f4 dbbe 6d94 c9bc 4936 93be c6f3 f8bd
000001c0: 9cd4 4b3d 4620 6a3e d6ea c73d 0728 a1be
000001d0: 2b65 f0be 217c 85bd 57cb 1a3e 4f90 af3d
000001e0: addc 1d3d 77b8 e0bd b76a a03e 449f afbe
000001f0: 694f 4cbe 6077 6fbe adfe adbe d9dc bcbe
00000200: 24e2 84be 908d 85be 7b76 cbbe 8b09 70be
00000210: 4c27 bb3b 1061 04bd 3fd0 98be 182d d7be
00000220: cbdf f73d 9068 dc3c 911b ffbd 4c5f b43d
00000230: 5a28 2e3e f411 343c af69 f8bd 1633 e2be
00000240: bd8e 5e3e ac91 39be 1ad7 b6be f3ed 683d
00000250: dc00 05be 47f6 d0be 2a1e aebe 6979 003d
00000260: 0a36 843e 413d 86be f561 2bbe 527d f23d
00000270: 50af b9be 6fe6 0cbd 82c9 bb3e 8d31 683e
00000280: 9e38 f33d 0fa0 ae3c a66c efbe 06d6 8ebe
00000290: 1025 d93d d21c 15be 5be0 333e 4894 1f3e
000002a0: 32ed 7ebe 0398 c7bd 22b1 ad3e 7904 7ebe
000002b0: fe39 cfbe 80c5 3abe bce1 26be c654 b5bd
000002c0: dff8 c4be 2c0d cbbe 7fc0 e1be 7472 04bd
000002d0: 6d31 1fbe 5245 bb3e 46dc afbe ecc9 85be
000002e0: 485b a6be e8fe 733e 49bd 66be 6706 03be
000002f0: a5d4 1cbe eb84 cebe f3d3 88be 970e 563e
00000300: dc40 773d 459c 053e 4792 1abe cd1a 97be
00000310: c7eb 6abd 5299 943e 647f 8b3d 5d6e 98ba
00000320: f435 893e b361 c43c ad81 e4bc 4c8b a8be
00000330: 9bc3 833e a1c3 b4be 9346 a33d 5643 863e
00000340: b004 96be f9c3 c93d 23e2 943e 22cf 95be
00000350: 9e37 dcbd 75d7 e5be 62aa b6bd 362e 9d3e
00000360: 5812 96be 9c5b cebd 8c2d 5c3e 933a b93e
00000370: 3e55 91bd 5376 d8bd 59fa 02bf 22a3 c33d
00000380: 46a0 5b3e 3bc6 7d3e 9cc2 69bd ae80 9bbe
00000390: 1860 883e 82ff 153e 71d4 9d3e 818a 393e
000003a0: d830 893d 6376 39be c5e2 683a 78f1 f3be
000003b0: bbb8 3dbd 042d f73d a46a 83be d623 91bd
000003c0: fd55 4fbe 4ada 80be 4732 a53e 70f4 a2be
000003d0: 5dc4 873d 0552 1abe e76e 53be cc6b 323e
000003e0: 4657 6dbc bb5f b0be 4edc 5fbd fa76 a6be
000003f0: 4fbf a2bd 4df9 12be 694c b83d fa41 a93d
-0.20361361 -0.35141903 -0.23075047 -0.072970346 0.06898175 0.1607066 0.008275844 -0.08470009
0.23949358 0.16238898 -0.15015803 0.060560286 -0.32388318 -0.1836175 -0.16078709 -0.039097186
0.010526422 -0.48184028 0.1629205 0.06650977 -0.301283 -0.114539154 -0.23494688 -0.14892833
-0.09361086 -0.024264054 0.12468801 -0.2855081 0.30532777 -0.51192814 -0.19253317 0.19291511
-0.29261193 0.1202234 -0.012079986 -0.32286444 -0.34069416 -0.4256804 -0.28195235 -0.33056325
0.07272282 0.09147223 -0.25334668 -0.039285153 -0.35341328 0.013208659 -0.122044004 -0.29176712
-0.26203611 0.013119316 0.12370131 0.07159592 -0.059727017 0.05986923 -0.25304922 -0.19780804
0.12672275 0.1832563 0.15797009 -0.070149295 -0.4957886 0.18964258 0.2328318 0.23613289
0.15958303 -0.025527863 -0.55310524 -0.3506483 0.11563891 -0.24870652 -0.08359518 0.12966448
0.16651948 -0.19739172 0.09999516 -0.0122765275 -0.34128547 0.07284957 0.17119338 -0.40530413
-0.19091403 0.09307128 -0.51807547 0.18107985 -0.22814901 -0.20421575 -0.24243608 -0.3821
-0.059412055 0.3103982 -0.32508627 0.27162683 -0.20430046 0.261997 -0.45163152 0.04563503
0.06009815 0.014302172 -0.46485287 -0.43436757 0.05333617 -0.3123859 -0.105087675 -0.06625866
-0.38808614 -0.12135989 -0.030781992 0.23172426 -0.42959747 -0.024606908 -0.28752354 -0.12155871
0.049763307 0.22863874 0.09761588 -0.3147585 -0.46952185 -0.06517816 0.1511663 0.085724466
0.03854053 -0.10972684 0.31331417 -0.34301198 -0.19952168 -0.23385382 -0.33983365 -0.36887243
-0.25953782 -0.26084566 -0.3973883 -0.2344114 0.0057114717 -0.03231913 -0.2984638 -0.4202659
0.12103232 0.026905328 -0.1245643 0.08807239 0.1700758 0.0109906085 -0.121295325 -0.441796
0.21734138 -0.18121976 -0.35710984 0.05686755 -0.12988609 -0.40812895 -0.34007388 0.031365786
0.2582248 -0.26218608 -0.16736586 0.11840309 -0.36266565 -0.034399446 0.36677176 0.22675152
0.11876033 0.021316556 -0.4676258 -0.27897662 0.10602772 -0.14561775 0.17566054 0.15583909
-0.2489517 -0.09745791 0.33924204 -0.24806394 -0.40473932 -0.18239403 -0.16297048 -0.0885406
-0.38471124 -0.39658487 -0.44092175 -0.032335714 -0.15546198 0.36576325 -0.34347743 -0.26130617
-0.32491517 0.23827708 -0.22533144 -0.12795411 -0.15315492 -0.40335783 -0.26724204 0.20904003
0.06036459 0.13047893 -0.15094863 -0.29512635 -0.05735376 0.29023224 0.06811407 -0.001162957
0.26798975 0.023972368 -0.027893865 -0.32918775 0.25735173 -0.35305503 0.07972445 0.26223248
-0.2930045 0.09851832 0.2907878 -0.29259592 -0.10752796 -0.44890943 -0.08919217 0.3069932
-0.2931087 -0.10076067 0.2150175 0.361775 -0.07096337 -0.105694436 -0.5116325 0.095525995
0.21447858 0.2478265 -0.05707036 -0.30371612 0.26635814 0.1464825 0.30826142 0.18119241
0.06698769 -0.18111567 0.0008883889 -0.47645164 -0.04631875 0.12069133 -0.25667298 -0.07086913
-0.20247646 -0.2516654 0.3226492 -0.31827116 0.0662925 -0.1507035 -0.20647775 0.17423934
-0.01448614 -0.34448037 -0.05465346 -0.32512647 -0.079466455 -0.14352913 0.08998949 0.08264537

transformer_encoder.layers.1.linear2.weight f4 [6, 2048]
00000000: acd8 ef3d 2a2d 4bbd a091 0a3e ce22 843c
00000010: 5156 7fbb 24aa e23a 28a7 57bd c65c fa37
00000020: cd99 d2bb bb37 10bd d51a cd3d bfcf 4c3c
00000030: 29f7 bbbc fcbb 0d3d 4c14 8839 5974 543d
00000040: a969 9e3b 5349 4cbd dfe9 7b3d 819c 593b
00000050: b281 c1be aa80 3f3d c3ab 8b3c 5929 09bd
00000060: 0e12 af3c c6f7 f7bc 1588 dcbb 474e 0b3d
00000070: 2dc5 ccbb 9006 f93d 96e9 7bbd 5de5 303c
00000080: 2046 c63d d7c7 44bb 9dcb 113d c74c c3bd
00000090: b180 b33d 63d9 913e 5d43 4339 4fee 1c3b
000000a0: 9796 7fbc a310 81bd 630b 2ebe 427e 7d3d
000000b0: 3709 223c ad43 393e 04b4 af3d 0b80 693c
000000c0: 3461 9f3c 082c 4fbe 2435 0d3e fa9f 973c
000000d0: c839 9fbd bf52 edbc a9de 08bd 0a1e 383c
000000e0: cbd1 e9bd 2329 f43b c1fd 233d b61a 07bc
000000f0: 51e4 cd3c 80b9 8f3a a31d b0bc 73fa 9abc
00000100: 5eac 48ba 4cc6 c5bc 2f5c 943d b952 8dbc
00000110: 5bf4 de3b 2db5 193c 2d6d 4a3d cf81 3b3a
00000120: 7e6b 9b3c f2ad be3d 4199 2dbc 6c96 f2bb
00000130: 0042 57bd 8f05 bdbb f57f 57bc 9342 f23c
00000140: 25b6 c43a 1b87 ee3d 3622 473e 88d4 b53b
00000150: 9b5f f13d eec0 f1bc 037c 0ebe e2b5 47bb
00000160: 5133 80bd d5f6 003d 0a7e fcbb c68b 5d3c
00000170: 5ef7 8ebb c2df b53d 8a93 873d fc95 673b
00000180: 1764 19bd 5cf3 233c b7d0 9e3c a779 aebb
00000190: 0abf 3cbe b777 bfbd b6c6 393c b4ad 9a3d
000001a0: a613 063e c971 afbc ea89 153d 73a7 6e3c
000001b0: 81fe 6ebb 31bc 0abd 2de1 be3d 766c 933c
000001c0: 9181 013d 5d10 113d 914a e93c 17b1 5dbc
000001d0: 2b90 2f3d 710d 2ebc d5c1 9bbc 6481 853c
000001e0: 346d 063d cbcd 853c 3429 4a3b fa84 93bb
000001f0: 5022 e63c 382d ee3c aeb4 2fbb def3 893d
00000200: 157a 9bbd 460d 20bd b5bf 63bd 468b a93d
00000210: e9dd f6bb 9019 2e3d a217 283e 4b9c 68bd
00000220: 8da8 333d 337a 0bbc 1de9 1fbc 8469 cc3c
00000230: 182d cd3b 4398 203d 4f24 42bd 8f50 ad3d
00000240: c8f4 26bd bf02 9c3c 0ddd dc3b 150d 8abc
00000250: 2cba 123c 4498 ec3c 958a 233d be01 41bd
00000260: 0837 98bb 2aae d03c 01c8 843a af72 83bc
00000270: 0239 ae3d 03d1 6d3e 7e11 da3c 9d28 a7bc
00000280: 2b66 f83d fbc3 a3bb 7924 073e 826e 13be
00000290: 6d80 2e3e 16e7 b93c 0c0c 5ebc 06db 97bc
000002a0: 3268 2cbd ce1d 403b 8449 db3c 4d72 23bc
000002b0: 7334 8a3c 2468 9cbc 1717 5e3c 1884 a0bd
000002c0: e5ce 08bd acdf 043d fb01 113e cd83 7f3c
000002d0: 4b83 8d3d d55c 0bbd 6895 ab3b 0c55 d2bd
000002e0: 80b9 be3c 1a41 333c 0f8a 9dbb 0318 bc3d
000002f0: fe52 483c 03c1 063d b352 5b3e b55d 813d
00000300: 93fc a83c e37d 49bd 1934 bfbd cafa 16bc
00000310: da02 463c 4ad4 1d3d 46c4 c6bc 9432 0bbd
00000320: b8b3 223d e911 0b3e da3a eb3c 52ef bd3c
00000330: 757b 0c3d 9d86 013e 5c4a 4fbd 2209 88bb
00000340: b827 a13d fbd1 353c 4e7f 9d3b 5ec1 353c
00000350: 8296 843d 0a0b a53d bb36 4e3c 0a3b b8bb
00000360: ae14 f1ba e6fe 593d 9419 b5bc 1990 49bc
00000370: 9b1d 6ebb a9d4 d53b fe4c a1bc 74f6 043d
00000380: 849e f73c 527e a33c 740a 91bd 8c33 a1bd
00000390: a16d 813d 8ac7 47b9 5e73 2f3c 7b42 71bb
000003a0: b4f9 bf3b 0c63 a03c dc88 99bd 5c1c 0d3d
000003b0: f97c 2cbc e7a2 3c3d d17e ad3c 6af2 e43c
000003c0: 2d48 c1bc edcf bc3c 4da0 5f3d 3b4c ae3d
000003d0: 236a 283e 86be bfbc 47d2 293e d5bd bbbc
000003e0: 8632 793d 3977 da3b d01d fa3c 30ff 133d
000003f0: 5ad9 bfbc 8613 dd3a 8d0c 94bc ff9f c9bc
0.11711249 -0.04960362 0.13532114 0.016129877 -0.003896136 0.0017293137 -0.052649647 2.9845523e-05
-0.006427026 -0.0352094 0.100148834 0.012500702 -0.022945004 0.034603104 0.00025955064 0.05186877
0.004834373 -0.049874615 0.061502334 0.0033204856 -0.37794262 0.046753563 0.017049676 -0.033486698
0.021370914 -0.030269515 -0.0067300894 0.034010198 -0.006249091 0.12159455 -0.06150206 0.010796872
0.09681344 -0.003002634 0.03559457 -0.095361285 0.0876478 0.28486165 0.00018621744 0.0023945754
-0.015599868 -0.06302001 -0.16996531 0.061887987 0.009889892 0.18092223 0.08579257 0.014251719
0.01945553 -0.2023164 0.13789803 0.0185089 -0.07774693 -0.02897012 -0.03341547 0.011237631
-0.11416968 0.007451193 0.04003692 -0.0082461145 0.025133284 0.0010965317 -0.021498507 -0.018918252
-0.0007655079 -0.024142407 0.07244145 -0.01725136 0.006804032 0.009381575 0.049420524 0.0007152827
0.018972155 0.09310521 -0.010595621 -0.0074031856 -0.052553177 -0.005768485 -0.013153066 0.02957276
0.0015007897 0.11646863 0.19446644 0.0055490173 0.117858134 -0.029510941 -0.13914494 -0.00304734
-0.06259788 0.031485397 -0.0077054547 0.013522094 -0.0043629846 0.08880569 0.06619938 0.00353372
-0.03744897 0.010006752 0.019386632 -0.0053245607 -0.1843225 -0.09349006 0.01133888 0.075526625
0.13093433 -0.021416562 0.03650848 0.01456629 -0.0036467614 -0.03387088 0.093202926 0.017996054
0.031617705 0.035415996 0.028477939 -0.013530991 0.0428621 -0.010623322 -0.019013325 0.01629705
0.032818988 0.016333481 0.0030847313 -0.004501936 0.028092533 0.029074296 -0.0026810574 0.06735967
-0.07591645 -0.03907516 -0.055602748 0.082785174 -0.007533778 0.042504847 0.16415265 -0.056789678
0.043861914 -0.008513021 -0.009760168 0.024952658 0.006261479 0.039207708 -0.047397908 0.08462631
-0.040760785 0.019044278 0.0067402185 -0.016851941 0.00895552 0.0288812 0.039927084 -0.047120802
-0.004645232 0.025473673 0.0010130407 -0.016045896 0.08506967 0.23224263 0.026619669 -0.020405108
0.12128862 -0.004997728 0.13197507 -0.14397624 0.17041178 0.022693198 -0.013552677 -0.018537056
-0.042091556 0.002931464 0.026768453 -0.009975982 0.016870713 -0.019092627 0.01355531 -0.07837695
-0.033400435 0.032439873 0.14160912 0.015595389 0.06909808 -0.03402408 0.0052363165 -0.10270128
0.023281813 0.010940814 -0.0048077176 0.09184267 0.012226818 0.032898914 0.21418266 0.06316701
0.02062825 -0.04919232 -0.09336109 -0.009215066 0.012085641 0.038532533 -0.024263512 -0.033983782
0.039722174 0.13581051 0.028714586 0.023185406 0.034297425 0.12649007 -0.050608024 -0.0041514793
0.07868904 0.0110974265 0.0048064357 0.011093466 0.064740196 0.08058746 0.012586291 -0.0056222724
-0.0018393004 0.053221606 -0.022106923 -0.012302422 -0.0036333564 0.006525595 -0.019690033 0.0324616
0.030226953 0.019957695 -0.07082072 -0.0787116 0.06319738 -0.00019052453 0.010708658 -0.0036813307
0.0058586244 0.01957848 -0.07496807 0.034450874 -0.010527843 0.046053793 0.021178635 0.027947623
-0.023593986 0.023048365 0.054596234 0.085106336 0.16446738 -0.023406278 0.1658412 -0.022917667
0.0608392 0.0066670445 0.030531794 0.036132038 -0.023419071 0.001686678 -0.01807239 -0.024612425

transformer_encoder.layers.1.linear2.bias f4 [6]
00000000: 278d ce3b dee0 533a bdbf 66ba 5065 27bc
00000010: 0129 083c dc24 43bc
0.0063034478 0.0008082519 -0.0008802375 -0.010217026 0.008310557 -0.011910643

transformer_encoder.layers.1.norm1.weight f4 [6]
00000000: 4b69 8f3f dd06 653f 659d 7b3f 2cf8 743f
00000010: 86de 5f3f d74d 923f
1.1204008 0.894636 0.9828704 0.9569118 0.8744892 1.1430005

transformer_encoder.layers.1.norm1.bias f4 [6]
00000000: 1c23 62bc 70ef e23d 676b 55bc 70cd 88bd
00000010: 47f7 db3c e727 0c3c
-0.013802316 0.11080825 -0.013026095 -0.06679809 0.02685131 0.008554435

transformer_encoder.layers.1.norm2.weight f4 [6]
00000000: cf66 b23f 0624 913f 1471 753f 6f71 a43f
00000010: 6513 8d3f 737a 8e3f
1.3937625 1.1339118 0.9587567 1.2847117 1.1021544 1.1131119

transformer_encoder.layers.1.norm2.bias f4 [6]
00000000: 2ed8 023e fbb6 2ebd d235 303d af64 87bc
00000010: 8d97 0abe 9adf 3fbe
0.12777779 -0.042654973 0.043020077 -0.016527502 -0.13534375 -0.18737641
