Archive/RU_model/LSTM/best_model2.3.pth (torch, 76094 bytes, 5 tensors)

lstm.weight_ih_l0 f4 [256, 6]
-1.6531132 0.079435006 0.07352689 0.02220628 1.2464384 -1.1518928 2.6391406 -0.47665137
-0.29708922 -0.07697176 0.04995375 1.8448129 -0.49877 -0.19945337 0.017672049 -0.08732096
0.07929037 -0.32596672 0.054799367 0.17300762 0.2639904 0.029508762 0.10735668 0.00903126
0.05181985 -0.031322002 -0.15949833 -0.20323333 -0.0335324 -0.15380433 -0.9491828 0.044374544
-0.32375956 -0.2506058 -0.10808614 -0.7624964 2.6673853 0.71462303 0.006403922 0.00045740322
-1.5022583 0.9174462 -0.0360978 0.049945056 -0.1906843 -0.5969907 -0.102090396 -0.21006818
0.8205083 -0.1971422 -0.30275118 -0.353814 -0.36923367 0.13647583 -0.41425195 0.35930082
0.008168569 -0.77706736 0.17176872 -0.4644693 -2.2740464 0.5668333 0.122635044 0.35360983
-1.6297214 -1.5619402 0.18081363 -0.09644002 -0.21162376 -0.04188361 0.14330183 0.05556745
-0.53858334 0.013795714 -0.24978459 -0.12675236 -0.30586153 -0.7218316 -0.5949253 -0.22152035
-0.0861546 -0.000452853 -0.057845034 -0.2606675 -0.7598516 0.1560356 -0.075570814 -0.4992784
0.33441353 -0.847807 -0.12988642 -0.18270545 -0.2460645 -0.08884696 -0.16312583 -0.1233868
-0.06587342 0.23264045 0.26378563 0.025460197 0.022313584 0.0006743405 -0.38483092 -0.5332608
-0.4509262 -0.027343666 0.11329813 -0.26006505 -0.12382352 0.4249801 0.2625147 0.006556058
0.30439636 -0.17670116 4.2845845 2.1769564 -0.0155509235 -0.00028177834 -1.1484615 -2.8999176
-0.8701228 -0.109587654 -0.17297462 -0.10701776 -0.101953775 -0.4912957 3.0000975 -0.7627348
-0.41059476 -0.005224111 -0.64520127 -1.5983888 -0.30738655 0.53208834 0.38685057 0.005087252
0.20204978 -0.5015553 -0.16565675 0.10366407 0.0050759963 -0.057641484 0.13843703 -0.026542481
0.5546071 0.3956146 0.26677823 0.2251839 -0.48766553 0.83449674 -0.7159134 0.21260516
-0.13065876 -0.07658962 0.026818588 -0.401933 -0.2075095 0.08777851 0.18402943 0.030216744
0.10971394 0.17854407 2.924314 0.13508986 0.1364705 0.07201449 -2.172578 2.9798534
0.19858883 0.084580235 0.213999 0.018461289 0.037503835 0.13260013 -0.47742757 0.018309288
-0.26956034 -0.10809885 0.06468338 -0.16457997 0.19561286 -0.34660643 -0.31335905 -0.041992556
-0.018181501 0.24073386 1.3821437 -0.06111662 -0.047486894 0.56529295 -0.065226406 1.3538432
-0.8769719 -0.26284844 -0.03917765 -0.051450003 0.24324343 -0.4368635 -0.3835189 0.18187572
0.24773309 0.012574211 -0.1974854 -0.15644959 0.8291454 -0.5655195 -0.31346956 -0.05807221
-0.29849213 -0.5168427 -1.2103567 0.2557386 0.26830176 0.18429875 0.6749579 -1.1386739
-0.09764164 0.08868518 -0.12970698 -0.109830655 -0.0138097545 -0.07541157 0.001869048 0.03558361
0.106648035 0.061384622 -0.06899099 -0.04544138 0.01620276 0.0034621672 0.13159582 0.0029655267
-0.036780145 0.2403706 -0.79520434 -0.00078464614 -0.15593493 -0.0052343872 0.23413059 -0.46016344
0.21770534 0.13299318 0.07511119 0.03493771 0.16916622 0.15048745 -0.008475784 0.10292996
0.27084747 0.09844508 0.089416824 0.12117933 0.055359356 0.1810645 0.2874458 0.14619476
00000000: 3799 d3bf d2ae a23d 4495 963d f2e9 b53c
00000010: 4b8b 9f3f 3971 93bf aee7 2840 a60b f4be
00000020: 141c 98be 5fa3 9dbd 4e9c 4c3d d422 ec3f
00000030: c85e ffbe 813d 4cbe f9c4 903c 55d5 b2bd
00000040: fd62 a23d 1ce5 a6be 4d75 603d e928 313e
00000050: c029 873e 5cbc f13c d2dd db3d daf7 133c
00000060: 0d41 543d 804b 00bd 8853 23be 661c 50be
00000070: 4559 09bd e27e 1dbe a5fd 72bf 15c2 353d
00000080: d0c3 a5be 674f 80be 445c ddbd f732 43bf
00000090: 71b6 2a40 89f1 363f fed7 d13b 9fcf ef39
000000a0: 004a c0bf c1dd 6a3f 49db 13bd 3093 4c3d
000000b0: bf42 43be 62d4 18bf c514 d1bd 1d1c 57be
000000c0: d50c 523f a5df 49be 3402 9bbe 1c27 b5be
000000d0: 320c bdbe 52c0 0b3e d518 d4be 47f6 b73e
000000e0: 76d5 053c e3ed 46bf 24e4 2f3e ecce edbe
000000f0: fa89 11c0 fd1b 113f 1528 fb3d 590c b53e
00000100: b69a d0bf a8ed c7bf 3527 393e 5882 c5bd
00000110: e6b3 58be 268e 2bbd b7bd 123e b29a 633d
00000120: 99e0 09bf 6b07 623c 88c7 7fbe 5fcb 01be
00000130: e299 9cbe f5c9 38bf 064d 18bf 3bd6 62be
00000140: d371 b0bd e76c edb9 eaee 6cbd 3676 85be
00000150: a285 42bf ccc7 1f3e dfc4 9abd 6ba1 ffbe
00000160: 4038 ab3e e109 59bf f200 05be 2317 3bbe
00000170: 55f8 7bbe 65f5 b5bd 750a 27be 38b2 fcbd
00000180: a5e8 86bd 4c39 6e3e e90e 873e e791 d03c
00000190: faca b63c 3ac6 303a 8f08 c5be c883 08bf
000001a0: cddf e6be d3ff dfbc da08 e83d 3f27 85be
000001b0: 3097 fdbd fe96 d93e 5468 863e 33d4 d63b
000001c0: d7d9 9b3e 26f1 34be 511b 8940 4153 0b40
000001d0: 4dc9 7ebc a6bb 93b9 c900 93bf 4098 39c0
000001e0: 5ec0 5ebf 7e6f e0bd 4220 31be 212c dbbd
000001f0: 24cd d0bd 1c8b fbbe 9901 4040 9642 43bf
00000200: 7a39 d2be 052f abbb e92b 25bf 0198 ccbf
00000210: c561 9dbe f136 083f 4711 c63e f6b2 a63b
00000220: 23e6 4e3e ee65 00bf eca1 29be d44d d43d
00000230: 8b54 a63b 7a19 6cbd 70c2 0d3e 9e6f d9bc
00000240: bbfa 0d3f ff8d ca3e 2897 883e 9c96 663e
00000250: 4caf f9be 94a1 553f 1a46 37bf 2bb5 593e
00000260: 69cb 05be 05db 9cbd a8b2 db3c 2aca cdbe
00000270: 5f7d 54be 38c5 b33d 3672 3c3e 1b89 f73c
00000280: b4b1 e03d 42d4 363e f627 3b40 ff54 0a3e
00000290: ecbe 0b3e 557c 933d 850b 0bc0 ebb5 3e40
000002a0: df5a 4b3e 6738 ad3d 8e22 5b3e 213c 973c
000002b0: 9f9d 193d 54c8 073e 6371 f4be 5cfd 953c
000002c0: d003 8abe ee62 ddbd b878 843d a787 28be
000002d0: bd4e 483e 6676 b1be 9970 a0be 6300 2cbd
000002e0: 5ff1 94bc f082 763e 16ea b03f 6c55 7abd
000002f0: 9e81 42bd 0ab7 103f 6c95 85bd bc4a ad3f
00000300: 3b81 60bf 1294 86be be78 20bd 3dbd 52bd
00000310: ce14 793e 93ac dfbe 975c c4be a13d 3a3e
00000320: bead 7d3e 1004 4e3c 9d39 4abe 5234 20be
00000330: df42 543f e3c5 10bf 157f a0be 20dd 6dbd
00000340: f6d3 98be ce4f 04bf f8ec 9abf 2bf0 823e
00000350: d95e 893e d0b8 3c3e 0aca 2c3f 11c0 91bf
00000360: 57f8 c7bd 93a0 b53d e8d1 04be e5ee e0bd
00000370: 4f42 62bc 6271 9abd d8fa f43a 1fc0 113d
00000380: 496a da3d 716e 7b3d 264b 8dbd be20 3abd
00000390: a7bb 843c 87e5 623b 0ec1 063e 4859 423b
000003a0: c7a6 16bd b623 763e 8392 4bbf b6b0 4dba
000003b0: 68ad 1fbe 3985 abbb eebf 6f3e 8b9a ebbe
000003c0: 26ee 5e3e 5d2f 083e e5d3 993d d81a 0f3d
000003d0: e939 2d3e 6219 1a3e 04de 0abc f1cc d23d
000003e0: 85ac 8a3e 939d c93d 2b20 b73d de2c f83d
000003f0: 7ec0 623d f968 393e 192c 933e 14b4 153e

lstm.weight_hh_l0 f4 [256, 64]
0.049663033 0.020588826 0.11870093 -0.045670528 -0.0784685 0.008635256 0.097771905 -0.033517294
-0.07465341 0.102390595 0.18095492 -0.14195411 0.14568688 0.12122125 -0.23446938 0.058317997
-0.11379076 0.039168376 0.27626982 -0.0409438 -0.15459852 -0.037388686 0.20726314 0.012560994
-0.13420479 0.03569275 0.08741169 -0.33893645 -0.22076784 -0.08716702 0.033980828 0.123151615
-0.10804822 0.03610776 -0.07443263 -0.13222297 -0.07476961 -0.15332897 -0.07495838 0.09032725
0.19481793 -0.17930076 0.12848108 -0.04046414 0.23244004 0.017025389 -0.014655417 0.026735544
-0.063020915 0.03100113 0.053853642 0.20612803 -0.028049683 0.08545693 0.15970093 -0.14765194
-0.0026711319 0.010672705 0.017428033 0.040121395 0.033802457 -0.18190369 0.38688904 -0.11986462
0.3228526 -0.5191818 -0.12636496 0.13526653 0.031838894 0.005421621 0.041633934 -0.088628605
-0.07966369 -0.1347378 -0.15510257 -0.054387916 -0.045277197 -0.20064005 0.13136801 -0.59379554
0.009536252 0.19385682 -0.060329568 0.102178074 -0.031106114 -0.034138523 -0.22595659 -0.041899197
0.051295117 0.020931456 -0.46479017 0.09368357 0.01743202 0.027287524 -0.090295844 0.0849743
-0.31067082 -0.42561337 -0.0071492917 0.3099909 0.11642543 -0.12689686 0.13527417 0.2041045
-0.6987353 0.2946102 0.24981198 0.517895 -0.046058666 0.041971926 -0.0055104396 0.060490075
-0.015447713 -0.046525266 -0.019578539 -0.11655605 0.25332233 0.08477791 -0.0022726862 0.05688773
-0.19657232 0.043192346 -0.09626077 0.16925856 -0.007016271 -0.0031482521 -0.03976074 0.14399207
-0.24364631 -0.09264865 -0.22041601 0.28028333 0.06741642 -0.11080627 0.024608111 0.09235663
0.05309779 -0.2585615 0.10502212 -0.01172662 -0.01889712 -0.13208495 0.2499153 -0.093500264
0.1678891 -0.11385844 -0.011721625 0.18418416 0.18126225 0.07236867 -0.050795928 -0.086300395
-0.18450738 0.09819607 0.11472285 0.11363141 0.016354129 0.028474344 0.07825045 -0.024943085
-0.0042838803 -0.029069912 -0.045580667 -0.04265992 0.11279652 -0.100998774 -0.04930136 -0.10042636
0.19475383 0.107030235 0.000711948 -0.25756186 -0.087025516 -0.08930686 -0.04856805 -0.10304427
-0.17863162 -0.03976457 -0.13168149 -0.22989622 -0.09626911 -0.03700979 -0.14945342 0.11527963
-0.11217434 -0.0705495 -0.049311973 0.05077953 -0.11829878 0.19070521 -0.04972075 -0.030461553
-0.10844969 0.0649324 0.06948714 -0.07873405 -0.036415827 -0.2558089 0.06925378 -0.10701797
0.059497986 -0.0120986 0.12889639 -0.10330495 -0.056254376 0.15271905 -0.1335821 0.16974169
-0.17638212 -0.03767848 -0.025192019 0.010666598 0.15245335 -0.11361246 0.12497306 0.120112136
-0.12872736 -0.21750477 -0.1611658 0.0038493045 -0.2889351 -0.020822544 0.12072499 -0.09510128
0.07053003 -0.042256802 -0.120615885 -0.26000246 -0.087880395 0.15431586 0.061457697 -0.21018691
0.109036304 0.090893626 -0.02302356 -0.020684477 0.01846756 -0.17998853 -0.19707377 -0.024612637
0.10014147 0.020833809 0.03592377 -0.08655621 -0.034485918 0.1625918 -0.009368587 -0.12445254
0.076020576 0.13924587 -0.07387038 -0.0756701 0.10129519 0.2751596 0.09546017 0.068536386
00000000: 776b 4b3d e6a9 a83c 7919 f33d 0511 3bbd
00000010: 18b4 a0bd e47a 0d3c a33c c83d 6e49 09bd
00000020: e3e3 98bd 29b2 d13d 3f4c 393e 6b5c 11be
00000030: f12e 153e d942 f83d be18 70be dade 6e3d
00000040: 210b e9bd 056f 203d 3d73 8d3e b0b4 27bd
00000050: 134f 1ebe e124 19bd ca3c 543e a1cc 4d3c
00000060: fb6c 09be 9032 123d e604 b33d 1489 adbe
00000070: f710 62be 9f84 b2bd 7b2f 0b3d ea36 fc3d
00000080: 6348 ddbd bbe5 133d 2270 98bd 7565 07be
00000090: cf20 99bd 4502 1dbe c783 99bd 7efd b83d
000000a0: 5a7e 473e 9e9a 37be 8b90 033e babd 25bd
000000b0: c304 6e3e d478 8b3c 461d 70bc 8004 db3c
000000c0: 1c11 81bd 15f6 fd3c a395 5c3d 3a13 533e
000000d0: 73c8 e5bc 0b04 af3d a488 233e 1232 17be
000000e0: 280e 2fbb 92dc 2e3c 3cc5 8e3c 5556 243d
000000f0: 7274 0a3d f644 3abe 5216 c63e 957b f5bd
00000100: f04c a53e 19e9 04bf d165 01be 4f83 0a3e
00000110: 8069 023d daa7 b13b 5888 2a3d ea82 b5bd
00000120: b726 a3bd b5f8 09be 35d3 1ebe ddc5 5ebd
00000130: 9574 39bd 9674 4dbe 5685 063e fc02 18bf
00000140: f13d 1c3c 6782 463e 231c 77bd bd42 d13d
00000150: 40d2 febc d6d4 0bbd 2a61 67be 7e9e 2bbd
00000160: d41a 523d 7278 ab3c faf8 edbe 2cdd bf3d
00000170: 98cd 8e3c 168a df3c 07ed b8bd 0107 ae3d
00000180: 3f10 9fbe ffe9 d9be 9b44 eabb 21b7 9e3e
00000190: 7570 ee3d 40f1 01be 5085 0a3e c500 513e
000001a0: 51e0 32bf 26d7 963e b6ce 7f3e c494 043f
000001b0: 03a8 3cbd c1ea 2b3d eb90 b4bb 71c4 773d
000001c0: 6818 7dbc 4791 3ebd 2c63 a0bc f0b4 eebd
000001d0: 77b3 813e 0aa0 ad3d 59f1 14bb 1c03 693d
000001e0: 414a 49be 75ea 303d 5e24 c5bd 1e52 2d3e
000001f0: bfe8 e5bb e852 4ebb 28dc 22bd a872 133e
00000200: 6b7e 79be 93be bdbd bcb4 61be 4c81 8f3e
00000210: 9f11 8a3d 66ee e2bd f396 c93c 7925 bd3d
00000220: 117d 593d 2c62 84be d615 d73d 0221 40bc
00000230: 22ce 9abc 4741 07be cce9 7f3e 117d bfbd
00000240: 1feb 2b3e 9d2e e9bd 0f0c 40bc c69a 3c3e
00000250: d09c 393e 0636 943d 640f 50bd 43be b0bd
00000260: 81ef 3cbe 051b c93d d0f3 ea3d 96b7 e83d
00000270: 18f9 853c 0743 e93c c641 a03d 7155 ccbc
00000280: cb5f 8cbb 0624 eebc cbb2 3abd 2bbc 2ebd
00000290: dd01 e73d 72d8 cebd 39f0 49bd 56ac cdbd
000002a0: 8c6d 473e ab32 db3d 06a2 3a3a 26df 83be
000002b0: 6f3a b2bd 84e6 b6bd 4bef 46bd e008 d3bd
000002c0: 35eb 36be 2ce0 22bd 83d7 06be ea69 6bbe
000002d0: bd28 c5bd 9497 17bd 510a 19be ba17 ec3d
000002e0: a9bb e5bd 427c 90bd 5afb 49bd 32fe 4f3d
000002f0: a146 f2bd 3a48 433e fca7 4bbd 828a f9bc
00000300: df1a debd 47fb 843d 464f 8e3d 513f a1bd
00000310: c328 15bd 62f9 82be edd4 8d3d 3d2c dbbd
00000320: 29b4 733d 3539 46bc 6afd 033e 8c91 d3bd
00000330: fd6a 66bd 6262 1c3e bfc9 08be c4d0 2d3e
00000340: 849d 34be c054 1abd 7e5f cebc f4c2 2e3c
00000350: bb1c 1c3e a6ad e8bd e0f1 ff3d 5afd f53d
00000360: 1bd1 03be 92b9 5ebe a608 25be 9d44 7c3b
00000370: 4def 93be 0a94 aabc aa3e f73d 76c4 c2bd
00000380: 0c72 903d 7815 2dbd 7605 f7bd 0b1f 85be
00000390: a3fa b3bd fa04 1e3e 11bb 7b3d 3d3b 57be
000003a0: 6d4e df3d 7026 ba3d e89b bcbc 7e72 a9bc
000003b0: 4849 973c ea4e 38be b5cd 49be 71a0 c9bc
000003c0: f916 cd3d aaab aa3c ce24 133d 6244 b1bd
000003d0: 1b41 0dbd 777e 263e b47e 19bc f9e0 febd
000003e0: adb0 9b3d 7896 0e3e 5b49 97bd edf8 9abd
000003f0: da73 cf3d b8e1 8c3e 9f80 c33d ce5c 8c3d

lstm.bias_ih_l0 f4 [256]
0.49107343 -0.24866374 0.13601345 0.118650645 0.08343034 -0.17523484 -0.23805347 -0.23132661
-0.26804435 0.1367645 -0.017224962 -0.02214818 0.00050655735 -0.21922739 0.025175806 -0.29582044
0.20096414 -0.27392823 0.20981334 -0.43730426 -0.017127723 -0.3352 0.3279919 -0.03362813
0.017046988 0.20789872 0.09822901 -0.53257275 0.13908999 -0.045007516 -0.18595035 -0.2019506
-0.027687276 0.14107347 -0.081131965 0.202894 0.085788876 0.13652582 0.22382201 -0.13467878
0.14686996 -0.0043060826 0.14174767 -0.048162524 0.18635659 -0.21330525 -0.27817234 -0.025645535
0.087095425 0.050474826 0.36224875 0.37194285 0.10628164 -0.0035239498 -0.15193084 -0.30031228
0.14527528 0.034678426 -0.0064943684 -0.031385243 -0.34095713 0.036545526 -0.29281908 -0.034396976
0.35559258 -0.11093935 0.108115025 0.038155206 -0.2060511 0.1324314 0.20043416 0.22588257
0.31739545 0.13758028 -0.22180676 -0.047423314 0.18123336 0.26583463 0.2670185 0.07621696
0.051495936 -0.19969349 0.06758182 -0.06500016 0.111154 -0.05391444 0.18692476 -0.09017508
-0.18914764 0.038033832 0.18685855 -0.5108845 -0.034376167 0.09323883 -0.18227205 -0.15042345
0.13827074 0.15719299 -0.118958205 -0.06268947 -0.007418099 -0.15631597 0.1792576 0.15854204
-0.20919749 0.16909489 -0.083223395 -0.54113215 0.13817199 0.0005468819 -0.07113568 0.13730663
0.18668698 -0.044423535 -0.18487434 -0.10518118 0.1077532 -0.15529814 -0.18337387 -0.09064623
-0.19106705 -0.13874121 -0.25026503 -0.06668611 -0.09741227 0.012528997 -0.19403242 -0.17127107
-0.082566485 -0.013986509 0.0596313 -0.14468268 -0.03592901 -0.11488096 0.5439417 0.066562325
-0.0827721 0.08320221 -0.122724324 0.10691705 -0.24662185 -0.070369154 -0.077085905 0.058211576
0.10247661 -0.059793156 0.008006648 0.1727376 0.1555597 -0.07124868 0.042978298 -0.0525073
-0.16256876 0.041078486 0.1762379 0.28855237 0.06727696 -0.13638084 0.055484146 0.08328194
0.058632817 0.062748894 -0.0762021 0.0095355585 0.10015331 0.090201885 0.010240175 0.21463655
0.06266413 -0.0639868 -1.0869626 0.093320906 -1.3628399 -0.14384328 0.06974102 0.063063435
0.29740742 0.1141863 0.03614861 0.17031424 0.55083245 -0.16652739 0.0970159 -0.019761138
-0.36806655 -0.125832 -0.0429861 -0.021093177 -0.16109034 0.012793519 0.102372855 -0.028153019
-0.2679748 -0.12882078 -0.03646371 0.2506209 -0.06671203 0.17427815 -0.023844097 0.27249843
0.14692971 0.08488371 0.02654799 -0.15448326 -0.051891454 -0.18012097 0.14996877 0.10293782
0.13738838 0.20200317 0.51577115 0.14793947 -0.043693542 0.13249186 0.026113117 -0.20679156
0.07199018 0.12053538 -0.5037773 -1.2380053 -0.11232827 0.16233481 -0.0836212 -0.35856062
0.05643061 -0.045903888 0.0079547055 0.18177104 -0.09729757 -0.041976914 0.20610678 0.15385872
-0.4295177 -0.018934466 0.15782432 0.21725148 -0.073360264 -0.15210924 0.028813167 0.032281864
-0.03385161 0.033077016 0.2918988 0.24726579 -0.012313911 0.29752928 0.15103026 0.0056799543
0.22832048 -0.064582504 -0.0088485265 -0.08174224 0.14027469 -0.17816824 -0.10876131 -0.41512212
00000000: fa6d fb3e b5a1 7ebe 1c47 0b3e 1cff f23d
00000010: 87dd aa3d c370 33be 4ac4 73be e2e0 6cbe
00000020: 1c3d 89be fe0b 0c3e 5d1b 8dbc 1a70 b5bc
00000030: 7dca 043a 257d 60be 7e3d ce3c c775 97be
00000040: 8bc9 4d3e 5240 8cbe 4fd9 563e 58e6 dfbe
00000050: 704f 8cbc 569f abbe 8eee a73e a6bd 09bd
00000060: 20a6 8b3c 67e3 543e 4b2c c93d b056 08bf
00000070: 9b6d 0e3e cd59 38bd c569 3ebe 23cc 4ebe
00000080: 6dd0 e2bc 9075 103e 8428 a6bd 72c3 4f3e
00000090: 14b2 af3d 6dcd 0b3e 9931 653e 3ce9 09be
000000a0: 1465 163e 0a1a 8dbb 4d26 113e 1146 45bd
000000b0: 43d4 3e3e b16c 5abe 9b6c 8ebe 9616 d2bc
000000c0: 165f b23d b1be 4e3d ab78 b93e 4b6f be3e
000000d0: 30aa d93d 11f2 66bb c293 1bbe 88c2 99be
000000e0: 0bc3 143e f70a 0e3d b6ce d4bb d08d 00bd
000000f0: ef91 aebe c3b0 153d 62ec 95be d8e3 0cbd
00000100: 3b10 b63e 2c34 e3bd 696b dd3d a248 1c3d
00000110: 0fff 52be 199c 073e 9d3e 4d3e c34d 673e
00000120: a881 a23e d8e1 0c3e 5021 63be f33e 42bd
00000130: 3d95 393e 7a1b 883e a6b6 883e a317 9c3d
00000140: 67ed 523d 737c 4cbe 5668 8a3d ce1e 85bd
00000150: b5a4 e33d 63d5 5cbd 3469 3f3e b6ad b8bd
00000160: ebaf 41be 5dc9 1b3d d957 3f3e 54c9 02bf
00000170: 06ce 0cbd 00f4 be3d 86a5 3abe 9b08 1abe
00000180: d896 0d3e 33f7 203e 5ca0 f3bd 5663 80bd
00000190: 8613 f3bb 4b11 20be 4e8f 373e d858 223e
000001a0: de37 56be 3627 2d3e 0771 aabd a387 0abf
000001b0: f57c 0d3e a05c 0f3a 95af 91bd 1c9a 0c3e
000001c0: df2a 3f3e 74f5 35bd b34f 3dbe 3b69 d7bd
000001d0: b6ad dc3d 7a06 1fbe 5cc6 3bbe bba4 b9bd
000001e0: 15a7 43be 2d12 0ebe bd22 80be ba92 88bd
000001f0: 1680 c7bd 6c46 4d3c 6fb0 46be af61 2fbe
00000200: 9e18 a9bd ac27 65bc f33f 743d b227 14be
00000210: 4c2a 13bd b546 ebbd c33f 0b3f d451 883d
00000220: 6b84 a9bd ec65 aa3d e456 fbbd 54f7 da3d
00000230: 708a 7cbe b41d 90bd 37df 9dbd 436f 6e3d
00000240: 42df d13d abe9 74bd 512e 033c 20e2 303e
00000250: 0b4b 1f3e d4ea 91bd 030a 303d e511 57bd
00000260: 6d78 26be ea41 283d b577 343e 23bd 933e
00000270: 81c8 893d 6ba7 0bbe 5843 633d b98f aa3d
00000280: f728 703d 7e82 803d d90f 9cbd 083b 1c3c
00000290: 2e1d cd3d c4bb b83d 68c6 273c afc9 5b3e
000002a0: 0d56 803d 830b 83bd 9721 8bbf 081f bf3d
000002b0: 8a71 aebf a74b 13be 61d4 8e3d 6727 813d
000002c0: c945 983e 82da e93d 9110 143d db66 2e3e
000002d0: 5b03 0d3f 2886 2abe 46b0 c63d 1ce2 a1bc
000002e0: 3873 bcbe 1bda 00be 3112 30bd 99cb acbc
000002f0: def4 24be e89b 513c dca8 d13d 29a1 e6bc
00000300: fe33 89be 98e9 03be f95a 15bd 6251 803e
00000310: 51a0 88bd f975 323e b254 c3bc ea84 8b3e
00000320: be74 163e 83d7 ad3d 2c7b d93c dc30 1ebe
00000330: 228c 54bd a271 38be 6a91 193e 10d1 d23d
00000340: 8aaf 0c3e ebd9 4e3e 9409 043f 727d 173e
00000350: 00f8 32bd f2ab 073e 2deb d53c 2bc1 53be
00000360: 966f 933d 41db f63d 8df7 00bf f576 9ebf
00000370: 5d0c e6bd 193b 263e 9741 abbd 4295 b7be
00000380: c923 673d b705 3cbd 7454 023c 3022 3a3e
00000390: f343 c7bd fcef 2bbd a80d 533e 248d 1d3e
000003a0: bee9 dbbe 741c 9bbc b39c 213e 2c77 5e3e
000003b0: e83d 96bd 86c2 1bbe 9709 ec3c fd39 043d
000003c0: fca7 0abd c47b 073d c273 953e 3e33 7d3e
000003d0: 49c0 49bc c255 983e ada7 1a3e e91e ba3b
000003e0: d8cc 693e d543 84bd 69f9 10bc 7a68 a7bd
000003f0: 2ba4 0f3e bc71 36be 40be debd e38a d4be

lstm.bias_hh_l0 f4 [256]
0.2991866 -0.25488797 -0.030800615 0.064316824 -0.048237644 -0.13126089 -0.26485312 -0.13791972
-0.17187786 0.13060012 -0.089425415 -0.11214734 -0.14494285 -0.06358244 0.021167014 -0.19429444
0.24461165 -0.43163964 0.43985537 -0.35407704 -0.0082727345 -0.41790187 0.4425685 -0.042988293
0.032218557 0.22835338 0.020840913 -0.44854462 0.16305612 -0.016513418 -0.2175855 -0.21441877
-0.0037826016 0.10278575 -0.09489118 0.37651074 -0.13915618 0.001639164 0.11592316 0.084807344
0.012736134 0.10001091 0.07840786 -0.0048507825 0.15605849 -0.24551652 -0.32034978 -0.044185784
0.089671575 0.059395768 0.27041042 0.2687924 0.2238084 0.024071243 -0.25095916 -0.13263886
0.2919593 -0.06288225 -0.05628387 -0.08856801 -0.28975412 -0.026203807 -0.21213719 -0.17328231
0.36285397 -0.013662744 0.20763922 0.25524944 -0.05817633 -0.112188816 0.31125745 0.110921405
0.22967595 0.18825896 -0.19155651 0.0011145272 0.22885153 0.18880759 0.0824448 0.26956382
0.04560651 0.029857375 0.14470273 -0.056272116 0.043782726 -0.20758237 0.07104675 0.06730337
-0.18221858 0.13898885 0.06343353 -0.41564628 -0.088696286 -0.030306835 -0.24613243 -0.20863472
-0.060861852 0.10113147 -0.23969011 -0.07154585 0.07969194 -0.055544894 0.019356143 0.05149891
-0.16710937 0.069059804 -0.09192447 -0.38025677 0.09741971 0.18792076 -0.060801405 -0.028655974
0.06163752 -0.0608024 -0.06395397 -0.02038181 0.13437083 -0.22380836 -0.23629378 0.08914727
0.0074666436 -0.1254479 -0.19085012 0.08997308 -0.18051215 0.037866432 -0.15258586 -0.20606291
-0.037901767 -0.09337311 -0.10222787 0.035840426 0.10890392 0.041313887 0.7393881 -0.13756183
0.088869475 -0.0056460993 -0.21878687 0.07010396 -0.22136095 -0.06429236 -0.19367912 -0.07146914
0.24188 -0.12931849 0.093807355 0.039934 -0.01940218 -0.0380646 0.13811536 0.059189446
0.023618858 -0.14457348 0.19586101 0.30129224 0.022716083 0.03346783 0.011380716 0.03782122
-0.0044973535 0.13530506 -0.07568655 -0.059568368 -0.0041618017 -0.09788725 -0.20792492 0.21870436
0.1039204 -0.15554337 -0.93332976 0.09740427 -1.3477032 -0.14358228 0.038863726 0.017160041
0.3553553 -0.10379471 0.16177283 0.16822666 0.6653925 -0.094075516 -0.053709444 -0.033393558
-0.20917593 -0.021210885 -0.0823898 -0.12769186 -0.13720769 0.015975833 0.071240656 0.02638217
-0.29930654 -0.124024004 -0.112117305 0.314324 -0.026754774 0.10036459 0.075169414 0.09882299
0.024473289 0.17871116 -0.024712507 -0.02506771 0.027281824 -0.10262368 -0.0015852436 0.2374563
0.226791 -0.0021561342 0.6719062 0.10646596 -0.08630709 0.11849923 -0.014217584 -0.27167073
0.18196502 -0.036097214 -0.3471707 -1.3145175 -0.08863378 0.16364793 -0.05202568 -0.3624149
0.2073729 -0.03384867 -0.065032616 0.18389478 -0.03640233 -0.18709446 0.20573871 -0.031670853
-0.46217057 0.2040861 0.048498407 0.25060612 0.0595949 -0.24048544 0.046078328 0.00071647606
-0.07051738 -0.14348724 0.23643525 0.15929405 -0.01690456 0.25055093 0.024585277 0.11504553
0.30057022 -0.011251628 -0.14172797 -0.050142996 0.18079482 0.0030668336 0.05490415 -0.39985394
00000000: fc2e 993e ad80 82be 9251 fcbc 8ab8 833d
00000010: d694 45bd 4169 06be d49a 87be d43a 0dbe
00000020: c000 30be 0abc 053e ac24 b7bd 81ad e5bd
00000030: e66b 14be 8337 82bd 7266 ad3c 1ff5 46be
00000040: 7a7b 7a3e dfff dcbe b934 e13e 9649 b5be
00000050: 5d8a 07bc 3cf7 d5be 5798 e23e 7e14 30bd
00000060: 9bf7 033d 78d5 693e 90ba aa3c a4a7 e5be
00000070: 2ff8 263e 2647 87bc bcce 5ebe 9890 5bbe
00000080: 86e5 77bb 5681 d23d 4f56 c2bd 04c6 c03e
00000090: f57e 0ebe 38d9 d63a 1f69 ed3d 79af ad3d
000000a0: 38ab 503c 85d2 cc3d 4d94 a03d 50f3 9ebb
000000b0: cccd 1f3e af68 7bbe e304 a4be 27fc 34bd
000000c0: bba5 b73d fa48 733d 3c73 8a3e 289f 893e
000000d0: 072e 653e 0e31 c53c b87d 80be 7bd2 07be
000000e0: b07b 953e 69c8 80bd ea89 66bd 2563 b5bd
000000f0: a75a 94be 5ea9 d6bc 7e3a 59be eb70 31be
00000100: ffc7 b93e b4d9 5fbc 609f 543e 0eb0 823e
00000110: 4e4a 6ebd 40c3 e5bd 235d 9f3e c32a e33d
00000120: 2c30 6b3e f5c6 403e 6427 44be 5415 923a
00000130: 0e58 6a3e c756 413e d2d8 a83d 4504 8a3e
00000140: e4cd 3a3d 7497 f43c f42c 143e 977d 66bd
00000150: 8455 333d 7990 54be f580 913d 59d6 893d
00000160: 8297 3abe 1853 0e3e 70e9 813d 97cf d4be
00000170: 66a6 b5bd 0a46 f8bc 240a 7cbe 57a4 55be
00000180: 474a 79bd 041e cf3d 5371 75be a186 92bd
00000190: 8735 a33d 0b83 63bd c690 9e3c 85f0 523d
000001a0: b81e 2bbe 3a6f 8d3d e642 bcbd 04b1 c2be
000001b0: fc83 c73d 4d6e 403e e50a 79bd efbf eabc
000001c0: a077 7c3d f00b 79bd 4dfa 82bd c1f7 a6bc
000001d0: 8298 093e 052e 65be fff6 71be d892 b63d
000001e0: bfaa f43b 6a75 00be 376e 43be ce43 b83d
000001f0: 2dd8 38be d519 1b3d 783f 1cbe 2802 53be
00000200: e23e 1bbd 673a bfbd d85c d1bd 69cd 123d
00000210: 0509 df3d c038 293d 8a48 3d3f 02dd 0cbe
00000220: 3301 b63d ea02 b9bb aa09 60be aa92 8f3d
00000230: 72ac 62be b6ab 83bd d253 46be 6a5e 92bd
00000240: 64af 773e 116c 04be 121e c03d d591 233d
00000250: 52f1 9ebc a0e9 1bbd 1d6e 0d3e a270 723d
00000260: 567c c13c 120b 14be ca8f 483e fa42 9a3e
00000270: 1417 ba3c 9015 093d 2f76 3a3c 6cea 1a3d
00000280: 895e 93bb 698d 0a3e 8d01 9bbd f6fd 73bd
00000290: b95f 88bb 1c79 c8bd 45ea 54be 09f4 5f3e
000002a0: 38d4 d43d c346 1fbe b3ee 6ebf e47b c73d
000002b0: 8a81 acbf 3c07 13be 922f 1f3d 3793 8c3c
000002c0: 21f1 b53e 5292 d4bd c7a7 253e 9c43 2c3e
000002d0: 2a57 2a3f aaaa c0bd 6ffe 5bbd afc7 08bd
000002e0: 3732 56be 73c2 adbc fcbb a8bd a8c1 02be
000002f0: 2c80 0cbe c0df 823c 9fe6 913d 6c1f d83c
00000300: b53e 99be 4c00 febd c29d e5bd 13ef a03e
00000310: d42c dbbc f38b cd3d 6cf2 993d b563 ca3d
00000320: 357c c83c 0f00 373e e271 cabc cc5a cdbc
00000330: 227e df3c 5d2c d2bd f3c7 cfba bf27 733e
00000340: e63b 683e ee4d 0dbb 0b02 2c3f d30a da3d
00000350: c6c1 b0bd b9af f23d dff0 68bc 6d18 8bbe
00000360: 0a55 3a3e acda 13bd 5cc0 b1be 1c42 a8bf
00000370: a185 b5bd 5393 273e e118 55bd 728e b9be
00000380: 9059 543e e7a4 0abd d22f 85bd ea4e 3c3e
00000390: 9c1a 15bd b195 3fbe 2bad 523e 4cb9 01bd
000003a0: 9fa1 ecbe f2fb 503e 44a6 463d 724f 803e
000003b0: c819 743d d141 76be a1bc 3c3d e5d1 3b3a
000003c0: 6b6b 90bd 52ee 12be 151c 723e fb1d 233e
000003d0: 6f7b 8abc 3648 803e 1067 c93c fe9c eb3d
000003e0: 57e4 993e c058 38bc 2321 11be be62 4dbd
000003f0: 4722 393e eefc 483b 2de3 603d a8b9 ccbe

fc.weight f4 [1, 64]
-1.2977929 0.45709828 0.1566555 2.0723257 -0.048939437 0.19062546 -0.25977087 -0.17558467
0.1604782 -1.8124537 2.8995368 -0.12901078 -0.04059225 1.1342083 -0.013722781 0.61052644
-0.73074985 -0.32105437 0.2394354 -4.317636 0.4003719 -0.6554379 -1.7290212 0.16233714
-0.6723216 -0.017506618 0.7913616 -16.212482 -0.11543347 -0.034216456 0.81852126 -1.9199442
0.33941674 0.16239613 -0.86137134 -0.5467717 0.0021595159 0.2415786 -0.56046414 -0.20420764
0.2470585 1.5201476 1.0409623 5.261952 2.467749 -0.1208331 -0.21054071 0.049108043
-0.09058162 -0.003822681 1.017132 -1.3688507 1.0485303 -0.48474813 -0.747848 -0.25538495
-1.3713474 0.08712226 -0.000999964 -0.0791426 -0.29901806 0.21426618 0.18137291 -0.6599714
00000000: 141e a6bf c908 ea3e 4d6a 203e fca0 0440
00000010: b874 48bd 5233 433e b000 85be 78cc 33be
00000020: 6654 243e 7cfe e7bf 0392 3940 671b 04be
00000030: 0f44 26bd bd2d 913f 84d5 60bc 764b 1c3f
00000040: 6c12 3bbf 3d61 a4be 8e2e 753e 132a 8ac0
00000050: 8cfd cc3e c7ca 27bf 9150 ddbf b53b 263e
00000060: 451d 2cbf 0a6a 8fbc ac96 4a3f 2ab3 81c1
00000070: 6268 ecbd 8e26 0cbd 9c8a 513f bbc0 f5bf
00000080: 08c8 ad3e 2c4b 263e d582 5cbf 3bf9 0bbf
00000090: aa86 0d3b 6160 773e 947a 0fbf cf1b 51be
000000a0: e7fc 7c3e 3294 c23f 413e 853f e961 a840
000000b0: 9aef 1d40 5877 f7bd fc97 57be 8425 493d
000000c0: db82 b9bd f285 7abb 6231 823f 8036 afbf
000000d0: 3e36 863f e830 f8be f772 3fbf d1c1 82be
000000e0: 5088 afbf 286d b23d 3911 83ba 8415 a2bd
000000f0: e518 99be 9868 5b3e d2b9 393e e3f3 28bf
