Testbed/PipelineTestDU/PipelineScripts/Models/best_model_extended_heuristicjul_tr.2.40.pth (torch, 474718 bytes, 29 tensors)

norm.weight f4 [6]
00000000: 0000 803f 0000 803f 0000 803f 0000 803f
00000010: 0000 803f 0000 803f
1.0 1.0 1.0 1.0 1.0 1.0

norm.bias f4 [6]
00000000: 0000 0000 0000 0000 0000 0000 0000 0000
00000010: 0000 0000 0000 0000
0.0 0.0 0.0 0.0 0.0 0.0

transformer_encoder.layers.0.self_attn.in_proj_weight f4 [18, 6]
00000000: 227c b93e e56b 76be f4cc 73be b152 ecbe
00000010: 2e73 b23e 546f e1bc 1fde dfbe d7c6 90be
00000020: a677 f73e eb31 faba ed0f 1b3d 875a 69be
00000030: dc9e dbbe f37d 50bd 1a63 77be af28 993e
00000040: 99aa 0dbb b4b8 bcbd 29f9 b3bd 94fb 70be
00000050: 5f6a e93e 7fba f93e f631 663e 407f b4be
00000060: fae2 4dbe 7519 04bf a399 6bbc 897d b8be
00000070: 562d 683e c440 f4be 40b3 c4be bfcc 333e
00000080: c098 b23e 0011 b9be 5591 01bf c9c8 b8be
00000090: 1108 f8be c40c ccbe 7ae4 71be b8f6 c13e
000000a0: 350b 133d 7769 dabc 324b ac3e 487a d7be
000000b0: 2557 aebe 9c35 18bd 06b2 0a3d a4b9 213d
000000c0: 5097 e4be 172a ee3e 5c96 7cbe ceb6 b8be
000000d0: e5d0 aebe 65da 53bd ec11 adbe 5f0d 4abe
000000e0: c0ce 56bc 3060 7e3e af48 ccbd ee62 033f
000000f0: a6b7 0b3e 1ab6 573e 0bf7 a4be a311 ae3e
00000100: 1b66 bf3e ef50 4a3e 62b6 e7be eddf e33e
00000110: 5f07 ba3e 059f 0fbe 1d40 d2bd e10b 9bbe
00000120: 8996 e03e 55c9 4ebe 6fa0 8fbe f966 bd3e
00000130: 2488 19bf 2dd9 90be c2ce 00bf 170e aabe
00000140: 42fc 8c3e 522a bc3e bf98 043e 6a90 04be
00000150: 13fa 833f 5cdc f9be c4cd 1fbf 637f aa3e
00000160: 0590 0fbe 4ea1 b3be dc98 913f 21c1 b9be
00000170: 38c1 133f 582b f6bd 87d7 f43c 5f77 afbe
00000180: ff34 8a3e cf14 a8bd 2985 4abe 34e8 cfbe
00000190: 1a8a 45be 7b5c 0ebf ae49 ab3f f11f fe3e
000001a0: 88dc 1c3f 2d71 f9bd 3c56 b63d c041 25bf
0.36227518 -0.24064596 -0.23808652 -0.4615684 0.348535 -0.027518906 -0.43724152 -0.28276703
0.48333472 -0.0019088363 0.037856985 -0.2278844 -0.42894638 -0.050901365 -0.24158898 0.29913852
-0.0021616577 -0.09214917 -0.08787758 -0.2353347 0.45588967 0.48775098 0.22479996 -0.35253334
-0.20106116 -0.51601344 -0.014379892 -0.36033276 0.22673544 -0.47705662 -0.38418007 0.17558573
0.34882164 -0.36145782 -0.50612384 -0.36090687 -0.48443654 -0.3985349 -0.23622313 0.37883544
0.03589936 -0.026661618 0.3365112 -0.4208548 -0.3405086 -0.0371605 0.033861183 0.03948368
-0.44646692 0.46516487 -0.24666733 -0.3607697 -0.3414375 -0.05172195 -0.33802736 -0.19731663
-0.0131108165 0.2484138 -0.09974801 0.5132283 0.13644275 0.2106556 -0.3221973 0.3399783
0.37382588 0.19757436 -0.45256335 0.4450678 0.3633375 -0.14025505 -0.10266135 -0.302825
0.4386485 -0.2019399 -0.2805209 0.36992624 -0.5997336 -0.28290692 -0.5031549 -0.33213875
0.27536207 0.36751038 0.12948893 -0.12945715 1.0310692 -0.48800933 -0.6242335 0.33300313
-0.14019783 -0.35084003 1.1374774 -0.36280158 0.57716703 -0.12019986 0.029887928 -0.3427076
0.26993558 -0.08207094 -0.19777359 -0.40606844 -0.19290963 -0.55609864 1.338186 0.49633744
0.61274004 -0.1217979 0.08903167 -0.6455345

transformer_encoder.layers.0.self_attn.in_proj_bias f4 [18]
00000000: e41d b63d fe53 053d 9863 273c 3c85 28bc
00000010: f354 58bc 3794 5fbb 6630 38be d490 093d
00000020: 0d28 293e 274d 353c 186b 98bc 6f58 51bc
00000030: 81b9 eabd 1d62 9a3e b697 77be c463 353e
00000040: 8c21 1cbe 75a8 303e
0.0889242 0.032550804 0.010216616 -0.010285672 -0.013203847 -0.0034115443 -0.17987213 0.033585384
0.16519184 0.011065758 -0.018605754 -0.012777432 -0.11461163 0.3015298 -0.24178967 0.17713839
-0.15247172 0.17251761

transformer_encoder.layers.0.self_attn.out_proj.weight f4 [6, 6]
00000000: 9b65 e2bc dbdf 74be 5964 9c3e 5414 9cbe
00000010: 9c1c bcbe a7fb a7bd d0db 3c3e f3e3 283e
00000020: ffe2 d33e 49f1 d2bc 2970 ec3d 6c62 2cbd
00000030: 0cca a0be 781f 9c3e 3d51 303e 9782 be3d
00000040: 4a66 aa3d cdcc 90be 7357 adbe 27bd 133e
00000050: 3ab9 d33d ff99 b33e 1ef3 65be 689f d73e
00000060: eff9 28bd 4b26 a7be 7faa a93e 4c02 62be
00000070: 9c49 d83d 9740 f5be 78d3 9ebe 6f06 963d
00000080: a80a 753e 9163 a13e dd8d 1e3e b6bf 2d3e
-0.02763634 -0.23913519 0.3054531 -0.3048426 -0.36740577 -0.08202296 0.18443227 0.16493206
0.41384122 -0.02574982 0.1154483 -0.04208605 -0.3140415 0.3049276 0.1721849 0.09302252
0.08320291 -0.2828125 -0.3385578 0.14427625 0.103380635 0.35078427 -0.22456023 0.42113805
-0.04125398 -0.32646403 0.3313789 -0.22071189 0.10560915 -0.4790084 -0.31020713 0.07325446
0.23929846 0.31521276 0.15483804 0.16967663

transformer_encoder.layers.0.self_attn.out_proj.bias f4 [6]
00000000: caaa ccbd cfde 0cbe 325d 2b3f ef76 fd3b
00000010: 2134 3dbf b2e9 83bd
-0.09993513 -0.1375687 0.6693908 0.0077351253 -0.7390767 -0.06441058

transformer_encoder.layers.0.linear1.weight f4 [2048, 6]
00000000: a21d 15be e818 96be dc94 b9be 3256 573e
00000010: e9dd 363e aafd 6f3e 1a67 79be b38e 7bbe
00000020: fbbb 82bd 3b37 113c 015c 6e3e 2dba 9d3e
00000030: c258 a6bd 33f2 97bc 4f7a 54be 71f3 c7be
00000040: 2f83 bc3e 9452 1bbd f90f 00be d2df 3cbe
00000050: 18c4 8bbe 5971 aabe 39c3 0b3f 68cc c3bd
00000060: 0b14 d1be 6227 463e 63c7 e9be 49c6 e4bc
00000070: 4052 873e 1356 9f3e da63 44be ec5e bb3d
00000080: 23d9 92be 882d c93d 6f0d 7ebe 3d15 72be
00000090: 0d17 c8be 6261 d33e 7244 8a3d 8e13 223e
000000a0: 6926 2d3e 27c9 0fbe 1a29 cfbd d1f8 a8be
000000b0: 0244 80be 3d54 1f3d d1cb 343c 071f 9d3e
000000c0: 1408 a23e ab7d fa3e 4aa2 073e 2c3d 86be
000000d0: 4af9 d63e d368 aa3e e40c a03e d2cb 7dbe
000000e0: bdce dcbe a165 27bd 51ec 12bf 5edf fc3e
000000f0: 7088 af3e c7d7 8cbe 937f 473e 295a 0d3e
00000100: dd7a c83c 8351 0b3e 6cb1 7b3e 6877 26be
00000110: 320a 283f 31bf b1bc a6d2 e5be e941 08bd
00000120: c319 a2be b6c1 093e dede 5d3d 941a 7abe
00000130: 4c01 f83c 003e 81be 0baa 423e 197b f7bd
00000140: d208 1f3e 3375 4e3e d08e b63e 2def a7bc
00000150: 344b 1ebd 767b 0f3e 421f a6be 9f8e 19be
00000160: fdd5 1b3f d5a8 373d dd54 ca3d 85d7 b9be
00000170: abb8 083e aec1 353c d46f d83e bd01 acbe
00000180: d625 93be 0c14 37be 5471 50be 322e 86bc
00000190: 2b93 cbb9 362f 9bbe 4d62 a9bd e3be 9d3d
000001a0: 6640 953e 605a 1bbe a4ec e53e ced5 4bbe
000001b0: da53 90be 6575 49be 2413 953e e291 b2be
000001c0: 6ddc 86bd 9503 07be 53cc 3e3e fafe 053f
000001d0: 3db9 003f 7d46 3d3e c881 b6be 4bd4 a93e
000001e0: 7bdd b7bc feeb b83e 0cf4 e13d 35ab 5a3d
000001f0: bd8c 84be 7366 dabd 343c a7be eae3 b93e
00000200: a767 d4be 7679 cbbd 0176 7c3d 6d94 9cbe
00000210: 25bb cabe 6538 abbe 9bee 5bbe a272 dfbd
00000220: 5e57 f23b b18a b93e b8c1 073e 7b9b 443e
00000230: cc7d 603e ca6f fcbe fa78 0abe 455e 853e
00000240: 52e0 893e b4de 6c3e 2de1 4d3d 23ea d7bd
00000250: 4cae 86be 9456 b03d 1daf 003e 2ecd 58bd
00000260: 46ce 8e3e 3113 433e 835f 193e 296e 5dbe
00000270: 168c a8bd a89e d13d 3e9b 0bbe f178 8cbe
00000280: 0fe3 193f de9e ebbd df9e da3d 6732 81be
00000290: af8a 91be b5ac 693e dca7 fcbc 96ab 62be
000002a0: a023 383e cc12 3abd e543 523d d5eb 203e
000002b0: 5c9a b33c 5961 2f3e 6d60 6b3e 0416 83be
000002c0: 326b c43d 078e 0fbf 4793 8b3e 4c79 003f
000002d0: 044d e0be 72cc 51ba e58e 65be 488a 833e
000002e0: 9004 23be 87b7 f4bd 760c 9ebe 7fbc 843e
000002f0: a4b5 58bd 88e4 853d 2ac2 c2be c49a a13e
00000300: 6973 213e 311a bb3e 9ed3 bd3d 6a5e 3b3e
00000310: 0b3c eb3b d879 0abe 3383 84be 9d48 44bd
00000320: 60c1 7abe f972 7b3e 7dd7 e13e a22e 21be
00000330: a2a7 1b3e 2edd d03d 736f f2be 3f00 92be
00000340: 7917 f8bd be73 ed3e 9250 b4be 5186 95be
00000350: 6562 133e 0bdb eebd c4d6 253e 2923 9b3d
00000360: bd05 babe 4f6a 123e 3a2d b5be af5a 693e
00000370: b600 cb3d fb26 59bd 382a fabc 3018 74be
00000380: 6c47 483e e24b 573e 16bb c43e 06ec abbc
00000390: 8050 85be ec77 6ebe eae5 1b3f 62b7 80be
000003a0: be9e 81be 9585 04bf 2e73 0d3d 6af6 f6bd
000003b0: dffe 25be b73d 8ebb 7a40 3cbd 0dd9 0e3e
000003c0: 1fa7 9a3c ed20 bc3d 18ef f9be d7e2 97be
000003d0: d722 fd3e 4ab7 843e 69d0 df3d 0b29 31be
000003e0: 6c19 90bc 2a21 47bf 6bc7 41be a846 493e
000003f0: 1c70 9d3e 1fb7 603d d27a 953c 12bc b73d
-0.14562085 -0.29315877 -0.36246383 0.21028975 0.1785809 0.23436609 -0.24355736 -0.24566154
-0.06383511 0.008863266 0.23277284 0.30806103 -0.08122398 -0.018548107 -0.20749782 -0.3905292
0.36818835 -0.03792055 -0.12506093 -0.18444756 -0.27298045 -0.33289602 0.5459476 -0.09560472
-0.40835604 0.19350961 -0.45659932 -0.027926581 0.2642994 0.31120357 -0.19178715 0.09148964
-0.28681287 0.098231375 -0.24809812 -0.23640914 -0.39080086 0.41285235 0.06751336 0.15827772
0.16909184 -0.14041577 -0.101152614 -0.33002332 -0.25051886 0.038898695 0.011034922 0.30687734
0.31646788 0.48924002 0.13245502 -0.26218545 0.41987067 0.332831 0.31259835 -0.24784783
-0.4312648 -0.040868405 -0.5739184 0.49389166 0.3428378 -0.27508375 0.1948226 0.13803925
0.024472648 0.13605313 0.245794 -0.16256487 0.65640557 -0.021697612 -0.44887275 -0.03326598
-0.3166028 0.13452801 0.05416762 -0.24424201 0.030274056 -0.25242615 0.19010179 -0.12084026
0.15530708 0.20161895 0.35655832 -0.02049979 -0.038645938 0.1401194 -0.32445723 -0.14995812
0.60873395 0.044838745 0.09879468 -0.3629724 0.13351695 0.01109354 0.42272818 -0.33595076
-0.28739804 -0.17878741 -0.20355731 -0.01637945 -0.00038828826 -0.30309457 -0.082707025 0.077024244
0.29150695 -0.15171194 0.44907105 -0.19905779 -0.28188974 -0.19673689 0.29116166 -0.34876925
-0.06585012 -0.1318496 0.18632631 0.5234219 0.5028265 0.1848392 -0.3564589 0.3316978
-0.022444477 0.36117548 0.11032876 0.053385932 -0.25888625 -0.10664072 -0.3266312 0.36306697
-0.4148533 -0.09935276 0.061635975 -0.3058199 -0.39595905 -0.33441463 -0.2147774 -0.10910536
0.007395669 0.36238626 0.13257492 0.19199936 0.21922988 -0.49304038 -0.13522711 0.26048484
0.26928955 0.2313183 0.050263572 -0.10542705 -0.26304853 0.086102635 0.125668 -0.05293005
0.2789175 0.1905029 0.14977841 -0.21624054 -0.08229844 0.102353394 -0.13633439 -0.2743602
0.6011209 -0.11504911 0.106748335 -0.25233766 -0.2842612 0.22819789 -0.03084176 -0.22135767
0.1798234 -0.045428082 0.05133428 0.15714963 0.02192419 0.17126979 0.22986002 -0.25602734
0.095907584 -0.5607609 0.272608 0.50185084 -0.43808758 -0.0008003182 -0.22417791 0.25691438
-0.15919709 -0.119490676 -0.30868882 0.2592506 -0.0529076 0.065377295 -0.3803876 0.3156339
0.15766682 0.3654342 0.092688784 0.18297735 0.0071787885 -0.13523042 -0.25881347 -0.047920812
-0.24487829 0.24555577 0.44109717 -0.15740445 0.15200666 0.10198437 -0.47350654 -0.28515813
-0.12113852 0.46377367 -0.3521772 -0.29204038 0.14393003 -0.11662873 0.16195208 0.07575066
-0.36332503 0.14298366 -0.35386068 0.227885 0.09912245 -0.05301569 -0.03053771 -0.23837352
0.19558495 0.21025041 0.38423985 -0.020986568 -0.2603798 -0.23287934 0.60897696 -0.2513991
-0.25316423 -0.5176633 0.034533672 -0.120587185 -0.16210507 -0.004340853 -0.045959927 0.13949986
0.018878518 0.091859676 -0.48815227 -0.29665253 0.49440643 0.25921088 0.10928423 -0.17300813
-0.017590247 -0.7778498 -0.18923728 0.1965586 0.30749595 0.054862138 0.018247042 0.089714184

transformer_encoder.layers.0.linear1.bias f4 [2048]
00000000: ac6a 5ebe 3a66 ae3e c17b fe3d f34c d7bc
00000010: e84e 91bc 07ef 2bbd 05ae 513d d531 febc
00000020: 86b1 803e 76f9 24be 5139 523e e3a1 babe
00000030: 95dc 923e c6fe 51be cd14 3c3d 958f 33be
00000040: 7cfe 57bd 2810 c53e ce33 083c 7b2f 84be
00000050: fcd0 65bd 82a9 0dbe e1ce d73e 7991 7c3d
00000060: 9b7d a13e 2977 b8be 9d01 783b ffcc 93be
00000070: 292d 8fbd 5aec 92be b49f b0bd 0bfb 4bbd
00000080: 83d3 bbbe c97d 67be 5ee9 73be efe3 94be
00000090: c56c d3be 25a4 863e c55b e6bd 6ec0 aabc
000000a0: c1a7 823e 52aa 52be 8b34 6a3e b565 4e3e
000000b0: 4904 3b3c 8756 a13e a023 4d3e b12a f03d
000000c0: 2e99 9bbd 1fb8 0dbe 14a5 a6be 3653 0fbe
000000d0: 3079 5f3e 7f5f 20be fe8e 843e f877 1b3e
000000e0: ff9b 52be 5770 74be 32ec 35be de7c d53d
000000f0: 4ad2 28be 5901 7cbe 05ca 973e bbb8 b7bd
00000100: 55a6 6c3e 105b 5e3e ef53 483e cd15 963d
00000110: 1952 90be c3d8 203e b10a 56bd 5486 febd
00000120: fa75 a73e d4e4 20be 7404 7dbd 051d 3a3e
00000130: 8ee0 6a3e 20b2 853d 40a3 43be dd3c 923e
00000140: 8ecb 933e 83cb 3fbe d1e6 0c3e 9b82 45be
00000150: ac4c 65bd e267 e8bd 7e72 87bd 0e4c 333d
00000160: 08e3 873e 20c3 ce3c 3327 4fbe de1e 9bbe
00000170: cb01 66be b6e2 bfbc 8112 d43e 50b1 86be
00000180: cafb 23be 288a bdbe 6266 843e f553 e2be
00000190: a21b 8a3e 1987 803e 84e9 833e 3289 8c3d
000001a0: 40f2 24be b8d3 c43e 7df1 5b3e b62a 86be
000001b0: e362 8fbe a38f 92be 1a94 413d 528b 71be
000001c0: 5688 ec3d dcff abbe b285 c53c b79c e53c
000001d0: e34f 423b 0ee4 3abe 7c61 66be bf39 3d3e
000001e0: 0ea2 c43e c3d9 a2bd 521f 7cbe 17ba 8dbe
000001f0: d3d7 e13d 9c30 1cbd b081 a63e dc19 48bc
00000200: a632 b93e 3fee 9cbd 7006 56be 2d04 d3be
00000210: e298 903b 11c4 88be 8315 833e 1054 a9be
00000220: 118a 7e3d 3fc6 423c 8d75 c53e 76df 5c3c
00000230: 05b9 473e 10c0 3c3e f4b7 bebe e0d4 09bd
00000240: fad4 103e 27e6 e1bc ff26 eb3c 4508 b03e
00000250: 1214 fa3d d6a5 fb3c 166e 4f3e ffc2 b13e
00000260: e347 903e 1e43 8dbe e3b8 9cbe 41cf 1bbd
00000270: 070d a83e 6052 fabc 8e1e 0cbe 1472 9b3d
00000280: f4dd 8fbe ea6c a5be 779e a93e 7743 333e
00000290: ceba 1cbd be9b 213e ab5c 93be b0c0 833e
000002a0: 08e9 763e b6e2 02be b47a 83be 7b9a d83d
000002b0: 8ac6 913e 92e2 02be 4d6d 02be ccdb d33d
000002c0: ebfe c6be bc10 40be f2d5 1dbe f04a 863e
000002d0: 64d9 473e a10e 0c3e 516b 0fbe b90a 97be
000002e0: aef0 c33d e497 36be 1507 a4bd c11e f7bc
000002f0: 93ea f2bc 260e 3a3e 7260 b7be d666 4bbe
00000300: 6e79 403e 1e97 88be a073 61bb 4aa9 b73e
00000310: fdc1 af3d aa6e d6be 472b 6dbe 54d1 54bd
00000320: 6e28 663e b8d9 663e ba9a c03d cd1d f2bd
00000330: c270 c63e bf67 90bd 3f07 883e f805 9abe
00000340: 4a1e 4d3e af6d 323d 1903 b93d 9920 b43d
00000350: 8302 803e 4a4c 45be 4e4f 913d c466 63be
00000360: 0e89 d33d 39fa d93e 8466 a73e aeb0 9c3d
00000370: dd51 60be e407 c8be 2af5 a83e be20 afbe
00000380: 5655 303e 1eb7 89be 6052 003e cff4 00be
00000390: 99ff 1bbe 53bc fcbe d677 ac3e 4878 853d
000003a0: 909e 4b3e b765 e5bd 8615 2f3e bb9e 8d3d
000003b0: ab22 113e fcd4 413e 3fa8 81be b157 ebbc
000003c0: 04ff f4bd a366 84be d3d3 5cbe 184d b63b
000003d0: 179c 503e e75f eb3e efed 13be 7be4 2dbe
000003e0: cb8c 813e 9ac8 bc3e 7cbf 97bd b2af 7d3e
000003f0: dd78 77be 95c7 8bbe 1282 07be 484e e8be
-0.2172038 0.34062368 0.12425948 -0.02628181 -0.01773782 -0.041976 0.05119135 -0.031029621
0.2513544 -0.16110787 0.20529677 -0.36451635 0.28683916 -0.20507345 0.045918275 -0.17535241
-0.05273293 0.3848889 0.008313132 -0.25817475 -0.056107506 -0.13834193 0.42150024 0.06166217
0.31541142 -0.36028412 0.0037842758 -0.28867337 -0.069910355 -0.28695947 -0.08624211 -0.04979996
-0.36684808 -0.22606577 -0.23819491 -0.2908015 -0.41293922 0.26297107 -0.112479724 -0.02084371
0.2551861 -0.20572785 0.22871606 0.20155986 0.011414596 0.31511328 0.20033121 0.11726893
-0.07597576 -0.13839768 -0.3254782 -0.13996586 0.21823573 -0.15661429 0.25890344 0.15182483
-0.2056732 -0.23870979 -0.17765883 0.10424207 -0.16486469 -0.24609889 0.29646316 -0.089707814
0.23110326 0.21714425 0.19563268 0.07328377 -0.28187636 0.15707688 -0.05225629 -0.12427965
0.32707196 -0.15712291 -0.061771825 0.18175133 0.22937223 0.06528115 -0.19105244 0.2856206
0.28866237 -0.18729977 0.13759924 -0.19288103 -0.055981323 -0.11347939 -0.066136345 0.043773703
0.265404 0.025239527 -0.20229797 -0.30296987 -0.22461621 -0.023423534 0.41420367 -0.26307154
-0.16014019 -0.37019467 0.25859362 -0.4420468 0.26974207 0.2510307 0.25764096 0.068621054
-0.16108036 0.3844278 0.21478839 -0.2620446 -0.28005132 -0.2862521 0.04726038 -0.23588303
0.115494415 -0.33593643 0.024111602 0.028028829 0.0029649667 -0.18251058 -0.22498125 0.1847906
0.38404888 -0.07951691 -0.24621323 -0.27681038 0.11027493 -0.038132295 0.3252082 -0.012213197
0.36171454 -0.07662629 -0.20900893 -0.41214123 0.0044127563 -0.26712087 0.2560235 -0.33071947
0.06214339 0.011888086 0.38566247 0.013481012 0.19504173 0.18432641 -0.3724972 -0.03365028
0.14143744 -0.027575566 0.028705118 0.3438131 0.12210859 0.030718725 0.20256838 0.34719083
0.28179845 -0.2759027 -0.30609807 -0.03803945 0.3282244 -0.030556858 -0.1368353 0.07590118
-0.28099024 -0.32309657 0.33128712 0.17506205 -0.03826409 0.15782067 -0.28781638 0.25732946
0.24112332 -0.12781796 -0.25679553 0.1057634 0.28471786 -0.12781742 -0.12737007 0.10344657
-0.38866362 -0.18756384 -0.15413645 0.26229048 0.19516522 0.13677455 -0.14005782 -0.29500368
0.095673904 -0.17831379 -0.08009163 -0.030166032 -0.02965287 0.1816946 -0.3581577 -0.19863448
0.18796322 -0.26677793 -0.0034401193 0.35871345 0.08581922 -0.41881305 -0.2316104 -0.051957443
0.2247636 0.2254399 0.09404512 -0.1182209 0.38757902 -0.07051038 0.26568028 -0.3008268
0.20031086 0.043561634 0.09033794 0.0879528 0.25001916 -0.19267383 0.07095204 -0.2220717
0.103288755 0.42573717 0.326954 0.076508865 -0.21906228 -0.3906852 0.32999545 -0.34204668
0.17220053 -0.2689752 0.12531424 -0.12593387 -0.15234222 -0.4936243 0.33685178 0.065170825
0.19884706 -0.11201041 0.17098054 0.06915041 0.14173381 0.18928903 -0.25323674 -0.028728338
-0.11962703 -0.25859556 -0.2156518 0.0055633895 0.20372044 0.45971605 -0.14446233 -0.1698169
0.2530273 0.36871797 -0.074095696 0.24774054 -0.241672 -0.27300707 -0.13233212 -0.45372224

transformer_encoder.layers.0.linear2.weight f4 [6, 2048]
00000000: a03e bcbc 5d29 fdbc 1c14 8fbe e952 00bf
00000010: 0ae3 d63d f3f6 a73b d776 70bc bff3 013d
00000020: 2aa0 60be 2a86 673e d27f 1c3c c280 5bbe
00000030: eefa f93d 4c38 963d fb95 2ebf 830a b93d
00000040: 4405 463b 3d8f 393e 401c 0abd 7aab dd3d
00000050: 5413 1fbd a59b 9cbc e429 59bd 4c25 0f3e
00000060: fc1e ef3c 6a81 a73b 8dca 1fbf b692 83bc
00000070: aeeb 52bb 4047 4d3e cfcf d8bc b9ef 133e
00000080: f866 f2bc 4c5e 25ba 0658 6ebd 559e 9e3d
00000090: 9c36 b7bb 2b96 57bc caa6 3dbe 3bca 35bc
000000a0: 952b 2cbe 1a6b 883e 7683 a6bb 44f3 d53d
000000b0: 18ba d23b 75e9 2d3a b2a0 2bbb 37de 99bc
000000c0: 8c26 a53d 3e2f 393d 1f2a 4abc 1093 01bd
000000d0: b9fe d13b 7ebc a6bb 5a86 e63c 42f0 4cbe
000000e0: f535 083e 846e b93e ba1b 9c3c d7fe 4bb9
000000f0: 71c0 6e3e 0ebc 073e b74f 57bb 5454 883d
00000100: 361a 273c 0194 29bc b40d d63c b5cc dd3c
00000110: 90aa 2f3b 978b d2bc 9cf7 83bd ef6a 94bd
00000120: edc1 ab3d de0f 15bd 8276 1cbd 4996 96bd
00000130: 7af1 83be ec32 49bd e773 ac3d 02fc f0bd
00000140: c625 043d 6640 94ba b4d0 363e 974f 3d3d
00000150: 2e0b e0bd b2f0 e33b 3e6e 9f3d d392 cc3d
00000160: 3611 703c 9950 63bd c58c b9be b2b0 ca3d
00000170: 8814 493c 5204 b43e c9c7 0bbf 64dd 103e
00000180: 0ee3 cbbb c065 8c3e 513b a5bc 882d eebb
00000190: 3381 253d 792a 5abc c983 273c 5b38 9bbc
000001a0: 38b8 3a3b 37e9 c33c 1efa a43b 576c e9bd
000001b0: 4733 92bb a2d1 d33d 2623 463c 3a70 34bf
000001c0: d7d7 333e eb3c 8ebc 5880 d33d ea4c d8bb
000001d0: 6352 a33e 620e cfbc 4dba 053b c297 1e3c
000001e0: fb14 a73d 3164 2f3c adfc 093c 445e 1f3e
000001f0: 2dce dcbb 85d4 be3d 66db 0e3c 9896 a63d
00000200: bad6 2a3e dd43 bb3d 6d4a 9f3b ba61 b7bc
00000210: b9ad f83d ee8d 943c 1fde 13bc fbfa a33c
00000220: 3c06 b13d 0b35 2dbc 40a5 9b3b d28f 6c3d
00000230: dba8 84b9 f9fc 773d 18db 6c3e 51ce 9c3d
00000240: 6aef 21bc 886e 703b 4902 a3bb d509 55bc
00000250: 453b ae3c fb81 eabe 4702 23be 4567 d13b
00000260: 7e49 77bb 45e0 843d a089 52bc be5c e53c
00000270: e367 183d 5bb8 fbbd e6af d4ba 0782 c63c
00000280: f8a6 be3d 2130 a53d e5c4 a8bd f468 8fbd
00000290: c6d7 a53d 6e95 bd3d 9825 8abc f84e 6fbe
000002a0: 5a77 8b3d 9879 28bc 7573 6a3c 66e1 04bd
000002b0: d1ac b1bc 2f55 0a3c 6221 cf3d 3a1d 6bbc
000002c0: 9529 6d3e 7bb9 60bc 344b 23be addb 62bc
000002d0: 5516 913b 5d8c 24be c21b 94bc c4e8 e4bc
000002e0: 19f2 a7bb cce5 cebb 51e0 9c3b 4515 34bf
000002f0: 49d6 93bd 1ecf 3e3d f542 883b a264 1b3e
00000300: c547 1cba 42b4 a93c dfe8 9b3b 0018 be3d
00000310: 28c1 07bb d3b7 50bc 30b7 92be 2013 82bc
00000320: d20a d53d 696d 8bbc 004d 3b3e 0e71 28bc
00000330: 6bc8 7abe d996 ae3d 0f6e 4d3d cf6d dcbd
00000340: ec6f 053e 4a75 343d 5083 0d3c c985 4ebc
00000350: a7a6 263e fd72 843c fc9f 773c 3370 9c3c
00000360: 79d5 833c defa 603d ee28 90bc 52a1 90bc
00000370: 6bb8 41ba 8729 bbbd 061a b43d a394 303d
00000380: 4485 57b9 3921 00bb 7dec c5bc b724 063c
00000390: 66c4 60bc a72e 1abe 9f60 d6be e460 6a3e
000003a0: 65c4 16be 8a4c fa3d 750c c1bc 3ca1 2c3d
000003b0: f860 bf3d 1d2e 69bc 9901 08bc 821e ffbc
000003c0: 116b 9b3d 25fc 4d3c 0e8c 4dbd d94d 123e
000003d0: fdee 113b 57de 3ebe e39b 57bc bc73 abbc
000003e0: f877 8d3e 34b2 4bbe b481 ba3d 661e 6fbc
000003f0: fb79 6abc 66f3 dabc 825a 6c3e a7ed 463c
-0.02297908 -0.030903513 -0.2794503 -0.5012651 0.10492523 0.005125874 -0.014676771 0.031726595
-0.21936098 0.22609773 0.009551959 -0.21435836 0.12206064 0.073349565 -0.681976 0.09035208
0.003021554 0.18121047 -0.033718348 0.10823722 -0.038836792 -0.019117186 -0.053018466 0.13979071
0.02918958 0.005111863 -0.6241844 -0.016061168 -0.0032183933 0.20046711 -0.026466278 0.14446916
-0.029590115 -0.0006308302 -0.058189414 0.07745043 -0.0055912267 -0.013158361 -0.18520656 -0.011095579
-0.168135 0.26644212 -0.0050815893 0.1044679 0.0064308755 0.0006634214 -0.0026188311 -0.018782718
0.08063993 0.04521107 -0.012339144 -0.03163439 0.006408539 -0.005088388 0.028140236 -0.20013526
0.13301833 0.3621713 0.01905619 -0.00019454524 0.23315598 0.13255331 -0.003285391 0.06656709
0.01019912 -0.010350228 0.026129581 0.027075151 0.0026804544 -0.025701327 -0.06443712 -0.072469585
0.08386598 -0.036392085 -0.038198955 -0.07352883 -0.2577017 -0.04912083 0.08420544 -0.11766817
0.032262586 -0.0011310696 0.17853051 0.04621848 -0.10939632 0.0069561834 0.07784699 0.09988942
0.014652541 -0.055496786 -0.3624021 0.09896983 0.012272961 0.35159546 -0.5460172 0.14146954
-0.0062221354 0.2742138 -0.020169886 -0.0072686113 0.040406417 -0.01331579 0.010224291 -0.01894777
0.002849115 0.023914916 0.005034699 -0.11397617 -0.004461679 0.10342719 0.012093341 -0.70483744
0.17562805 -0.017363032 0.10327214 -0.0066009657 0.31898794 -0.025275413 0.0020405233 0.009679737
0.081582986 0.01070504 0.008422059 0.15563303 -0.0067384453 0.09317879 0.008719301 0.08134192
0.16683474 0.09143803 0.004861167 -0.022385467 0.1214251 0.018134084 -0.009025126 0.020017138
0.08643767 -0.010571728 0.004749924 0.057754345 -0.0002530281 0.060543988 0.23130453 0.07656539
-0.009883741 0.0036686976 -0.0049746376 -0.013002832 0.021268496 -0.45802292 -0.15918837 0.0063904845
-0.0037733014 0.064880885 -0.012850195 0.027998324 0.03720845 -0.122910224 -0.0016226738 0.024231924
0.093091905 0.080658205 -0.0824068 -0.0700244 0.08097796 0.09257017 -0.01686363 -0.23369968
0.06809874 -0.010282896 0.014309754 -0.03244152 -0.02168885 0.008443161 0.10113789 -0.01435023
0.23160394 -0.013716097 -0.15946656 -0.01384632 0.004427711 -0.1606917 -0.018079642 -0.027943023
-0.005125296 -0.006314015 0.004787483 -0.70344955 -0.07218606 0.04658424 0.0041583725 0.15175107
-0.0005961622 0.020715836 0.004757985 0.092819214 -0.0020714495 -0.01273914 -0.28655386 -0.01587826
0.104024544 -0.017019944 0.18291092 -0.010280861 -0.24490516 0.08524866 0.05015379 -0.10763132
0.13030976 0.044057168 0.008637264 -0.012605139 0.1627451 0.016168112 0.015113827 0.01909647
0.016093003 0.054926746 -0.017597642 -0.017655049 -0.0007389846 -0.0913878 0.08794026 0.0431105
-0.00020553643 -0.0019551052 -0.024160618 0.008187464 -0.0137187 -0.15056859 -0.4187059 0.22888523
-0.14723356 0.1222163 -0.02356551 0.042145953 0.09344667 -0.014232186 -0.008301162 -0.031142477
0.07588781 0.012572323 -0.050182395 0.14287509 0.0022267692 -0.18639503 -0.013159725 -0.02092921
0.2763059 -0.19892198 0.0910677 -0.01459465 -0.014311309 -0.02672739 0.23081401 0.012141622

transformer_encoder.layers.0.linear2.bias f4 [6]
00000000: 8fa9 4abc d0b4 5b3c 8348 92bc 31e6 4fbc
00000010: be68 75bc 5d99 1cbc
-0.0123695275 0.013409808 -0.017856842 -0.012689159 -0.014978586 -0.009558049

transformer_encoder.layers.0.norm1.weight f4 [6]
00000000: 2024 8d3f 12bd 833f df73 8e3f 4766 703f
00000010: 1cdf 883f fa12 7e3f
1.102665 1.0292075 1.1129111 0.9390606 1.0693088 0.99247706

transformer_encoder.layers.0.norm1.bias f4 [6]
00000000: cea4 21bb 2e8f e03b 9f19 4dbc 04d6 a8bd
00000010: 4221 9a3d e103 0c3d
-0.0024664882 0.006853006 -0.012518316 -0.08243945 0.07525875 0.034183387

transformer_encoder.layers.0.norm2.weight f4 [6]
00000000: 24d2 953f 9b9c 813f 6053 8c3f 2164 663f
00000010: 5bb3 763f 8fa0 6f3f
1.1704755 1.0125917 1.0962944 0.89996535 0.96367425 0.9360437

transformer_encoder.layers.0.norm2.bias f4 [6]
00000000: 32d6 34bd 4f2c 6b3d 103d 803d 7eca 42be
00000010: 8c07 313d 314a e63b
-0.044149585 0.057415303 0.06261647 -0.19022557 0.043220088 0.0070278873

transformer_encoder.layers.1.self_attn.in_proj_weight f4 [18, 6]
00000000: b4e6 053e a300 8fbe 96c7 b7be 6df0 0bbf
00000010: a56a 203f c50e cd3d 3010 21bf ea95 83be
00000020: 783e 1a3f b626 943d ea86 043e 544a 65be
00000030: 6e2e 00bf 8883 503c dbbe 96be 9eef bb3e
00000040: b4de b53e 7a5d 80be 4203 90bc f62f 97be
00000050: 65a9 1b3f d3aa bc3e b582 d33d d20d 3cbe
00000060: 1311 7dbd 87e2 0bbf 23a4 c93d cdb1 ddbe
00000070: 6941 f2bc 5e9b babe 35df e4be 7a93 80bd
00000080: 2206 083f 0b29 d7be 18da c9be 958e e4be
00000090: cade 0dbf 3062 293e 008a dbbd 7087 153f
000000a0: 67a9 c3be df2b f8be 92b0 8e3e f8a9 ffbe
000000b0: 1303 2bbf b9f3 123e 4079 023c 08a8 8d3e
000000c0: 460f b9be 9842 f63e f4f2 f1be 86c4 a1be
000000d0: ba39 01bf 0e9a 8a3e 9e37 bebe 9d54 7f3e
000000e0: 5c5c b73d eec7 3e3e 6ef0 34be 300d 013f
000000f0: 8b51 083e ee68 2f3f 73d4 7bbe 1d0e 6a3e
00000100: 2ed8 923e c93e 163f a444 17bf 0cb0 293f
00000110: 0572 af3e 3f2f d5bd 5e6f a4bc 4ee9 143d
00000120: 4857 38bd 4d9b bcbe 564f cebd 5586 ea3e
00000130: cda0 f5be b11a c2bd ad89 b03e c226 dcbc
00000140: dfaf 56be 9c5e af3e 0e29 4cbe 27a5 1dbe
00000150: e24e a03e a290 05bf 2c70 80be 7a08 883e
00000160: 422c 37bd c318 2abe b3b4 223f 9d63 f2be
00000170: b979 b93e 7220 e6bd 2d27 32be 9a8e e8bd
00000180: 293f 863e fae8 be3e aea9 09bd 47af c5be
00000190: f746 5c3e 78ee 09bf 0041 193f cb42 963e
000001a0: 8b83 d93e 395b b3bd 048e 95be c17f e9be
0.13076288 -0.27930173 -0.3589446 -0.54663736 0.62662727 0.10012583 -0.62915325 -0.25700313
0.6025157 0.07233946 0.1294209 -0.22391635 -0.50070846 0.012726672 -0.29442486 0.3670625
0.35521472 -0.25071317 -0.017579678 -0.2952878 0.6080535 0.3684908 0.10327665 -0.18364647
-0.06178386 -0.5464253 0.0984576 -0.43299714 -0.029572206 -0.3644666 -0.44701543 -0.06278129
0.5313436 -0.420235 -0.39424205 -0.4464003 -0.55418074 0.16541362 -0.10719681 0.58409786
-0.3821518 -0.4847097 0.27869087 -0.49934363 -0.66801566 0.14350785 0.007963479 0.2766726
-0.36144465 0.48097682 -0.4725567 -0.31595248 -0.5047871 0.2707066 -0.37151808 0.24934621
0.08953163 0.18630955 -0.17669842 0.5041075 0.13312356 0.68519485 -0.24592762 0.22856946
0.28680557 0.5868955 -0.5908911 0.6628425 0.34266677 -0.10409402 -0.020072635 0.03635531
-0.045005113 -0.36837235 -0.10073726 0.45805612 -0.47974244 -0.09477747 0.34480038 -0.02687395
-0.20965527 0.3425187 -0.19937536 -0.15395032 0.31310183 -0.5217382 -0.2508558 0.26568967
-0.044719942 -0.16611008 0.63556975 -0.47341624 0.3622568 -0.11236657 -0.17397757 -0.11355324
0.26220062 0.37287122 -0.033609085 -0.38610289 0.21511446 -0.538795 0.5986481 0.29347834
0.42483172 -0.08757634 -0.29209912 -0.4560528

transformer_encoder.layers.1.self_attn.in_proj_bias f4 [18]
00000000: d3e1 94be db78 53be f8c9 ef3d 5b10 42bd
00000010: d13d d83c 07de 55bd 498d 803a 138a a63a
00000020: 7613 81ba 7f9c 183a 67ab 023b 81d4 bab9
00000030: cfbb ddbc 58e6 59bd b8c0 18be 6562 b33c
00000040: b11a 0a3d 7d7e 56bb
-0.2907854 -0.20651571 0.11708444 -0.04737888 0.026396664 -0.052213695 0.0009807731 0.0012705944
-0.0009847719 0.00058216596 0.001993859 -0.00035635012 -0.027067093 -0.05319819 -0.14917266 0.021897504
0.03371686 -0.0032729201

transformer_encoder.layers.1.self_attn.out_proj.weight f4 [6, 6]
00000000: c6fd 2bbd c0ba 7dbe 848c d43e acb1 56be
00000010: 7d7f c1be 521f e7bd 3ac1 263e c607 933d
00000020: c9b1 4f3e 17a2 283e 5187 4b3e 6a6b c03d
00000030: a846 9dbe 7cd8 b73e f227 983e 5f44 e33d
00000040: ca49 6c3e 91db 97be 2444 f1be 74d1 0fbd
00000050: 2c6b dabd 667e 153e 34dc 60be 38e0 b93e
00000060: 1fd5 933d 1763 55be b0b4 823e 4bb7 93be
00000070: 90c7 253e 6a4d bebe e81b 9cbe 167f 9a3d
00000080: 983d 603e 9169 103f 806f 553e 37d1 d53e
-0.041990064 -0.2477827 0.41513455 -0.20966214 -0.37792578 -0.11285271 0.16284648 0.07179217
0.20282663 0.16468082 0.19875838 0.093954876 -0.3071797 0.35907352 0.29717976 0.11097025
0.23075023 -0.29659703 -0.471223 -0.03511186 -0.10664973 0.14598998 -0.21959001 0.36303878
0.07218384 -0.20838581 0.2552848 -0.2885078 0.16189408 -0.37168437 -0.3049004 0.07543771
0.21898496 0.5641108 0.20843315 0.4176118

transformer_encoder.layers.1.self_attn.out_proj.bias f4 [6]
00000000: 8fdf 6dbd 3f6a 04bd 01f2 12bd 3c92 063d
00000010: 7d17 353d d5b6 b93c
-0.05807453 -0.032327887 -0.035875324 0.032854304 0.044211853 0.022670189

transformer_encoder.layers.1.linear1.weight f4 [2048, 6]
00000000: d5c3 7abe bcf1 e8be 1be5 b8be a586 713e
00000010: 4520 403e af47 5b3e f559 83be 4658 a5be
00000020: 0b56 b5bd 1dd2 4f3b e818 bc3e eb9f 833e
00000030: f5c7 4dbd f0c7 4bbe 000f 53bd 6d07 c8be
00000040: 5ab9 0c3e b5b8 3a3c b563 08be 99bd 3bbe
00000050: dd41 0cbe 4309 94be ed7d c73e 350b 9bbd
00000060: 4484 89be 2dc1 f23c ee0f c9be 10d7 853d
00000070: d99c 3a3e 5669 3c3e c86a 86be ef79 98bc
00000080: a8cc 93be 6507 d33d 1ba5 a2be f90f 97be
00000090: cd81 a2be 4797 6c3e e86f 7d3d c1b8 583e
000000a0: 3f3d c63d 71af 2bbe 90d5 25be 8216 87be
000000b0: dfec ae3b 06e0 c9bd 4645 efbd b18a fc3e
000000c0: 78b1 833e 5f0a f73e 8762 703e 1a74 41be
000000d0: 6536 b03e 8cf9 d93e d2da f03d 8d86 c5be
000000e0: e83a c0be e55a 6ebd a551 27be d120 103f
000000f0: 10c7 933e 82a3 46be 7baa 0a3e 8d40 2b3e
00000100: f4c6 7cbc ece1 593e b9f1 963e 35ff 86bd
00000110: dcec c13e 6cd2 6fbe 35b3 0abe d10b ec3d
00000120: 31e5 8abe f7f1 b43d 5f14 123c 7ec6 58be
00000130: 3ace 8ebd 6291 68be f059 9b3e 3d60 59bc
00000140: 1ce9 ee3d e265 593e f735 ba3e b321 92bd
00000150: 5aab b1be 2ec2 e13d bece 8abd b56f 83bd
00000160: ba1b dd3e 32ec d83d b397 4d3e 1858 3fbe
00000170: 272d e43d 4977 88bd 87e2 fa3e abb2 9fbe
00000180: de1e b3be 0636 82be 43c5 70be 85da 2d3d
00000190: ad82 3cbe c7a0 82be f946 8cbc a8a9 c6bd
000001a0: 23c6 b03e 211e 9abe d42a 9f3e a885 8bbd
000001b0: 5670 0bbe 87e7 7ebe 5b9d ad3e c3f5 bfbe
000001c0: 329b 52bd 822c 62be d75d 273e cbe8 f03e
000001d0: 24fd d43e ddaf 333e 27af 93be 7ba3 eb3e
000001e0: cfa2 3d3d 841f 903e c9f1 5f3d 5a53 ae3d
000001f0: 80be 44be e8f5 c8bd d9ba 04bf f72f 933e
00000200: c135 81be a228 08be 0b11 ba3c 4eb2 41be
00000210: 36e3 cabe 6a19 81be d3a9 e7bd c674 78be
00000220: aeff e93c e0c8 c73e 45e3 133e faf8 893e
00000230: 1226 443e 107c e5be d06a eb3c 2b28 b33e
00000240: 9e14 3a3e 6cac 553e 00fb c03c 0a0c bcbd
00000250: 73c1 1abe 3ccd 993d cfd2 213e 551e 66bd
00000260: 4b46 713e cc3b 353e f080 dd3d 4a14 97be
00000270: 1f46 c0be ba56 d23d d6da 67bc 7e30 54bd
00000280: d7bb f23e 7df3 cebd b7a1 103e bca1 a2be
00000290: 8400 a0be 5d83 873e e306 18be d731 90be
000002a0: 88f0 803e 6ed0 fcbd 8a1d 1f3d 7264 c53d
000002b0: 9eb9 8cbd d253 433e 5033 803e 5f43 8bbe
000002c0: d721 653e 0520 9fbe 171b 263d 17e6 e53e
000002d0: 1b8d c7be 7e69 8cbd 0784 79be 9e82 8b3e
000002e0: 7c62 2dbe 8c52 d8bd 2744 f5bd a900 953e
000002f0: 0848 513e c109 28be bdef c6be 8ecc ae3e
00000300: 7d10 553e 4d06 bb3e 31bf 113e 900a e83d
00000310: 2bcf 813e 5a63 88be d9ef 78be 20ce 0ebe
00000320: fa38 84be ef36 8c3e c0a4 593e df6b d5bd
00000330: 893b 2b3e 2b09 913d e6cd b8be 3c9f c5be
00000340: 21fb 87be 99c5 e93e 185b d8be 5d13 eabe
00000350: 197f 933e d4c8 083d c2c3 183d d009 9cbb
00000360: 8603 b5be 4691 b73d 7375 b6be 46b2 553e
00000370: 7928 053e abd3 3abc 25b5 82bd a4db d7be
00000380: 45a3 fe3d 8e69 8e3e d3d6 a93e b596 72bd
00000390: e3e8 39be 67a9 26be 7e06 e13e 77ca 08bf
000003a0: d4d1 cfbd e90d 03bf c405 3dbd b489 27be
000003b0: 0657 53be df3e d33c a452 01be de4b 0e3e
000003c0: 976b bd3d 8ffb 0a3d 636c acbe 8437 bdbe
000003d0: 9292 a63e 1dbb 813e 0f33 303d 4a33 22be
000003e0: a991 023d 130c bebe a762 13be 9e25 943d
000003f0: c58c 943e d955 1a3d 7253 253d 9ea7 993d
-0.24488766 -0.4549693 -0.36112294 0.23586519 0.1876231 0.21414064 -0.2565457 -0.3229391
-0.08854302 0.003171093 0.36737752 0.25707945 -0.050239522 -0.19900489 -0.051527977 -0.39068165
0.13742581 0.011396577 -0.13319285 -0.18334045 -0.13697 -0.28913316 0.3896326 -0.07570497
-0.26858723 0.029633129 -0.39269966 0.065351605 0.18223895 0.18399557 -0.26253343 -0.01861283
-0.28867078 0.10304145 -0.3176659 -0.29504374 -0.31739655 0.23104583 0.0618743 0.21164228
0.096796505 -0.16766144 -0.16194749 -0.2638436 0.005338296 -0.09857182 -0.11683135 0.49324563
0.25721335 0.482501 0.23475085 -0.18891945 0.344165 0.42573202 0.11760487 -0.38579217
-0.37544942 -0.058192153 -0.16339739 0.56300074 0.2886281 -0.19398311 0.13541596 0.16723843
-0.0154282935 0.21277589 0.29481295 -0.06591646 0.37876022 -0.23420113 -0.13544925 0.11525691
-0.27127984 0.08835214 0.00891599 -0.21169469 -0.06972928 -0.22711709 0.30342054 -0.013267574
0.11665556 0.21230271 0.36369297 -0.07135334 -0.34701043 0.11023365 -0.06777714 -0.06417791
0.43185216 0.10591926 0.200774 -0.18685949 0.111414246 -0.06663377 0.49000952 -0.31191
-0.34984487 -0.25431842 -0.2351275 0.042444725 -0.18409224 -0.25513288 -0.017123686 -0.09700328
0.34526166 -0.30101112 0.31087363 -0.06812602 -0.13617072 -0.24893008 0.33909115 -0.3749219
-0.051417537 -0.22087291 0.16344391 0.47052607 0.4159938 0.17547555 -0.28844568 0.46023163
0.046297844 0.28149045 0.054673944 0.08511992 -0.19213295 -0.09812528 -0.51847607 0.28747532
-0.25236323 -0.1329675 0.022713205 -0.18915674 -0.39626473 -0.25214702 -0.11311688 -0.24263296
0.0285643 0.39020443 0.14442165 0.26947767 0.19155148 -0.44821215 0.028737456 0.34991583
0.18171927 0.20866555 0.023557186 -0.09181984 -0.15112858 0.075098485 0.15803073 -0.05618127
0.23561971 0.17698592 0.108156085 -0.29507667 -0.37553498 0.10270448 -0.014151296 -0.05180406
0.47408935 -0.101050355 0.1412419 -0.3176402 -0.31250393 0.2646741 -0.14846377 -0.28163025
0.2518351 -0.12344442 0.03884653 0.09638299 -0.06871341 0.19074944 0.25039148 -0.27199838
0.2237619 -0.31079116 0.04055318 0.44902107 -0.38974842 -0.068560585 -0.2436677 0.2724809
-0.169321 -0.105626196 -0.1197589 0.29102066 0.20437634 -0.16409971 -0.3885478 0.34140438
0.20807071 0.36528245 0.1423309 0.1133014 0.2535337 -0.266383 -0.24310245 -0.13945818
-0.2582472 0.2738566 0.21254253 -0.104209654 0.1672193 0.07081827 -0.36094588 -0.3859805
-0.26558784 0.45658568 -0.42257 -0.45717898 0.28807905 0.03339465 0.037296064 -0.004761912
-0.3535425 0.089632556 -0.35636482 0.20868787 0.1300372 -0.011403005 -0.06382207 -0.4215976
0.12433485 0.27814907 0.3317171 -0.059225757 -0.18155245 -0.1627556 0.43950266 -0.53433937
-0.101474434 -0.511931 -0.046148077 -0.16361123 -0.20638666 0.025786815 -0.12629181 0.13896129
0.09249037 0.03393131 -0.33676443 -0.36956418 0.325337 0.2533807 0.043017443 -0.15839878
0.031877194 -0.37118587 -0.14393102 0.072337374 0.2901365 0.037679527 0.040362783 0.075026736

transformer_encoder.layers.1.linear1.bias f4 [2048]
00000000: 4745 5fbe 83bd ae3e 8649 db3d 2f9e 13bd
00000010: 9133 9f3d c594 bebc 8885 a43d 0ae9 83be
00000020: 4c43 5f3e 5b0f 42be cd08 313e fba8 e8be
00000030: fb09 a03e 85be 3dbe 331f f0bc bd6d 61be
00000040: ed2c ecbc e7e5 983e 9748 203d 335c a2be
00000050: b92a b3bd 5434 5fbe a3d5 8b3e 89c7 7bbd
00000060: 88ed 873e 2b48 c2be 08d5 393d e155 83be
00000070: ee36 d0bd 7c05 87be 4bea 94bd 8cd8 63be
00000080: b541 bcbe 9022 52be f42d b0be 2573 8ebe
00000090: 7058 ddbe e8fa 9d3e e3a5 c4bd 2aab 61bc
000000a0: c18e 9a3e 5b16 82be f79e 633e b3bd b73c
000000b0: e066 28bc 519a 8b3e 6e14 4d3e f6f9 9e3d
000000c0: e419 6dbd b11e 6bbe fcc8 a2be 1af9 07be
000000d0: 9a4a 5c3e 8338 a2be ee3f 133e 4247 e23d
000000e0: f621 53be 85a1 55be cb5b 3cbe 06eb 053d
000000f0: 829a 5dbe d79b d1be 4606 953e 8d88 a2bd
00000100: cf94 8c3e e4de 643e 508b dc3d 370a 333d
00000110: 91d4 b8be 7458 2c3e ad84 e9bd d2d7 cdbd
00000120: 54e0 ae3e 1657 5cbe 809d 4abe 4cbe b13d
00000130: 67a8 6a3e cc95 943c 13b6 61be 36b1 573e
00000140: 00ad 513e 54d5 39be 9434 4b3d cc82 0dbe
00000150: ca33 c2bd 8fa9 bcbd c12c 81be 66d9 a0bd
00000160: 1397 a33e 184c 31bd 332e 54be 9308 b8be
00000170: 444a 67be 6a43 1bbd 17bb 863e de1d aebe
00000180: 9218 1cbe c543 acbe 5495 833e e67c d3be
00000190: 9d5d 463e 5617 133e dd14 323e 3f85 71bc
000001a0: fc98 ccbd 3794 b63e 4e24 893e e5d3 8ebe
000001b0: f507 b4be fb8e d8be 5a3e 543d d86b 74be
000001c0: d135 e23d 17ce c4be c7c2 4bbe 159a cb3d
000001d0: f2c3 eebd 1fdc 45be c830 4bbe 3e75 5d3e
000001e0: 6f78 973e 5cb4 21bd 3d46 74be 7d2e 9fbe
000001f0: f4cd 123d b289 f8bd ecd8 903e 6831 14be
00000200: cbf6 8d3e d76c 9dbd 8733 7bbe 6351 a7be
00000210: a656 7c3b bd5e a0be 7cb1 873e bfcf ccbe
00000220: 8ced 8ebd c61e 56bc edee 9c3e e77c c7bd
00000230: 9e23 0d3e 5681 213e 9803 b8be 63a9 55be
00000240: c7b0 253e 312e 85bd 503f be3c 744c b23e
00000250: 7130 e03d 3a71 3b3d cd8f 483e 2ecf 803e
00000260: aaf5 563e da93 a8be bd9e 89be b0ec 0bbd
00000270: bed3 273e b1a4 91bd ab45 18be 0b35 a03c
00000280: dc7a 8cbe b13b a8be 6423 843e 05c2 2f3e
00000290: 44f6 0bbe a3b0 003d 527f b2be 1697 083e
000002a0: 1d57 613e b9cc 07be 3785 91be a094 7e3d
000002b0: d8c7 8e3e cd03 12be 21dd 65be 0f43 253e
000002c0: c2d4 cfbe be8b 59be 2d48 5fbe 6362 bd3e
000002d0: 0965 743e 7aa5 4b3e 0aff d6bd 0c73 a5be
000002e0: a46e 8f3d 8fcb 82bd 5033 32bd 7a0e a6bd
000002f0: 1ddd 89bd 2905 1e3e e9ef a0be 34f1 43be
00000300: 026f 0e3e 024d c8be 6ad9 7c3d 8c6d 6b3e
00000310: d566 ca3d 07d3 dbbe 1ae2 85be 7fb4 8fbd
00000320: 22da 293e 0929 8d3e 1b39 2b3d 1925 d9bd
00000330: 2e1f db3e c54e 9bbd 24d2 513e 0096 79be
00000340: 71f5 0b3e 0fa5 63bd 8a5e 963d 17f9 9d3d
00000350: 64cc 0c3e d72b 4abe 64a0 753d fe68 44be
00000360: 4017 003e 5488 b33e 5a54 a43e 674d 1e3d
00000370: 3fb9 4fbe 8248 9cbe 60eb 723e b2de b1be
00000380: 1776 0f3e 5ed7 99be 2b88 033e 749d e0bd
00000390: 9475 1cbe 850e d1be 12ac 403e 487e e83d
000003a0: 3a0d 013e 66f8 3cbe b12b 083e 2116 013c
000003b0: 5006 e73d b29f 6f3e 4045 86be 0a0d c2bd
000003c0: 8947 cdbd c062 7fbe 1186 58be 3d82 96bd
000003d0: 521a 233e 5310 c83e 08bf 6ebe 0518 2bbe
000003e0: d4e3 723e 86bc 4b3e a97f babd c02b 803e
000003f0: a480 a6be c6bd 8bbe 1d63 3dbe da68 ffbe
-0.21803771 0.3412896 0.10707383 -0.036039528 0.077735074 -0.023264298 0.080332816 -0.25763732
0.21803015 -0.1895117 0.17288513 -0.45441422 0.31257614 -0.18529709 -0.029311752 -0.22014518
-0.028830016 0.29862902 0.039131727 -0.31710967 -0.08748383 -0.21797305 0.2731143 -0.06146959
0.2654841 -0.37945685 0.045369178 -0.25651458 -0.10166727 -0.26371372 -0.0727125 -0.22250575
-0.3676888 -0.20520997 -0.3441006 -0.27822223 -0.43231535 0.3085549 -0.09601953 -0.013773719
0.30187038 -0.2540768 0.22228609 0.022429323 -0.010278434 0.27266172 0.20027325 0.0776252
-0.05788602 -0.22960927 -0.31793964 -0.13278618 0.21512833 -0.3168374 0.14379856 0.110487476
-0.20618424 -0.20862396 -0.18394391 0.03269484 -0.21640971 -0.4093921 0.2910635 -0.07936201
0.27457282 0.22350651 0.10768759 0.043710914 -0.36099675 0.16830617 -0.11402259 -0.1005093
0.34155524 -0.21517596 -0.19786644 0.086788744 0.22915803 0.018137835 -0.22042112 0.21063694
0.2047615 -0.18147784 0.04961069 -0.13819426 -0.09482534 -0.09212028 -0.25229457 -0.078539655
0.31951198 -0.04328546 -0.20720749 -0.35944042 -0.22586924 -0.037906088 0.26314613 -0.34007162
-0.15243748 -0.33645454 0.25699866 -0.41306227 0.19371648 0.1436437 0.17390771 -0.014741241
-0.09990117 0.35659954 0.2678551 -0.27896038 -0.3516232 -0.42296585 0.051817276 -0.23869264
0.11045421 -0.38438484 -0.1989852 0.09941498 -0.11658467 -0.19322251 -0.19842827 0.21626756
0.2958407 -0.039478645 -0.23854919 -0.31090155 0.035840943 -0.12135638 0.28290498 -0.14471972
0.2772735 -0.07686775 -0.24531375 -0.3267928 0.0038503795 -0.3132228 0.26502597 -0.40002248
-0.06978902 -0.01306886 0.30651036 -0.0974062 0.13783118 0.15771994 -0.35940242 -0.20865397
0.16180716 -0.06502951 0.02322355 0.34823954 0.109467395 0.04576228 0.19586106 0.25158066
0.20992151 -0.32925302 -0.2687892 -0.03416127 0.16389367 -0.071114905 -0.14870326 0.019556543
-0.27437484 -0.3285804 0.2580825 0.17163856 -0.13668162 0.031418454 -0.34862763 0.13338885
0.22005887 -0.13261689 -0.28421947 0.06215346 0.27886844 -0.14259262 -0.22447635 0.16138862
-0.4059201 -0.21244714 -0.21804877 0.36989126 0.23866667 0.19887343 -0.104978636 -0.32314336
0.07003525 -0.06386482 -0.043505967 -0.0810823 -0.06731627 0.15431656 -0.31433037 -0.1913498
0.13909534 -0.39121252 0.06173078 0.22991008 0.09882895 -0.4293444 -0.26149064 -0.07016849
0.16587117 0.2757037 0.041802507 -0.10602779 0.42797226 -0.075833835 0.20490319 -0.24373627
0.13667847 -0.055577334 0.07342251 0.07713526 0.13749844 -0.19743286 0.059967414 -0.19180676
0.12508869 0.35064948 0.32095605 0.038648035 -0.2028551 -0.3052407 0.23722601 -0.34740216
0.14009891 -0.30047125 0.12844913 -0.10967532 -0.15279227 -0.4083139 0.1881564 0.11352211
0.12602702 -0.18454131 0.13297917 0.007878811 0.11280501 0.23400763 -0.2622471 -0.09475143
-0.1002341 -0.24940014 -0.21144892 -0.0734906 0.15928009 0.39074954 -0.2331506 -0.16708381
0.23719722 0.19896135 -0.091063805 0.2503338 -0.3252002 -0.27293223 -0.1849484 -0.49884683

transformer_encoder.layers.1.linear2.weight f4 [6, 2048]
00000000: e97c 8cbd 810c 58bd 5c89 bebb dfbe 16be
00000010: f187 84bd 44b3 ba3c f93e 4ebc 78e8 edbc
00000020: 9872 73bd 3a54 a13b 4731 82bc 007d 15bd
00000030: bb8e 2c3d 3df4 5e3c 40ff 023d 917e d4bd
00000040: 6c62 82bc d4e1 91bc b915 d53d 29dc b53d
00000050: 5d5c 403c 60cc 993c baa5 87bc 4bf1 733d
00000060: 2867 f13b 51fd 5b3d 631b 20bb 492f a4bc
00000070: 3e8d af3b 93c5 7f3e 6e73 49bd 0428 0d3e
00000080: 6be0 b43d e413 6ebc ec50 3c3d e0bb dc3d
00000090: 2abb a9bc 9f56 0cbd 5ed4 203e 8aa3 663c
000000a0: 81dd a4bc 28b2 a23d 1092 07bb d9cf 6a3d
000000b0: 8c34 aa3d 8c85 173c 5130 b0bb db9b 21bd
000000c0: 1970 943b 7bf4 ab3d 0172 e53c be0f 8fbd
000000d0: 2f95 de3b 283f a0bd a57e dfbb b24b 903c
000000e0: e243 183d 46d7 7f3d 30bc 3a3d f3b9 27bd
000000f0: 6f1c 823d 2651 dd3d 5ce5 f6bb a3a4 3d3c
00000100: 213e df3c b905 e9ba d904 15bc c8ad 51bc
00000110: fafa 72bd 855b debb 8058 613c c589 fe3d
00000120: 4a59 753b 3d2a 9c3d 7197 193d d95e f13c
00000130: 8b9c 1fbd a70e 30bd edcc 8bbd c000 abbd
00000140: ed46 803c 678a e13c 25cc a3bd c98e e1bd
00000150: 4dbb 8e3d ab52 cb3c 2103 503d 8dc9 ef3c
00000160: d626 983c e04e 933d 363b e83c c20c 253d
00000170: 8842 943d 1a49 373d 1333 07bd d26c d1bd
00000180: 77d0 9cbb 064e bbbc a957 28bc 384d 943c
00000190: 7bdd 7fbc 885b 8bbc 25de 973c 8d9f 5abc
000001a0: d34e 52bb 18a9 00bd f87a cf3b c9d6 e53d
000001b0: d696 1bbc d242 65bd 25b4 093d 35b7 983c
000001c0: 5315 b93c 0bd3 4fbd 8c4e f53c c591 d4ba
000001d0: 5a08 c93c dd62 323d eafd 3c3d 9a6d 173d
000001e0: bd83 1dbd 464a f13c 72b4 14bb cbcb 363d
000001f0: 975c 6cbc 16f4 d1bd 31db 1d3c b9c1 0fbd
00000200: 672d 6e3d 1d04 94bc 4dc1 cfbc 9f19 11bc
00000210: 76d0 eb3a a3c1 e63b 8536 b1bc 4bff d83c
00000220: 61d0 b93c 3b0b a63d 8975 973d d917 94bc
00000230: 6e0e eb3b 994c 38bc f371 d0bd f253 e3b9
00000240: 2b19 b9bb 503c 45bc 58c1 253c 7869 a8bc
00000250: 6565 78bc 17c4 c139 1bc6 04be 5116 a0bb
00000260: c0f9 9cbb c34b 543e d213 19bd c5fa c5bc
00000270: 9186 883b 37de e9bd ea48 0fbb 44b9 9c3c
00000280: 4617 17bb 7570 483e 7259 81bc 8d3e f439
00000290: 0439 143d 1c37 a63c 88d9 26bd 327b d43d
000002a0: 4d65 7a3b 24da cdbc 3fd6 173e ea07 503d
000002b0: 4267 26bc 75b9 84b9 2e0e d93d c216 6ebc
000002c0: e732 b73d 0ce8 3fbc c386 853d a7cd 13bd
000002d0: de81 35bc ac8d c7bd 2061 97bb 3f4d b3bd
000002e0: 2bd1 aabb 9175 6d3a 2edc 993b 9286 523d
000002f0: 6cea 8a3d f347 3dbd d89b 933d f39f c2bb
00000300: 6031 793a 3081 ccbd c00b d03d 73f3 9a3c
00000310: 0628 9abc ffa0 a33c aaaf 0e3e 466a 1bb8
00000320: 996b 70bc 65c4 1dbd 3ee8 0c3d 2bc1 bdbc
00000330: 9662 de3b ae48 3dbd 9e7e 66bd a26a 1f3d
00000340: 7720 48be 150d b63b e5e6 a7bc 1124 36bc
00000350: 2b85 b3bc db82 a2bd 2448 943c 49a1 9ebd
00000360: 24fe be3c 759b 6ebd 7e45 84bc b590 623d
00000370: 94a3 9c3d 81f2 b33d 5975 a7bd f7b8 853d
00000380: a958 dfb9 6423 4ebe 9c67 1abd 2812 973c
00000390: 33bb 06b9 68fd 94bd 0971 78bc 9ad7 cf3c
000003a0: f0c8 d9bc 9b74 0d3d 9a06 83bc b12e 46ba
000003b0: 7b80 c93c 4b00 a33c 4818 673d bd41 1fbc
000003c0: 895e 6e3d d8a4 e3b9 4e32 2dbd 67e3 b2bc
000003d0: 5caa f4bb ab96 a3bd d3fa 8fbc 43ff 0abd
000003e0: a191 c03c 0ab1 b0bd d59e c23c 6b1e a9bb
000003f0: 74c6 cabc 2df2 36bc 5f04 d1bd d6a9 9f3d
-0.06859762 -0.0527463 -0.0058147144 -0.14721249 -0.06471241 0.022790559 -0.012588256 -0.029041514
-0.059435457 0.0049233707 -0.015892638 -0.036496162 0.042128306 0.013608036 0.031981707 -0.10375703
-0.015916072 -0.017807879 0.10404534 0.08879883 0.011740771 0.018774211 -0.016558517 0.059556287
0.0073670335 0.05370838 -0.0024430386 -0.020042079 0.0053574136 0.24977712 -0.049182348 0.13784796
0.08831867 -0.0145311095 0.04597561 0.10778022 -0.02071913 -0.034262296 0.15706012 0.014077077
-0.020125153 0.07944137 -0.0020686425 0.057327125 0.08310804 0.009248149 -0.0053768535 -0.039455276
0.0045299646 0.0839624 0.028008463 -0.069854245 0.0067926864 -0.07824546 -0.006820517 0.01761422
0.037174113 0.06246116 0.045589626 -0.04094882 0.063530795 0.108064935 -0.007534666 0.011574897
0.027251305 -0.0017778195 -0.009095394 -0.01279778 -0.05932138 -0.0067858123 0.01375401 0.12428621
0.0037437254 0.07625244 0.03749794 0.029464172 -0.03896765 -0.042982724 -0.06826196 -0.083497524
0.01565882 0.027531816 -0.07997922 -0.11013562 0.069693185 0.024819693 0.050784234 0.029270912
0.018573206 0.071927786 0.028348546 0.04029537 0.07239252 0.04474745 -0.033007693 -0.10225834
-0.004785593 -0.022864353 -0.010274806 0.018103227 -0.01561677 -0.017011419 0.018538544 -0.013343704
-0.003209044 -0.03141126 0.0063317977 0.11222608 -0.009496411 -0.055971928 0.033619065 0.018642047
0.022593176 -0.050738376 0.02994468 -0.0016217759 0.024540115 0.043551315 0.04614059 0.03696976
-0.038455714 0.029454362 -0.0022690562 0.044627946 -0.014426372 -0.10251634 0.009634779 -0.035096858
0.058148768 -0.018068368 -0.025360728 -0.008856206 0.0017991203 0.0070421263 -0.021632442 0.02648892
0.02268237 0.08107611 0.07395465 -0.018077778 0.007173351 -0.011248731 -0.10177984 -0.00043359358
-0.005648752 -0.012038305 0.0101168975 -0.020558104 -0.015160893 0.00036957927 -0.12966196 -0.004885473
-0.0047905147 0.20732026 -0.037372418 -0.024167428 0.004166432 -0.11419337 -0.0021863529 0.01913131
-0.0023054644 0.19574149 -0.015789721 0.0004658591 0.036187187 0.02028995 -0.040734798 0.1037506
0.0038207353 -0.025128432 0.14827822 0.050788797 -0.0101564545 -0.00025315178 0.10598408 -0.014531793
0.08945256 -0.011713039 0.065198444 -0.036084797 -0.011078326 -0.09743819 -0.0046197325 -0.08754968
-0.005212923 0.0009058351 0.004695437 0.051397868 0.06782994 -0.046211194 0.07207459 -0.0059394776
0.00095059536 -0.09985578 0.10158491 0.018914914 -0.018817913 0.01997423 0.13934198 -3.7053855e-05
-0.014674091 -0.038517375 0.03440117 -0.023163399 0.0067866547 -0.04621189 -0.056273095 0.038920052
-0.19543634 0.0055557587 -0.020495841 -0.011116997 -0.021914085 -0.07935115 0.018100806 -0.077456065
0.023314543 -0.058253724 -0.016146418 0.055313785 0.076483876 0.08786488 -0.08176679 0.0652942
-0.00042599931 -0.20130688 -0.037696466 0.018441275 -0.00012848973 -0.07274896 -0.015163668 0.025371362
-0.026585072 0.03453503 -0.015994359 -0.0007560058 0.024597397 0.0198976 0.05641964 -0.009720263
0.058195625 -0.00043419632 -0.042284302 -0.02183695 -0.0074665975 -0.07987722 -0.017575657 -0.033934843
0.023506941 -0.086275175 0.023757378 -0.005161097 -0.024752833 -0.011166138 -0.10205912 0.077960655

transformer_encoder.layers.1.linear2.bias f4 [6]
00000000: 20e1 56bc 9a37 6e3c 0a5d 6bbc f6f9 83bc
00000010: 3edb 75bc aa41 37bc
-0.013115197 0.014539624 -0.014365444 -0.016110402 -0.015005885 -0.011185089

transformer_encoder.layers.1.norm1.weight f4 [6]
00000000: efab 823f fe39 6b3f 2881 863f 7475 7e3f
00000010: e56e 863f df01 803f
1.020872 0.91885364 1.0508165 0.9939797 1.0502592 1.0000571

transformer_encoder.layers.1.norm1.bias f4 [6]
00000000: 229e 13bd 5c56 a43d 218d ff3c aca8 d1bd
00000010: 4bb2 a33d c4e2 8fbc
-0.03603948 0.08024284 0.031195225 -0.1023725 0.07992991 -0.017564185

transformer_encoder.layers.1.norm2.weight f4 [6]
00000000: e66e 9c3f c6c3 8b3f 9aee a43f a7c2 9f3f
00000010: 2e9a 843f cf3a 853f
1.2221344 1.091912 1.2885315 1.2481278 1.0359552 1.0408572

transformer_encoder.layers.1.norm2.bias f4 [6]
00000000: 489d fc3c fb35 003c 6380 223e e64f 19bd
00000010: 4510 30bc 2396 e4bc
0.030836716 0.00782537 0.15869288 -0.037429713 -0.010746066 -0.027903622
