DU_model/LSTM/best_model1.9.pth (torch, 76094 bytes, 5 tensors)

lstm.weight_ih_l0 f4 [256, 6]
0	0xbe409be1	-0.18809463
1	0x3df26f89	0.1183768
2	0xbe026aba	-0.12736025
3	0x3cd2bd1f	0.025724946
4	0xbea2b964	-0.31782067
5	0x3ebeced5	0.37267175
6	0x3dd7ea2e	0.10542713
7	0x3c99dddc	0.018782549
8	0xbda490c4	-0.08035424
9	0xbd85bc98	-0.06530112
10	0xbde42961	-0.11140705
11	0x3cce41b9	0.025177823
12	0x3b812326	0.0039409576
13	0x3de8041e	0.1132891
14	0x3dfd2d21	0.12362123
15	0x3e65b0b0	0.22430682
16	0x3db36be1	0.08760811
17	0x3db4d122	0.088289514
18	0xc08c865d	-4.391402
19	0x3f9b51d2	1.2134345
20	0x3e6fcf2c	0.23418874
21	0x3d7d0ee5	0.061781783
22	0xbd6b9ebb	-0.057524424
23	0xc041c584	-3.0276804
24	0xbf917b1c	-1.1365695
25	0x3f285745	0.6575816
26	0x3e65f1f9	0.22455586
27	0x3ebdce95	0.37071672
28	0x3da45950	0.080248475
29	0xbf0d92ac	-0.5530193
30	0x3c802067	0.01564045
31	0x3c13056e	0.0089734625
32	0x3df4f968	0.11961633
33	0x3df08d8f	0.1174575
34	0x3dca1d2b	0.098688446
35	0xbc5467f5	-0.012964238
36	0xbf1a96bc	-0.6038625
37	0xbea87228	-0.32899594
38	0x3d37db3c	0.044886813
39	0x3f038ed4	0.51389813
40	0xbe3680dc	-0.17822593
41	0x3d9dc6b9	0.07703919
42	0xbe19ac7a	-0.15007201
43	0x3d5929ea	0.053018488
44	0x3e8802f5	0.26564756
45	0x3e33710e	0.17523596
46	0x3e1f82d0	0.15577245
47	0xbd904302	-0.07044031
48	0x3f38203d	0.7192419
49	0x3cc37351	0.023858698
50	0x3e7d6cf0	0.24748588
51	0x3d874855	0.06605593
52	0x3d84903d	0.06472824
53	0x3f391df4	0.7231133
54	0xbf1cf921	-0.6131764
55	0x3bdde62a	0.0067718225
56	0x3e6daed5	0.23211224
57	0x3df3bc2f	0.119011275
58	0x3ea3a7eb	0.3196405
59	0xbeb07a08	-0.34468102
60	0xbdf433a4	-0.11923912
61	0xbd545b58	-0.051844925
62	0xbe113430	-0.14180064
63	0xbe52bf16	-0.20580706
64	0xbe2b1293	-0.16706304
65	0xbe047180	-0.12933922
66	0x3eda2e79	0.4261358
67	0xbcdbcb58	-0.02683036
68	0x3c3fd940	0.011709511
69	0xbb08e9f6	-0.0020891405
70	0x3e0a79c5	0.13523014
71	0x3ee27a60	0.4423399
72	0xbed35823	-0.4127818
73	0x3d98d0e1	0.074617155
74	0x3e8cbfa7	0.2748997
75	0x3cfe3a64	0.031033702
76	0x3e0bfb49	0.13670076
77	0xbe5cb9a4	-0.21555191
78	0x3d0f5963	0.034997355
79	0xbf055db3	-0.520961
80	0xbe7c9b0a	-0.24668518
81	0xbd2a6162	-0.041596778
82	0xbea81704	-0.3283006
83	0x3d13e140	0.036103487
84	0xbdc1c71d	-0.09461806
85	0xbeb0d5e9	-0.345382
86	0xbe8d0334	-0.27541506
87	0xbe0a035e	-0.13477847
88	0x3b8482de	0.004043921
89	0xbdda610d	-0.10663042
90	0xbf80464f	-1.0021456
91	0x3e7670f5	0.24066527
92	0x3e3511db	0.17682593
93	0x3cff0ff6	0.03113554
94	0x3def2bd3	0.11678281
95	0xbf170d9f	-0.5900516
96	0xbd852299	-0.065007396
97	0xbe4dec30	-0.2010963
98	0xbe12ba6b	-0.14328925
99	0xbdf4e06e	-0.11956869
100	0xbdd3c966	-0.10341148
101	0xbdeb27dd	-0.11482213
102	0x3c3bfe46	0.011474198
103	0x3e113806	0.14181527
104	0x3e89ba75	0.26900068
105	0x3d72e2c2	0.059298284
106	0x3dafcba5	0.08583764
107	0x3de86efb	0.11349293
108	0xbe455344	-0.19270045
109	0xbe2e146a	-0.16999975
110	0xbdd816f6	-0.105512545
111	0xbdf61a74	-0.12016764
112	0x3d211c87	0.039333846
113	0xbec832bc	-0.39101207
114	0x3dafe861	0.08589245
115	0x3e439725	0.19100626
116	0x3e761227	0.24030362
117	0x3e54f6c9	0.20797266
118	0x3e1f55fd	0.15560146
119	0xbc860e3c	-0.01636421
120	0xbe297202	-0.16547397
121	0x3ec1c943	0.37848863
122	0x3e818e49	0.25303867
123	0x3d2481e3	0.040162932
124	0x3e96693c	0.29377162
125	0xbe89b5aa	-0.2689641
126	0xbef20933	-0.47272643
127	0xbcc93e0f	-0.024565725
128	0xbe0e1e43	-0.13878731
129	0xbd11fb11	-0.035639826
130	0xbe02937d	-0.12751575
131	0xbf01f348	-0.5076184
132	0xbe1db598	-0.15401304
133	0xbd3af6d8	-0.045645565
134	0xbde5872e	-0.11207424
135	0xbcd90690	-0.026492387
136	0x3dbe6198	0.09295958
137	0x3d992d66	0.07479362
138	0x3bbfa051	0.0058479686
139	0xbe8a9d2f	-0.27073047
140	0xbe76a932	-0.2408798
141	0xbec71fb6	-0.3889138
142	0xbe6935ed	-0.22774477
143	0xbe2a8ab4	-0.16654474
144	0xbe16883e	-0.1470041
145	0xbd8d1b66	-0.068899915
146	0x3db4af2e	0.088224754
147	0x3db376fb	0.08762928
148	0xbbe7cca6	-0.0070739565
149	0x3e2f4249	0.1711513
150	0xbe574222	-0.21021321
151	0x3ed97a46	0.424761
152	0x3e5666ee	0.20937702
153	0x3e73b283	0.23798566
154	0x3e6c45df	0.23073529
155	0xbe64059b	-0.22267763
156	0xbd85fd5b	-0.06542464
157	0x3e5f6ac9	0.21818079
158	0x3e811014	0.2520758
159	0x3d214d00	0.039380074
160	0x3e8c3dcf	0.27390906
161	0xbcbbe53b	-0.022936454
162	0x3d515fc3	0.051116716
163	0x3e18ccb5	0.1492184
164	0x3e7fafb4	0.24969369
165	0x3dead5ed	0.11466584
166	0xbdf4acc8	-0.11947018
167	0x3d41d677	0.04732367
168	0x3f47881f	0.7794208
169	0x3e47450b	0.19459932
170	0x3e62c66a	0.22146001
171	0x3d1ec853	0.038765263
172	0x3f114cf5	0.5675805
173	0x3f2887b1	0.6583205
174	0xbf326338	-0.69682646
175	0xbdcb5737	-0.09928744
176	0x3dba6660	0.09101558
177	0x3e0fec65	0.14055021
178	0x3e6c0149	0.23047365
179	0xbcdaaad5	-0.026692787
180	0x40e03e7e	7.0076284
181	0x3ee76cd3	0.45200214
182	0x3d730a75	0.059336144
183	0xbf35348c	-0.70783305
184	0xbf5a7d22	-0.8534719
185	0x3ff4812d	1.9101921
186	0x3d7bbc21	0.06145871
187	0x3e96bd04	0.29441082
188	0x3e805fb4	0.25073016
189	0x3e037e8a	0.1284124
190	0x3e30f33b	0.17280285
191	0x3d76f4b2	0.060291953
192	0x3f1c8df2	0.6115409
193	0x3e8d0db7	0.27549526
194	0x3d694738	0.056952685
195	0x3db29040	0.0871892
196	0x3df48100	0.11938667
197	0x3dc7c11a	0.09753628
198	0x3cdb1649	0.026744025
199	0xbcb19ae1	-0.021680297
200	0xbe17811c	-0.14795345
201	0xbca77f2e	-0.020446386
202	0xbbe6d7b3	-0.0070447563
203	0x3c2d21ba	0.010567123
204	0xbe014160	-0.12622595
205	0x3e1f81c3	0.15576844
206	0x3e8416d2	0.2579866
207	0x3d5a76e2	0.05333603
208	0x3e2c70c9	0.16839899
209	0x3d4dba12	0.05022628
210	0xbd6c8631	-0.057745162
211	0x3e0fa5e7	0.1402813
212	0x3e895f27	0.26830408
213	0x3e21198c	0.15732402
214	0x3d241fac	0.040069267
215	0xbdec0c3f	-0.11525773
216	0xbcd2c757	-0.025729818
217	0x3e36b02d	0.17840643
218	0xbe6a08ea	-0.22854963
219	0xbf2eb8e3	-0.68250865
220	0xbe869189	-0.2628291
221	0xbea7febf	-0.32811543
222	0xbf2b4b98	-0.6691222
223	0x3db6b27f	0.08920764
224	0x3d989373	0.07449999
225	0x3dd0a1de	0.10187124
226	0xbdab04ec	-0.08350548
227	0xbd4e73bb	-0.050403338
228	0x3f600df0	0.87521267
229	0x3f003cd9	0.50092846
230	0x3e97b826	0.29632682
231	0x3b87d3a8	0.0041451044
232	0xbd27151a	-0.04079161
233	0x3dcbeb0c	0.09956941
234	0xbe5fa807	-0.21841441
235	0x3e6192f9	0.22028722
236	0x3e77bf4b	0.24194066
237	0x3c950d8b	0.018194934
238	0x3d7861cc	0.06064014
239	0xbd8d0569	-0.068857975
240	0xbef2e226	-0.47438163
241	0x3e51db0c	0.20493716
242	0x3d1ee913	0.038796496
243	0x3c3fbd3f	0.011702835
244	0x3ea0e255	0.31422678
245	0xbee00b30	-0.43758535
246	0x3d84132b	0.064489685
247	0x3d7a4bd6	0.06110748
248	0x3d637410	0.055530608
249	0x3d7653bd	0.060138453
250	0xbd8019f5	-0.06254951
251	0x3cfa4e09	0.030554788
252	0x3e04fc68	0.1298691
253	0x3e737e49	0.23778643
254	0x3e845d7e	0.2585258
255	0x3c13074a	0.008973906

lstm.weight_hh_l0 f4 [256, 64]
0	0x3e1170d6	0.142032
1	0x39ec1df6	0.0004503575
2	0x3e4872bb	0.19575016
3	0x3df6b8dd	0.120469786
4	0x3eae508e	0.34045833
5	0x3d763c5a	0.06011615
6	0x3ce9e454	0.028551258
7	0xbee688be	-0.450262
8	0xbe2abbe8	-0.16673243
9	0xbe8f7f60	-0.28026867
10	0x3d4165cd	0.047216225
11	0x3cdecc2a	0.027196962
12	0xbea25039	-0.3170183
13	0x3eaf7d7c	0.34275424
14	0xbe94af43	-0.29039964
15	0xbe0ce6af	-0.13759874
16	0x3dc67836	0.09690897
17	0x3d641874	0.055687383
18	0x3e4cd62f	0.2000358
19	0x3ce0b1ba	0.027428497
20	0xbd6fa977	-0.058511224
21	0xbcdde1f8	-0.02708529
22	0x3e06a583	0.13149075
23	0x3e48195e	0.19540927
24	0xbe0f7339	-0.14008798
25	0xbe87c729	-0.26519135
26	0xbdb68d89	-0.089137144
27	0x3c9839d3	0.01858226
28	0xba7f3fb7	-0.0009736972
29	0x3e1c2000	0.15246582
30	0x3e0d8c1f	0.13822983
31	0xbe0d2d9f	-0.13786934
32	0x3e2479a9	0.16062035
33	0x3ce1df16	0.027572196
34	0x3e723bed	0.23655672
35	0x3c849d84	0.01618839
36	0xbcb49547	-0.022043837
37	0xbe05dcd8	-0.13072526
38	0xbdd35a1a	-0.1031992
39	0x3e7feca4	0.24992615
40	0x3e2850b5	0.16437037
41	0xbcc3bc78	-0.02389358
42	0x3de2adc6	0.11068301
43	0x3da8252d	0.08210216
44	0xbddfe250	-0.109318376
45	0xbdd8bb04	-0.105825454
46	0x3d957507	0.07297712
47	0x3ce46ad7	0.027882976
48	0x3cdd4e26	0.027014803
49	0x3ec9e521	0.39432624
50	0x3e736bde	0.23771617
51	0x3ceb310c	0.02870991
52	0xbd024a5d	-0.0318092
53	0xbca98061	-0.020691099
54	0xbd4dfacc	-0.050288007
55	0xbd8c116c	-0.068392605
56	0x3e5a6202	0.2132645
57	0x3e49b9b6	0.1969975
58	0x3db44d6c	0.088038296
59	0xbe551295	-0.2080787
60	0xbe0976ae	-0.13424179
61	0xbe19503a	-0.1497201
62	0x3e59452c	0.21217793
63	0x3cb63786	0.022243273
64	0x3c22668b	0.009912143
65	0xbd467741	-0.048453573
66	0x3d2794b9	0.040913317
67	0xbddfcc0f	-0.10927593
68	0x3d4f1952	0.050561257
69	0x3c4462f4	0.011986483
70	0x3c1d497d	0.0096000405
71	0x3dca298d	0.098712064
72	0xbd15d8f6	-0.036583863
73	0xbcf5191b	-0.029919198
74	0x3de6c23d	0.11267517
75	0x3d67430c	0.056460425
76	0xbd41e529	-0.047337685
77	0x3ddb0e84	0.10696128
78	0x3c1873a6	0.0093049165
79	0x3bfefdee	0.0077817356
80	0xbd39c813	-0.04535682
81	0x3d31dec7	0.043425348
82	0xbca38fb6	-0.019965988
83	0x3d88da40	0.06682253
84	0x3e48b096	0.19598612
85	0xbcc0d2c4	-0.023538
86	0x3d4f5ac4	0.05062367
87	0x3ce4c1dd	0.027924472
88	0xbe11c9d4	-0.14237148
89	0x3e0fa7b0	0.14028811
90	0x3d4ef273	0.050524186
91	0x3da5e20b	0.08099755
92	0x3d83a17e	0.064272866
93	0x3cd78a68	0.026311114
94	0x3c28399f	0.010267644
95	0xbd1787cf	-0.03699475
96	0x3d81a380	0.06330013
97	0xbd6ae4a7	-0.057346966
98	0xbcace739	-0.02110635
99	0xbdc4904f	-0.09597837
100	0x3c93cf28	0.018043116
101	0x3e0ce1ff	0.13758086
102	0x3d9e9adb	0.0774438
103	0x3da0a311	0.078436024
104	0x3d66db95	0.056361753
105	0xbd9dc262	-0.07703091
106	0x3d86370f	0.0655347
107	0xbe0252b3	-0.1272686
108	0x3dc9c3ef	0.098518245
109	0x3db002f9	0.08594317
110	0xbdded451	-0.1088034
111	0xbb51a8ba	-0.0031991438
112	0x3b1b113a	0.002366139
113	0xbdbc12f3	-0.09183302
114	0xbc413afc	-0.011793848
115	0xbd0be350	-0.03415233
116	0x3d9e4c11	0.07729352
117	0x3c221407	0.00989247
118	0xbe1a8657	-0.15090309
119	0x3d1ee2d7	0.03879055
120	0x3cde34b5	0.027124742
121	0xbdb77d47	-0.08959442
122	0x3dc29fd6	0.095031425
123	0x3bea0014	0.0071411226
124	0xbd2fd116	-0.04292401
125	0x3d4e0793	0.050300192
126	0x3d5863dc	0.05282961
127	0xbdaa923f	-0.083286755
128	0xbe043535	-0.12910922
129	0x3d45a7f9	0.048255894
130	0x3e04b357	0.12959038
131	0xbd972c62	-0.07381512
132	0x3e0cd284	0.1375218
133	0x3e6f311d	0.23358579
134	0x3e0fd350	0.14045453
135	0x3c88277c	0.01662039
136	0xbe0a61a4	-0.1351381
137	0xbde6351e	-0.112406
138	0x3dda6713	0.10664191
139	0xbd9af7b9	-0.075667806
140	0x3ca493a4	0.020089932
141	0xbc92b196	-0.017906945
142	0xbe0ae030	-0.13562083
143	0xbe415b45	-0.18882473
144	0x3e0a551d	0.1350903
145	0xbddb9587	-0.107218795
146	0xbdb84a60	-0.08998561
147	0x3c36b0bc	0.011150535
148	0x3c50cea3	0.0127445785
149	0x3e23b59b	0.15987246
150	0x3dc3e740	0.09565592
151	0xbb1122f9	-0.002214609
152	0xbe8063f1	-0.2507625
153	0x3db8d10e	0.09024249
154	0x3d33f17a	0.043931462
155	0xbc9e1990	-0.019299299
156	0xbe62319c	-0.22089237
157	0xbd19c52a	-0.037541546
158	0x3ccb3a14	0.024807967
159	0x3d9c6a49	0.0763746
160	0x3e1a43b7	0.15064894
161	0x3c99e053	0.018783724
162	0x3e7337f2	0.2375181
163	0xbb388098	-0.002815282
164	0xbd863048	-0.06552178
165	0xbdeb9d66	-0.11504631
166	0x3dcf0633	0.10108604
167	0x3e62b69f	0.22139977
168	0xbe0b9a24	-0.13633019
169	0xbdf132d8	-0.11777276
170	0xbe3d0e09	-0.18462385
171	0x3dc772bf	0.09738683
172	0xbc5117bb	-0.012762005
173	0xbdcbf395	-0.09958569
174	0x3d6cc808	0.057807952
175	0x3dbdbf83	0.092650436
176	0x3d977161	0.07394672
177	0x3e276c72	0.16349962
178	0x3ced69f5	0.028981188
179	0xbd90926f	-0.0705918
180	0x3dbb4a28	0.091450036
181	0xbd38d326	-0.04512324
182	0xbe522244	-0.20520884
183	0x3d201027	0.039077904
184	0xbe3d3e75	-0.18480857
185	0x3e4628fd	0.19351573
186	0x3df0220a	0.117252424
187	0xbc8afe56	-0.01696698
188	0xbe37ac31	-0.1793678
189	0xbc896c13	-0.016775167
190	0x3d830787	0.0639792
191	0x3e4a3961	0.19748451
192	0x3ee22a54	0.4417292
193	0xbbd24c5c	-0.006417794
194	0x3e8502b7	0.25978634
195	0x3e5812a6	0.21100864
196	0x3e7c36e4	0.24630314
197	0xbdd8d7ba	-0.105880216
198	0x3d1d6f95	0.03843649
199	0x3df18e54	0.11794725
200	0xbe7111bb	-0.2354192
201	0xbef374f6	-0.47550172
202	0xbdd873b1	-0.105689414
203	0xbbbeaa92	-0.0058186734
204	0xbea6eab8	-0.3260095
205	0xbbcb4cf5	-0.0062042424
206	0x3db5d071	0.08877648
207	0x3e7b841e	0.24562117
208	0xbc9a9e7c	-0.0188744
209	0xbf11098f	-0.5665521
210	0x3dcea180	0.100893974
211	0x3ee92426	0.45535392
212	0x3d94a1b1	0.07257403
213	0x3d03c184	0.032166973
214	0x3e3087bf	0.17239283
215	0x3d3e9416	0.046527945
216	0xbdfe8552	-0.124277726
217	0xbd4996ba	-0.04921601
218	0x3f0bacfb	0.5456082
219	0xbe80c8d3	-0.25153217
220	0x3beb6754	0.0071839485
221	0x3dd0fa4a	0.10203989
222	0xbf21eab3	-0.6324875
223	0x3ef305c4	0.47465336
224	0x3e77349f	0.24141167
225	0xbbec0659	-0.007202905
226	0x3d635543	0.055501234
227	0x3c192e3b	0.009349401
228	0xbe99536d	-0.2994646
229	0x3e338142	0.17529777
230	0x3ee0f78c	0.43938863
231	0x3e8d0fc8	0.27551103
232	0xbd85ed98	-0.06539458
233	0xbbddc766	-0.006768155
234	0xbf0f8c4e	-0.5607346
235	0x3dc4a7c2	0.0960231
236	0x3c90395e	0.01760548
237	0xbe6cb114	-0.23114425
238	0xbef0a6d5	-0.47002283
239	0x3f0cda42	0.55020535
240	0x3c921055	0.017830053
241	0x3dd6a5a1	0.1048081
242	0x3e7220c3	0.2364531
243	0x3e26a1b0	0.16272616
244	0x3d4b2d6f	0.049603876
245	0x3eb6899a	0.35651857
246	0x3d3c4fed	0.04597466
247	0xbdfd8d32	-0.123804465
248	0x3e3a85e0	0.18215132
249	0x3dda7717	0.10667246
250	0x3cb03667	0.021510316
251	0xbe83de13	-0.25755367
252	0x3ef11c1b	0.47091755
253	0x3c57d66e	0.013173683
254	0xbf01cdd2	-0.5070468
255	0x3c4109e1	0.0117821405

lstm.bias_ih_l0 f4 [256]
0	0x3e0b5eb0	0.13610339
1	0xbdeadd35	-0.11467973
2	0xbb07516a	-0.0020647892
3	0x3f06ddb9	0.5268207
4	0x3e9e3831	0.30902246
5	0x3e64bcdf	0.22337674
6	0xbccaf6c8	-0.024775878
7	0x3d7c061f	0.061529275
8	0x3cf86f56	0.030326527
9	0x3d74003e	0.059570543
10	0xbe7663b5	-0.24061473
11	0xbe3675ad	-0.17818327
12	0x3e1d3fc0	0.1535635
13	0xbe9e933a	-0.309717
14	0xbe02ca0c	-0.12772387
15	0x3e79356a	0.24336782
16	0xbdbda588	-0.09260088
17	0x3d554a43	0.052072775
18	0xbe36f2d7	-0.17866074
19	0x3e0ff100	0.14056778
20	0x3ebb64fb	0.3660048
21	0x3dce588a	0.10075481
22	0x3c2bda49	0.010489055
23	0xbeb04644	-0.34428608
24	0xbd22da1e	-0.039758794
25	0x3e388687	0.18020068
26	0x3e8700b0	0.26367712
27	0x3db51914	0.08842674
28	0x3e73b9f5	0.23801406
29	0x3e7187cf	0.23586963
30	0xbe837dd5	-0.2568194
31	0x3e59e16c	0.21277398
32	0xbcac042a	-0.02099808
33	0x3c291432	0.010319756
34	0x3e9a6f30	0.30162954
35	0xbbd4cd00	-0.0064941645
36	0xbd805000	-0.06265259
37	0x3dfa5b02	0.122243896
38	0x3e374623	0.17897849
39	0x3d631419	0.05543909
40	0x3dbb04d3	0.091317795
41	0x3d528a3f	0.051401373
42	0x3e00ba8e	0.12571165
43	0xbe534b92	-0.20634297
44	0xbe8b3bb0	-0.27193975
45	0xbd45c363	-0.04828204
46	0x3e3b1c43	0.182725
47	0x3e544cc6	0.20732412
48	0xbd29f85c	-0.04149662
49	0x3e39b744	0.18136317
50	0x3ddfa972	0.10920991
51	0x3dea3b8b	0.11437138
52	0xbcb9f886	-0.022701513
53	0xbed14d59	-0.40879324
54	0xbdf277b5	-0.118392386
55	0xbd3da7ac	-0.046302482
56	0x3cab07fd	0.020877833
57	0xbd16850d	-0.03674798
58	0xbe478a2c	-0.19486302
59	0xbe0360a7	-0.12829839
60	0x3e76900c	0.24078387
61	0x3cea24f4	0.028582074
62	0xbd964cc2	-0.07338859
63	0xbe5d1eea	-0.21593824
64	0xbec9b890	-0.39398623
65	0xbe02e10f	-0.12781166
66	0x3dd1e89f	0.10249447
67	0x3f022e0f	0.5085153
68	0x3ed489be	0.4151134
69	0x3dd7061f	0.104992144
70	0xbd93195a	-0.0718257
71	0xbcf65e95	-0.030074397
72	0x3e8d012d	0.2753996
73	0x3d9fb39b	0.07797929
74	0xbd3d551c	-0.046223745
75	0x3d30cec2	0.04316593
76	0x3dd587a9	0.10426266
77	0xbe833f8e	-0.25634426
78	0x3e1a2408	0.15052807
79	0xbeb01483	-0.3439065
80	0xbda77f17	-0.08178537
81	0x3d7a4751	0.06110317
82	0x3cde7f4b	0.027160307
83	0x3e049764	0.12948376
84	0xbd367439	-0.044544432
85	0x3cb88352	0.022523556
86	0x3d333a50	0.043756783
87	0x3e13d0a4	0.14435059
88	0xbe43af34	-0.19109803
89	0x3e68a224	0.22718102
90	0x3e173bd8	0.14768922
91	0x3e28e97d	0.16495319
92	0xbd81be36	-0.06335108
93	0xbd678580	-0.0565238
94	0xbe829035	-0.25500646
95	0x3d95362a	0.072857216
96	0xbe64d7b9	-0.22347917
97	0xbdd8041a	-0.10547657
98	0x3e45d906	0.19321069
99	0x3dd97d59	0.10619611
100	0x3dbb988b	0.09159955
101	0x3cce7527	0.025202347
102	0x3e3b87fd	0.18313594
103	0x3e29ebac	0.16593808
104	0x3d71e4b0	0.059055984
105	0xbd9bc440	-0.07605791
106	0xbc518d2b	-0.012790005
107	0x3db2d07b	0.08731171
108	0x3dd0cbdb	0.10195132
109	0xbe7c266d	-0.24624033
110	0x3ed81da2	0.42210108
111	0xbdbf6fef	-0.093475215
112	0x3dc837c3	0.09776261
113	0xbe3c82bc	-0.18409246
114	0xbe4e649c	-0.20155567
115	0x3e33a82d	0.17544623
116	0x3b58e942	0.0033098017
117	0xbdc30278	-0.09521955
118	0x3e39ad4a	0.18132511
119	0xbe08ccf6	-0.13359436
120	0xbe900288	-0.2812693
121	0x3c04786d	0.008085352
122	0x3dd9c3e9	0.1063307
123	0x3e5eb6ff	0.21749495
124	0x3b9ad49b	0.0047250516
125	0xbd15b3ee	-0.036548547
126	0x3e61937b	0.22028916
127	0x3da7da90	0.08195984
128	0x3e0eab93	0.13932638
129	0xbe772210	-0.24134088
130	0x3c0cdb9c	0.008597281
131	0xbd480991	-0.04883725
132	0x3d178bfa	0.036998726
133	0x3dcc07b0	0.09962404
134	0xbe0f6ea4	-0.1400705
135	0x3c01b7f9	0.007917398
136	0xbd5a8aac	-0.053354904
137	0xbd4502f9	-0.048098538
138	0xbd9cbb65	-0.0765293
139	0xbe18aa3f	-0.14908694
140	0xbe2d78d2	-0.1694062
141	0xbdd599b5	-0.10429708
142	0xbd7c55f7	-0.06160542
143	0x3d639996	0.055566393
144	0x3c82e44a	0.015977997
145	0xbcfb63fd	-0.030687327
146	0xbdd31300	-0.10306358
147	0x3dc01867	0.093796544
148	0x3db80d51	0.08986915
149	0x3b8bc43d	0.004265337
150	0x3c2a2b6d	0.01038633
151	0xbd69d371	-0.057086412
152	0x3e3579c8	0.17722237
153	0x3cb26c81	0.021780254
154	0xbc9d9cd0	-0.019239813
155	0xbe02bff0	-0.12768531
156	0xbe288921	-0.1645856
157	0x3da70e76	0.08157055
158	0x3f408e3f	0.7521705
159	0xbbd8deff	-0.00661838
160	0xbf1d75be	-0.61507785
161	0x3df23298	0.11826056
162	0x3ecfe3a6	0.4060337
163	0xbdc358cf	-0.09538423
164	0x3d9ebaa2	0.07750441
165	0x3d6470f2	0.055771776
166	0x3ddb0c8e	0.10695754
167	0xbdb4b04c	-0.088226885
168	0x3daa926b	0.08328708
169	0xbda4f30b	-0.08054169
170	0xbdc8a86d	-0.0979775
171	0xbd32f3fc	-0.043689713
172	0x3ddeefb3	0.10885563
173	0xbd8cc9d7	-0.068744354
174	0x3df57e1a	0.119869426
175	0x3e0b1b9b	0.1358475
176	0xbe118862	-0.14212182
177	0xbdda555c	-0.10660812
178	0xbc577321	-0.013150007
179	0x3ded8a72	0.11598672
180	0x3c96a9cf	0.018391518
181	0xbd6e7c8c	-0.058224246
182	0x3bda6c15	0.0066657164
183	0x3d051f49	0.03250054
184	0x3e7ad14f	0.24493907
185	0xbd949f09	-0.07256896
186	0xbda8e3c9	-0.082465716
187	0xbf0ad92d	-0.54237634
188	0xbf203e1b	-0.62594765
189	0x3cdff7c4	0.027339824
190	0x3dd08d66	0.101832196
191	0x3e06db65	0.1316963
192	0xbdc3ca86	-0.09560113
193	0xbead9017	-0.33898994
194	0xbe608371	-0.21925141
195	0x3e66bd3a	0.22533122
196	0x3ded5d33	0.11590042
197	0xbdc2fc27	-0.095207505
198	0xbf47c383	-0.780327
199	0xbdacafed	-0.08431993
200	0xbdc7cf92	-0.09756388
201	0x3e3d2de2	0.18474534
202	0xbeb34fdc	-0.35021865
203	0xbdc8d992	-0.09807123
204	0x3ebbe5d5	0.36698785
205	0x3e553047	0.20819198
206	0xbcb1d063	-0.021705812
207	0xbe8ac064	-0.27099907
208	0x3b5f2634	0.003404987
209	0x3e0d4366	0.13795242
210	0xbe58bece	-0.21166536
211	0xbc97e047	-0.018539561
212	0x3f228bf2	0.6349479
213	0x3c77426b	0.015091519
214	0xbe2dda2f	-0.16977762
215	0x3d5afd83	0.053464424
216	0xbed80909	-0.42194393
217	0x3e9f21d4	0.31080496
218	0x3f37036c	0.71489596
219	0xbdb04a89	-0.086079665
220	0xbdc951c6	-0.0983005
221	0xbea1b2b6	-0.31581658
222	0x3ddc3800	0.10752869
223	0xbdc3b53a	-0.095560506
224	0x3e833581	0.25626758
225	0xbb625281	-0.003453404
226	0x3e3af1a9	0.18256249
227	0x3e1b6ca9	0.1517817
228	0x3ef73615	0.4828345
229	0x3f7118d6	0.9417852
230	0x3ecc818b	0.39942583
231	0xbe00e94c	-0.12588996
232	0x3e6c06ee	0.23049518
233	0xbe0e8930	-0.1391952
234	0x3dca117f	0.09866618
235	0x3e0699b4	0.1314457
236	0xbe58a9c9	-0.21158518
237	0x3e915ae7	0.28389665
238	0x3e59fb6a	0.21287313
239	0x3e26ccc4	0.1628905
240	0xbec6eaf2	-0.38851124
241	0x3e9297d4	0.2863146
242	0x3e6b3807	0.22970591
243	0x3e02722b	0.12738864
244	0x3d458ee3	0.04823197
245	0x3d550381	0.052005295
246	0x3cd94409	0.0265217
247	0x3e9b2a5a	0.3030575
248	0xbdce9ecd	-0.100888826
249	0x3d329a79	0.043604348
250	0xbce457e9	-0.02787395
251	0x3df93503	0.12168314
252	0x3a4b20ad	0.00077487045
253	0xbdab1e7d	-0.083554246
254	0xbfce201d	-1.610355
255	0x3a988e0a	0.0011639011

lstm.bias_hh_l0 f4 [256]
0	0xbcf62ffe	-0.030052181
1	0xbb6af469	-0.0035851246
2	0x3c53edc5	0.012935107
3	0x3f12d776	0.5736002
4	0x3e2c4641	0.16823675
5	0x3e2c6712	0.16836193
6	0xbc2b9d8f	-0.010474577
7	0x3a99e4f4	0.0011741207
8	0xbcd229a6	-0.025654625
9	0x3d9ebd21	0.07750917
10	0xbd65c25b	-0.056093555
11	0xbe44534b	-0.19172399
12	0x3d680eff	0.056654926
13	0xbeca2db8	-0.39488006
14	0xbe18c6e8	-0.14919627
15	0x3df29266	0.118443295
16	0xbe223ce8	-0.15843546
17	0x3da45823	0.08024623
18	0xbd943e4b	-0.07238444
19	0x3dc926f3	0.09821882
20	0x3ea67a95	0.32515398
21	0xbd9140c8	-0.07092434
22	0x3e1bb110	0.15204263
23	0xbe1cb197	-0.1530212
24	0xbdc33e0d	-0.095333196
25	0x3e95175a	0.29119378
26	0x3d81bf40	0.06335306
27	0x3c8b31c6	0.016991507
28	0x3ecb804a	0.39746314
29	0x3e5d6d71	0.2162378
30	0xbea4a59f	-0.3215761
31	0x3d4715ec	0.04860489
32	0xbdb54dcc	-0.08852729
33	0x3d5b30a1	0.053513173
34	0x3e8bab93	0.27279338
35	0x3d93b64b	0.07212504
36	0xbe477e8a	-0.19481865
37	0x3c2c30bd	0.010509667
38	0x3ea6209e	0.3244676
39	0xbb4a4a57	-0.0030867064
40	0x3e903820	0.2816782
41	0x3d31e5b4	0.043431953
42	0x3e4a4b7d	0.19755359
43	0xbe2b357a	-0.16719618
44	0xbe106bd0	-0.14103627
45	0x3c05e3ff	0.008172034
46	0x3e94b389	0.29043224
47	0x3e0532f5	0.1300772
48	0x3b733429	0.0037109947
49	0x3de8e884	0.11372474
50	0x3e8d5e4d	0.27611008
51	0x3ceca53a	0.02888738
52	0xbe3b1b38	-0.18272102
53	0xbea9406f	-0.3305697
54	0xbe53dbb3	-0.20689277
55	0x3c79ea65	0.015253638
56	0xbe093061	-0.13397361
57	0xbd7f3b25	-0.062312264
58	0xbc29cc34	-0.010363627
59	0xbe03a949	-0.12857546
60	0x3e9de32a	0.30837375
61	0x3d46ddf0	0.0485515
62	0x3c3496f1	0.011022315
63	0xbdcb3033	-0.09921303
64	0xbe4ccb45	-0.19999416
65	0x3d5f8087	0.054565933
66	0x3e02928a	0.12751213
67	0x3ef0c191	0.4702268
68	0x3ecb3fbd	0.39697066
69	0x3cd96c0d	0.02654078
70	0x3d12bae3	0.03582276
71	0x3d34af28	0.044112355
72	0x3e80db2f	0.25167224
73	0x3cff8c02	0.03119469
74	0x3d8e71f5	0.06955329
75	0x3d178e68	0.037001044
76	0x3e048d58	0.12944543
77	0xbe4c060e	-0.19924185
78	0x3d20d2e0	0.039263606
79	0xbebb5260	-0.36586285
80	0xbdfe7390	-0.124243855
81	0x3e84ba1a	0.25923234
82	0x3e553516	0.20821032
83	0x3e140220	0.14453936
84	0x3dd1b81f	0.102401964
85	0x3d83af55	0.06429926
86	0xbdbec78e	-0.09315406
87	0xbceb159d	-0.02869683
88	0xbe3190f7	-0.17340456
89	0x3e016ba3	0.12638716
90	0x3c481c08	0.012213714
91	0x3e28fce7	0.16502725
92	0xbd0b9e6c	-0.03408663
93	0xbe15220f	-0.14563774
94	0xbe7e2bef	-0.24821447
95	0x3d7c30e3	0.06157006
96	0xbd2e025c	-0.04248272
97	0xbdbaee4a	-0.09127481
98	0x3e544e45	0.20732982
99	0x3e1acb56	0.15116629
100	0xbc0814e5	-0.008305763
101	0x3d500aeb	0.050791662
102	0x3df19fb5	0.1179804
103	0x3e0975c8	0.13423836
104	0x3c85cac8	0.016332045
105	0x3de3b82e	0.11119114
106	0x3d88f3bd	0.066871144
107	0x3e608e5a	0.21929303
108	0x3d9cf62e	0.076641425
109	0xbe24e93c	-0.16104597
110	0x3e7c9263	0.24665217
111	0xbe8062a1	-0.25075248
112	0x3e5073db	0.20356695
113	0xbc6e7bc5	-0.014555876
114	0xbe084629	-0.13308014
115	0x3df557f2	0.11979665
116	0x3da01e58	0.078182876
117	0xbe3fdaee	-0.18735859
118	0x3c356269	0.011070826
119	0xbe5c7622	-0.21529439
120	0xbdc11aec	-0.09428963
121	0x3d4255d6	0.04744514
122	0x3c8560db	0.016281536
123	0x3e9356ad	0.28777066
124	0x3daeea4e	0.08540784
125	0x3d7a8e93	0.061171126
126	0x3e7332c0	0.23749828
127	0x3da3dbf8	0.0800094
128	0x3d2fdf1b	0.04293738
129	0xbde18084	-0.110108405
130	0xbe2cb15b	-0.1686453
131	0xbdd3b796	-0.103377506
132	0x3d06bc2f	0.03289431
133	0x3e1c64e4	0.15272862
134	0xbdb7a13f	-0.08966302
135	0x3e332542	0.17494681
136	0xbe903a4c	-0.28169477
137	0xbcc71dde	-0.024306234
138	0x3d95a35a	0.073065475
139	0xbda5f5ae	-0.081035
140	0x3c4c4028	0.012466468
141	0xbe265944	-0.1624499
142	0x3c6347d7	0.013872108
143	0x3e55c5b4	0.20876199
144	0x3d942a2a	0.07234605
145	0xbd00a758	-0.03140959
146	0xbb2dce91	-0.0026520828
147	0xbdc132f3	-0.09433546
148	0x3dea2fbe	0.11434887
149	0x3d3fd9f5	0.04683872
150	0xbd027705	-0.031851787
151	0xbdb14d96	-0.086573765
152	0xbc8a9386	-0.016916048
153	0xbdb12802	-0.08650209
154	0xbd94d47e	-0.07267092
155	0x3b0da6f3	0.0021614402
156	0xbdcd136c	-0.1001347
157	0x3e457add	0.1928515
158	0x3f2d16fa	0.67613184
159	0x3d9a2c69	0.07528002
160	0xbefa7f11	-0.4892507
161	0xbde2807a	-0.11059661
162	0x3e8eb187	0.27869818
163	0xbd415d18	-0.04720792
164	0x3d0afbe1	0.033931617
165	0x3caf8552	0.021425877
166	0x3e1b88fe	0.15188977
167	0x3dbd5d1e	0.09246276
168	0x3ca82494	0.020525254
169	0xbd0bd98b	-0.034143012
170	0xbde2be7e	-0.1107149
171	0xbc066c6a	-0.008204559
172	0x3e22bf0e	0.15893194
173	0xbd199ba6	-0.037501954
174	0x3e39679b	0.18105929
175	0x3c84b435	0.01619921
176	0xbe0ecdf3	-0.13945751
177	0xbe1cf51e	-0.1532788
178	0xbd02277b	-0.031775933
179	0x3de656b1	0.11247004
180	0x3d7fa10c	0.062409446
181	0xbdcd9eab	-0.10040029
182	0x3ddf31af	0.10898148
183	0x3e60eed7	0.2196611
184	0x3e8b60d5	0.27222314
185	0x3da2f5cb	0.079570375
186	0xbc6f921a	-0.014622236
187	0xbf29023d	-0.6601904
188	0xbf33e8da	-0.7027718
189	0x3d5364cc	0.0516098
190	0xbde8e408	-0.113716185
191	0x3dfda73d	0.12385414
192	0xbe61e9e4	-0.22061878
193	0xbe9c8db3	-0.30576858
194	0xbe6fa1b0	-0.23401523
195	0x3e335fee	0.17517063
196	0x3e1bfdc9	0.1523353
197	0xbd9cd4ae	-0.07657753
198	0xbf28eead	-0.6598919
199	0x3cbf1fa1	0.023330512
200	0x3b65a058	0.00350382
201	0x3e3aac7f	0.18229865
202	0xbe6d5072	-0.23175219
203	0xbdcd2f7e	-0.10018824
204	0x3e957ae1	0.29195312
205	0x3d941610	0.072307706
206	0x3d8a0260	0.06738734
207	0xbe151033	-0.14556961
208	0x3cd76baf	0.026296465
209	0x3e0fadab	0.14031093
210	0xbc1c9dbc	-0.009559091
211	0xbd0d3562	-0.034474738
212	0x3f174c2e	0.59100616
213	0xbccc4bb0	-0.024938434
214	0xbb91baa2	-0.004447297
215	0xbce4dea1	-0.027938189
216	0xbea78c60	-0.32724285
217	0x3e94a5f5	0.29032865
218	0x3f16f7ec	0.5897205
219	0xbe16633a	-0.1468629
220	0xbd130530	-0.03589362
221	0xbed4278f	-0.4143643
222	0x3d141ef2	0.036162324
223	0xbdc430e9	-0.09579641
224	0x3d4af15a	0.049546577
225	0xbe19a8e4	-0.15005833
226	0x3dea5cec	0.11443505
227	0x3e25923b	0.16169064
228	0x3f19497f	0.5987777
229	0x3f797b92	0.9745418
230	0x3e650103	0.22363667
231	0xbd9e1d55	-0.077204384
232	0x3d9c70d5	0.076387085
233	0xbe358184	-0.17725188
234	0x3e15e1df	0.14636944
235	0x3da857e3	0.08219888
236	0xbe9c2034	-0.3049332
237	0x3e806933	0.2508026
238	0x3dfcbf0d	0.123411275
239	0x3e58351b	0.21114008
240	0xbe458285	-0.1928807
241	0x3e03a86c	0.12857217
242	0x3e57f8df	0.2109103
243	0x3e25c400	0.1618805
244	0x3e5cf526	0.21577892
245	0x3d125621	0.03572667
246	0xbd752eea	-0.059859194
247	0x3e8cfbf3	0.27535972
248	0xbe5310cc	-0.20611876
249	0x3d9ac272	0.07556619
250	0x3d6b2aa6	0.05741372
251	0x3e523ad1	0.20530249
252	0x3d933d41	0.07189418
253	0xbd7e7016	-0.062118612
254	0xbfbc84ab	-1.4727987
255	0x3e5b1f2e	0.21398613

fc.weight f4 [1, 64]
0	0x3f000e91	0.50022227
1	0xbd5b5171	-0.053544465
2	0x3e3b21ad	0.18274565
3	0x3ea89133	0.32923278
4	0xbe3e5395	-0.18586572
5	0xbe7b95f7	-0.24568926
6	0xbef44d20	-0.47715092
7	0xbdce80ab	-0.10083135
8	0xbb787328	-0.0037910435
9	0x3e3f46a4	0.18679291
10	0x3c954a69	0.018223958
11	0x3ea2eb83	0.31820306
12	0x3d9cd373	0.07657518
13	0xbd4da711	-0.050208155
14	0xbc9f38fb	-0.01943635
15	0xbea5b26f	-0.32362697
16	0x3d2ae8ac	0.0417258
17	0x3fa07272	1.2534926
18	0xbd034b37	-0.032054152
19	0xbf91e585	-1.1398169
20	0xbe50303f	-0.20330904
21	0xbcca6093	-0.024704253
22	0x3d69a91d	0.057046045
23	0x3bd66331	0.0065425863
24	0x3e88a5d1	0.26689008
25	0xbd0a6a5d	-0.033792842
26	0xbf0bfa14	-0.54678464
27	0xbd0febdf	-0.035137054
28	0x3d9bbfea	0.07604964
29	0x3e0ed540	0.13948536
30	0xc05735c1	-3.3626559
31	0xbf6553bb	-0.8958089
32	0x3ecfa8e2	0.40558535
33	0xbb81586d	-0.0039473088
34	0xbe09ee40	-0.13469791
35	0xbe4b3086	-0.19842729
36	0x3effa951	0.49933866
37	0xc0ab7480	-5.357971
38	0xbdbe6d4c	-0.092981905
39	0x3d04209d	0.032257665
40	0xbd5bb6dc	-0.053641185
41	0x3d85f5c5	0.065410174
42	0x3fb6420a	1.4238904
43	0xbd8f6b7b	-0.07002922
44	0x3c9f512a	0.019447882
45	0x3fcc22c3	1.5948108
46	0xbda5f4e9	-0.081033535
47	0xbdc3f09f	-0.09567379
48	0xbc54bcf9	-0.012984508
49	0x3ca34680	0.019931078
50	0x3dcde1e5	0.100528516
51	0x3b7242dc	0.003696612
52	0xbd83e17f	-0.06439494
53	0x3d39a340	0.045321703
54	0xbe08c54d	-0.13356514
55	0xbeb430c2	-0.3519345
56	0x3e31dedc	0.1737017
57	0x3b799d17	0.0038088018
58	0x3d38522b	0.045000236
59	0x3fa385b4	1.2775178
60	0x40056ff7	2.0849588
61	0xbd7d28b1	-0.061806384
62	0xc190b1c8	-18.086807
63	0x3e24ffec	0.16113251
